weights_new/DecoderEpochnew975_20_8.pt (torch_old, 461851 bytes, 33 tensors)

attn_layer.0.weight f4 [64, 192]
00000000: 6a48 963f b118 b33f 5314 b9bd bcb1 01bf
00000010: 55e0 ecbd d44c 113e c147 0abf 8db5 a3be
00000020: 8543 293f da70 423f bac1 ecbe 6f7f 433f
00000030: c0e7 123f a952 e2be 8d59 e93c 35ba 8b3f
00000040: e800 303f 1fc6 26be 0aa1 98bf e7be 6fbe
00000050: cbb1 d63e e474 073f acbc a03e fa16 4d3e
00000060: ef6c 7a3d e761 0b3f 2b04 853e ec89 143f
00000070: c896 263f 9c8f 77bf 7e75 703f 618e e1bf
00000080: 55d4 2a3f b934 d63c 987c 6a3e d31a 99be
00000090: d057 d13e d856 a73e 6b88 943f 6109 17bf
000000a0: b272 2dbe 4106 303f 039d 6c3f b5be fe3d
000000b0: 3d29 5b3f d857 b4bf 8a1f 9a3f ab7b 37bf
000000c0: b093 433f e729 433f 01a7 56be c286 72ba
000000d0: 7d78 49bf cace 803f f7ca ee3e cc69 773f
000000e0: 3b7b c3bd 4665 79bf 6366 343f 7cdd 3c3f
000000f0: 8ffd 053f 38a7 823f b6f8 c9bd bb2a ebbe
00000100: 0c7b d23f 4a1a b73f 6099 bebe ed37 f3be
00000110: 7c45 a2bd 18f5 9b3e 9fd6 0bbf c17f 88be
00000120: 0504 8b3f 6e2f 063f 28b8 1abf b3a9 be3e
00000130: 6fdf 933e 30b1 2fbe 74ff c8be 0153 863f
00000140: af6b 163f 2b94 b43d 2bf0 cdbf dfac 84be
00000150: 86a6 413f 3273 8f3f 0825 4b3f e37b dd3e
00000160: 1b1b 2e3b c7fb c13e c895 cc3d 3039 4b3e
00000170: 8fa1 393f a42c 2bbf 0d6b 363f d3af bfbf
00000180: 94f3 4e3f 8701 1d3e 57ae 673e 0c1c afbe
00000190: 9cfd 1d3f 681a 3a3f 3408 433f a638 49bf
000001a0: f477 23be b9a7 453f 57db 823f 4518 303e
000001b0: 4679 8d3f cdf1 d3bf 9529 813f 86c9 66bf
000001c0: c551 5f3f 3ca6 283f 99a9 b9be be27 e43e
000001d0: 23ec d8bf daa5 763f c4b7 d03e ddb7 253f
000001e0: 89b0 76be fbbf 91bf 1d41 1d3f 65d2 7e3f
000001f0: 713d 3c3f 2b65 c73f 4cbc 873e a810 65bf
00000200: da96 fabe 2f20 72bd 5c4c 24bd e63b b4bd
00000210: f888 103d 2149 2ebf 8c4c 733c 9d3d 1a3f
00000220: 9f1b cbbe 4c95 523e 769f f63e 5a12 80be
00000230: 3199 1e40 0964 d5be a321 2fbf fcff e8be
00000240: 5d5d 123f acb6 b03c 917e 363e 36ce f63e
00000250: 8f90 39bf 4886 1bbf 0560 3b3f 76ca 163f
00000260: 328a 6b3e 6afb a13d 514c 0ebe 9db1 1dbf
00000270: b3ec 77bf a1a4 15be 5668 c83f f9f6 9c3d
00000280: 7bca b93f 44c5 b6be 5839 e63e a7b5 4a3e
00000290: e00e f7bd d836 163e 90c5 9e3e a1e6 803f
000002a0: 6332 173f 671d 8d3e 41ff 2cbc 857b 8b3f
000002b0: 3de7 25bd f092 67be d79c 1cbe c6eb 913c
000002c0: e9af 493e ead3 af3e 44d9 683e 5612 9f3e
000002d0: a7fa 82be 2957 39be 258d 8cbd e7e8 2ebe
000002e0: eb1c f73e e9cd 993d 7de8 0ebc 3dfb 143e
000002f0: 57a5 7bbe a9f5 9b3e a291 45bf 5886 b5be
00000300: 7897 37bd f448 e2be 052c c5be ddfb 2c3e
00000310: 8f6b 28bc dc47 f13e 5e18 c2be 6abc a23e
00000320: 738d 8b3e 1cf8 2cbf 9959 7a3f 2f34 b23e
00000330: 3e6c 28bf 7ab6 56bf 093b 5fbe cbda ddbe
00000340: f3aa 333e e3a7 bfbe 42e0 9f3f 7e39 183f
00000350: a6f5 8a3f 6558 1bbe db6e 54bf 1c91 be3e
00000360: 2101 2b3f d3c0 52bf c91a dcbe b3cc 653f
00000370: 0ba4 583e ba9b 803f 0865 08bf 5077 3d3f
00000380: 17c8 c6bf 0d51 2cbf 8b8e 87bf f875 613f
00000390: 63b0 a3bf fe70 6d3f facf 1a3f bed8 a43f
000003a0: 830d 08bf e3c4 49bf 881f 5d3e 8d68 ea3e
000003b0: deb6 0fbe 16c6 9cbe 5902 77bd 8ebc 5d3f
000003c0: 854c 0dbe 61f4 22bf e2e1 53bf 6160 3cbf
000003d0: 3755 a4be 4c49 80bf 2f2b 58bf 2a59 aabf
000003e0: 6cc4 61bf 28d7 b03d 0878 ccbe a402 0fbf
000003f0: 2cab 2fbe 3ba0 4d3e 951f a43f a355 ae3f
1.1740849 1.399191 -0.0903708 -0.50661826 -0.115662254 0.14189464 -0.5401574 -0.3197445
0.6611865 0.7595345 -0.46241552 0.76366323 0.5738487 -0.4420369 0.028485084 1.0916201
0.6875138 -0.16286515 -1.1924145 -0.23412667 0.4193252 0.52912736 0.31393945 0.20028296
0.061139043 0.5444626 0.25979742 0.5802295 0.65073824 -0.96703506 0.9392928 -1.7621576
0.6673024 0.026148187 0.22899091 -0.29903278 0.40887308 0.32683444 1.1604131 -0.58998686
-0.16938284 0.6875954 0.9242708 0.12438718 0.856098 -1.4089308 1.2040875 -0.7167308
0.7639723 0.7623581 -0.20962144 -0.0009251648 -0.78699476 1.0063107 0.46639225 0.9664581
-0.09544989 -0.97420156 0.7046873 0.7377546 0.52340025 1.0207281 -0.09861891 -0.45931038
1.6443801 1.4304898 -0.3722639 -0.47503605 -0.07923409 0.3046043 -0.5462436 -0.26659968
1.0860602 0.5241612 -0.6043725 0.37238845 0.28881404 -0.17157435 -0.39257395 1.0494081
0.5875806 0.08817323 -1.6088918 -0.2591314 0.7564472 1.120703 0.7935338 0.4325858
0.002656645 0.37887403 0.09989506 0.19846034 0.72512144 -0.6686499 0.71257097 -1.4975532
0.8084042 0.15332614 0.22625099 -0.34201086 0.617151 0.7269654 0.7618439 -0.78602064
-0.15963727 0.7720905 1.0223187 0.17196758 1.1052635 -1.6558167 1.0090815 -0.9015125
0.87234145 0.65878654 -0.36262205 0.4456157 -1.6947063 0.9634682 0.40765202 0.6473368
-0.2409078 -1.1386713 0.6142748 0.99539787 0.7353125 1.5577749 0.26510847 -0.8947854
-0.48943216 -0.059112724 -0.040111884 -0.08800487 0.035286874 -0.68080336 0.014849793 0.60250264
-0.3966951 0.20564765 0.48168534 -0.25014 2.4781 -0.41677883 -0.684107 -0.455078
0.5717371 0.02157148 0.17821719 0.482042 -0.72486204 -0.6075177 0.7319339 0.5890268
0.23001936 0.079092816 -0.138963 -0.6159914 -0.9684555 -0.14613582 1.5656841 0.07664294
1.4514917 -0.35697377 0.44965625 0.19795857 -0.12063384 0.14669359 0.31010103 1.0070382
0.5906126 0.27561495 -0.010558904 1.089707 -0.04050373 -0.22614646 -0.15294205 0.01781262
0.1969601 0.34341365 0.2273913 0.31068677 -0.25581858 -0.18099655 -0.06862859 -0.17081033
0.4826425 0.07509977 -0.008722422 0.14548965 -0.24574791 0.3046086 -0.77175343 -0.3545406
-0.044822186 -0.44196284 -0.38510147 0.16892953 -0.01027955 0.47125137 -0.37909216 0.31784374
0.27256355 -0.67566085 0.97792965 0.34805438 -0.65790164 -0.8387219 -0.21799864 -0.43330988
0.1754568 -0.37432775 1.2490313 0.59462726 1.0856216 -0.15170439 -0.8298165 0.37220085
0.667986 -0.82325476 -0.42989185 0.8976547 0.21156327 1.0047524 -0.5327916 0.7401018
-1.5529813 -0.67311174 -1.0590376 0.8807063 -1.2788204 0.9275054 0.604736 1.2878644
-0.5314562 -0.7881605 0.2159406 0.4578289 -0.14034602 -0.30619878 -0.060304973 0.86615837
-0.13798721 -0.6365414 -0.82766545 -0.7358456 -0.32096264 -1.0022368 -0.8444089 -1.3308461
-0.8819034 0.08634788 -0.39935327 -0.55863404 -0.1715514 0.20080654 1.2822138 1.3619884

attn_layer.0.bias f4 [64]
00000000: aa96 183f d2dc 393f 518c 253f f3f9 8dbf
00000010: 1c70 833f 3a39 02be 8fae a83e 831a 0bbf
00000020: f1bc 823f 6de9 043f 00f3 80be 8198 ff3b
00000030: ad5e c3be 1514 103f d91a 32be 8c89 82bf
00000040: 4b75 44bf 7995 683e a13f 833f 1a28 963d
00000050: 74f1 3c3f ad64 453e b24d 8b3f ddc0 ccbf
00000060: cc2c 8dbf 3146 42be 80a0 053f b464 59be
00000070: 82f0 903e 2732 023f 6af4 8d3d 4eaa 8f3f
00000080: a267 8c3f 92e0 c1be 8324 133e 0feb 8b3e
00000090: 29f9 09bd 8eb9 223e 8649 5cbe e306 fd3e
000000a0: c205 8b3d 8830 a13f c585 ce3f 59c9 a5bf
000000b0: 7327 b23e c30d 1b3f d19c b43e 5edf 28bf
000000c0: 3b51 0b3f f2de 36bf a3ae acbf 0803 61bf
000000d0: edad 2ebf 4dde c03d 8cf1 9ebe bea2 d13e
000000e0: 00f1 1d3e 9cbb e4be 61f1 d5bc aa67 3a3e
000000f0: 7c5b 30bf df87 b6be cc11 dabe d1c1 3abf
0.59604895 0.7260257 0.6466723 -1.1091903 1.0268588 -0.12717143 0.32945678 -0.5433733
1.021391 0.5191868 -0.25185394 0.0078001623 -0.3815817 0.5628064 -0.17393054 -1.0198226
-0.76741475 0.2271327 1.0253793 0.073318675 0.7380593 0.19276686 1.0883086 -1.5996357
-1.1029296 -0.18972088 0.5219803 -0.21229821 0.28308493 0.50857776 0.06931384 1.1223848
1.0969126 -0.37866646 0.14369397 0.27327773 -0.033684883 0.15891096 -0.21512422 0.49419317
0.067882076 1.2592936 1.6134573 -1.2952071 0.34795722 0.60567874 0.3527589 -0.6596583
0.5442082 -0.7143394 -1.3490795 -0.8789525 -0.6823414 0.094174005 -0.3104366 0.40944475
0.15423965 -0.44674385 -0.026116075 0.18203607 -0.68889594 -0.35650536 -0.42591703 -0.7295199

attn_layer.2.weight f4 [1, 64]
00000000: 7a46 443f 5368 e1bf 76ca cabf e557 da3f
00000010: 179c c8bf b630 68bf 1dcf 2240 19e1 9f3f
00000020: e51d b9bf d7e4 9dbf 9b7a b0bf b89b 9cbf
00000030: 8586 25c0 c27f f2bf e95a 98bf 24ff 8d3f
00000040: debf a43f 43ad e0bf 3e01 97bf a871 bebf
00000050: bc34 cfbf 07f0 59bf a90d d2bf 508c 873f
00000060: 663d ce3f 64b1 ffbe 0813 b7bf a294 9abf
00000070: 8130 39bf f468 a2bf 28df cf3f 7bdf f93e
00000080: 9dd7 a4bf 16de 8b3f 6471 ad3f 3deb 6bbf
00000090: 9b2e 3ebf 67e3 9ebf 3484 9b3f fd8e 97bf
000000a0: 692f 0940 e74b 20bf 0ddc fcbf 97ae 943f
000000b0: cb9b b0bf 8ef9 34bf 289c 86bf f2b7 a83f
000000c0: 67b3 6740 2170 823f 8849 1140 9994 8d3f
000000d0: be24 173f 9b0e 45bf 4e3a b03f 1751 0f40
000000e0: 7bc8 a6be 0c8a a4bf f110 3cbf d368 293f
000000f0: e92c 5a3f 12a4 c63f 8a89 b1bf 1345 843f
0.7667004 -1.7609962 -1.5843036 1.7058073 -1.5672635 -0.90699327 2.5438912 1.2490569
-1.4462248 -1.2335461 -1.3787416 -1.2235022 -2.5863354 -1.8945239 -1.1902744 1.1093488
1.2871053 -1.7552875 -1.1797254 -1.4878435 -1.6187968 -0.8513188 -1.6410419 1.0589695
1.6112487 -0.49940026 -1.4302683 -1.2076609 -0.72339636 -1.2688279 1.6239977 0.48803315
-1.28783 1.092715 1.3550229 -0.9215582 -0.74289864 -1.2413148 1.214972 -1.1840512
2.1435187 -0.6261582 -1.9754654 1.161578 -1.3797544 -0.7069329 -1.0516405 1.3181136
3.6203249 1.0190469 2.270113 1.1060973 0.5904044 -0.7697541 1.3767793 2.2393243
-0.3257483 -1.2854629 -0.7346335 0.66175574 0.8522478 1.551882 -1.3870099 1.033358

lstm_layer.weight_ih_l0 f4 [256, 1]
00000000: 8d67 c6be 1f83 4b3f cb7c 4ebe d42f 333f
00000010: ed23 6b3f faac 1ebf b3ff 283f 0c83 f3be
00000020: abc3 39bf bf13 c9be 00fe 093f ac49 50bf
00000030: 6236 2fbf ee20 69bf c952 883f 6256 8c3d
00000040: c28a 9e3e 1ace 013f de7f 6e3f 12f4 0ebf
00000050: 5729 a93f 3be1 c7bc 50fd 6c3f ba1e d63e
00000060: f57b 0c3f a0a7 023f 265c e4be c2fe 513f
00000070: c97d 773f 52a8 7f3e 5daa debe 4651 0bbf
00000080: 8856 a53f 5ec5 553f c1f1 d13e a035 283e
00000090: a816 b93f 55ae 98bf e657 f0be 736a 41bf
000000a0: e88d fa3e 1a47 893f ac4a e0be 379e 93bf
000000b0: b928 5c3f b11b 8abe f7a6 8a3e 4fac 3b3f
000000c0: 44d4 893f fc08 493f 440b f73e 4921 3b3f
000000d0: 1e2c 063e b8af 913e 870e 713e 75c0 453f
000000e0: 84eb e63e 22dc 163f fba6 8d3f 75a2 de3e
000000f0: 4463 603f 75c2 8d3f dc93 963f 7e02 023e
00000100: 5e66 183f 18f1 ea3e 242b 323e dec5 433f
00000110: fe8e ea3d 6f14 27bf 8c95 363f 16ce aa3f
00000120: bc9c 243f b3e7 dbbe 1a99 3abe 51ee 4abe
00000130: 5f56 e23e a4ac 803f 9ff8 393f d5bd 4d3f
00000140: 22d1 40be 5549 833e 8c96 b73e 7953 273f
00000150: c639 123f 0a6a 233e e815 93be 2a9e 703e
00000160: 2379 923d 3c0d ef3c a3ee 3e3f 6b65 903e
00000170: 4573 f53e 03ab 5ebf db2a 9cbd e416 ddbf
00000180: f8e6 7d3f c3b1 5a3e 179f c93d 4247 1b3e
00000190: b98e c93e 8364 8ebf 9538 fcbd 0799 c0bf
000001a0: 1c97 bb3e 7dc2 68bc 3826 cc3e e1e3 633e
000001b0: 938d 633f 3e54 ff3e 82dd 823e bb7e 943e
000001c0: e0db 423f da5f 89bc 667e fc3e 515b 7e3e
000001d0: 6619 3dbe ee0c 8b3e bdef 323f e2bd 95bf
000001e0: 9d53 ef3e 4613 973f 317d 7d3f 07fe 833f
000001f0: 4513 7d3e c2d7 0f3f 29b5 c23f 90e9 ed3e
00000200: a28a 4bbe 49c0 ebbe c119 27bc 76a8 f5bd
00000210: dde5 20bf 4dfa c93e 6eee dd3e 6a34 aebd
00000220: 5e0e 03bf 84b6 a3bd 6fca de3e 24de 0e3e
00000230: ea06 01bf bc2c 66be 33e1 e13d 739b ebbe
00000240: abdb 04bf 9090 823d 3fba 5e3f 4421 2b3e
00000250: 02f4 1bbf 66e3 e0be 8172 b6be 3689 dd3e
00000260: 5010 853e 58c8 52bf cf19 6e3e 44fc 133f
00000270: b101 fdbe 731d 673e fcac 87be 8f1d 3c3f
00000280: 35d8 2ebf 2404 4fbe bfb2 10bf c2e5 aa3d
00000290: 9626 acbe 7ebf 92be e67c 7c3e da0b a3be
000002a0: 526c 93be 150c 37bf 68e1 1bbf 5fe5 003e
000002b0: 8f1e b2be 7c4e ab3e 128d 90be 30fa e33e
000002c0: 2731 a5be 553b ecbe 51ce a2be 70f1 73bf
000002d0: 8e9d 833c ecf4 61be 116b b8bf b284 d0bf
000002e0: fb78 6bbf 71df 0a3f 1fd9 ffbe 931d 3cbf
000002f0: 5e4a 40bf 665b ecbe ddbf c6be 3583 703f
00000300: 1826 043e 6447 113f ec77 54be 2b90 803f
00000310: 06b9 8a3f af0a bfbd 6210 eb3e 4b8e 4d3f
00000320: bb86 b5be 5373 7c3e d6fa 1e3f cb23 1bbf
00000330: 79d4 843e ac11 64bf d526 a23f d3a5 333e
00000340: 8248 273f 75a7 f63d 3a6e 803f 4328 0dbe
00000350: dc8d de3f 6ab0 cebd 4a8b 0e3f b539 973f
00000360: 5827 7c3e 8707 323e 985b 813f b88f b13f
00000370: e9a8 9b3f 768a 9fbe ef31 d83d 916d 27bf
00000380: 2df5 a23f 51d9 893f 5bec 683e ac58 ff3f
00000390: cb10 053f 9f88 113f 3814 823b 5426 2840
000003a0: be65 863f 155b 223f 8a02 0d3e 09f3 fbbe
000003b0: 4518 743f 1d21 69be 1d58 a13e 811d 04bd
000003c0: ebdb 8b3f c2bc 773f 0c9b 553e ca87 3c3f
000003d0: 5aeb 8c3e bcb9 3f3f 6e6a 013e d158 713e
000003e0: 0f0a 7e3f f165 473f c3e1 9d3f d8c1 703f
000003f0: 0a6b 873f f5f3 8e3f 99e9 5b3f ddbd f5be
-0.38750878 0.7949695 -0.20164792 0.69994855 0.91851693 -0.6198269 0.66015166 -0.47560918
-0.7256419 -0.39272878 0.539032 -0.81362414 -0.68442357 -0.9106587 1.0650264 0.06852414
0.3096524 0.5070511 0.9316386 -0.5584117 1.3215741 -0.02439939 0.92574024 0.41820318
0.54876643 0.51037025 -0.44601554 0.82029355 0.9667631 0.24966553 -0.43489352 -0.5442089
1.2917032 0.83504283 0.41004756 0.16426706 1.4460039 -1.1928202 -0.4694206 -0.75553054
0.4893639 1.0724823 -0.4380697 -1.1532658 0.8599964 -0.26974252 0.2708051 0.733098
1.0767903 0.78529334 0.48250782 0.73097664 0.13102767 0.28454375 0.23540698 0.7724679
0.4510156 0.58929646 1.1066583 0.4348332 0.8765147 1.1074969 1.1763873 0.12696263
0.595312 0.45887065 0.1739927 0.76473796 0.11453055 -0.65265554 0.7132194 1.3344142
0.6430166 -0.4295021 -0.18222466 -0.19817473 0.4420652 1.0052686 0.7264499 0.80367786
-0.18829778 0.25641885 0.35857046 0.65361744 0.57119405 0.1595842 -0.2872765 0.23497835
0.07152011 0.029181115 0.7458288 0.28202376 0.47939506 -0.86979693 -0.076253615 -1.7272611
0.99180555 0.21356873 0.09844797 0.15163901 0.393667 -1.1124424 -0.1231548 -1.50467
0.36638725 -0.014206526 0.3987291 0.22254898 0.888879 0.4986896 0.25559622 0.29002938
0.7611675 -0.016769338 0.49315184 0.24839522 -0.1846672 0.27158302 0.6989706 -1.1698573
0.4674348 1.1802757 0.9901915 1.0311898 0.24714382 0.56188595 1.5211536 0.46467257
-0.19877103 -0.4604514 -0.010199011 -0.11995022 -0.62850744 0.39448777 0.4334597 -0.08506091
-0.511938 -0.079937965 0.4351382 0.13951927 -0.50401175 -0.22478002 0.110292815 -0.46017036
-0.51897687 0.06375229 0.8700294 0.16711909 -0.609192 -0.4392349 -0.35634235 0.43268746
0.25989008 -0.8233695 0.23252033 0.578068 -0.49415353 0.22569828 -0.26499164 0.734826
-0.68298656 -0.20216423 -0.56522745 0.08344604 -0.3362319 -0.28661722 0.2465702 -0.3184498
-0.2879358 -0.7150281 -0.6089082 0.12587498 -0.3478894 0.33458316 -0.28232628 0.44526815
-0.32264063 -0.46139017 -0.31798032 -0.9529028 0.016066339 -0.22066087 -1.4407674 -1.6290495
-0.91981477 0.54247195 -0.49970338 -0.73482627 -0.75113475 -0.4616348 -0.38818255 0.93950206
0.12905157 0.5674956 -0.20748872 1.0043997 1.0837715 -0.093282096 0.45910937 0.80295247
-0.35454354 0.24653368 0.62101495 -0.6060149 0.25943354 -0.89089465 1.26681 0.17543726
0.65345013 0.12043659 1.0033638 -0.1378489 1.7387042 -0.10092242 0.5568129 1.1814486
0.24624383 0.17385684 1.0106077 1.3871984 1.2160922 -0.31160325 0.10556399 -0.6540156
1.2731072 1.0769445 0.22746412 1.9948936 0.5197875 0.5684909 0.0039696954 2.6273394
1.0499799 0.6342023 0.137705 -0.4920886 0.9534953 -0.22766538 0.31512538 -0.0322547
1.0926489 0.96772397 0.20859927 0.736447 0.2752331 0.74892783 0.12638256 0.23569037
0.992341 0.77889925 1.2334522 0.9404578 1.0579541 1.11682 0.85903317 -0.47996417

lstm_layer.weight_hh_l0 f4 [256, 64]
00000000: e94c 6a3f 3b41 24be e042 003f 6551 21bd
00000010: 170d 89be f5c7 babe b03a 5c3f b1a6 8abd
00000020: 2b69 883e 8c32 23be fd0a 94be 405c efbe
00000030: e013 e13e 93b8 8abe b2d5 3ebd a6bd ab3e
00000040: 3aec 04bf 3fdc e13e 2160 d33e 7084 42be
00000050: d42c 873f a734 8a3d f121 71be 6ad4 dabe
00000060: 52ee 45be 264e 77bf e3af 3dbf 6f2e 91be
00000070: cb62 40bf f2cb 1cbf 4ba6 9ebe d6ed 703f
00000080: 8061 08bf a2bc 7dbf 3ecc 953e 69fa 51bc
00000090: 4db4 8439 c965 6e3d 6f12 093e 9ff5 e53e
000000a0: 8bf4 df3e 327a a4be 0cc4 173f 8748 76bd
000000b0: b3bb b73e 1a8b 523e 5c3a 5c3f 08c1 e13e
000000c0: 98e3 6ebf 8d5b 55bd f46d 72bb 6ce5 9bbd
000000d0: 8e6f 1e3d 2b20 a3be 0430 173f fce2 96be
000000e0: e4ba 51be 1c8b 003f 9842 fcbe 06f7 f4be
000000f0: 3890 363e c93c 53be e904 b5be 4627 a13d
00000100: bfa5 d53d eff2 10be af7b 13bd aba9 1ebf
00000110: 3bc1 ffbe d71c bf3e 4ac6 153f f2c5 6fbf
00000120: 6367 363f c389 1f3e e876 853d 12cc 2c3f
00000130: 2d1a f53e 0708 913c 947d 22bd cec8 be3e
00000140: 987e ccbd ccbd 03be 76bf e53e abfb fe3e
00000150: cf78 ad3e 353f 183f 3cca ddbe ce84 1b3e
00000160: 979d c13d ad58 89bd 9737 cdbe 952b f5bd
00000170: 67d3 65bf f496 12be 05a7 123f 69cc a23d
00000180: 7041 aabe 2d6e 30bf f4c0 733b 7c3e e3bc
00000190: c746 9e3d fbc7 55be 6ea5 503f 6dd4 c8be
000001a0: 70b7 073e e167 95be b8d2 123f 099a e83e
000001b0: 2e34 acbe 9d7f 42bd d336 403f 1e02 ce3e
000001c0: de74 78bf 2cf4 b8bf e512 03be 7de7 fabe
000001d0: 8cfc 1ebf 4283 343f f654 afbe 068a e8be
000001e0: 228e 80bf 33a7 303f bdac 3abd 3610 81be
000001f0: 6fc6 1abf dbc2 5fbf 7b64 093f 0a39 9ebe
00000200: 7970 02be 137e 0f3f 0af4 2b3f 7527 ee3e
00000210: 957b 913f 35a2 b83f 5a31 3ebf 23f6 2cbf
00000220: 998e 553f eaa4 b9be a467 05bf f4cb 653f
00000230: 4da2 81bf 6777 e03f 9dae 7bbf c3af 323f
00000240: 101a 663f f3e0 dbbd 0968 14be b166 a5bf
00000250: 5e39 a63f cdc8 dc3f 8fd3 803e 5a1c 0cbf
00000260: 30a3 9ebe b058 533f 696a 0f3e 7cff 18bf
00000270: 9018 22bf 3e00 243d 4a7b 1f3f 29e9 843f
00000280: 0b78 cb3e 68f0 453f 6016 d73e 0055 9abe
00000290: e1df da3e 0138 303e 295b 0abf 73fa 21bf
000002a0: 0dc2 48be 9a22 403e a1f6 663f 01e2 6e3e
000002b0: 29a4 1a3d 33ea e63e 809e ca3f 976d a6bf
000002c0: 7037 1abe fb95 27be 6a1e b2bd 60c7 19bf
000002d0: d064 87be 1b5f 243e 0726 913d 8310 123f
000002e0: 50dd b43e 50ab ac3e 80d0 123d 141f 2e3f
000002f0: a28f 3fbe 3783 2dbe cdfb cf3f 571a b23d
00000300: 63ca 803f 1651 053d 3ada adbe 154c b03c
00000310: 2fe8 9abd 17b9 813e bf11 2ebf 5644 fd3e
00000320: ba57 863f 2852 0fbe ae8f c63d 2426 c33d
00000330: 99b9 46be bf36 9bbd 2e37 8b3e 9865 1a3f
00000340: 5685 423d 587e 733e c712 0f3e e0b6 0b3e
00000350: 01b6 a43d 4315 0bbe be29 4bbd 8111 9e3d
00000360: 9499 633e 9a52 1c3b 62ec a43e 3001 2f3d
00000370: b395 fe3e d737 f23d 9a54 aabd ee05 be3e
00000380: 58c3 8abe 9c49 ac3d dff4 b33c 8445 aebd
00000390: 3513 83bd d5b2 e2bd 1e99 e03d 7a6b aa3d
000003a0: 0294 04bf e9c3 98be 5f9e 2abf 911c 17be
000003b0: e7a6 123f 4b89 06bf 7d49 25bf a897 f03d
000003c0: 0563 2b3f 4a92 c33e 7f17 cabd 9191 04bd
000003d0: be5b e4be c77c 78bd 8bc9 9b3d e2a7 60bf
000003e0: 4292 aabe ee92 f6be 5092 0c3e 545e f33d
000003f0: 69bd d23d 0877 363f ff97 20bf b687 04bf
0.91523606 -0.16040508 0.50102043 -0.039384264 -0.267678 -0.3648068 0.8602705 -0.06770075
0.26642737 -0.15937251 -0.28914633 -0.4675007 0.43960476 -0.27093944 -0.046590514 0.33543128
-0.51922953 0.44113347 0.41284278 -0.18995833 1.0560555 0.06748324 -0.23548104 -0.42740184
-0.19329193 -0.9660362 -0.74096507 -0.2835574 -0.75150746 -0.61248696 -0.30986246 0.9411291
-0.53273773 -0.99115956 0.29257387 -0.01281605 0.00025311337 0.05820254 0.13385938 0.44913957
0.4374126 -0.32124478 0.5928352 -0.06012776 0.3588539 0.20560876 0.8602655 0.44092584
-0.9331603 -0.052089263 -0.0036991807 -0.07612118 0.038680606 -0.3186048 0.5905764 -0.2947005
-0.2048145 0.50212264 -0.49269557 -0.47844714 0.17828453 -0.20628656 -0.3535531 0.07868819
0.10432004 -0.14155172 -0.036006626 -0.6197764 -0.4995211 0.3732669 0.5850569 -0.93661416
0.71251506 0.15579896 0.0651682 0.67498887 0.47871533 0.017704023 -0.039670542 0.37262577
-0.09985083 -0.1286537 0.44872636 0.49801382 0.33881232 0.59471446 -0.43318355 0.1518738
0.09453886 -0.06706367 -0.40081474 -0.11971203 -0.897757 -0.14315397 0.572861 0.079491444
-0.3325305 -0.68918115 0.0037193866 -0.027739756 0.077283435 -0.20877068 0.81502426 -0.39224568
0.1325357 -0.29180816 0.5735278 0.4543002 -0.3363356 -0.047484983 0.75083655 0.4023599
-0.97053325 -1.4449515 -0.12800176 -0.49004737 -0.62104106 0.70512784 -0.34244508 -0.45417804
-1.0043375 0.69005126 -0.045574892 -0.2520768 -0.60459036 -0.874067 0.53668946 -0.30902892
-0.12738217 0.5605175 0.6716925 0.46514478 1.1365839 1.4424502 -0.74294055 -0.67563075
0.8342071 -0.36258632 -0.5211127 0.8976433 -1.0127655 1.7536439 -0.98313314 0.6979944
0.8988352 -0.10736265 -0.14492811 -1.2921964 1.2986257 1.724878 0.25161406 -0.5473076
-0.30983877 0.825572 0.14005436 -0.5976484 -0.6331873 0.040039293 0.622975 1.0383655
0.39740023 0.77319956 0.42009258 -0.30142975 0.4274893 0.17208864 -0.5404535 -0.6327278
-0.19605274 0.187632 0.90220076 0.23328401 0.03775421 0.45100555 1.582962 -1.3002194
-0.1506021 -0.16365807 -0.08697207 -0.6006985 -0.264441 0.16051905 0.07087331 0.57056445
0.35325098 0.3372445 0.035843372 0.6801617 -0.18707135 -0.16944586 1.6248719 0.0869643
1.0061764 0.032548033 -0.33955556 0.021520654 -0.07563817 0.25336525 -0.6799583 0.494662
1.0495522 -0.13996184 0.096953735 0.09528759 -0.19406737 -0.07578801 0.27190536 0.6031127
0.04749044 0.23778665 0.13972007 0.1364398 0.08042527 -0.1358233 -0.049600355 0.07718182
0.22226554 0.0023852945 0.32211596 0.042725742 0.49723586 0.11827057 -0.08316918 0.371139
-0.2710216 0.084124774 0.02196735 -0.08509353 -0.06400148 -0.11069266 0.10966705 0.08321281
-0.5178834 -0.29836968 -0.66647905 -0.14756991 0.5728592 -0.5255324 -0.6456526 0.11747676
0.66947967 0.38197547 -0.09867763 -0.032365385 -0.44601244 -0.060665872 0.07606801 -0.8775617
-0.3331471 -0.48158973 0.13727689 0.11883226 0.10290033 0.7127538 -0.6273193 -0.5176958

lstm_layer.bias_ih_l0 f4 [256]
00000000: 50e4 afbd 8ccd e73c a34b d1be 27a9 21bf
00000010: bb9a 0ebf a005 3dbe 040f 0ebd 0b5b 04bf
00000020: 1fca cbbd 0910 e4be 7f35 d6be 57e9 41bf
00000030: 64cf 543c b6a9 b13d 7a4b c5bd 1a07 a2be
00000040: e73a c9bc ac48 83be 1111 62be 80f7 32bf
00000050: 2c00 19be b4a5 e7be 4de8 10bf ecac bdbe
00000060: dfff d5be 2977 ae3c 7b3b 17bf 56e3 833e
00000070: 9746 c1bd 6f1c 13bf eec0 10bf 5533 b9bd
00000080: 6e37 e53d 82db a9be f64c e9be 6b7e 973d
00000090: c50e 2cbe eaeb 2f3f b187 10bf 6a1e 443f
000000a0: bf3d 49bf 7878 64be 8c01 4cbe 880c d3be
000000b0: 876b 703d 0442 3ebf 256f b2be 240e 3cbe
000000c0: 98e0 1abe 5760 16bf d4f7 2ebf 39c3 683e
000000d0: d873 35bf 5bf6 89be 5f65 44bf da30 f53e
000000e0: f91a 903d 56cd 34be 7e00 223e dd9e dd3e
000000f0: 34cc 5e3e 693b a63e a245 18bf affa d03e
00000100: 494b 88bf b6b0 d6be b3d2 24bc e962 68ba
00000110: 494f 25be 0296 913e e4a7 7ebf f71d 2dbf
00000120: 03c2 1ebf 386a 01bf 935a 323e 7846 1abf
00000130: 6e8c c8bf ae48 8b3d 9099 7abf fb0b 94bf
00000140: 3f46 03bf 5317 fcbb 688c 7dbe 1f54 a9bf
00000150: b08b b73e 88c9 36bf 2994 16be 6603 96bd
00000160: bb6e cebd 41d5 453b 537f 8cbf 70da 7f3e
00000170: ad4b 17bf 5e51 c5be b7d8 76bf e086 99be
00000180: 8cd2 55be 7063 1bbe e77d 1ebe 8135 40bb
00000190: a787 0d3d 1c7a d13f baa5 fbbd 5713 233f
000001a0: cb46 3f3b 1552 f8be 69df 20bf d1a1 7abf
000001b0: cf10 abbe 4208 b5be 1c39 7ebf dee0 28be
000001c0: bf6f 59bf 7e28 1cbf 444d 0dbe 8299 55bf
000001d0: f5c5 18bf ada7 15be c82c bfbe aea5 28bf
000001e0: 6870 4f3e 2459 d0be c23b a2be 040c cfbe
000001f0: 70e2 a73c affb 53bf bc4b 1cbe 6d18 05bf
00000200: 6e31 2fbe 0d09 96be a672 2ebe 4674 873d
00000210: cc05 0d3d eae0 df3e 754e 1bbf 0189 5e3e
00000220: 241c 67be 2d4f adbe dd55 ba3d 5864 04be
00000230: 8a04 9fbe 2ab0 0fbe db08 d7be e45f 66be
00000240: 4a44 a3be e426 44bd e298 b23d 1c50 c4bc
00000250: 81a3 0ebe f728 68be ee20 b6be 324a 5d3e
00000260: d52e 873e 5624 a4be b370 d43d a010 e63e
00000270: 5a09 063f 2cf4 a13d 5678 4bbe cc6e 4e3e
00000280: 0b76 92be ef52 88be 0920 cabe 904a ec3e
00000290: 4058 cdbe dee1 753f c904 193d cb67 483f
000002a0: 4a50 1bbe 7c91 04be 8fb8 ccbd ef1e b0bc
000002b0: 253a 1fbe 3ae8 293e 9405 a83b 7c1d f03d
000002c0: b985 f13e 95a6 f23d ebe6 eabd 4537 11bf
000002d0: 8b95 23be 9740 11be 583f 90be c449 bcbd
000002e0: 7b96 b63d 40d6 37be 41f4 36bf 5795 c4be
000002f0: f8f6 72bc 531f 273f db0d 01bd 3649 483e
00000300: 1b53 cbbd b270 6cbe 3baa 92be fd19 48bd
00000310: d10e db3d 9733 98bf 77d8 e0bd 6b42 11bf
00000320: 79c5 293e 3e91 eebe 6510 ffbe a60b bebe
00000330: a33b 05be 7874 bcbd c55d 30be d261 32be
00000340: bb27 ea3d 331f ebbe 769b 90bd 776c 24bf
00000350: 3f89 03bb e9e5 94be 247b dabe d74a 56be
00000360: 41be acbd 0b77 95be 9e72 babe 0f93 723e
00000370: 551f f8bd de4b fabe 20c9 2bbf 7ed9 5fbf
00000380: 0c83 953d a80f ccbe 2460 2d3d 2e20 b8bd
00000390: d619 67be db7e 8cbf fcbc 4abe d38f 6cbe
000003a0: 623a 53bf 2ffa bbbe 698a 543e 04da 70be
000003b0: 42f0 133e eaaa c7be c84d 21bd 7453 743d
000003c0: 81d2 10be 0e6a 0fbf 625a bcbe daed cf3d
000003d0: 9ccf 1bbe e42a 843d 05d7 a6be 2e66 143e
000003e0: 7abc 943a 51df febe 61d0 a93c e4a7 b33c
000003f0: b3f2 8bbc ad65 01be dbb9 86be dbec 1c3d
-0.08588469 0.028296255 -0.4087802 -0.6314873 -0.5570485 -0.18459177 -0.03468229 -0.5170142
-0.09950661 -0.44543484 -0.4183769 -0.75746673 0.012988899 0.08674948 -0.09633537 -0.31646043
-0.02456422 -0.25641382 -0.22076823 -0.69908905 -0.14941472 -0.4524361 -0.5660446 -0.3704599
-0.41796777 0.021297054 -0.59075135 0.2575938 -0.09437292 -0.5746526 -0.5654439 -0.09042994
0.11192213 -0.33175284 -0.4556653 0.07397159 -0.16802509 0.6871935 -0.5645705 0.7660891
-0.7860984 -0.2231158 -0.19922465 -0.41220498 0.058696296 -0.7431948 -0.34850422 -0.18364769
-0.15124738 -0.5874075 -0.68346906 0.22730722 -0.7087989 -0.26945767 -0.7671718 0.47888833
0.070363946 -0.17656454 0.158205 0.43285266 0.21757585 0.324672 -0.5948125 0.40816256
-1.0647975 -0.41931695 -0.01006 -0.00088648364 -0.16143526 0.2843476 -0.9947493 -0.6762385
-0.6201479 -0.505527 0.17417364 -0.60263777 -1.5667856 0.06800972 -0.9789057 -1.1566156
-0.5127906 -0.00769321 -0.24760592 -1.3228797 0.3584876 -0.7140126 -0.14704956 -0.07324867
-0.10079714 0.0030186924 -1.0976356 0.24985671 -0.5909985 -0.3853864 -0.9642443 -0.29985714
-0.20881099 -0.15174651 -0.15477715 -0.0029328766 0.034553196 1.636539 -0.12287469 0.63701385
0.0029186483 -0.48500124 -0.62840897 -0.9790316 -0.3341126 -0.35357863 -0.9930589 -0.1649203
-0.84936136 -0.60999286 -0.13799006 -0.8343736 -0.5967706 -0.14614744 -0.37338853 -0.6587781
0.20257723 -0.4069301 -0.31686217 -0.40438855 0.020493716 -0.82805914 -0.15263265 -0.51990396
-0.171087 -0.2930378 -0.17035922 0.06613974 0.034429356 0.43726283 -0.6066659 0.2173195
-0.22569329 -0.3384947 0.09098408 -0.12928903 -0.3105815 -0.14032045 -0.41998944 -0.22497517
-0.31888038 -0.04788865 0.08720566 -0.02396398 -0.1392956 -0.22671877 -0.35571998 0.21610335
0.26402918 -0.32058972 0.10373058 0.4493456 0.5235802 0.079079 -0.19870123 0.20159453
-0.28605685 -0.26625773 -0.39477566 0.46150637 -0.40106392 0.9604777 0.03735808 0.78283376
-0.15167347 -0.12946123 -0.09996139 -0.021499125 -0.15549524 0.16592494 0.005127618 0.11724374
0.47172335 0.11848179 -0.11469825 -0.5672496 -0.15975015 -0.14184795 -0.28173327 -0.09193757
0.089154206 -0.17952824 -0.7146645 -0.38395187 -0.01482939 0.6528217 -0.031507354 0.19559178
-0.099279605 -0.23089865 -0.286455 -0.04885291 0.106961854 -1.1890744 -0.109787874 -0.5674197
0.16579236 -0.46595186 -0.49817196 -0.37118262 -0.13011031 -0.09201902 -0.1722327 -0.17420128
0.11433359 -0.4592224 -0.07060902 -0.64228004 -0.0020070819 -0.29081658 -0.42672074 -0.20926987
-0.084347256 -0.29192385 -0.3641557 0.23688911 -0.12115351 -0.48886007 -0.6710377 -0.8744124
0.07300386 -0.39855695 0.042328015 -0.08990513 -0.2256845 -1.0976213 -0.19798654 -0.2310174
-0.8251096 -0.36714312 0.20755924 -0.23520666 0.1444712 -0.38997585 -0.03938082 0.0596499
-0.14142801 -0.560212 -0.36787707 0.101527885 -0.15215915 0.06453493 -0.32585922 0.14492103
0.0011347674 -0.49779752 0.020729246 0.021930642 -0.017083501 -0.12636442 -0.2631367 0.03831182

lstm_layer.bias_hh_l0 f4 [256]
00000000: b6f8 1fbe 201d 963d 1017 a8be b53b febe
00000010: 9a34 23bf 6789 8ebd 367d 59be d834 febe
00000020: 09e7 c1bd 6280 05bf 25ab efbe 691b 43bf
00000030: 80f0 22bd b561 623e 4b36 39be e808 a9be
00000040: ff5e 07be c0c1 c8be 5866 66be 5d21 00bf
00000050: d1f8 64be 61a1 23bf 56ce acbe 75af ecbe
00000060: dbfc 7fbe ef75 1d3e 04d5 0cbf c9dc 863e
00000070: d787 de3d 76e6 09bf 43d7 0bbf 0637 92be
00000080: d981 fc3d 256a 9ebe 580e b1be 17ec 9abb
00000090: e832 1abe 8460 3f3f 63e1 06bf ed14 623f
000000a0: f573 4bbf 0bb3 a8bd 9148 acbe 6105 ffbe
000000b0: 06fc 303d 6deb 60bf 0d17 4ebe 41af 1fbe
000000c0: 8b1c 9dbe b8a6 febe 24a8 24bf bae0 843e
000000d0: c748 27bf 608f dbbe 1d00 1fbf 7335 fb3e
000000e0: ed5f d93c ffe3 a0be f156 f53c ed3a fd3e
000000f0: a53d 873e 206d b53e a490 06bf 1715 d83e
00000100: 2f48 80bf 0715 05bf 31d0 0e3c 6fc0 f03b
00000110: 90af 33be 19ef ce3e b95f 84bf d5d2 3dbf
00000120: f689 16bf 3f7a 25bf 0523 3c3e 2431 32bf
00000130: 33db b8bf fdb2 6e3d 0248 62bf 5310 96bf
00000140: 51bb dcbe 59e5 dbbd 449b c4be deb0 a3bf
00000150: ecdb 833e 3e29 1bbf 92fe 8dbc ed58 babd
00000160: 087b fc3d ba15 d3bd 60a9 82bf 3167 9a3d
00000170: 3118 3dbf 149c dbbe a6ce 7abf 7412 9cbd
00000180: 5225 c0be 565d 9fbe 9e1e 27be 6d5b 0bbe
00000190: acaf 89bd 0871 de3f 6fb1 14be c8d3 f73e
000001a0: c839 27be feb5 d5be a4e2 31bf bfdb 96bf
000001b0: d96b 71be 51d0 b2be 9da2 6abf 8011 8c3c
000001c0: 9dfe 3cbf ac1f 18bf cb67 3abe d7d6 2fbf
000001d0: c907 30bf c433 3dbc 43e5 cabe d6a8 16bf
000001e0: 5cd2 3e3e a086 debe d09e 46be 03fb 03bf
000001f0: 3489 843d 436d 61bf 48e8 95be 3b65 c8be
00000200: 7ea9 b4be d76e b1be 99a5 74be 6a0f c33d
00000210: 188c 3fbc 4bb4 f03e 20ed f7be 3736 9f3d
00000220: b3a2 9ebe c276 46be 9589 633e cc0e 86bb
00000230: c62d a9be 09a2 3fbe 561e 01bf 6a4d 92be
00000240: ba55 c1be 766a 2cbe b7d1 a9bc 3db9 4f3e
00000250: af76 0ebe 1361 c4bd 43a5 d5be 7453 4f3e
00000260: 5656 3a3e 12c9 a9be d7b6 133e 6067 ed3e
00000270: e8ce d93e 1f34 f93d 6e13 c6be 0ce7 8c3e
00000280: 9167 52be 2459 9bbe 75aa 65be 3bd8 fd3e
00000290: 8b38 f2be b7cc 733f c106 ea3d 88b9 403f
000002a0: 49da d6bd 9599 50be 8ce1 54be e3fb 24bd
000002b0: 6016 b2bd 0e33 ab3e 3bea cebd 56ae 2e3e
000002c0: fadf b03e a4d2 9e3d dad9 5dbe 027d 00bf
000002d0: 4741 8abe 2d38 1abe 0427 0ebe e902 9abe
000002e0: 5e99 a23e 630d 34be a32f 10bf 30b5 d7be
000002f0: b09b 5abe cad6 493f 3cba 54be b36b a63e
00000300: 7c2a 38be 2c1b 68be 6ff1 97be fe09 2ebe
00000310: 48c4 0a3d e75b 93bf ef37 37be 97a7 d1be
00000320: 774a 9a3e f1dc f1be 0bf0 d1be 118e 17bf
00000330: 118b f4bd 0d25 df3d fc5e 5abe 2135 ccbe
00000340: 0eca 143e b971 00bf 7e2c 96be 9d95 fdbe
00000350: 7145 73be 8c77 99be eaaa d7be 4562 a0be
00000360: 4c70 6abe 64f0 d1be bd64 f4be 2c13 8c3e
00000370: 7c12 c9bd e65a 19bf 8c52 48bf 767c 32bf
00000380: baa7 d73c f6b8 dcbe da80 663c 43f2 06be
00000390: 5ed2 04be e441 96bf d39b 62be 4015 08be
000003a0: 1525 24bf bffb a3be b7d8 183d 351f 02be
000003b0: c6b9 8d3c 3d8e 87be ace6 39be 5ac7 9ebd
000003c0: 045e 8c3d 15ea f0be 272b 87be 1fbd 26bd
000003d0: ff2b 21bd a2ff 223d 8b90 02bf e15c 803e
000003e0: b61f 5a3d a96f 01bf 1df9 263e 592c 953d
000003f0: a6c7 f93d da2a 843d 7214 bdbd 9b39 103d
-0.1562222 0.07329774 -0.32830095 -0.49654928 -0.6375214 -0.06959801 -0.2123917 -0.49649692
-0.094678946 -0.5214902 -0.4681026 -0.762137 -0.03978014 0.22107585 -0.18087117 -0.33014607
-0.13219832 -0.3921032 -0.22499979 -0.5005091 -0.22360541 -0.6391812 -0.33751172 -0.46227613
-0.249988 0.1537702 -0.55012536 0.2634032 0.10865753 -0.5386728 -0.5462534 -0.28557605
0.12329454 -0.30940357 -0.34581256 -0.004727851 -0.15058482 0.74756646 -0.5268766 0.8831318
-0.7947381 -0.08237275 -0.33649114 -0.4980879 0.0432091 -0.8785923 -0.2012598 -0.15594198
-0.3068584 -0.4973657 -0.6431906 0.25952703 -0.65345424 -0.42882824 -0.6210955 0.49064216
0.026534999 -0.31423947 0.029948683 0.4945902 0.2641422 0.35434818 -0.52564454 0.4220359
-1.0022029 -0.5198521 0.008716629 0.0073471586 -0.1754744 0.40416792 -1.0341712 -0.7414983
-0.5880426 -0.6463966 0.18372734 -0.6960623 -1.4441894 0.058276165 -0.88391125 -1.1723732
-0.4311166 -0.10737104 -0.38399708 -1.278835 0.25753725 -0.60609806 -0.017333303 -0.090989925
0.12328154 -0.103068784 -1.0207939 0.075392134 -0.7386504 -0.42892516 -0.9797157 -0.07620707
-0.37528473 -0.31125897 -0.16320273 -0.13609095 -0.0672296 1.7378244 -0.1452081 0.48403764
-0.16330636 -0.41740412 -0.6948645 -1.1785811 -0.23576297 -0.34924558 -0.9165438 0.017098188
-0.7382601 -0.5942333 -0.18203656 -0.68687195 -0.6876188 -0.011547986 -0.39628038 -0.58851373
0.18634933 -0.43462086 -0.1939652 -0.5155489 0.06471482 -0.88057345 -0.2927878 -0.39139733
-0.35285562 -0.34654877 -0.23891295 0.095244244 -0.011691116 0.47012553 -0.484231 0.077740125
-0.30983505 -0.1938124 0.22220452 -0.0040911194 -0.33042735 -0.18714155 -0.50436914 -0.28574687
-0.37760717 -0.16837487 -0.020729883 0.20285507 -0.13912462 -0.09588828 -0.41727647 0.20246679
0.18196997 -0.33161217 0.14425217 0.4636793 0.4254067 0.121681444 -0.386867 0.27520025
-0.2054732 -0.30341446 -0.22428305 0.49579033 -0.47308764 0.95234245 0.114270695 0.752831
-0.10490853 -0.20371087 -0.20789164 -0.04027928 -0.08695674 0.3343739 -0.1010327 0.17058691
0.3454588 0.0775502 -0.21665135 -0.50190747 -0.27002928 -0.15060492 -0.13882071 -0.30080345
0.31757635 -0.17583232 -0.5632269 -0.42130423 -0.21348453 0.7884337 -0.20774168 0.32504043
-0.17984957 -0.22666615 -0.29676387 -0.16995999 0.033878595 -1.1512421 -0.1789243 -0.40948173
0.30134937 -0.47238877 -0.4100345 -0.5920115 -0.11940587 0.10895739 -0.21325296 -0.39884284
0.14530203 -0.50173527 -0.2933082 -0.49528208 -0.23756959 -0.2997402 -0.42122585 -0.31324974
-0.228944 -0.41003716 -0.47733107 0.27358377 -0.09817979 -0.59904325 -0.78250957 -0.6972116
0.026325095 -0.43109864 0.014068807 -0.13178353 -0.12970874 -1.1738858 -0.22129755 -0.13289356
-0.6411908 -0.32028005 0.03731605 -0.12707217 0.017300498 -0.26475707 -0.181544 -0.07752867
0.068538696 -0.4705359 -0.2640011 -0.040707704 -0.0393486 0.03979457 -0.51001805 0.2507086
0.0532529 -0.50561005 0.16305967 0.07283849 0.12196283 0.06453486 -0.09232415 0.035211187

fc.weight f4 [1, 65]
00000000: fa9d d43f f54f 9b3f e5f6 2a3e 82ba 05be
00000010: 1dd2 a7bd f961 c5be aad8 543f b53b 0640
00000020: e7e6 eabf 63c3 183f 12aa 953c 9a8c f63e
00000030: b9a9 09be 1f18 873f e2b5 8d3f 12de c43f
00000040: 469b 8e3f 6ffa 08bf 3c68 23bf 8447 f23e
00000050: 2bc5 4ebf af55 a2bf 095e b83e 67b1 2e40
00000060: bc39 c93f 777f 143f 841b edbe abd3 e43e
00000070: 4f86 403f ec72 693f 6161 e4be 089a 8bbc
00000080: e28d eb3e 8b83 2bbf 0f25 32bf 2f13 2dbf
00000090: 621e 463f 8e4e b83e c9ea d13a 47b8 e2bf
000000a0: e6b0 d43f ab47 30c0 7cc3 efbd 6499 cc3f
000000b0: 83bf bb3e 8957 fcbe 44e0 aebe 054e 8bbe
000000c0: 785b 14be be0c b73e 9ada bc3f 04d8 0d3e
000000d0: 8278 c4bf c875 803e f75b 72bf dd84 2c3f
000000e0: 5320 4cbf 4f50 893f 9b2e c7be 543a 083f
000000f0: 220c 03bd a750 9c3f f28b 52bf 33fd 293f
00000100: 7635 f23f
1.6610711 1.2133776 0.16695745 -0.13059428 -0.08194373 -0.3855131 0.83143103 2.0973942
-1.8351716 0.59673136 0.018269572 0.48154145 -0.1344365 1.0554236 1.1071131 1.538027
1.1141136 -0.5350713 -0.63830924 0.47320187 -0.80769604 -1.2682399 0.36009243 2.7295778
1.5720744 0.58006996 -0.46310055 0.4469274 0.7520494 0.9119098 -0.44605544 -0.017041221
0.46006685 -0.66997594 -0.69587797 -0.67607397 0.7739011 0.35997432 0.0016015406 -1.7712487
1.6616485 -2.7543743 -0.117072076 1.5984311 0.3666955 -0.49285534 -0.34155476 -0.27207962
-0.14488018 0.3575191 1.4754212 0.13851935 -1.5349276 0.2508986 -0.9467158 0.67390233
-0.7973682 1.0727633 -0.38902745 0.53214 -0.031993993 1.2212113 -0.8224479 0.66401976
1.8922565

fc_final1.weight f4 [64, 128]
00000000: 822b f5bd d594 2cbe 076a fabc 2973 aabc
00000010: 2b1f 21be d04d 163d f02e 6b3e cf75 b6bd
00000020: 258c 563a 8768 963c d0d3 6fbd 8804 053d
00000030: 626d b1bc 85fa 9c3c 6751 66bd 3fe3 983d
00000040: ce9d 093d 7ce3 18bc 0687 a3bd 3ea0 59be
00000050: fcf8 f4bd 23b8 edbc 39c1 cabc 51f8 fc3d
00000060: 27dd ed3d 8634 173e f99a 45be 229d 58bd
00000070: 1875 9fbd 7ddd a7be e5ba 78bd dedd 7dbd
00000080: ade8 25be 41e4 87bd e035 cabd b11e bd3d
00000090: c504 15bb 7256 8c3d b64e 4a3d b85b 943c
000000a0: 20e0 32be 0185 eabc a168 223d 00a0 0f3c
000000b0: 5fd5 03bd 3cc0 113d c39e dc3c bae1 afbd
000000c0: 295f 5ebd b6df 25be d188 a1bd 493a 9f3a
000000d0: 8018 813d b96b 873d 301c 083d 47d6 b43c
000000e0: 33e9 cebd f24a 8b3b bf16 da3c e467 da3d
000000f0: 0a9c 56bd b804 833c 4cab 04be a284 963c
00000100: d8e1 273e 81d4 8bbe d7b9 88bc fac8 143d
00000110: b5a8 b53e dd55 77be a704 45be 71e2 583d
00000120: 176a 7b3d b2f9 013d 99df a0bd 7f94 7abd
00000130: 68ac b53d c045 d63c cde2 a8bc dde7 abbc
00000140: 23b7 37be e861 c73c d313 a4bd bdc4 2cbe
00000150: fb8a 34bd 7291 9bbc 418b 1d3d 139a 893b
00000160: 84ef 63be e64b 923d c595 823d 8374 bbbc
00000170: 6d15 a1bc 6e60 0abe db4b ff3d e5c2 ff3c
00000180: dff5 343d 49c3 84bd cf44 183d 439b bcbd
00000190: 449d 373e c6b9 58be 35d3 8abc d918 a43e
000001a0: e2d3 0dbf a409 9cbd 9161 27be d524 adbe
000001b0: 28ff 5cbd b003 d53d 3bfd 73bd 7f00 4f3e
000001c0: 3540 073d e607 893d 5e13 b73d 29ec 623d
000001d0: 9b3e 28be 13c9 093d be51 2ebe 6e29 213c
000001e0: 1b2c 54bd 1c4c b2bd c467 85bd 0197 ce3c
000001f0: 0abf 823d 3d7e d43d 4df2 8c3e 360a e03d
00000200: 0626 24be 7f4e 36be 775f 9c3d 99bd f23d
00000210: 27dc 84bd 0836 5b3c 2c71 1e3e 29da 033c
00000220: cdf7 ccbd 5518 953c 8b44 9e3c 49bf bbbd
00000230: dcb6 bf3d ac90 7a3c 6577 c6bd 32df be3d
00000240: 1756 1a3e 840d bf39 9878 a43c 790f 92bd
00000250: 30e4 00be 527f 8b3d 04a7 3fb7 e177 533d
00000260: bcac 26be decd ab3c ece6 53be 5551 933d
00000270: 8dc7 f33d 0f33 66bd 051d 673d ce4c 713d
00000280: d062 86bd 7a61 3bbe 25cb a8bd cb21 523e
00000290: adb2 2fbd a524 cd3c fe9e 01bd 5e3c 62ba
000002a0: 6b1e 42bd 4985 9dbd 9d7e 0a3e c354 72bd
000002b0: f114 04be dba6 063e 7fbf 703c 0ffb 00bd
000002c0: 7b0d 833e 693f bbbc 668c 79bd 2894 48bd
000002d0: 8467 883d 50f5 16bd 7ed2 d8bd 13a0 6d3d
000002e0: f931 64bd 1ddb 5b3c 2bef 84bd 54f1 f63d
000002f0: 48af df3c e968 e9bd 741b d3bd 6f3e 7abd
00000300: 1e0c b03c 0e27 f9bd 74d9 2dbd 7ad8 3ebd
00000310: 2354 503e 79c8 f73d 4203 eebd 7392 a0bd
00000320: 0ff5 223e 2fe7 853d c671 4cbd 4fdd 4fbd
00000330: eae4 b23b f18e 5b3d f7c3 f1bc 490d 213d
00000340: ab35 f23d d58d 7fbd a7aa 053d 4b03 d4bd
00000350: 32f9 e0bc e9ff b8bd ada2 32bd d434 213d
00000360: a2ea 0ebe b649 823d 82ac 783d ee7e 183e
00000370: 2cb7 213c 5317 5fbc aa64 123c 6f16 6c3d
00000380: 6d0e e9bc 51bb 243e 4009 1d3d 3d1b f6bd
00000390: adc5 693e d2af 18be beb2 02bd f719 c13d
000003a0: a622 a13c 5932 a93d 01f3 463d dd23 aabd
000003b0: 9f5d f93c 3ed9 f03d 33d1 e93c 65b6 803e
000003c0: b807 63be 51e4 b9bc e03f 293d 6fa3 00bc
000003d0: 0ff5 87bc b88f 29bd 7d0f 203d 49ce 91bd
000003e0: e71e 113e 5d62 993c dc80 acbd 5786 d8bc
000003f0: d353 503d 9621 c23d 11a2 f23d 79dc 35bc
-0.11971189 -0.1685365 -0.030568136 -0.020806866 -0.15734546 0.0366953 0.22967124 -0.08909189
0.00081843353 0.01836039 -0.05855161 0.032475024 -0.021658603 0.019162426 -0.056229975 0.07465219
0.03359776 -0.00933158 -0.07984738 -0.21252534 -0.119615525 -0.029018467 -0.024750339 0.1235205
0.11614447 0.1476613 -0.19297399 -0.05288423 -0.07786006 -0.3278617 -0.06072511 -0.061979167
-0.1620204 -0.06635333 -0.09873557 0.092343695 -0.0022738439 0.06852426 0.04939147 0.018110141
-0.1746831 -0.028627874 0.039650563 0.008766174 -0.03218591 0.03558372 0.026931172 -0.08587976
-0.05428997 -0.1619862 -0.07887424 0.0012148108 0.06303501 0.06612343 0.033230007 0.022074832
-0.10103073 0.0042508775 0.026622174 0.10664347 -0.052394904 0.015993461 -0.1295597 0.018373791
0.16394746 -0.27310565 -0.016690178 0.03632448 0.35480276 -0.24153848 -0.19240056 0.052950326
0.061380472 0.03173227 -0.07855148 -0.061176773 0.088707745 0.026156306 -0.02061596 -0.020984584
-0.17940955 0.024338678 -0.08011594 -0.16871925 -0.044077855 -0.018990252 0.03846288 0.0041992753
-0.22259337 0.07143383 0.063762225 -0.022882706 -0.019663537 -0.13513348 0.1246564 0.031220863
0.044179793 -0.0648256 0.037174996 -0.09209301 0.17931086 -0.21164617 -0.016946414 0.32050207
-0.5540143 -0.07619026 -0.16345812 -0.33817163 -0.053954273 0.10401094 -0.05956767 0.20215033
0.033020217 0.0669096 0.08939241 0.055401 -0.16430132 0.033639025 -0.1702337 0.009836538
-0.051799875 -0.08705923 -0.06513932 0.025218489 0.06384094 0.103756405 0.2752861 0.109394476
-0.1603013 -0.17803381 0.07635396 0.11852569 -0.06487303 0.013379581 0.15472859 0.008047619
-0.10008202 0.018200079 0.019319793 -0.09167344 0.093610495 0.0152932815 -0.096907414 0.09319915
0.15071903 0.0003644043 0.020077035 -0.071318574 -0.12587047 0.06811394 -1.14233735e-05 0.051627997
-0.1627683 0.020972189 -0.20693558 0.07193247 0.11903296 -0.056201037 0.05642416 0.058911137
-0.06561816 -0.18298903 -0.08241872 0.20520703 -0.042895008 0.025041888 -0.031645767 -0.0008630211
-0.04739229 -0.07691438 0.13524862 -0.059162866 -0.12898614 0.13149588 0.014694094 -0.031489428
0.25596222 -0.022857385 -0.06092491 -0.048969418 0.06660369 -0.036855042 -0.10587023 0.058013987
-0.05571172 0.01341894 -0.0649093 0.120577484 0.02730526 -0.11396963 -0.10307971 -0.061094698
0.021490153 -0.12165652 -0.042443708 -0.046593167 0.20344596 0.12098784 -0.11621715 -0.07840433
0.15913795 0.065382354 -0.04991319 -0.050748166 0.0054594176 0.053603116 -0.029512389 0.03931931
0.118266426 -0.06239112 0.03263345 -0.103521906 -0.027462576 -0.09033186 -0.04361217 0.03935702
-0.13956693 0.063617155 0.06071139 0.1489217 0.009870332 -0.013616401 0.008935133 0.05763858
-0.028449262 0.1608708 0.0383389 -0.12016914 0.22829314 -0.1491082 -0.031908743 0.094287805
0.019669842 0.08261556 0.04857159 -0.08307622 0.03044015 0.11760186 0.028542137 0.25139156
-0.22170913 -0.022691878 0.04132068 -0.007851466 -0.016596345 -0.041396827 0.03907727 -0.07119424
0.14171945 0.018723661 -0.084230155 -0.026431246 0.05086119 0.09479062 0.11847318 -0.011099928

fc_final1.bias f4 [64]
00000000: 5c18 c0bc 7002 16bc afd4 013d 83ff e23b
00000010: 08f8 76bc 0d49 7fbc 1a8a b33d f319 253b
00000020: 433f cabc 8882 1dbb 9c26 a4bc a5cf 8f3d
00000030: 0564 893b 595a fe3c a6e4 d3ba 0b9b dc3a
00000040: 8d42 0cbb 095a 983a 249f d6bb 6b57 98bc
00000050: 528a 8ebd b579 9d39 7d1f 733c f3c1 44bd
00000060: eda5 0cbd dbfe 903c e1fa 5ebc 4aa0 843c
00000070: 2501 8e3d ab92 233c 95e7 313d 6687 9dbc
00000080: 8404 26bd 2f1c eb3c 642d bcbc 5450 0f3d
00000090: aa04 123d b279 b3bb 9690 4cbd 5aa3 d4ba
000000a0: bea5 ce3c 898f 023c 37a4 283c 9e8e d33c
000000b0: cea9 933c 24de 78bc fa31 febc 5db9 2f3c
000000c0: f46c a03c 1eac 1bbd 8ddc acbc 2fea 12bd
000000d0: cfd2 39bc 6078 32bd 738c 8dbc 8171 b3bd
000000e0: b610 d23c 0e0c a43b 00c4 6a3c 173b f6bb
000000f0: 08c5 2d3d 1835 bf3c 9b2d 13bd f3ee bc3b
-0.023449115 -0.009155855 0.03169697 0.006927432 -0.015073784 -0.0155813815 0.08766575 0.002519247
-0.024688369 -0.0024034102 -0.020037942 0.07022027 0.0041928315 0.03104894 -0.0016166165 0.0016830874
-0.0021401972 0.0011623512 -0.0065497328 -0.018596372 -0.06959976 0.00030036052 0.01483905 -0.048036527
-0.034337927 0.01769965 -0.013609619 0.016189713 0.06933812 0.009983699 0.043433744 -0.019229602
-0.04053165 0.028699962 -0.022970863 0.034988716 0.03564898 -0.0054771537 -0.049942575 -0.0016222999
0.025225516 0.007968792 0.010293058 0.025824841 0.018025305 -0.015189681 -0.03102969 0.010725346
0.019583203 -0.03800594 -0.02110126 -0.035867866 -0.011341765 -0.04357183 -0.017278885 -0.087618835
0.025642734 0.00500632 0.014328957 -0.0075143683 0.04242423 0.023340747 -0.035932165 0.0057657897

fc_final2.weight f4 [1, 64]
00000000: ccc3 ee3a 45e5 98b8 f66b c63a 32a2 8f3b
00000010: 7d9c 1b3b 14a0 bc3a d54d 9f3e 3546 a0bb
00000020: e91c a8ba 298e 4d3b 93ea 47ba a16f c03d
00000030: c85c d839 0198 ba38 5e60 61ba b2e6 383a
00000040: 350f 033c 2e80 d3ba bbdb 233b 2ff0 57b7
00000050: ffc4 08bb 11d6 763a 1554 16b9 8f11 d6ba
00000060: c1d9 a0bc f137 fe3b 4452 5c3a 0b48 f8ba
00000070: 98eb fab9 6f5a 473c 395b bcba 3169 4cbb
00000080: 4d7d 823a b225 76bb 7cbc 853b a65d a83a
00000090: f69a 623c 7939 dab9 f52d 6b3b 78ba 673a
000000a0: d54c 34ba 7d1f d8ba d596 65bb 4d32 8d37
000000b0: 3c47 6ab9 eff8 523a fda9 403b fa91 bcbb
000000c0: 002a daba 9e6b cfba 5e41 29ba 0ba5 0c3b
000000d0: 93bd 18ba 7b6a 87ba 67b5 d339 9af7 01bc
000000e0: 3786 f938 4629 83bb 88be 123d d097 6b3b
000000f0: 4ca1 ba3a cb4e 1139 fb81 c63a 76d2 f33b
0.0018216311 -7.2906296e-05 0.0015138376 0.004383349 0.0023744397 0.0014390969 0.3111407 -0.004891182
-0.0012825999 0.0031365252 -0.0007626202 0.093962915 0.00041267858 8.897484e-05 -0.00085974287 0.0007053419
0.007999231 -0.0016136223 0.0025002796 -1.2870921e-05 -0.0020869372 0.00094160537 -0.00014336438 -0.0016332137
-0.019635083 0.0077581336 0.00084045925 -0.0018942369 -0.00047859247 0.012167557 -0.0014370448 -0.0031190629
0.0009955555 -0.003755909 0.004081307 0.0012845292 0.013830891 -0.0004162302 0.0035885547 0.00088397367
-0.0006877904 -0.0016488876 -0.003503253 1.6831933e-05 -0.00022342516 0.0008047958 0.0029398196 -0.0057547064
-0.0016644597 -0.0015824919 -0.0006456579 0.0021460678 -0.00058265886 -0.0010331416 0.0004038021 -0.007932568
0.00011898245 -0.004002723 0.035826236 0.0035948642 0.0014238744 0.0001385763 0.0015144938 0.0074408604
