weights_new/DecoderEpochnew275_17_8.pt (torch_old, 461851 bytes, 33 tensors)

attn_layer.0.weight f4 [64, 192]
00000000: 9ec7 39bd 0d06 9d3d e66a 283e bfd1 aabe
00000010: 509b 4bbd 10f2 293e 8ecb 033c 74d2 49be
00000020: 991e 443d 70b2 81bd 4d8e c43d 5d98 9c3d
00000030: 9195 f53d 264f 863e d387 19b9 fc9f 87bc
00000040: 3559 82bd 501b f23d ea36 4abd 0f6f 3cbc
00000050: 1c2e 2c3e a3f8 0cbd 2e4c eb3d 6033 453d
00000060: f4eb f83d 256d 5a3d a5ff d5bd c095 0dbd
00000070: 2fe0 1a3d ea06 873e 8d57 7b3e 7439 593e
00000080: 9ef8 023e eb1c 6f3e 4506 04be 4e6a 57be
00000090: e1f9 1abd babf c33d a044 27bd 0ded 8bbd
000000a0: fd8f 623d d7eb e8bd ffcb 7ebe 517b 4dbe
000000b0: 1814 53be e98b 5f3e 38ac c6bb 8fe9 ed3d
000000c0: fd97 783e 69f9 1f3d 32e8 543e 9ebe a8be
000000d0: 2734 533e f6f0 de3d 25f9 ee3d 204b 1cbd
000000e0: ecdd 95bd 731f 553d 32b9 033e 4719 603e
000000f0: 937a d5bc 86c6 15be 3020 6f3c 3f6c 30be
00000100: db4a bcbd cc1a c53d 857b 2e3e 8097 a6be
00000110: 1253 57bd 3f8f e63d f4b6 853d b914 a4be
00000120: 03b7 713c c235 63bd 9b25 5b3d 1899 a13d
00000130: f31f 153e 2c6c 933e de69 2b3d a428 95bd
00000140: 1a6a b7bd 92ec 963d 92a3 693d ee5a 8abd
00000150: 4ffb 9c3e d63f 3e3d 78cb 123e eb65 383d
00000160: af27 403e c5c9 363d 45fc 1fbe 648e bdbd
00000170: e6e0 4a3d 497c 873e 9469 603e a7a8 913e
00000180: 0e7e 403e 0ff7 703e 108e 41be e169 c1bd
00000190: 2a00 5cbb a2af 33bd 3e60 853c 5847 babc
000001a0: 8c04 18bb 83e4 0dbe ba7e 7fbe 1859 60be
000001b0: 4ff5 6cbe 29c5 8e3e 6b2d 5cbc 215c 813e
000001c0: 1e82 a53e 1630 083d ef85 9d3e 99be f3be
000001d0: 5491 933e ef01 123e 63b3 6b3d 67bd 81bc
000001e0: 2444 cfbd b646 043e 398e 6d3e d7ef b13e
000001f0: b803 623d 1a2a edbd 0550 8dbd aee4 19be
00000200: 04df fabd a242 a53e 0fce d23d def5 b23c
00000210: 90fa 7fbd 00ee 7c3e 3aa4 8cbe 6155 613e
00000220: f1a4 c13e 305a ec3d 035d 163e 896e e73c
00000230: 14ea 073e 27ed ccbe b80f dd3e a0a5 babd
00000240: c946 a1bc f9b7 adbe 3d28 4f3f bebe 9c3c
00000250: a371 03be fd6f 3a3e d52d b6be adb2 9bba
00000260: a3da 6dbe a5d0 44be ecf3 bdbd cf01 03be
00000270: d730 d6be 7b0d 923c d977 1abd 38ba 4e3d
00000280: 1c23 393e b02c 4e3d 1388 1b3e 19fc 9bbe
00000290: 3cfd 98bd 464f 2b3e 540b 323e 9ce3 71be
000002a0: 97fb 6b3e 9798 7e3d 4415 23be a8a7 83bd
000002b0: 70c5 ac3d 405a 06bf feb2 e9bd 5ba3 4dbe
000002c0: 2fc4 0e3e 1a26 09be 1a75 86be 029f 11be
000002d0: 565e 7bbe 2d26 a5bd 1860 82be 68ec 9cbd
000002e0: 4314 053e 9d50 dcbe 51c4 96be 5858 a8be
000002f0: cdda 823e 85de 1a3f 0325 8ebe fbab d4be
00000300: 926c 8c3c f064 25be 8037 22be b0fa 8a3e
00000310: 516a ed3d fb62 a7bd cbb7 a4bd ddd0 933e
00000320: 6214 dd3c be43 d03d d280 fdbd f3d9 5f3d
00000330: 58e1 debd c04b 93be d605 44bc 8a12 213d
00000340: 3ccd b53d 29b0 dfbc d3a3 90bc 847e 143d
00000350: 6d9d 82be 36a5 963c 8223 43be 3f58 e0bd
00000360: 7a10 31be e687 eabd 70af a23d 228a eb3d
00000370: 8a27 073d 9bc6 72be 4552 0ebe 0058 5fbe
00000380: 71de 33be a6f1 a3be ed27 2f3e 5495 f93d
00000390: df03 0d3d 283e 5abb 63b5 553d 624b 02bd
000003a0: 39d0 00bc 96d2 c13d 72d6 603e 6e0f 293e
000003b0: 2368 973e 9761 3abe 5aad b23d af7f 3abe
000003c0: a5d0 48be c3df 89bd c7fa 72be 9e53 af3e
000003d0: 91bc 9cbe 90bf 71bd 1523 bbbc fbc6 4e3b
000003e0: f7d4 523c 6b58 c9bd bd36 2fbe ce49 9ebe
000003f0: d510 3fbd 1e99 b23d 3c64 ca3c 438b 1e3e
-0.045356385 0.0766717 0.16447029 -0.3336315 -0.049708664 0.16596246 0.008044137 -0.19709188
0.047880743 -0.063328624 0.09597454 0.076462485 0.11991418 0.2623226 -0.00014641816 -0.016555779
-0.06364671 0.11821616 -0.049368776 -0.011501088 0.16814464 -0.034416806 0.114891395 0.0481447
0.121543795 0.053326745 -0.10449151 -0.03456664 0.037811454 0.26372463 0.24545117 0.21213323
0.12790152 0.23350875 -0.12893017 -0.21036646 -0.03783596 0.09558053 -0.04083693 -0.06832323
0.0553131 -0.11373108 -0.24882506 -0.20066573 -0.20613134 0.21830715 -0.0060630105 0.116168134
0.24276729 0.039056215 0.207917 -0.3295793 0.20625363 0.108858034 0.11668614 -0.038157582
-0.07317719 0.052031945 0.12863615 0.21884643 -0.026059425 -0.14626512 0.014595076 -0.17228793
-0.09193965 0.09624252 0.17039306 -0.3253746 -0.052569456 0.11257791 0.06529036 -0.3204706
0.014753106 -0.05547119 0.05350266 0.078905284 0.14562969 0.28793466 0.04184901 -0.07283142
-0.08955784 0.07369341 0.05704076 -0.06755625 0.30660483 0.046447597 0.1433543 0.04501907
0.18765138 0.044626016 -0.15623577 -0.092556745 0.049530886 0.2646201 0.21915275 0.28448984
0.18798086 0.23531745 -0.18901849 -0.09444023 -0.0033569434 -0.04386867 0.016281243 -0.022739097
-0.002319607 -0.13856702 -0.24950686 -0.21908987 -0.23140453 0.27884796 -0.013438563 0.252656
0.32325834 0.033248983 0.30766246 -0.47606352 0.28821814 0.1425855 0.057544123 -0.015837384
-0.10120419 0.12917599 0.23198785 0.34753296 0.055179328 -0.11580296 -0.06900028 -0.1502864
-0.12249568 0.322774 0.10293209 0.021845754 -0.062494814 0.24700165 -0.27469045 0.22005226
0.37821153 0.115406394 0.14683919 0.02825095 0.13272887 -0.40024683 0.43176055 -0.09113622
-0.019687073 -0.33929422 0.80920774 0.019133922 -0.12836318 0.18206783 -0.35581842 -0.0011878811
-0.23227935 -0.19220217 -0.0927504 -0.12793659 -0.41834137 0.017828694 -0.037711952 0.05047056
0.180798 0.050335586 0.15188627 -0.30465773 -0.074701756 0.16729459 0.17387134 -0.23621982
0.23045193 0.06215724 -0.15926081 -0.06428462 0.08436096 -0.5248146 -0.11411093 -0.20081846
0.13942026 -0.13393441 -0.26261216 -0.14220813 -0.24547705 -0.08063922 -0.2546394 -0.076622784
0.1299601 -0.43030253 -0.29446653 -0.328799 0.25557557 0.6049579 -0.27762613 -0.4153746
0.017141614 -0.16151786 -0.15841484 0.27144384 0.11592544 -0.08173176 -0.08042868 0.28870288
0.026987258 0.10169171 -0.12378086 0.054651212 -0.10882825 -0.2876873 -0.011964282 0.03932432
0.08877036 -0.02730568 -0.017656242 0.036253467 -0.2551073 0.018389326 -0.19056514 -0.109543316
-0.17291442 -0.11451702 0.07943618 0.11500956 0.03299669 -0.23708574 -0.13898571 -0.21810913
-0.17565323 -0.320203 0.17105074 0.12186685 0.03442752 -0.0033301208 0.052174937 -0.031810172
-0.007862144 0.09463994 0.21956804 0.16509792 0.29571638 -0.1820129 0.087244704 -0.1821277
-0.19610842 -0.06732132 -0.23728476 0.34243482 -0.30612615 -0.05902058 -0.022843877 0.0031551707
0.012868158 -0.098313175 -0.17110725 -0.30915684 -0.04664691 0.08720611 0.024705999 0.15482812

attn_layer.0.bias f4 [64]
00000000: 0c82 a7bd 4cad e23d 7114 ddbd df89 7b3d
00000010: 78f3 ad3d aaae b0bd 7cc2 923d 21f8 ba3d
00000020: a834 a1bd c0f7 05be 7f37 2cbe 75f4 7fbd
00000030: be7f 4cbd 1337 e63d e201 e13d b2aa 28bd
00000040: c070 123e 5ea0 db3d 26d9 fbbd 0632 7d3d
00000050: 077c 8f3d 09b0 b73d d7e4 f23d c940 a5bd
00000060: d284 c9bd 0959 823d aaa1 04be 4577 063e
00000070: 7fb8 913d cdd2 013e 1c0a 843d 4635 073e
00000080: f45c 753d c225 223e 1abe da3d 1397 0e3e
00000090: 9f2a a63d 7cf1 c83d 0c11 94bd d8f5 033e
000000a0: cd88 c1bd f246 db3d dd30 7f3d 1927 143e
000000b0: 813c d1bd 5bfd f6bd f686 ec3d fa35 123e
000000c0: c024 d0bd d4fd f0bd f54c b9bd 2365 a3bd
000000d0: ae17 91bd 4760 eabd 5b94 bf3d e4de 8b3d
000000e0: 0ec4 fbbd 518c bcbd b190 88bd f2cb e03d
000000f0: ac22 9cbd 631f 16be 11a6 f9bd 693e c53d
-0.08179101 0.1106821 -0.107949145 0.06141078 0.084937036 -0.086270645 0.07166001 0.09129358
-0.078713715 -0.1308279 -0.16818045 -0.06248899 -0.049926512 0.11240973 0.10986687 -0.041178413
0.14300823 0.10723947 -0.12297277 0.061815284 0.07006078 0.08969123 0.11860054 -0.080689974
-0.098397866 0.06364638 -0.12952295 0.13131435 0.07115268 0.1267807 0.06447241 0.13203916
0.0599031 0.15834716 0.1068079 0.13924818 0.08113598 0.098116845 -0.07229814 0.1288675
-0.09449921 0.10706891 0.06230246 0.1446804 -0.10216618 -0.120600425 0.11549179 0.14278403
-0.101632595 -0.11767164 -0.090478815 -0.07978275 -0.07084595 -0.11444145 0.093544684 0.068296224
-0.12293254 -0.09206451 -0.06668223 0.109763995 -0.07623801 -0.1466041 -0.12189878 0.096310444

attn_layer.2.weight f4 [1, 64]
00000000: 65ce c93e aab3 e4be b860 c33e 8836 e7be
00000010: a0d1 d9be dfec c63e bbbf d3be eefa dabe
00000020: 0065 b13e a4c1 cc3e 463c cc3e efd8 df3e
00000030: b1ab da3e 276b d3be 0a4c bfbe 6191 db3e
00000040: 6649 c8be 4b32 e8be 8d78 bd3e a246 ccbe
00000050: 89d1 c7be 7c5c d5be 0db1 f5be 22ab ae3e
00000060: 2a7b ba3e bcd6 d1be 01cc b73e 5a75 bcbe
00000070: 24fd e5be 6937 cfbe d089 c0be 28f7 c1be
00000080: 1990 d9be 269e acbe e143 b8be 9557 cbbe
00000090: 5a75 cabe 1986 c2be d116 e43e df01 afbe
000000a0: 0394 c23e dd5f debe a9dd ecbe 092d b7be
000000b0: 92d6 c43e 7fda b03e 7532 c4be fc33 ccbe
000000c0: f016 c03e 0fc3 e13e 9a32 da3e 952c e23e
000000d0: 71e4 c33e 24b2 d03e 9a82 dabe 5b32 e9be
000000e0: 9bdd ca3e cb14 dd3e e57d e03e 6b48 dfbe
000000f0: f843 e43e 44ef db3e a331 cb3e ab56 d0be
0.3941528 -0.44668323 0.38159728 -0.45158792 -0.42542744 0.38852593 -0.41357216 -0.4276957
0.3464737 0.39991486 0.39889735 0.43720195 0.42709115 -0.41292688 -0.373627 0.42884353
-0.391185 -0.4535087 0.37006035 -0.3989764 -0.3902705 -0.41672122 -0.47986642 0.3411494
0.36422092 -0.40984142 0.3589783 -0.36808282 -0.44919693 -0.40471962 -0.37605143 -0.37883878
-0.4249275 -0.33714408 -0.35989287 -0.39715257 -0.39542657 -0.37992933 0.44548658 -0.34181115
0.3800355 -0.43432513 -0.46262863 -0.35776547 0.38444954 0.345417 -0.38319746 -0.3988341
0.375175 0.4409413 0.4261673 0.44174638 0.38260224 0.4076091 -0.42677766 -0.4554623
0.39622197 0.43179926 0.4384605 -0.43609938 0.44583106 0.42955983 0.39686307 -0.40691122

lstm_layer.weight_ih_l0 f4 [256, 1]
00000000: 45fa cb3e 8ee7 32bd 59e7 063f f44b d03d
00000010: 30fb b1bd 8d2a 2a3f 77fd 5a3d 6f1d efbc
00000020: 628c c63d 54a1 6c3e 5ad7 1d3d 59c9 363d
00000030: e159 ebba 4879 acbd 28b0 3b3e 26bd 2d3e
00000040: e80d cebd 1514 153f e842 293e 2687 343c
00000050: 8376 78bd bdbb c93d 03f1 413e 464a bdb9
00000060: c7d2 ae3d 4e6b f53d c083 093e 4621 703d
00000070: cf96 e23d 09b8 47be 881b 08bd db58 893e
00000080: 2903 0d3f 209b ea3d 794b e3bd bf3e bc3c
00000090: f8e8 21bc 3367 ddbc a78a 163e 923a 89bc
000000a0: 6abe 013f b280 9cbd 16e8 003e f232 8f3d
000000b0: 58d8 24bd 10cc 08bd 1279 a43d 9837 893e
000000c0: 127a 0e3d 821a 2f3e 7d59 09be 0f90 5e3d
000000d0: f2f7 5cbe 2d41 62bd dafc 0c3e a25d 253d
000000e0: 7428 64bd 8e42 15bc 1284 0abd 806d 853e
000000f0: de1f e0bc 8781 903e c476 803d 9025 ac3e
00000100: 4bdb af3e 2b94 093e c2d8 e43e 304f 97bd
00000110: 31a9 91bd 38f9 263f efa1 203d 6672 93bc
00000120: 7571 0c3e 374d 8a3e bf34 fdb9 a455 e83d
00000130: 1896 f7bb ff6a 47bc 4873 7f3e 86f6 123e
00000140: 25ae 003e fa62 063f 0ea5 0f3e cc21 d73d
00000150: bd61 36bd 0c70 ea3d 4777 abbe 0e72 e7bb
00000160: 9ec1 6b3e c11e 163d d101 093d 2f02 d4bc
00000170: a221 6b3d 4580 9ebc ab3a 2fbd 964a bd3e
00000180: 1750 f33e 5d59 b2bd 8196 0cbd d732 e63d
00000190: 0136 2a3e 6f33 c53c bdee 3b3d a8c7 94ba
000001a0: bb77 d63e 7296 9d3d c7c1 f43c bbe6 9d3d
000001b0: 8e76 4f3b d5cb 81bd feac c93c c0e1 273e
000001c0: cc95 d43c bc9d fcbc 8bc3 21bd e23e 8f3d
000001d0: 70c8 5dbe 7e33 5bbc e977 7c3c dd3b 50bb
000001e0: d649 65bd 4932 4c3e 6111 8b3c 9e51 353e
000001f0: 6798 d33d 9974 6a3e 5fab 353d a3ed 8a3e
00000200: c9b3 483e 2dc9 c9bd 9ccc 813e 648c 193e
00000210: 3f01 83bd 3313 a13e f928 d5bd b987 31bc
00000220: 567e 993c 209b 5a3e 5ea8 403d 2394 f6bd
00000230: dd6a 6dbd 3783 44be 0445 41be 6bf3 0fbe
00000240: b90b 1c3d 1142 a53e bc2e 263e 079d b1bd
00000250: 0b5f 753c 6350 543d 2244 913b 88e9 183c
00000260: f993 023d a42f 933d d792 75bd 9b0a fbbd
00000270: 3b75 f7bd 11e0 eebd 8860 45bd b623 ce3d
00000280: 4d0e 993e 19c3 e7bd 1b04 d63c 5c82 373e
00000290: 8b28 f13d f18b 61bd 8ba7 a6bb 4494 e13c
000002a0: 9866 96be 4d24 9f3d 8320 263e 7f4b 6b3d
000002b0: adc9 e33d fdf2 8d3b 247c 143e 8879 5f3e
000002c0: 5a4c 57bd b3fd 2bbd a466 033c cb5d 183e
000002d0: c206 d2bd 3edd 853c 48e6 0cbd b3a7 053e
000002e0: 8997 a63d 4982 fabd 75ca 4a3d 0269 66be
000002f0: bc04 ca3c 038f 25be 84b3 1bbe 94b9 f2bd
00000300: 2533 e93e f1f8 2abc 7c3a 2b3f ad43 c3bd
00000310: d883 d7bd 1102 4d3f b0de 013e b9b2 6bbe
00000320: 4c62 2abd 5dc2 473e 9fcc 5ebc 73bf 3d3d
00000330: 8749 963d aaa9 dbbc 9c52 113e 73b0 943e
00000340: 38b8 e83d 2c5a 313f d6e6 d53d ea93 a23c
00000350: 9ebb 12be d91b 89bd 4168 643e 5aed ccbb
00000360: 0b28 9a3d 9365 883e 930e b7bb 1a1c 243e
00000370: ec3c 4f3d 071c aebe f9df c33c 4865 a93e
00000380: b2eb 133f 1c2e 5bbd eeb1 89be 1d68 c43d
00000390: 8dd7 043e 5441 283e 151b 60bd 1d81 d7bb
000003a0: 12b8 0b3f 97d3 8fbc 124a e93d ea2e 403e
000003b0: 4b2f 08bd 1f6a 003e 7071 db3d 813d f53e
000003c0: 6a33 a2bd efcd 3a3e 9e6c 66be 9cbf 813d
000003d0: 6a99 bbbe d7ac 2ebd c350 f33d fef3 213d
000003e0: 2829 4cbc 3ade 883c 9bb5 f73d c8ec 963e
000003f0: 3751 91bc 13c6 703e f44f 883e b874 d73e
0.39839378 -0.04367786 0.5269676 0.10170737 -0.08690488 0.6647118 0.05346438 -0.02918884
0.09694745 0.23108417 0.038535453 0.044625614 -0.0017955863 -0.0842157 0.18328917 0.16966686
-0.10061246 0.5823377 0.16529429 0.01101855 -0.060659897 0.09850261 0.18939595 -0.00036104227
0.08536296 0.11983357 0.13429165 0.058625482 0.11063921 -0.19503798 -0.03322938 0.26825604
0.55082947 0.11455369 -0.1109838 0.022979138 -0.009882204 -0.027026748 0.14701329 -0.016751561
0.50681174 -0.07641734 0.12588534 0.06992139 -0.040245384 -0.033397734 0.08030905 0.26800227
0.034784384 0.17099956 -0.13413043 0.054336604 -0.21578959 -0.055237938 0.1376833 0.0403725
-0.05570264 -0.009110106 -0.03381736 0.26060104 -0.027358945 0.28223822 0.06272653 0.33622408
0.34346995 0.13435428 0.44696623 -0.07388151 -0.07112349 0.6522403 0.039216932 -0.017998885
0.13715155 0.27012035 -0.0004829522 0.1134446 -0.0075557344 -0.012171506 0.2494632 0.14351854
0.12566431 0.52494776 0.14027807 0.10504493 -0.044526804 0.114471525 -0.3348944 -0.007063157
0.23023078 0.036650423 0.033448998 -0.025879947 0.05740512 -0.019348273 -0.04278056 0.36970967
0.4752204 -0.08708451 -0.03432322 0.11240166 0.16622163 0.024072377 0.045881975 -0.0011351006
0.41888222 0.07694711 0.029877556 0.07710024 0.0031656357 -0.06337706 0.024618622 0.1639471
0.025950335 -0.030836932 -0.039493125 0.06994416 -0.21658492 -0.013378976 0.015409448 -0.0031773963
-0.05597862 0.19941057 0.01697606 0.17706916 0.10331803 0.22896041 0.044352885 0.27134427
0.19599833 -0.09852824 0.25351417 0.14994961 -0.06396722 0.3145996 -0.104082055 -0.010835581
0.018737 0.21348238 0.047035567 -0.120399736 -0.05796324 -0.1919068 -0.18873984 -0.140577
0.038097117 0.32276967 0.16228765 -0.08672529 0.014976273 0.051834475 0.004433171 0.009333022
0.0318794 0.07186821 -0.05995449 -0.12257882 -0.12082907 -0.11663831 -0.048187762 0.10065405
0.29893723 -0.11316509 0.026125005 0.17920822 0.11775311 -0.0550651 -0.0050858906 0.027536519
-0.29375148 0.07770596 0.1622334 0.057445046 0.11122451 0.004331945 0.14500481 0.21823704
-0.05256305 -0.041989993 0.008020077 0.14879529 -0.10255195 0.016340848 -0.0343993 0.13052253
0.08134372 -0.12231881 0.049509484 -0.22500995 0.02466046 -0.16167836 -0.15205199 -0.118518025
0.45546833 -0.010435329 0.66886115 -0.095343925 -0.10523194 0.8008128 0.12682605 -0.23017396
-0.04159765 0.19507737 -0.01359859 0.04632516 0.07338243 -0.0268143 0.14191669 0.2904087
0.11363262 0.69278216 0.10444419 0.019845922 -0.14329383 -0.06694765 0.22305395 -0.0062538804
0.07527169 0.26639995 -0.005586454 0.16026345 0.05059521 -0.34005758 0.02391051 0.33085084
0.5778152 -0.05351077 -0.26893562 0.095901705 0.12972851 0.1643117 -0.054713327 -0.006576671
0.54577744 -0.017556949 0.11391081 0.18767896 -0.033248227 0.12540482 0.10714996 0.47898486
-0.07919963 0.1824262 -0.22502372 0.06335375 -0.36640483 -0.0426453 0.118806385 0.03953933
-0.012460984 0.016707528 0.12095185 0.29477525 -0.017738922 0.2351306 0.266235 0.42081237

lstm_layer.weight_hh_l0 f4 [256, 64]
00000000: 3fa0 013e 2de1 18be cda0 003f e9f3 2ebe
00000010: d241 4fbe bc82 1b3f 9d7c 11be 2c7b ccbe
00000020: 639f 86bd 1037 fabb f327 5b3e 4960 893d
00000030: b358 af3d a2ea e73d 68f8 79bd 20a4 c73b
00000040: 6659 e3bc 8496 0a3f a917 f33c 4092 17bd
00000050: a6c1 c63e a526 1f3e a098 7e3c 7eb3 023e
00000060: 9d9b e83e a217 bf3c 5d5e 13be 3bc7 2fbe
00000070: 0064 10be df2b 973e c3fc 043e 7fa0 f23e
00000080: bc08 a93e 7c09 f83d 24e6 c6be 8cf6 d93c
00000090: 4e93 b63c f1c2 d5bb 75c8 8ebd c381 3d3c
000000a0: 1ace a1be fdb7 833c 960c 1d3e fb4c eebd
000000b0: 4b19 78bb c388 4a3e 9b3b 573b d6bf ad3e
000000c0: 934d 903e 630a fc3d a077 603e ad5a 19be
000000d0: 14a8 283e 9976 9e3d 1679 8a3d f81c 82bd
000000e0: 1c95 8839 f433 e33d fd86 de3d 6ee3 b0bb
000000f0: 7a67 dd3d ad91 a0be 6261 35bc 8fda 8bbe
00000100: 80b2 45bd c224 c5bd 8eae a13d 61b7 6e3b
00000110: a06b 91bd 692c 1d3d e7be 0dbd 6201 32be
00000120: d1da c93d 6a13 efbd b58f efbc 6b90 a63d
00000130: eb4a 4e3d a327 febc 1c24 dd3d 184f 81bd
00000140: 8d5f a33d b270 993c 551d e0bd 405c 9b3d
00000150: aaba 5f3e 5da8 3e3d eb6b 04bd 2cd3 223c
00000160: c29c 0e3e 3f0a 84bd e353 0b3d 4e0b 63bd
00000170: a939 96bc 8b07 133e 880d 073e 1728 253e
00000180: 144c 0f3e e69c 78bd a82c e1bc 4662 3c3d
00000190: 1a2d 5f3d 5d97 243d 6d89 73bd 0e1f 0a3e
000001a0: 71ba 17bd aadf 4abd 7c61 6bbd 96dd d9bd
000001b0: 1374 d3bd 07d5 1dbd 131c bb3a 8936 af3d
000001c0: 2e48 a43d 8341 83bd 0743 d63d 101a 43ba
000001d0: 87f6 5e3e 5520 9fbc a1d7 26bc 66e1 f3bc
000001e0: 99be dbbd 2c5a 013e 98b2 ca3d c697 1a3d
000001f0: 8a30 01be 3d58 1bbd 1ffa cebd f462 66bd
00000200: e71f d83e 31b4 adbd 8d51 c33e 85ad 93bc
00000210: 5a35 6cbe 7afc cc3e 0f74 23be 665a 9ebe
00000220: 09e4 0fbd b200 ca3d 9f3d 2a3e dfbe 843d
00000230: 52ee 553d 7b9b b53d 4e7d d9bc c5a0 a53c
00000240: e76f edbd 9544 c63e 8091 7d3c d17f b7bd
00000250: 3a76 db3e bc02 c73d 0885 893e 52be 263e
00000260: 0295 ab3e 3551 a53e 0607 99be 3711 3fbe
00000270: 83b1 543d e9d0 463d 8299 983d cf17 ce3e
00000280: f5f3 ca3e d337 c8bc b33b 8abe b2eb ce3d
00000290: a1ac 67bd 7ec4 71bd e6c4 8bbc b1de 333d
000002a0: d9ba 7bbe 8ea6 9cbd 9a1a 593e 02fa 89bd
000002b0: 6bcb 42bd afe9 cd3e 5136 263e dbd4 1a3e
000002c0: fd08 693e 6e1c 35ba 3dea b73e 8956 243e
000002d0: 53a2 513e cbf2 f73d 1e6d 1fbd f328 c83d
000002e0: 5447 bdbd 31bc 1bbd ae60 613e 58a8 42be
000002f0: 36a7 973d a303 75be a1d8 9cbd e2d9 87bd
00000300: da17 7fba cfc8 de3d b7f9 85bd 75bb 623d
00000310: cd74 8ebc 0024 3cbd accf e9bd 8e0f 323d
00000320: 1759 7f3c 9b65 80bc 7bb6 9a3b 80c8 adbd
00000330: e862 77bd b3c2 58bd 1c61 21be 4243 f7bd
00000340: 003a e03d 9f10 083e 3dfb 89bd 2884 b83d
00000350: 90c4 8b3d 05b2 823d 2422 233c bbf3 d1bd
00000360: f462 423c ec35 cabd f3c1 2abe 9f5a f0bd
00000370: 4386 af3d 1ee3 12bd a4b9 7cbd b5f6 25bd
00000380: 5f99 dcb9 e842 2ebd 942f 3cbd ea8b ccbc
00000390: 93b0 c83d dcb3 fa3c de4b 23bd 35ce 37bd
000003a0: 3181 2fbe 2137 3dbd fc77 e4bd d31e 58bd
000003b0: 13c6 e0bd 1a08 cf3c 816b bf3d 1f73 7fbd
000003c0: dac9 183e 2836 083c 8990 55bd 16dd dd3c
000003d0: 4978 ce3d a6f0 e8bd c337 aebc 1175 a1bd
000003e0: 76cb 99bd 71cb 2ebc af74 b93d a860 e53d
000003f0: 2a3f b7bc d85d d73c 2249 2d3d b3b5 1abe
0.12658785 -0.14929648 0.5024536 -0.17085232 -0.20239952 0.6074636 -0.14207692 -0.39937723
-0.06573369 -0.0076359585 0.21401958 0.06707818 0.0856184 0.113240495 -0.061027914 0.0060925633
-0.02775259 0.5413592 0.029674368 -0.03700471 0.38819617 0.15542085 0.015539318 0.12763783
0.45431224 0.023326699 -0.14391465 -0.17165844 -0.14100647 0.29525658 0.12987046 0.47388074
0.33014476 0.12111184 -0.38847458 0.02660682 0.022287037 -0.006523483 -0.06971828 0.011566582
-0.31602556 0.016078943 0.15336832 -0.116357766 -0.0037856873 0.19778733 0.0032841924 0.33935422
0.28184184 0.123066686 0.21920633 -0.14975996 0.16470367 0.077374645 0.067613766 -0.063531816
0.00026051037 0.11093894 0.10865591 -0.0053982055 0.10810752 -0.31361142 -0.011070581 -0.27315184
-0.048265934 -0.096261516 0.07894622 0.003642522 -0.07100606 0.03837243 -0.034605887 -0.1738334
0.09856189 -0.11673625 -0.02924333 0.08133014 0.050364416 -0.03102476 0.10797903 -0.06313914
0.07977209 0.018730495 -0.10943095 0.07585955 0.2184855 0.046547282 -0.03232948 0.009938043
0.13926986 -0.06447267 0.034015547 -0.055430703 -0.018338041 0.14358346 0.13188756 0.16128574
0.13993865 -0.060696505 -0.027487114 0.04599216 0.05448637 0.040183414 -0.05945723 0.13488409
-0.03704304 -0.04952971 -0.057466015 -0.10637967 -0.10324874 -0.038533237 0.0014275335 0.08555324
0.0802158 -0.0640898 0.10462003 -0.0007442543 0.2177373 -0.019424597 -0.010183246 -0.029770564
-0.10729713 0.12632054 0.09897345 0.0377424 -0.12616172 -0.037925947 -0.101063006 -0.056246713
0.4221184 -0.084816344 0.38148156 -0.018027076 -0.23067227 0.40036374 -0.15962242 -0.30928344
-0.03512958 0.09863414 0.16625069 0.06481718 0.052229233 0.08867546 -0.026549008 0.020218262
-0.11593609 0.387242 0.015476584 -0.08959926 0.42863637 0.097173184 0.26859307 0.16283539
0.3351212 0.3228852 -0.2988817 -0.1865891 0.0519271 0.048539076 0.07451154 0.4025254
0.3963925 -0.024440682 -0.26998672 0.10103549 -0.056561116 -0.05902528 -0.017061662 0.043913547
-0.24582995 -0.07648955 0.21201554 -0.06737138 -0.047557276 0.4021735 0.16231658 0.1512026
0.22757335 -0.00069088384 0.35920897 0.16048636 0.20472078 0.12106856 -0.03892242 0.097734354
-0.092421204 -0.03802127 0.22009537 -0.1900953 0.0740494 -0.23927169 -0.07658506 -0.06633355
-0.0009731032 0.10878145 -0.0654177 0.055354554 -0.01738968 -0.04593277 -0.114165634 0.043471865
0.0155852055 -0.01567345 0.0047214604 -0.08485508 -0.06039706 -0.052920055 -0.157597 -0.12073375
0.109485626 0.1328759 -0.06737373 0.09009582 0.06824601 0.06381611 0.00995687 -0.10251566
0.011864413 -0.09873566 -0.16675548 -0.117360346 0.0857053 -0.035861127 -0.06170048 -0.04051848
-0.0004207594 -0.042544276 -0.04594381 -0.02496906 0.09799304 0.030603342 -0.039867274 -0.04487439
-0.17139126 -0.046195153 -0.11155698 -0.05276377 -0.1097528 0.025272418 0.093466766 -0.062365647
0.1492075 0.008313693 -0.052139793 0.027082961 0.10081536 -0.11374025 -0.021266824 -0.07883657
-0.0750951 -0.010668621 0.09055459 0.11200076 -0.022368986 0.026289865 0.042306073 -0.15108375

lstm_layer.bias_ih_l0 f4 [256]
00000000: feaa 87bb 6339 1fbd 5aae 053c edf5 c33d
00000010: b304 6cbd 6536 413e 0fff b1bd a4ad dc3d
00000020: 4aa1 e8bd af2b 963c 06bd 843d 6bf9 2c3c
00000030: 3406 a03d 3c93 c83d 0c56 03be 05fa 32bd
00000040: 77b5 c33d df80 063d 522a 8bbc 0216 f4bd
00000050: ccb7 7e3d ff49 97bd 4d1d e53d d383 04bd
00000060: 8d3f a4bd 149c c3bd e0ab fabd a47d 273d
00000070: 8334 cbbd 3a39 9a3d 66fe c63d 879f f53b
00000080: f59d c6b9 962d d2bc 7e01 2b3d 2419 563d
00000090: a5b4 01bc ac39 813c 677b adbd 9eed 1dbd
000000a0: 34d4 ce3c 9b17 cebd 3c05 df3d 5f91 4e3c
000000b0: 49c9 1c3d f81f 84bd cd9b dd3d d94a 23bd
000000c0: 339f 3cbd 677d 6abd bd54 bbbd 3777 7cbc
000000d0: 35c0 523d 48c7 04be 20e4 03be df13 5bbd
000000e0: 3117 49bc cf2e 32bc d8f2 58bc b579 603e
000000f0: a6c0 713d 4914 09bd f4ea d7bc 2a04 80bd
00000100: 5d5b 59be 3172 9e3d de1e c3bc eecf 013e
00000110: a9a6 89bb 44e4 66be b592 c13c 36e7 e7bd
00000120: 96ca 70bd bb44 aebd a3cf 2ebd 597f 043d
00000130: 1945 c7bd 66f2 693c 31a1 4b3d ddb1 8dbd
00000140: adf9 05be d5d3 3bbe eb89 1c3c 65bf c1bd
00000150: 6119 fcbd 55a3 c3bd ab10 c7be 67b0 8fbc
00000160: d07b d8bd e529 36be 818a 1a3d 76ef c23b
00000170: fd05 143c 3bde b7bd 33c0 0d3d 8c9e 3cbd
00000180: 3b01 2b3d b27c dcbd ca7d 13bd 1ac1 e9bd
00000190: caff 1abc ba83 75bc e941 ca3b 62e9 543d
000001a0: bc85 3bbb 65d3 fbbd 4bcc 06be 6766 1e3d
000001b0: 9276 843d 3dd1 9f3b ce14 fabd b225 d8bd
000001c0: 8a09 d0bd 3365 ca3c 09cc 7abd 9b3a 523c
000001d0: ca67 55be c965 c7bc e4a7 adbc 489f a23b
000001e0: d6c4 03be 66e5 6e3d a75d d43c bd2b 22be
000001f0: 9713 c83d 446d 8c3d b0e4 10bc 951c c53d
00000200: ec49 e6bc 9e0c 62bd b5b9 1fbd 03fd 0bbd
00000210: ba0a 333d d126 80bb 788b 883c e354 b0bd
00000220: 9253 043d f6e4 803d 7fef 773d b0c7 a3bd
00000230: f92d bcbd e4cf f5bd d5cc 45bd dc9c ccbd
00000240: da4f 1ebd d9c0 e73d ef4e 973d 2297 a13d
00000250: b8f0 2d3c fca3 c43d c59b 62bd 9981 80bb
00000260: 8243 333d 8afd a83d 0386 b03d 97e4 ed3c
00000270: aa80 b0bd 1943 f2bc 5f5c a73d 9708 913d
00000280: 4a78 253d 6898 62bd e7c1 4d3d 5853 b23c
00000290: 92d4 4a3b 1f1b fe3b f4a0 523d 7a7b eabc
000002a0: 45a0 8cbc 7554 413d 38ea eebd 3cef a53c
000002b0: 2a08 69bd 3708 abbd 871e bebd 6a1d b03d
000002c0: 4ff3 b6bd 75cd a1bc 6771 9bbd 9399 70bd
000002d0: 0b1f 09bd 0c88 da3b 8871 96bd 25cf 6f3d
000002e0: b30b f23c d0a8 27bd 6924 01bb e637 a4bd
000002f0: bcf9 b7bb 5bbb c3bc 8f6d 5fbd 06d0 8ebd
00000300: b5d7 a0bd e9e8 573d d23f bb3d 3107 aabd
00000310: 613e f63c 8502 c33d a253 943c 8ee9 cbbd
00000320: 5787 6cbd d5b7 ca3d 6210 08be c431 1e3d
00000330: 306e 8b3c e903 293d ac7c 4d3d 679a bdbd
00000340: b1dd 55bd a896 103e ba2a e6bd 84cf b8bd
00000350: 804c b43d da35 a03d 591b 153e 10b0 dbbd
00000360: 47d6 3c3d 0d3b 41bd 218d efbd 2819 8dbd
00000370: 6962 87bd c617 3c3d 2e87 513d df41 e2bd
00000380: a65d b13c a041 c6bc ff44 df3d bc27 8dbc
00000390: 101b 78bc dfb9 18be 22b1 303d 7679 34bb
000003a0: 079d e23d fe3a c43d 201a 93bd 6b49 aa3d
000003b0: 9102 003d 2676 1bbd 1326 cd3d 26ab d9bd
000003c0: 5f95 8e3d 2d83 773d 0b5d da3b 8b67 a9bc
000003d0: 2044 3cbd f0ba bc3b 78e9 debd d786 95bd
000003e0: 107e 62bb e192 47bc f82f bbbd e936 7b3e
000003f0: 94d0 183d caa2 68bd b8b1 cabc 201a 08bd
-0.004140257 -0.038873088 0.008159244 0.09568391 -0.05762167 0.18868406 -0.08691227 0.10775307
-0.113588884 0.018331377 0.06481366 0.010557513 0.07813683 0.09793708 -0.12825793 -0.04369547
0.09556096 0.032837745 -0.016987953 -0.1191826 0.062187 -0.073871605 0.11187229 -0.03235228
-0.08019934 -0.09551254 -0.12239814 0.040891305 -0.09922125 0.07530446 0.097164914 0.007495824
-0.0003788319 -0.025656503 0.04174947 0.05227007 -0.007916604 0.01577457 -0.08470803 -0.038556688
0.02524767 -0.10063096 0.1088967 0.012607901 0.038277898 -0.0645141 0.10820732 -0.039866302
-0.04605026 -0.0572485 -0.09147022 -0.015409282 0.051452834 -0.12966645 -0.12879992 -0.053485747
-0.012273596 -0.010875418 -0.013241492 0.21921428 0.059021614 -0.03346661 -0.026357152 -0.06250794
-0.21226259 0.07736624 -0.02381843 0.12676975 -0.0042007756 -0.22548014 0.023629526 -0.11323397
-0.05878695 -0.08509203 -0.042678487 0.03234801 -0.09729976 0.014278984 0.04971427 -0.0691869
-0.13083525 -0.18342526 0.009554367 -0.09460334 -0.12309528 -0.095526375 -0.38879904 -0.01754017
-0.1057049 -0.17789419 0.037729744 0.005948956 0.009034631 -0.08977934 0.034607124 -0.04604964
0.04174922 -0.10765971 -0.036008634 -0.11413784 -0.009460399 -0.014985019 0.006172408 0.051980384
-0.0028613647 -0.1229618 -0.13163869 0.038671877 0.06467928 0.004877238 -0.122109994 -0.10554065
-0.101580694 0.024706459 -0.06122974 0.012831355 -0.20840374 -0.024340527 -0.02119822 0.0049628355
-0.12868056 0.05832424 0.025923563 -0.15836997 0.097693615 0.06856778 -0.008843586 0.09624592
-0.02811142 -0.055187814 -0.038995463 -0.034176838 0.0437114 -0.0039108773 0.016668066 -0.08609941
0.03230626 0.06293671 0.060531136 -0.07997072 -0.09188456 -0.120025426 -0.048291046 -0.09990856
-0.03865037 0.1131608 0.07388102 0.078901544 0.010616474 0.0960159 -0.055324335 -0.0039216992
0.043765552 0.08251484 0.08619311 0.029039664 -0.08618291 -0.02957301 0.08171915 0.070817165
0.04039792 -0.055321127 0.050233748 0.021768257 0.0030949456 0.007754698 0.051423028 -0.028623331
-0.017166266 0.047199685 -0.116657674 0.020255677 -0.05689255 -0.08351176 -0.092831664 0.0859936
-0.08933126 -0.01975129 -0.07589989 -0.05874021 -0.03347687 0.00666905 -0.07345873 0.058547158
0.029546594 -0.040932477 -0.001970554 -0.08018474 -0.0056144875 -0.023893049 -0.054547843 -0.06973271
-0.07853643 0.052712355 0.09143032 -0.08302153 0.030059041 0.09521965 0.018106285 -0.099566564
-0.057746258 0.098983444 -0.132875 0.03862168 0.017020315 0.041263495 0.050167724 -0.092579655
-0.052213375 0.14119971 -0.11238618 -0.090239555 0.08803654 0.07822771 0.14561214 -0.10726941
0.04610279 -0.047175456 -0.1169684 -0.06889564 -0.06610567 0.04592111 0.051154308 -0.1104772
0.0216511 -0.024201214 0.10901832 -0.01723086 -0.015143171 -0.14914654 0.043137677 -0.0027538217
0.11065107 0.09581564 -0.07182717 0.083147846 0.031252448 -0.037954472 0.10017028 -0.10628347
0.06962084 0.060427833 0.0066639236 -0.020679256 -0.045963407 0.0057595894 -0.108843744 -0.07301109
-0.0034560002 -0.012181015 -0.09140009 0.24532665 0.03730829 -0.056795873 -0.024742946 -0.03322804

lstm_layer.bias_hh_l0 f4 [256]
00000000: 1990 603c c4da 6cbd 3fab c9bd 3cb6 97bd
00000010: c131 1bbe c72c 063e 2f2d 63bd 7093 b0bd
00000020: 917e b3bd 5b32 8e3d 294f 2ebc a112 6b3d
00000030: 9ea5 933d 14b4 493e a079 3b3c 3063 7fbd
00000040: 55a1 3ebd 2761 483e bc60 bcbc 9486 c5bd
00000050: ec13 d8bd 0d50 153c 89c4 c43d 879b 893d
00000060: e886 31bd 5b2e 693d 30e0 843d 5783 043d
00000070: e6f2 23bd 1dbe df3d e0ed 413d 0780 bcba
00000080: e157 ad3d ed40 43bd 0d38 b2bd f76e 4fbc
00000090: 61b7 81bd e65a 8e3d a2fe 0dbe 1802 ec3c
000000a0: 0dcb 173d b793 5cbd 8fff 0a3e c190 773d
000000b0: 63fe 823d 9d56 32bd 1ac4 5b3c 6606 963d
000000c0: 30ae b93d 5df6 d03d 45fd 983d 9542 663d
000000d0: 48b2 053e 80bc 0f3d 198f 093d 2ed1 c33d
000000e0: 429f e6bd a86d a43d b383 b2bc 0faa 8e3e
000000f0: f6cf 143d cfd6 d6bd c441 9abd 3cbb 9fbc
00000100: 7da0 a5bd 1fd9 c8bd 5e13 723c 1500 273d
00000110: a798 02be d945 ec3b 198b f53c 1b64 193d
00000120: f9e5 92bd 8695 ccbc 4a55 5abd ec51 31bd
00000130: da27 583d 7a9e 8c3d ca5f f3bd dc6d 0ebd
00000140: 405c df3c 7b9e fcbd 1222 a4bd 7c77 c5bd
00000150: 28df a53d 7064 7a3c b9a6 95be db59 323d
00000160: 9e07 babd c2a4 dbbd bbd4 42bd 83ee 8c3c
00000170: 8399 c8bd e7ef c8bc b6de 69bd cc2a f9bd
00000180: 7c97 babc 99c6 27bd 87e8 cbbc 7e2f 0abe
00000190: e6ea aebd ddfb 8c3d d127 763d 3598 e13c
000001a0: 9d9f f2bd d720 2e3c 67b9 13bd 6d98 b4bd
000001b0: c031 91bd a714 4b3d 6e78 00be bfaf 1a3d
000001c0: 844c c3bd fa28 1fbe b606 703d a102 b6bc
000001d0: ce9e 1abe 609a 513d c942 54bc 20d6 3abc
000001e0: 0481 2dbd 156b 32bb 8e5e 9cbd d038 a9be
000001f0: e7d7 b1bc dc8f e7bd e00a 1cbd 715d ca3c
00000200: 5812 243d 63e8 f03c c3d0 443d d89d 3b3d
00000210: d70c a63c dd69 353b 1ef5 c83c f1e4 c63d
00000220: 2553 673d 713e 91bb 4c20 6dbd 6ab0 e1bc
00000230: 2aab 153d f839 d53d 7ca3 a3bd c789 9cbc
00000240: 7269 803c ede1 ecbd 1622 023d f80c 043d
00000250: dbff 5cbd 695b e9bd 2991 ad3d fb33 3dbc
00000260: 8c12 80bd f978 46bd 5906 b5bd 9212 de3c
00000270: f432 cbbd 3270 8dbc 8950 8abd 289c 2cbd
00000280: dcc9 e1bc 9c37 693d 6939 67bc 7e44 663d
00000290: f250 6f3d 38b6 7e3d 62f1 b5bd 962e 153d
000002a0: 0049 05bd bc08 343d 7715 013e f34e f7bc
000002b0: e669 f23c abbb 8a3d 4012 df3d e94d 0bbd
000002c0: cd8f 4e3d d228 243d 7e17 b5bb 3410 8f3d
000002d0: e767 4ebb 6744 62bd 11e7 d6bc 957a 5e3d
000002e0: 9d95 6b3d 5380 4ebd 7483 6dbc bb90 083d
000002f0: 9b00 583c bdb5 383d 528f d5bb acd4 ab3d
00000300: fee7 f03d 7cc3 f03a 87fd 61bc f217 223d
00000310: a8a8 963d d9c2 ff3c 7568 83bd 026d a63d
00000320: 30f3 073d fd85 d2bd e87b febd 8fbd 143d
00000330: c1b4 15bd 5cfa edbc 3682 dd3c f80c 0bbd
00000340: 60fb e7bb 68b7 663d 33b3 073c 72b1 d2bd
00000350: 946a c33d d035 a23d a152 4e3e f926 23bd
00000360: d732 15be 91d5 68ba 4c3e 37bd 19da 8ebd
00000370: 188a a3bc aafc 993c a70f f0bd 92dc cf3d
00000380: 2743 f23d c30d 0bbe ff32 d63c 2cd2 9d3c
00000390: 3982 07bd 7f92 adbd d1d2 ef3c 04e3 713d
000003a0: be33 3ebd c48b c5bd 6ebb eb3d 907b 7dbc
000003b0: 8436 cf3d 8e4f aebd a565 fbbd fcc1 ac3d
000003c0: e93b ca3d 1496 01be 452c 8fbc c684 34bd
000003d0: 93b8 f7bd 8a9d d3bd 53d3 633d 5702 6fbd
000003e0: ee40 c6bd e482 1dbe b64f 6b3d 6adf 5f3e
000003f0: 4ff0 6ebc 6639 6d3d da2c 1ebd 3b91 1cbd
0.013706231 -0.05782582 -0.09847116 -0.07407805 -0.15155698 0.13103019 -0.055463012 -0.086218715
-0.08764375 0.06943198 -0.01063899 0.057390813 0.07209323 0.196976 0.011442572 -0.062350452
-0.046540577 0.1956831 -0.022995345 -0.09644809 -0.10550675 0.009113324 0.096077986 0.067191176
-0.043341547 0.056928974 0.06488073 0.032351818 -0.040026568 0.10924933 0.047345996 -0.0014381417
0.08464027 -0.04766934 -0.08702097 -0.012660733 -0.06333805 0.06950931 -0.13866666 0.028809592
0.03705888 -0.05385181 0.1357405 0.060440782 0.06396177 -0.043539632 0.0134134535 0.07325439
0.09066427 0.1020324 0.07470182 0.05621584 0.1305629 0.035091877 0.033583734 0.09561382
-0.11260845 0.08028728 -0.021791315 0.2786412 0.03633114 -0.1049019 -0.07532075 -0.01949846
-0.08087251 -0.098070376 0.014775125 0.040771563 -0.12753545 0.007210475 0.029973553 0.037448984
-0.0717277 -0.024973642 -0.053303994 -0.043291017 0.05277238 0.068661645 -0.11883505 -0.03477274
0.027265668 -0.12334915 -0.08014311 -0.096419305 0.08099204 0.015282735 -0.29228762 0.043542724
-0.09083484 -0.107247844 -0.047566157 0.017203575 -0.09794905 -0.024528457 -0.05709716 -0.12166366
-0.022777312 -0.04096088 -0.024891151 -0.1349468 -0.08540897 0.068839766 0.060096566 0.027538398
-0.1184685 0.010627947 -0.036065485 -0.088181354 -0.07089567 0.049580242 -0.1254594 0.03776526
-0.095360786 -0.15542975 0.05860015 -0.02221805 -0.15099642 0.051172614 -0.012955376 -0.01140359
-0.042359367 -0.002722447 -0.076352224 -0.33051157 -0.021709396 -0.11306736 -0.03809631 0.02470276
0.040056556 0.029407686 0.048050653 0.04580483 0.020269794 0.0027681508 0.024530943 0.09711636
0.056475777 -0.0044324924 -0.05789213 -0.027549941 0.036540188 0.10411447 -0.079901665 -0.019108666
0.01567528 -0.115665294 0.031770788 0.03223893 -0.05395494 -0.11394388 0.08474953 -0.011548038
-0.062535375 -0.048455212 -0.08839101 0.027108464 -0.09921828 -0.017265413 -0.06753642 -0.04214111
-0.027562074 0.0569378 -0.014112809 0.056217663 0.058426805 0.062185496 -0.08883931 0.03642138
-0.03254032 0.043953642 0.12605844 -0.030189013 0.029591512 0.06774076 0.10892153 -0.034009848
0.050430108 0.04007799 -0.005526482 0.069855124 -0.0031495036 -0.055241015 -0.026233228 0.054316122
0.05751573 -0.05041535 -0.014496673 0.03334115 0.013183738 0.045095194 -0.0065173293 0.08390173
0.11762999 0.0018368806 -0.013793356 0.039573617 0.073563874 0.03122084 -0.06416408 0.0812626
0.033190906 -0.102794625 -0.12425977 0.03631359 -0.036549333 -0.029050045 0.027039628 -0.033947915
-0.007079527 0.056327254 0.0082824705 -0.10287751 0.095418125 0.0792042 0.20148708 -0.03983209
-0.14570175 -0.00088819215 -0.044737145 -0.069751926 -0.01996331 0.018797237 -0.117217354 0.10149492
0.118292145 -0.13579468 0.026147364 0.019265257 -0.033083174 -0.084752075 0.02927533 0.05905439
-0.046436064 -0.09645799 0.11510359 -0.015471354 0.1011782 -0.085112676 -0.122752465 0.08435437
0.09874708 -0.12654907 -0.017477164 -0.044071935 -0.120957516 -0.103327826 0.055621456 -0.05835184
-0.09680353 -0.15381962 0.057449065 0.2186257 -0.014583661 0.057916068 -0.038616993 -0.03822444

fc.weight f4 [1, 65]
00000000: 0ae3 4c3f 2301 bb3e 712c 6ebf befd bebe
00000010: eda2 86bf 642c debd 20b3 07bf d9c0 c63e
00000020: 0d48 353f 1652 203f dc54 a53b 349a 9dbf
00000030: dcc0 093f 03c9 923f 4a0a 773f b707 36be
00000040: eda7 b23f 2c62 2a3f 4a8b 873e 627e 6cc0
00000050: 1a9e 933f cf47 eb3d 2bc1 1340 78e4 cf3f
00000060: 0b21 0cc0 2137 4cbd 9c7e 05c0 b6f2 6ebf
00000070: 78fd b3bd a79f 2dbf 009d 8f3f 4990 0b3f
00000080: 4bee 20bf 4982 bb3f cfd2 a9be 97fc 543e
00000090: 0bba 863f 5566 3ebe 0a29 0440 0e44 893e
000000a0: ac59 593f d8b7 7bbe b8df 053f fdd3 cd3f
000000b0: ab5c 47bf 8728 8cbe 3acc 4a3f b589 a83e
000000c0: 384b fdbe 1166 b8bf e02f d7bf 0f08 543f
000000d0: b05b 2b3f 957a 973f 7fef c63e b706 4abf
000000e0: eeea 9abf 9d84 9b3f df8d d0bf 8a38 6a3f
000000f0: c03e 913d 2dd5 8b3f 04ff 4c3f 8f4e debc
00000100: 04e6 2d3f
0.80033934 0.36524305 -0.9303656 -0.37302965 -1.0518471 -0.108483106 -0.530077 0.38819006
0.70813066 0.62625253 0.0050455164 -1.2312684 0.53809905 1.1467594 0.96500075 -0.1777638
1.3957497 0.6655605 0.26473457 -3.6952138 1.1532624 0.11488306 2.308665 1.6241598
-2.1895168 -0.049857263 -2.0858526 -0.933391 -0.0878858 -0.67821735 1.1219788 0.54517037
-0.62863606 1.4649135 -0.33168647 0.2079948 1.0525526 -0.18593724 2.0650048 0.26809734
0.84902453 -0.2458185 0.5229449 1.6080319 -0.77875775 -0.2737467 0.79217875 0.32917562
-0.4947145 -1.4406148 -1.6811485 0.82824796 0.6693678 1.1834284 0.38854596 -0.78916496
-1.2102945 1.2149845 -1.6293296 0.9149252 0.07092047 1.0924431 0.8007662 -0.027137069
0.679291

fc_final1.weight f4 [64, 128]
00000000: cc6c b6bc 097a 3c3c da89 ef3c d15f 413d
00000010: 5c6e 87bd 8a9c 1f3e a52a c3bc 6797 663d
00000020: b3e8 f83c 4443 b33d b818 8f3d 763e b3bd
00000030: 95ed 153d 89c0 aebd 057a e73a d0da 683d
00000040: 1e40 013d 1d1d 733d dadb 8b38 4c6b 493d
00000050: b729 debc a225 5bbb 4bda bf3d 8bd6 54bc
00000060: 80cf 36bd bf5e b63d 8225 c43c c3f2 7abd
00000070: 8a4a b63c e0db cbbd 333d 8d3d 3306 2abd
00000080: 1e62 823d 4503 72bd 43df 5fbc 577f 96bd
00000090: e083 ba3d 3c02 7fbd 520e 05bb e725 903d
000000a0: 6b46 ddbd 0ebf dd3c 21d4 a03d 0f69 6fbd
000000b0: e5a5 1d3d 09b4 73bd c6f8 3e3d b1ab be3d
000000c0: 2c0a b3bd 4279 fabc 4d94 c3bd 6dcf c73c
000000d0: 84f5 b6bd 6e60 5d3d fe01 5ebd 06bb 4dbd
000000e0: 99e9 6e3d 5e59 99bd a77f b4bd a870 0a3d
000000f0: 725b 74bd d843 343d 1b0a 583d a9ff 9a3d
00000100: f0e3 a6bd bd43 ac3c 1596 c73d e05f 663c
00000110: 5bd3 a03c bb59 ec3b 0acb ca3c 1762 efbb
00000120: 5c37 483c ac17 913d e32a b33d 175a 94bd
00000130: a420 1e3d d5bb 123d 07f5 4c3d 5653 b2bc
00000140: 0f17 8fbd 08e5 ccbc 0188 2a3d da7b 2c3d
00000150: 7480 063d 1bbb a23d 3861 243d 9dcf 133e
00000160: ea1d 5d3d 6841 27bb e4cd 5bbc 73f6 433d
00000170: a048 2e3d 4a24 03bd a465 af3d 91b9 d9ba
00000180: d26f 8dbd 34d0 fdbb c818 be3d 7c03 8f3d
00000190: 600b 32bd 9081 2c3c 984e 433d 21d2 f93d
000001a0: 95ce 61bc 80aa db3c 8dfe 603d e921 b8bb
000001b0: 8611 67bd 67f2 ec3d ee9a 6b3d b300 6dbd
000001c0: bde2 873d 282a 54bd 290b 0f3d cb27 8cbd
000001d0: 3d26 293d 90bf 0abd 3f96 9ebc bcd2 55bc
000001e0: a22f 353d 76ab ba3c 1168 d9ba a237 2abb
000001f0: ae83 d1bc 2d6b 853d bd69 afbc d2cb 3a3d
00000200: 2166 33bc 593c 0dbd 8228 4839 4a12 b93c
00000210: 316a 133d eedd 873d e324 2d3d 6640 06bd
00000220: 43e8 483c 3367 2f3c ec59 9abd 6493 be3d
00000230: cb66 b1bb e4f0 6dbd 5424 6cbd 51bc 80bd
00000240: 6d0c 893d 05eb 4d3c 3d39 0c3d 8543 f4bc
00000250: f077 f8bc 8320 8a3d c75d 8fbd 5121 20bd
00000260: 0f68 8bbd 31d9 c0bd de67 9dbd 6d6f 02bb
00000270: f7e7 83bc f2d2 c1bc dfef c53c 1835 bdbd
00000280: c637 eebc 6ede 5abd affd 493c 68cb 8e3c
00000290: 1088 62bd 839d bd3b bb9e 27bd fde0 54bd
000002a0: 7bb4 43bc ce44 843c d73a 873b cc7e 073d
000002b0: f70a 20bd 53d0 2dbc a688 5f3d 75d1 85bd
000002c0: 358c 253c 4e50 813d 1999 45bd 8d82 75bd
000002d0: ad12 d73d 6ef0 79bd 8867 853d 9426 a2bd
000002e0: 0882 113d e22c 643c 958e e43c 0235 b63b
000002f0: c7b4 a3bd 84fc 683d 7636 fe3b a429 633d
00000300: d198 1eba a881 8abd e8d9 64bd 4ca6 7c3d
00000310: 98a2 02bd 9bca 243c e0d4 05bc ef80 2cbd
00000320: 96a8 a2bd 5955 b9bd d35f babc 14fd 9d3d
00000330: 06fb d0bd 7336 473d 8b9f 663d 15ee c0bd
00000340: 6e47 8fbd 9d18 193d 2d4e 893c d368 db3b
00000350: 678c 08bd 9c68 c5bd a357 40bd e214 abbd
00000360: 04ab 2d3c e5a4 4cbd 404a 3d3c 4139 943d
00000370: 0434 79bc 5bc6 d33b 0d49 b9bc 4545 60bc
00000380: 9147 52bd 0a64 0bbc 0ab7 173d be31 ca3d
00000390: c7b8 523d cf17 7b3d 2fd7 2f3d 5461 e43c
000003a0: cc9e 6dbd 9c9e ae39 b52a 163d 8aba 68bd
000003b0: b915 29bd 0d62 6d3d 9b9c 4bbd dff8 8b3d
000003c0: d3e7 91bd fdae 8b3d dc8d 66bd a942 133d
000003d0: c83a 35bd 53c6 23bc 13e1 e13d 99b7 9abc
000003e0: af06 633d 5ba1 ca3b f349 d73d f9fe 303d
000003f0: 7289 bf3c ceb2 683d 0bc8 eb3c 5375 16bd
-0.022268675 0.011503705 0.029240537 0.04721052 -0.06612846 0.15587059 -0.023824045 0.056296732
0.030384397 0.08753064 0.069871366 -0.08752148 0.03660353 -0.08532817 0.0017660266 0.0568493
0.031555288 0.059353936 6.668987e-05 0.049174592 -0.0271195 -0.003343918 0.09367808 -0.012990604
-0.04463148 0.0890479 0.023943666 -0.061266672 0.02225234 -0.09954047 0.068964384 -0.04150982
0.063663706 -0.05908515 -0.01366407 -0.07348507 0.091071844 -0.06225799 -0.0020302725 0.07038479
-0.10804447 0.027068641 0.078529604 -0.0584498 0.038488287 -0.059497867 0.046623968 0.09310091
-0.087421745 -0.030575398 -0.095497705 0.0243909 -0.08933547 0.05404704 -0.05420112 -0.050227188
0.058328245 -0.074877486 -0.0881341 0.033798844 -0.05965752 0.044010013 0.052744012 0.075682946
-0.081489444 0.021028394 0.09745423 0.014060944 0.019632032 0.007212845 0.02475502 -0.0073053944
0.01222023 0.07084593 0.08748414 -0.07243746 0.038605347 0.03582366 0.050038364 -0.021768253
-0.0698682 -0.025011554 0.04163361 0.0421103 0.032837346 0.07945844 0.040131778 0.14434667
0.053983606 -0.0025521163 -0.013415787 0.047842454 0.04254973 -0.03201703 0.08564308 -0.0016611089
-0.06906094 -0.007745767 0.092820704 0.069830865 -0.04346788 0.010528937 0.047682375 0.12198282
-0.013782163 0.0268147 0.05493026 -0.005619277 -0.056413196 0.11569672 0.0575208 -0.057861995
0.06635044 -0.051798016 0.034922753 -0.068435274 0.041296232 -0.033874094 -0.019358752 -0.013050731
0.04423488 0.022786837 -0.00165868 -0.00259731 -0.025575485 0.06514583 -0.021412725 0.045604534
-0.010949642 -0.03448138 0.00019088577 0.022591729 0.035989944 0.066341266 0.042271506 -0.03277626
0.012262407 0.010705757 -0.075366825 0.09305456 -0.005413865 -0.05809106 -0.057651833 -0.062859185
0.06691823 0.01256824 0.034234274 -0.029817352 -0.030330628 0.06744482 -0.070003085 -0.039094273
-0.06806957 -0.09416426 -0.07685827 -0.001990284 -0.01610182 -0.023660157 0.024162231 -0.092386425
-0.02907933 -0.05343478 0.012328549 0.017430976 -0.05530554 0.005786599 -0.04092286 -0.051972378
-0.011944885 0.01614609 0.0041268873 0.033079907 -0.039072957 -0.01060875 0.054573677 -0.065340914
0.010104229 0.06314145 -0.04824171 -0.059938956 0.10501609 -0.061020307 0.06513888 -0.079175144
0.035524398 0.0139267165 0.02790002 0.0055605182 -0.07993465 0.056881443 0.007757957 0.055459633
-0.0006049993 -0.06763011 -0.055871874 0.06168203 -0.031893343 0.0100580705 -0.008168429 -0.04211515
-0.079423115 -0.09049482 -0.02275077 0.077142864 -0.10204129 0.04863591 0.056304496 -0.094204105
-0.06996046 0.03737699 0.01676091 0.0066958456 -0.033337023 -0.09639093 -0.046958577 -0.083535925
0.010599855 -0.049961943 0.011553347 0.07237483 -0.015210155 0.006462855 -0.022617841 -0.01368839
-0.051337782 -0.008507738 0.037039794 0.09872769 0.05144575 0.061302003 0.042929824 0.02787844
-0.05801277 0.0003330604 0.036661822 -0.056818523 -0.041280482 0.057954837 -0.049709897 0.06834578
-0.07124295 0.06820486 -0.05628763 0.035952244 -0.04424551 -0.009996015 0.110292576 -0.018886374
0.055426296 0.006183786 0.105121516 0.04321191 0.023380969 0.056811146 0.028781911 -0.036732983

fc_final1.bias f4 [64]
00000000: 6178 d8bc a37a 3f3d 55de c5bd 3f7a 9a3c
00000010: 3a90 9ebd e959 06bc e76f 9d3d 679e 1a3c
00000020: 78a5 3ebd 655f d03d dd47 69bd 90c6 31bd
00000030: d3c9 7fbc 8109 973d a08e a43d 6ce2 debc
00000040: 7607 62bc 6010 a23d 0fc1 89bd 829f 45bd
00000050: ffc3 f63c 96a0 183d 7e56 89bd 5cb7 86bd
00000060: 972a a83d faca ec3b 4cd6 71bd 03fe 333d
00000070: bbfa 0c3d b32a 92bd 6f69 503d 753b eb3c
00000080: 88d9 7dbd 2264 59bd 3d65 983d 4f1b 433d
00000090: 3c2e fabc b8ad e43c 9a92 44bb 0b15 e9bc
000000a0: 03f9 8f3d 5987 6dbc 4aff 033d 6402 2c3d
000000b0: 2754 6cbd 6494 5f3d 8895 d1bd 1fca 7b3c
000000c0: fd36 3f3d 992d 04bd fffd 85bd 4795 8bbc
000000d0: 0bfc aa3b c413 e9bc 66fd 7a3d f6f2 cebd
000000e0: f48b a4bd 87cb 7e3c bdb3 123d 843b 66bd
000000f0: 8eb5 8dbd 520f dc3c f77e 02bb 37f9 7f3d
-0.026424589 0.046747815 -0.09661547 0.01885712 -0.07742353 -0.008200147 0.07687359 0.00943718
-0.046544522 0.10174445 -0.0569533 -0.043402255 -0.0156120835 0.073748596 0.08035016 -0.027207576
-0.013795724 0.079132795 -0.06726276 -0.04824782 0.030122755 0.03726252 -0.0670595 -0.06577942
0.08211248 0.007226345 -0.05904226 0.043943416 0.034418803 -0.071370505 0.0508818 0.028714875
-0.061975032 -0.05307401 0.07441185 0.047633465 -0.030539624 0.027914867 -0.0029994608 -0.028452417
0.07029917 -0.014497601 0.032225884 0.041994467 -0.05769744 0.054584876 -0.10233599 0.015368014
0.0466833 -0.032270048 -0.065425865 -0.017038954 0.005218034 -0.028451808 0.061276816 -0.10104935
-0.080345064 0.015551454 0.035815943 -0.056209102 -0.069193944 0.026862774 -0.0019912103 0.06249353

fc_final2.weight f4 [1, 64]
00000000: f475 763c 0434 2ab7 9b86 40bd 044f 50bd
00000010: 440a 90bd ae9f edbb ef8f 8d3c 6fba 0ebd
00000020: 60a7 7bbd 9556 013e f9e2 373b 3d01 44ba
00000030: 8857 2d3c 4579 c93d 4deb 653d 7fa2 923a
00000040: 9d52 cd3c b5ae df3d db18 b3bd 8add a238
00000050: 5f19 1d3d 89db 833d b472 29bd 353c 37bc
00000060: 0e5b 343d df22 ca3d 6f9a fd3c a4f9 ae3d
00000070: fe24 1a3d 15cf 27bd 6696 643a e3a9 bebc
00000080: e86f 063d 5ddf f03c 6f0f 933d ac44 d93d
00000090: b292 a13d 5e94 df3d 7cf8 423d f466 d9b9
000000a0: c48f 5dbb dcaf abbd e458 e53c c906 ad3d
000000b0: 4af7 a0ba 37f1 7d3d ea5a 01be 9f2a 78bd
000000c0: e31c d83d 0030 9bbd 8544 cdbd 0ebd a5bc
000000d0: c6c6 f73c e828 f03a 9018 5fbd 2d92 97bd
000000e0: e434 ddbc 9fa3 7fbc a64c 953c eac8 a23d
000000f0: 68de 28bd e183 ea3a b200 2c3d f426 573d
0.015042771 -1.01449e-05 -0.04700337 -0.050856605 -0.07033208 -0.0072517013 0.017280547 -0.034845766
-0.061438918 0.12630685 0.002805887 -0.0007476991 0.010579951 0.098375835 0.056132603 0.0011187344
0.025063807 0.109219946 -0.08744975 7.766027e-05 0.038354274 0.064383574 -0.041369155 -0.011183788
0.04403215 0.098699324 0.030957429 0.08543709 0.037632935 -0.040968973 0.0008719921 -0.023274368
0.032821566 0.029403383 0.07180678 0.10608801 0.07889308 0.10916971 0.047600254 -0.0004146617
-0.0033807615 -0.08383152 0.027996488 0.0844856 -0.0012280729 0.06199762 -0.12632337 -0.06058752
0.10552385 -0.07577515 -0.10022835 -0.02023175 0.03024615 0.0018322738 -0.054466784 -0.07400928
-0.02700276 -0.015602975 0.018225025 0.079484776 -0.041227728 0.0017892086 0.04199285 0.052527383
