weights_new/DecoderEpochnew200_17_8.pt (torch_old, 461850 bytes, 33 tensors)

attn_layer.0.weight f4 [64, 192]
000000 fb d6 81 3d 19 46 09 bd 2d b0 48 3e e9 54 61 be
       0.063398324 -0.033514116 0.19598456 -0.22005047
000010 bd 56 58 bd 7c af 58 3e da 21 49 bd 99 eb 43 be
       -0.052817095 0.21160692 -0.04910455 -0.19132842
000020 bc 81 a2 3d 9f e3 9e 3c 48 34 dd 3d 06 f1 03 3d
       0.07934901 0.019395648 0.108009875 0.03221228
000030 33 9d 4e 3d 93 5c 2d 3e 6b 46 45 bd e1 30 74 bd
       0.050442886 0.16929846 -0.04816286 -0.059616927
000040 2b b4 30 bd e0 ad 29 3e 61 9f f1 3b 00 59 69 39
       -0.04314057 0.16570234 0.007373736 0.00022253767
000050 06 f4 27 3e 4e b7 ad 3a 21 be 00 3d fb b7 64 3d
       0.16401681 0.0013253482 0.03143132 0.05583952
000060 6c 5d eb 3d d6 70 a9 3d 7a 8e 11 be 29 55 68 bd
       0.11492428 0.08273475 -0.14214507 -0.05672184
000070 43 0e cf bb f1 96 4b 3e 1e 90 5f 3e 0b 7b 55 3e
       -0.006318839 0.19881798 0.2183232 0.20847718
000080 f7 70 25 3e 1c d8 15 3e 34 c3 01 be 16 81 be bd
       0.16156374 0.1463322 -0.1267212 -0.09301965
000090 f9 9e a2 3c 01 02 c8 3d 6a 2c 77 bd 99 46 7a bd
       0.019851195 0.09766007 -0.06034509 -0.061102483
0000a0 bc 50 1f bd db 45 73 bd ee 56 96 bd 14 66 25 be
       -0.038895354 -0.05939279 -0.07340799 -0.16152221
0000b0 c5 2b 10 be 07 f2 46 3e c1 0f b2 3d 31 9f 0f 3e
       -0.14079197 0.19428264 0.08694411 0.1402557
0000c0 8b 6e 46 3e 7a d1 13 3c 5c 69 3b 3e 22 6c 42 be
       0.19378106 0.009022111 0.1830191 -0.18986562
0000d0 e3 4e 2d 3e c0 72 b2 3d 05 d1 69 3d a3 d5 86 3c
       0.16924624 0.08713293 0.057084102 0.016459292
0000e0 fb 90 fd bb 24 f3 31 bd 70 69 fb 3d ea dc 4b 39
       -0.0077382303 -0.043444768 0.1227597 0.00019441886
0000f0 2d f6 c8 3b 6f ef 3f be 0f ef ba bc aa af 3e be
       0.006132862 -0.1874368 -0.02281907 -0.18621698
000100 7c e6 10 3d 0c 12 e9 bc d2 87 54 3e 64 40 4d be
       0.035376057 -0.028450988 0.20754936 -0.20044094
000110 8c 22 66 bd 6d 27 2a 3e 26 52 81 3a bd 69 a0 be
       -0.05618529 0.16616602 0.0009866401 -0.31330672
000120 a5 0e 48 3d 34 9e e5 3c 2b 8e 88 3d c3 fd 0a 3d
       0.04884209 0.028029539 0.066677414 0.033933412
000130 23 67 96 3d 31 cd 41 3e 70 36 e8 bb 2f 9d ea bd
       0.073438905 0.1892593 -0.0070865676 -0.11455762
000140 d9 e8 86 bd 87 1d 04 3e 51 f6 eb 3d 2d f2 62 bd
       -0.06587381 0.12901889 0.115215905 -0.055406738
000150 55 dc 9a 3e 2b 95 af 3d e5 d3 4d 3d 45 9c 5d 3d
       0.30246225 0.085733734 0.050250906 0.05410411
000160 c3 4b 38 3e 2b d7 a2 3d 20 66 4f be ad 4f ef bd
       0.17997651 0.07951196 -0.20253801 -0.11685119
000170 c8 07 a6 3b a5 f2 4a 3e aa dd 42 3e 90 9a 8f 3e
       0.0050668456 0.19819124 0.1902987 0.2804761
000180 9d df 67 3e ca e0 0e 3e ce 30 3f be 4a d7 eb 3c
       0.22643895 0.13952938 -0.18670961 0.028789181
000190 59 56 6c 3d 1b 63 31 bd bc b7 a7 bb a3 4f 6c bc
       0.057699535 -0.043307405 -0.0051183384 -0.014423284
0001a0 c5 fe da bd 0b b3 a6 bd ef 97 3e bd 54 13 34 be
       -0.10693125 -0.081396185 -0.046531614 -0.17585498
0001b0 93 82 26 be e5 4b 81 3e 16 d7 b4 3d 82 81 8d 3e
       -0.16260748 0.25253215 0.08830087 0.2763787
0001c0 f7 de 8a 3e 7a af ce ba 44 31 90 3e 2f c2 a4 be
       0.27123234 -0.0015768849 0.28162587 -0.321794
0001d0 67 53 7f 3e 26 f1 f1 3d da 77 84 bb 0b 3d 24 3d
       0.24934159 0.118135735 -0.0040426077 0.040097278
0001e0 95 fb f7 bc 10 19 d8 3c bb 7d 67 3e 6e b7 f3 3d
       -0.03027133 0.026379138 0.22606556 0.11900221
0001f0 70 87 b7 3d 39 5b 24 be 77 c2 d9 bd 3b de 27 be
       0.089613795 -0.16050424 -0.10632794 -0.16393368
000200 7b f6 35 be 88 a9 9d 3e f2 43 f6 3d 64 5a f8 3d
       -0.17769806 0.30793405 0.12024678 0.12126616
000210 93 f4 77 3c 1c 69 9f 3e 94 dc a4 bb c6 bd a9 3d
       0.015133995 0.3113488 -0.005031178 0.082881495
000220 0d 28 b7 3e 00 95 d8 3d 59 45 29 3d 0e 10 2e 3c
       0.35772744 0.105752945 0.0413259 0.010623945
000230 05 37 90 3d 53 42 c6 be 49 69 ca 3e 75 c4 2b bd
       0.07041744 -0.38722476 0.3953345 -0.041935403
000240 69 56 2a 3c 81 75 84 be ce 63 01 3f 5d bf 1b 3c
       0.010396578 -0.25870898 0.50542915 0.009506074
000250 88 c0 f9 bd 0e 9c 02 3e 05 e1 a9 be 0d c9 a6 bd
       -0.121949255 0.12754843 -0.3317949 -0.08143816
000260 b9 5f 66 be 23 99 30 be b0 2e 56 bd 9c f9 08 be
       -0.22497453 -0.17245917 -0.05229062 -0.13376468
000270 c5 bc ee be 9f a8 77 bc 98 b5 c0 bd 6a 6f c2 3c
       -0.46628395 -0.015115886 -0.09409636 0.023734767
000280 58 bb 03 3e cc 59 95 3d 4c d8 43 3e 42 00 aa be
       0.12864435 0.07292518 0.1912548 -0.33203322
000290 99 ae 87 bd 20 8e 43 3e 65 7b 1e 3e cd 3c 6a be
       -0.06625099 0.19097185 0.15476759 -0.22874756
0002a0 6e 80 58 3e b8 e8 04 3d 63 e2 0f be d1 a2 a3 bd
       0.21142742 0.0324485 -0.14051203 -0.07990039
0002b0 42 16 b0 3d 75 0b e8 be d7 11 0f bd 07 5b 2a be
       0.08597995 -0.4532124 -0.034929123 -0.16636287
0002c0 3b 46 38 3e ab a3 ab bd 86 39 39 be ef 78 7c bd
       0.17995541 -0.083808266 -0.1808835 -0.06163877
0002d0 ba 71 9c be 44 12 af bd dd f7 84 be a2 e7 8f bc
       -0.30555516 -0.08548406 -0.25970355 -0.017566506
0002e0 2b 51 e2 3d cc 00 d6 be 8b 33 7b be 05 fd 95 be
       0.11050638 -0.41797483 -0.24531381 -0.292946
0002f0 9b 7a 23 3e 7c 72 d5 3e 1d 80 2b be 81 22 ce be
       0.15964739 0.41688907 -0.1674809 -0.402607
000300 90 f2 e6 bd c7 ae 2f bd b1 68 50 be 6d e8 12 3e
       -0.11276734 -0.04289129 -0.20352437 0.14346476
000310 bc bb 01 3e 30 c1 15 be c1 3c 4c bc 38 8d 93 3e
       0.12669271 -0.14624476 -0.012465657 0.2881868
000320 4b 09 3e bb 9c f4 80 3c 0c e9 14 be ff 4c cf 3d
       -0.0028997238 0.015741639 -0.14542025 0.10122108
000330 ad 44 2f bd 56 3f 3e be 50 d3 28 3d 19 e0 ad 3d
       -0.042790104 -0.18578848 0.04121715 0.08490009
000340 eb e0 8d 3d c5 72 c5 bd 53 0b a1 bd a4 75 d2 3c
       0.06927665 -0.09641031 -0.07863488 0.025690861
000350 20 ef 83 be de a1 04 bd e5 70 ad bd 01 00 fd bd
       -0.25768375 -0.03238093 -0.084687985 -0.12353516
000360 a2 fa 2f be 02 39 18 be af 02 02 3e 15 93 1b 3e
       -0.17185453 -0.14865497 0.12696336 0.15192826
000370 0a 33 a3 3d ac 3b 2e be 1d 62 e8 bd 09 27 62 be
       0.07968719 -0.1701495 -0.113468386 -0.22085203
000380 0f 25 66 be 95 da 64 be cf 03 34 3e 0f 99 ca 3b
       -0.22475074 -0.22349007 0.17579578 0.006182797
000390 0a aa d0 bc f4 01 ab bb 67 15 9c 3d ab 05 2a bd
       -0.025471706 -0.0052187387 0.0762127 -0.04150931
0003a0 db 80 d8 3d 78 8d 2d 3d d9 53 df 3c cf 24 fa 3d
       0.10571452 0.042371243 0.027261661 0.12214052
0003b0 fc 3e 64 3e 9d 22 23 be ce fb a1 bc 6b f6 5b be
       0.22289652 -0.15931173 -0.01977339 -0.2148072
0003c0 c1 88 15 be eb 90 0e bd 17 e4 5a be 50 98 3e 3e
       -0.14602949 -0.034806173 -0.21376072 0.1861279
0003d0 81 86 8a be 84 34 2e bd 23 16 0c 3d 4d e9 52 bd
       -0.27055743 -0.04253055 0.0342008 -0.051492024
0003e0 c2 f6 3e bd 5c a3 17 bb f7 22 2d be 61 e4 b2 bd
       -0.046622045 -0.0023138141 -0.1690787 -0.08734966
0003f0 8d ef ae bd 81 84 11 3e e7 f5 89 3d 3d 98 34 3e
       -0.085417844 0.14210702 0.06736355 0.176362

attn_layer.0.bias f4 [64]
000000 b8 fd 49 bd 79 57 9e 3d 9e c9 94 bd 42 e3 c2 3c
       -0.04931423 0.07731528 -0.07265018 0.023790006
000010 6c 56 4c 3d 3f ab 4b bd d5 f0 0a 3d c8 d9 5e 3d
       0.049887106 -0.04972386 0.03392108 0.05440691
000020 22 5c 4a bd 68 48 bd bd a1 4d 08 be 47 5f cf bc
       -0.04940427 -0.09242326 -0.13310863 -0.025313986
000030 5d 77 75 bc a6 d5 9d 3d 2e 89 93 3d 9b 83 e5 bb
       -0.014982072 0.07706766 0.07203899 -0.007004214
000040 e1 89 d3 3d cf 54 94 3d ec be ab bd 7b 71 c7 3c
       0.10329033 0.072427385 -0.08386025 0.024346104
000050 f0 5b 07 3d 8e 08 6d 3d bc 17 a5 3d 43 7b 3d bd
       0.033046663 0.057869487 0.080611676 -0.04626013
000060 3d 83 68 bd 29 44 e9 3c 6c d8 ca bd bb 3f c5 3d
       -0.056765784 0.028474884 -0.099045604 0.09631296
000070 a3 52 23 3d f9 27 c1 3d c7 62 01 3d b6 b2 c4 3d
       0.03987373 0.09431452 0.031588342 0.09604399
000080 25 8c d2 3c 92 14 fd 3d 35 d7 8c 3d 49 5e d3 3d
       0.025701592 0.12357439 0.06876985 0.10320718
000090 17 0c 2e 3d f7 8c 81 3d 45 e2 1b bd dc a1 bc 3d
       0.042492 0.06325715 -0.038057584 0.0921056
0000a0 5b 3a 72 bd cf 8d 96 3d f9 1c c3 3c 96 50 df 3d
       -0.059137683 0.073512666 0.023817526 0.109040424
0000b0 a9 d5 91 bd 6a 6d dc bd bf 97 9d 3d b7 a0 e5 3d
       -0.071208306 -0.107630566 0.07694959 0.112122945
0000c0 e2 d5 89 bd 5f d8 a9 bd a4 d0 6b bd 7c 38 34 bd
       -0.06730248 -0.08293223 -0.057572022 -0.04399918
0000d0 d1 6b 06 bd d2 f0 9d bd 1f 6f 6d 3d 36 43 01 3d
       -0.032817665 -0.077119485 0.0579673 0.031558238
0000e0 c5 52 b4 bd 19 7b 65 bd 1f 88 dc bc 22 a3 94 3d
       -0.088048495 -0.0560256 -0.026920376 0.072576776
0000f0 4a 4c 23 bd 6e c9 df bd e2 dc b1 bd ce b4 68 3d
       -0.039867677 -0.109270915 -0.08684708 0.056813054

attn_layer.2.weight f4 [1, 64]
000000 9b a7 aa 3e 43 ba c2 be 32 da a3 3e 81 c7 c4 be
       0.33330998 -0.3803273 0.32002407 -0.3843346
000010 79 21 b7 be 0f 25 a8 3e 5f 4d b4 be ae d1 ba be
       -0.35767725 0.32840773 -0.3521528 -0.36488098
000020 75 4e 8f 3e f0 1c aa 3e 6f ab ab 3e f6 6f bf 3e
       0.27989545 0.33225203 0.3352923 0.37390107
000030 4a 6d b9 3e 6a 30 af be 3a 72 a1 be d7 b4 bd 3e
       0.36216193 -0.34216624 -0.3153246 0.37052032
000040 aa e3 a9 be 21 af c3 be 64 21 9f 3e 7b be a9 be
       -0.33181506 -0.3821955 0.31080163 -0.33153138
000050 c9 3f a9 be 80 08 ba be 5d 82 d4 be 4f 71 90 3e
       -0.33056477 -0.3633461 -0.4150571 0.28211448
000060 c8 25 9a 3e 04 cc af be 43 57 97 3e ce 43 9e be
       0.3010695 -0.3433534 0.29558763 -0.30911106
000070 57 10 c1 be 42 f7 b1 be 6e e1 a2 be bc fb a4 be
       -0.3770778 -0.34758955 -0.31812614 -0.32223308
000080 88 0c ba be 1d 8f 8f be df e6 98 be f5 d8 ab be
       -0.36337686 -0.28038874 -0.2986364 -0.33563963
000090 4d 01 a9 be ed 24 a5 be bf 69 c4 3e a5 5d 8c be
       -0.33008805 -0.32254735 0.38361928 -0.27415195
0000a0 dc 45 a3 3e 71 cd be be 31 98 ca be c6 1b 9a be
       0.31889236 -0.37266114 -0.39569238 -0.30099314
0000b0 1c 7a a1 3e 8b c3 94 3e f0 23 a6 be 1d 2b ac be
       0.31538475 0.29055437 -0.32449293 -0.33626643
0000c0 6e 5b a3 3e c3 ba bf 3e 17 6f bc 3e 81 e5 be 3e
       0.31905693 0.37447175 0.36803505 0.37284473
0000d0 3b 00 a5 3e 04 30 b6 3e 4f 05 bb be a9 0a c4 be
       0.32226738 0.35583508 -0.36527488 -0.38289383
0000e0 80 1a ac 3e 8b 73 be 3e a6 4d be 3e c3 b3 bf be
       0.33613968 0.37197527 0.37168616 -0.37441835
0000f0 bf af c1 3e d8 b6 be 3e 8d 87 aa 3e 4e 33 ae be
       0.37829396 0.37248874 0.33306542 -0.34023517

lstm_layer.weight_ih_l0 f4 [256, 1]
000000 c9 0b a3 3e ab 82 7d bd be 65 f2 3e b7 90 7a 3d
       0.3184493 -0.061892193 0.47343248 0.061173167
000010 5d 93 78 bd 04 97 13 3f 5e 8b 19 3d 0c 7c e6 3a
       -0.06068741 0.57652307 0.037486427 0.0017584576
000020 5a 12 e5 3d 6b 11 55 3e 86 2e 4f 3d be 30 bf 3c
       0.11185141 0.20807426 0.050581478 0.023338672
000030 b5 a2 6d 3b 36 db b6 bd 41 95 25 3e 8b cc 22 3e
       0.003626031 -0.0892853 0.16170217 0.1589834
000040 5d 8e ca bd 1d 87 f3 3e ed d1 11 3e f5 58 f3 3c
       -0.09890435 0.4756402 0.14240237 0.029705504
000050 a2 74 f5 bc ff 94 d0 3d 1f 6d 90 3d 6b c3 83 bc
       -0.029962841 0.10184669 0.07052063 -0.016084393
000060 70 05 b1 3d 6c e9 8f 3d 9d e9 0d 3e 97 29 8e 3d
       0.08643615 0.070269436 0.13858648 0.069415264
000070 55 3a bf 3d 5d 66 1a be 6b 29 8a bc 73 55 85 3e
       0.09337298 -0.15078111 -0.016865453 0.26041755
000080 9c 4b fa 3e c7 57 e0 3d ab 51 b5 bd f7 a8 0e bc
       0.4888581 0.10954242 -0.088534676 -0.008707277
000090 ec 96 97 bc fe bb e1 bc a5 ba 13 3e f8 3b 76 bc
       -0.018504582 -0.027555462 0.14426668 -0.015028946
0000a0 9c 58 e1 3e 3e 4e 90 bd 21 fd 19 3d 06 05 92 3d
       0.44012916 -0.070461735 0.03759492 0.071298644
0000b0 f0 e7 4a bd e2 75 ef bc bc 3d 3f 3d c5 b7 77 3e
       -0.0495376 -0.029231016 0.046689734 0.24191196
0000c0 34 ee a8 3d 77 d4 22 3e 04 bc b7 bd 0d 95 88 3c
       0.08248559 0.15901361 -0.08971408 0.016672635
0000d0 12 ba 1e be 9d d6 30 bd 11 21 18 3e 33 90 39 3d
       -0.15500668 -0.04317342 0.14856364 0.045303535
0000e0 8e 03 31 bd a9 74 d2 bc cc ee 31 bc c8 46 45 3e
       -0.04321628 -0.025690394 -0.010860156 0.19265282
0000f0 a2 2b 1e bd b0 09 8b 3e b8 cb 1e 3d d1 48 9c 3e
       -0.03861583 0.27155828 0.0387685 0.30524305
000100 e3 3b a5 3e 30 c1 ec 3d 38 8d d2 3e 76 14 dc bd
       0.32272252 0.11560285 0.41123366 -0.1074609
000110 ed 6b 47 bd b3 2b 18 3f eb 42 ff 3c 29 ec 93 3c
       -0.04868691 0.5944168 0.031159839 0.018056946
000120 42 bf 19 3e 84 b1 7e 3e 4e 52 23 3c 7b 7a c0 3d
       0.15014365 0.24872404 0.009968353 0.09398361
000130 b6 b3 c0 bb 88 a3 4c 3d c9 3a 67 3e 32 72 0b 3e
       -0.005880798 0.049960643 0.22581019 0.13617781
000140 23 d6 10 3e 3b ad e7 3e 52 5b fc 3d fd 9a 00 3e
       0.14144187 0.45249352 0.123221055 0.12559123
000150 b7 26 6b bb c9 98 fb 3d dc 38 8c be c5 98 aa bc
       -0.003588123 0.12285001 -0.2738713 -0.0208248
000160 4f a5 6e 3e 34 5e b8 3c 89 1f 23 3d 7c 9f a0 bb
       0.23305248 0.022505857 0.039824996 -0.0049018245
000170 9d 86 33 3d c8 98 89 3d 7d 74 3f bc a5 02 b8 3e
       0.04382955 0.06718594 -0.011685488 0.35939518
000180 46 dc dc 3e 95 ee a1 bd 62 b8 35 3c f1 20 c4 3d
       0.43136805 -0.07906834 0.011091324 0.095765956
000190 53 a4 22 3e 2b ed d5 3c 04 8c 35 3d a4 fe 85 39
       0.15882997 0.026114067 0.044322982 0.0002555746
0001a0 54 fd c6 3e a7 8c af 3d 99 0e 5e bc 80 68 d9 3d
       0.3886515 0.08571749 -0.013553285 0.10615635
0001b0 73 39 1a 3c eb fd 5e bd 9c 64 e6 b9 29 7b 07 3e
       0.009413111 -0.054441374 -0.00043943978 0.13230576
0001c0 c0 11 a5 3d f4 f1 aa bc 20 be 57 3a e7 0b 39 3d
       0.08060026 -0.020867325 0.000822993 0.045177367
0001d0 ee 9e f3 bd e6 cb dc bb 7b f2 b7 3c fb 81 cd 3a
       -0.11895548 -0.006738174 0.02245449 0.0015678996
0001e0 5d 7c 1d bd ce 73 41 3e d4 08 f5 3c 99 7d 71 3e
       -0.03844868 0.18891832 0.029911436 0.23583068
0001f0 6e 3c b9 3d 30 4d 65 3e 0e ac a5 3c 55 80 74 3e
       0.09044729 0.22392726 0.020223644 0.2387708
000200 ed d1 2f 3e 79 38 86 bd 9d a7 72 3e 20 88 82 3d
       0.17169924 -0.0655374 0.23696752 0.0637362
000210 be 8a 79 bd 47 ca 92 3e 88 20 9c bd d5 11 8f bc
       -0.06092333 0.2866995 -0.07623392 -0.017464558
000220 20 04 f5 3c 46 06 50 3e 42 f6 6d 3d 57 0a d0 bd
       0.029909194 0.20314893 0.058096178 -0.10158222
000230 1c 73 37 bd 1e 99 0a be 24 b7 3b be 98 b3 0d be
       -0.04478751 -0.13534972 -0.18331581 -0.13838041
000240 55 61 84 3c a5 39 93 3e 29 7f 1a 3e be ad 88 bd
       0.016159693 0.28754917 0.1508757 -0.06673764
000250 91 14 7c 3c 6b c2 26 3d 34 76 9a 3d 5c dc bb 3c
       0.015385763 0.040712755 0.07542077 0.022932224
000260 f1 36 7b 3d a1 cf 9f 3d 1a e4 a0 bd 22 f5 f5 bd
       0.061331693 0.07803274 -0.07856007 -0.12009646
000270 ea b7 e3 bd 84 e0 d8 bd f9 10 49 bc b6 ef 04 3e
       -0.11119063 -0.10589698 -0.012272113 0.12982067
000280 6a 89 8c 3e 05 6f 7a bd 6a d1 0d 3d 02 94 17 3e
       0.2744859 -0.061141033 0.03462354 0.14802554
000290 a1 21 d5 3d 0e b4 3f bd 78 f0 3f bc 43 9f f0 3b
       0.10406805 -0.046802573 -0.011715047 0.007343204
0002a0 4c 80 8c be fe cd a5 3d 9f 3b e6 3d 19 44 4b 3a
       -0.27441633 0.080959305 0.112418406 0.0007753983
0002b0 32 7a 29 3d 34 7f 4d 3d 66 10 f8 3d 50 55 6c 3e
       0.0413763 0.05017014 0.12112503 0.23079419
0002c0 de 3c da bc 41 87 12 3c b4 56 fa 3c 42 53 b6 3d
       -0.026640352 0.00894338 0.030558921 0.08902599
0002d0 4d 29 b8 bd ac 65 53 3d f1 1b f0 bc f3 d1 09 3e
       -0.089922525 0.051610634 -0.029310199 0.13458996
0002e0 71 81 a7 3d 06 9d c4 bd 6e ed d9 3d 6f a4 45 be
       0.08178986 -0.09600262 0.10640989 -0.19301008
0002f0 03 a6 94 3c 8e ea 19 be 38 cd 19 be 5c 67 08 be
       0.018145567 -0.15030882 -0.15019691 -0.13320678
000300 c2 aa bc 3e 57 89 67 bc 3f cc 16 3f 14 c1 f9 bd
       0.36849028 -0.014131865 0.58905405 -0.1219503
000310 c5 fd 8e bd 81 67 31 3f 02 6a e5 3d cc f0 32 be
       -0.069819964 0.6929856 0.1120186 -0.17474669
000320 5c 09 77 bc a9 c2 38 3e dd ea 68 bb fb b3 d6 3c
       -0.015077915 0.18043007 -0.003554038 0.026208868
000330 78 05 c4 3d 12 bb db 3c ee ba ec 3d 72 ef 8c 3e
       0.095713556 0.0268226 0.115590915 0.27526432
000340 08 83 eb 3d be 09 12 3f 8f 90 9d 3d cc a0 54 3d
       0.114996016 0.57046115 0.07693588 0.05191116
000350 94 e2 b1 bd b0 c4 60 bd 4a ba c0 3d 9f 06 04 bd
       -0.086857945 -0.054875076 0.09410532 -0.032232877
000360 81 e3 68 3d 10 07 3c 3e 24 43 b9 bc 40 11 3b 3e
       0.05685759 0.18362069 -0.022615023 0.18268299
000370 29 d6 0a 3d bd 22 51 be 82 50 36 3d 4b 35 8d 3e
       0.033895645 -0.20423408 0.044510372 0.27579722
000380 7f ea fc 3e 29 29 26 bd b4 3b 5b be 9f 35 b3 3d
       0.49397656 -0.040566597 -0.21409494 0.08750462
000390 83 06 e6 3d 37 3a 26 3e 0e 59 5e bd 45 0c 5d bb
       0.11231711 0.16233145 -0.054284148 -0.0033729237
0003a0 99 d4 ee 3e 40 e3 bc 3a 5b 3c 05 3d b4 28 2d 3e
       0.46646574 0.0014410987 0.032528263 0.16910058
0003b0 08 1d 63 bd 4e 92 c5 3d 37 ef 94 3d be de db 3e
       -0.05544761 0.09647046 0.07272189 0.42943376
0003c0 be d3 2c 3c 70 e3 22 3e da 97 10 be 46 ad 1c 3d
       0.01054853 0.15907073 -0.14120427 0.038251184
0003d0 66 90 79 be 84 8e b6 bc 04 54 15 3e 8c 68 71 3d
       -0.2437149 -0.022284754 0.1458283 0.058937594
0003e0 dd 64 a5 3c 65 66 bf 3c a3 3c f5 3d ea 9c 85 3e
       0.020189697 0.023364255 0.11974456 0.26096278
0003f0 af f3 03 bd e9 b4 5d 3e 3a 2d 7d 3e a2 50 b5 3e
       -0.032214817 0.21651043 0.24724284 0.3541308

lstm_layer.weight_hh_l0 f4 [256, 64]
000000 a1 9a d6 3d 5c f5 0f be f1 b1 d2 3e 6f 73 f5 bd
       0.10478712 -0.14058441 0.41151384 -0.11984908
000010 33 55 2b be 49 da 01 3f 7d d5 d8 bd a8 f6 8f be
       -0.1673172 0.507237 -0.10587595 -0.2811787
000020 e5 c7 6b bd 28 f8 6a bc e4 ae 03 3e 77 e2 96 3d
       -0.05756368 -0.014341392 0.12859684 0.073674135
000030 a7 00 7b 3d 2e f7 10 bc 60 df f4 bc 91 d5 b2 3c
       0.06127992 -0.008847995 -0.02989167 0.021830352
000040 8c 9b 0e 3a 4b b7 de 3e eb b0 82 3c f0 77 e9 bc
       0.00054400484 0.43499216 0.015953502 -0.028499573
000050 bd c0 87 3e 70 9f e6 3d 0a 1b e4 3b a7 8e 6f 3d
       0.26514235 0.11260879 0.006961231 0.058485653
000060 2a 48 b3 3e 6d b0 76 bc 25 53 e9 bd d2 37 d3 bd
       0.35015994 -0.015056712 -0.11392812 -0.10313381
000070 24 49 08 be 2e cf 23 3e 71 5b ee 3c f7 49 bc 3e
       -0.13309151 0.15997002 0.029096337 0.3677518
000080 f1 bc 68 3e 59 da 55 3d 5c 0c 8d be 14 cc 69 3d
       0.22728325 0.052210186 -0.27548492 0.05707939
000090 e1 78 fc 3c c8 13 68 bc d3 48 2b bd 00 75 0d 3c
       0.030819358 -0.0141648725 -0.041817497 0.008633852
0000a0 93 5d 86 be 7e 07 10 3d 2f 20 12 3e 7c 9c 1d bd
       -0.26243266 0.035163395 0.1427009 -0.038479313
0000b0 3e 7c 7f 3d ce 84 c8 3d 56 b8 d5 bc 4b 63 83 3e
       0.062374346 0.097909555 -0.026088875 0.25661692
0000c0 cb 78 28 3e b5 32 bf 3d 21 44 ef 3d 27 d8 a2 bd
       0.16452329 0.093358435 0.116829164 -0.07951384
0000d0 6d fa f6 3c f8 eb 4b 3d 2c bf 2d 3d ea 6b 68 bd
       0.03014871 0.049785584 0.042418644 -0.05674354
0000e0 7c 4d 28 3d ad 6c c7 3d af 40 3a 3d 28 0e bd bd
       0.04108952 0.09737525 0.045471843 -0.09231216
0000f0 f7 17 94 3d fb 3c 6b be ee a6 c5 3c cf 05 37 be
       0.072311334 -0.22972481 0.02412745 -0.1787331
000100 25 09 4f bd 62 dc c1 bd 0c 00 9f 3c fe df 02 3c
       -0.05054583 -0.09465863 0.019409202 0.007987974
000110 5b a0 8a bd 6f 7e 59 bd 11 60 f9 bc 4c e6 00 be
       -0.06768867 -0.053099092 -0.030441316 -0.12587851
000120 bc 7c c7 3d ce fd f4 bd 7d 81 79 bd 1e ba ad 3d
       0.09740588 -0.11962472 -0.060914505 0.08482765
000130 5d 91 49 3d 3f 27 6d bd 52 92 ec 3d bc da 6c bd
       0.049210895 -0.057898756 0.11551346 -0.05782579
000140 36 7e aa 3d 86 17 9f bd 19 67 ea bd 8f ed 98 3d
       0.08324854 -0.077681586 -0.114454456 0.07467186
000150 58 6e 15 3e 1a e1 2a 3d de 7c 2f bd a5 dd 0a 3b
       0.14592874 0.04171858 -0.042843692 0.002118924
000160 08 11 84 3d 76 64 92 bd eb b8 34 3d fd 67 41 bd
       0.06448561 -0.07148068 0.044121664 -0.04721831
000170 7d 85 54 bc a7 a9 e0 3d 16 93 e1 3d 9c 3e cb 3d
       -0.012971279 0.109698586 0.110143825 0.09924051
000180 fa 9e 62 3d a1 89 8f bd 2e 9a c8 3c 7b 67 42 3d
       0.055327393 -0.070086725 0.024487581 0.047461968
000190 94 7c 5b 3d ae 91 1a 3d e3 10 5f bd 98 f1 09 3e
       0.053585604 0.037736587 -0.054459464 0.13471067
0001a0 a9 36 56 3c be 16 4a bd ee 3b 7a bd 10 68 c7 bd
       0.013074555 -0.049338095 -0.06109231 -0.09736645
0001b0 1f e2 c5 bd 24 df 91 bd db d9 4b bb 6e b5 84 3d
       -0.0966227 -0.07122639 -0.0031105194 0.064799175
0001c0 00 f4 78 3d 2d a5 8a bd 5c 8a a0 3d 8c 00 0a 3c
       0.06077957 -0.06769786 0.0783889 0.008422982
0001d0 c1 3a 11 3e df 2b af bc be 97 2f bc 67 b1 03 bd
       0.14182569 -0.021383224 -0.0107173305 -0.032151606
0001e0 50 9a d4 bd 5a 3a 01 3e 6e 3a b8 3d e0 a5 8f 3c
       -0.10380995 0.12619916 0.089955196 0.01753515
0001f0 0a ce 05 be 3b ea 6d bc a7 07 c0 bd a4 ec 0e bd
       -0.13066879 -0.014521177 -0.093764596 -0.034893647
000200 75 c6 d1 3e 35 cf 89 bd 4f 5b b9 3e 36 80 c8 bb
       0.40971723 -0.06728975 0.36202475 -0.0061187996
000210 0c a8 4a be 9c c0 c3 3e 0b 64 01 be c4 03 90 be
       -0.19790667 0.38232887 -0.1263582 -0.28127873
000220 d6 75 0b bd d2 b7 b6 3d bb 93 1a 3e cc a5 8b 3d
       -0.034047924 0.0892178 0.15095417 0.068187326
000230 00 0f 0c 3d c8 e6 94 3d da 27 69 bc 6a 38 f2 3c
       0.034193993 0.072705805 -0.014230693 0.029567916
000240 b8 be d1 bd bf 4c be 3e 75 5a cd 3b 3d 13 a3 bd
       -0.10241455 0.37167928 0.006266887 -0.07962654
000250 31 3f ce 3e c9 cb 8c 3d c3 58 59 3e 55 56 07 3e
       0.40282586 0.068748064 0.21225266 0.13216527
000260 b9 0c a1 3e d8 f3 98 3e 8e 26 99 be c1 5f 1e be
       0.3145502 0.29873538 -0.29912227 -0.15466215
000270 b6 fb 63 3d e9 92 db 3c 97 74 6c 3d cf ed c3 3e
       0.055659972 0.02680345 0.057728376 0.3826737
000280 10 bc c1 3e 9f 20 28 bd 02 08 7b be cf 6b d4 3d
       0.37838793 -0.041046735 -0.24514773 0.10372125
000290 08 71 71 bd a8 a7 7a bd cf d9 33 bc 72 07 1c 3d
       -0.058945686 -0.061195046 -0.010977223 0.038093038
0002a0 c4 fc 6f be 87 8b 8b bd e9 a8 3a 3e a7 fe 2f bd
       -0.23436266 -0.06813722 0.18228497 -0.042967465
0002b0 ad a7 f0 bc c0 fc c2 3e 81 2c 12 3e a3 9b 05 3e
       -0.029376829 0.38083458 0.1427479 0.13047652
0002c0 6a d7 48 3e 91 8c 82 bc ea c0 a3 3e 66 ce 2c 3e
       0.19613424 -0.015936168 0.3198312 0.1687561
0002d0 86 ff 37 3e 3d 36 b7 3d b8 59 60 bd 50 0d c6 3d
       0.17968568 0.08945892 -0.054773062 0.09670508
0002e0 3b 61 93 bd 7e 82 1c bd ba f1 4c 3e 7e 19 19 be
       -0.071962796 -0.038210385 0.20014086 -0.14951131
0002f0 72 71 53 3d ba 01 61 be 64 6a 84 bd a8 c4 43 bd
       0.05162186 -0.21973315 -0.06465605 -0.047794968
000300 a9 ea c9 bc d6 c1 01 3e 4c f2 bf bd 17 d8 2d 3d
       -0.024648027 0.12671599 -0.09372386 0.042442407
000310 5e 74 86 bc 82 bf b9 bd 43 97 c2 bd 40 a4 ce 3d
       -0.01641291 -0.0906973 -0.09501507 0.10089922
000320 da 9f 3e b9 fb 86 3e bd 36 9e 18 bd 83 c1 75 bd
       -0.00018179361 -0.046515446 -0.037260257 -0.059999
000330 04 0d 3f bd 35 c5 87 bd 86 ac fb bd a2 d2 ba bd
       -0.046643272 -0.06629411 -0.122887656 -0.09122206
000340 cf 20 f9 3d 5e cf ad 3d 11 1d ce bd ef 2a 9b 3d
       0.12164461 0.08486818 -0.10064138 0.07576548
000350 6b 52 48 3c 4f 7d 4f 3d 1a 58 bc 3d c4 4b f2 bd
       0.012226681 0.050656613 0.091964915 -0.118308574
000360 76 b3 bd bc eb 50 c5 bd 14 9e 0e be 4e 50 d4 bd
       -0.023156863 -0.096345745 -0.1392749 -0.103668794
000370 a4 f8 f8 3d 71 aa 6b bd 66 53 ab bd 2a d1 80 bd
       0.121567994 -0.057535592 -0.08365516 -0.06289895
000380 77 65 3a bd 67 52 fe bc 9f 49 57 3c b1 a5 19 bd
       -0.04550692 -0.031045152 0.013140111 -0.03751153
000390 75 7a b6 3d c7 34 9b 3c d7 70 8d bc d9 7f 32 bd
       0.089100756 0.018946065 -0.01726572 -0.043578956
0003a0 b2 e9 bc bd 4a 71 85 bd 39 5a 0c be 19 d7 2e bd
       -0.09224261 -0.06515749 -0.13706292 -0.0426856
0003b0 79 c6 d5 bd 7b 59 31 3c 50 6c 92 3d 74 f9 ba bd
       -0.10438246 0.010824556 0.07149565 -0.09129611
0003c0 53 de 08 3e 80 d1 24 3b e6 0b a2 bd e7 bd 2e bc
       0.1336606 0.0025149286 -0.07912426 -0.010665393
0003d0 45 82 33 3d 76 e5 e8 bd 14 03 5e bb 84 e0 e1 bd
       0.043825407 -0.11371891 -0.0033876346 -0.11029151
0003e0 df a9 a9 bd 59 35 9c 3b ea 6b aa 3d 8a 09 d1 3d
       -0.082843535 0.0047671017 0.08321364 0.102068976
0003f0 99 20 1f bd 5b 5a 78 3d 00 aa 96 3d 18 9f f7 bd
       -0.038849447 0.060633045 0.07356644 -0.120908916

lstm_layer.bias_ih_l0 f4 [256]
000000 82 93 94 bb 46 c3 3a bd 8f 5c 41 3c 4c c2 57 3d
       -0.004534186 -0.045596384 0.011801853 0.05267553
000010 70 24 5e bd 90 22 4a 3e 64 31 b7 bd cb 76 cf 3d
       -0.05423397 0.19739747 -0.089449674 0.1013008
000020 ee f0 d9 bd 66 e1 b7 3c f6 13 92 3d b4 54 79 3c
       -0.10641657 0.022446346 0.071327135 0.015217949
000030 62 2f a6 3d b6 5e 5d 3d 15 67 f4 bd c1 bf 14 bd
       0.08114506 0.0540454 -0.11933724 -0.036315683
000040 f7 66 bc 3d 41 51 09 3d ca 81 38 bc 80 a6 ea bd
       0.091993265 0.033524755 -0.011261413 -0.114575386
000050 89 e1 58 3d a7 bc 97 bd dd 80 4f 3d 7b f5 07 bd
       0.052949462 -0.074090295 0.050660003 -0.033193093
000060 a8 d8 9f bd 1d 59 84 bd d0 af e1 bd 69 04 2b 3d
       -0.07804996 -0.064623095 -0.11019862 0.041752253
000070 de 28 c0 bd aa 77 81 3d 3d 69 cc 3d 89 85 98 3c
       -0.09382795 0.06321652 0.0998101 0.018618362
000080 29 d6 cd bb 6d da 3e bd 85 3f 14 3d 0a 3b 41 3d
       -0.0062816334 -0.046595026 0.03619339 0.047175445
000090 90 ef cc bb 8a 7c ab 3c 09 48 aa bd 25 7a 1f bd
       -0.006254144 0.020933408 -0.08314521 -0.038934845
0000a0 eb 41 cc 3c 1f 65 c3 bd 45 a8 7f 3d e5 50 63 bb
       0.024933776 -0.09540772 0.062416334 -0.0034685668
0000b0 87 1b 96 3c cd 5c 7e bd c0 1f ce 3d e8 a4 df bc
       0.018323673 -0.06210022 0.100646496 -0.027300313
0000c0 cd c2 54 bd fc 14 83 bd c0 4a c4 bd 18 de 71 bd
       -0.05194359 -0.06400487 -0.0958457 -0.059049696
0000d0 46 36 15 3d fb 92 fd bd 42 cc fd bd cb 88 49 bd
       0.036428712 -0.1238155 -0.12392475 -0.04920272
0000e0 31 02 10 bc c1 65 17 bc 6d 95 60 3b 91 5b 56 3e
       -0.008789585 -0.009240569 0.0034268752 0.20933367
0000f0 42 be 70 3d 0e 68 0c bd da d4 a5 bc bd 28 73 bd
       0.058775194 -0.03427892 -0.020243097 -0.059365023
000100 52 40 5f be 25 f7 98 3d 4e 01 d5 bc 26 15 02 3e
       -0.2180188 0.07469014 -0.026001599 0.1270338
000110 3a e8 20 3b da 97 6c be af 7c d4 3c 54 1f 03 be
       0.002455248 -0.23104802 0.02593836 -0.1280492
000120 4d 8d 5b bd e8 10 a8 bd 4e 53 2c bd e7 11 1b 3d
       -0.05360155 -0.082063496 -0.042071633 0.03785887
000130 96 68 c0 bd 34 c2 84 3c 6f 14 64 3d e7 65 7d bd
       -0.09394948 0.016205885 0.05568355 -0.06186476
000140 74 8e f7 bd 08 14 40 be ab 59 89 3c 0f 21 af bd
       -0.12087718 -0.18757641 0.01676639 -0.08551227
000150 e3 58 0d be 4d f7 bf bd ca fb b4 be 78 8b 8a bc
       -0.13803439 -0.09373341 -0.3534835 -0.016912207
000160 16 f7 d4 bd d7 4a 20 be 35 19 36 3d e2 46 13 3c
       -0.103986904 -0.15653549 0.044457633 0.008989068
000170 ef 19 82 3c dc 02 eb bd a7 cd 3a 3d 20 03 16 bd
       0.015881507 -0.11475155 0.04560628 -0.036624074
000180 f8 f8 17 3d 58 74 e2 bd 49 0a 20 bd 88 26 f0 bd
       0.03710267 -0.11057347 -0.03907231 -0.11726099
000190 1f 74 97 bb 44 cf 06 bc fa a7 1a 3c dd 57 5a 3d
       -0.004621997 -0.008228127 0.009439463 0.05330645
0001a0 64 4b 19 3b 82 88 f2 bd 1a 00 15 be ac 5a 7e 3d
       0.0023390884 -0.11842443 -0.1455082 0.06209819
0001b0 0a dc 9b 3d d2 47 76 3c 6a fd 00 be a9 d9 d9 bd
       0.076103285 0.015031772 -0.1259667 -0.106372185
0001c0 7f 7c dc bd 8c 40 20 3d aa c4 95 bd 2a 7f 73 3c
       -0.10765933 0.039124057 -0.07312901 0.014861861
0001d0 20 7c 74 be 9b e8 a4 bc 3f 0e 8d bc bd 78 ea 3b
       -0.23875475 -0.020130446 -0.017218707 0.0071555064
0001e0 a2 7f 02 be 90 a6 72 3d 14 9a 17 3d e7 23 29 be
       -0.12744 0.059240878 0.037012175 -0.16517602
0001f0 13 aa ca 3d 71 91 8d 3d bc c0 a2 bb 5a 83 c8 3d
       0.0989572 0.06912506 -0.0049668234 0.09790678
000200 1f f9 fd bc 07 fd 68 bd d0 f4 1a bd 7f c1 27 bd
       -0.03100258 -0.05688193 -0.037831128 -0.040956017
000210 6e a3 54 3d 45 fc 3b bb 75 77 fc 3c b3 db be bd
       0.05191367 -0.00286843 0.03081868 -0.09319248
000220 c9 c4 22 3d 08 f6 86 3d 27 fb 86 3d 0a 4f b4 bd
       0.03973845 0.065898955 0.06590872 -0.08804138
000230 29 29 c4 bd 37 71 e4 bd ca 2a 6b bd 58 d9 da bd
       -0.09578163 -0.111544065 -0.057413854 -0.10685986
000240 a4 21 54 bd b6 5b e9 3d 6a e0 a6 3d 40 59 b7 3d
       -0.051789895 0.113944456 0.08148272 0.0895257
000250 89 8d 53 3c 5f 0e be 3d ec c4 6c bd f3 bf 21 bb
       0.012912163 0.09280085 -0.057804987 -0.002468106
000260 6d 4b 4e 3d 3e ed b2 3d 97 c4 ad 3d 9e 83 dc 3c
       0.0503649 0.087366566 0.08484762 0.026918229
000270 f7 d1 bb bd eb e8 e0 bc 1c f5 b8 3d b5 81 9d 3d
       -0.09170907 -0.027454814 0.09031126 0.07690755
000280 03 ec 23 3d 17 59 47 bd aa c1 40 3d ea ea cc 3c
       0.04002 -0.048668947 0.047059692 0.02501436
000290 e2 58 29 3c c6 49 ae 3c 32 4f 29 3d 7f 07 06 bd
       0.010336133 0.021275412 0.041335292 -0.032721993
0002a0 6b 13 99 bc 5e 55 59 3d 6f 23 f7 bd 60 74 29 3c
       -0.018686017 0.053059928 -0.12067305 0.010342687
0002b0 1c 96 89 bd f9 f7 a2 bd 13 09 bd bd 5a 53 c2 3d
       -0.06718084 -0.07957453 -0.092302464 0.09488554
0002c0 25 0c b4 bd f9 c2 10 bc b7 12 98 bd ef 74 87 bd
       -0.08791379 -0.008835548 -0.074254446 -0.066141
0002d0 25 22 de bc eb 72 b4 ba 78 cc a2 bd 8b bb 7b 3d
       -0.02711589 -0.0013767158 -0.079491556 0.06145815
0002e0 8c d5 0c 3d 57 67 46 bd 43 f1 c2 3a e2 3c 98 bd
       0.03438334 -0.048438396 0.0014872927 -0.074334875
0002f0 b2 50 07 bb b5 59 c7 bc 81 18 83 bd 93 2c 9d bd
       -0.0020647463 -0.024334768 -0.06401158 -0.076745175
000300 07 2c a6 bd e1 e6 50 3d a1 19 c2 3d 06 6b b4 bd
       -0.08113866 0.051001433 0.094775446 -0.088094756
000310 71 da 07 3d 4d 81 df 3d d4 e5 87 3c 00 65 d5 bd
       0.033167306 0.10913334 0.016589083 -0.10419655
000320 9b bb 4c bd bc 49 d2 3d 40 45 07 be 72 b1 33 3d
       -0.049983602 0.1026797 -0.1321001 0.043870397
000330 6c 60 b6 3c 73 14 10 3d 66 02 6a 3d b3 9e b0 bd
       0.022262774 0.035175752 0.057131194 -0.086240195
000340 44 aa 63 bd fa 31 19 3e c5 52 dc bd 75 1c af bd
       -0.0555823 0.14960471 -0.107579745 -0.085503496
000350 8c 7b a1 3d f9 73 9f 3d 52 91 bd 3d 4d ae df bd
       0.07884893 0.07785792 0.09256233 -0.10921917
000360 9b 9b 57 3d 31 41 b6 bc ba 6d ed bd 4c f3 94 bd
       0.05263863 -0.022247883 -0.11593194 -0.07272968
000370 08 2d 79 bd 94 bd 5b 3d b8 fa 8d 3d 7d f7 bb bd
       -0.06083396 0.053647593 0.069325864 -0.09178064
000380 44 61 59 3c 6a 68 dc bc 07 21 d6 3d 66 9e 82 bc
       0.013267819 -0.026905257 0.10455518 -0.01594467
000390 80 ff 62 bc f7 da 13 be 24 e6 35 3d de 1f 48 bb
       -0.013854861 -0.14438997 0.044408932 -0.0030536572
0003a0 11 1e e2 3d e0 78 d0 3d b4 e6 d3 bd 71 4b a0 3d
       0.11040891 0.10179305 -0.103467375 0.07826889
0003b0 a0 da cd 3c a8 37 e4 bc fe 80 be 3d 66 7b cf bd
       0.025128663 -0.02785857 0.09301947 -0.10130958
0003c0 28 63 9a 3d 55 97 67 3d 2c 13 20 3c b7 55 14 bd
       0.07538444 0.056540806 0.009770196 -0.036214557
0003d0 8d 78 37 bd 52 5c 44 3c 48 f5 d1 bd 8f 4d 8b bd
       -0.0447927 0.0119849015 -0.10251862 -0.068019025
0003e0 50 16 e6 3a db 93 b7 bb 90 e9 95 bd c1 4f 7a 3e
       0.0017554257 -0.0056023425 -0.07319939 0.24444486
0003f0 63 83 16 3d 59 e6 89 bd a0 61 a0 bc 30 30 10 bd
       0.036746394 -0.067333885 -0.019577801 -0.035202205

lstm_layer.bias_hh_l0 f4 [256]
000000 db 1b 5a 3c 50 32 84 bd 84 35 c2 bd 0a cb ef bd
       0.013312305 -0.06454909 -0.094828635 -0.117086485
000010 bb b9 17 be f2 18 0f 3e e0 91 6d bd 49 ca bd bd
       -0.14816944 0.1397436 -0.058000445 -0.092670985
000020 35 ce a4 bd c3 9f 96 3d d9 2f 87 bb 6b 29 7e 3d
       -0.08047143 0.07354691 -0.004125577 0.062051218
000030 cc ce 99 3d 14 c2 1c 3e f2 d0 a6 3c ea 28 61 bd
       0.075101465 0.1530841 0.020363305 -0.05497066
000040 6d 3e 4d bd 4a 15 49 3e 4b 77 8d bc 12 17 bc bd
       -0.050108362 0.19637027 -0.017268797 -0.09184088
000050 0c ff ea bd 41 bb 11 3c 49 cf 0e 3d a6 e2 87 3d
       -0.114744276 0.0088947425 0.03486565 0.06635027
000060 fc b8 28 bd 21 da b3 3d 40 dc 9d 3d 22 0a 08 3d
       -0.04119204 0.08781839 0.07708025 0.03321279
000070 c8 db 0d bd 85 fc c6 3d 66 c3 4c 3d 60 ab 1e 3c
       -0.034633428 0.09716133 0.049991034 0.009684414
000080 20 41 a1 3d 43 82 8c bd 11 99 bd bd a5 73 91 bc
       0.0787375 -0.06860783 -0.09257711 -0.017755339
000090 9c 9f 7c bd 98 eb 98 3d df 64 0c be d0 e8 e8 3c
       -0.061675653 0.07466811 -0.13710354 0.028431326
0000a0 e9 81 16 3d ab 2e 47 bd 03 ce b6 3d 41 b7 35 3d
       0.036744986 -0.04862849 0.08926012 0.044364218
0000b0 3b 41 34 3d 7c 73 28 bd bd c7 bf 3b 92 c2 af 3d
       0.04400752 -0.04112576 0.005852668 0.08582033
0000c0 61 9c ad 3d 17 20 c3 3d 42 07 90 3d 0c 09 4e 3c
       0.084770925 0.09527605 0.07032634 0.012575399
0000d0 99 9f ec 3d 7d b3 27 3d 29 87 1d 3d b2 96 cc 3d
       0.11553878 0.040942658 0.038458977 0.0998968
0000e0 ab 7c df bd b1 c6 a7 3d 4b de a7 bb 07 9b 89 3e
       -0.109124504 0.08192194 -0.005122935 0.2687609
0000f0 92 cd 13 3d a7 80 d8 bd 2a bc 8d bd f6 fb 85 bc
       0.03608472 -0.105714135 -0.06920655 -0.016355496
000100 7c 6a b1 bd 2b 54 ce bd 90 4e 4e 3c 32 15 28 3d
       -0.086628884 -0.100746475 0.012591973 0.04103584
000110 8b 8f f7 bd 90 50 d7 3a 90 3a 04 3d 6b 6a b9 3c
       -0.120879255 0.0016427208 0.032282412 0.022633752
000120 55 47 88 bd 14 c6 b3 bc f5 d8 57 bd 5e bf 1a bd
       -0.066542305 -0.021945037 -0.05269714 -0.03778016
000130 fe e0 65 3d ae 90 90 3d 2f 26 e7 bd 42 e0 e0 bc
       0.056122772 0.070588455 -0.1128658 -0.027450684
000140 06 78 18 3d 78 8f 02 be d5 5c 95 bd 26 d9 b2 bd
       0.03722384 -0.12750041 -0.07293097 -0.08732824
000150 d2 46 87 3d 49 e2 8b 3c d8 91 83 be 5e ec 34 3d
       0.06605305 0.017075675 -0.25697207 0.04417073
000160 e4 82 b6 bd b0 e6 af bd 07 46 27 bd 0c d6 a5 3c
       -0.08911684 -0.08588922 -0.040838268 0.020243667
000170 c1 93 ba bd 01 c1 4a bd 42 d1 3c bd 0f dd e5 bd
       -0.09110213 -0.04950047 -0.046098 -0.11223804
000180 00 a8 e0 bc e1 b5 33 bd 87 01 e5 bc 42 62 0d be
       -0.027423859 -0.043874625 -0.02795483 -0.13807014
000190 3d 02 a5 bd 73 d2 9a 3d c8 c4 81 3d 3e 75 ec 3c
       -0.080570675 0.07559671 0.06336361 0.0288645
0001a0 1e f9 e7 bd 96 77 78 3c 7b 88 4c bd 46 9e 84 bd
       -0.11326812 0.01516523 -0.049934845 -0.06475501
0001b0 9b 98 73 bd 80 ac 74 3d 7c 6b 04 be c3 47 17 3d
       -0.059471708 0.05973482 -0.12931627 0.03693367
0001c0 79 bf cf bd 88 65 10 be 5e 49 3f 3d 56 60 a5 bc
       -0.101439424 -0.14101231 0.046700828 -0.020187538
0001d0 24 b3 39 be 04 d9 62 3d 6e 0f 13 bc 69 e9 16 bc
       -0.18134743 0.055382743 -0.008975847 -0.009210923
0001e0 33 6c 28 bd 58 b2 ec ba fc a8 85 bd e0 b4 ac be
       -0.04111881 -0.0018058522 -0.06526372 -0.33731747
0001f0 37 7e a7 bc b7 6b e6 bd c1 29 0c bd 3e f8 d7 3c
       -0.020445926 -0.11251014 -0.034219507 0.026363488
000200 c4 3a 18 3d 72 07 e3 3c a8 95 49 3d 5c d9 1f 3d
       0.03716542 0.027713511 0.04921499 0.03902565
000210 40 3e e9 3c 32 bb 79 3b 99 70 1e 3d 21 5e b8 3d
       0.028472066 0.0038105962 0.0386816 0.09002329
000220 2b e2 82 3d 7c b6 c0 ba 83 19 57 bd e4 e6 11 bd
       0.06390794 -0.0014702822 -0.052514564 -0.035620585
000230 d1 b4 05 3d a5 98 e6 3d 6e 52 b6 bd be 7b d5 bc
       0.032643143 0.112595834 -0.08902441 -0.026059981
000240 d5 2f 26 3b 10 47 eb bd 2b 45 21 3d fb 90 2f 3d
       0.00253581 -0.114881635 0.039372604 0.042862874
000250 9d 98 53 bd 06 f1 ef bd 97 7c a8 3d 24 63 25 bc
       -0.051659215 -0.117158934 0.082268886 -0.010094438
000260 2c 1d 65 bd 92 99 32 bd c5 c7 b7 bd 99 b1 cc 3c
       -0.055936024 -0.043603487 -0.0897365 0.024987029
000270 41 84 d6 bd 0a 2c 78 bc 75 6f 71 bd d3 a9 13 bd
       -0.10474444 -0.0151472185 -0.058944184 -0.03605063
000280 3a e2 e4 bc 78 3b 82 3d 19 9d 8d bc 37 90 73 3d
       -0.027939904 0.06358999 -0.017286824 0.059463706
000290 f1 7c 86 3d de 0b 9b 3d 41 9a ca bd c8 64 04 3d
       0.065667994 0.07570623 -0.09892703 0.032322675
0002a0 9a 82 0b bd a5 09 4c 3d c7 f1 f9 3d fc 41 24 bd
       -0.0340601 0.049813885 0.122043185 -0.04010199
0002b0 ed 21 9e 3c e9 cb 92 3d b4 27 e0 3d e7 c3 cd bc
       0.019303286 0.07167799 0.10945073 -0.025117828
0002c0 34 5e 54 3d e1 de 50 3d 37 5a 7e bb 33 d0 7f 3d
       0.05184765 0.050993804 -0.0038811096 0.062454414
0002d0 87 77 52 3b 85 9c 81 bd 63 29 04 bd fb 66 6a 3d
       0.00321147 -0.06328682 -0.032266032 0.057227116
0002e0 52 65 7f 3d da 3e 6d bd 25 dc 34 bc ae 86 20 3d
       0.062352486 -0.057921268 -0.011038815 0.03919094
0002f0 b2 14 89 3c 7b e6 36 3d b1 ea 82 bc 1f 78 9d 3d
       0.016733501 0.044653397 -0.01598105 0.07688927
000300 ac 93 eb 3d a2 1c 04 39 22 2f 2b bc 43 50 0d 3d
       0.115027755 0.00012599168 -0.010448249 0.03450037
000310 4c 06 9d 3d 1c df 38 3d f5 83 86 bd 90 f1 9c 3d
       0.07667217 0.04513465 -0.065681376 0.07663262
000320 ec be 27 3d 16 f4 ca bd a0 e5 fc bd 3d 3d 2a 3d
       0.04095356 -0.09909837 -0.12348485 0.041562308
000330 a4 3b 00 bd 9f ec 0f bd d9 46 0b 3d 56 2b e2 bc
       -0.031306878 -0.03513777 0.034003112 -0.027608555
000340 dd 2f 2b bc 6d 92 84 3d 70 72 56 3c 63 fe c8 bd
       -0.010448423 0.06473241 0.013088807 -0.098141454
000350 a0 99 b0 3d ef 73 a1 3d f5 ff 17 3e 4d 23 2b bd
       0.08623052 0.07883441 0.14843734 -0.041781712
000360 a3 81 0e be 38 ee c4 3c 7c ff 32 bd 3d b4 96 bd
       -0.1391664 0.024039373 -0.04370068 -0.073585965
000370 2f b5 70 bc 37 48 d9 3c 96 d8 ca bd f4 26 f6 3d
       -0.014691635 0.026523693 -0.09904592 0.120191485
000380 f2 17 e1 3d 9d d2 0d be 48 a3 b1 3c 82 5b a8 3c
       0.10990895 -0.13849874 0.021684304 0.020551447
000390 56 3b 02 bd 97 d4 a3 bd b1 3c fa 3c af a8 70 3d
       -0.03179487 -0.07999533 0.030546518 0.05875462
0003a0 a4 31 3f bd e2 4d b9 bd da ee aa 3d ad b5 a6 bc
       -0.0466782 -0.09048058 0.083463386 -0.020350302
0003b0 dc ab c2 3d 61 a2 99 bd 69 05 05 be bc f1 b6 3d
       0.09505436 -0.075016744 -0.12990345 0.08932826
0003c0 b2 09 d6 3d 17 91 05 be e6 73 6b bc c7 26 74 bd
       0.10451068 -0.13043629 -0.014370894 -0.059607293
0003d0 ca 52 f5 bd b5 dd c6 bd b7 bb 7d 3d be 8f 5a bd
       -0.119786814 -0.09710256 0.061946597 -0.05335974
0003e0 a6 94 bb bd 4e c6 16 be 3d ee 9a 3d 42 f8 5e 3e
       -0.09159212 -0.14724085 0.075649716 0.2177439
0003f0 33 25 78 bc 65 0f 42 3d e3 04 09 bd 4a a7 24 bd
       -0.015145588 0.047377963 -0.033451926 -0.0401986

fc.weight f4 [1, 65]
000000 e6 d9 4c 3f 86 f7 b3 3e af 0d 6e bf f5 01 c7 be
       0.80019987 0.35149783 -0.9298963 -0.3886868
000010 49 cc 86 bf 77 73 04 be 77 04 0f bf 81 fa be 3e
       -1.0531093 -0.12934671 -0.5586619 0.37300494
000020 ce 7c 34 3f 90 6e 20 3f c8 f7 11 3c 77 56 9d bf
       0.70502937 0.62668705 0.008909173 -1.2292012
000030 8e e1 f5 3e 54 1d 92 3f 83 54 6c 3f c6 75 37 be
       0.48023647 1.14152 0.92316455 -0.17916021
000040 98 d0 b2 3f 03 bb 2c 3f 6d c6 81 3e 2b 02 6c c0
       1.3969908 0.6747286 0.253467 -3.6876323
000050 c7 af 93 3f 38 26 ef 3d 90 b7 13 40 18 de ca 3f
       1.1538018 0.116772115 2.3080788 1.5849028
000060 0f 1f 0c c0 e3 40 47 bd c4 7a 05 c0 75 2b 6f bf
       -2.1893957 -0.048645865 -2.085618 -0.93425685
000070 2a c4 8c bd e7 93 2c bf ef ed 8f 3f 10 f5 0b 3f
       -0.06873353 -0.6741318 1.1244487 0.5467081
000080 78 d9 20 bf 83 a5 ab 3f 97 66 aa be 3d 68 6a 3e
       -0.6283183 1.3409885 -0.33281395 0.22891326
000090 c6 bc 86 3f db 02 45 be 5e 43 04 40 ea 75 6c 3e
       1.0526359 -0.1923937 2.0666118 0.23091856
0000a0 92 5b 52 3f f1 df 7b be 78 97 06 3f c3 01 c8 3f
       0.82170975 -0.24597146 0.5257487 1.5625538
0000b0 d7 3b 3f bf 19 08 8f be ad 9a 4a 3f 80 f9 a8 3e
       -0.74700683 -0.27935866 0.79142267 0.33002853
0000c0 f9 39 00 bf 47 8c b8 bf 97 6f cd bf 8c a8 54 3f
       -0.5008846 -1.4417809 -1.604968 0.8306968
0000d0 fd 54 1e 3f 76 75 97 3f 0b 18 c8 3e 72 52 4a bf
       0.6184843 1.1832721 0.39080843 -0.7903205
0000e0 ea 24 9a bf 56 d6 9b 3f 57 7c d0 bf 3e 49 6b 3f
       -1.2042515 1.2174785 -1.6287946 0.91908634
0000f0 75 fe 9c 3d af f3 8b 3f e1 cd 4d 3f 84 6b 08 bd
       0.07665721 1.0933741 0.8039227 -0.03330566
000100 3c 05 2a 3f
       0.6641424

fc_final1.weight f4 [64, 128]
000000 a9 89 db bc 6f 05 27 3c f4 2c c0 3c 56 c6 4e 3d
       -0.02679904 0.010194167 0.023458935 0.050482117
000010 76 f4 87 bd d5 75 14 3e 5f bc c8 bc f9 9b 5b 3d
       -0.06638424 0.14498074 -0.024503885 0.053615544
000020 f1 2d 03 3d e0 59 b8 3d 80 e1 90 3d 86 0b b7 bd
       0.032026235 0.09001517 0.07074261 -0.08937745
000030 0b 42 0e 3d 05 f8 b6 bd fb bc a9 b9 b1 7d 5c 3d
       0.034730952 -0.08934025 -0.00032374993 0.053830806
000040 46 55 00 3d aa 03 4b 3d 42 f6 19 3b 70 4c 4e 3d
       0.031331323 0.04956404 0.0023492728 0.050365865
000050 c2 de ce bc ba c8 84 bb 6f c1 c7 3d 77 76 52 bc
       -0.025252704 -0.004052249 0.097536914 -0.012845627
000060 f5 c9 32 bd 3d 79 b7 3d f6 a0 d5 3c 62 5c 79 bd
       -0.043649632 0.08958671 0.026077729 -0.06087912
000070 71 63 a0 3c 09 e5 c6 bd 98 7f 8d 3d 25 87 2e bd
       0.019578667 -0.09711654 0.06909102 -0.042609353
000080 c8 7b 72 3d 67 e0 77 bd ab 45 52 bc 13 64 93 bd
       0.05920008 -0.06051674 -0.012833993 -0.07196822
000090 d1 24 be 3d c3 17 79 bd 93 59 7b bb 42 69 8e 3d
       0.09284366 -0.060813677 -0.003835295 0.0695367
0000a0 55 f8 c8 bd f4 cd ef 3c 4f b3 a8 3d 40 b9 74 bd
       -0.098129906 0.02927301 0.082373254 -0.05974698
0000b0 55 7b 20 3d 9a 21 6e bd bb 07 4a 3d 3a e3 c1 3d
       0.03918012 -0.058137514 0.04932378 0.09467168
0000c0 8f 77 b3 bd 7b fb f6 bc 94 29 c1 bd 3a 4a e0 3c
       -0.08763038 -0.030149212 -0.094317585 0.027379144
0000d0 2f d8 b2 bd f0 53 5d 3d 64 10 66 bd 73 b9 43 bd
       -0.0873264 0.054035127 -0.056167975 -0.04778428
0000e0 4a 52 75 3d ea b3 9b bd 12 0d b3 bd 7c fa 07 3d
       0.05989293 -0.07602675 -0.08742727 0.033197865
0000f0 08 d4 6b bd bf 87 32 3d 49 c0 4c 3d 53 72 97 3d
       -0.057575256 0.04358649 0.049988065 0.073948525
000100 02 32 ae bd 67 c1 ac 3c b0 b0 ca 3d 71 a7 81 3c
       -0.08505632 0.021088315 0.09896982 0.015826913
000110 66 4d a4 3c ef 93 26 3c 73 df 08 3d 07 d4 30 bc
       0.020056438 0.010167106 0.033416223 -0.010792739
000120 40 db 84 3c b6 39 96 3d ee 64 b3 3d a5 a3 9c bd
       0.016217828 0.07335226 0.08759485 -0.076484
000130 5b 1b b8 3c 8b 90 1f 3d 2c 30 59 3d 82 48 b1 bc
       0.022473982 0.038956206 0.053024456 -0.02164102
000140 79 58 89 bd 42 25 df bc a7 af 36 3d af f6 2e 3d
       -0.06706328 -0.027239446 0.04460111 0.042715725
000150 61 85 fb 3c f6 5c a9 3d 6e 67 22 3d 02 70 0d 3e
       0.030703248 0.08269684 0.03964942 0.13812259
000160 56 dd 4b 3d 9c 68 b4 bb 31 57 55 bc 85 e5 3c 3d
       0.04977163 -0.0055056345 -0.013021276 0.046117324
000170 26 e3 29 3d 92 46 08 bd ef 20 b3 3d 09 3c 72 3a
       0.04147639 -0.033270426 0.08746516 0.00092405133
000180 cf cd 8c bd d8 46 1b bc 60 2f c3 3d f2 97 91 3d
       -0.068751924 -0.00947734 0.095305204 0.071090594
000190 ec cd 2b bd 41 24 15 3c 6b 43 53 3d 0c 4c ee 3d
       -0.04194443 0.009102882 0.051577967 0.116355985
0001a0 11 17 9f bc 2d 4e e9 3c e5 06 5e 3d 7d d4 39 3b
       -0.019420179 0.02847966 0.054205794 0.0028355413
0001b0 25 a2 6e bd f7 6b e5 3d 59 6b 63 3d ea 5f 74 bd
       -0.0582601 0.11202233 0.055522297 -0.059661783
0001c0 00 56 86 3d 82 be 5e bd fd 12 0b 3d 72 c5 83 bd
       0.06559372 -0.0543809 0.033953656 -0.06434144
0001d0 8d 04 00 3d ee 8c 10 bd cf d9 be bc 90 2a 3b bc
       0.03125434 -0.03529065 -0.023297219 -0.011423722
0001e0 6b 37 36 3d da 80 b7 3c ed 90 b5 bb b0 4a 22 bb
       0.044486444 0.022400308 -0.005540958 -0.0024763756
0001f0 46 d5 c2 bc 01 98 82 3d f3 37 b3 bc af 24 1d 3d
       -0.023783337 0.06376649 -0.021877265 0.038365062
000200 3a f5 a4 bc ca 45 0f bd 11 8f b3 bc 59 83 cf 3c
       -0.020136464 -0.034978665 -0.021918805 0.025331186
000210 d6 70 19 3d 84 09 2d 3d 8b 2d 32 3d 5d 24 d5 bc
       0.037461124 0.042245403 0.043500464 -0.026018316
000220 ca d8 75 3c 1f f4 48 3c 33 93 9f bd ee 90 ba 3d
       0.0150053 0.012265234 -0.07791748 0.091096744
000230 9e 1e 02 bc 7b 3b 88 bd ce 35 70 bd aa ea 84 bd
       -0.00794187 -0.0665197 -0.058645062 -0.06490071
000240 2b 4f 88 3d b7 fa 3f bc 7c c1 11 3d bf 18 de bc
       0.06655725 -0.01171749 0.03558491 -0.02711141
000250 29 cd 15 bd 47 c8 84 3d e9 2e 93 bd c3 43 2c bd
       -0.03657261 0.06483512 -0.07186682 -0.04205681
000260 48 19 a5 bd 9d 55 c6 bd 9b 38 96 bd 53 92 c1 3a
       -0.08061463 -0.09684298 -0.073350154 0.001476834
000270 c4 f2 9d bc d8 7e 0a bd ce 43 b7 3c a6 38 cb bd
       -0.019280799 -0.033812374 0.022371199 -0.09922914
000280 88 7b 4d bd ff 33 5f bd 4c 18 c4 3c 2b f2 9c 3c
       -0.050166637 -0.054492947 0.023937367 0.019158443
000290 e2 82 5f bd b4 a3 e9 3b c9 e2 2b bd dc 26 57 bd
       -0.05456818 0.0071301106 -0.041964326 -0.052527294
0002a0 da f7 b6 bb 09 6a 9d 3c 57 d2 26 3b c0 5f 0c 3d
       -0.0055837454 0.0192156 0.0025454962 0.034271
0002b0 5a d6 1b bd 9a 6f 5a bc 4b 34 5d 3d 48 01 8b bd
       -0.03804622 -0.013332272 0.05400495 -0.06787354
0002c0 6d 90 e4 3b 59 ad 81 3d f9 d5 56 bd 48 59 70 bd
       0.0069752247 0.063318916 -0.052450154 -0.058678895
0002d0 93 13 c1 3d 75 62 80 bd 87 01 7d 3d 7f af 9a bd
       0.094275616 -0.06268779 0.061769035 -0.075530045
0002e0 f4 41 1f 3d 93 07 53 3c bc 05 c3 3c 9f 5a c0 3b
       0.038881257 0.012880224 0.023806445 0.005870178
0002f0 9b e5 a2 bd 08 a6 84 3d cf 64 da 3b 69 77 73 3d
       -0.0795395 0.064769804 0.0066648494 0.05944005
000300 12 8a 0d bc 86 b3 88 bd e7 06 4e bd 2a bb 82 3d
       -0.008638876 -0.066748664 -0.05029955 0.06383355
000310 8d 61 ef bc d8 c7 81 3c f7 13 a2 bb 1c 81 2d bd
       -0.02922132 0.015842363 -0.0049462277 -0.042359456
000320 b2 5d 8d bd ee 9b b2 bd dd db b9 bc 9f f4 94 3d
       -0.069026366 -0.087211475 -0.022687847 0.0727322
000330 71 ca d5 bd dc 00 48 3d d0 54 63 3d 84 9f bd bd
       -0.10439003 0.048828945 0.055500805 -0.09258941
000340 2c bd 89 bd 01 5a fd 3c 8d b5 9e 3c a5 b0 ce 3b
       -0.06725535 0.030926706 0.01937368 0.0063076788
000350 04 8a 1d bd 54 2f ba bd ac 52 4a bd c9 59 b9 bd
       -0.0384617 -0.090910584 -0.04939525 -0.09050328
000360 02 63 c7 3b 12 3d 64 bd 14 b6 70 3c d5 9f 92 3d
       0.0060848007 -0.055722304 0.014691848 0.07159392
000370 56 2b 89 bc 43 e9 c5 3b ed 5e b0 bc 12 b1 16 bc
       -0.016744297 0.00603977 -0.02152964 -0.00919749
000380 82 c2 43 bd d0 e4 2a bc 62 09 2a 3d f6 17 d0 3d
       -0.04779292 -0.01043053 0.041512854 0.1016082
000390 ef 38 5c 3d 10 1e 76 3d db 62 48 3d 0d 3d 16 3d
       0.053765234 0.060087264 0.0489224 0.036679316
0003a0 72 02 6b bd 67 2a 81 3b 68 c3 09 3d cf 86 5a bd
       -0.05737538 0.0039418223 0.03363362 -0.05335122
0003b0 32 70 3a bd a7 19 81 3d 01 a6 73 bd 4b ae 83 3d
       -0.045517154 0.06303721 -0.059484486 0.06429728
0003c0 bf 01 90 bd fd ab 85 3d 6a 00 6f bd f4 97 19 3d
       -0.07031583 0.06526945 -0.058350004 0.03749843
0003d0 fe 32 2e bd e3 8c 70 bc ed 18 c1 3d d0 43 6c bc
       -0.0425291 -0.0146820275 0.09428582 -0.014420465
0003e0 a0 1c 65 3d f1 30 99 3a 70 49 ce 3d af 8a 28 3d
       0.055935502 0.0011687559 0.10072601 0.041147884
0003f0 cb b2 cd 3c 52 e9 5e 3d a8 87 cd 3c 92 c2 64 bd
       0.02510967 0.05442173 0.0250891 -0.05584962

fc_final1.bias f4 [64]
000000 f1 5c c9 bc e8 46 51 3d 46 c4 c5 bd f3 0c 9d 3c
       -0.02458045 0.051093012 -0.09656577 0.019171214
000010 16 34 9d bd 7c 91 57 bc d8 c1 a3 3d 97 fb 1a 3c
       -0.0767595 -0.013157245 0.07995957 0.009459398
000020 ef cf 3c bd ae 7b cd 3d aa 03 6d bd f6 17 30 bd
       -0.04609674 0.10033356 -0.057864822 -0.0429916
000030 f8 1e 6a bc e8 b2 94 3d 21 d8 a3 3d c6 48 e2 bc
       -0.01428961 0.07260686 0.08000208 -0.027622592
000040 c5 89 55 bc 17 6f 9f 3d 5e 86 87 bd 23 28 4b bd
       -0.013033335 0.077848606 -0.066174254 -0.049598824
000050 d0 53 f8 3c 3a 25 16 3d 8a ca 89 bd 1e dd 90 bd
       0.030313402 0.036656596 -0.067280844 -0.07073425
000060 ed 45 a8 3d 9c 86 c3 3b 97 1f 74 bd d1 bb 2f 3d
       0.08216462 0.0059669744 -0.05960044 0.042903725
000070 08 47 0d 3d 9c c0 92 bd 51 17 51 3d c7 cf ea 3c
       0.03449157 -0.071656436 0.051047627 0.02866353
000080 80 3c 80 bd 82 ac 61 bd 37 d1 96 3d 90 36 3e 3d
       -0.062615395 -0.055096157 0.07364123 0.046438754
000090 8a ac 00 bd 1b cf da 3c 03 96 52 bb a4 50 ec bc
       -0.031414546 0.026710084 -0.003213287 -0.028847046
0000a0 7b 41 90 3d 12 cb 5e bc fe 51 07 3d 26 4f 28 3d
       0.070437394 -0.01359822 0.03303718 0.041091107
0000b0 f8 fa 66 bd 8a 7f 5d 3d 59 ae ce bd d2 91 81 3c
       -0.056391686 0.05407671 -0.10091848 0.015816603
0000c0 ed 28 3a 3d 81 22 01 bd ab b8 83 bd 9a 8f 97 bc
       0.045449186 -0.031527046 -0.06431707 -0.018501092
0000d0 f5 50 be 3b 09 f7 d0 bc ab 52 7f 3d 98 20 cd bd
       0.0058079907 -0.02550842 0.062334698 -0.100159824
0000e0 58 0c a7 bd 9d ed 6e 3c 19 b0 1d 3d cb f4 70 bd
       -0.08156651 0.014583019 0.038498018 -0.058827203
0000f0 c1 3b 8e bd 9e 8d dc 3c 59 48 00 bb 6f a1 7e 3d
       -0.06944991 0.026922997 -0.0019574373 0.062165674
