weights_new/DecoderEpochnew0_17_8.pt (torch_old, 461836 bytes, 33 tensors)

attn_layer.0.weight f4 [64, 192]
0	0xbd5e0824	-0.054206982
1	0xbd8bfd1a	-0.06835385
2	0xbd0963e7	-0.03354254
3	0xbd87e054	-0.06634584
4	0xbcd9e84c	-0.026600026
5	0xbd8b4de0	-0.06801963
6	0x3d4777c2	0.048698194
7	0x3d90465c	0.0704467
8	0xbd66773e	-0.056266062
9	0x3cedc508	0.029024616
10	0xbd37a670	-0.04483646
11	0xbd7fe269	-0.06247178
12	0x3d1cb7d6	0.038261257
13	0x3d4874a8	0.048939377
14	0xbd4d27e6	-0.05008688
15	0x3d8a804a	0.067627504
16	0x3d4e2cc8	0.050335675
17	0x3d927918	0.07152003
18	0x3b13be91	0.0022544006
19	0xbc1a15a1	-0.009404571
20	0xbcb2ee62	-0.021842185
21	0x3d75dc42	0.060024507
22	0xbd29644c	-0.041355416
23	0xbd3ac96e	-0.045602255
24	0xbca64d48	-0.020300522
25	0x3a4adff7	0.0007739062
26	0x3d7005db	0.058599334
27	0x3c59ddc9	0.013297507
28	0xbd86db8e	-0.065848455
29	0x3d1b2bec	0.037883684
30	0xbd8ed0b5	-0.069734015
31	0x3d84509a	0.06460686
32	0xbbc5a364	-0.0060314406
33	0xbb1de475	-0.002409247
34	0xbd13e1f8	-0.036104172
35	0x3d85418c	0.06506643
36	0xbd6f09f5	-0.058359105
37	0x3d20c7bd	0.039252985
38	0x3d44a87f	0.048012253
39	0xbd9007db	-0.07032748
40	0xbd0964f3	-0.03354354
41	0x3d03d1ed	0.032182623
42	0x3d40f06a	0.047104277
43	0xbc258d22	-0.0101044495
44	0x3d2906de	0.041266315
45	0xbc8250ca	-0.015907664
46	0x3d20ce23	0.039259087
47	0xbbc55deb	-0.006023159
48	0xbc979d1b	-0.01850753
49	0xbd5938c7	-0.053032663
50	0x3d4e2ab1	0.050333682
51	0xbd8ceb05	-0.06880764
52	0xbd642d93	-0.055707525
53	0xbd5c0bcf	-0.0537222
54	0x3ccae8f4	0.024769284
55	0xbd088c1a	-0.033336736
56	0x3d50d4f0	0.050984323
57	0xbd042546	-0.03226211
58	0x3d92eec3	0.071744464
59	0x3c926902	0.017872337
60	0xbc60ee0c	-0.01372863
61	0xbcd631a4	-0.026146717
62	0x3caef16f	0.021355359
63	0xbbfa4c25	-0.0076384717
64	0x3d8677c9	0.06565816
65	0x3c8a73b8	0.016900882
66	0xbd1034ae	-0.03520649
67	0xbd156abd	-0.036478747
68	0x3d233af8	0.03985116
69	0x3c654b77	0.013995043
70	0xbd9114b7	-0.07084029
71	0xbd4174e9	-0.047230635
72	0x3d1334bc	0.035938963
73	0xbd7ae383	-0.06125213
74	0x3d27f0fe	0.041001312
75	0xbc9e3106	-0.019310486
76	0x3c756029	0.01497654
77	0xbc51b824	-0.01280025
78	0xbd90bd3c	-0.070673436
79	0x3d51f246	0.05125644
80	0x3cab8200	0.020936012
81	0xbd2b4334	-0.041812137
82	0xbcbdb4b4	-0.023157455
83	0xbd8b0b9f	-0.06789326
84	0xbb028dcd	-0.0019920946
85	0x3d273fcf	0.040832337
86	0x3d8c4b32	0.0685028
87	0xbd808338	-0.06275028
88	0xbc732699	-0.014840745
89	0x3d47673c	0.048682436
90	0xbc4d12c9	-0.012516686
91	0xbd0907f8	-0.033454865
92	0x3d351435	0.044208724
93	0xbd37d80c	-0.044883773
94	0x3d35c8f5	0.0443811
95	0xbcab1668	-0.020884708
96	0x3d7290e4	0.05922021
97	0xbcbfeb01	-0.023427488
98	0xbd0d5877	-0.034508195
99	0xbc8729b9	-0.016499387
100	0x3bf2cd92	0.00740976
101	0x3bb86c79	0.0056281653
102	0x3d0d43b7	0.034488406
103	0xbd1ae9cd	-0.037820626
104	0x3d46cf02	0.04853726
105	0x3d8b822b	0.06811937
106	0xbd36fee3	-0.044676673
107	0x3cbdcbb8	0.02316843
108	0x3c195078	0.009357564
109	0xbd33166b	-0.04372255
110	0x3d36ff2c	0.044676945
111	0x3d574343	0.05255438
112	0x3c3d44d8	0.011552058
113	0x3d459680	0.04823923
114	0x3d852f35	0.06503145
115	0xbd4abd50	-0.04949695
116	0xbd5650e4	-0.052323237
117	0x3d8eb4a7	0.069680505
118	0xbcbc97bf	-0.023021577
119	0xbbc38bfe	-0.005967616
120	0x3d75a8d6	0.059975468
121	0xbd881349	-0.06644303
122	0xbd58116e	-0.052750997
123	0x3d760fe7	0.06007376
124	0x3d553916	0.052056395
125	0xbc924130	-0.01785335
126	0x3ae8d619	0.0017764001
127	0xbcd5a1e2	-0.026078168
128	0x3c7845f4	0.015153397
129	0xbd750db6	-0.05982753
130	0x3d82187b	0.063523255
131	0x3d7fc084	0.062439457
132	0xbd84847f	-0.06470584
133	0xbd1c356f	-0.038136896
134	0x3dcb7571	0.099345095
135	0xbd79caa8	-0.060984284
136	0xbd51214d	-0.05105715
137	0xbd3ecf88	-0.046584636
138	0xbdc71312	-0.09720434
139	0x3d8831aa	0.06650098
140	0xbccb831b	-0.02484279
141	0xbccc8a1a	-0.024968196
142	0xbdaf284f	-0.0855261
143	0x3c806988	0.015675321
144	0x3cd1622f	0.025559513
145	0x3badfa14	0.0053093527
146	0x3c4f0583	0.012635591
147	0x3a07a563	0.0005174486
148	0xbc8cb5a9	-0.017176466
149	0x3d8a6097	0.06756704
150	0x3cc59736	0.024119955
151	0x3dcf59bc	0.10124537
152	0xbd457904	-0.048211113
153	0x3d19c40a	0.037540473
154	0x3d2f431c	0.04278861
155	0x3cec2a54	0.028828777
156	0x3c986bb8	0.018606052
157	0xbbeb7af1	-0.0071862866
158	0xbd3d8655	-0.046270687
159	0x3d9f725d	0.07785485
160	0xbdc42b42	-0.09578563
161	0xbcb9271b	-0.022601655
162	0x3dcfb869	0.10142595
163	0x3d3c0e1f	0.045911904
164	0x3c71265e	0.01471862
165	0xbccf41db	-0.025299957
166	0x3d400110	0.046876013
167	0x3dc142f9	0.09436602
168	0xbdb57780	-0.088606834
169	0x3cad1d3e	0.021132108
170	0xbd8c6740	-0.06855631
171	0xbd3961c6	-0.04525926
172	0x3d9c910a	0.076448515
173	0x3dc325a7	0.09528666
174	0x3d952397	0.07282179
175	0xbc50b2ac	-0.012737911
176	0x3dd09a27	0.10185652
177	0xbc9b1d62	-0.01893491
178	0x3c6d9311	0.014500395
179	0x3dc1ef4d	0.09469471
180	0x3d9c7794	0.07639995
181	0xbd188977	-0.03724047
182	0x3b2e89d8	0.0026632454
183	0x3d6af5da	0.05736337
184	0xbd17c56c	-0.03705351
185	0x3ad40aef	0.0016177575
186	0xbd0e75a9	-0.03478018
187	0xbccabf2d	-0.024749363
188	0x3cf64718	0.030063197
189	0xbda0c38c	-0.078497976
190	0xbdda08b2	-0.1064619
191	0xbd268246	-0.040651582
192	0xbd8a2bbe	-0.067466244
193	0xbd889058	-0.066681564
194	0x3ca2bf03	0.019866472
195	0x3d4a8c79	0.04945037
196	0xbb09e1d8	-0.0021039154
197	0x3d8c2ce8	0.06844503
198	0xbccb6b47	-0.024831427
199	0x3d8efb70	0.06981552
200	0x3cb6cd06	0.02231456
201	0xbafaca22	-0.0019133727
202	0x3d7854b6	0.06062766
203	0xbd38a68b	-0.045080703
204	0x3d835476	0.06412594
205	0x3d784e9e	0.06062185
206	0xbbc20bea	-0.0059218304
207	0x3cade47a	0.02122711
208	0xbccd20ab	-0.025039991
209	0xbc0bb1b7	-0.008526257
210	0xbd8a7e24	-0.06762341
211	0xbc856222	-0.016282145
212	0xbca758da	-0.02042811
213	0x3d0b7dc5	0.03405549
214	0xbd533986	-0.05156853
215	0xbc129af2	-0.008948075
216	0xbd0e3d18	-0.034726232
217	0x3d5c0099	0.053711507
218	0xbcc4a083	-0.02400232
219	0xbd8792bb	-0.066197835
220	0x3c85a779	0.016315209
221	0x3c8a1086	0.016853582
222	0xbd831c9c	-0.06401941
223	0xbd465eca	-0.04843024
224	0x3bac8521	0.0052648936
225	0x3ce44616	0.02786545
226	0xbca1e6c7	-0.019763364
227	0x3c2d36af	0.01057212
228	0xbd9037cd	-0.07041893
229	0xbd9815e6	-0.07426052
230	0xbc8dc816	-0.017307322
231	0x3c886e6f	0.016654221
232	0x3d1bef6d	0.03807013
233	0x3cdeddd9	0.027205395
234	0xbcef5aec	-0.02921816
235	0xbd5e415c	-0.05426155
236	0x3ce80b51	0.028325709
237	0xbd4949c8	-0.04914263
238	0x3d70b1aa	0.058763184
239	0xbd8f4d81	-0.069972046
240	0x3ada647b	0.0016662026
241	0x3cb3dc3e	0.021955606
242	0xbc945d97	-0.018111033
243	0xbd2f58af	-0.042809185
244	0xbb9b79ae	-0.00474473
245	0x3ce3e7f1	0.02782056
246	0x3d31cf76	0.04341074
247	0xbd24afc8	-0.0402067
248	0x3d850aaa	0.06496175
249	0x3d11bf29	0.035582695
250	0x3cd8e72f	0.026477424
251	0xbd8cafcf	-0.0686947
252	0xbd295522	-0.041340955
253	0x3d42523d	0.04744171
254	0x3cf4f312	0.029901061
255	0x3b1b717e	0.002371877

attn_layer.0.bias f4 [64]
0	0x3c5dfd56	0.0135491695
1	0xbc164e1d	-0.009173897
2	0xbc31a429	-0.0108423615
3	0x3d0c7584	0.03429176
4	0xbced2cad	-0.028951967
5	0x3d708239	0.05871794
6	0x3ca96442	0.02067769
7	0xbd33ef59	-0.04392943
8	0xbd9cb5e9	-0.07651884
9	0x3d1ec1d1	0.038759056
10	0x3d125ff9	0.035736058
11	0xbb34bee8	-0.002757961
12	0xbcc2a380	-0.023759604
13	0xbd1f1af1	-0.038844053
14	0xbd51432a	-0.051089443
15	0x3d2d6135	0.042329032
16	0xbcfe4a96	-0.031041425
17	0x3d259431	0.04042453
18	0xbcac627d	-0.021043057
19	0xbd23ee4b	-0.040022176
20	0xbd5f24e1	-0.05447853
21	0x3bfccf78	0.007715162
22	0x3d3c31a3	0.045945775
23	0xbd6b3034	-0.057419017
24	0xbbcf80cb	-0.006332492
25	0x3d23f812	0.0400315
26	0xbd27f209	-0.041002307
27	0xbd053786	-0.032523654
28	0x3cc7dd8c	0.024397634
29	0x3be03433	0.00684216
30	0xbc246204	-0.010033134
31	0x3d794b3d	0.06086277
32	0x3d25e1a8	0.040498406
33	0xbd20ed30	-0.0392887
34	0x3c2bfada	0.010496819
35	0xbbc580aa	-0.006027301
36	0x3d3860ee	0.045014314
37	0x3d151fd4	0.036407307
38	0x3da01b0b	0.07817658
39	0x3c3b89cf	0.01144643
40	0x3d436370	0.047702253
41	0xbd884665	-0.06654052
42	0x3d2b0290	0.04175049
43	0x3d00c4d6	0.031437717
44	0x3d653d12	0.055966444
45	0x3d8bb79c	0.0682213
46	0x3d421c59	0.047390316
47	0x3cc0dec9	0.023543732
48	0xbcc34306	-0.02383567
49	0x3bb18633	0.005417609
50	0x3d7d4130	0.061829746
51	0x3d200ee0	0.039076686
52	0x3d31354b	0.043263715
53	0xbd15bb7f	-0.036555763
54	0x3c1c85b3	0.009553361
55	0x3cf9834f	0.03045812
56	0xbd6d20d3	-0.05789263
57	0xbc9559c2	-0.018231276
58	0xbc8e287c	-0.017353289
59	0x3d2f29ba	0.042764403
60	0xbd857f0b	-0.06518372
61	0xbda47faf	-0.08032166
62	0xbcfbc874	-0.030735232
63	0xbc5309c9	-0.012880751

attn_layer.2.weight f4 [1, 64]
0	0x3d28521f	0.04109394
1	0x3deb1965	0.11479453
2	0xbcd0641b	-0.025438359
3	0xbd2affc3	-0.04174782
4	0xbdb7a9c2	-0.089679256
5	0xbdb2f422	-0.08737971
6	0x3e1f1442	0.15535071
7	0xbe0581d7	-0.13037811
8	0xbdf4d435	-0.11954538
9	0x3df744f0	0.12073696
10	0x3d764526	0.06012454
11	0xbcee1fc2	-0.029067878
12	0xba0d8452	-0.00053984404
13	0x3d27aad6	0.040934406
14	0x3d9c5b7d	0.076346375
15	0x3c5b9574	0.013402332
16	0xbdcee984	-0.10103133
17	0x3dc0aff7	0.09408563
18	0xbd979afe	-0.07402609
19	0xbc9ced82	-0.019156221
20	0xbdfe7ac0	-0.124257565
21	0x3d659278	0.056047887
22	0x3dbae7de	0.091262564
23	0x3e1ef51f	0.15523194
24	0x3d879c1f	0.066215746
25	0x3b7fc800	0.0039029121
26	0xbb387c5e	-0.00281503
27	0xbdc60283	-0.09668448
28	0x3da4110f	0.08011066
29	0x3da00e8a	0.07815273
30	0x3d98ae8f	0.074551694
31	0x3c7d31ad	0.015453738
32	0xbd27d545	-0.040974874
33	0x3d0006d5	0.031256516
34	0xbd836c17	-0.06417101
35	0x3bf6cabe	0.007531493
36	0xbc629d53	-0.013831454
37	0xbdc34910	-0.0953542
38	0xbbd70c75	-0.0065627643
39	0x3d9120fd	0.0708637
40	0x3deefe11	0.11669553
41	0x3d3be15b	0.045869213
42	0x3d7f53e7	0.062335875
43	0x3dcf5ad4	0.10124746
44	0xb8f186ad	-0.00011516861
45	0x3d22cd17	0.03974637
46	0x3e12d025	0.14337213
47	0xbdc48e4c	-0.095974535
48	0x3d92d3c1	0.07169295
49	0xbe0b9363	-0.13630442
50	0x3c719f67	0.014747477
51	0xbd881505	-0.06644634
52	0x3dadb67d	0.084820725
53	0xbcfacbe3	-0.030614799
54	0x3e1490a2	0.14508298
55	0xbc33f355	-0.010983308
56	0xbdfaa451	-0.12238372
57	0x3de5799c	0.11204836
58	0x3e23bf24	0.15990883
59	0x3cdd960f	0.027049093
60	0xbd061fdb	-0.032745223
61	0x3aacaad7	0.0013173473
62	0xbdbba3ed	-0.09162126
63	0x3cdcfeb8	0.026976928

lstm_layer.weight_ih_l0 f4 [256, 1]
0	0x3de96a97	0.113972835
1	0x3dfe98be	0.12431477
2	0xbddd8f22	-0.10818316
3	0xbcedb220	-0.0290156
4	0x3de0f6b4	0.10984555
5	0x3d056490	0.032566607
6	0x3cf9990b	0.030468484
7	0xbe15d0c9	-0.14630426
8	0x3de59338	0.112097204
9	0x3da39224	0.079868585
10	0x3d72553e	0.059163325
11	0x3da6855a	0.081309035
12	0xbd8a18a7	-0.06742983
13	0xbdc1256d	-0.094309665
14	0xbdc010ae	-0.093781814
15	0xbd6449e9	-0.05573455
16	0x3d599de9	0.05312911
17	0x3dbf511e	0.09341644
18	0x3df326aa	0.11872609
19	0x3cd42078	0.025894389
20	0xbcd63c8a	-0.026151914
21	0xbd24ff3d	-0.040282477
22	0xbde6a4f3	-0.1126193
23	0xbe051176	-0.12994942
24	0x3d590e6f	0.05299228
25	0x3c70099e	0.01465073
26	0xbd89821c	-0.067142695
27	0x3d514d2e	0.051098995
28	0xbd246578	-0.04013583
29	0xbdb9babc	-0.0906882
30	0x3c1207c6	0.008912986
31	0xbdde5494	-0.10855976
32	0xbda22d08	-0.07918745
33	0xbd5bcf3b	-0.053664427
34	0x3e0d0ebf	0.13775156
35	0x3d775a74	0.060388997
36	0xbe03be9b	-0.12865679
37	0x3caec22f	0.021332828
38	0x3dcc6555	0.09980265
39	0xbde572c6	-0.11203532
40	0x3dc3d46f	0.09562003
41	0xbc426e23	-0.011867079
42	0x3d987d29	0.074457474
43	0xbd7aa237	-0.061189856
44	0x3cd27d7c	0.025694601
45	0x3d96ba1c	0.07359716
46	0xbdf7e067	-0.12103348
47	0xbd202497	-0.039097395
48	0x3bff92bd	0.007799475
49	0xbdae8cbb	-0.08522936
50	0xbdc182f4	-0.094488055
51	0x3d7f0331	0.062258903
52	0x3c583081	0.013195158
53	0x3d14dcf6	0.036343537
54	0xbd685015	-0.056716997
55	0x3da21132	0.07913436
56	0x3d6e7335	0.05821534
57	0xbe326c9c	-0.17424244
58	0x3d7710b7	0.060318675
59	0xbd99e0ee	-0.07513605
60	0x3c9ac766	0.018893909
61	0xbd870ac8	-0.06593853
62	0xbdb14557	-0.08655804
63	0xbdb97766	-0.090559766
64	0xbc696e95	-0.014247556
65	0x3d0a3179	0.033738587
66	0xbe127313	-0.1430171
67	0xbdbd2bcb	-0.092368685
68	0x3d73cb87	0.05952027
69	0xbcef206e	-0.029190268
70	0xbe2f995c	-0.17148346
71	0x3d65fc0a	0.056148566
72	0x3d9fcc89	0.07802684
73	0x3da60653	0.08106675
74	0xbe1af421	-0.1513219
75	0xbd047166	-0.032334708
76	0x3d790171	0.06079239
77	0xbc9b35ba	-0.018946517
78	0x3d0f9466	0.035053633
79	0x3db02005	0.08599857
80	0x3e2c2fc3	0.16815095
81	0x3d34788e	0.044060282
82	0x3d806e43	0.06271031
83	0xbd6c49b6	-0.057687484
84	0xbe0b8337	-0.13624273
85	0xbe1d9423	-0.15388541
86	0xbc58f798	-0.013242625
87	0x39c6ffbd	0.00037956043
88	0x3d50ebc1	0.051006082
89	0xbd707166	-0.058701895
90	0x3d36af69	0.044600878
91	0x3e14476e	0.14480373
92	0x3dcbab00	0.09944725
93	0x3d8434c7	0.06455379
94	0x3dcda974	0.10042086
95	0x3c9ffa98	0.019528672
96	0xbc91bd72	-0.01779053
97	0xbdd25f3b	-0.1027207
98	0xbcac0ac5	-0.021001229
99	0x3def7335	0.11691896
100	0xbd56aa19	-0.05240831
101	0xbddcfa76	-0.10789959
102	0x3abe6b45	0.0014527818
103	0xbe049019	-0.12945594
104	0x3e06a9fb	0.1315078
105	0xbde62489	-0.11237437
106	0x3d314868	0.043281943
107	0x3d66fe3f	0.05639481
108	0x3da9186f	0.082566135
109	0xbe02fed3	-0.1279252
110	0x3c6687c5	0.014070456
111	0xbdbfe862	-0.093704954
112	0x3d05a43c	0.03262733
113	0xbe0094a0	-0.12556696
114	0xbd2b7bbe	-0.041866057
115	0xbd8b3631	-0.067974456
116	0xbc8379c1	-0.016049268
117	0xbc1bb012	-0.009502428
118	0xbde72845	-0.11286978
119	0xbbf666f8	-0.007519599
120	0xbdc957f3	-0.09831228
121	0xbe449743	-0.19198327
122	0x3db1570d	0.08659182
123	0xbe0ccae2	-0.13749269
124	0x3d22ba73	0.039728593
125	0x3dc63147	0.09677368
126	0xbe1db286	-0.15400133
127	0xbd067535	-0.03282662
128	0xbd29caf1	-0.041453306
129	0x3da90daa	0.08254559
130	0xbd1088b3	-0.035286617
131	0x3d2e9ded	0.04263108
132	0x3d94ffca	0.072753504
133	0xbc21467d	-0.009843466
134	0xbd99c3eb	-0.075080715
135	0xbdc5cd61	-0.096583135
136	0x3cd7d9cc	0.02634897
137	0xbd16d33f	-0.036822554
138	0xbd8eddb2	-0.06975879
139	0xbd9825f2	-0.074291125
140	0x3ca922c7	0.020646466
141	0xbda6b3cb	-0.081397615
142	0x3d7c1d32	0.06155128
143	0x3dd6d808	0.104904234
144	0x3dd0f8e0	0.10203719
145	0x3d7aa1e1	0.061189536
146	0x3e205f2b	0.15661304
147	0x3d6c68a9	0.057717
148	0x3c6a8c63	0.014315697
149	0x3e10a3fc	0.14125055
150	0x3da42e4c	0.08016643
151	0x3da1d601	0.07902146
152	0xbdf5fea2	-0.12011458
153	0x3d725e9f	0.05917227
154	0x3da33a0b	0.07970055
155	0x3d383068	0.04496804
156	0xbd6bca83	-0.057566177
157	0xbb16bb1a	-0.0022999705
158	0xbcc43239	-0.02394973
159	0x3d569742	0.052390344
160	0x3dbaec9a	0.091271594
161	0xbdc0c5bb	-0.09412714
162	0xbc53ab82	-0.012919309
163	0x3b70241e	0.0036642621
164	0xbd68dac5	-0.05684926
165	0xbcf90259	-0.030396627
166	0x3db22668	0.08698732
167	0xbb1077f9	-0.0022044166
168	0xbd124a93	-0.03571565
169	0x3d30db5b	0.043177944
170	0x3ce28c42	0.02765477
171	0x3cfabad4	0.030606665
172	0x3d92a7e2	0.07160927
173	0x3d84e61f	0.064892046
174	0xbe1ca78f	-0.15298294
175	0xbdfc7290	-0.123265386
176	0xbdc46231	-0.09589041
177	0x3d388918	0.045052618
178	0x3d01c8ec	0.031685755
179	0x3d0521f4	0.032503083
180	0xbd4808f0	-0.04883665
181	0x3de6d0f7	0.11270326
182	0x3d2876fe	0.041129105
183	0xbdd32351	-0.103094704
184	0x3d5eae2f	0.054365333
185	0x3c6a22c1	0.014290513
186	0xbc57298d	-0.013132465
187	0xbd1e6d45	-0.038678426
188	0xbdd6211f	-0.10455536
189	0xbd1fed8e	-0.03904491
190	0x3da0d74c	0.078535646
191	0x3bb706ed	0.0055855424
192	0x3c70c22c	0.014694732
193	0xbd125d94	-0.035733774
194	0x3d83bdba	0.06432672
195	0x3d92bac3	0.07164528
196	0x3d08315c	0.033250198
197	0x3d9a2c16	0.0752794
198	0x3d2bd0b9	0.0419471
199	0xbe24b5fb	-0.16085045
200	0x3e26586b	0.16244666
201	0x3d843551	0.06455482
202	0xbaee62a2	-0.0018187354
203	0x3d9eabd7	0.077476196
204	0xbb3e856a	-0.002907122
205	0x3bbf0dad	0.0058304877
206	0xbdd61002	-0.10452272
207	0x3cde77ec	0.027156793
208	0x3cd7b730	0.026332468
209	0xbd452195	-0.04812773
210	0xbcb41c06	-0.021986019
211	0xbba10857	-0.0049143243
212	0x3c3c9eb5	0.011512448
213	0xbd885219	-0.06656284
214	0xbe412438	-0.18861473
215	0xbd1a3b49	-0.037654195
216	0x3d07cf36	0.033156596
217	0x3c4ba1e8	0.012428738
218	0xbcaf47b5	-0.021396497
219	0x3da914f7	0.08255952
220	0x3d33686c	0.043800756
221	0xbd99b6cc	-0.07505569
222	0xbd63247e	-0.055454724
223	0x3dc54972	0.09633149
224	0xbe1851c9	-0.14874949
225	0x3d5eb9c5	0.054376382
226	0x3da88786	0.08228974
227	0x3d7dd10b	0.061966937
228	0x3ddbbfed	0.10729966
229	0x3ae204fe	0.001724392
230	0x3ddc5037	0.10757487
231	0xbdf307c1	-0.11866713
232	0x3d9ef594	0.07761684
233	0xbe526b2d	-0.20548697
234	0x3dde4496	0.108529255
235	0xbd17b31e	-0.037036054
236	0xbd70ecb5	-0.05881949
237	0xbd56e94d	-0.052468587
238	0x3dd4c980	0.103899956
239	0xbe39f21a	-0.1815876
240	0x3d8e80fb	0.06958195
241	0xbd31fc2c	-0.04345338
242	0xbc0b7792	-0.0085123945
243	0xbd003c02	-0.031307228
244	0xbd356cf5	-0.044293363
245	0x3cde94b7	0.027170522
246	0xbe09b5d9	-0.13448276
247	0x3e24ccdf	0.16093777
248	0xbd6d91a0	-0.058000207
249	0xbe1cb8ca	-0.15304866
250	0x3daa9dd1	0.08330882
251	0xbda22dc7	-0.079188876
252	0xbdd14622	-0.10218455
253	0xbdefbd4b	-0.11706027
254	0x3c0c3100	0.008556604
255	0x3d883a8c	0.06651792

lstm_layer.weight_hh_l0 f4 [256, 64]
0	0xbdfe4e5d	-0.1241729
1	0xbe21e97c	-0.15811723
2	0xbdfb31c3	-0.12265351
3	0xbbb5e8c9	-0.005551432
4	0xbd6ab512	-0.05730159
5	0x3d58a2a6	0.05288949
6	0xbdac87b2	-0.08424319
7	0xbd829534	-0.063761145
8	0xbdd29497	-0.102822475
9	0xbb74d466	-0.0037358045
10	0xbd93be72	-0.07214059
11	0x3da59f01	0.08086968
12	0xbd2dfb5a	-0.042476036
13	0x3dee64c0	0.1164031
14	0xbce49472	-0.027902815
15	0x3c841597	0.016123576
16	0xbdb5f60c	-0.0888482
17	0x3db5648e	0.0885707
18	0xbdf583c1	-0.11988021
19	0x3de78e31	0.11306418
20	0xbcecac4d	-0.028890753
21	0xbb910c3f	-0.0044265087
22	0xbdb43a08	-0.08800131
23	0x3dcca5cc	0.09992561
24	0xbca091a0	-0.01960069
25	0x3cc77cfc	0.02435159
26	0xbcd50e34	-0.02600775
27	0x3cc79417	0.024362607
28	0xbcad3d1f	-0.021147309
29	0xbd9fdec3	-0.0780616
30	0xbd9fd6bd	-0.0780463
31	0x3c93efcc	0.01805868
32	0xbd38502d	-0.044998337
33	0xbe003e35	-0.1252373
34	0x3d3383f4	0.043827012
35	0xbd4b0b6d	-0.049571443
36	0x3d749274	0.05970998
37	0x3ddfd45b	0.109291755
38	0x3da94152	0.08264412
39	0x3d8aa7aa	0.06770261
40	0xbdc8ab75	-0.09798328
41	0xbdce6f1e	-0.10079788
42	0x3dc21616	0.09476869
43	0x3d92e879	0.07173247
44	0xbe064a17	-0.131142
45	0xbd9627e7	-0.073318295
46	0xbca7a059	-0.020462202
47	0x3e1e086f	0.15432905
48	0x3c981663	0.018565362
49	0x3d9298b2	0.071580306
50	0x3cbbd61d	0.022929246
51	0x3df0b274	0.11752787
52	0x3dcd0458	0.10010594
53	0xbe2706bf	-0.16311167
54	0xbdb872f8	-0.090063035
55	0x3d96d4da	0.07364817
56	0x3d859cc7	0.065240435
57	0x3ce67530	0.028132051
58	0x3d9e8dcd	0.0774189
59	0x3e09558a	0.13411537
60	0xbc8c60fd	-0.017136091
61	0x3de0ac21	0.10970331
62	0xbe026bb0	-0.12736392
63	0xbbaeb163	-0.0053312047
64	0x3d9f6594	0.07783046
65	0x3cc1ed9a	0.023672868
66	0xbe16ca87	-0.14725696
67	0xbd311d48	-0.043240815
68	0x3e129287	0.14313708
69	0x3d82e10b	0.0639058
70	0x3d14bd89	0.036313567
71	0x3d599538	0.05312082
72	0xbd914872	-0.07093896
73	0xbdf328b5	-0.118729986
74	0xbe27904c	-0.16363639
75	0x3dce9e6b	0.100888096
76	0xbd98d3f4	-0.07462302
77	0x3d9181de	0.07104848
78	0x3d1dc4b0	0.038517654
79	0x3d2b4a98	0.041819185
80	0xbbc7d7dd	-0.006098731
81	0xbd97b278	-0.07407087
82	0xbd22aec2	-0.039717443
83	0x3e05bb3d	0.13059707
84	0xbca840f4	-0.020538785
85	0x3dfdc4af	0.1239103
86	0xbd81b68d	-0.06333647
87	0xbc733aeb	-0.01484559
88	0xbd868ba5	-0.06569604
89	0x3ce354d7	0.027750416
90	0xbc4d4476	-0.012528529
91	0x3d11f5e9	0.03563491
92	0xbc0c00ac	-0.008545082
93	0xbdbd8c03	-0.09255221
94	0x3cc10fdf	0.023567138
95	0xbe259048	-0.1616832
96	0xbd09fe88	-0.033690006
97	0xbd03e50d	-0.03220086
98	0x3bba8c64	0.0056930054
99	0xbd46aabf	-0.04850268
100	0xbc273098	-0.010204457
101	0x3dfddec3	0.12396004
102	0xbe0d43a4	-0.13795334
103	0xbdcc019a	-0.09961243
104	0xbe098e29	-0.13433136
105	0x3d8bbaa8	0.06822711
106	0x3da62adb	0.08113643
107	0xbd93f87a	-0.072251275
108	0x3c342782	0.0109957475
109	0x3e0509e2	0.12992051
110	0x3e11e577	0.1424769
111	0x3d58d934	0.052941516
112	0xbdc5f9cb	-0.09666785
113	0xbd60421d	-0.05475055
114	0xbbf073b0	-0.00733801
115	0xbbde0712	-0.006775745
116	0x3e1cde63	0.15319209
117	0x3d180f95	0.037124235
118	0x3cf8cae1	0.030370178
119	0xbd035b96	-0.032069765
120	0xbd1f472b	-0.03888623
121	0x3e1953a0	0.14973307
122	0x3af47f51	0.0018653666
123	0x3e1c8c26	0.15287837
124	0xbdf41ffd	-0.11920164
125	0xbd23e92a	-0.040017284
126	0xbcedd52b	-0.02903231
127	0xbda0c4f6	-0.07850067
128	0x3b81f9eb	0.00396656
129	0x3ce76f4f	0.028251318
130	0x3dc625ff	0.09675216
131	0x3d125d83	0.03573371
132	0x3c4bf5cd	0.01244874
133	0x3d8bb8c9	0.06822354
134	0xbcf8a3e6	-0.03035159
135	0x3dd2e486	0.10297494
136	0x3e09004c	0.1337902
137	0x3c6e9062	0.014560791
138	0xbd326077	-0.043549027
139	0xbcb78b47	-0.02240528
140	0xbdb84805	-0.08998112
141	0x3c3d88d9	0.011568272
142	0xbdebfc9f	-0.11522793
143	0xbd7362e5	-0.059420485
144	0xbdbcc522	-0.092172876
145	0x3dce35de	0.10068868
146	0x3d18f422	0.0373422
147	0x3df2a4bc	0.11847827
148	0xbc654642	-0.013993802
149	0xbdcb9ada	-0.09941645
150	0x3d958f36	0.07302706
151	0xbd874814	-0.06605545
152	0xbda2c08c	-0.07946882
153	0xbe025d71	-0.12730958
154	0xbd2914a5	-0.041279454
155	0xbdaf3ce7	-0.08556538
156	0xbdb8d4af	-0.09024941
157	0x3e278f3a	0.1636323
158	0xbe035426	-0.12825069
159	0xbe03bd64	-0.12865216
160	0x3d3431ed	0.043992925
161	0xbddc1f79	-0.107481904
162	0xbdb173f1	-0.08664692
163	0x3d70008a	0.058594264
164	0xbd05d21a	-0.03267107
165	0x3d95c8e8	0.073137105
166	0xbc200500	-0.009766817
167	0xbce81c2e	-0.02833375
168	0x3daf52aa	0.08560689
169	0xbdcdbde0	-0.100459814
170	0x3d1b0822	0.037849553
171	0x3d1a67a2	0.03769649
172	0x3c3bab8b	0.011454473
173	0xbdb67834	-0.08909646
174	0xbdf1edf4	-0.11812964
175	0x3d10bf6a	0.035338797
176	0xbd63fca3	-0.055660855
177	0x3c528646	0.012849396
178	0x3cae3525	0.021265576
179	0x3ddf941c	0.109169215
180	0xbd50340b	-0.050830882
181	0xbbafb026	-0.0053615747
182	0x3cf5015d	0.029907877
183	0xbded4e33	-0.11587181
184	0x3df2e44a	0.11859949
185	0x3e0eeb9d	0.13957067
186	0xbca9542f	-0.020670025
187	0x3dac9f80	0.0842886
188	0xbd122cdc	-0.035687312
189	0x3c3709f6	0.0111718085
190	0xbdb40093	-0.08789172
191	0x3dc14aad	0.094380714
192	0x3d13c33c	0.036074862
193	0x3ae570d1	0.0017504935
194	0xbced5f08	-0.028975978
195	0x3e096700	0.13418198
196	0x3d1978cb	0.037468713
197	0xbd643cd8	-0.055722088
198	0x3d9735e8	0.07383329
199	0x3daa0c85	0.08303169
200	0x3e0175d5	0.12642606
201	0x3dd8ee04	0.10592273
202	0x3dbfb660	0.09360957
203	0xbad075c8	-0.0015904242
204	0x3c427c04	0.011870388
205	0x3d093209	0.033494983
206	0xbd9fbab6	-0.07799284
207	0xbaf08e9d	-0.0018353049
208	0xbdb3a97c	-0.08772561
209	0xbc593134	-0.01325636
210	0x3de60cab	0.11232885
211	0x3bb71c57	0.005588095
212	0xbcee48c9	-0.029087441
213	0x3d8eb6ad	0.069684364
214	0xbdb2c70f	-0.08729374
215	0x3d0b49c5	0.0340059
216	0x3d99b66a	0.07505496
217	0xbdf02812	-0.11726393
218	0x3dc4f731	0.096174605
219	0x3d31d79a	0.043418504
220	0xbd78e341	-0.0607636
221	0x3d95e6ff	0.0731945
222	0xbe231776	-0.15926918
223	0xbc35c4d0	-0.011094287
224	0x3d25207f	0.040314194
225	0xbe120f00	-0.14263535
226	0x3df3dfdd	0.11907933
227	0x3d757959	0.05993018
228	0x3a55c895	0.0008155194
229	0x3db444c6	0.0880218
230	0xbd9bd7c3	-0.07609513
231	0x3dced96d	0.101000644
232	0x3c47ba3e	0.0121904
233	0xbcd58ceb	-0.026068171
234	0x3d842ec3	0.064542316
235	0xbd9aed1d	-0.07564757
236	0xbda233e9	-0.07920057
237	0x3d4bbcd9	0.049740646
238	0xbd739eb4	-0.059477523
239	0x3d365472	0.044514127
240	0xbd82af42	-0.06381084
241	0x3dc40f95	0.095732845
242	0xbd28dee2	-0.041228183
243	0xbd933c32	-0.07189216
244	0xbe13b4f3	-0.14424495
245	0xbda1b735	-0.07896272
246	0x3da1d3a0	0.079016924
247	0xbd2f3c3c	-0.042782053
248	0xbd663214	-0.056200102
249	0x3ce752d5	0.02823774
250	0xbdc99a59	-0.098438926
251	0x3b954b6c	0.00455611
252	0xb84ac594	-4.8344562e-05
253	0x3d0d1098	0.034439653
254	0xbcfc3f4f	-0.030791907
255	0xbe193c3f	-0.14964388

lstm_layer.bias_ih_l0 f4 [256]
0	0xbdfdbf76	-0.12390034
1	0xbddd03bb	-0.10791727
2	0x3d124201	0.035707477
3	0x3c4526e5	0.012033199
4	0xbd88cf74	-0.066801935
5	0xbdaff0ee	-0.085908756
6	0xbba2d94a	-0.0049697505
7	0xbcda2550	-0.02662912
8	0xbe0f5a71	-0.13999344
9	0xbe0d2c36	-0.13786396
10	0xbc847e58	-0.016173527
11	0x3d21494d	0.039376546
12	0xbda9e787	-0.082961135
13	0x3c899497	0.016794486
14	0xbc6904c7	-0.01422233
15	0xbdac66ce	-0.08418046
16	0xbcbc8a23	-0.023015087
17	0x3d58478a	0.0528026
18	0x3caaa66a	0.020831306
19	0xbddff909	-0.109361716
20	0xbdc1f5be	-0.094707
21	0xbd890501	-0.066904075
22	0x3d808212	0.06274809
23	0xbcef08b4	-0.029178955
24	0xbc4a7892	-0.012357848
25	0x3c9dcfb8	0.019264087
26	0xbe03caa6	-0.12870273
27	0xbcffee53	-0.031241572
28	0xbe25c375	-0.16187842
29	0xbc906c3f	-0.01762974
30	0xbd90b1b5	-0.07065145
31	0xbd0f0aa0	-0.034922242
32	0xbdae679a	-0.08515854
33	0x3dc4ab1b	0.09602948
34	0xbd526389	-0.051364455
35	0xbde1f5ab	-0.110331856
36	0xbc89b7e8	-0.016811326
37	0x3dc002b7	0.09375518
38	0xbd314e3a	-0.043287493
39	0xbe085758	-0.13314569
40	0x3cdab44e	0.026697304
41	0xbc05de1a	-0.008170629
42	0xbd812ab3	-0.06306972
43	0x3cb9fd46	0.022703778
44	0x3dadb3c7	0.084815554
45	0xbcbd7a7c	-0.023129694
46	0xbe23928e	-0.15973875
47	0x3dcb96b5	0.099408545
48	0xbd2c9db6	-0.042142592
49	0x3c7e4f18	0.015521787
50	0x3d4278c4	0.047478452
51	0x3ce2a5ad	0.027666891
52	0xbcee7d35	-0.029112438
53	0xbd3e8266	-0.046511076
54	0x3d76b07c	0.060226902
55	0x3d723d4c	0.05914049
56	0xbd2de599	-0.04245529
57	0xbdd87f62	-0.10571171
58	0x3dfe48ee	0.12416254
59	0xbd191815	-0.037376482
60	0xbca2023a	-0.019776452
61	0xbe212475	-0.15736564
62	0x3d42afe5	0.047531027
63	0x3d4d8cd9	0.05018315
64	0xbdb1ae38	-0.08675808
65	0xbe33b47f	-0.17549323
66	0xbd163c8e	-0.036678843
67	0xbd320ac0	-0.043467283
68	0xbe2d6c76	-0.16935906
69	0xbdbb7a2d	-0.091541626
70	0xbe19a6e4	-0.1500507
71	0xbd3abc91	-0.045589987
72	0xbddf1ab9	-0.10893769
73	0xbe110a80	-0.14164162
74	0x3da844b7	0.08216231
75	0xbc27b653	-0.010236341
76	0xbd4f4c2f	-0.050609764
77	0x3dba7eff	0.09106254
78	0xbd8db427	-0.06919127
79	0xbe108ed3	-0.14116983
80	0x3c77e2d5	0.015129765
81	0x3d5dee19	0.054182146
82	0xbe21ad5c	-0.15788788
83	0x3db64f8c	0.08901891
84	0xbdb0543e	-0.08609818
85	0xbe151025	-0.1455694
86	0xbdeaf6dc	-0.11472866
87	0x3da3bf18	0.079954326
88	0xbe2b13b0	-0.16706729
89	0xbe14e756	-0.14541373
90	0xbcde54ea	-0.0271401
91	0xbe2b1c36	-0.1670998
92	0xbb2d0018	-0.002639776
93	0xbdb9e8f6	-0.09077637
94	0xbd6da675	-0.058020074
95	0xbe05112c	-0.12994832
96	0xbbc74fcd	-0.006082511
97	0xbcdb118d	-0.026741767
98	0x3d4696fd	0.048483837
99	0xbd557d0e	-0.052121215
100	0xbe053cc0	-0.13011456
101	0xbdaf9eda	-0.085752204
102	0xbd932678	-0.07185072
103	0x3dc8768d	0.09788237
104	0xbe00f38f	-0.1259291
105	0xbe055a53	-0.13022737
106	0xbdbc1260	-0.09183192
107	0xbd741be8	-0.059596926
108	0x3ce6e132	0.028183553
109	0x3d18fafc	0.037348732
110	0xbe212b71	-0.15739228
111	0xbddad925	-0.10685948
112	0x3cdb5ae0	0.026776731
113	0xbcc756a5	-0.024333308
114	0xbd387224	-0.045030728
115	0xbdb0f1e2	-0.086398855
116	0xbe0e5c9c	-0.13902515
117	0xbde4f919	-0.11180324
118	0x3da60502	0.08106424
119	0xbd54906b	-0.05189554
120	0xbda9feea	-0.08300574
121	0xbde042f6	-0.10950272
122	0xbdc82edc	-0.09774563
123	0xbdf94c3e	-0.12172745
124	0x3d3caea4	0.046064988
125	0x3d155e2e	0.03646677
126	0xbd8d98a5	-0.0691388
127	0xbe0d4106	-0.13794336
128	0x3b629c01	0.003457785
129	0x3d8111dc	0.063022345
130	0xbd46b1ea	-0.048509516
131	0xbde64eee	-0.112455234
132	0xba9a84e1	-0.0011788869
133	0x3cd9badf	0.026578365
134	0x3ddf3492	0.10898699
135	0x3d8ac1f8	0.06775278
136	0x3d84e585	0.0648909
137	0xbd040b8b	-0.03223757
138	0x3c847753	0.01617018
139	0x3cefc775	0.029269913
140	0x3d8d0796	0.068862125
141	0xba19390a	-0.00058449863
142	0x3d59196c	0.05300276
143	0xbda2b59f	-0.07944798
144	0x3d1c7515	0.038197596
145	0x3db0afb2	0.08627261
146	0xbd122ac6	-0.035685323
147	0xbe038b9f	-0.1284623
148	0xbb57adf9	-0.0032910092
149	0xbd5549d4	-0.05207236
150	0x3dbfd9f1	0.09367741
151	0xbdce17a2	-0.10063101
152	0x3d5283b3	0.05139513
153	0xbc9ade8a	-0.018904943
154	0xbcbd708f	-0.023124961
155	0x3d47a9c5	0.04874589
156	0xbd1410c2	-0.036148794
157	0xbd96eb27	-0.073690705
158	0x3b893322	0.0041870037
159	0x3d9124c1	0.070870884
160	0xbd93c3b4	-0.07215062
161	0x3d833ff8	0.064086854
162	0x3da1d342	0.07901622
163	0xbd4dca66	-0.05024185
164	0xbd1e2910	-0.03861338
165	0xbdb7bdbb	-0.08971735
166	0xbd5d4918	-0.054024786
167	0x3d3f0a88	0.046640903
168	0x3bf5eeaf	0.00750526
169	0x3dab5dcd	0.083675005
170	0xbc234e5c	-0.009967413
171	0xbd3953e4	-0.04524602
172	0x3da9bc55	0.082878746
173	0xbd1b2930	-0.037881076
174	0x3d08fc1e	0.033443563
175	0xbd5db88d	-0.05413108
176	0x3df4b569	0.11948664
177	0x3dc218a8	0.09477359
178	0x3bf47a8c	0.007460898
179	0x3d214094	0.039368227
180	0xbdc7d0be	-0.09756611
181	0x3ce666aa	0.028125126
182	0x3c16fdba	0.009215767
183	0x3a062669	0.0005117418
184	0xbd3c3bab	-0.04595534
185	0xbd547337	-0.05186769
186	0x3e0ff35f	0.14057682
187	0xbdd46a6c	-0.10371861
188	0x3dc29d80	0.09502697
189	0xbdb2f218	-0.08737582
190	0x3de8e2b1	0.11371363
191	0xbd6a1fdc	-0.05715929
192	0xbe0bc555	-0.13649495
193	0xbb2a2500	-0.0025961995
194	0xbd3ea5c7	-0.046544816
195	0xbd92eaa7	-0.07173663
196	0xbd1575ee	-0.03648942
197	0x3cb6365a	0.022242714
198	0xbe1b01e8	-0.15137446
199	0xbdcd50a1	-0.10025144
200	0xbe2b1aea	-0.16709486
201	0xbe32016c	-0.17383355
202	0xbd761e04	-0.06008722
203	0xbe1a6a3e	-0.1507959
204	0xbe0cd013	-0.13751249
205	0xbd9a1828	-0.07524139
206	0xbd9b1d45	-0.07573942
207	0xbd8ec171	-0.0697049
208	0xbcf59ec9	-0.029982941
209	0x3c9093eb	0.017648658
210	0xbce0b91a	-0.027432013
211	0xbdad5a55	-0.08464495
212	0xbdd03e0a	-0.10168083
213	0xbd632346	-0.05545356
214	0x3c8248b8	0.015903816
215	0xbdeb3862	-0.114853635
216	0xbddfc2ea	-0.10925849
217	0xbdf3dc5e	-0.11907266
218	0xbca3e44e	-0.020006325
219	0xbdcbd867	-0.09953385
220	0xbe09c84b	-0.13455312
221	0xbe1ecb5e	-0.15507266
222	0xbb08228a	-0.002077254
223	0xbdf86bb7	-0.1212992
224	0x3c0bf3e2	0.008542033
225	0xbc34906a	-0.011020759
226	0xbe2c91fa	-0.1685256
227	0xbda0328e	-0.078221425
228	0xbcfcd8cb	-0.030865094
229	0x3dbeeb90	0.09322274
230	0xbde35fe4	-0.11102274
231	0xbe135d7a	-0.14391127
232	0xbd37e005	-0.044891376
233	0x3d38f5b1	0.045156185
234	0xbc4b0492	-0.012391226
235	0x3d134242	0.03595186
236	0x3d7b6d11	0.06138331
237	0xbe164e48	-0.146783
238	0xbde3b6e8	-0.11118871
239	0x3d4dc6d6	0.050238453
240	0x3ddeaa63	0.108723424
241	0xbd89cae5	-0.06728152
242	0x3c62172a	0.013799468
243	0xbdad43c4	-0.08460191
244	0x3d3e52ec	0.0464658
245	0xbdc9bc94	-0.098504215
246	0x3b1f2df6	0.002428887
247	0x3ccd9441	0.025095107
248	0x3d6f43b5	0.05841418
249	0xbd672774	-0.05643411
250	0xbd2e31d1	-0.042527977
251	0xbdf2d46b	-0.11856922
252	0xbdcea9b8	-0.10090965
253	0xbd83d9af	-0.06438004
254	0x3c71036b	0.014710288
255	0xbdd49e39	-0.10381741

lstm_layer.bias_hh_l0 f4 [256]
0	0x3bf66831	0.007519745
1	0x3d4949ca	0.049142636
2	0x3d65e812	0.056129523
3	0xbd4da17e	-0.05020284
4	0xbd63b2b3	-0.055590343
5	0xbd722625	-0.05911841
6	0x3b1135f1	0.0022157396
7	0x3d878307	0.06616788
8	0xbe0297f1	-0.12753274
9	0xbe12ed61	-0.14348365
10	0xbde01477	-0.10941403
11	0xbe105d12	-0.14098004
12	0xbc9a62af	-0.018845884
13	0xbcffb098	-0.031212136
14	0x3d1b490b	0.037911456
15	0xbd108a41	-0.0352881
16	0xbc8fc053	-0.017547762
17	0x3d0fb28d	0.03508239
18	0xbe07fd8c	-0.13280314
19	0xbd83dc9b	-0.064385615
20	0x3d1058d3	0.03524096
21	0x3db0bd1b	0.08629819
22	0xbc3d3958	-0.011549316
23	0xbd975e63	-0.0739105
24	0xbe3bdb78	-0.1834544
25	0xbe179f7b	-0.1480693
26	0xbe216508	-0.15761197
27	0x3d7bf908	0.06151679
28	0x3d89fca0	0.067376375
29	0x3d4cda8d	0.050013114
30	0x3d2ac81c	0.041694745
31	0xbd7d8ccb	-0.06190185
32	0xbd25f8bd	-0.04052042
33	0x3d0c96d7	0.03432354
34	0xbe37cb19	-0.1794857
35	0xbe0d4d7f	-0.13799094
36	0xbd7e4aeb	-0.062083166
37	0xbc31f859	-0.010862433
38	0xbd2ab2ba	-0.041674353
39	0x3d88d900	0.066820145
40	0x3d203bc6	0.039119504
41	0xbe02e8f3	-0.12784176
42	0xbd8cee56	-0.068813965
43	0xbdb78c3b	-0.08962294
44	0xbca6eed5	-0.020377556
45	0xbd6eefdc	-0.058334216
46	0xbdb0cb3b	-0.08632513
47	0x3d6ee46a	0.0583233
48	0xbc46be65	-0.0121303545
49	0xbaa22625	-0.0012370987
50	0x3d95a13d	0.073061444
51	0xbe0287d1	-0.12747122
52	0xbd21cb99	-0.039500806
53	0xbe22d61f	-0.15901993
54	0x3da8f073	0.08248987
55	0x3d140884	0.036140934
56	0x3d4eefb5	0.05052157
57	0x3d44c8b1	0.048042957
58	0xbca84606	-0.020541202
59	0x3d515c08	0.05111316
60	0xbd891f64	-0.066954404
61	0xbcf3e70c	-0.029773258
62	0x3dccba2e	0.099964485
63	0x3d4f44c5	0.050602693
64	0xbdec0b5f	-0.11525606
65	0x3d1c9404	0.038227096
66	0xbdeb2070	-0.11480796
67	0xbdfa5282	-0.12222768
68	0xbdf12a6d	-0.1177567
69	0xbe1ae9f2	-0.15128306
70	0x3d89c459	0.067269035
71	0x3b9a6191	0.004711338
72	0xbe34e3f7	-0.17665087
73	0x3d2c93f9	0.042133305
74	0x3d20f16c	0.039292738
75	0x3c9c6057	0.019088907
76	0xbdf1973f	-0.11796426
77	0x3d92225f	0.07135462
78	0x3da88fe3	0.08230569
79	0xbd4a1aac	-0.049341843
80	0x3c842a43	0.016133433
81	0x3d970a74	0.07375041
82	0xbdcd4e0a	-0.100246504
83	0xbbff8fc4	-0.0077991206
84	0xbb76d1f7	-0.003766177
85	0x3d64a9b7	0.055825915
86	0x3d28b4c6	0.041188024
87	0x3de4ec64	0.111779004
88	0xbe3a3c0a	-0.18186966
89	0xbe35df87	-0.1776105
90	0xba9bfb4f	-0.0011900457
91	0xbd9fa221	-0.077945955
92	0xbe17e142	-0.14832023
93	0x3c42108c	0.011844765
94	0xbe098268	-0.13428652
95	0x3d0b88f9	0.034066174
96	0xbcb21aaa	-0.02174123
97	0x3c686993	0.014185327
98	0x3a310c84	0.0006753879
99	0xbc8a15bb	-0.016856065
100	0xbe15ce28	-0.14629424
101	0xbe07ca7b	-0.13260834
102	0x3cabc627	0.02096851
103	0x3d5efce8	0.05444041
104	0xbe0679e3	-0.13132434
105	0xbdf0619d	-0.11737368
106	0x3c0e03ff	0.008667945
107	0xbd7416c4	-0.059592023
108	0xbd078685	-0.033087272
109	0xbe230549	-0.15919985
110	0x3d46478c	0.048408076
111	0x39d946ab	0.00041442117
112	0xbddabc8c	-0.10680494
113	0x3d92042a	0.071297005
114	0xbdba0bd9	-0.09084291
115	0x3d45cb2c	0.048289463
116	0xbdd845b3	-0.10560169
117	0x3cf47f78	0.029845938
118	0xbe0d3f78	-0.13793743
119	0xbe19c535	-0.15016635
120	0x3d676f4d	0.05650263
121	0xbe2827ec	-0.16421479
122	0xbd818561	-0.06324268
123	0x3c512187	0.012764341
124	0x3d52d4d4	0.0514725
125	0x3cdba459	0.026811766
126	0xbe05c7cb	-0.13064496
127	0x3d910c2c	0.070824
128	0x3dbf690c	0.09346208
129	0xbd3a7526	-0.045521878
130	0x3e09db1e	0.13462493
131	0xbddcdcc2	-0.10784294
132	0xbd5d2633	-0.053991508
133	0x3b828abd	0.003983824
134	0xbda609c6	-0.08107333
135	0x3c0a0340	0.008423626
136	0xbd8de094	-0.069276005
137	0xbca1576b	-0.019695004
138	0x3d75c68a	0.060003795
139	0x3c1f7b96	0.009734055
140	0x3d8c09b8	0.06837791
141	0xbdc3450c	-0.09534654
142	0x3c2558bd	0.010091958
143	0x3d75a7e1	0.059974555
144	0x3cfd9138	0.030953035
145	0x3ca9f286	0.020745527
146	0x3c824304	0.015901096
147	0x3c3e2a78	0.011606805
148	0x3de4a70a	0.11164673
149	0x3c991af6	0.018689614
150	0xbdda704f	-0.106659524
151	0x3cd78885	0.026310215
152	0xbd411e99	-0.04714832
153	0x3d42d55f	0.047566768
154	0x3d3c2352	0.04593212
155	0x3d5cc9b3	0.053903293
156	0x3ca4ccd2	0.020117197
157	0xb9255d1f	-0.00015770317
158	0xbcc862be	-0.024461146
159	0xbc98b2dc	-0.018639974
160	0x3da06b5c	0.07832977
161	0x3dd1f25d	0.10251305
162	0xbd42ef1c	-0.047591314
163	0x3d850d9c	0.064967364
164	0xbd90f847	-0.07078605
165	0xbd7a36af	-0.061087307
166	0x3d8a8066	0.06762771
167	0x3dc1d53f	0.094645016
168	0xbcf9f6db	-0.030513218
169	0xbdc8dd65	-0.09807853
170	0x3c416d57	0.011805854
171	0x391d934b	0.00015027558
172	0x3d890813	0.06690993
173	0xbcab6e64	-0.020926662
174	0x3ca4f2b8	0.020135269
175	0x3da7b88e	0.08189498
176	0xbc8d8285	-0.01727415
177	0x3c030184	0.007995967
178	0xbc8d3b5c	-0.017240219
179	0xbc58b1fa	-0.013226027
180	0x3e0eb83e	0.1393747
181	0xbc873051	-0.016502531
182	0x3d54283a	0.051796176
183	0x3cc73eb0	0.024321884
184	0xbce6672c	-0.028125368
185	0x3d5dfdf1	0.054197256
186	0xbc6bc955	-0.014391263
187	0x3cd42527	0.025896622
188	0x3d5eb1b0	0.054368675
189	0x3e0a4ac2	0.1350508
190	0x3d8f3890	0.0699321
191	0x3da1d434	0.07901803
192	0xbddd76e0	-0.10813689
193	0x3d7d6228	0.061861187
194	0xbddfbea2	-0.10925032
195	0xbdde65e3	-0.10859277
196	0xbe0c5753	-0.13705187
197	0x3cec4737	0.028842552
198	0xbcf8bd6e	-0.030363765
199	0x3d9666a5	0.07343797
200	0xbe277895	-0.16354592
201	0xbe14b7eb	-0.14523284
202	0xbda9dd68	-0.08294183
203	0xbcf25dd5	-0.029585758
204	0xbd917440	-0.07102251
205	0xbe09a48f	-0.1344168
206	0xbbf00d65	-0.0073258155
207	0x3d192cf5	0.03739639
208	0xbdee6a35	-0.11641351
209	0x3d90fd17	0.07079523
210	0xbe04aa13	-0.12955503
211	0x3d5512a5	0.052019734
212	0xbd50d60e	-0.05098539
213	0xbd756a36	-0.059915744
214	0xbdf149b2	-0.117816344
215	0xbd674570	-0.056462705
216	0xbd972d53	-0.07381692
217	0xbdf56eb8	-0.119840086
218	0xbbaca39c	-0.005268527
219	0xbd6627fd	-0.05619048
220	0xbc6256d7	-0.01381465
221	0xbd758562	-0.059941657
222	0xbdd419a7	-0.10356455
223	0xbdfba2f7	-0.122869425
224	0x3d49eb85	0.049296875
225	0x3c534796	0.012895485
226	0xbe37672b	-0.17910449
227	0xbdf3b104	-0.118989974
228	0xbd0f33e5	-0.0349616
229	0xbdecd08a	-0.11563213
230	0x3d3b1b3f	0.04568028
231	0x3d14af82	0.03630019
232	0x3d0de492	0.03464181
233	0xbbe0676f	-0.0068482677
234	0xbe056dfd	-0.13030238
235	0x3d24fc2b	0.04027955
236	0x3d6679d7	0.05626854
237	0xbe1b320d	-0.15155812
238	0xb98903ce	-0.0002613351
239	0xbd9a70cf	-0.07541048
240	0xbad6e3e5	-0.0016394822
241	0x3d1d948b	0.03847174
242	0x3d9e7945	0.07737974
243	0xbbde639b	-0.0067867762
244	0xbdc92c31	-0.09822882
245	0x3d5fdc32	0.054653354
246	0x3d52f937	0.0515072
247	0xbd972d72	-0.07381715
248	0xbcb18023	-0.021667546
249	0xbc294401	-0.010331155
250	0x3c81fe4c	0.015868329
251	0xbd66247e	-0.056187145
252	0x3d868480	0.06568241
253	0xbd5649d5	-0.052316505
254	0xbd7fffe4	-0.062499896
255	0x3c9add52	0.018904362

fc.weight f4 [1, 65]
0	0x3f52148f	0.8206262
1	0xbce0a067	-0.027420236
2	0xbf69c990	-0.91323185
3	0xbf0f05e2	-0.5586835
4	0xbf23add7	-0.63937134
5	0x3ed1892e	0.40924972
6	0x402b342b	2.675059
7	0xbf48a98e	-0.7838372
8	0xbefca2dd	-0.49343005
9	0x3fb692e4	1.4263577
10	0xbfcb1ed3	-1.5868782
11	0x3f56a4b0	0.83845043
12	0x3f9b6d91	1.2142812
13	0x3f60df20	0.8784046
14	0x3ebed3ec	0.3727106
15	0x3e25cb58	0.1619085
16	0xbf472b5c	-0.77800536
17	0x3ee4dfc3	0.44701967
18	0x3ea7f98c	0.32807577
19	0x3edc7870	0.43060637
20	0x3f65efca	0.89819014
21	0xbdf1ebe7	-0.11812573
22	0x403cc7d1	2.9496958
23	0x3f019fd3	0.506345
24	0x3fe986ed	1.8244301
25	0x3edf1e03	0.43577585
26	0x3f3fe74e	0.7496232
27	0x3b9e25b9	0.0048262742
28	0xbf86d7f4	-1.0534654
29	0xbc96234b	-0.018327376
30	0x3fc69eb3	1.5517181
31	0xbf7a1a4d	-0.9769638
32	0xbf9f9757	-1.246806
33	0x3e96bb40	0.29439735
34	0x3f1bb2b2	0.6081954
35	0x3fbe5b90	1.4871693
36	0xbe289bfb	-0.16465752
37	0x3f5b1a8e	0.85587394
38	0x3f095754	0.5364888
39	0x3fa4cf2d	1.2875725
40	0x3fc50bfc	1.5394282
41	0x3f27f59a	0.65609133
42	0x3f55ed40	0.8356514
43	0x3f209374	0.62724996
44	0xbe413ba5	-0.18870409
45	0xbeca75e9	-0.39543083
46	0xbe05ef18	-0.13079488
47	0xbef49f60	-0.47777843
48	0xc03b2b09	-2.9245017
49	0x3e79e8b6	0.24405178
50	0x3f8109c3	1.0081104
51	0xbf76c866	-0.96399534
52	0xbe5aa543	-0.21352105
53	0x3f62de01	0.8862
54	0x3ddb4a73	0.107075594
55	0x3d8103de	0.06299566
56	0x3f76e3b3	0.9644119
57	0xbdd9505a	-0.10611029
58	0x3fc96138	1.5732794
59	0xbf050567	-0.5196137
60	0x3f1a3501	0.6023713
61	0x3fde6166	1.7373474
62	0x3e464ece	0.19365999
63	0x3f6dac1e	0.92840755
64	0xbdefda06	-0.117115065

fc_final1.weight f4 [64, 128]
0	0x3d6c3db8	0.057676047
1	0xbd8d9bf2	-0.0691451
2	0xbdba0280	-0.09082508
3	0xbd1c6161	-0.038178805
4	0x3dfeb92a	0.12437661
5	0xbd35b238	-0.044359416
6	0x3de2ce46	0.110745
7	0xbd20cac8	-0.039255887
8	0xbdcfdc6f	-0.10149466
9	0xbc28a728	-0.010293759
10	0xbd13ed59	-0.036115024
11	0xbd5442ca	-0.051821508
12	0xbdb793f4	-0.08963767
13	0x3dcb5b14	0.09929481
14	0xbdcd867e	-0.10035418
15	0x3c8100c0	0.015747428
16	0x398f0724	0.00027280406
17	0x3d76bdf3	0.060239743
18	0xbcb6e7cd	-0.022327328
19	0xbb9ced6e	-0.004789046
20	0xbca8a94e	-0.020588543
21	0xbc94cb4a	-0.018163342
22	0x3dd733e9	0.10507948
23	0x3d5820cd	0.052765656
24	0x3cac4ffc	0.021034233
25	0x3d8af0b8	0.06784195
26	0xbd4d11f1	-0.05006594
27	0xbb802669	-0.003910829
28	0x3d7a3d13	0.0610934
29	0xbcd54b5a	-0.026036907
30	0x3d3b01e7	0.04565611
31	0x3d72a7c5	0.05924203
32	0xbc6bfe60	-0.014403909
33	0xbd96c3ac	-0.0736154
34	0xbd925ade	-0.07146238
35	0x3d540d11	0.051770274
36	0x3cc3ee2e	0.023917284
37	0x3c6c6b16	0.014429828
38	0xbbc76bfa	-0.00608587
39	0x3ce62dbc	0.02809798
40	0xbd20d265	-0.039263148
41	0x3a0c783b	0.0005358492
42	0x3d5a742a	0.05333344
43	0xbb5a7f0b	-0.0033339884
44	0x3d68281d	0.05667888
45	0x3d6440ee	0.055725984
46	0x3c1f01b9	0.009705001
47	0xbdcd2e53	-0.10018601
48	0xbda3960b	-0.07987603
49	0xbd6caf29	-0.057784233
50	0x3d0f0af8	0.03492257
51	0xbcb21b12	-0.021741424
52	0x3d9f4cb4	0.07778302
53	0xbd531f93	-0.051543783
54	0xbcd7aa11	-0.026326211
55	0xbcabbec2	-0.020964984
56	0x3ce948cc	0.028477095
57	0xbd5dfe1f	-0.054197427
58	0xbd8621d6	-0.065494224
59	0x3d9ae092	0.07562365
60	0xbda4c0e6	-0.08044605
61	0x3b1b0b99	0.0023658036
62	0x3d12b458	0.03581652
63	0xbd6702da	-0.056399204
64	0xbce99cdc	-0.02851718
65	0xbdbbeea7	-0.09176379
66	0x3d02ce73	0.031935167
67	0xbd8339a4	-0.064074785
68	0xbb55ab44	-0.0032603303
69	0xbd847f2f	-0.06469571
70	0x3de50caf	0.1118406
71	0xbcc59133	-0.024117088
72	0xbd94d1cc	-0.07266578
73	0x3d230d08	0.03980735
74	0xbd9bb0cc	-0.07602081
75	0x3b036165	0.0020047065
76	0xbccab40d	-0.024744058
77	0x3c3e3607	0.011609561
78	0xbd16a62e	-0.036779575
79	0xbd96b8bf	-0.07359456
80	0x3bea49db	0.0071499175
81	0xbdd7d4f9	-0.10538668
82	0x3c898e3d	0.016791457
83	0x3c66528a	0.014057765
84	0xbdc1ac6e	-0.094567165
85	0x3d9164c2	0.07099296
86	0xbda37088	-0.07980448
87	0x3ca50e18	0.020148322
88	0xbd6a94d4	-0.05727084
89	0xbd4d2afc	-0.05008982
90	0x3cb9dcc4	0.022688277
91	0x3d2572eb	0.040392797
92	0xbda9a589	-0.082835265
93	0x3d1f1c2f	0.038845237
94	0xbd3e13c7	-0.04640558
95	0xbbaa538f	-0.0051979492
96	0x3b94ab61	0.0045370315
97	0x3c90db7a	0.01768278
98	0xbcff5424	-0.031168051
99	0xbd33e494	-0.04391916
100	0x3d327647	0.04356983
101	0x3d15013f	0.03637814
102	0xbb7fbc0e	-0.0039022001
103	0x3d3aeaee	0.045634203
104	0x3b9b4eea	0.004739632
105	0xbd36af4b	-0.044600766
106	0xbd57f38b	-0.052722495
107	0xbdd308bd	-0.10304401
108	0xbc1a6aeb	-0.009424905
109	0xba23de7d	-0.000625111
110	0xbcc6c007	-0.024261488
111	0x3d3fcb59	0.046824787
112	0xbd590bac	-0.052989647
113	0x3dc92fcb	0.09823569
114	0xbcd3e87a	-0.02586769
115	0x3d3a4f25	0.045485634
116	0xbdbf651b	-0.09345456
117	0x3cc0a4a7	0.023516012
118	0x3c7420e4	0.01490042
119	0x3dc05b92	0.09392466
120	0x3dcede5f	0.10101008
121	0x3cf0ad26	0.029379439
122	0x3d5fbc01	0.054622654
123	0xbc7342bd	-0.014847455
124	0xbd3a5162	-0.04548777
125	0xbb551112	-0.0032511395
126	0xbc26c3a4	-0.01017848
127	0x3da39d26	0.07988958
128	0xbb97c60c	-0.0046317633
129	0x3d22f197	0.03978118
130	0xbd9c2347	-0.07623916
131	0xbaab55d1	-0.001307184
132	0x3b284f4d	0.0025682033
133	0xbddc7a50	-0.10765517
134	0x3ceec2da	0.029145647
135	0xbd286eaa	-0.041121162
136	0xbda6756e	-0.08127867
137	0xbce550e3	-0.027992671
138	0x3cdd266a	0.026995856
139	0xbd62ea9f	-0.055399533
140	0x3bdf645f	0.006817385
141	0x3d88115b	0.06643935
142	0xbdc22d48	-0.09481293
143	0x3d3e13b5	0.046405513
144	0xbdd696c5	-0.10477976
145	0xbd738b2d	-0.0594589
146	0xbd7f0266	-0.062258147
147	0xbc0eae56	-0.008708557
148	0xbd9a7801	-0.0754242
149	0x3d9812e2	0.074254766
150	0x3d886c29	0.06661255
151	0x3c94fc57	0.018186731
152	0x3c43d15a	0.011951769
153	0xbc6e500f	-0.014545455
154	0xbdc7df71	-0.09759415
155	0xbd1b92e6	-0.03798189
156	0x3dfad764	0.12248114
157	0xbdc68c5d	-0.09694741
158	0x3c7727a7	0.015085137
159	0xbde3e681	-0.111279495
160	0x3dc8a41d	0.09796927
161	0xbc499cdd	-0.0123054655
162	0xbd24759d	-0.040151227
163	0x3dbcaa0e	0.09212123
164	0xb8a51088	-7.870892e-05
165	0x3d76aea9	0.060225163
166	0xbd4f4791	-0.05060536
167	0xbdda0410	-0.10645306
168	0xbdcaa1ab	-0.09894117
169	0x3d9b9952	0.07597603
170	0x3de4dc49	0.111748286
171	0xbd1a63b0	-0.037692726
172	0x3d9b34a7	0.07578402
173	0x3dc70128	0.097170174
174	0x3dd7db79	0.10539908
175	0x3c09be7f	0.008407234
176	0xbc358590	-0.011079207
177	0xbdd0cd97	-0.10195463
178	0xbbdf28aa	-0.0068102675
179	0x3d249a7d	0.040186394
180	0x3c9934db	0.018701961
181	0xbd9693bd	-0.073523976
182	0x3d06ccd9	0.0329102
183	0x3d9894e1	0.074502714
184	0x3c17eede	0.009273259
185	0xbcfd2c08	-0.030904785
186	0xbdac290d	-0.08406267
187	0x39293486	0.00016136662
188	0xbdd8b0fe	-0.105806336
189	0x3dbf5e17	0.09344118
190	0xbdb86ade	-0.09004758
191	0x3c6dd097	0.014515064
192	0x3ccc7671	0.024958821
193	0xbd72ad36	-0.059247218
194	0x3b42b988	0.0029712636
195	0x3de2cfd8	0.11074799
196	0x3d309f2c	0.043120548
197	0xbd483c92	-0.04888589
198	0xb9f9eafd	-0.0004766806
199	0xbdaf8f4a	-0.08572252
200	0xbc929ed7	-0.017898006
201	0x3d0790d5	0.033097107
202	0xbcc8165e	-0.024424728
203	0xbd642760	-0.055701613
204	0xbd133754	-0.035941437
205	0xbd2440e1	-0.040100936
206	0xbc34df12	-0.011039512
207	0xbddc7f79	-0.10766501
208	0xbdf081bb	-0.11743494
209	0xbd64ce58	-0.055860847
210	0x3dff11d3	0.124545716
211	0x3dbee990	0.09321892
212	0xbdc9999d	-0.098437525
213	0xbd86fb69	-0.065909214
214	0xbd0e4dde	-0.03474223
215	0xbc8f8048	-0.017517224
216	0xbcd2ab92	-0.025716577
217	0x3d0dd99d	0.03463136
218	0xbd645017	-0.055740442
219	0xbd7e3142	-0.062058695
220	0xbdb8a937	-0.0901665
221	0x3d5fd209	0.054643665
222	0xbdca5982	-0.098803535
223	0x3dc0777e	0.09397791
224	0xbd9e8f7d	-0.07742212
225	0x3ccfe549	0.025377886
226	0x3dadab3e	0.084799275
227	0x3d46ad29	0.048504982
228	0xbcc10818	-0.02356343
229	0x3d9dd336	0.07706301
230	0x3d545b08	0.051844627
231	0xbc5a75a9	-0.013333716
232	0xbdc4356f	-0.09580504
233	0xbd8cefa5	-0.06881646
234	0xbd5f0863	-0.054451358
235	0xbde32600	-0.11091232
236	0x3c81466b	0.015780648
237	0x3b02a812	0.0019936603
238	0xbdd585d6	-0.10425918
239	0xbb943a5f	-0.00452356
240	0xbdad7e5c	-0.08471367
241	0x3da982f6	0.08276932
242	0x3d125faa	0.035735764
243	0x3c00359d	0.007825282
244	0xbd27cdb8	-0.040967673
245	0xbc6f6020	-0.01461032
246	0xbd1cc0d0	-0.038269818
247	0x3d799e32	0.060941882
248	0x3b760cfd	0.0037544363
249	0xbc2da13b	-0.010597522
250	0x3d15fe47	0.03661945
251	0xbdb3fda3	-0.08788612
252	0x3d0ac658	0.03388056
253	0xbd94b7ae	-0.072615966
254	0x3d11655f	0.035497066
255	0x3d2b562c	0.041830227

fc_final1.bias f4 [64]
0	0xbd450fb5	-0.048110683
1	0x3d2293a2	0.039691575
2	0x3d4e0414	0.050296858
3	0xbdada842	-0.08479358
4	0xbc9a9fd9	-0.01887505
5	0xbd153636	-0.036428653
6	0xbcb5ae29	-0.022177773
7	0xbd4b17b7	-0.049583163
8	0x3cddbe28	0.027068213
9	0xbdfe9593	-0.12430873
10	0x3cf43c7d	0.029814
11	0x3bd0dcc8	0.0063739754
12	0xbce1a4e7	-0.027544452
13	0x3d8f1dc4	0.06988099
14	0xbcc0003a	-0.023437608
15	0x3d84f94b	0.06492861
16	0xbcce83cd	-0.025209332
17	0xbd5b8e87	-0.05360272
18	0xbc923d57	-0.017851515
19	0xbbd30580	-0.0064398646
20	0xbcabc90b	-0.020969888
21	0xbbdcd93d	-0.006739764
22	0x3dca50c6	0.098786876
23	0xbc32edd7	-0.010920963
24	0x3a91efb8	0.0011134064
25	0xbd1b30d8	-0.037888378
26	0xbd3575e8	-0.044301897
27	0x3d67e6dd	0.056616653
28	0x3d34d42e	0.044147663
29	0xbddde6b9	-0.108350225
30	0x3c4a5f3b	0.012351806
31	0xbd24f23a	-0.040270068
32	0x3d8184b1	0.06324137
33	0x3c206ac6	0.009791082
34	0xbd40825e	-0.046999328
35	0x3d068754	0.032843903
36	0xbdfb84f7	-0.122812204
37	0xbdd0b4a8	-0.101907074
38	0x3d139086	0.0360265
39	0x3cbb4c82	0.02286363
40	0xbc97689e	-0.018482503
41	0x3daa6a48	0.08321053
42	0x3dccf12b	0.10006937
43	0x3d28a562	0.041173346
44	0x3d086829	0.03330246
45	0x3a34faa3	0.0006903803
46	0x3d0f8c8b	0.03504614
47	0xbd66f406	-0.056385063
48	0xbc7c9ddd	-0.015418497
49	0x3b8c30b6	0.0042782677
50	0x3dc71e70	0.09722602
51	0xbc91023c	-0.01770126
52	0x3d29e9c4	0.041482702
53	0xbd2167b2	-0.039405532
54	0x3c9a2f00	0.01882124
55	0x3deba854	0.115067154
56	0x3ceb8a6a	0.028752524
57	0xbdf87de3	-0.12133386
58	0xbc9331ba	-0.017968047
59	0xbdd4c07f	-0.10388278
60	0x3d3f75ac	0.04674308
61	0x3d046ed6	0.032332264
62	0x3d87875b	0.06617614
63	0x3c1e4034	0.009658862

fc_final2.weight f4 [1, 64]
0	0xbc12a64b	-0.00895078
1	0x3a24a436	0.0006280573
2	0x3d06b1d9	0.032884452
3	0xbdabf359	-0.08396024
4	0xbc334626	-0.010942018
5	0xbd06c56f	-0.03290313
6	0x3c20194a	0.009771654
7	0x3d5dd610	0.054159224
8	0x3d1a9771	0.037742082
9	0xbe001a69	-0.12510075
10	0xbba962e0	-0.0051692575
11	0xbc97225b	-0.018449
12	0xbb714914	-0.003681724
13	0x3d802fe7	0.06259137
14	0xbbfe320f	-0.0077574323
15	0x3d0eb2b5	0.034838397
16	0xbbb1455f	-0.005409881
17	0xbd894e03	-0.06704333
18	0xbd426798	-0.047462076
19	0xbb90f857	-0.0044241357
20	0xbd2e1a82	-0.04250575
21	0x3c1a0b3a	0.009402091
22	0x3d5d21a7	0.05398717
23	0xbd90c1b2	-0.070681944
24	0x3c920fa8	0.017829731
25	0xbc360df7	-0.011111728
26	0xbcf84b3b	-0.03030931
27	0x3d28d30a	0.041216888
28	0x3c800e6f	0.015631882
29	0xbd0eb263	-0.03483809
30	0xbb11f0b5	-0.0022268717
31	0xbd050399	-0.032474134
32	0x3d06ecce	0.03294068
33	0xbd5935e5	-0.053029913
34	0x3c50545b	0.012715424
35	0xbb6b31b9	-0.0035887791
36	0xbdd638bb	-0.10460039
37	0xbd738ff8	-0.05946347
38	0x3d051410	0.032489836
39	0xbb48801a	-0.0030593933
40	0xbc7568fb	-0.014978643
41	0x3db7ce7e	0.08974932
42	0x3d2f9c11	0.042873446
43	0x3d664cb6	0.0562255
44	0x3caecd51	0.021338137
45	0xbc52d570	-0.01286827
46	0x3dfe595a	0.12419386
47	0xbcab566d	-0.020915234
48	0x3d4a4ee7	0.049391653
49	0xbd07e8bb	-0.033180933
50	0x3d8958d4	0.06706396
51	0xbc8a9f36	-0.01692162
52	0x3aadb40d	0.0013252512
53	0xbcf84c6f	-0.030309884
54	0x3d1d51db	0.03840814
55	0x3d92491a	0.07142849
56	0xbc016c31	-0.00789933
57	0xbdacd8ce	-0.0843979
58	0xbce996db	-0.028514316
59	0xbe0088c0	-0.12552166
60	0xbb84d8c2	-0.00405416
61	0xbd045d62	-0.03231562
62	0x3deab85c	0.11460945
63	0x3ca17aab	0.019711813
