weights_new/DecoderEpochnew100_17_8.pt (torch_old, 123527 bytes, 33 tensors)

attn_layer.0.weight f4 [32, 96]
000000 58 6e 54 bf 4a d9 9c 3e 49 e9 23 bf 9d 44 24 be
       -0.8298087 0.30634528 -0.6402784 -0.16041799
000010 4f 6a 17 be ed c0 9a 3c 1f e1 aa be 12 ab 1d 3d
       -0.14786647 0.018890822 -0.3337488 0.038493223
000020 27 d9 25 3f 57 a8 f7 3e 8f b3 59 be 6d 6d ac be
       0.64784473 0.4837062 -0.21259902 -0.33677235
000030 56 24 b1 3d d6 7f 12 bf b1 ee 94 be d5 b5 0a bf
       0.08649509 -0.5722631 -0.29088357 -0.54183704
000040 3d 94 cf 3e 36 08 13 3f b7 f4 9f 3e 80 49 ec be
       0.40542784 0.57434404 0.3124139 -0.46149826
000050 9b c4 40 be 7f 82 99 3e 2d e3 1e be c9 42 0e 3e
       -0.18824999 0.29982373 -0.15516348 0.13892664
000060 56 6b fe 3d f0 df c4 3e 9d e9 05 3e 24 c8 c9 3e
       0.124228165 0.384521 0.13077398 0.39410508
000070 ff a3 2b 3e 2d 4b 24 3f c3 ab 32 bc 41 13 88 be
       0.16761778 0.6417721 -0.010905209 -0.2657719
000080 41 ae 51 bf 23 d5 f4 3e 9e ec 3f bf 26 01 2b be
       -0.81906515 0.4781886 -0.74970424 -0.16699657
000090 9a 42 a9 bd df 61 c5 3d 10 a6 16 be a6 15 2e 3e
       -0.08264656 0.09637808 -0.14711785 0.17000446
0000a0 7e c8 3c 3f 3a 7a a9 3e c4 9e ad bd e4 d1 9c be
       0.73743427 0.33101064 -0.08477548 -0.30628884
0000b0 d7 21 1e 3f 90 33 24 bf c5 5d 8c be b7 0b 2e bf
       0.61770386 -0.6414118 -0.2741529 -0.67986625
0000c0 36 76 e6 3e 82 88 27 3f 3a 15 bd 3e e3 02 14 bf
       0.45012063 0.6544267 0.36930257 -0.57816905
0000d0 7e 49 66 bd bc 53 37 3e 99 08 7b bd 90 7a 8c 3c
       -0.05622243 0.17903036 -0.061287496 0.017148286
0000e0 a3 35 9a 39 63 8c 05 3f 5c 12 1b 3e 9e 48 91 3e
       0.0002941313 0.5216734 0.15143722 0.28375715
0000f0 71 20 9d 3d 0e c4 25 3f d5 a5 9f 3d b9 0e 5c be
       0.07672203 0.6475228 0.07795302 -0.21489991
000100 3a be 41 3e 0b 09 06 bd aa 3f 55 be ae 50 05 bd
       0.18920222 -0.032723468 -0.20825067 -0.032547645
000110 f8 d4 13 bf a6 16 5b be f6 42 39 be e7 d1 df 3e
       -0.5774684 -0.21395358 -0.1809195 0.4371483
000120 02 92 99 bd 58 f7 56 bf 97 6c 05 be 53 49 ea 3f
       -0.07498552 -0.83971167 -0.13029705 1.8303627
000130 ea 13 12 3e 53 d1 38 3e 7c 8e 42 bf de 1b ca 3f
       0.14265409 0.18048601 -0.75998664 1.5789754
000140 a1 08 7e be 8e 6c 27 40 2d c7 27 3f 2b 5a 86 3f
       -0.24807979 2.6160007 0.65538293 1.0496267
000150 97 b1 0a 3f d2 87 18 3e b0 e3 a7 be 7f de 9b 3e
       0.5417723 0.14895561 -0.327909 0.3044319
000160 5e 7d 96 bd e4 e2 10 bf 25 c7 b5 3e 5f c7 bd 3d
       -0.07348131 -0.5659621 0.35503498 0.09266543
000170 60 cd 0c 3c dc 0c 2f bf ec c8 31 3e 50 1a ca bc
       0.008593887 -0.68378997 0.17361802 -0.02467075
000180 f0 76 51 3f 9d 61 a5 be fc 99 1e 3f 47 c4 96 3e
       0.8182211 -0.32301036 0.6195371 0.29446623
000190 ee 72 ad be b7 1d 41 be 8c 69 68 3e 20 60 6a bd
       -0.33876747 -0.18858992 0.22696513 -0.05722058
0001a0 13 73 0c bf 8c ad b3 be a1 e3 0f 3e 2c e7 bf 3e
       -0.5486309 -0.35093343 0.14051677 0.37481058
0001b0 85 35 c4 3d 66 40 3e 3f 70 04 40 3e 67 d9 e7 3e
       0.095805205 0.74317014 0.18751693 0.45283052
0001c0 f7 df e3 be 98 c4 f3 be f9 d7 b3 be f2 f4 e9 3e
       -0.4450681 -0.47610927 -0.35125712 0.4569469
0001d0 06 7f 06 3e 45 8f a3 be 1f 8f 81 3e 1d 3c 33 be
       0.13134393 -0.31945243 0.25304505 -0.175034
0001e0 90 60 bc be da 00 d6 be 2e 7d 4f be 72 b0 df be
       -0.3679242 -0.41797525 -0.20262596 -0.43689305
0001f0 04 18 3b be 5b 9f fe be 4f a7 5a 3d da 9e a9 3e
       -0.1827088 -0.49730954 0.053382214 0.33129007
000200 ec 9d 5d 3f 91 c1 99 be fe a3 3a 3f 16 d1 7c 3e
       0.86569095 -0.30030492 0.7290648 0.24689135
000210 cd 4b c3 be 1e b8 f5 bd b5 50 8c 3e b8 29 72 be
       -0.3814377 -0.11998008 0.27405325 -0.23648727
000220 f6 72 23 bf f4 cb d3 be 95 39 c8 3b d3 2e d8 3e
       -0.6384729 -0.4136654 0.00611038 0.42223224
000230 09 ad 4c be 79 93 3d 3f 3f c3 cc 3e 38 5c 3b 3f
       -0.19987883 0.7405315 0.3999271 0.7318759
000240 3a 19 d1 be da ae 18 bf b4 a1 ad be 50 8a fe 3e
       -0.4083956 -0.596418 -0.33912432 0.497149
000250 64 8b 01 bd b0 2b 4c be 84 48 49 3e f0 71 96 3d
       -0.031627074 -0.1993854 0.19656569 0.073459506
000260 f5 fa 33 be a6 b6 15 bf 57 58 a8 be ac d1 d9 be
       -0.17576201 -0.58481824 -0.32879898 -0.4254278
000270 8d 8b 22 be 82 ed fc be 4f 00 e9 3b ce 45 c5 3e
       -0.15873547 -0.49399954 0.0071106325 0.3852982
000280 41 fb 97 bd d0 93 9f bd 17 e7 00 3e 2e 94 58 3e
       -0.0742097 -0.07791865 0.12588154 0.21150276
000290 0a ff 38 3e bc 12 d5 3e aa 5d b6 3e d0 03 1a bf
       0.1806604 0.41615856 0.35618335 -0.6016207
0002a0 1b 61 e8 bd 6a b4 59 3f 7f a6 16 3d df 05 d7 bf
       -0.113466464 0.85040915 0.036779877 -1.6798667
0002b0 bc a9 6b be ff d1 9e bd e6 cf 1c 3f 95 2b ba bf
       -0.23013967 -0.07754897 0.6125473 -1.454455
0002c0 29 9f 51 3d 8b 57 21 c0 b7 0f 0c bf bd a2 1f bf
       0.051177178 -2.5209682 -0.5471148 -0.62357694
0002d0 23 12 ee be 52 3a 62 be ad 35 ce 3e c7 d0 8c be
       -0.46498212 -0.2209256 0.40275326 -0.27503034
0002e0 c3 c3 9e bd dc 52 ae 3e b8 fd 98 be 71 41 07 be
       -0.07752182 0.34047592 -0.29881072 -0.13208558
0002f0 1f 53 65 bb 1e 53 e9 3e 67 91 6f be ca 34 ad bc
       -0.003499217 0.45571226 -0.2339531 -0.021143336
000300 75 0d 28 3f 39 ab 33 be 6d ca 0a 3f 39 8f 4d 3e
       0.65645534 -0.17545785 0.5421513 0.20074166
000310 d6 f6 b4 3e 5c a2 fe 3c f0 19 6d 3e 22 f9 8a bd
       0.3534457 0.031083278 0.23154426 -0.067857996
000320 4d 8e b1 be 04 64 80 be b6 97 b0 3e f8 46 66 3e
       -0.3467888 -0.25076306 0.34490746 0.2248801
000330 a8 22 7e 3d fd 9c 20 3e b0 8e ef 3d df 49 82 3e
       0.06204477 0.15684886 0.11697137 0.25446984
000340 92 c1 fc be 76 72 0b bf fb ce 29 be 46 60 06 3f
       -0.49366432 -0.5447153 -0.16582863 0.5249065
000350 fe 65 73 3d e9 2b 5a be 2b 7d 08 3d 5d 34 34 be
       0.05942344 -0.21305813 0.033322494 -0.175981
000360 41 48 78 be c0 86 2c be a1 9d 97 bd e0 d4 06 bf
       -0.24246313 -0.16848278 -0.07403112 -0.5266857
000370 74 19 fa bd 40 c0 05 bf 2b 2c ae bd 30 7c 5f 3d
       -0.12211886 -0.52246475 -0.08504518 0.054561794
000380 0c f8 43 3f 02 aa 10 be f5 95 16 3f de df ac 3d
       0.76550364 -0.14127353 0.58822566 0.08441137
000390 c3 b9 08 3f 1e 12 65 bd b0 70 1d 3e ac 87 98 bd
       0.5340845 -0.05592548 0.15375018 -0.07447752
0003a0 e6 f4 d6 be f4 bc e1 bd e3 14 0a 3f d4 46 c5 3e
       -0.41983718 -0.11022368 0.5393812 0.385306
0003b0 a5 21 9c be bb 87 77 3e fc 44 1c bd 3f dd eb 3e
       -0.3049442 0.24172871 -0.038151726 0.46067235
0003c0 9e 5c dc be e7 5f dd be 6f e3 84 bd 27 78 eb 3e
       -0.4303941 -0.4323723 -0.06488692 0.45990106
0003d0 64 33 6b 3d d5 73 83 bd ab 65 8f bc 7e 15 c4 3b
       0.057422057 -0.064185776 -0.017504534 0.0059840074
0003e0 36 fb 47 3e a9 d3 8e be a4 09 80 be 2f 2c d8 be
       0.19529423 -0.2789586 -0.25007355 -0.4222121
0003f0 e4 86 41 3d b4 33 16 bf e4 dd bd bc 57 08 17 3e
       0.047247782 -0.5867264 -0.023177095 0.14749275

attn_layer.0.bias f4 [32]
000000 2b ca d5 bc 65 dd da bb 91 83 ae be e8 ec fa be
       -0.026097378 -0.0066792243 -0.34084752 -0.4900887
000010 95 a6 ea be ab 76 02 bf 6f 36 82 bf 8e 62 1b 3f
       -0.45830217 -0.5096232 -1.0172862 0.6069726
000020 b1 22 43 3e c0 12 4a be f3 01 1b be 82 d1 05 bf
       0.19056202 -0.19733715 -0.15137462 -0.5227281
000030 0c 46 5c 3e fb 94 3a be 48 89 81 3d f1 bd c0 3d
       0.21511096 -0.18220894 0.063250124 0.094112284
000040 bc 20 d2 3e 1a 77 89 3e b5 8c b8 3e 6a d9 21 3f
       0.410406 0.2684868 0.3604485 0.6322237
000050 c9 6b 56 3d 55 df 19 3e 26 c4 ae 3e 0d 5a 4d 3e
       0.052348886 0.150266 0.34134024 0.20053883
000060 df c9 8b be 01 d8 cf 3e a8 af 38 bc b8 2c fd 3e
       -0.27302453 0.40594485 -0.011272348 0.4944818
000070 7a f0 7d be 0a dd 25 bf d4 37 f4 3e fe 58 42 be
       -0.24798766 -0.64790404 0.47698843 -0.1897926

attn_layer.2.weight f4 [1, 32]
000000 c1 f1 9e bf 7e 4f ab 3f 0c cc 71 3f a2 26 b3 bf
       -1.2417527 1.3383634 0.94451976 -1.3996165
000010 8d 63 81 3f 98 f5 98 3f b4 79 c1 bd d5 02 91 bf
       1.0108505 1.1949949 -0.09447041 -1.1328989
000020 0d e6 a8 3f 60 b8 a3 3f 1a 79 b6 bf 36 34 9f 3f
       1.3195206 1.2790642 -1.4255707 1.2437809
000030 ec 9b 9b bf 53 41 8a be ab 39 a9 bf 54 98 9d bf
       -1.2156959 -0.27002963 -1.3220724 -1.2312112
000040 98 34 93 bf cc e6 81 bf 20 3a ab 3f 51 30 9c bf
       -1.1500425 -1.0148559 1.3377113 -1.2202245
000050 ec 99 b2 bf f7 8e a5 3f 33 ee 9f 3f af 8e af 3f
       -1.3953223 1.2934254 1.2494568 1.3715419
000060 bc 02 aa bf 11 ee 94 bf e2 ad aa 3f f4 43 89 bf
       -1.3282084 -1.1635152 1.3334315 -1.0723863
000070 da bb ad bf 3f 5a c7 bf fa 52 8d bf e3 bc c2 bf
       -1.3572953 -1.5574416 -1.1040947 -1.5213894

lstm_layer.weight_ih_l0 f4 [128, 1]
000000 39 10 a1 3e 23 89 50 be a5 90 cb 3d b1 ee f4 bd
       0.3145769 -0.20364814 0.09939698 -0.11959589
000010 1d c5 b0 be 31 94 68 3d 5e 49 3e 3e ea 21 81 3e
       -0.34525385 0.05678195 0.18582675 0.25221187
000020 af e9 77 3e 51 d9 1d 3e ed 52 1d 3e 05 27 ce be
       0.24210237 0.15414931 0.15363665 -0.40264145
000030 63 31 79 bf a6 a9 cf bd 28 15 84 3e ac 29 30 3e
       -0.97340983 -0.1013978 0.2579739 0.17203397
000040 1d 15 a2 be b1 26 ad bd c6 18 84 be 15 3f 66 be
       -0.31656733 -0.084546454 -0.2580015 -0.22485001
000050 97 1f 0c 3f 8b 8d b3 3e b6 7d 7f 3e b4 f3 41 bc
       0.547357 0.35068926 0.24950299 -0.0118378885
000060 f0 26 7a 3e 22 be 42 be 8b 0b 1d bf da d8 86 bd
       0.24428916 -0.19017842 -0.6134574 -0.0658433
000070 89 7e a8 3d bd ef a3 be 64 7a 7b 3e e9 a7 ff 3e
       0.0822726 -0.32018843 0.24558407 0.49932793
000080 40 6c 30 3f 48 11 e1 3d 35 14 d6 3e a9 65 d6 3d
       0.68915176 0.10989624 0.41812292 0.10468609
000090 8c e5 af bd 90 9c 15 3e 0d 77 ef 3e 54 e2 14 be
       -0.085887045 0.14610505 0.46770516 -0.14539462
0000a0 f7 b1 d5 bd ef 94 d6 3e e6 a3 19 bc f7 81 bd 3e
       -0.10434335 0.41910502 -0.009377455 0.37013218
0000b0 42 17 c7 bf bf eb 2c 3e 29 5e 03 3f 9f b3 d2 bc
       -1.5553973 0.16886805 0.5131555 -0.025720416
0000c0 ec f1 8f 3e 27 69 c4 3e f6 f1 99 3e 3d 81 e4 3e
       0.2811426 0.38361475 0.30067414 0.4462985
0000d0 26 34 9c 3f 17 0b 15 3f 83 98 61 be d9 61 b9 bd
       1.2203414 0.58220047 -0.22030835 -0.09051866
0000e0 f7 e7 bf be 99 33 d9 3d f5 7c 02 bf 99 ce ac 3e
       -0.37481663 0.106055446 -0.5097192 0.33751372
0000f0 77 18 06 be 70 3f 90 3e 5e 89 ef 3d 28 b1 a7 3d
       -0.1309527 0.281734 0.116961226 0.08188087
000100 04 ce 9a be ee d1 75 bd df 44 a0 be fa cb 68 be
       -0.30235302 -0.060014658 -0.31302544 -0.22734061
000110 9f 7d 65 bd a8 14 06 3d 36 d0 b3 be 1c 7b 93 3e
       -0.056028005 0.032734543 -0.3511979 0.28804862
000120 e8 62 82 3e 53 25 58 3d a6 53 23 3e 67 60 2d be
       0.25466084 0.05276997 0.15949878 -0.16931306
000130 bf 46 c6 be 8e 9d 9a bd 83 04 e5 bd 74 37 83 be
       -0.3872585 -0.075495824 -0.11182501 -0.25628245
000140 72 e7 3a 3d e5 a5 86 3e f2 23 f2 bc 96 54 b7 be
       0.04563088 0.26298442 -0.029558156 -0.3580672
000150 96 f8 ef be 8a 80 be 3e 40 5e 90 3d ae 67 02 3e
       -0.46869344 0.37207443 0.07049227 0.12734863
000160 89 d0 05 3f 86 38 98 3c c5 4b bf 3e 5a 27 b8 3e
       0.52271324 0.01858164 0.37362495 0.35967523
000170 8c c5 16 3d 0a 25 85 3d b5 20 a6 bd c8 2e 26 bd
       0.03680949 0.06501205 -0.08111707 -0.040571958
000180 29 a2 2b 3e 43 82 48 bb a1 9c d6 bd 38 93 af 3d
       0.16761078 -0.003059522 -0.10479093 0.085730016
000190 fe 5b 36 be f1 c1 87 be 23 17 a2 be e2 3d 5c 3e
       -0.1780853 -0.26515153 -0.31658277 0.21507981
0001a0 9f 95 a8 3d 94 42 d4 bd 35 3b cc bd 0f 85 0a 3d
       0.08231663 -0.10364261 -0.0997223 0.0338183
0001b0 60 81 6d bf b5 31 be 3e c3 6e 60 3c 87 45 ab 3e
       -0.92775536 0.37147298 0.013698283 0.33451483
0001c0 2e f7 f7 bd f5 fa 3a bd 89 f5 16 3d 61 69 80 be
       -0.12107693 -0.045649488 0.036855254 -0.25080398
0001d0 db 01 6e 3e c9 a5 ae bd 36 d6 06 3e ce e9 67 3d
       0.23242895 -0.08527715 0.13167652 0.056619458
0001e0 0d 85 47 3d 1c 31 bd 3d ca 3a ba bd f6 11 3a be
       0.04871087 0.092378825 -0.090932444 -0.18170914
0001f0 1a 03 ea bd fa e7 ab 3d 2b 6f c9 be 4a 0c e8 3d
       -0.11426373 0.083938554 -0.39342627 0.11330469

lstm_layer.weight_hh_l0 f4 [128, 32]
000000 35 47 9b be e5 ad 18 3e ca 52 49 be 49 0f 32 3a
       -0.30327764 0.14910085 -0.19660488 0.0006792439
000010 8e bf 9c 3e 1b 9d 09 3d 9c 9b c0 be 57 64 25 3e
       0.30614895 0.033597093 -0.3761872 0.16151558
000020 13 90 1f 3e cc cd 16 3f b9 d5 aa 3d dc 9d c1 be
       0.15582304 0.5890777 0.083415456 -0.3781575
000030 30 9a cc be c5 87 c2 be 8e 92 f8 be b5 4f 01 bd
       -0.39961386 -0.3799421 -0.48549312 -0.031570155
000040 73 d4 e8 3d fd de 72 3e 1d ff a2 3d ac eb a2 be
       0.113686465 0.23717876 0.07958815 -0.31820428
000050 ab b9 21 bf 41 6c 11 3f 65 4f 85 bd 7c 33 82 3e
       -0.6317393 0.5680581 -0.06509284 0.25429904
000060 16 2c f7 3d c3 ef 63 3e ec 6d dd 3e c7 2a c1 3e
       0.120689556 0.2225943 0.43247926 0.3772795
000070 aa 82 5b 3e 19 e6 c8 3e 8e 72 50 be 8d b1 6c be
       0.21436563 0.3923805 -0.20356199 -0.23114605
000080 62 1e 87 be 5d e4 89 3e 8a 36 8e bb dc f2 94 bd
       -0.26390368 0.2693204 -0.0043399977 -0.07272884
000090 0f 4c 6a 3e e0 71 55 be 05 ce c8 be 0e 89 43 3e
       0.22880577 -0.20844221 -0.3921968 0.19095251
0000a0 33 fc 90 bd 62 d2 88 3e 14 be cc 3e b8 9f 62 be
       -0.07079353 0.2672301 0.39988768 -0.2213124
0000b0 a9 c1 de be e0 67 4b be 50 2d 77 be f8 4b e4 bd
       -0.43507126 -0.19863844 -0.24138379 -0.111473024
0000c0 aa 52 7f 3d 27 71 49 3e 21 e6 42 3d d5 37 89 3d
       0.062334694 0.1967207 0.04758275 0.06700102
0000d0 f9 6f 72 be 65 27 cc 3e f3 66 27 be f1 fe 85 be
       -0.23675527 0.39873806 -0.16347866 -0.26171067
0000e0 dd df bd 3d a9 63 af 3d 45 16 9b 3e d1 79 1a 3e
       0.09271214 0.085639305 0.30290428 0.15085532
0000f0 3f 50 0f be 10 96 49 3d 52 7d c3 3e 10 0b dc be
       -0.13995455 0.049215376 0.3818155 -0.4297719
000100 8f 59 23 be ba d8 5a 3e dd 2a 10 be 45 ab 12 3c
       -0.15952133 0.21371737 -0.14078851 0.008951967
000110 59 02 8c 3e d1 6a c9 3e 8a 0d 10 be 7d 8d 8d 3e
       0.2734554 0.39339307 -0.14067665 0.2764701
000120 6a 68 89 3c 1c 47 3c 3e b4 9d 3b bb 8f 4e 8c be
       0.016773421 0.18386501 -0.0028627934 -0.27403685
000130 35 63 bd be 27 95 c2 be d5 79 44 be aa 7a 4e be
       -0.3698975 -0.3800442 -0.191871 -0.2016398
000140 80 00 c1 3d 7f 61 8e 3e c7 8c a7 3e da 83 d4 be
       0.094239235 0.2780876 0.32724592 -0.41506845
000150 be 9f 1d bf b8 d1 8a 3e ea 6e 8c bd 57 2f 81 bd
       -0.6157187 0.27113128 -0.06857093 -0.063078575
000160 64 98 02 3e c0 1c 98 3e e9 b4 8e 3e 76 66 22 3e
       0.12753445 0.29709435 0.27872398 0.15859398
000170 5c 8c 35 3e f2 24 8f 3e a5 2c ac bd 96 15 a4 be
       0.17729324 0.27957875 -0.08406953 -0.3204772
000180 54 34 b8 be 64 2d 80 3d 5a 6a 11 bf 8d 4a 71 3e
       -0.35977423 0.062586576 -0.56802905 0.23563595
000190 01 30 89 be 1b 51 af 3e 1a 6c 16 bf 09 22 49 3f
       -0.26794437 0.34241566 -0.587587 0.7856756
0001a0 25 8b 26 3f 2e 9d 03 3f 62 5a a3 be c7 26 e2 be
       0.6505607 0.5141171 -0.31904894 -0.4417021
0001b0 b6 01 02 bf 8d 33 01 bf 45 94 11 bf a8 b1 01 bf
       -0.5078386 -0.50469285 -0.56866866 -0.50661707
0001c0 f7 86 b5 3e 9f 4a d7 3e 16 be 45 3e d9 fa f3 be
       0.35454533 0.4204912 0.19310793 -0.4765232
0001d0 05 95 a1 be a2 b6 25 3f db ea 8f 3c db d4 d2 3d
       -0.31559005 0.647318 0.017568043 0.10294505
0001e0 45 7e 9a 3d 12 9f b0 3e bc ab e9 3e ff 89 3a 3f
       0.07543615 0.3449636 0.45638835 0.72866815
0001f0 5d 60 95 3e 0c b0 01 3e e4 93 82 bd 10 56 33 bf
       0.29175082 0.12664813 -0.06375864 -0.70053196
000200 ff 05 dd 3d e0 6a 81 bd d3 10 92 3d b3 cf 37 3e
       0.10792159 -0.06319213 0.07132115 0.17950325
000210 14 52 a9 3e 8a a2 86 be b7 7f 01 3e f9 8a f2 39
       0.33070433 -0.26295882 0.12646376 0.0004626138
000220 58 dc e8 3d 06 a0 58 3d ac 71 3d 3e b7 60 c4 3d
       0.11370152 0.052886985 0.18500394 0.095887594
000230 29 5d a4 3e 41 98 e6 bc 16 67 37 be 49 c4 11 be
       0.32102326 -0.028148772 -0.17910418 -0.14235033
000240 d6 8a 9c bd 5f 4d 25 3a fe c1 e6 bd dd 1a 47 3e
       -0.07643668 0.00063057797 -0.1126747 0.19443841
000250 e2 bd 0e 3e 1b e2 d4 3d 8e 08 92 be 24 ac 7f bd
       0.13939622 0.10394689 -0.28522152 -0.062420025
000260 2c 50 02 3d 20 0e 8b 3d b2 06 25 3d 39 ae d0 3c
       0.03181474 0.067898035 0.04028959 0.0254737
000270 2a 08 95 bb a9 0b 91 3d 4e d0 2f 3e 77 21 98 bd
       -0.0045480924 0.07082302 0.17169306 -0.07428258
000280 7e 50 86 3e 59 65 71 bd bf f5 4b 3d 92 83 9c 3b
       0.26233286 -0.058934543 0.04979491 0.0047764266
000290 cb 99 40 3e 7e 82 d1 bd a0 ca 8a 3d f6 80 eb 3e
       0.18808667 -0.102299675 0.06776929 0.45996827
0002a0 d0 6f 9f 3e 49 a2 9b 3e a3 eb a1 3d ce 29 c0 be
       0.31139994 0.3039725 0.07906272 -0.37531894
0002b0 bf 8a 14 bf 96 d7 8a be 6b 5d 51 be df af 98 be
       -0.5802421 -0.27117604 -0.20445792 -0.2982168
0002c0 20 65 4e 3d 7b 28 7a 3d 38 12 84 be d7 62 ca be
       0.05038941 0.06107376 -0.2579515 -0.39528534
0002d0 89 7c d2 3d 8a 4f 83 bd 8f 62 b3 be ce b6 10 be
       0.102776594 -0.06411655 -0.35036132 -0.14132234
0002e0 51 56 4c 3c fd 7b 83 3d e4 ba d0 3e 23 11 0a 3e
       0.012471751 0.06420133 0.40767586 0.134831
0002f0 b4 d3 ca bd 20 73 3a bc 4d 8b 12 3e 74 bf bf be
       -0.099036604 -0.011379987 0.14310952 -0.37450755
000300 d7 bc 04 bf f5 ff 39 3d 90 61 c3 be 00 f2 3a be
       -0.51850647 0.045410115 -0.38160372 -0.18256378
000310 e6 a4 0b be 31 8b ca 3d 50 f1 00 bf 1c 2c f9 3d
       -0.13637123 0.0988983 -0.50368214 0.12166616
000320 b7 49 4b 3e 9a 52 1a 3f c9 1f 67 bd da 58 cd be
       0.19852339 0.6028229 -0.056426797 -0.4010685
000330 96 35 25 bf 23 d3 b5 be f9 a5 f9 be 05 96 e5 3c
       -0.6453489 -0.35512647 -0.4875944 0.028025636
000340 6e 49 64 3e 24 a3 8b 3e bd 94 3a 3e 9d f5 06 bf
       0.22293636 0.27272904 0.18220802 -0.52718526
000350 39 2f 0d bf 8f d8 f7 3e b7 24 b7 3d 7c 8a e5 bc
       -0.5515018 0.4840741 0.0894255 -0.028020136
000360 ce 41 bf 3d 4f 73 4e 3e aa 9b f6 3e cb 75 02 3f
       0.09338723 0.20161174 0.48165637 0.5096099
000370 74 4d 8f 3d fe 14 61 3e 4c 95 6d be b3 7b 89 be
       0.06997195 0.21980664 -0.23201483 -0.26852188
000380 9a d5 c9 3c bc 46 63 3e 97 84 37 3e 46 dd a4 3e
       0.024637986 0.22194952 0.17921673 0.32200068
000390 73 79 03 3d 66 dc c5 be 91 63 a0 3e 47 67 91 3e
       0.032098245 -0.38644713 0.31325963 0.28399107
0003a0 2b 52 e2 3e b1 c1 aa 3d e3 ad 74 3e f5 96 8e bd
       0.44203314 0.08337725 0.23894458 -0.069623865
0003b0 4c a6 40 3e 5c 77 d0 be 99 8c a3 be 67 a5 cc be
       0.18813437 -0.40716064 -0.31943205 -0.39969942
0003c0 13 78 c0 bd 65 0f a4 bc 2c 1a 94 be d0 d4 34 bc
       -0.09397902 -0.020026872 -0.28926218 -0.011037067
0003d0 fc a2 4e 3e fb 4b 4d be ee cb e1 be e2 01 f1 be
       0.20179361 -0.20048515 -0.44100899 -0.4707175
0003e0 2d 72 0e be cc e6 2f bd 76 34 0c 3e c9 ee 7b be
       -0.13910742 -0.042944714 0.13691887 -0.24602808
0003f0 d1 f0 6b be 59 7e 75 bd c5 97 07 3f 08 95 0c bf
       -0.23041083 -0.059934948 0.52965957 -0.54914904

lstm_layer.bias_ih_l0 f4 [128]
000000 5e 0c 23 be 57 89 2c bf 6b c3 61 3c 7b 3b b2 be
       -0.15922686 -0.67397064 0.013779501 -0.34811005
000010 6c a6 21 be 36 a6 0e bf 54 68 97 be 02 f0 2c bf
       -0.15786141 -0.5572237 -0.29571784 -0.6755372
000020 d1 92 32 bf 23 2a 09 bf d2 c9 d4 be 41 df 8b be
       -0.69755274 -0.5357992 -0.41560227 -0.27318767
000030 db 0f 3d bf 74 66 bf be 24 d3 4c bf da d0 1b bf
       -0.7385232 -0.37382853 -0.80009675 -0.6086556
000040 81 cd 0d be fc ac 2f be 97 9c 39 be 32 f0 cd be
       -0.13847925 -0.17155832 -0.1812614 -0.40222317
000050 4e 65 f0 be b9 ea 52 be 33 d8 5e be 43 94 9c be
       -0.4695229 -0.20597352 -0.21762161 -0.30581865
000060 aa 59 3e 3e 4d f5 e0 be 6a 47 48 bf 9f a8 a6 be
       0.18588892 -0.4393715 -0.7823397 -0.32550523
000070 7a f8 1d bf 2e 4a a2 bd 74 c7 b9 be 0b 03 9e be
       -0.6170727 -0.07924305 -0.36284983 -0.30861697
000080 6c 1a 86 be 5f 98 06 bf f2 46 e2 bb 9e 14 c3 be
       -0.26192033 -0.5257625 -0.00690543 -0.38101667
000090 8e 9b 46 be 64 14 59 be 74 99 c9 be 78 ad 5e be
       -0.19395277 -0.21199185 -0.39374888 -0.2174586
0000a0 aa 1f 3e bb a7 c3 ae bd c1 da be bd 14 02 7c be
       -0.0029010572 -0.085334115 -0.09319068 -0.24610168
0000b0 22 31 4d bf 47 51 6d be 4c 06 d3 bd 9d bd c7 bb
       -0.80153096 -0.23175536 -0.103039354 -0.0060956017
0000c0 8f 3e b0 be 7a ed 03 be 40 51 96 be 69 18 14 bd
       -0.34422728 -0.12883559 -0.29358864 -0.03615609
0000d0 7c ff c1 be 55 fa c9 be 4f be fb bc 10 13 f8 be
       -0.37890232 -0.394488 -0.030730395 -0.48452044
0000e0 90 c0 4d bf a4 bf 3c be f2 12 8a be 7f 64 2d be
       -0.8037195 -0.1843248 -0.2696758 -0.16932867
0000f0 1a 3f 18 bf 69 df 01 be 50 09 e1 bd d3 25 61 3d
       -0.59471285 -0.1268288 -0.10988104 0.054967713
000100 12 77 0b 3e ae 72 ce 3d fb 38 d8 3d da e9 81 3d
       0.1361964 0.10080467 0.10557743 0.06343432
000110 1c 1a a4 bd ec 71 99 3d 49 05 69 3e ef 69 33 be
       -0.080127925 0.07492432 0.22755922 -0.17520879
000120 51 fa 3f be d6 fa 14 be f3 8f 8e 3d 24 5e e3 3d
       -0.18747832 -0.14548811 0.0696105 0.1110194
000130 1d 27 14 3e 6c 80 09 bd bc 16 52 3e 11 7e 72 3e
       0.14468046 -0.03356974 0.20516485 0.23680903
000140 46 ae e8 bd 7c 4c 03 be d0 ac 40 bd 01 56 58 3e
       -0.11361365 -0.12822145 -0.047039807 0.21126558
000150 43 77 16 3e d3 95 8c bd 27 34 8d 3d 8c 42 83 3d
       0.14693932 -0.06864514 0.06894713 0.06409177
000160 35 f4 fb 3d b8 1c 62 bd 07 c6 ac bc 92 4b f2 3c
       0.12302438 -0.05520317 -0.02109052 0.02957705
000170 1f 20 4b 3e 19 92 d7 3d 67 47 d6 3c 96 71 24 3e
       0.19836472 0.10525913 0.026157094 0.16058955
000180 9a 30 6f be 58 1a e3 be 56 73 a4 be d5 80 7a be
       -0.23358384 -0.44356036 -0.32119244 -0.24463208
000190 2d f4 ee be bd cb 48 be 93 1b e0 be b6 4b 04 bf
       -0.46670666 -0.1960897 -0.43771037 -0.51678026
0001a0 00 18 14 bf 76 e8 08 bf db 96 5d be 26 b0 a5 be
       -0.5784912 -0.5347971 -0.21639578 -0.32360953
0001b0 b9 72 1e bf a2 1a fe be e8 a3 42 bf d7 ce 20 bf
       -0.618938 -0.49629694 -0.7603135 -0.6281561
0001c0 c8 3b c9 bd 28 c4 53 be 9e 8a a8 be 99 80 8d be
       -0.098258555 -0.20680296 -0.32918257 -0.27637175
0001d0 a7 77 e0 be 9c 34 3b be 0c 98 41 be 0d 4f bd be
       -0.43841287 -0.18281788 -0.18905658 -0.36974373
0001e0 95 c1 c7 3e 25 fe d9 be 73 f2 c4 be a2 d3 be be
       0.3901488 -0.4257671 -0.38466224 -0.37270838
0001f0 ed e6 da be 7f 1f 72 be 13 b3 df be 94 a4 b7 be
       -0.42754307 -0.23644827 -0.4369131 -0.3586775

lstm_layer.bias_hh_l0 f4 [128]
000000 3a 98 0b be 46 50 2f bf 25 a4 34 be 3d 32 8c be
       -0.13632289 -0.6848186 -0.17640741 -0.2738208
000010 9b 30 c7 be 0b b9 87 be 33 e4 d8 be ac 2c f1 be
       -0.3890427 -0.26508364 -0.42361602 -0.47104394
000020 cc 1c f7 be 26 c4 29 bf 66 10 d0 be a4 3e cf be
       -0.48264158 -0.66314924 -0.4063751 -0.40477479
000030 8b 50 22 bf d9 db 4c be 72 fe 45 bf 7b a2 2e bf
       -0.6340415 -0.2000574 -0.7734138 -0.68216676
000040 d7 e9 97 be 0d a3 49 bd 5a d1 d9 be cd f4 b5 be
       -0.29670593 -0.049227763 -0.42542535 -0.3553833
000050 68 4c 9f be ef 6b b6 be 2d 16 94 be 01 17 c5 be
       -0.3111298 -0.35629222 -0.2892317 -0.38494113
000060 58 99 3f 3e b0 36 00 bf cd e8 3c bf 0c e8 b2 be
       0.1871084 -0.50083447 -0.73792726 -0.34942663
000070 7c 2c 16 bf d9 7d 85 3d 79 55 96 be 9c 1b f0 be
       -0.5866163 0.06518144 -0.29362085 -0.46896064
000080 f0 d3 46 be 68 3f ca be 0a 1d f1 bd 90 5e af be
       -0.19416785 -0.395015 -0.11773117 -0.34251833
000090 53 9b dd be d2 b1 d7 be b6 6b a5 be e2 a2 33 be
       -0.43282565 -0.42127854 -0.3230874 -0.17542604
0000a0 65 d4 59 be 70 59 bd be 08 8a a3 be eb 27 9b be
       -0.21272428 -0.36982298 -0.31941247 -0.30303892
0000b0 07 1b 40 bf 20 c9 c6 be ba 2f a4 be 2b 05 30 bc
       -0.7504124 -0.3882532 -0.32067662 -0.01074342
0000c0 d7 5e 97 bd 05 57 6d be 18 0b d2 be 12 82 88 bd
       -0.07391136 -0.23177727 -0.4102409 -0.06665434
0000d0 56 ea ae be 35 aa c0 be 8f b9 14 3d 46 3c 22 bf
       -0.3416316 -0.37629858 0.036309775 -0.6337322
0000e0 7e 25 18 bf e6 15 9d be d3 18 85 bc e9 69 34 be
       -0.5943221 -0.3068077 -0.016247189 -0.17618527
0000f0 06 72 bc be 96 ea 06 be 1b 9a 80 be 01 08 cd bd
       -0.36805743 -0.13175425 -0.25117573 -0.10011292
000100 71 d7 0c 3d 01 ee 46 be 90 b0 1e 3d f1 84 ce bd
       0.03438515 -0.19426729 0.038742602 -0.1008395
000110 82 30 68 3d 3a 31 df bd ed 57 6c bd 37 91 f1 bd
       0.056686886 -0.10898061 -0.05770104 -0.11795276
000120 dd 8c 92 bd cb 43 f8 bd 70 a2 b9 bd 56 7c e6 bc
       -0.07155774 -0.121223055 -0.090641856 -0.02813546
000130 a1 83 25 bd 6b c0 31 3e 11 ee 80 3d 4a b4 bc 3d
       -0.040408734 0.17358558 0.062954076 0.09214075
000140 a0 ed c3 3d 90 60 f0 3b 27 da ec 3d 6b 2f 1c bd
       0.09566808 0.00733573 0.11565047 -0.03813116
000150 10 36 e7 bc 28 de 95 bd e9 d3 02 3e 77 b8 b3 3d
       -0.028224021 -0.073177636 0.1277615 0.08775418
000160 e5 ec de bd 58 04 7a bd 3c 17 fd bd 61 9e 25 be
       -0.10885028 -0.0610393 -0.12357947 -0.16173698
000170 b9 ae cf bd aa ec bb 3c bc 7f 41 3b cc eb 26 3d
       -0.101407476 0.022939999 0.0029525599 0.040752217
000180 cf 2e 4f be df c9 37 bf 22 cc 7e be e4 1f 90 be
       -0.202327 -0.71792406 -0.24882558 -0.2814933
000190 a2 17 b2 be 3a 11 90 be 14 27 b8 be a0 bc ea be
       -0.34783655 -0.28138143 -0.35967314 -0.45847034
0001a0 e9 fc 93 be 3a 33 31 bf ce 54 86 be a2 c8 55 be
       -0.28903893 -0.6921879 -0.26236576 -0.20877317
0001b0 3f 5b 3f bf 41 97 8d be 43 e8 4c bf 87 23 00 bf
       -0.74748605 -0.2765446 -0.80041903 -0.5005421
0001c0 c4 e6 c9 be bf 57 90 be 12 e0 40 be ca 92 dc be
       -0.39433873 -0.28191945 -0.18835476 -0.4308074
0001d0 67 16 3b be 73 06 23 be 90 2e 4c be db e6 9d be
       -0.18270265 -0.15920429 -0.19939637 -0.3084019
0001e0 f8 81 61 3e a6 04 a8 be c2 bf c3 be f9 2e 83 be
       0.22022235 -0.32816046 -0.38232237 -0.25621775
0001f0 18 fa 31 bf 23 f9 57 be b5 4e 81 be c6 7c 75 be
       -0.6952224 -0.21091132 -0.2525536 -0.23973379

fc.weight f4 [1, 33]
000000 a8 31 7c 3e 60 6e 00 be 5d 5e 1f 3f 04 6a c8 3e
       0.24628317 -0.12542105 0.6225336 0.39143384
000010 23 e0 74 c0 c1 0e 6c bd 42 35 89 bf fb 1e 08 3f
       -3.8261802 -0.057631258 -1.0719378 0.5317227
000020 5f eb d9 3e 9a 00 18 be ef ef 50 3e 69 06 0c 3f
       0.42562386 -0.1484398 0.20404027 0.5469728
000030 a7 24 91 3d 57 cc 21 be 7f 0e be bd 1d c5 3d be
       0.07087069 -0.15800606 -0.09280109 -0.18532224
000040 e1 1b c7 3f f4 ce 10 3f d6 7e b1 3d d9 97 d0 bd
       1.5555383 0.56565785 0.0866677 -0.10185213
000050 e7 d5 62 3e f8 bf 94 bf 2d 19 18 bf db 8f f3 bd
       0.2215191 -1.1621084 -0.59413415 -0.11892673
000060 a3 1c 1c bf 56 9f c4 bf 4f 66 d0 3d 8f 41 94 bf
       -0.60981196 -1.5361125 0.10175764 -1.1582507
000070 b3 86 d0 3f 27 91 b9 bf 04 a5 08 3f 4f b2 bc bf
       1.6291107 -1.4497422 0.53376794 -1.4741915
000080 25 ad e4 3f
       1.786534

fc_final1.weight f4 [32, 64]
000000 e1 fd f3 bd 14 59 f1 3d 42 85 86 bd ee ee 76 bd
       -0.11913658 0.117845684 -0.06568386 -0.060286455
000010 56 9a d2 3c 96 44 0a bc e8 2d 1a 3d 42 87 de 3c
       0.025708359 -0.008439204 0.037641436 0.027164105
000020 9e fb b7 3d 30 1e 0e 3d 67 9d 9b bd 40 57 06 3e
       0.08983539 0.034696758 -0.075983815 0.1311922
000030 ce 99 9a 3d 14 35 b9 bd c9 06 ad 3d 27 f9 81 bd
       0.07548867 -0.09043327 0.0844856 -0.0634635
000040 87 3d da 3d b8 c6 fe bd c8 5a 14 bd 6b 9f 56 bd
       0.10656267 -0.12440246 -0.03621939 -0.052398127
000050 c9 bf 2b 3d 28 5e 8e bd 1d 1a 47 3d 50 65 cc 3d
       0.041930947 -0.06951553 0.048608888 0.09980261
000060 33 e7 f2 bc 98 62 e6 3d eb e5 43 bd cc 2f 53 3c
       -0.02965126 0.11249274 -0.04782669 0.012889814
000070 1e 0f 91 bd 4c be b3 bd c5 7f 27 bd 98 86 63 ba
       -0.070829615 -0.087765306 -0.040893335 -0.0008679419
000080 3b 0f e9 3d ef 4d b2 3d 12 c0 dd bc 7b d5 3a bd
       0.11379858 0.08706271 -0.027069125 -0.045613747
000090 d1 86 34 3e 1d d4 03 be ec 1f b2 3d 51 40 74 3d
       0.17629553 -0.12873884 0.08697495 0.05963165
0000a0 57 88 9c 3d ff ad 11 be 89 d6 03 bd 25 77 c2 bc
       0.07643192 -0.1422653 -0.03218702 -0.023738453
0000b0 0b 28 1b bd 0a b6 43 bd f1 7f 42 3d 16 d9 67 bd
       -0.037879985 -0.047781028 0.047485296 -0.056603514
0000c0 49 21 dd 3d df 3e af bd 30 3a 79 3d 84 61 e6 bd
       0.10797364 -0.085569136 0.060846508 -0.112490684
0000d0 5e 9e 30 bd a6 6f 87 bd 41 16 da bb f2 aa 0a be
       -0.04311978 -0.06613092 -0.006655485 -0.13541773
0000e0 bb e8 4c 3d 97 01 93 3c cc 3a 11 3e c1 4f 13 3e
       0.050026637 0.017945094 0.14182585 0.14385892
0000f0 41 c0 8f bd 32 46 33 3d 6c d0 08 be 10 a0 cb bc
       -0.070190914 0.043768115 -0.13360757 -0.024856597
000100 38 10 71 3d d5 8a 0c bb dd a4 75 3d 78 23 1b be
       0.058853358 -0.0021445055 0.05997168 -0.15150249
000110 65 2f 16 3e 44 83 4d bd 4f f6 74 be af 24 9a 3d
       0.14666517 -0.050174013 -0.23922084 0.07526528
000120 74 43 8b bd d3 72 e4 3d 57 7c 74 3d e7 b4 4b bc
       -0.06799975 0.111547135 0.059688892 -0.012433267
000130 9b fe b3 ba 27 f2 fa bd 68 d0 02 be e4 26 0c bc
       -0.0013732495 -0.12253218 -0.12774813 -0.008554194
000140 f7 51 1d 3d 4f d6 f0 3d 04 3f d9 3b 8f fb 56 3c
       0.038408246 0.11759626 0.0066298265 0.0131215
000150 be 1b 42 be 0f f7 56 3e bb 04 93 bd 58 4c 1e bd
       -0.18955895 0.20992683 -0.07178637 -0.038647026
000160 af 76 50 3e a1 ca dc bc f5 56 c9 3c 8c 2b 94 3d
       0.20357774 -0.02695209 0.024577597 0.072348684
000170 7d 73 c9 bc f6 3a ab 3d e1 57 1e 3d 18 3b d2 bd
       -0.024591202 0.08360855 0.038658027 -0.102651775
000180 7a 4e 2e bb 04 58 ae 3d 1f 89 aa bd 80 bc 37 be
       -0.0026597069 0.085128814 -0.08326935 -0.17943001
000190 83 50 04 be a0 92 9f 3c 7b a1 a7 bd 9b b8 3c bd
       -0.12921338 0.019479096 -0.08185097 -0.04607449
0001a0 b2 3a 70 bd 10 53 0b 3d 28 22 f0 bd 1b 40 95 3d
       -0.058649726 0.03401476 -0.11725265 0.07287618
0001b0 77 9a 10 be 76 ee 60 be 28 21 0c be 00 b8 87 3c
       -0.14121424 -0.21965966 -0.13684523 0.01656723
0001c0 58 19 3e bd c8 3c 73 3c 08 bd a2 bd 31 b7 8f bc
       -0.04641089 0.014846034 -0.07946211 -0.017543407
0001d0 7d 35 bb 3d 68 33 48 3d 24 cb 2c 3e e9 f3 7d bd
       0.091410615 0.04887715 0.16874367 -0.06200019
0001e0 af e4 78 3c d7 94 11 be 26 87 75 be 41 bd 32 be
       0.015191241 -0.14216934 -0.23977336 -0.17455007
0001f0 b6 65 93 bd 20 2d 32 bd 68 a8 d6 3c 5c 33 cf bc
       -0.07197134 -0.043500066 0.02620335 -0.025293045
000200 8b 92 0e 3c 86 0a 0a bd f7 d0 ab 3d 3f 1f 5b bd
       0.008701931 -0.033701442 0.08389466 -0.053496595
000210 1c 60 6c 3c d3 75 3a bd 5b e5 c9 bd 27 f2 76 bc
       0.014427211 -0.045522522 -0.09858199 -0.015072382
000220 f6 3b 44 bd cd ae c5 bd 7c a4 fb 3d 2d 01 d7 bd
       -0.047908746 -0.09652481 0.12287232 -0.10498271
000230 f3 c3 4d 3d f2 71 5a 3d 75 a7 43 bd 26 e6 0d bd
       0.0502357 0.053331323 -0.04776712 -0.034643315
000240 3e 6e bc bd 10 a5 c2 3d e6 bd cd 3c cd f3 ba bc
       -0.092007145 0.095041394 0.025114965 -0.022821331
000250 88 64 ee 3d b7 34 2e 3d 7f ce 04 3d 65 75 58 bc
       0.116402686 0.04253074 0.032423493 -0.013211583
000260 21 45 74 bd 38 63 99 3c 00 96 f5 3b 3d f9 07 be
       -0.05963624 0.018724069 0.007494688 -0.1327867
000270 3f c8 97 3d 84 4f cf bd 25 dd de bd 00 55 15 bd
       0.07411241 -0.10122588 -0.10882024 -0.036458015
000280 33 13 b9 bc 61 67 ff 3b af aa c3 3d 98 65 f9 bc
       -0.022592163 0.007794306 0.0955404 -0.030443951
000290 15 55 27 be 28 50 bd bc 58 b9 78 3d 84 47 e3 bb
       -0.1634105 -0.02310951 0.060723633 -0.0069360156
0002a0 f2 b0 c5 bc d8 85 66 3c fb 27 65 bc 8d 10 7e 3c
       -0.024132226 0.014069997 -0.013986583 0.015506876
0002b0 92 20 9a bd 8d ce 0a bd d6 65 78 3d 32 1c 12 3e
       -0.075257435 -0.03388839 0.060643993 0.14268568
0002c0 74 ba 56 bd 9c 6f f8 bd c1 d8 30 bd 15 e1 13 3d
       -0.05242391 -0.12130663 -0.043175463 0.036103327
0002d0 a2 e8 99 bb 09 95 f7 bd 7f e6 ac 3d 78 6a 06 3e
       -0.0046969214 -0.12088973 0.08442401 0.13126552
0002e0 8f f8 bd 3c 50 db eb bd 80 9b 17 be a6 b1 80 3d
       0.023189811 -0.1151644 -0.14805412 0.06283884
0002f0 06 fa f7 3b d0 21 0c 3d 3b 69 fe 3d 39 eb ab 3e
       0.007567647 0.034211934 0.12422415 0.33577898
000300 63 95 e7 bc 27 94 a1 bd 53 05 c3 3d 13 b4 97 bd
       -0.028269475 -0.07889586 0.095225 -0.07407393
000310 90 93 51 bc 68 2c 95 bc 38 52 ab be e6 55 4b 3d
       -0.012791529 -0.018209651 -0.33461165 0.049642466
000320 00 0b 75 3c 7e 53 83 3d 1e 32 dc 3d 3e 59 ab bd
       0.014956236 0.06412409 0.107517466 -0.08366631
000330 fe c9 38 be 93 cd f5 3c f8 f7 17 be 3c 84 3e 3d
       -0.18045804 0.030005252 -0.14840686 0.046512827
000340 19 af 6a 3d 56 1a ff bd bf 7b 8c 3d c4 0c c0 3d
       0.057295892 -0.12456195 0.0685954 0.09377435
000350 3a c1 12 be 9c 15 22 3e 4c 41 00 3d e9 82 ea 3c
       -0.14331523 0.15828556 0.031312272 0.028626876
000360 bd 4f 1f 3d 98 cf 84 bc d5 b8 96 bc 15 26 b9 3d
       0.038894404 -0.01621227 -0.018398682 0.09040467
000370 3a 1b 84 3d 66 84 8e 3c d7 2b 3a 3d 6a 74 29 be
       0.064505056 0.017397117 0.045451965 -0.16548315
000380 ec ff 5e bd a3 f0 68 3d 81 bc 96 bd 60 6f 0a be
       -0.054443285 0.056870114 -0.07360173 -0.13519049
000390 d6 94 05 be d2 58 fd 3d 79 51 89 3c 43 31 2d be
       -0.13045058 0.12370457 0.016762482 -0.16913323
0003a0 cb 3d 58 3c 06 36 05 3c 45 a3 ee bc 0d 6e 42 3d
       0.013198326 0.008130556 -0.029130587 0.047468234
0003b0 3c 9a 34 bb 15 c2 58 be ae 65 ff 3d a3 60 78 3d
       -0.002755775 -0.21167786 0.12470566 0.060639035
0003c0 af 9f a0 bc 87 3a 80 bc 6d a4 20 3e a3 e4 59 3d
       -0.019607393 -0.015652908 0.15687723 0.05319656
0003d0 e3 4e 94 3d b1 71 b5 3d aa de 59 3e 09 6e 0a be
       0.07241609 0.088595755 0.21276346 -0.13518538
0003e0 08 ba 40 3e c6 5b 86 bd 87 f8 3e be c5 be 24 bc
       0.18820965 -0.06560473 -0.18649493 -0.010055249
0003f0 fb 0a 3b 3c 3f ed ea bc 4f d9 91 bc c9 2c a4 3d
       0.011416192 -0.02867758 -0.017803816 0.080163546

fc_final1.bias f4 [32]
000000 94 9a 8b bc 4f b4 45 3d 00 6a fd bc 29 67 02 3d
       -0.017041482 0.04826766 -0.030934334 0.031836662
000010 e1 14 56 3d c8 04 ec bc b4 0c f9 3d 93 0a 31 bb
       0.052266005 -0.028810874 0.12160626 -0.002701436
000020 69 9b b9 3d 1e 68 67 bc ba e9 37 3c 75 c2 69 bd
       0.09062845 -0.014123945 0.011225158 -0.057070214
000030 17 f3 18 3d ca 81 aa 3d 3a d8 c1 bd 5b 30 54 3b
       0.037341204 0.083255365 -0.0946507 0.0032377455
000040 da 39 49 3c ad 01 31 bd f8 49 82 3b 93 b9 23 3c
       0.012281859 -0.04321449 0.003976103 0.009992975
000050 20 1f 3e bb 2b 41 9d bc d7 a4 f8 3b 48 f5 da 3c
       -0.0029010251 -0.019196114 0.00758801 0.026728287
000060 51 17 21 bd 6f 98 d1 bd bf bd 87 bc c1 cb 02 3d
       -0.039328877 -0.102341525 -0.01656997 0.031932596
000070 d4 60 a5 bc cc 85 ac bc da 78 91 bc 4f ba 43 3d
       -0.020187773 -0.021059893 -0.017757822 0.0477851

fc_final2.weight f4 [1, 32]
000000 f7 b8 ed 3b a3 10 fd 37 c0 dc db bb d0 87 af bb
       0.0072547155 3.0167697e-05 -0.006709665 -0.0053567663
000010 c3 09 b7 3c 28 32 9c bb 3f bc b5 3d a5 89 18 3b
       0.022343522 -0.0047667213 0.08873796 0.0023275402
000020 08 1e d5 3d dc 5e 02 bb 46 cd 78 bc d0 ac 41 bb
       0.10406119 -0.0019892966 -0.01518566 -0.0029552467
000030 5b 7c cc 39 44 66 aa 3d 67 5a 7b bd 5c de 13 3d
       0.00039002564 0.08320287 -0.06136551 0.03610073
000040 34 30 c2 3b af e0 dd bc c8 f7 0d 3b c7 0f 10 3c
       0.0059261564 -0.027084677 0.0021662582 0.008792824
000050 f3 1f 7f bc 9e 86 b7 3c d5 f5 0b 3a c9 07 31 3c
       -0.015571582 0.022403058 0.0005339061 0.010805079
000060 9a 22 f3 3a ab fa ca bd 95 e0 0f bb d0 81 da 3b
       0.0018549741 -0.09911092 -0.002195393 0.006668307
000070 ed cd d0 bc b3 a2 b9 3b 11 16 12 3c 76 f4 c9 ba
       -0.025488818 0.005665147 0.008916394 -0.0015407938

exp_avg f4 [32, 96]
000000 e5 c8 4f b4 d5 88 19 b3 cf 43 04 b4 94 9f 68 32
       -1.9351462e-07 -3.5747536e-08 -1.2318127e-07 1.3540461e-08
000010 40 15 bb b3 c8 7c fb 32 c6 fb 33 b3 0b 99 56 32
       -8.7117314e-08 2.927699e-08 -4.1905672e-08 1.2491237e-08
000020 69 99 24 b1 66 ee 62 b2 8e 04 12 b3 ba 55 91 31
       -2.3952345e-09 -1.3209137e-08 -3.3997416e-08 4.2298014e-09
000030 4d af e6 33 46 ea 32 33 96 61 dc 31 7f 67 51 32
       1.07420966e-07 4.1656925e-08 6.413937e-09 1.2188933e-08
000040 0d cc b7 b2 51 07 21 33 07 6a e7 b2 39 97 b2 b3
       -2.1396795e-08 3.7492388e-08 -2.6940155e-08 -8.316278e-08
000050 cd 3e 43 b4 bc 43 f5 33 89 99 9c 33 09 b6 eb 32
       -1.8183637e-07 1.1421022e-07 7.292244e-08 2.744038e-08
000060 35 9a 2c b3 2d 01 1d b2 d2 b9 b5 b3 3b c4 ac 33
       -4.018712e-08 -9.13887e-09 -8.46227e-08 8.045068e-08
000070 e0 38 9b 32 5b b2 c2 b3 87 50 18 b3 6f 43 fb b1
       1.8070239e-08 -9.0662716e-08 -3.5463497e-08 -7.3127278e-09
000080 d5 ac d7 b4 14 d5 08 b4 15 71 ba b4 58 d0 67 33
       -4.0172623e-07 -1.2743504e-07 -3.4727478e-07 5.3973366e-08
000090 1c 7b 82 b4 eb 7a a3 33 8f 76 35 b4 82 b6 25 2f
       -2.430396e-07 7.6126376e-08 -1.690007e-07 1.5071502e-10
0000a0 0a f6 c2 b2 01 1a 66 b3 08 72 c3 b3 f7 a9 d8 32
       -2.2696458e-08 -5.35747e-08 -9.101137e-08 2.5223e-08
0000b0 73 e7 15 b4 f2 ca 0c 34 0b 3e 22 33 fa 01 c0 33
       -1.3960907e-07 1.3112347e-07 3.7774992e-08 8.941056e-08
0000c0 26 7a 66 b3 59 11 a3 33 09 5e 9a b3 38 18 8a b4
       -5.366214e-08 7.5934345e-08 -7.188289e-08 -2.5722125e-07
0000d0 a1 3d bf b4 04 95 7f 34 a1 6f 4a 34 d7 95 b1 33
       -3.5621363e-07 2.3802937e-07 1.8853326e-07 8.2694605e-08
0000e0 4d 15 84 b3 4b c0 0c b3 77 4e c8 b3 d0 68 5b 34
       -6.1506036e-08 -3.277118e-08 -9.3274984e-08 2.0434095e-07
0000f0 2f 39 9c 33 fb 00 7a b4 ab 21 03 b4 6a 5d cc 2f
       7.274718e-08 -2.3283421e-07 -1.2212574e-07 3.7173759e-10
000100 1e a3 c0 b3 0f 8c 70 b3 73 24 fd 35 55 52 01 35
       -8.9703676e-08 -5.6006737e-08 1.8860577e-06 4.8176054e-07
000110 60 fc dd 34 47 bd f6 b5 59 78 91 32 7c ca 16 b6
       4.1348085e-07 -1.8383515e-06 1.693495e-08 -2.2469603e-06
000120 0d 03 bf b4 81 08 1d 34 a2 3a de 32 ae b4 66 b5
       -3.5578742e-07 1.4624858e-07 2.5870865e-08 -8.59446e-07
000130 6c ca 1a b5 fc 73 91 b3 20 02 fe b3 df 87 b1 34
       -5.7664033e-07 -6.773186e-08 -1.1828183e-07 3.3067678e-07
000140 c7 d4 be b3 45 80 b9 b5 98 72 7b 34 a5 34 8e 34
       -8.8862684e-08 -1.3820905e-06 2.3417886e-07 2.6487865e-07
000150 d9 1d 95 b3 27 a8 05 b5 30 38 80 b4 f8 34 e0 33
       -6.9437824e-08 -4.9791055e-07 -2.388274e-07 1.0440448e-07
000160 21 08 8e 35 35 c8 ad 34 a7 45 90 b5 10 3a 0b 35
       1.058219e-06 3.236943e-07 -1.0749108e-06 5.186603e-07
000170 7d 3c 8e b2 47 b2 67 34 ba 77 b6 34 b2 32 77 36
       -1.6558483e-08 2.1578408e-07 3.3987254e-07 3.6835377e-06
000180 c8 21 49 34 9d 14 13 33 cd 90 20 34 de f3 1b b1
       1.8731873e-07 3.4244852e-08 1.495384e-07 -2.269409e-09
000190 4c 40 a3 33 ff 34 fb b2 07 da 5a 33 9b 52 af b2
       7.6019745e-08 -2.9244346e-08 5.0955375e-08 -2.0410246e-08
0001a0 37 07 fb b1 0c 5e 40 32 5d 1e d7 32 2d 43 4f 32
       -7.3058817e-09 1.1197255e-08 2.5043102e-08 1.206426e-08
0001b0 12 61 83 b3 df 90 2a b3 f1 96 ea b1 9b ee 79 b1
       -6.11782e-08 -3.971297e-08 -6.8274564e-09 -3.63699e-09
0001c0 22 1f 8b 32 23 2b 83 b3 1e 68 ce 32 1c bd d6 33
       1.6195887e-08 -6.1080094e-08 2.4028903e-08 9.99955e-08
0001d0 61 74 35 34 2b 82 01 b4 9c d1 95 b3 98 45 01 b3
       1.6899277e-07 -1.2061416e-07 -6.976481e-08 -3.0098448e-08
0001e0 bb 10 60 b2 56 17 c0 31 11 b4 c8 32 ca 41 d0 b3
       -1.304232e-08 5.5905884e-09 2.3364949e-08 -9.697722e-08
0001f0 a5 d5 8b b2 15 0a 81 33 91 f9 20 33 a3 39 19 32
       -1.6278884e-08 6.0088645e-08 3.7479882e-08 8.918877e-09
000200 17 c2 e0 34 04 e7 04 34 4b e3 e1 34 3a f9 65 b2
       4.186447e-07 1.2377501e-07 4.2074893e-07 -1.3386222e-08
000210 2e dc 71 34 bc 36 9f b3 1d 63 49 34 d8 ab 6f b3
       2.2524975e-07 -7.4139706e-08 1.8755641e-07 -5.5802815e-08
000220 3e d2 af b2 1f 67 3d 33 8f 84 8b 33 34 6a 83 32
       -2.0468288e-08 4.409878e-08 6.496804e-08 1.5298703e-08
000230 ee 8d e2 b3 c8 66 e9 b3 34 84 22 b3 56 92 d8 b2
       -1.0549762e-07 -1.0868604e-07 -3.7838802e-08 -2.5212255e-08
000240 eb 05 36 33 8e 55 1b b4 63 59 88 33 e3 84 a1 34
       4.238056e-08 -1.4466625e-07 6.349253e-08 3.0085275e-07
000250 a9 b3 c0 34 66 a7 8e b4 1b 41 39 b4 ca 8b c6 b3
       3.5893507e-07 -2.657136e-07 -1.7253153e-07 -9.245521e-08
000260 6e b2 d4 b2 7d 93 d9 32 60 85 0b 34 37 74 88 b4
       -2.4761189e-08 2.5329195e-08 1.2993905e-07 -2.5416531e-07
000270 5a 7c 8c b3 dc b9 25 34 a7 31 03 34 bc af 88 32
       -6.5418774e-08 1.5434438e-07 1.2218389e-07 1.5912399e-08
000280 2f 0f 40 34 77 96 b5 33 f0 53 02 b6 9d e0 0f b5
       1.7886917e-07 8.455839e-08 -1.9420368e-06 -5.3598507e-07
000290 a5 d9 d8 b4 02 16 fc 35 57 9d a8 b3 fc 07 26 36
       -4.0391492e-07 1.8781868e-06 -7.8517296e-08 2.4740575e-06
0002a0 9c d7 c5 34 3e 7c 65 b4 79 82 c9 b2 0d aa 80 35
       3.6850986e-07 -2.1372486e-07 -2.3458812e-08 9.586234e-07
0002b0 b7 0b 04 35 72 65 f2 b3 44 04 88 33 ae 77 86 b4
       4.919088e-07 -1.1287456e-07 6.3337694e-08 -2.5046523e-07
0002c0 66 56 f3 33 7a 61 c3 35 65 4c 62 b4 19 4c db b4
       1.1331285e-07 1.4557002e-06 -2.1075682e-07 -4.0847297e-07
0002d0 ca fc ab 33 9b 10 06 35 7e 0b 38 34 94 97 cc b3
       8.00879e-08 4.9943054e-07 1.7140516e-07 -9.527062e-08
0002e0 04 f4 84 b5 0b 48 c0 b4 ba 96 90 35 cb b3 ef b4
       -9.905784e-07 -3.5815205e-07 1.0772703e-06 -4.4648036e-07
0002f0 ac 3b 4b 33 fd 47 4b b4 56 86 b3 b4 d7 6a 89 b6
       4.7318892e-08 -1.8932037e-07 -3.343909e-07 -4.095356e-06
000300 90 06 21 b3 c8 dc b2 b2 3a c3 8c b3 b5 1b 64 b2
       -3.7491702e-08 -2.0822327e-08 -6.5547695e-08 -1.32776465e-08
000310 6f 98 1e b3 74 c6 bc 31 e5 1c 25 b2 09 f1 86 b2
       -3.692588e-08 5.4940816e-09 -9.610834e-09 -1.5709263e-08
000320 50 74 aa b2 f3 5e e9 b2 37 f7 50 b2 b3 0b 66 b3
       -1.9843498e-08 -2.7167948e-08 -1.2163404e-08 -5.356169e-08
000330 2b 4e df b4 f6 1c 06 33 76 d4 82 32 9d 09 a8 32
       -4.1593862e-07 3.1225646e-08 1.5230608e-08 1.9562146e-08
000340 6e 1f 89 32 0b e0 8c 33 8f 1b c5 32 e4 ce 9e b3
       1.5963192e-08 6.560011e-08 2.294635e-08 -7.3950815e-08
000350 b0 f6 75 b3 4d c3 23 33 23 38 54 33 3c 46 23 33
       -5.726787e-08 3.812902e-08 4.9411153e-08 3.8015273e-08
000360 d6 c5 7f 33 dc 75 5c 32 45 eb 67 34 17 b4 59 33
       5.9551745e-08 1.28324835e-08 2.1599142e-07 5.068804e-08
000370 3d e3 5a 31 ae 55 c2 33 b5 d0 ab b2 de d9 aa 32
       3.1852345e-09 9.049414e-08 -2.0001929e-08 1.988968e-08
000380 b4 58 ae b3 10 2e 9b b3 e2 ad 47 b4 d5 56 65 b3
       -8.1186414e-08 -7.226129e-08 -1.8596577e-07 -5.339719e-08
000390 89 f2 c5 b3 4c 9b 47 32 fd db 44 b3 0b ee 1c 32
       -9.217644e-08 1.1618635e-08 -4.5834884e-08 9.13452e-09
0003a0 09 a7 35 b3 6c 5e ec b3 11 81 f0 b2 04 8d 59 b4
       -4.2294264e-08 -1.10067816e-07 -2.799837e-08 -2.0261001e-07
0003b0 7f 70 64 b5 dc cd 6b 33 c0 6a b7 33 ae b4 0b b3
       -8.510032e-07 5.490243e-08 8.541019e-08 -3.2527787e-08
0003c0 f1 e0 4a 33 d9 d8 6f 34 40 95 a1 33 d4 cf 5e b4
       4.7236373e-08 2.2337498e-07 7.524295e-08 -2.0750969e-07
0003d0 f2 86 a9 b3 bf 53 ca 33 eb 47 a5 33 85 96 db 33
       -7.894222e-08 9.421591e-08 7.696493e-08 1.02253615e-07
0003e0 df 93 c1 33 e1 af bf 33 ac 17 8c 35 ea 2a 17 34
       9.0141604e-08 8.926123e-08 1.0437702e-06 1.4078583e-07
0003f0 8a ae 9b 32 15 a8 96 34 c9 db 40 b3 a7 5d c8 32
       1.8123746e-08 2.8061973e-07 -4.4903377e-08 2.3325653e-08
