weights_new/DecoderEpochnew450_17_8.pt (torch_old, 461851 bytes, 33 tensors)

attn_layer.0.weight f4 [64, 192]
0	0xbd3f05e9	-0.046636496
1	0x3da618cc	0.081101984
2	0x3e41e6a4	0.18935639
3	0xbeaa5135	-0.3326508
4	0xbe0080a8	-0.12549078
5	0x3e415798	0.1888107
6	0xbacd90fc	-0.0015683467
7	0xbe5efab3	-0.21775322
8	0x3be8433c	0.007088093
9	0xbd97d2e4	-0.07413271
10	0x3ddcc268	0.107792675
11	0x3dc27fdb	0.09497043
12	0x3e28305d	0.16424699
13	0x3e823a23	0.2543498
14	0x3adfc835	0.0017073216
15	0xbbd9f228	-0.0066511817
16	0xbd879bbd	-0.066215016
17	0x3e0f8add	0.14017816
18	0xbd569bb2	-0.052394576
19	0xbd7ba38a	-0.06143526
20	0x3e3ab857	0.18234383
21	0xbc85ecb9	-0.01634823
22	0x3e2ca163	0.16858439
23	0x3d4f896c	0.050668165
24	0x3e132784	0.14370543
25	0x3da95ba3	0.082694314
26	0xbdac01b2	-0.08398761
27	0xbdaec194	-0.08533016
28	0x3d81e8b8	0.06343216
29	0x3e954085	0.29150787
30	0x3e88cd59	0.26719168
31	0x3e7498dd	0.23886438
32	0x3e14d573	0.1453455
33	0x3e729e28	0.23693144
34	0xbe116cff	-0.14201735
35	0xbe5aaf65	-0.2135597
36	0x3c66d7a6	0.0140895005
37	0x3dad4513	0.084604405
38	0xbd15ab54	-0.036540344
39	0xbd049dec	-0.03237717
40	0x3d51ea9c	0.05124913
41	0xbe18b933	-0.14914398
42	0xbe7441d4	-0.23853236
43	0xbe5486dc	-0.2075457
44	0xbe4b680f	-0.19863914
45	0x3e6f3416	0.23359713
46	0x3cac759c	0.021052174
47	0x3e0fdb65	0.14048536
48	0x3e8ad483	0.2711526
49	0x3d1e5700	0.03865719
50	0x3e841448	0.25796723
51	0xbeace6d5	-0.3376986
52	0x3e67de5b	0.22643416
53	0x3e1afaa5	0.15134676
54	0x3e2c5aeb	0.16831557
55	0xbd954892	-0.07289232
56	0xbe089696	-0.13338694
57	0x3d839eb2	0.06426753
58	0x3e26d160	0.16290808
59	0x3e390f8f	0.18072341
60	0xbcedf34b	-0.029046675
61	0xbe2d9ee3	-0.16955142
62	0x3ca4cc97	0.020117087
63	0xbe43e379	-0.19129743
64	0xbdaf6129	-0.08563454
65	0x3dcc8a12	0.09987272
66	0x3e4fe205	0.20301063
67	0xbea956ad	-0.3307394
68	0xbe015bd1	-0.12632681
69	0x3e0cd3ea	0.13752714
70	0x3d5cbbbb	0.05388997
71	0xbeb02479	-0.34402826
72	0xbce3553c	-0.027750604
73	0xbd86b023	-0.06576564
74	0x3d89afcc	0.06722984
75	0x3dc8f55d	0.09812424
76	0x3e4304ef	0.19044851
77	0x3e91977d	0.2843589
78	0x3d3201c7	0.043458726
79	0xbd77a2d3	-0.060458016
80	0xbdbe7c5c	-0.093010634
81	0x3dc7e0c2	0.09759666
82	0x3d5e3879	0.054253075
83	0xbdf1b3b1	-0.118018515
84	0x3ea5281e	0.3225717
85	0x3d847236	0.064670965
86	0x3e46767b	0.19381134
87	0x3d44ff9e	0.048095338
88	0x3e598779	0.21243085
89	0x3da9cb54	0.08290735
90	0xbe0e5b7a	-0.13902083
91	0xbe19e412	-0.15028408
92	0x3d9c21b7	0.07623618
93	0x3e9616f5	0.2931439
94	0x3e79ee98	0.24407423
95	0x3ea1b570	0.31583738
96	0x3e53ea4a	0.20694843
97	0x3e75e816	0.24014315
98	0xbe4e3bb9	-0.2013997
99	0xbdbf89b9	-0.093524404
100	0x3d514fe5	0.051101584
101	0xbd627950	-0.055291474
102	0x3cbe4f1a	0.023231078
103	0x3c81d072	0.015846465
104	0xbc0e0e46	-0.008670395
105	0xbe32fcd4	-0.17479259
106	0xbe6fd683	-0.23421673
107	0xbe6a66cf	-0.22890781
108	0xbe697125	-0.22797067
109	0x3e97e599	0.29667357
110	0x3c94df40	0.01817286
111	0x3e8fbfde	0.2807607
112	0x3eb46841	0.3523579
113	0x3d0c2704	0.034216896
114	0x3eb4aa96	0.35286397
115	0xbef96652	-0.48710877
116	0x3e9f1131	0.31067804
117	0x3e3f55d5	0.18685086
118	0x3de6528e	0.11246215
119	0xbd557fcc	-0.05212383
120	0xbe25c6cc	-0.16189116
121	0x3e109740	0.14120197
122	0x3e89ecd4	0.26938498
123	0x3e938303	0.28810892
124	0x3d53aeaa	0.051680245
125	0xbe1530b9	-0.14569367
126	0xbd7f73a0	-0.062366128
127	0xbe2f9c95	-0.17149575
128	0xbda9c26d	-0.08289037
129	0x3eb275a2	0.34855372
130	0x3dfb3fcc	0.12268028
131	0xbd0687de	-0.032844417
132	0xbdb8a1d5	-0.09015242
133	0x3e4e0143	0.20117669
134	0xbee90367	-0.45510408
135	0x3eb8106b	0.35950026
136	0x3ec17ab6	0.37788934
137	0x3dd3a1f6	0.10333626
138	0x3ea16d58	0.31528735
139	0x3d68efc7	0.056869294
140	0x3e18a347	0.14906035
141	0xbed9eb88	-0.4256251
142	0x3ed7d8dc	0.42157638
143	0xbe0a05eb	-0.1347882
144	0xbd3c9ab6	-0.04604598
145	0xbec5f665	-0.38664547
146	0x3f7c70ac	0.98609424
147	0x3d3e68ae	0.04648655
148	0xbe293d61	-0.1652732
149	0x3e42e3b2	0.19032171
150	0xbed2d9a8	-0.41181684
151	0xbba7aab0	-0.005116783
152	0xbe57395a	-0.21017972
153	0xbe38ccd9	-0.18046893
154	0xbdd715ce	-0.10502206
155	0xbdb9aa37	-0.09065669
156	0xbebb8834	-0.36627352
157	0x3d536e36	0.051618777
158	0xbd1c5205	-0.038164157
159	0x3cff34b2	0.031153057
160	0x3e946818	0.28985667
161	0x3d386d37	0.04502603
162	0x3df16273	0.11786356
163	0xbe994055	-0.29931894
164	0xbdd737c3	-0.105086826
165	0x3e73b4a9	0.23799385
166	0x3e2710c1	0.16314985
167	0xbe8997be	-0.26873583
168	0x3e7ec11a	0.2487835
169	0x3d9f21f7	0.0777015
170	0xbe4c3507	-0.19942103
171	0xbdda13de	-0.106483206
172	0x3df93b80	0.12169552
173	0xbf1388c5	-0.5763057
174	0xbe3d8da2	-0.1851106
175	0xbe4935e9	-0.19649471
176	0x3e201e9f	0.15636681
177	0xbe02ccf4	-0.12773496
178	0xbe882204	-0.26588452
179	0xbe64be15	-0.22338136
180	0xbe69551d	-0.22786374
181	0xbdf2306f	-0.11825644
182	0xbe6d2855	-0.23159917
183	0xbdf110c7	-0.11770778
184	0x3e3364e6	0.17518958
185	0xbef7d1b4	-0.48402178
186	0xbe961bcd	-0.29318085
187	0xbec9a769	-0.39385536
188	0x3e8f18dd	0.27948657
189	0x3f3125f7	0.69198555
190	0xbea3eedf	-0.32018182
191	0xbedd8ae3	-0.43270025
192	0x3bef1527	0.0072962227
193	0xbe2d94c7	-0.16951285
194	0xbe4635b6	-0.19356427
195	0x3e850d57	0.2598674
196	0x3e67dae4	0.22642094
197	0xbdd1423d	-0.10217712
198	0xbd8d33e8	-0.06894666
199	0x3ea3f41e	0.32022184
200	0x3db086a9	0.086194344
201	0x3de0989b	0.10966607
202	0xbe0a9354	-0.13532764
203	0x3cfd2591	0.030901702
204	0xbe27653f	-0.16347216
205	0xbe872049	-0.2639182
206	0xbbc1ce76	-0.0059145046
207	0x3ce05fab	0.027389368
208	0x3d88c543	0.0667825
209	0xbd3131b4	-0.04326029
210	0xbcac07f3	-0.020999884
211	0x3ded7a29	0.11595566
212	0xbe8ccd7c	-0.27500522
213	0xbbd0cbee	-0.0063719666
214	0xbe6862ae	-0.22693893
215	0xbde74810	-0.11293042
216	0xbe48fdee	-0.19628116
217	0xbe2307cf	-0.15920947
218	0x3d8563b7	0.0651316
219	0x3e43b77b	0.19112961
220	0xbb769ec1	-0.0037631246
221	0xbe84f5c9	-0.2596877
222	0xbe22f37f	-0.15913199
223	0xbe79d389	-0.243971
224	0xbe44cbf4	-0.19218427
225	0xbea0b471	-0.31387666
226	0x3e4fd255	0.20295079
227	0x3dd66429	0.10468323
228	0xbd6b57bf	-0.057456728
229	0x3cbe54bd	0.023233766
230	0x3d1cab36	0.038249217
231	0xbda48dfc	-0.08034894
232	0x3c0c2698	0.008554123
233	0x3e10038f	0.14063857
234	0x3e43aaab	0.19108073
235	0x3e21d98b	0.15805642
236	0x3e8e3044	0.277712
237	0xbe44598c	-0.19174784
238	0x3d45d891	0.048302237
239	0xbe586933	-0.2113388
240	0xbe67b086	-0.22625932
241	0xbd171182	-0.03688193
242	0xbe9cb006	-0.30603045
243	0x3eaeba8f	0.34126708
244	0xbeaa73ab	-0.33291373
245	0xbdfd8f20	-0.123808146
246	0xbdb58dbd	-0.08864925
247	0x3d4af201	0.0495472
248	0x3d96d002	0.07363893
249	0xbdd41f28	-0.10357505
250	0xbe5bfab9	-0.21482362
251	0xbe75e567	-0.24013291
252	0xbd213c4a	-0.039364137
253	0x3dff1b82	0.124564186
254	0x3c7fdbc8	0.015616365
255	0x3e2ec623	0.1706777

attn_layer.0.bias f4 [64]
0	0xbe09c959	-0.13455714
1	0x3e33dbf3	0.17564373
2	0xbe136c03	-0.14396672
3	0x3df038a0	0.1172955
4	0x3e0d7db8	0.13817489
5	0xbe15cb5e	-0.1462836
6	0x3e075d3b	0.13219158
7	0x3e27650a	0.16347137
8	0xbde919fd	-0.1138191
9	0xbe45d3a6	-0.19319019
10	0xbe5c9c6c	-0.21544045
11	0xbdfd4667	-0.12366944
12	0xbde3073a	-0.11085363
13	0x3e306f79	0.17230023
14	0x3e2db773	0.16964512
15	0xbdea7231	-0.114475615
16	0x3e3d50b6	0.1848782
17	0x3e3350a4	0.1751123
18	0xbe384a22	-0.1799703
19	0x3df08482	0.11744024
20	0x3e0d5d32	0.13805082
21	0x3e32c082	0.17456248
22	0x3e4b0f3f	0.19830035
23	0xbda52eec	-0.0806559
24	0xbe2200a0	-0.15820551
25	0x3e14e937	0.1454209
26	0xbe36fb79	-0.17869367
27	0x3e423969	0.18967213
28	0x3dee85b7	0.11646598
29	0x3e44f27a	0.19233122
30	0x3df9ea14	0.1220285
31	0x3e36bc05	0.17845161
32	0x3e0cc0ff	0.13745497
33	0x3e5d41b1	0.2160709
34	0x3e1f88d8	0.15579545
35	0x3e4e4a8f	0.2014563
36	0x3e18b2c6	0.14911947
37	0x3e29c68e	0.16579649
38	0xbe24a933	-0.1608017
39	0x3e3fe238	0.1873864
40	0xbe169031	-0.14703442
41	0x3e317c5a	0.17332593
42	0x3e1b14aa	0.15144601
43	0x3e343063	0.17596583
44	0xbe17f850	-0.14840817
45	0xbe12fd57	-0.14354454
46	0x3e2b941b	0.16755717
47	0x3e2fc988	0.17166722
48	0xbe2206eb	-0.15822951
49	0xbe399ce9	-0.18126263
50	0xbe2baf41	-0.16766073
51	0xbe0330fb	-0.12811653
52	0xbe0bd1df	-0.13654278
53	0xbe1b1196	-0.15143427
54	0x3df3fd8c	0.119135946
55	0x3e09834f	0.13428997
56	0xbe30528d	-0.1721899
57	0xbdf79a79	-0.1209001
58	0xbe10b5f4	-0.1413191
59	0x3e0d0621	0.13771869
60	0xbe1650c9	-0.14679255
61	0xbe519fd5	-0.20471127
62	0xbe3a15c2	-0.18172362
63	0x3e28452f	0.16432641

attn_layer.2.weight f4 [1, 64]
0	0x3f091ee9	0.5356279
1	0xbf14c458	-0.58112097
2	0x3f04e635	0.5191377
3	0xbf190487	-0.59772533
4	0xbf10d30b	-0.56572026
5	0x3f07038b	0.5273978
6	0xbf0d92e2	-0.5530225
7	0xbf0b27c8	-0.54357576
8	0x3efb1c90	0.4904523
9	0x3f08e2d7	0.5347113
10	0x3f0954ed	0.5364521
11	0x3f158480	0.58405304
12	0x3f11b41e	0.5691546
13	0xbf0c4819	-0.5479751
14	0xbf028a58	-0.50992346
15	0x3f123aa1	0.5712071
16	0xbf0c7eee	-0.5488118
17	0xbf1895ee	-0.59603775
18	0x3f01f2bf	0.50761026
19	0xbf0b69b0	-0.5445814
20	0xbf063a9c	-0.5243318
21	0xbf09fbff	-0.5390014
22	0xbf19f904	-0.6014559
23	0x3ef9a5b3	0.4875923
24	0x3efb0f87	0.49035284
25	0xbf0455af	-0.5169324
26	0x3f00f101	0.5036774
27	0xbf0113d3	-0.50420874
28	0xbf19f869	-0.6014467
29	0xbf0b7524	-0.5447562
30	0xbf02fd0b	-0.5116736
31	0xbf050d82	-0.51973736
32	0xbf0b9952	-0.54530823
33	0xbef2910a	-0.4737628
34	0xbefb168a	-0.49040633
35	0xbf0a4ca8	-0.5402322
36	0xbf088a73	-0.53336257
37	0xbf0321fb	-0.51223725
38	0x3f0e33f8	0.5554805
39	0xbef51fae	-0.47875732
40	0x3f059dbc	0.5219381
41	0xbf14aba5	-0.5807441
42	0xbf132630	-0.57480145
43	0xbf01bab4	-0.5067551
44	0x3f0a7049	0.54077584
45	0x3efbf5f1	0.49211076
46	0xbf07d1b3	-0.5305435
47	0xbf0f3199	-0.55935055
48	0x3f02d2e1	0.51103026
49	0x3f13dc99	0.5775848
50	0x3f0da908	0.55336046
51	0x3f15fa02	0.58584607
52	0x3f02905b	0.5100152
53	0x3f0d70da	0.5525032
54	0xbf13adfe	-0.57687366
55	0xbf16d007	-0.58911175
56	0x3f090314	0.5352032
57	0x3f14e118	0.58155966
58	0x3f10b3de	0.56524456
59	0xbf1890c7	-0.5959591
60	0x3f149f0a	0.58055174
61	0x3f0fe29f	0.5620517
62	0x3f0659a1	0.5248051
63	0xbf0c88b0	-0.5489607

lstm_layer.weight_ih_l0 f4 [256, 1]
0	0x3f04d7a4	0.5189154
1	0x3b89c089	0.00420386
2	0x3f17cf6d	0.5930088
3	0x3e265243	0.16242318
4	0xbdfe0db9	-0.12404961
5	0x3f3e3e6b	0.7431399
6	0x3e0ae402	0.1356354
7	0xbd33f98f	-0.04393917
8	0x3dcadbc1	0.09905196
9	0x3e8ec5a2	0.27885157
10	0x3d48fdd2	0.049070187
11	0x3da5f167	0.081026845
12	0xbd1bf63e	-0.03807663
13	0xbd9df5b7	-0.07712882
14	0x3e723447	0.23652755
15	0x3e4a4491	0.19752719
16	0xbdc99e83	-0.09844687
17	0x3f2ca762	0.67442906
18	0x3e57c59c	0.21071476
19	0xba2cd6c3	-0.0006593281
20	0xbda5d1f6	-0.080966875
21	0x3e1b60d6	0.15173659
22	0x3eadd568	0.3395188
23	0x3d66b760	0.056327224
24	0x3dae581b	0.085128985
25	0x3e5253a2	0.20539716
26	0x3deeee30	0.116665244
27	0x3de373f5	0.111061014
28	0x3dfbb31e	0.12290023
29	0xbe8837d8	-0.26605105
30	0xbd72b725	-0.05925669
31	0x3e8cd9b6	0.2750985
32	0x3f1d8bb4	0.61541295
33	0x3dca0ae0	0.098653555
34	0xbe086e6a	-0.1332337
35	0x3d6abb01	0.057307247
36	0x3d2877ed	0.041129995
37	0x3b97281e	0.0046129366
38	0x3e2d7d13	0.16942243
39	0xbc8f9087	-0.01752497
40	0x3f16ab7f	0.5885543
41	0xbdbd7dfd	-0.09252546
42	0x3e938a71	0.2881656
43	0x3df28d95	0.11843411
44	0x3caaf34d	0.020867968
45	0xbc87ef46	-0.016593587
46	0x3e1e5d0e	0.15465185
47	0x3e9a7771	0.30169252
48	0xbd20004d	-0.039062787
49	0x3e720b26	0.23637065
50	0xbe3bcb9d	-0.18339391
51	0x3e16db4c	0.14732093
52	0xbe9164c5	-0.28397194
53	0xbdd782db	-0.105230056
54	0x3de2e4d2	0.110788
55	0x3d1cdf19	0.0382987
56	0xbdbab938	-0.09117359
57	0xbc06039a	-0.00817957
58	0xbd893c22	-0.067009225
59	0x3ea46887	0.32110998
60	0xbb9c5d8f	-0.0047718952
61	0x3eb888a8	0.3604176
62	0x3dce37de	0.100692496
63	0x3eb7ca6d	0.35896626
64	0x3ed4d741	0.41570476
65	0x3e305394	0.17219383
66	0x3ef812f2	0.48451954
67	0x3b03c7a2	0.0020108004
68	0xbdf9690a	-0.12178238
69	0x3f349d17	0.705522
70	0x3df3e97c	0.11909768
71	0xbd41cbd4	-0.047313526
72	0x3e1ac54b	0.15114324
73	0x3ead3d51	0.33835843
74	0xbaca34a6	-0.0015427067
75	0x3e08ac03	0.13346867
76	0xbd0f7815	-0.03502663
77	0x3ce0ef2a	0.027457792
78	0x3e93fc38	0.28903365
79	0x3e358eb9	0.17730226
80	0x3de3037a	0.110846475
81	0x3f1bd7cb	0.6087615
82	0x3e38cc5e	0.1804671
83	0x3d9d23e1	0.07672859
84	0xbda627f1	-0.08113087
85	0x3e0be97a	0.13663283
86	0xbeab00de	-0.333991
87	0x3d86b128	0.065767586
88	0x3e56e7fe	0.20986935
89	0x3e339c45	0.17540081
90	0x3d0950b3	0.033524226
91	0xbc42cbbf	-0.011889397
92	0x3da67a60	0.0812881
93	0xbdd5eaa7	-0.10445147
94	0xbd97cb44	-0.07411817
95	0x3ec80689	0.39067486
96	0x3f00e806	0.5035404
97	0xbdcbcdce	-0.099513635
98	0xbd9e4ae2	-0.077291265
99	0x3e124e03	0.14287572
100	0x3e4d1057	0.20025764
101	0x3d7019db	0.058618408
102	0x3cd9dec3	0.026595479
103	0xbc95dee2	-0.018294755
104	0x3ef1335d	0.471095
105	0x3dbc93cf	0.0920788
106	0x3e0877af	0.13326906
107	0x3de0f909	0.10985
108	0x3d914f5d	0.070952155
109	0xbd213a9e	-0.039362542
110	0x3da741b9	0.081668325
111	0x3e4b247c	0.19838136
112	0xbd47fead	-0.048826862
113	0x3d56b3e1	0.05241764
114	0xbdb774aa	-0.08957799
115	0x3e136cdf	0.14397
116	0xbe9bc4a0	-0.3042345
117	0xbd7be068	-0.061493307
118	0x3c33c062	0.010971161
119	0x3c459222	0.012058767
120	0xbd6d1247	-0.05787876
121	0x3e717732	0.23580626
122	0xbc922a8f	-0.01784256
123	0x3e5be3b1	0.21473576
124	0x3e124636	0.14284596
125	0x3e90cd2c	0.28281534
126	0x3d91ed1a	0.07125302
127	0x3e998911	0.29987386
128	0x3e8b7eab	0.27245077
129	0xbdcaf997	-0.09910887
130	0x3e999a06	0.30000323
131	0x3dff427f	0.12463855
132	0xbde785ea	-0.11304839
133	0x3ebe5ce5	0.37180248
134	0xbdc20896	-0.09474294
135	0xbd153af8	-0.03643319
136	0xbbfa141e	-0.0076317927
137	0x3e7c35b0	0.24629855
138	0x3d9ac69f	0.07557415
139	0xbe1c075d	-0.15237184
140	0xbd6cc862	-0.057808287
141	0xbe41270e	-0.18862554
142	0xbe5ec7e8	-0.21755946
143	0xbe360dea	-0.17778745
144	0x3d81240d	0.06305704
145	0x3eca728b	0.39540514
146	0x3e461e59	0.19347514
147	0xbdf39371	-0.118933566
148	0x3d24119c	0.040055856
149	0x3cd7f5ec	0.026362382
150	0x3c942a63	0.018086618
151	0x3cb3354f	0.021876005
152	0x3d905187	0.070468
153	0x3e20af7b	0.1569194
154	0xbda4802f	-0.080322616
155	0xbe12fb1d	-0.14353605
156	0xbe0d135f	-0.1377692
157	0xbdef671c	-0.116895884
158	0xbd1b0459	-0.037845943
159	0x3dffe7fe	0.12495421
160	0x3ead7020	0.33874607
161	0xbdb01d0b	-0.085992895
162	0x3bcecc09	0.006310944
163	0x3e4fa248	0.20276749
164	0x3e1a0395	0.15040429
165	0xbd71afb0	-0.05900544
166	0x3d0373a2	0.032092698
167	0x3d1eca15	0.03876694
168	0xbead2927	-0.3382046
169	0x3d8aa917	0.067705326
170	0x3e489295	0.19587167
171	0x3d97eac0	0.07417822
172	0x3dd92834	0.10603371
173	0x3d121831	0.035667602
174	0x3e25cfac	0.16192502
175	0x3e7fe849	0.24990954
176	0xbd2a7606	-0.041616462
177	0xbd7219b2	-0.059106536
178	0x3d107acd	0.035273362
179	0x3e16bb25	0.14719827
180	0xbdac2eed	-0.08407388
181	0x3d4f5d22	0.050625928
182	0xbca7277a	-0.020404566
183	0x3e0b7caa	0.13621774
184	0x3da7fa6b	0.0820206
185	0xbe02dff2	-0.12780741
186	0x3da79431	0.08182562
187	0xbe86dcf1	-0.2634044
188	0x3ca1d925	0.019756863
189	0xbe552b32	-0.20817259
190	0xbe2f0adb	-0.17093985
191	0xbe13fbb5	-0.14451487
192	0x3f110793	0.5665218
193	0xba1aac7c	-0.0005900336
194	0x3f3f2708	0.7466893
195	0x3b952f96	0.004552792
196	0xbe13ccf1	-0.14433648
197	0x3f63e662	0.8902341
198	0x3e2176b5	0.1576794
199	0xbe87f02d	-0.26550427
200	0xbcd9bb41	-0.026578547
201	0x3e75544a	0.23957935
202	0xbcded65a	-0.02720182
203	0x3dab18a0	0.08354306
204	0x3ce02904	0.027363308
205	0x3cc84111	0.024445089
206	0x3e3ff09d	0.1874413
207	0x3ea8e4e1	0.3298712
208	0x3e05e2b4	0.13074762
209	0x3f4830b2	0.78199303
210	0x3e1b9718	0.15194356
211	0x3cb21ccd	0.021742249
212	0xbe472cbe	-0.19450662
213	0xbd3972f5	-0.045275647
214	0x3eb9d528	0.36295438
215	0x3d9b669b	0.0758793
216	0x3de84617	0.113414936
217	0x3ecfd586	0.40592593
218	0xbd2852ec	-0.041094705
219	0x3e5cba5d	0.21555467
220	0x3d98fb75	0.074698366
221	0xbede06ab	-0.43364462
222	0x3cb1cde4	0.021704622
223	0x3ed81e8a	0.422108
224	0x3f2832f3	0.6570274
225	0xbd6a1d84	-0.057157055
226	0xbea0e7b5	-0.31426778
227	0x3e13c222	0.14429525
228	0x3e428be4	0.18998677
229	0x3e66792a	0.22507158
230	0xbd80a545	-0.06281523
231	0xbbeee8d7	-0.0072909403
232	0x3f1d301e	0.61401546
233	0xbcc4693f	-0.023975966
234	0x3e87e0cd	0.26538697
235	0x3e907cb6	0.28220147
236	0x3d961a84	0.07329276
237	0x3e72391c	0.23654598
238	0x3e390427	0.1806799
239	0x3f09daa5	0.5384925
240	0xbe2e1c5d	-0.17003007
241	0x3e94c047	0.29052946
242	0xbe8a387a	-0.26996213
243	0x3e2ecb6f	0.17069791
244	0xbefb0897	-0.4902999
245	0xbd9b6e89	-0.07589442
246	0x3dd2c15a	0.10290785
247	0x3d34027b	0.043947678
248	0xbd0d91ec	-0.03456299
249	0x3d43263e	0.047643892
250	0x3e01fbda	0.1269373
251	0x3ebeb266	0.37245482
252	0x3b88a177	0.0041696387
253	0x3ea192f3	0.31557426
254	0x3e8fe201	0.28102115
255	0x3eedb12a	0.46424228

lstm_layer.weight_hh_l0 f4 [256, 64]
0	0x3e6fa0bd	0.2340116
1	0xbe70adac	-0.2350375
2	0x3f24dfd1	0.64404017
3	0xbe4f9c8f	-0.20274566
4	0xbe8cf639	-0.27531603
5	0x3f42fd67	0.7616791
6	0xbe7c793c	-0.24655622
7	0xbf17557c	-0.59114814
8	0xbd3bbfce	-0.045837216
9	0x3d71835e	0.058963172
10	0x3ec080cf	0.37598273
11	0x3c99fbc3	0.018796807
12	0x3dd2b517	0.102884464
13	0x3e4a1102	0.1973305
14	0xbe171059	-0.1475233
15	0xbd8673af	-0.06565034
16	0xbda7f4f9	-0.08201022
17	0x3f321f34	0.6957886
18	0x3db27f0b	0.08715638
19	0xbd15b643	-0.03655077
20	0x3f1788fd	0.591934
21	0x3e62c5ad	0.2214572
22	0x3d8fe7e2	0.0702665
23	0x3e84bb45	0.25924125
24	0x3f1f630d	0.62260514
25	0x3dd19215	0.10232941
26	0xbe51805f	-0.20459126
27	0xbe8e334c	-0.2777351
28	0xbe467877	-0.19381891
29	0x3ee9dce9	0.45676354
30	0x3e8e04a0	0.27737904
31	0x3f2471dc	0.64236236
32	0x3ef6cee7	0.4820473
33	0x3e357b4e	0.17722818
34	0xbf0b07e9	-0.54308945
35	0x3cb81669	0.022471623
36	0x3d1b667a	0.037939526
37	0x3db750ed	0.08950982
38	0xbe189598	-0.14900815
39	0xbce59de1	-0.028029384
40	0xbed8e3b1	-0.42361215
41	0x3ce9d575	0.028544167
42	0x3e6c9d3d	0.23106857
43	0xbe8a645a	-0.27029687
44	0xbe07ea24	-0.13272911
45	0x3ebb8e9b	0.36632237
46	0x3dd22aec	0.10262093
47	0x3f00bba7	0.50286335
48	0x3ede0769	0.43365029
49	0x3e4ccb0a	0.19999328
50	0x3eb80dd3	0.35948047
51	0xbe220b88	-0.15824711
52	0x3eb7841f	0.35842988
53	0x3e11e8ac	0.14248914
54	0x3d9d07bb	0.0766749
55	0xbceb38b3	-0.02871356
56	0xbcf06ecb	-0.029349705
57	0x3d67d2cc	0.056597516
58	0x3e68d3e0	0.22737074
59	0xbd1f285e	-0.038856857
60	0x3e584069	0.2111832
61	0xbee625ed	-0.4495081
62	0xbde41b6e	-0.11138044
63	0xbee1bb9c	-0.44088447
64	0xbd97618c	-0.073916525
65	0xbdd4af93	-0.103850506
66	0x3e2af399	0.16694488
67	0xbd9f2e4f	-0.077725045
68	0xbe0b6295	-0.13611825
69	0x3e1cb929	0.15305008
70	0xbd998595	-0.07496182
71	0xbeb01572	-0.3439136
72	0x3d6c8f40	0.0577538
73	0xbe045923	-0.12924628
74	0x3dac0c80	0.08400822
75	0x3da4b129	0.08041603
76	0x3dd04dff	0.101711266
77	0x3ddd2200	0.107975006
78	0x3dadbfff	0.08483886
79	0xbda03fba	-0.07824655
80	0x3d0fe993	0.035134863
81	0x3e0c6013	0.13708524
82	0xbde9b2e9	-0.114110775
83	0x3d6423f8	0.055698365
84	0x3ecb898c	0.39753377
85	0x3d9eadc2	0.077479854
86	0x3e2f9f74	0.1715067
87	0x3dbd5744	0.0924516
88	0x3ea0ba28	0.31392026
89	0x3cb8d53a	0.022562612
90	0x3d6573b3	0.056018542
91	0xbe14bc40	-0.14524937
92	0xbc8d6a5d	-0.017262632
93	0x3ea5056b	0.32230696
94	0x3e89ab0e	0.26888317
95	0x3ea31d2c	0.31858194
96	0x3e842abe	0.2581386
97	0x3d58fb48	0.052974015
98	0xbe451bf4	-0.19248945
99	0xbc3ed525	-0.011647497
100	0x3d06e18e	0.03292995
101	0x3d91a596	0.07111661
102	0xbdc7a87a	-0.09748931
103	0x3df1d788	0.118086874
104	0x3c8bdeeb	0.017074069
105	0xbde8e908	-0.11372572
106	0xbd91a016	-0.07110612
107	0xbe64bff4	-0.2233885
108	0xbe3f97d9	-0.18710269
109	0x3e095542	0.1341143
110	0x3cb725f7	0.02235697
111	0x3e472229	0.19446625
112	0x3e766de3	0.24065356
113	0xbb7b22af	-0.0038320234
114	0x3ea1fce7	0.31638262
115	0xbdb5277e	-0.08845423
116	0x3eda7d3a	0.42673665
117	0x3c76bb13	0.01505925
118	0x3d81a969	0.063311405
119	0xbd90f759	-0.07078428
120	0xbe4c37ab	-0.1994311
121	0x3e2eef7b	0.17083542
122	0x3e4e8239	0.20166864
123	0x3dc09fee	0.09405504
124	0xbda58e0b	-0.08083733
125	0xbe0c533b	-0.13703625
126	0xbe0e08da	-0.13870564
127	0xbe36ec2b	-0.17863528
128	0x3ed95a0a	0.42451507
129	0xbd9ae6c5	-0.07563547
130	0x3ec60f82	0.38683707
131	0xbaf89f3e	-0.0018968356
132	0xbe73e731	-0.23818661
133	0x3eca42e9	0.39504173
134	0xbe057642	-0.13033393
135	0xbe9b3eda	-0.3032139
136	0xbc852937	-0.016255004
137	0x3de7dd73	0.11321535
138	0x3e1f4f1e	0.15557525
139	0x3d3d76b8	0.046255797
140	0x3d401dfa	0.046903588
141	0x3d675171	0.056474153
142	0xbd33674e	-0.04379969
143	0xbc36d9c9	-0.011160322
144	0xbd8d6103	-0.06903269
145	0x3ebf076c	0.3731035
146	0x3d312eab	0.043257397
147	0xbdae9e5f	-0.08526301
148	0x3ed6e8f8	0.41974616
149	0x3d669a6a	0.056299604
150	0x3e9b90ea	0.30383998
151	0x3e187b36	0.14890751
152	0x3ea4255b	0.3205975
153	0x3eb171e8	0.34657216
154	0xbe8716d5	-0.26384607
155	0xbe364af4	-0.1780203
156	0x3d036cf2	0.03208632
157	0x3d130329	0.035891686
158	0x3d71eb87	0.059062507
159	0x3ec939ca	0.39301902
160	0x3ec92a2b	0.39289984
161	0xbc992519	-0.018694447
162	0xbe7ee038	-0.2489022
163	0x3e161d1b	0.1465954
164	0x3b272537	0.002550436
165	0xbd29ee90	-0.041487277
166	0xbba22b26	-0.0049489914
167	0x3da8114a	0.082064226
168	0xbe7fe6cb	-0.24990384
169	0xbd95344d	-0.07285366
170	0x3e76b53a	0.2409257
171	0xbd857292	-0.06515993
172	0xbd3a9135	-0.045548636
173	0x3eca0921	0.3946009
174	0x3e2c640a	0.16835037
175	0x3e1fba4e	0.15598413
176	0x3e63444a	0.22194019
177	0xbb9295ec	-0.0044734385
178	0x3eba046d	0.36331502
179	0x3e2c2389	0.1681043
180	0x3e466198	0.19373167
181	0x3dccbf37	0.09997409
182	0xbd377045	-0.044784803
183	0x3de87dd7	0.11352127
184	0xbda46ba1	-0.08028341
185	0xbd62b75b	-0.055350643
186	0x3e56717a	0.20941725
187	0xbe94b1c6	-0.2904188
188	0x3d98a921	0.07454134
189	0xbe7263d5	-0.23670895
190	0xbd9d70a5	-0.07687501
191	0xbd605180	-0.054765224
192	0x3d8aac8e	0.067711934
193	0x3b99076a	0.0046700733
194	0xbc91231a	-0.017716933
195	0x3d3558a6	0.044273995
196	0xbc7674b8	-0.015042476
197	0x3d115f2f	0.035491165
198	0xbe787d9e	-0.24266669
199	0xbd954e40	-0.07290316
200	0x3bc08fc1	0.005876512
201	0x3d32e26a	0.043672957
202	0x3dd64a1f	0.10463356
203	0xbdd42e04	-0.10360339
204	0xbd898e25	-0.06716565
205	0x3cef3056	0.029197853
206	0xbe407ad6	-0.18796858
207	0xbdfc0c0c	-0.12306985
208	0x3c25b56d	0.010114056
209	0x3e64cc8c	0.22343653
210	0xbd7f62d5	-0.062350113
211	0x3dc243d3	0.09485593
212	0x3e3bd42f	0.1834266
213	0x3e2d8e2f	0.1694877
214	0xbdab72cc	-0.08371505
215	0xbad900c3	-0.0016556013
216	0x3dea57c6	0.11442523
217	0xbdc97eb5	-0.098386206
218	0xbe994e01	-0.29942325
219	0xbe5cf71a	-0.21578637
220	0x3d863540	0.065531254
221	0x3d1c2689	0.038122687
222	0x3c896d15	0.016775647
223	0x3d00b106	0.031418823
224	0x3d9f18bf	0.07768392
225	0xbd947b85	-0.07250122
226	0xbe44876b	-0.19192283
227	0xbdaa3f50	-0.08312857
228	0xbccea7ac	-0.025226437
229	0x3d4f9fc4	0.050689474
230	0xbe0e84de	-0.13917872
231	0xbe0b2854	-0.13589603
232	0xbe88a8ab	-0.26691183
233	0xbd2a6601	-0.041601185
234	0xbda44ecd	-0.080228426
235	0xbdfe79ff	-0.12425613
236	0xbe308c6b	-0.17241065
237	0x3dd0b60b	0.10190972
238	0x3e0a9a7a	0.1353549
239	0xbbd078a4	-0.0063620377
240	0x3e605fea	0.21911588
241	0x3d84415d	0.064577796
242	0x3d1fcb70	0.039012372
243	0x3d920daa	0.071315125
244	0x3e582adf	0.21110104
245	0xbd907a74	-0.07054606
246	0xbc85e1ce	-0.016343024
247	0xbd6dd0ef	-0.058060583
248	0xbdf4bd93	-0.11950221
249	0xbd283c40	-0.041073084
250	0x3e1f6fe4	0.15570027
251	0x3e6e18a9	0.23251595
252	0x3d5edb73	0.0544085
253	0xbd7cfa3e	-0.061762087
254	0xbd081862	-0.03322638
255	0xbe781789	-0.24227728

lstm_layer.bias_ih_l0 f4 [256]
0	0x3ccd6a3f	0.025075076
1	0xbd5f36d2	-0.05449564
2	0x3d09f150	0.0336774
3	0x3d982402	0.07428743
4	0xbd4b801b	-0.049682718
5	0x3e593ad2	0.21213844
6	0xbdcf819d	-0.10132144
7	0x3de3e100	0.111269
8	0xbdfd28f4	-0.12361327
9	0x3c5feded	0.013667566
10	0x3d7727fd	0.06034087
11	0xbb3a4a11	-0.0028425495
12	0x3d7733e7	0.060352232
13	0x3dc1c241	0.09460879
14	0xbe0f836e	-0.1401498
15	0xbd252b2b	-0.04032437
16	0x3df58bea	0.11989577
17	0x3d6b6e81	0.05747843
18	0xbcc40aa1	-0.02393085
19	0xbdf20911	-0.118181355
20	0x3d7e38f0	0.06206602
21	0xbda6b058	-0.08139104
22	0x3e37ff8e	0.1796858
23	0xbd29d74c	-0.04146509
24	0xbda503f8	-0.080573976
25	0xbd7d1c02	-0.06179429
26	0xbe128607	-0.1430894
27	0x3d7be93b	0.061501723
28	0xbddf6af3	-0.10909071
29	0x3d65d70c	0.056113288
30	0x3da8de14	0.08245483
31	0x3c81139c	0.01575642
32	0x3c781bc3	0.015143338
33	0xbd4bfe91	-0.04980332
34	0x3d0ec939	0.03485987
35	0x3d3a5789	0.045493636
36	0x3c7ccf06	0.015430218
37	0x3c6ed81f	0.0145778945
38	0xbd9f5305	-0.077795066
39	0xbd32101c	-0.043472394
40	0x3d3ac6e3	0.04559983
41	0xbddf2274	-0.10895243
42	0x3e04f510	0.12984109
43	0x3cc43eaf	0.023955671
44	0x3d39f543	0.045399915
45	0xbd906423	-0.070503496
46	0x3dc911cb	0.09817847
47	0xbcef0822	-0.029178683
48	0xbd7bd546	-0.06148269
49	0xbcfb2a39	-0.030659782
50	0xbdbe81d0	-0.093021035
51	0xbba61889	-0.005068843
52	0x3d504a0f	0.050851878
53	0xbe1922f4	-0.1495474
54	0xbe11fda8	-0.14256918
55	0xbd82266c	-0.06354985
56	0xbcd8fd92	-0.0264881
57	0xbd220baa	-0.039561905
58	0xbcc65253	-0.024209177
59	0x3e6517f0	0.22372413
60	0x3d3d11f2	0.046159692
61	0xbcb02438	-0.021501645
62	0xbd1cb175	-0.038255174
63	0xbd83b95c	-0.06431839
64	0xbe4e8c42	-0.20170692
65	0x3d5c1843	0.053734075
66	0xbc9eb789	-0.019374626
67	0x3dc3d17e	0.09561442
68	0xbc9baa56	-0.019002121
69	0xbe58d5d2	-0.21175316
70	0x3c389054	0.011264879
71	0xbde9fba7	-0.11424952
72	0xbd8f7701	-0.0700512
73	0xbdbfcecf	-0.093656175
74	0xbd7ea4de	-0.06216895
75	0x3c9de8fd	0.019276137
76	0xbde26f3e	-0.11056374
77	0xbc141d3b	-0.009040172
78	0x3cd6c31b	0.02621608
79	0xbd8d874b	-0.06910571
80	0xbe15d59a	-0.14632264
81	0xbe290b85	-0.165083
82	0xbb1aab57	-0.0023600662
83	0xbde051b1	-0.109530814
84	0xbe013c26	-0.12620601
85	0xbde7470d	-0.11292849
86	0xbed200d8	-0.4101627
87	0xbd07d278	-0.033159703
88	0xbdff3ff1	-0.12463368
89	0xbe6a64d8	-0.22890031
90	0xbbe240be	-0.0069046905
91	0x3cb3a39e	0.021928605
92	0x3b219b6a	0.0024659284
93	0xbdb74e85	-0.08950523
94	0x3c930029	0.017944412
95	0xbd6463d4	-0.055759266
96	0x3d1feafb	0.039042454
97	0xbdfe7fb9	-0.12426705
98	0xbd4c3db2	-0.049863525
99	0xbe037efd	-0.12841411
100	0xbd288ddf	-0.041150924
101	0xbca1872a	-0.019717772
102	0xbc3ca030	-0.011512801
103	0x3cc31e36	0.023818117
104	0x3b676120	0.0035305694
105	0xbdfc0097	-0.123048
106	0xbe114d13	-0.14189558
107	0x3bec114e	0.0072042113
108	0x3d42b4fa	0.047535874
109	0xbcc0017f	-0.023438213
110	0xbe127943	-0.1430407
111	0xbde645b9	-0.11243767
112	0xbdd60a90	-0.104512334
113	0xba97d44a	-0.0011583653
114	0xbd5c46d8	-0.0537785
115	0x3b84e53d	0.0040556476
116	0xbe4dc23d	-0.20093627
117	0xbd0ec54a	-0.03485612
118	0xbcc41146	-0.023934018
119	0xbb0d45b5	-0.0021556441
120	0xbe03bd11	-0.12865092
121	0x3d2a1b47	0.04152992
122	0xbba95527	-0.0051676217
123	0xbe14cc35	-0.14531024
124	0x3da538e5	0.080674924
125	0x3d7e72ec	0.062121317
126	0xbd03355a	-0.032033302
127	0x3d9cf6b1	0.0766424
128	0xbc771abe	-0.015082059
129	0xbd5efa7b	-0.054438096
130	0xbd3bdbc0	-0.045863867
131	0xbcc90f6b	-0.024543485
132	0x3d1262d8	0.035738796
133	0xbba17e1c	-0.0049283635
134	0x3b835f8b	0.0040091923
135	0xbd952879	-0.0728311
136	0x3cba42dc	0.02273696
137	0x3d8104ed	0.06299768
138	0x3d7aa9f1	0.061197225
139	0xbd73fd48	-0.05956772
140	0xbda9cc9b	-0.082909785
141	0xbe0eb6c8	-0.13936913
142	0xbcaf17e6	-0.0213737
143	0xbdc3e925	-0.09565953
144	0xbca9ebd1	-0.020742329
145	0x3de2e706	0.110792205
146	0x3d6d9fbd	0.058013666
147	0x3d8d3bad	0.06896148
148	0x3b9b1be1	0.004733548
149	0x3dc4164c	0.09574565
150	0xbd0e253c	-0.03470348
151	0xbbcc2d55	-0.00623099
152	0x3d05b33d	0.032641638
153	0x3d9dfaa6	0.07713823
154	0x3d9c9231	0.07645071
155	0x3d5421b6	0.05178996
156	0xbda2400d	-0.07922373
157	0xbd3f2ec1	-0.046675447
158	0x3d81a829	0.06330902
159	0x3d520ae7	0.05127993
160	0x3cd868bb	0.026417127
161	0xbd859f06	-0.06524472
162	0x3d7365ec	0.059423372
163	0x3c9d1929	0.019177036
164	0xbb84f179	-0.004057106
165	0xbbef164d	-0.0072963596
166	0x3d93757c	0.07200143
167	0xbcc6fa69	-0.024289327
168	0xbcae90db	-0.021309307
169	0x3d5f0c23	0.054454934
170	0xbde35a6c	-0.11101231
171	0x3c68525c	0.014179792
172	0xbd7ed15f	-0.06221139
173	0xbdb0fd31	-0.086420424
174	0xbdbf97d2	-0.09355129
175	0x3d880479	0.06641478
176	0xbdcfb6f9	-0.10142321
177	0xbccf0df0	-0.0252752
178	0xbdb28a34	-0.087177664
179	0xbd3c5bfe	-0.045986168
180	0xbd3b01b9	-0.04565594
181	0x3cad3e2d	0.021147812
182	0xbd984b13	-0.07436194
183	0x3d647e13	0.055784296
184	0x3d1bc400	0.038028717
185	0xbd35b71a	-0.044364072
186	0xbb65ab99	-0.0035044907
187	0xbdc5108b	-0.09622296
188	0xbc97948c	-0.01850345
189	0xbc398bd9	-0.011324846
190	0xbcf05991	-0.029339584
191	0xbd50c12b	-0.05096547
192	0xbd4ebd5d	-0.05047356
193	0x3d27807d	0.04089402
194	0x3de0524c	0.10953197
195	0xbdd75c1e	-0.10515617
196	0x3cc416aa	0.023936588
197	0x3de7cc72	0.11318292
198	0x3b6d63ba	0.0036222772
199	0xbde31781	-0.110884674
200	0xbd97edfe	-0.0741844
201	0x3dc831cf	0.09775125
202	0xbe11b6fd	-0.1422996
203	0x3cc81ba1	0.024427237
204	0xbc1d3476	-0.009595027
205	0x3d2de0ed	0.042450834
206	0x3d1c326d	0.038134027
207	0xbdb701a0	-0.08935857
208	0xbcc796dd	-0.02436393
209	0x3e1f7040	0.15570164
210	0xbdf5c942	-0.120012775
211	0xbdc75ab0	-0.09734094
212	0x3da2b2ef	0.07944285
213	0x3d93e239	0.07220883
214	0x3e4537ae	0.19259521
215	0xbdead5b2	-0.114665404
216	0x3d1f2912	0.038857527
217	0xbd29a29d	-0.041414846
218	0xbe06e21b	-0.1317219
219	0xbd8394d7	-0.06424873
220	0xbd9e763b	-0.077373944
221	0x3cdd7e5e	0.027037796
222	0x3ca23425	0.019800255
223	0xbdf76731	-0.12080229
224	0x3d15129a	0.036394693
225	0xbd7323c3	-0.059360277
226	0x3dc12589	0.094309874
227	0xbcaa9b80	-0.020826101
228	0x3b73b9bc	0.0037189564
229	0xbe1ae0b5	-0.15124781
230	0x3d42aad4	0.047526196
231	0xbc3016b6	-0.010747602
232	0x3e0267b4	0.12734872
233	0x3dadf92b	0.08494791
234	0xbd301102	-0.04298497
235	0x3dc17815	0.09446732
236	0x3d31466d	0.043280054
237	0xbd6c41e6	-0.057680033
238	0x3dbee1a4	0.09320381
239	0xbddedb6c	-0.10881695
240	0x3d1d20ee	0.038361482
241	0x3db49e3d	0.08819244
242	0xbc922720	-0.017840922
243	0xbc58d9bd	-0.013235507
244	0xbd6ae889	-0.05735067
245	0xbc9b584f	-0.018963007
246	0xbe0428eb	-0.12906234
247	0xbdb20967	-0.086931996
248	0xbcc18701	-0.023623945
249	0xbd2772d0	-0.040880978
250	0xbe0e2508	-0.13881314
251	0x3e879489	0.2648051
252	0x3ccce18c	0.025009893
253	0xbd37944c	-0.04481916
254	0xbd176529	-0.03696171
255	0xbd1eaf96	-0.03874167

lstm_layer.bias_hh_l0 f4 [256]
0	0x3d2fce9d	0.04292165
1	0xbd966c19	-0.07344837
2	0xbd95685d	-0.07295296
3	0xbdc38827	-0.095474534
4	0xbe1310a7	-0.14361821
5	0x3e1e3134	0.15448457
6	0xbd8f1920	-0.06987214
7	0xbda96014	-0.082702786
8	0xbdc8063b	-0.09766813
9	0x3d84a525	0.06476811
10	0xbc7796f2	-0.015111672
11	0x3d342fab	0.043990772
12	0x3d5e72a6	0.054308556
13	0x3e464ba6	0.19364795
14	0xb9eb6581	-0.0004489832
15	0xbd71944f	-0.05897933
16	0xbcb5e8f2	-0.022205804
17	0x3e619c7a	0.22032347
18	0xbcf540db	-0.029938152
19	0xbdc379a3	-0.09544685
20	0xbdd8535b	-0.10562774
21	0x3ad0e735	0.0015938046
22	0x3e27d33d	0.16389175
23	0x3d6de3b1	0.05807847
24	0xbd330f89	-0.043715987
25	0x3db9a51c	0.09064695
26	0x3d34ffb6	0.044189177
27	0x3d58eefb	0.052962285
28	0xbd4c5fd5	-0.04989608
29	0x3db8705f	0.09005808
30	0x3d05ad7c	0.03263615
31	0x3bdf8ed7	0.0068224478
32	0x3dcd21e5	0.100162305
33	0xbd93145c	-0.071816176
34	0xbdc0543e	-0.09391068
35	0xbc9f3aae	-0.01943716
36	0xbd23cdfe	-0.03999137
37	0x3d8be762	0.06831242
38	0xbe06ea73	-0.13175373
39	0x3cc3bcfa	0.023893822
40	0x3d6b27da	0.057411052
41	0xbd7ea94e	-0.06217318
42	0x3e207206	0.15668496
43	0x3d9305d3	0.07178845
44	0x3d919476	0.07108395
45	0xbd4adec1	-0.04952884
46	0x3b5dd3b5	0.003384811
47	0x3dabe9e9	0.08394224
48	0x3d9a1335	0.07523195
49	0x3e03b546	0.12862119
50	0x3d95d032	0.07315101
51	0x3d884eb2	0.06655635
52	0x3e0514c2	0.129962
53	0x3c79382a	0.015211144
54	0x3ca25281	0.019814732
55	0x3daf34a6	0.08554964
56	0xbe01ddf3	-0.12682323
57	0x3d535b5f	0.05160081
58	0xbd062e48	-0.03275898
59	0x3e90f922	0.28315073
60	0x3cc04288	0.023469225
61	0xbdbe55db	-0.092937194
62	0xbdb29fe0	-0.087219
63	0xbcae8fc0	-0.02130878
64	0xbd900232	-0.07031669
65	0xbdf93f35	-0.12170259
66	0x3c9d710e	0.019218948
67	0x3c1d8e47	0.009616441
68	0xbe11c0d9	-0.14233722
69	0x3cab847b	0.020937195
70	0x3c90409d	0.017608935
71	0x3d153b46	0.03643348
72	0xbda9f798	-0.08299178
73	0xbd095ed4	-0.0335377
74	0xbd95153a	-0.07279439
75	0xbd66dcd1	-0.05636293
76	0x3d21d3a9	0.039508495
77	0x3d39b919	0.04534254
78	0xbe11bfd1	-0.14233328
79	0xbd0e18bf	-0.03469157
80	0x3c40f8af	0.011778041
81	0xbdd70e00	-0.10500717
82	0xbdbc88a4	-0.0920575
83	0xbde409c8	-0.11134678
84	0x3d9f8006	0.077880904
85	0xbb0ae249	-0.0021192005
86	0xbea096e6	-0.31365126
87	0x3ce4bedf	0.027923046
88	0xbde0cb7c	-0.109763116
89	0xbe220d5b	-0.15825407
90	0xbdbcd3bf	-0.09220075
91	0x3d07eb16	0.03318318
92	0xbdd60d62	-0.10451771
93	0xbcc6b08e	-0.02425411
94	0xbd970f6e	-0.0737599
95	0xbe0686d1	-0.13137366
96	0xbcd0c417	-0.025484128
97	0xbd6bcc9f	-0.05756819
98	0xbd1eb42c	-0.038746044
99	0xbe18cde8	-0.14922297
100	0xbdefd1f3	-0.117099665
101	0x3d834a84	0.06410697
102	0x3d2db782	0.042411335
103	0xba2390e2	-0.0006239546
104	0xbde5886c	-0.11207661
105	0x3c2cb7e4	0.01054189
106	0xbd3dbc7f	-0.046322342
107	0xbdf50a8b	-0.119649015
108	0xbdb44dde	-0.088039145
109	0x3cae3380	0.021264791
110	0xbe15e749	-0.1463901
111	0x3cfcdfdb	0.030868461
112	0xbdc94d8a	-0.098292425
113	0xbe39a52e	-0.18129417
114	0x3d8745f5	0.0660514
115	0xbcfde6cb	-0.03099384
116	0xbe12f941	-0.14352895
117	0x3d26880d	0.040657092
118	0xbc808ac7	-0.015691174
119	0xbc97bb88	-0.018522039
120	0xbd2d61f6	-0.04232975
121	0xbc9fe1bc	-0.019516818
122	0xbddc0b4b	-0.107443415
123	0xbea28925	-0.31745258
124	0xbd1ea167	-0.038728144
125	0xbdf4c3bb	-0.11951395
126	0xbd7b06f3	-0.061285924
127	0x3ba71695	0.0050991275
128	0x3d5970a1	0.053085927
129	0x3cf70cc8	0.030157462
130	0x3d28aeb8	0.04118225
131	0x3d63132f	0.055438217
132	0x3c4979b7	0.0122970855
133	0x3ae576a7	0.0017506675
134	0x3c428323	0.011872086
135	0x3de2115b	0.110384665
136	0x3d40211b	0.04690657
137	0xbb8f3e0d	-0.0043714107
138	0xbd6a65da	-0.05722604
139	0xbbea30ef	-0.0071469466
140	0x3d3a6e12	0.045515127
141	0x3dad9c4f	0.08477079
142	0xbd5905e9	-0.052984152
143	0xbc7375b7	-0.014859608
144	0x3d098ea5	0.033583302
145	0xbdf1bbc0	-0.118033886
146	0x3c8247b5	0.015903333
147	0x3cb6abf9	0.0222988
148	0xbd751888	-0.059837848
149	0xbde9e919	-0.11421413
150	0x3dd7cc5f	0.105370276
151	0xbc6309f6	-0.013857355
152	0xbd96daa5	-0.07365922
153	0xbd5c7ea1	-0.0538317
154	0xbdc8fa2b	-0.09813341
155	0x3d4c38b7	0.049858775
156	0xbdbcf257	-0.0922591
157	0xbd0cc561	-0.034367923
158	0xbdb004bf	-0.08594655
159	0xbd7ca25b	-0.06167827
160	0xbd2a28cf	-0.041542824
161	0x3d4091ef	0.047014173
162	0xbba152d1	-0.0049232026
163	0x3d5ba753	0.05362637
164	0x3d520572	0.051274724
165	0x3d410ff8	0.04713437
166	0xbd8bcc5f	-0.0682609
167	0x3d26ef19	0.040755365
168	0xbd164157	-0.036683407
169	0x3d51c06a	0.05120889
170	0x3e06dd69	0.13170399
171	0xbd148a92	-0.036264963
172	0x3cc6d796	0.024272721
173	0x3d84c6b2	0.064832106
174	0x3ddd98f5	0.1082019
175	0xbd5b7fd1	-0.053588692
176	0x3d1d0865	0.038338084
177	0x3d0d88a0	0.034554124
178	0xbc89a8f7	-0.016804202
179	0x3da92f0d	0.08260927
180	0xbc7b2459	-0.01532849
181	0xbd26f66b	-0.040762346
182	0xbcde4d73	-0.02713654
183	0x3d532983	0.05155326
184	0x3d8729f6	0.065998
185	0xbd5c8e9d	-0.053846944
186	0xbc8352a9	-0.016030626
187	0x3c8dbe3f	0.01730263
188	0x399a8a23	0.0002947609
189	0x3d6c3086	0.057663463
190	0x3c991dcc	0.018690966
191	0x3dd24430	0.10266912
192	0x3e153081	0.14569284
193	0xbc238951	-0.009981469
194	0x3b8d2c53	0.0043082624
195	0x3c8edc34	0.017438985
196	0x3d8a1ec2	0.06744148
197	0x3d497557	0.04918417
198	0xbda11228	-0.07864791
199	0x3d8f3f0f	0.06994449
200	0x3c893cbe	0.016752597
201	0xbdd50c03	-0.10402682
202	0xbe08e48d	-0.13368435
203	0x3cb53330	0.022119135
204	0xbd815c81	-0.06316472
205	0xbce4404c	-0.02786269
206	0x3c75db6c	0.0150059275
207	0xbcfbb734	-0.030727006
208	0x3caa25d3	0.02076999
209	0x3d910ef2	0.07082929
210	0x3a2bfd50	0.0006560879
211	0xbde13c9e	-0.1099789
212	0x3db1d103	0.08682444
213	0x3d95e22f	0.07318532
214	0x3e7e6ee4	0.24846989
215	0xbd417258	-0.047228187
216	0xbe1c9e24	-0.15294701
217	0x3b9fa863	0.004872368
218	0xbd73ac14	-0.05949028
219	0xbd8555c8	-0.06510502
220	0xbcffd9b7	-0.031231744
221	0xb8b47b47	-8.606031e-05
222	0xbe182321	-0.1485715
223	0x3dbab743	0.09116986
224	0x3e083a84	0.13303572
225	0xbe2f0e82	-0.17095378
226	0x3c3b69b6	0.011438778
227	0x3c805e63	0.015670007
228	0xbc68ff57	-0.014221034
229	0xbdb1dff2	-0.08685292
230	0x3d09e317	0.033663835
231	0x3d5124e7	0.051060583
232	0xbcf39e23	-0.029738491
233	0xbddbcd97	-0.107325725
234	0x3e13668a	0.14394584
235	0xbb880a66	-0.00415163
236	0x3de7d861	0.11320568
237	0xbdd6b574	-0.10483828
238	0xbe04d51b	-0.12971918
239	0x3da791b6	0.08182089
240	0x3d8a3703	0.06748774
241	0xbdca4f70	-0.09878433
242	0xbd2bf56a	-0.041982092
243	0xbd16077b	-0.036628228
244	0xbe078577	-0.13234507
245	0xbe031fa9	-0.12805046
246	0x3d1102d1	0.035403077
247	0xbd9403b7	-0.07227271
248	0xbdef8eaf	-0.116971366
249	0xbe3ae65a	-0.18251935
250	0x3c246dba	0.0100359265
251	0x3e73d195	0.23810418
252	0xbcdc37bc	-0.026882045
253	0x3d8f23f8	0.06989282
254	0xbd503924	-0.050835744
255	0xbd3326b1	-0.04373807

fc.weight f4 [1, 65]
0	0x3f4d01ca	0.80080855
1	0x3ec2d97b	0.3805655
2	0xbf6d46ad	-0.9268597
3	0xbea49201	-0.32142642
4	0xbf8537b9	-1.040763
5	0xbd885955	-0.06657664
6	0xbef34b05	-0.47518173
7	0x3ecc56d7	0.39910004
8	0x3f377e58	0.7167716
9	0x3f1faff0	0.62377834
10	0xbc750bf2	-0.014956461
11	0xbf9c7f22	-1.2226298
12	0x3f18184e	0.59412086
13	0x3f916889	1.1360027
14	0x3f83d115	1.0298182
15	0xbe4b35d4	-0.19844753
16	0x3fb219f9	1.3914176
17	0x3f29fa10	0.6639719
18	0x3e9b4412	0.3032537
19	0xc06b706a	-3.6787362
20	0x3f929b25	1.1453596
21	0x3de6cbec	0.11269364
22	0x4013cf17	2.3095148
23	0x3fd8ce14	1.693789
24	0xc00c1f48	-2.1894093
25	0xbd4ac7c6	-0.049506925
26	0xc004a05e	-2.072288
27	0xbf6a9edb	-0.91648644
28	0xbe08f820	-0.13375902
29	0xbf296a22	-0.6617757
30	0x3f8e048a	1.1095135
31	0x3f0ad418	0.5422988
32	0xbf20c113	-0.6279461
33	0x3fc60f3e	1.5473402
34	0xbeaa6aad	-0.33284512
35	0x3e4a8f00	0.19781113
36	0x3f84a9c1	1.0364305
37	0xbe460a4c	-0.19339865
38	0x40041fe9	2.0644476
39	0x3ea1fd59	0.316386
40	0x3f6189c6	0.8810085
41	0xbe71bc6a	-0.2360703
42	0x3f04954b	0.51790303
43	0x3fd7eb53	1.686869
44	0xbf66009e	-0.8984469
45	0xbe8c34a2	-0.27383906
46	0x3f4ac3b5	0.79204875
47	0x3ea6d37e	0.3258323
48	0xbeff512b	-0.49866614
49	0xbfb7ff35	-1.4374758
50	0xbfdd6db3	-1.7299103
51	0x3f52e523	0.82380885
52	0x3f3c2469	0.7349306
53	0x3f96f305	1.1792914
54	0x3ec1dc8b	0.37863573
55	0xbf499476	-0.7874216
56	0xbf97e450	-1.186655
57	0x3f9de608	1.2335825
58	0xbfcfbcde	-1.6229513
59	0x3f67b794	0.90514493
60	0x3d8526ac	0.06501517
61	0x3f8b3220	1.0874672
62	0x3f4a888c	0.79114604
63	0xbc593714	-0.013257761
64	0x3f38bb1f	0.72160524

fc_final1.weight f4 [64, 128]
0	0xbbd3b4a0	-0.006460741
1	0x3c2a6ec0	0.010402381
2	0x3d135c39	0.035976622
3	0x3d0fbaa3	0.0350901
4	0xbd876b20	-0.06612229
5	0x3e2ecb3c	0.17069715
6	0xbcb9561f	-0.022624074
7	0x3d3a10fe	0.04542636
8	0x3ce95407	0.02848245
9	0x3db0adf7	0.08626931
10	0x3d8f20e8	0.06988698
11	0xbda96b71	-0.08272446
12	0x3d2976e9	0.041373167
13	0xbd981056	-0.07424991
14	0x3b4ceac1	0.0031267854
15	0x3d7e275a	0.062049247
16	0x3cd57549	0.026056902
17	0x3d9e53db	0.07730838
18	0xbb7cc5b7	-0.0038569996
19	0x3d3c52c2	0.04597736
20	0xbca181f2	-0.019715283
21	0xbb17d3a3	-0.0023166917
22	0x3defc81f	0.11708092
23	0xbbcbc78c	-0.006218856
24	0xbd0e03c6	-0.034671567
25	0x3db9e494	0.09076801
26	0x3c72b73c	0.014814194
27	0xbd858e23	-0.06521251
28	0x3cf23d99	0.029570388
29	0xbdc3e0eb	-0.09564384
30	0x3d9a2b4c	0.075277895
31	0xbcf98c1f	-0.030462323
32	0x3d918054	0.07104555
33	0xbd536bad	-0.05161636
34	0xbcbcd917	-0.023052735
35	0xbd9f88fe	-0.07789801
36	0x3db90287	0.09033685
37	0xbd7f3098	-0.062302202
38	0xbac9e2a1	-0.0015402624
39	0x3d8c27f7	0.0684356
40	0xbe072912	-0.13199261
41	0x3cc3268c	0.023822092
42	0x3d9170f6	0.07101624
43	0xbd86aa38	-0.065754354
44	0x3d04e527	0.0324451
45	0xbd51e08a	-0.051239528
46	0x3d2e1e25	0.042509217
47	0x3dc6a2e0	0.09699035
48	0xbda4112c	-0.08011088
49	0xbccfd2cf	-0.025369076
50	0xbdb59dee	-0.08868013
51	0x3c38be57	0.011275849
52	0xbda6b81a	-0.08140583
53	0x3d5e590c	0.05428414
54	0xbd451243	-0.04811312
55	0xbd62fc8c	-0.05541663
56	0x3d5fea89	0.05466703
57	0xbd97c963	-0.07411458
58	0xbda63de4	-0.081172734
59	0x3ca920f2	0.020645592
60	0xbd6f6b94	-0.058452204
61	0x3d307ba0	0.043086648
62	0x3d5e0f2a	0.05421368
63	0x3d8b7edd	0.068113066
64	0xbd9860ec	-0.074403614
65	0x3caae5be	0.020861503
66	0x3dbc66d0	0.091992974
67	0xbbd81325	-0.006594079
68	0x3c697667	0.014249421
69	0xbbf080be	-0.007339566
70	0xbafe1dcb	-0.0019387541
71	0x3bc9adb0	0.0061547384
72	0x3c0de27a	0.008659953
73	0x3d83b292	0.06430544
74	0x3dad96aa	0.084760025
75	0xbd64482d	-0.055732895
76	0x3da00e4a	0.078152254
77	0x3ce951d5	0.028481403
78	0x3d4dc53b	0.05023692
79	0xbcd14c3d	-0.025549049
80	0xbd96531e	-0.07340072
81	0xbc1355fd	-0.008992669
82	0x3ce210ce	0.027595904
83	0x3d26f2ab	0.04075877
84	0x3d168d94	0.036756113
85	0x3d972867	0.07380753
86	0x3d259953	0.040429424
87	0x3e2119bc	0.15732473
88	0x3d7e71ae	0.062120132
89	0x3b076a0b	0.0020662572
90	0xbc8b3938	-0.016995057
91	0x3d5aa62b	0.053381126
92	0x3d62cf53	0.0553735
93	0xbccc2d8d	-0.024924064
94	0x3d9f460f	0.077770345
95	0xbc25287c	-0.010080453
96	0xbd985fdb	-0.07440158
97	0x3d135a88	0.03597501
98	0x3db8f518	0.09031123
99	0x3d836daf	0.06417405
100	0xbd50bde3	-0.05096234
101	0x3c578a65	0.013155554
102	0x3d238e84	0.039930835
103	0x3dd05cf5	0.1017398
104	0xbc9dd2fc	-0.019265644
105	0x3c8a4869	0.016880231
106	0x3d852097	0.06500357
107	0xbc8f94fb	-0.017527094
108	0xbd43ceda	-0.04780469
109	0x3df0a692	0.11750521
110	0x3d7b2da0	0.06132281
111	0xbd5fb58b	-0.054616492
112	0x3d98f651	0.07468856
113	0xbd37d9aa	-0.044885315
114	0x3c7b06cf	0.0153214475
115	0xbd98c3ed	-0.07459245
116	0x3d463014	0.048385695
117	0xbcef9907	-0.029247774
118	0xbc39d7fe	-0.011343
119	0xbc82166e	-0.015879836
120	0x3d197662	0.037466414
121	0x3cee7b9d	0.029111678
122	0x3aff5d42	0.0019482749
123	0xbaf13de8	-0.001840529
124	0xbd00861b	-0.031377893
125	0x3d93ffb9	0.072265096
126	0xbc4545d3	-0.012040573
127	0x3d5faa30	0.054605663
128	0x3b5cbbee	0.003368135
129	0xbd163752	-0.03667385
130	0x3c83329c	0.016015343
131	0x3cc6e512	0.024279151
132	0x3d10ceeb	0.035353582
133	0x3db69371	0.08914841
134	0x3d25d151	0.040482823
135	0xbd3323ca	-0.043735303
136	0x3c3a9a1b	0.011389281
137	0x3c462987	0.012094862
138	0xbd91ead4	-0.07124868
139	0x3dbf2e8d	0.09335051
140	0xbba4032d	-0.0050052614
141	0xbd67be4b	-0.056577962
142	0xbd6e8e7a	-0.058241345
143	0xbd811ad6	-0.06303947
144	0x3d87dd43	0.06633999
145	0x3d1f8ca5	0.03895249
146	0x3d0cbdc9	0.03436068
147	0xbd00cd12	-0.03144557
148	0xbca3fcac	-0.020017944
149	0x3d8ef6d0	0.069806695
150	0xbd846239	-0.06464047
151	0xbd0e4f43	-0.03474356
152	0xbd54a63f	-0.051916357
153	0xbdb4ff28	-0.0883773
154	0xbda5d313	-0.080969
155	0xbba6b764	-0.00508778
156	0xbc7859b7	-0.015158108
157	0xbc687ca7	-0.014189876
158	0x3cd3e200	0.025864601
159	0xbdaeb556	-0.08530681
160	0xbbe8524d	-0.007089889
161	0xbd5c039a	-0.053714372
162	0xbb928d08	-0.0044723786
163	0x3c8b8285	0.01703001
164	0xbd62aa66	-0.055338286
165	0x3bb4ebbe	0.0055212667
166	0xbd29fe2b	-0.04150216
167	0xbd54aa21	-0.05192006
168	0xbcb7522b	-0.022378048
169	0x3c7d5981	0.015463234
170	0x3c5a1b0c	0.013312113
171	0x3cff3313	0.031152284
172	0xbd229fe9	-0.039703283
173	0xbbf2786e	-0.0073996102
174	0x3d69b020	0.05705273
175	0xbd7cc730	-0.061713398
176	0x3c5000b4	0.01269548
177	0x3d81254c	0.06305942
178	0xbd328950	-0.043587983
179	0xbd704291	-0.058657233
180	0x3df63b06	0.120229766
181	0xbd757920	-0.059929967
182	0x3d885c43	0.066582225
183	0xbda3aeb8	-0.07992309
184	0x3d0a9c75	0.033840615
185	0x3c5cab20	0.013468534
186	0x3d01e310	0.031710684
187	0x3ac5d197	0.001509237
188	0xbda0260d	-0.078197576
189	0x3d3b6ac8	0.04575613
190	0x3bd44394	0.0064777825
191	0x3d477b06	0.04870131
192	0x3a831f34	0.0010003806
193	0xbd82cca9	-0.06386692
194	0xbd6974a8	-0.056996018
195	0x3d730ed3	0.05934031
196	0xbd08285d	-0.03324162
197	0x3c289e14	0.010291595
198	0xbc89fdb8	-0.016844615
199	0xbd232008	-0.03982547
200	0xbd9d3de3	-0.076778196
201	0xbdbd34c1	-0.09238578
202	0xbcbe71f3	-0.023247695
203	0x3da90649	0.08253152
204	0xbd99675e	-0.07490419
205	0x3d25af07	0.040450122
206	0x3d77d036	0.0605013
207	0xbdc9f13a	-0.098604634
208	0xbd90642b	-0.070503555
209	0x3d25fd97	0.040525045
210	0x3c7c8bc0	0.015414178
211	0x3c0a7edf	0.0084531
212	0xbd037598	-0.032094568
213	0xbdc7a1a0	-0.097476244
214	0xbd3f83fb	-0.046756726
215	0xbd1abc63	-0.037777316
216	0x3c2a83b3	0.010407376
217	0xbd4cd63d	-0.050009
218	0x3c1d9bb7	0.009619645
219	0x3d957fdf	0.0729978
220	0xbcb51ea1	-0.022109332
221	0x3bd69f77	0.0065497714
222	0xbcc0a35c	-0.023515396
223	0xbc846a8a	-0.016164083
224	0xbd50afd3	-0.05094893
225	0xba353c52	-0.00069135905
226	0x3d1458c5	0.03621747
227	0x3db7cd8b	0.08974751
228	0x3d460428	0.048343807
229	0x3d7fa8c7	0.062416818
230	0x3d25ec26	0.04050841
231	0x3ca908e7	0.020634128
232	0xbd45a07e	-0.04824876
233	0xbbe5d8fb	-0.0070143915
234	0x3d183649	0.037161145
235	0xbdb10e76	-0.08645336
236	0xbd4297c0	-0.047508
237	0x3d1c8b3e	0.03821873
238	0xbd368ce2	-0.04456795
239	0x3d8f3498	0.06992453
240	0xbd8c3b4d	-0.06847248
241	0x3d8e08ef	0.06935298
242	0xbd6a2a60	-0.05716932
243	0x3d13d299	0.036089513
244	0xbd90c24e	-0.07068311
245	0xbbfc922e	-0.0077078557
246	0x3dea4376	0.114386484
247	0xbcac1f20	-0.021010935
248	0x3d5f9a00	0.054590225
249	0x3c255504	0.01009107
250	0x3dd5b0b4	0.10434094
251	0x3d2bff53	0.041991543
252	0x3cb78752	0.022403393
253	0x3d764213	0.060121607
254	0x3d035c33	0.03207035
255	0xbd090b9e	-0.033458345

fc_final1.bias f4 [64]
0	0xbd032aea	-0.032023348
1	0x3d36f3a9	0.044665966
2	0xbdc63c2b	-0.09679445
3	0x3c982fd5	0.018577496
4	0xbda0fd11	-0.078607686
5	0xba745e4d	-0.0009321913
6	0x3d95403e	0.07287644
7	0x3c1fd8f1	0.009756313
8	0xbd42a1ad	-0.047517467
9	0x3dd5c2a9	0.10437519
10	0xbd6c5cda	-0.057705738
11	0xbd2aa88b	-0.04166464
12	0xbc8e2a13	-0.017354047
13	0x3d9b2abb	0.075765096
14	0x3da620bf	0.081117146
15	0xbce27e37	-0.027648075
16	0xbc7524e2	-0.014962407
17	0x3da6f07e	0.08151339
18	0xbd8dad66	-0.06917839
19	0xbd3e8ca5	-0.046520848
20	0x3cf57278	0.02996181
21	0x3d1edd30	0.03878516
22	0xbd887289	-0.06662471
23	0xbd71bd61	-0.059018496
24	0x3da85ea6	0.08221178
25	0x3c1f30bb	0.009716208
26	0xbd679834	-0.056541637
27	0x3d3ba33d	0.045809973
28	0x3d0ebb61	0.034846667
29	0xbd91cfa6	-0.07119684
30	0x3d3c54fb	0.04597948
31	0x3cf8e293	0.030381477
32	0xbd7fe72b	-0.06247632
33	0xbd4f31de	-0.050584666
34	0x3d9b5846	0.07585196
35	0x3d4b8d6f	0.04969543
36	0xbceee6bc	-0.029162757
37	0x3cf72d9a	0.030173112
38	0xbb214172	-0.002460566
39	0xbcddeb2d	-0.02708968
40	0x3d97a5e1	0.07404686
41	0xbc82d0a6	-0.015968632
42	0x3cfb9c9c	0.030714326
43	0x3d330df8	0.043714494
44	0xbd6a1270	-0.05714649
45	0x3d64b714	0.05583866
46	0xbdd6f43f	-0.10495805
47	0x3c76971f	0.0150506785
48	0x3d4898c4	0.048973814
49	0xbd0a310a	-0.033738174
50	0xbd8a30b5	-0.067475714
51	0xbc566568	-0.013085701
52	0x3b6bb212	0.0035964292
53	0xbceec427	-0.029146267
54	0x3d749f0a	0.059721984
55	0xbdd23b10	-0.102651715
56	0xbd9fc431	-0.078010924
57	0x3c9666c4	0.01835955
58	0x3cf77b87	0.03021027
59	0xbd526e5b	-0.051374774
60	0xbd8d56ff	-0.06901359
61	0x3cc04d28	0.023474291
62	0xbb558930	-0.003258299
63	0x3d816f15	0.06320015

fc_final2.weight f4 [1, 64]
0	0x3bb9ffc6	0.0056762425
1	0x39d43102	0.00040472305
2	0xbd486fd4	-0.048934773
3	0xbd4291be	-0.04750227
4	0xbd941cbd	-0.07232044
5	0xbb96cc59	-0.004601997
6	0x3ca6bfd6	0.020355146
7	0xbca83f4d	-0.020537997
8	0xbd7f34a5	-0.062306065
9	0x3e0329fa	0.12808982
10	0x3b7dbf49	0.0038718751
11	0x3881dd7b	6.192453e-05
12	0x3b1546a9	0.0022777712
13	0x3dcd9c9a	0.10039635
14	0x3d6c7b39	0.0577347
15	0x3a5ad77a	0.00083481485
16	0x3cdbf386	0.02684952
17	0x3de0cee9	0.10976965
18	0xbdb459a0	-0.08806157
19	0x3a3ca214	0.00071957824
20	0x3d260c7b	0.040539246
21	0x3d89feb0	0.06738031
22	0xbd27de9b	-0.040983777
23	0xbc0aef5d	-0.00847992
24	0x3d3dd0ab	0.04634158
25	0x3dd196e0	0.10233855
26	0x3ce6ee48	0.028189793
27	0x3daf3400	0.0855484
28	0x3d28c012	0.041198798
29	0xbd31a060	-0.043365836
30	0x39e97a54	0.00044532365
31	0xbbbb1075	-0.005708749
32	0x3ca51d0a	0.020155448
33	0x3c5055ef	0.012715801
34	0x3d92b7ae	0.0716394
35	0x3dd1cb86	0.10243897
36	0x3d984fec	0.07437119
37	0x3de1c4bf	0.110238545
38	0x3d265aa0	0.04061377
39	0xb98361d7	-0.00025059163
40	0xb9abd42b	-0.0003277374
41	0xbd9ab2bd	-0.07553623
42	0x3cf389f3	0.029728865
43	0x3dad764e	0.084698305
44	0xb91f65d6	-0.00015201358
45	0x3d814a89	0.063130446
46	0xbe035be2	-0.1282802
47	0xbd5fe8e8	-0.054665476
48	0x3dd9cd69	0.10634882
49	0xbd9d31a3	-0.07675483
50	0xbdccb256	-0.099949524
51	0xbc79b063	-0.015239808
52	0x3ce0d94d	0.027447367
53	0x3b43c9ed	0.0029874996
54	0xbd2e0978	-0.0424895
55	0xbd9e5c74	-0.07732478
56	0xbcdf437b	-0.027253857
57	0xbc5e5338	-0.013569646
58	0x3c7798d7	0.015112123
59	0x3da43416	0.08017747
60	0xbd2d74f6	-0.04234787
61	0x38baf543	8.914855e-05
62	0x3ceec893	0.029148376
63	0x3d526bd0	0.05137235
