weights_new/DecoderEpochnew1150_17_8.pt (torch_old, 461851 bytes, 33 tensors)

attn_layer.0.weight f4 [64, 192]
-0.0332739 0.06708803 0.2219316 -0.3426031 -0.13753086 0.20849805 -0.02030944 -0.24238946
-0.027719025 -0.08007993 0.12337086 0.104837626 0.15550385 0.28935668 -0.0027728532 0.015863953
-0.087417275 0.15915076 -0.054456085 -0.08643149 0.20450515 0.0067854174 0.12243874 0.07660179
0.16809112 0.10723759 -0.09095685 -0.12984271 0.08415879 0.3077535 0.28912857 0.26839727
0.17026973 0.24163985 -0.16531165 -0.22147423 -0.018302178 0.0821441 -0.060812812 -0.05397509
0.039617825 -0.18291405 -0.24075678 -0.19578952 -0.19756182 0.2494968 0.019238215 0.16077185
0.2850198 0.034147967 0.27908224 -0.34934604 0.24602744 0.09271349 0.1966171 -0.0985595
-0.16480942 0.06902344 0.15874945 0.26051745 0.015177379 -0.20184909 0.021573734 -0.21371554
-0.082054 0.08955346 0.23282687 -0.34210712 -0.13797505 0.15188941 0.04023769 -0.3577352
-0.059482742 -0.07571885 0.07476375 0.10939161 0.18432929 0.317827 0.039688706 -0.03557036
-0.11160156 0.11257413 0.049447354 -0.1454587 0.33687216 0.08624665 0.15334249 0.0727393
0.23071498 0.10607676 -0.13997822 -0.19177352 0.09955964 0.3077143 0.26396447 0.34255674
0.22744441 0.2461056 -0.22067752 -0.10465437 0.017181035 -0.05250309 0.004067697 -0.00965259
-0.010700147 -0.20997262 -0.24125482 -0.21751648 -0.22696105 0.30841646 0.01483455 0.3014458
0.36794353 0.03456849 0.37635535 -0.50255084 0.32572076 0.12935255 0.14325634 -0.07970271
-0.1935314 0.14866573 0.26012674 0.3496207 0.09627478 -0.17441101 -0.056488674 -0.19350635
-0.083551876 0.34804404 0.1096474 -0.043684904 -0.109762974 0.20381218 -0.4712021 0.38031745
0.38166448 0.103385136 0.33655894 0.058108896 0.16886565 -0.41253757 0.43347412 -0.12550187
-0.041253608 -0.41940054 1.016944 0.03850113 -0.1708277 0.19325054 -0.4120571 0.00865396
-0.20978534 -0.18904611 -0.108835876 -0.08777208 -0.35112888 0.04815376 -0.04178684 0.02685009
0.30344936 0.053589463 0.12505801 -0.30746335 -0.09984297 0.25227037 0.17325583 -0.26904672
0.24454005 0.09062958 -0.20050044 -0.10653718 0.1201327 -0.5830855 -0.19712836 -0.21809328
0.17102025 -0.1334786 -0.2808065 -0.23016119 -0.2239462 -0.113566466 -0.23990986 -0.08295734
0.16577359 -0.49188212 -0.30007958 -0.41645262 0.28742248 0.6995077 -0.32166997 -0.43084309
-0.04505716 -0.12517989 -0.24478807 0.2337162 0.29441217 -0.14633727 -0.0054169684 0.41385582
0.09540069 0.06860785 -0.19823456 0.076525584 -0.13795587 -0.25834998 0.041112278 0.06548653
0.03867918 -0.081655666 -0.06133082 0.15068816 -0.36908218 -0.007732229 -0.18611975 -0.15484776
-0.2503005 -0.20252663 0.10506304 0.24867755 0.01609458 -0.27677247 -0.19094495 -0.28201216
-0.23943163 -0.29843825 0.29204717 0.08699058 -0.09554507 0.06662503 0.06398567 -0.049854156
0.06173018 0.12916976 0.13548705 0.14519563 0.28862146 -0.22306019 -0.018113457 -0.26926625
-0.2551577 0.016490323 -0.3657067 0.30663425 -0.4052431 -0.17683166 -0.090989895 0.03331041
0.07641609 -0.06415194 -0.2949752 -0.24472807 -0.06480339 0.18320602 0.06385281 0.21907593
00000000: 374a 08bd 7365 893d 0a42 633e ac69 afbe
00000010: e4d4 0cbe 8380 553e fc5f a6bc f134 78be
00000020: 0213 e3bc f200 a4bd dda9 fc3d 1cb5 d63d
00000030: 673c 1f3e 8f26 943e c2b8 35bb 1ff5 813c
00000040: d407 b3bd 6bf8 223e 580d 5fbd fe02 b1bd
00000050: cc69 513e 3558 de3b 2ac1 fa3d 66e1 9c3d
00000060: 1420 2c3e 629f db3d 9647 babd 7df5 04be
00000070: 725b ac3d de91 9d3e a908 943e 5e6b 893e
00000080: 305b 2e3e 7070 773e 7547 29be 24ca 62be
00000090: 73ee 95bc 2a3b a83d db16 79bd fc14 5dbd
000000a0: 4d46 223d d24d 3bbe f288 76be 0c7d 48be
000000b0: a54d 4abe 177c 7f3e 7699 9d3c 60a1 243e
000000c0: 1dee 913e bdde 0b3d dee3 8e3e 7cdd b2be
000000d0: 9eee 7b3e 92e0 bd3d fe55 493e 90d9 c9bd
000000e0: cdc3 28be 295c 8d3d 378f 223e 8b62 853e
000000f0: 8baa 783c 87b1 4ebe 66bb b03c 3fd8 5abe
00000100: ed0b a8bd ce67 b73d 2b6a 6e3e aa28 afbe
00000110: 5549 0dbe e688 1b3e 47d0 243d 1129 b7be
00000120: 2da4 73bd 7c12 9bbd bd1d 993d b508 e03d
00000130: d1c0 3c3e 38ba a23e a090 223d 3ab2 11bd
00000140: 5c8f e4bd 448d e63d 4f89 4a3d 20f3 14be
00000150: 827a ac3e 15a2 b03d d005 1d3e 58f8 943d
00000160: 8c40 6c3e c63e d93d 7356 0fbe 4760 44be
00000170: ede5 cb3d bb8c 9d3e 5a26 873e 9963 af3e
00000180: 30e7 683e 1b03 7c3e 4af9 61be 0855 d6bd
00000190: 3ebf 8c3c 7b0d 57bd 514a 853b e625 1ebc
000001a0: ab4f 2fbc 1003 57be 810b 77be a4bc 5ebe
000001b0: 7a68 68be c3e8 9d3e 9d0c 733c 1b57 9a3e
000001c0: 1863 bc3e b097 0d3d a6b1 c03e 2ca7 00bf
000001d0: dfc4 a63e ff74 043e cab1 123e 2d3b a3bd
000001e0: 182d 46be d43b 183e 552f 853e 7c01 b33e
000001f0: b62b c53d cd98 32be ab60 67bd 8726 46be
00000200: 3f1d abbd d432 b23e d18e e03d f1ee 32bd
00000210: 69cb e0bd 24b4 503e 6741 f1be f8b8 c23e
00000220: 8769 c33e 96bb d33d 7451 ac3e 9803 6e3d
00000230: 1eeb 2c3e 2038 d3be 52f0 dd3e 9083 00be
00000240: 8bf9 28bd abbb d6be 392b 823f 5cb3 1d3d
00000250: 75ed 2ebe 78e3 453e 26f9 d2be 57c9 0d3c
00000260: f8d1 56be 4e95 41be 58e5 debd d9c1 b3bd
00000270: 2ac7 b3be e13c 453d ad28 2bbd b8f4 db3c
00000280: b75d 9b3e a080 5b3d 350f 003e d66b 9dbe
00000290: 797a ccbd 9529 813e fa69 313e 7ec0 89be
000002a0: b568 7a3e 009c b93d fd4f 4dbe 2a30 dabd
000002b0: 2208 f63d 1745 15bf 04dc 49be d853 5fbe
000002c0: ef1f 2f3e 9dae 08be dfc5 8fbe 60af 6bbe
000002d0: 2752 65be 8995 e8bd eeaa 75be 8ae5 a9bd
000002e0: 8dc0 293e f9d7 fbbe 08a4 99be 4739 d5be
000002f0: 0a29 933e f012 333f edb1 a4be 7797 dcbe
00000300: db8d 38bd 282f 00be b9a9 7abe 4d53 6f3e
00000310: 31bd 963e 70d9 15be d380 b1bb e9e4 d33e
00000320: 7061 c33d 4682 8c3d 00fe 4abe 72b9 9c3d
00000330: 4e44 0dbe 7346 84be 5965 283d cd1d 863d
00000340: 0f6e 1e3d 163b a7bd 0736 7bbd ff4d 1a3e
00000350: 57f8 bcbe a35e fdbb 2d96 3ebe 6990 1ebe
00000360: 6327 80be 2463 4fbe 4b2b d73d 54a5 7e3e
00000370: c8d8 833c 1fb5 8dbe 1387 43be e663 90be
00000380: 912d 75be e6cc 98be 3587 953e 1e28 b23d
00000390: 22ad c3bd b472 883d eb0a 833d df33 4cbd
000003a0: c9d8 7c3d 1445 043e 1ebd 0a3e 2aae 143e
000003b0: 31c6 933e e469 64be ac62 94bc 44dd 89be
000003c0: 08a4 82be b716 873c e93d bbbe 2aff 9c3e
000003d0: 067c cfbe 5c13 35be e958 babd 7f70 083d
000003e0: 0a80 9c3d 1862 83bd fd06 97be ff99 7abe
000003f0: a4b7 84bd 5c9a 3b3e 43c5 823d 7155 603e

attn_layer.0.bias f4 [64]
-0.18787894 0.18729803 -0.19625011 0.15431856 0.1915359 -0.19395472 0.16775139 0.16705863
-0.16062145 -0.22155713 -0.2922629 -0.16197097 -0.15589294 0.18709792 0.21031758 -0.15388897
0.19260587 0.18686403 -0.24049596 0.13977204 0.16391581 0.1700072 0.17906539 -0.09387421
-0.20592436 0.103913054 -0.22480072 0.25887582 0.17883687 0.23129058 0.1753103 0.2483289
0.12061576 0.25244272 0.21251784 0.2527968 0.17539164 0.2071844 -0.10888018 0.22060536
-0.21120714 0.2104772 0.1247356 0.21282807 -0.18385957 -0.24305846 0.20241226 0.17843145
-0.20832226 -0.20387442 -0.17710164 -0.16869153 -0.1750201 -0.14081745 0.13359405 0.15638006
-0.22590661 -0.18005112 -0.14544651 0.20461321 -0.17965545 -0.2555017 -0.19386409 0.2070489
00000000: 5663 40be 0ecb 3f3e caf5 48be af05 1e3e
00000010: fd21 443e 119c 46be 05c7 2b3e 6b11 2b3e
00000020: f379 24be dfdf 62be 7ca3 95be b8db 25be
00000030: 66a2 1fbe 9996 3f3e 7e5d 573e 1295 1dbe
00000040: 793a 453e 4959 3f3e 9344 76be 6720 0f3e
00000050: 8cd9 273e 5e16 2e3e eb5c 373e 1f41 c0bd
00000060: d6dd 52be 5ed0 d43d 2932 66be 5f8b 843e
00000070: 0321 373e 70d7 6c3e 8b84 333e ee49 7e3e
00000080: 6505 f73d 2c40 813e 479e 593e 956e 813e
00000090: de99 333e 2628 543e 92fc debd 5fe6 613e
000000a0: af46 58be 5687 573e 6175 ff3d 9aef 593e
000000b0: af45 3cbe 51e4 78be 2945 4f3e bcb6 363e
000000c0: 6e52 55be 75c4 50be 225a 35be 79bd 2cbe
000000d0: 7838 33be 7332 10be e1cc 083e 1822 203e
000000e0: 1054 67be 525f 38be eeef 14be 2086 513e
000000f0: 99f7 37be 1ed1 82be 4f84 46be a004 543e

attn_layer.2.weight f4 [1, 64]
0.6097118 -0.6512865 0.6172388 -0.6741939 -0.6391921 0.6012057 -0.63273305 -0.601767
0.57830304 0.60137737 0.64024174 0.66506046 0.65126973 -0.6189409 -0.5799638 0.6448877
-0.6603872 -0.6719782 0.58733463 -0.63320327 -0.5898832 -0.5992221 -0.6662687 0.5975582
0.5590975 -0.5745103 0.59721035 -0.5826317 -0.6877528 -0.61919165 -0.5889224 -0.61129004
-0.60005087 -0.5452284 -0.5629386 -0.61968005 -0.6118671 -0.581921 0.6148867 -0.55533636
0.6028817 -0.66191244 -0.6334574 -0.60920745 0.63462776 0.60671604 -0.6259175 -0.67516714
0.5854355 0.6457986 0.61386013 0.67333335 0.57878816 0.66306365 -0.6929267 -0.66108507
0.61288965 0.67434275 0.6315701 -0.69491166 0.6541972 0.63811874 0.5911579 -0.62638587
00000000: 1316 1c3f b6ba 26bf 5d03 1e3f f997 2cbf
00000010: 18a2 23bf 9ee8 193f cbfa 21bf 670d 1abf
00000020: ab0b 143f def3 193f e2e6 233f 6741 2a3f
00000030: 9db9 263f e972 1ebf 8278 14bf 5c17 253f
00000040: 230f 29bf c306 2cbf 905b 163f 9c19 22bf
00000050: 9602 17bf 9f66 19bf 9690 2abf 93f9 183f
00000060: 0421 0f3f 1b13 13bf c7e2 183f 5a27 15bf
00000070: 9110 30bf 5883 1ebf 9ec3 16bf 817d 1cbf
00000080: ef9c 19bf 1794 0bbf be1c 10bf 5aa3 1ebf
00000090: 52a3 1cbf c6f8 14bf 3769 1d3f 862a 0ebf
000000a0: 7556 1a3f 1873 29bf 442a 22bf 05f5 1bbf
000000b0: f776 223f be51 1b3f 213c 20bf c1d7 2cbf
000000c0: 1adf 153f 0f53 253f f025 1d3f 935f 2c3f
000000d0: 762b 143f 8abe 293f a563 31bf df3c 29bf
000000e0: 56e6 1c3f baa1 2c3f 94ae 213f bbe5 31bf
000000f0: 7879 273f c05b 233f 2056 173f d35a 20bf

lstm_layer.weight_ih_l0 f4 [256, 1]
0.49034214 -0.050073918 0.6474487 0.1266829 -0.13367721 0.75660926 0.14479277 0.014060441
0.1645609 0.21092956 0.036505535 0.08708273 -0.17263497 -0.14971876 0.2308432 0.051806357
-0.06500116 0.67754906 0.08422415 0.036633704 -0.03548478 0.26607206 0.3393959 0.044291127
0.045209143 -0.08480573 0.040569395 0.21173501 0.08890477 -0.31039572 -0.060061224 0.28376397
0.65883255 0.034438044 -0.057561547 -0.07400475 -0.092217356 0.16833377 0.2722101 0.1614003
0.5842166 -0.1278137 0.25692433 0.17944802 0.030340599 -0.05256012 0.07550316 0.34857032
-0.058249403 0.27449268 -0.18661134 0.1214029 -0.2391338 -0.12765115 0.10329089 -0.05018864
-0.1363322 -0.12839276 -0.26745823 0.11618653 -0.084431395 0.4051535 0.11816061 0.41780144
0.49792966 0.19727121 0.51969045 -0.021820525 -0.14490812 0.7562352 0.17508504 -0.017383903
0.2312478 0.41145504 -0.00038923562 0.14835928 -0.120794356 0.004891099 0.32567507 0.15020467
0.13665897 0.65911674 0.14376871 0.07885483 -0.06281776 0.14473237 -0.29731 0.105257615
0.1907707 0.1672267 0.10511842 0.036028877 0.1026722 -0.17422615 -0.058098987 0.4173388
0.5360764 -0.1492064 -0.016939402 0.13084382 0.119804986 0.18801841 0.027916085 0.05774684
0.54062873 0.09508822 0.13070014 0.09929441 -0.010934465 -0.038261317 0.055719998 0.25194862
-0.070926465 0.08045876 -0.102026306 0.13432048 -0.265065 -0.13467816 0.021542616 0.02549088
-0.025037382 0.25468084 -0.15668833 0.20883672 0.2580806 0.31897953 0.15382951 0.3635828
0.3227139 -0.11693563 0.33660886 0.13240896 -0.1434554 0.41144451 -0.09407972 -0.044572014
-0.0075152777 0.27603155 0.10712948 -0.15483592 -0.08762181 -0.21335459 -0.23733255 -0.2126828
0.076827146 0.4330743 0.23407996 -0.13219017 0.052853532 -0.00770532 0.040185522 0.054226868
0.10740205 0.24973872 -0.12755722 -0.1631134 -0.1807666 -0.13536407 -0.038444787 0.14698406
0.3682104 -0.074476205 0.015471539 0.24850422 0.20903942 -0.08495628 0.067455865 0.041936837
-0.38142997 0.08450794 0.22126529 0.09024449 0.117357664 0.06068 0.18519938 0.27474293
-0.04288362 -0.06599558 0.047765076 0.15893215 -0.11474347 0.08570749 -0.015086108 0.16421704
0.10651543 -0.15816401 0.15844102 -0.29239267 0.057896055 -0.23347329 -0.18785743 -0.16596556
0.54367095 -0.08006872 0.7667067 0.041819952 -0.13783215 0.8855056 0.15665074 -0.16730444
0.09766921 0.16494115 -0.090510994 0.08173185 -0.121882156 0.016870046 0.13779669 0.18690337
0.2670519 0.7645812 0.029838491 0.101704806 -0.11745965 -0.037202366 0.38998064 -0.017380457
0.015562616 0.062982716 -0.17342323 0.3562481 0.041674986 -0.43822512 0.022617022 0.40833074
0.68099546 -0.07439444 -0.17828059 0.018162189 0.030639319 0.57516044 0.036158927 0.25620794
0.59738195 -0.047758885 0.26662734 0.40790835 0.17293589 0.12697354 0.088113226 0.51922613
-0.15595496 0.44372132 -0.25265396 0.18541788 -0.3336878 -0.0064859227 0.12441372 -0.027259981
-0.035778522 -0.08693248 -0.24786982 0.18969901 -0.06254518 0.3514075 0.23871319 0.46982172
00000000: 200e fb3e 4f1a 4dbd 33bf 253f 2ab9 013e
00000010: aee2 08be 25b1 413f 8e44 143e c45d 663c
00000020: a782 283e ebfd 573e d486 153d 6e58 b23d
00000030: 39c7 30be e04f 19be 2962 6c3e e732 543d
00000040: 541f 85bd db73 2d3f b67d ac3d 390d 163d
00000050: 7d58 11bd 993a 883e 4dc5 ad3e 9d6a 353d
00000060: 392d 393d a0ae adbd 182c 263d 10d1 583e
00000070: b413 b63d 30ec 9ebe c202 76bd 8349 913e
00000080: 40a9 283f e80e 0d3d a8c5 6bbd cd8f 97bd
00000090: 74dc bcbd b05f 2c3e 1f5f 8b3e 1f46 253e
000000a0: 388f 153f 98e1 02be 968b 833e 39c1 373e
000000b0: d98c f83c 4849 57bd 67a1 9a3d cf77 b23e
000000c0: ed96 6ebd 4e8a 8c3e 0b17 3fbe 15a2 f83d
000000d0: 7edf 74be fcb6 02be 2d8a d33d 9a92 4dbd
000000e0: ab9a 0bbe 6479 03be 49f0 88be 34f3 ed3d
000000f0: 5eea acbd 4870 cf3e 31fe f13d 12ea d53e
00000100: a3f0 fe3e 7701 4a3e 6f0a 053f f5c0 b2bc
00000110: cb62 14be a198 413f 7e49 333e b068 8ebc
00000120: 39cc 6c3e 3caa d23e 5212 ccb9 7feb 173e
00000130: 0863 f7bd 8345 a03b e2be a63e 41cf 193e
00000140: 54f0 0b3e e0bb 283f 1b38 133e a47e a13d
00000150: 99a6 80bd b934 143e 0439 98be 4e91 d73d
00000160: 6559 433e 7a3d 2b3e 5448 d73d 0493 133d
00000170: cd45 d23d 5768 32be 34f9 6dbd 6ead d53e
00000180: 4e3c 093f 90c9 18be 80c4 8abc ecfb 053e
00000190: 515c f53d e687 403e 46b0 e43c f387 6c3d
000001a0: a566 0a3f 9dbd c23d 42d6 053e de5a cb3d
000001b0: 7826 33bc e6b7 1cbd a73a 643d 69ff 803e
000001c0: e541 91bd 90c7 a43d 2bf3 d0bd 4f8b 093e
000001d0: 9ab6 87be 12e9 09be 247a b03c 40d2 d03c
000001e0: 321b cdbc 8765 823e e872 20be 4bd9 553e
000001f0: 2423 843e 4951 a33e 7c85 1d3e 8627 ba3e
00000200: c23a a53e f37b efbd ff57 ac3e 3796 073e
00000210: f9e5 12be dba8 d23e deac c0bd 2591 36bd
00000220: b842 f6bb 0254 8d3e b366 db3d 4f8d 1ebe
00000230: 1073 b3bd a079 5abe 4e07 73be 85c9 59be
00000240: 8d57 9d3d eabb dd3e a8b2 6f3e dc5c 07be
00000250: f27c 583d e97c fcbb 9399 243d fe1c 5e3d
00000260: 9bf5 db3d 82bb 7f3e 5c9e 02be 3307 27be
00000270: e11a 39be e19c 0abe 4878 1dbd fd82 163e
00000280: 1386 bc3e fb86 98bd 577c 7d3c e477 7e3e
00000290: 6e0e 563e 8ffd adbd 4d26 8a3d f6c5 2b3d
000002a0: ca4a c3be 8012 ad3d 5e93 623e 1ad2 b83d
000002b0: 3759 f03d 978b 783d e8a4 3d3e 1bab 8c3e
000002c0: bca6 2fbd b128 87bd 50a5 433d 1cbf 223e
000002d0: a0fe eabd 6987 af3d b92b 77bc 8328 283e
000002e0: c324 da3d bff5 21be 5d3e 223e 7eb4 95be
000002f0: 6a24 6d3d 9f13 6fbe b35d 40be e0f2 29be
00000300: 052e 0b3f 12fb a3bd e446 443f 664b 2b3d
00000310: df23 0dbe 7fb0 623f 0d69 203e db51 2bbe
00000320: cb06 c83d 55e6 283e d45d b9bd 0763 a73d
00000330: 5a9d f9bd 0d33 8a3c 931a 0d3e 9963 3f3e
00000340: 07bb 883e 98bb 433f da6f f43c 9c4a d03d
00000350: af8e f0bd 8261 18bd 8bab c73e 7661 8ebc
00000360: 58fa 7e3c 15fd 803d dc95 31be 2766 b63e
00000370: 64b3 2a3d 0b5f e0be 5547 b93c ba10 d13e
00000380: b855 2e3f 1d5c 98bd 308f 36be dfc8 943c
00000390: 4fff fa3c b73d 133f 621b 143d b02d 833e
000003a0: 06ee 183f d29e 43bd 6183 883e 5dd9 d03e
000003b0: 1b16 313e 5a05 023e b574 b43d 01ec 043f
000003c0: a8b2 1fbe 712f e33e dc5b 81be 2fde 3d3e
000003d0: 21d9 aabe dd87 d4bb 9fcc fe3d 5350 dfbc
000003e0: 808c 12bd a809 b2bd 96d1 7dbe 7540 423e
000003f0: b017 80bd afeb b33e 3b71 743e 798c f03e

lstm_layer.weight_hh_l0 f4 [256, 64]
0.2901895 -0.3160835 0.701876 -0.20853275 -0.2550648 0.8541951 -0.28791982 -0.6843791
-0.028881548 0.09703551 0.46144986 0.018228084 0.059650585 0.21978492 -0.16697419 -0.06642815
-0.1410058 0.8047113 0.09289168 -0.030625474 0.6926978 0.29566452 0.02365439 0.3797306
0.73980534 0.15713844 -0.27215078 -0.3234801 -0.20095709 0.46736032 0.33306745 0.75060743
0.5751696 0.16726679 -0.6181625 0.0012846919 -0.04527497 0.14187658 -0.3076628 -0.13873634
-0.4821106 0.03778357 0.24043562 -0.35755154 -0.20911643 0.48011744 0.09734998 0.59814006
0.4500433 0.2431482 0.3795021 -0.1547085 0.406914 0.13832779 0.07228216 -0.01110735
-0.018269561 0.025917862 0.2871776 -0.012103236 0.3108064 -0.517421 -0.1727737 -0.57881004
-0.049501605 -0.15018615 0.13715687 -0.11816236 -0.09790192 0.15744047 -0.07876454 -0.37754592
0.11570515 -0.09934065 0.09855053 0.11226886 0.12369521 0.14288078 0.08791699 -0.070926696
-0.09602863 0.15564372 -0.12823026 0.07029444 0.41685653 0.11968893 0.18422405 0.1106164
0.34905967 0.09089729 -0.050759062 -0.1464457 -0.0028368619 0.35821915 0.31393158 0.33206975
0.2600736 0.06748676 -0.20066343 -0.027013466 -0.008028265 0.09389007 -0.17192584 0.035432752
-0.007917941 -0.124020875 -0.106358275 -0.2890888 -0.2400152 0.16936156 -0.015958598 0.19321924
0.27271292 0.0941179 0.3441172 -0.10732596 0.46247026 -0.020198569 0.069944374 -0.08016608
-0.16828778 0.1441648 0.24158478 0.10350573 -0.05376573 -0.12950405 -0.16155332 -0.20135014
0.482454 -0.14934978 0.39478546 0.028319106 -0.25586045 0.43745655 -0.19511756 -0.31046432
-0.044244967 0.17854391 0.20073605 -0.0127519835 0.01898161 0.023004001 -0.09423754 -0.061425537
-0.06555355 0.43178084 0.109956175 -0.084669225 0.42680413 0.13065003 0.27958733 0.18064614
0.3391182 0.41210398 -0.31965214 -0.18754196 -0.009227694 0.0100309225 0.050009754 0.39538166
0.41572532 -0.05090117 -0.25480127 0.21410263 0.047158763 -0.03660839 -0.06893163 0.099488504
-0.3101284 -0.057987496 0.3008878 -0.072003014 -0.016304353 0.4106934 0.22843029 0.16704127
0.20804825 -0.013020219 0.3654947 0.2101438 0.18111508 0.17175938 -0.051569805 0.14301683
-0.07581707 -0.09340277 0.23924068 -0.3090692 0.11144954 -0.26270506 -0.14507294 -0.06531785
0.05828327 -0.00039118197 0.03692569 0.038942046 -0.11036268 0.102613054 -0.3076384 -0.11071992
-0.06953364 0.029883087 0.17118809 -0.14637384 -0.05982101 0.05634821 -0.20520149 -0.14224607
0.03538901 0.29269648 -0.033705175 0.07644255 0.23478758 0.29715624 -0.20140807 0.074957356
0.1637262 -0.095514804 -0.28566498 -0.2803447 0.03753598 0.07331152 0.039683666 0.049180817
0.15009677 -0.07130173 -0.2565743 -0.12027198 -0.072870664 0.037367616 -0.17937076 -0.11731729
-0.27909476 -0.06090132 -0.04841571 -0.11697703 -0.14829683 0.1436017 0.20432292 0.027757073
0.25079218 0.01603726 0.08637285 0.08716709 0.2470536 0.046707507 0.0033694806 -0.061487556
-0.16537564 -0.019256718 0.1953786 0.3194532 0.109017536 -0.13978319 -0.060977023 -0.2708507
00000000: b893 943e b2d5 a1be 25ae 333f 9c89 55be
00000010: da97 82be 88ac 5a3f 3a6a 93be 7833 2fbf
00000020: ff98 ecbc 8eba c63d 2843 ec3e 1053 953c
00000030: 2c54 743d 4c0f 613e 48fb 2abe 7b0b 88bd
00000040: d363 10be 8f01 4e3f fe3d be3d 46e2 fabc
00000050: a554 313f 5761 973e dac6 c13c 0d6c c23e
00000060: e263 3d3f e6e8 203e 5957 8bbe 2f9f a5be
00000070: b2c7 4dbe da49 ef3e d187 aa3e cf27 403f
00000080: 513e 133f fc47 2b3e e63f 1ebf 1b63 a83a
00000090: 3f72 39bd 1848 113e fb85 9dbe e610 0ebe
000000a0: 33d7 f6be f2c2 1a3d c134 763e ff10 b7be
000000b0: 9e22 56be f4d1 f53e 6d5f c73d b51f 193f
000000c0: 136c e63e d7fb 783e 194e c23e e86b 1ebe
000000d0: 0857 d03e cda5 0d3e ab08 943d 9afb 35bc
000000e0: 0caa 95bc b251 d43c f108 933e a74c 46bc
000000f0: 0422 9f3e b475 04bf 97eb 30be e52c 14bf
00000100: 32c2 4abd 66ca 19be da72 0c3e 1bff f1bd
00000110: cd80 c8bd 1338 213e 4e4f a1bd b34d c1be
00000120: d2f6 ec3d 1c73 cbbd dcd4 c93d 37ed e53d
00000130: ea53 fd3d 574f 123e d30d b43d 0442 91bd
00000140: a9aa c4bd 1161 1f3e cb4e 03be 88f6 8f3d
00000150: 386e d53e 781f f53d 3ba5 3c3e da8a e23d
00000160: f3b7 b23e 5c28 ba3d bce8 4fbd ddf5 15be
00000170: a5ea 39bb 8068 b73e a4bb a03e 0c05 aa3e
00000180: 5e28 853e 8036 8a3d b77a 4dbe 584b ddbc
00000190: fc88 03bc 7049 c03d 540d 30be ef21 113d
000001a0: 40ba 01bc a8fe fdbd 5ed2 d9bd 7203 94be
000001b0: 8bc6 75be 1e6d 2d3e 9bbb 82bc 44db 453e
000001c0: 07a1 8b3e e3c0 c03d 2130 b03e b7cd dbbd
000001d0: e7c8 ec3e 7877 a5bc ff3e 8f3d 1d2e a4bd
000001e0: a253 2cbe f09f 133e 0062 773e d0fa d33d
000001f0: 7439 5cbd b69c 04be 3c6e 25be bb2e 4ebe
00000200: 3604 f73e 26ef 18be 5221 ca3e 78fd e73c
00000210: 2400 83be 4efa df3e e6cc 47be 2ef5 9ebe
00000220: 363a 35bd 37d4 363e c08d 4d3e b2ed 50bc
00000230: 527f 9b3c e372 bc3c 9dff c0bd 5899 7bbd
00000240: f140 86bd 6112 dd3e b430 e13d 0f67 adbd
00000250: 1286 da3e 1fc9 053e 1226 8f3e 4dfb 383e
00000260: e7a0 ad3e 4bff d23e 72a9 a3be 000b 40be
00000270: c12f 17bc bd58 243c 07d7 4c3d 776f ca3e
00000280: f3d9 d43e bf7d 50bd 5075 82be b83d 5b3e
00000290: 8c29 413d aef2 15bd 072c 8dbd a1c0 cb3d
000002a0: 26c9 9ebe 4c84 6dbd f70d 9a3e 5176 93bd
000002b0: b590 85bc 6846 d23e a1e9 693e de0c 2b3e
000002c0: 9a0a 553e c252 55bc 1f22 bb3e f02f 573e
000002d0: 3b76 393e b1e1 2f3e dc3a 53bd 0173 123e
000002e0: fb45 9bbd f449 bfbd 82fb 743e 513e 9ebe
000002f0: a83f e43d 4781 86be 008e 14be 5dc5 85bd
00000300: 70ba 6e3d 8e17 cdb9 643f 173d b281 1f3d
00000310: d405 e2bd cb26 d23d c882 9dbe 20c1 e2bd
00000320: a767 8ebd 60cd f43c ee4b 2f3e 06e3 15be
00000330: e006 75bd 61cd 663d 5720 52be f4a8 11be
00000340: 11f4 103d 50dc 953e 700e 0abd e98d 9c3d
00000350: 286c 703e dd24 983e eb3d 4ebe 3e83 993d
00000360: d7a7 273e 449d c3bd ae42 92be 5789 8fbe
00000370: 54bf 193d 5a24 963d 578b 223d d371 493d
00000380: f8b2 193e a406 92bd b55d 83be 2851 f6bd
00000390: 373d 95bd c90e 193d f8ac 37be 0c44 f0bd
000003a0: 82e5 8ebe aa73 79bd 8d4f 46bd a791 efbd
000003b0: 20db 17be 530c 133e 073a 513e cd62 e33c
000003c0: d567 803e 9260 833c 40e4 b03d a984 b23d
000003d0: 9efb 7c3e 5f50 3f3d 81d2 5c3b 60da 7bbd
000003e0: 3b58 29be 44c0 9dbc 5411 483e 5f8f a33e
000003f0: 9644 df3d 5323 0fbe 0bc3 79bd f1ac 8abe

lstm_layer.bias_ih_l0 f4 [256]
0.012682986 -0.09254174 0.05246101 0.06350422 -0.040572837 0.21110226 -0.12974714 0.14904687
-0.14025633 0.013434629 0.08429208 -0.01986558 0.030698325 0.10156395 -0.13432841 -0.021135509
0.14903787 0.04610103 0.028992355 -0.12702084 0.104985476 -0.08099203 0.2031476 -0.028728846
-0.06408028 0.07946198 -0.12337131 0.08616344 -0.1139569 0.063468084 0.0960005 0.0412439
0.024986917 -0.059761498 0.060654234 0.0598394 0.109742776 0.08843934 -0.039331637 -0.037121348
0.038842898 -0.110686384 0.13590921 0.02246559 0.06755316 -0.06412804 0.11120002 0.0030014918
-0.05719668 0.020815356 -0.07495144 -0.0044521396 0.07739027 -0.14982042 -0.15289705 -0.0693954
-0.03084706 -0.051727246 0.020164037 0.22613159 0.028204897 -0.0110466955 -0.040186338 -0.051152363
-0.20055242 0.017062942 -0.0066440003 0.09675223 -0.034488652 -0.19191776 -0.013773334 -0.07396919
-0.096190855 -0.10561431 -0.0640707 0.004815303 -0.13717678 -0.002406756 -0.0012160537 -0.07965932
-0.15764807 -0.15590508 -0.010609311 -0.12766358 -0.08205767 -0.22447541 -0.4921922 -0.04306846
-0.11659748 -0.34104198 -0.06076706 0.047174796 -0.0017180681 -0.06957107 0.027218549 -0.030692255
0.050391313 -0.11367347 -0.03642666 -0.15058725 -0.09301919 0.0030535595 -0.018172603 0.021332592
0.018320605 -0.11503433 -0.15166362 0.00010386537 0.07562916 -0.038880304 -0.15105875 -0.08749237
-0.08884666 -0.026106147 -0.03131912 0.020012356 -0.19510873 -0.026526844 -0.02075762 -0.018006252
-0.13013715 0.014468763 -0.026509274 -0.17578724 0.016520102 0.06747788 -0.05232751 0.09653121
-0.0021470864 -0.04788579 -0.048462473 -0.01864439 0.03458212 -0.0069247633 0.007151353 -0.06636295
0.022567287 0.06971177 0.05503798 -0.05277762 -0.07122203 -0.14760317 -0.010962963 -0.09712722
-0.017838944 0.10183378 0.047017965 0.06343597 -0.0018114751 0.09300728 -0.020076236 -0.013290328
0.025647214 0.06663974 0.06793098 0.061479185 -0.066616595 -0.05007049 0.06015847 0.043697193
0.02024846 -0.0679385 0.063091226 0.028198896 -0.0038872848 -0.013039288 0.07510027 -0.025697077
-0.027709436 0.06344395 -0.11158638 0.012006976 -0.06265175 -0.091327876 -0.09463682 0.06010333
-0.10407719 -0.027416753 -0.09463196 -0.035908114 -0.0469326 0.029288834 -0.08011654 0.056999963
0.041056737 -0.048555955 -0.0017475486 -0.116446085 -0.02374501 -0.0041575725 -0.022573642 -0.042575065
-0.067127496 0.0007074486 0.12163889 -0.12423164 0.021786878 0.10670177 -0.032735173 -0.090482414
-0.109102 0.09831448 -0.13147229 0.006293831 -0.032914426 0.050300885 0.04111785 -0.07285972
0.004539506 0.14077872 -0.07343773 -0.11673691 0.10308492 0.07273611 0.20307022 -0.11316575
0.046035513 0.11225929 -0.12528533 -0.054095306 -0.084656894 0.025115019 0.018190462 -0.108151175
0.044078887 -0.111257516 0.10794772 -0.007853907 0.08394713 -0.10043957 0.08843885 -0.0125009855
0.11697523 0.07709696 -0.03287692 0.11255457 0.06972499 -0.05986396 0.103310175 -0.087328814
0.021086998 0.13736773 -0.022154275 -0.01731426 -0.042818513 -0.03292503 -0.15260279 -0.10244602
-0.039443616 -0.0687417 -0.10164097 0.283486 0.008012383 -0.04444621 -0.04168981 -0.03452399
00000000: 4dcc 4f3c 8686 bdbd 5be1 563d 800e 823d
00000010: b42f 26bd 312b 583e 6fdc 04be be9f 183e
00000020: 5b9f 0fbe eb1c 5c3c 53a1 ac3d 24bd a2bc
00000030: 0e7b fb3c c300 d03d 638d 09be 6024 adbc
00000040: 629d 183e 6fd4 3c3d 6081 ed3c c011 02be
00000050: a002 d73d 26df a5bd ed05 503e c258 ebbc
00000060: 863c 83bd f6bc a23d 19aa fcbd 7576 b03d
00000070: 3c62 e9bd 8efb 813d e99b c43d 5def 283d
00000080: 5db1 cc3c 79c8 74bd 9370 783d 291a 753d
00000090: d2c0 e03d af1f b53d 361a 21bd 8e0c 18bd
000000a0: bb19 1f3d 8baf e2bd c92b 0b3e c209 b83c
000000b0: 5059 8a3d 9055 83bd d6bc e33d adb4 443b
000000c0: 1147 6abd f784 aa3c 2480 99bd 41e3 91bb
000000d0: ca7e 9e3d 866a 19be 0b91 1cbe 2d1f 8ebd
000000e0: f9b2 fcbc f3df 53bd 0d2f a53c 0a8f 673e
000000f0: f50d e73c 33fd 34bc 6e9a 24bd 2485 51bd
00000100: 9d5d 4dbe 95c7 8b3c eab5 d9bb 0826 c63d
00000110: f943 0dbd 1786 44be 8da9 61bc 297d 97bd
00000120: b6ff c4bd 514c d8bd 8037 83bd b0c9 9d3b
00000130: 1278 0cbe aaba 1dbb fe63 9fba 6d24 a3bd
00000140: 7f6e 21be 95a5 1fbe add2 2dbc 3eba 02be
00000150: da0d a8bd e2dc 65be 9e00 fcbe 8e68 30bd
00000160: a9ca eebd 0e9d aebe e1e6 78bd 5c3a 413d
00000170: cd30 e1ba 477b 8ebd 6ff9 de3c 536e fbbc
00000180: 1f67 4e3d a3cd e8bd 1f34 15bd 8b33 1abe
00000190: d880 bebd 3a1e 483b b6de 94bc b0c1 ae3c
000001a0: 1815 963c 1e97 ebbd b54d 1bbe 4cd2 d938
000001b0: 76e3 9a3d f440 1fbd 25af 1abe 332f b3bd
000001c0: 3df5 b5bd 8fdc d5bc 7a48 00bd f4f0 a33c
000001d0: 95ca 47be d34e d9bc e20b aabc d981 93bc
000001e0: ac42 05be 640e 6d3c fa29 d9bc 9201 34be
000001f0: 2a55 873c d831 8a3d 5f55 56bd 28b2 c53d
00000200: 22b6 0cbb e423 44bd 9680 46bd 1fbc 98bc
00000210: fba5 0d3d 20e9 e2bb e655 ea3b 4ce9 87bd
00000220: 08df b83c 0bc5 8e3d 816f 613d 582d 58bd
00000230: dbdc 91bd 4925 17be 009e 33bc a3ea c6bd
00000240: fa22 92bc 3b8e d03d e995 403d b8ea 813d
00000250: 056f edba 9a7a be3d eb76 a4bc adbf 59bc
00000260: 1b1a d23c 6a7a 883d 661f 8b3d 99d1 7b3d
00000270: 486e 88bd b716 4dbd ba68 763d d4fb 323d
00000280: 19e0 a53c 5723 8bbd f935 813d 5f01 e73c
00000290: d1c1 7ebb bda2 55bc 2cce 993d ad82 d2bc
000002a0: e6fe e2bc e7ee 813d 6687 e4bd e8b8 443c
000002b0: 904f 80bd 1c0a bbbd f3d0 c1bd e92e 763d
000002c0: 6c26 d5bd 1999 e0bc 67ce c1bd 6314 13bd
000002d0: 663c 40bd 23ef ef3c 2414 a4bd cb78 693d
000002e0: 1c2b 283d 9ce2 46bd 000e e5ba 497b eebd
000002f0: e584 c2bc 3f3c 88bb 5cec b8bc 3163 2ebd
00000300: 247a 89bd 1274 393a cf1d f93d 286d febd
00000310: 657a b23c 7586 da3d 5115 06bd d84e b9bd
00000320: df70 dfbd 1a59 c93d aca0 06be 7b3c ce3b
00000330: 47d1 06bd 4d08 4e3d 316b 283d 7a37 95bd
00000340: 23c0 943b 4c28 103e 8566 96bd c313 efbd
00000350: 301e d33d abf6 943d a4f1 4f3e 72c3 e7bd
00000360: bc8f 3c3d 33e8 e53d cc4a 00be 0a93 5dbd
00000370: 9860 adbd 03be cd3c 2a04 953c 5d7e ddbd
00000380: 108c 343d fbda e3bd b213 dd3d acad 00bc
00000390: 79ec ab3d 43b3 cdbd 6e1f b53d efd0 4cbc
000003a0: b690 ef3d 03e5 9d3d f3a9 06bd 0383 e63d
000003b0: facb 8e3d e933 75bd 4994 d33d 73d9 b2bd
000003c0: a4be ac3c 20aa 0c3e e27c b5bc a3d6 8dbc
000003d0: 7762 2fbd 65dc 06bd e843 1cbe 38cf d1bd
000003e0: a18f 21bd 73c8 8cbd 2429 d0bd 1425 913e
000003f0: 5f46 033c 3b0d 36bd efc2 2abd 0769 0dbd

lstm_layer.bias_hh_l0 f4 [256]
0.03052942 -0.111494504 -0.054169454 -0.10625815 -0.1345095 0.15344839 -0.09829769 -0.044925425
-0.11431051 0.06453526 0.008839137 0.026967797 0.024654696 0.20060341 0.0053724493 -0.03979045
0.006935565 0.2089461 0.022985032 -0.104286656 -0.062708296 0.0019930461 0.18735355 0.07081503
-0.02722231 0.23190333 0.06390681 0.07762399 -0.054762345 0.09741254 0.046182077 0.03231003
0.11000577 -0.08177428 -0.06811607 -0.0050914926 0.05432124 0.14217383 -0.09329058 0.03024495
0.05065412 -0.063907236 0.16275309 0.0702981 0.093237124 -0.043153994 0.016406732 0.11612266
0.07951794 0.18009667 0.0912206 0.06717298 0.15650082 0.014938471 0.009487058 0.07970408
-0.13118273 0.039435476 0.011614184 0.28555828 0.0055145184 -0.08248229 -0.08915034 -0.008142816
-0.06916143 -0.15837301 0.031949535 0.010754069 -0.15782301 0.040772136 -0.0074292254 0.07671372
-0.10913143 -0.045495763 -0.07469617 -0.07082409 0.012895933 0.051975895 -0.1697667 -0.045245167
0.0004519351 -0.09582964 -0.10030671 -0.12947938 0.12202928 -0.11366599 -0.3956808 0.018014248
-0.10172731 -0.270395 -0.14606355 0.058429398 -0.10870152 -0.004320065 -0.06448572 -0.106307
-0.014135357 -0.046974737 -0.025309155 -0.1713961 -0.16896774 0.08687801 0.03575147 -0.003109404
-0.0972864 0.018555464 -0.056090306 -0.12674932 -0.05994589 0.0058226995 -0.15440814 0.05581384
-0.08262675 -0.20624167 0.08851062 -0.015037113 -0.1377014 0.048986346 -0.012514802 -0.034372654
-0.04381588 -0.046577957 -0.12878563 -0.34793055 -0.10288309 -0.114157386 -0.08157999 0.024988152
0.06602086 0.036709752 0.038583644 0.061337397 0.011140494 -0.00024573426 0.015014359 0.11685282
0.046736732 0.0023427275 -0.063385546 -0.00035664134 0.057202432 0.076536395 -0.0425733 -0.016327273
0.03648665 -0.12699276 0.0049076388 0.016773373 -0.066382885 -0.1169525 0.119997606 -0.020916615
-0.08065369 -0.064330325 -0.10665314 0.059547998 -0.07965195 -0.037762966 -0.08909735 -0.06926086
-0.047711324 0.044320177 -0.0012552589 0.06264848 0.051444426 0.041391354 -0.06516198 0.039347757
-0.043083463 0.060198005 0.13112907 -0.038437884 0.023832334 0.05992437 0.10711637 -0.05990024
0.035684347 0.032412373 -0.024258409 0.092687 -0.016605105 -0.032621305 -0.03289112 0.052768927
0.06902618 -0.058038827 -0.014273733 -0.0029208018 -0.0049467185 0.06483092 0.025456907 0.111059986
0.12903933 -0.05016799 0.01641514 -0.0016366498 0.06529208 0.042703073 -0.11500553 0.09034675
-0.018165331 -0.10346359 -0.12285737 0.003985729 -0.08648366 -0.020012734 0.01798973 -0.014227866
0.04967348 0.05590685 0.04723089 -0.12937401 0.11046651 0.07371255 0.25894454 -0.045728624
-0.1457691 0.15854664 -0.05305317 -0.054951575 -0.038514405 -0.002008916 -0.15018122 0.10382097
0.14071909 -0.22285141 0.025077198 0.02864219 0.06600688 -0.036044374 0.074576706 0.049307298
-0.040112168 -0.11517667 0.15405345 0.013935859 0.13965097 -0.10702226 -0.119612925 0.10330903
0.050213326 -0.049608916 -0.046295367 -0.040706947 -0.1178129 -0.14201336 0.011862627 -0.087786734
-0.13279134 -0.2103803 0.047207907 0.25678548 -0.043879446 0.07026584 -0.055563845 -0.03952039
00000000: d618 fa3c 3b57 e4bd cae0 5dbd df9d d9bd
00000010: dcbc 09be 9321 1d3e 4d50 c9bd b903 38bd
00000020: a11b eabd 102b 843d 07d2 103c 92eb dc3c
00000030: a5f8 c93c fb6a 4d3e 5f0b b03b 50fb 22bd
00000040: bc43 e33b f7f5 553e 1b4b bc3c 3e94 d5bd
00000050: 356d 80bd c49d 023b 9cd9 3f3e 7807 913d
00000060: 5201 dfbc 1178 6d3e 93e1 823d 54f9 9e3d
00000070: 7b4e 60bd 3a80 c73d 6b29 3d3d 8657 043d
00000080: b54a e13d 4679 a7bd 7080 8bbd 89d6 a6bb
00000090: f37f 5e3d 0496 113e 220f bfbd 42c4 f73c
000000a0: b27a 4f3d cce1 82bd bfa8 263e 73f8 8f3d
000000b0: 1bf3 be3d 3ec2 30bd 6967 863c b8d1 ed3d
000000c0: 4dda a23d 436b 383e ded1 ba3d fd91 893d
000000d0: c041 203e 7dc0 743c 9b6f 1b3c e53b a33d
000000e0: c454 06be 1887 213d 6b49 3e3c b234 923e
000000f0: 22b3 b43b 7aec a8bd 7494 b6bd 7269 05bc
00000100: 82a4 8dbd 892c 22be 84dd 023d d631 303c
00000110: 5b9c 21be af00 273d dc70 f3bb 151c 9d3d
00000120: 4d80 dfbd c459 3abd 4efa 98bd 380c 91bd
00000130: 7749 533c ade4 543d 52d7 2dbe ff52 39bd
00000140: b4f1 ec39 5542 c4bd 9b6d cdbd 3e96 04be
00000150: 7dea f93d b7c9 e8bd ac96 cabe 9e92 933c
00000160: 6856 d0bd 3771 8abe af91 15be aa53 6f3d
00000170: e79e debd 558f 8dbb 1711 84bd 7cb7 d9bd
00000180: fc97 67bc 9568 40bd 2555 cfbc 7682 2fbe
00000190: e105 2dbe 19ed b13d 2270 123d 24c7 4bbb
000001a0: 183e c7bd a101 983c f3be 65bd 93ca 01be
000001b0: d289 75bd 58cc be3b 2b1d 1ebe 0e9d 643d
000001c0: 3738 a9bd 0431 53be 0e45 b53d 395e 76bc
000001d0: 9901 0dbe e8a5 483d e20a 4dbc 57ca 0cbd
000001e0: 4878 33bd 87c8 3ebd 61e0 03be f423 b2be
000001f0: 5fb4 d2bd 59cb e9bd 6913 a7bd f4b3 cc3c
00000200: f235 873d f75c 163d e209 1e3d ec3c 7b3d
00000210: 9e86 363c e5d5 80b9 c9fe 753c 8850 ef3d
00000220: 046f 3f3d 7288 193b 48d0 81bd 97fb bab9
00000230: 194d 6a3d 1dbf 9c3d 5761 2ebd c6c0 85bc
00000240: 0773 153d 640a 02be 42d0 a03b 5068 893c
00000250: c0f3 87bd cb84 efbd 4ec1 f53d 5259 abbc
00000260: c32d a5bd 9ebf 83bd f66c dabd 9ae8 733d
00000270: 9020 a3bd 57ad 1abd ac78 b6bd a3d8 8dbd
00000280: f36c 43bd 1389 353d 8087 a4ba d94d 803d
00000290: 64b7 523d fb89 293d a573 85bd 1d2b 213d
000002a0: 4978 30bd 2f92 763d b346 063e 0b71 1dbd
000002b0: 073c c33c 4273 753d d45f db3d f459 75bd
000002c0: c029 123d d6c2 043d 92b9 c6bc afd2 bd3d
000002d0: 6e07 88bc eb9d 05bd d7b8 06bd 3b24 583d
000002e0: 995d 8d3d 1fba 6dbd 60dc 69bc ec6a 3fbb
000002f0: 1518 a2bb 13c6 843d 018b d03c 6b73 e33d
00000300: e322 043e f37c 4dbd 0b79 863c db84 d6ba
00000310: dbb7 853d 6be9 2e3d 0588 ebbd b807 b93d
00000320: 76cf 94bc b8e4 d3bd a59c fbbd b89a 823b
00000330: 581e b1bd bff1 a3bc 335f 933c ff1b 69bc
00000340: 6b76 4b3d 95fe 643d 2d75 413d 9f7a 04be
00000350: 443c e23d 9bf6 963d 6194 843e f04d 3bbd
00000360: 7f44 15be 0d5a 223e 484e 59bd e714 61bd
00000370: 48c1 1dbd 05a8 03bb 1bc9 19be 17a0 d43d
00000380: aa18 103e 2933 64be b26e cd3c 07a3 ea3c
00000390: 9d2e 873d 44a3 13bd acbb 983d 73f6 493d
000003a0: a84c 24bd bfe1 ebbd 30c0 1d3e 3b53 643c
000003b0: aa00 0f3e 7d2e dbbd 9ff7 f4bd af93 d33d
000003c0: 7dac 4d3d b832 4bbd 36a0 3dbd 54bc 26bd
000003d0: e447 f1bd f36b 11be 775b 423c 88c9 b3bd
000003e0: 74fa 07be ef6d 57be 145d 413d 6379 833e
000003f0: efba 33bd 89e7 8f3d ea96 63bd 22e0 21bd

fc.weight f4 [1, 65]
0.80826586 0.35860604 -0.9260222 -0.34315777 -1.0246767 -0.12025503 -0.5347015 0.44775033
0.7189242 0.6138656 -0.01765 -1.2082987 0.697883 1.1370603 1.0346273 -0.2655311
1.3861325 0.66263974 0.31338245 -3.6621385 1.1407022 0.11045508 2.3047907 1.7406597
-2.179717 -0.041766044 -2.0609713 -0.8998184 -0.11131306 -0.66669476 1.1056792 0.53672695
-0.62540084 1.5457027 -0.3431216 0.21433283 1.0124805 -0.19756964 2.0603752 0.32628587
0.8875821 -0.23001355 0.523416 1.7010089 -0.9476494 -0.284212 0.79085124 0.32173774
-0.49288386 -1.4277332 -1.7648045 0.7828688 0.8001731 1.178441 0.38040155 -0.79543096
-1.146198 1.2468493 -1.6095178 0.8925251 0.05694131 1.122348 0.7933946 0.03181417
0.7531501
00000000: 83ea 4e3f 369b b73e ca0f 6dbf 60b2 afbe
00000010: 9b28 83bf 4548 f6bd 33e2 08bf 883f e53e
00000020: 6b0b 383f 4c26 1d3f bc96 90bc 88a9 9abf
00000030: 76a8 323f 318b 913f ab6e 843f b1f3 87be
00000040: ca6c b13f c2a2 293f aa73 a03e 7a60 6ac0
00000050: 8802 923f 4636 e23d b181 1340 f0cd de3f
00000060: 7c80 0bc0 df12 2bbd f4e6 03c0 805a 66bf
00000070: 1af8 e3bd 82ac 2abf e586 8d3f f066 093f
00000080: 451a 20bf 96d9 c53f a2ad afbe 117a 5b3e
00000090: f698 813f b24f 4abe 30dd 0340 f10e a73e
000000a0: 9538 633f ac88 6bbe 97fe 053f a9ba d93f
000000b0: 2799 72bf 3c84 91be 3a75 4a3f cfba a43e
000000c0: 465b fcbe f6bf b6bf 1de5 e1bf 176a 483f
000000d0: 25d8 4c3f 28d7 963f fec3 c23e 5da1 4bbf
000000e0: 9eb6 92bf c298 9f3f ae04 cebf 867c 643f
000000f0: 4b3b 693d 19a9 8f3f e91b 4b3f 934f 023d
00000100: 72ce 403f

fc_final1.weight f4 [64, 128]
-0.03919156 0.03138229 0.021762991 0.004127131 -0.060088225 0.15776196 0.001701606 0.051387805
0.027972922 0.056355022 0.052490458 -0.063240826 0.055536162 -0.046339843 0.021992976 0.09718696
0.0029488883 0.073521964 -0.02997171 0.050461512 -0.027623307 -0.011511885 0.14595887 -0.009709198
-0.03826774 0.07048437 0.04347216 -0.060092703 0.05083917 -0.08874753 0.08204653 -0.021601042
0.054369528 -0.028948165 -0.015254746 -0.11264801 0.0759808 -0.03527399 -0.015716044 0.048789233
-0.10898322 0.012265746 0.019360002 -0.08000731 0.011644585 -0.04880266 0.012010662 0.09208998
-0.07669453 0.011590235 -0.09382716 -0.023097688 -0.08394201 0.032705847 -0.04310259 -0.06994359
0.044284325 -0.04680847 -0.09279496 0.070686795 -0.056737795 0.055172354 0.07237015 0.065889254
-0.076557435 0.019405846 0.09084275 0.002490312 0.007430273 0.015561464 -0.010250658 -0.0059943986
0.0043434487 0.057668462 0.07186463 -0.053220175 0.08351302 0.033163965 0.054671533 -0.024703506
-0.072441824 -0.0058973655 0.015284133 0.023509383 0.043887902 0.06990586 0.039511785 0.1428007
0.066029906 0.008441034 -0.019654162 0.06701567 0.040636513 -0.0020559276 0.06230174 -0.01670643
-0.07350081 0.03813658 0.099156626 0.048282046 -0.04297659 -0.005875601 0.036227845 0.098720044
-0.04731168 -0.007793175 0.07189798 -0.049735848 -0.028192088 0.12296574 0.06200312 -0.04816354
0.076470636 -0.034052227 0.03200006 -0.07828151 0.009069316 -0.026006797 -0.008869281 -0.008330928
0.0034836484 0.035338894 0.013293511 -0.014548201 -0.036034625 0.03646023 -0.0042153588 0.07369125
-0.06555275 -0.0051733837 0.035284426 0.037834093 0.02223117 0.037974335 0.047977995 -0.035725225
0.0047916304 -0.0024463967 -0.088539645 0.088127345 0.003031569 -0.08524324 -0.07828663 -0.09831852
0.0928433 -0.047595546 0.06293047 -0.04007792 -0.03531582 0.05177976 -0.059363894 -0.05887898
-0.06435297 -0.04983104 -0.057558008 -0.0076729 -0.024270281 -0.013932161 0.015654938 -0.10679824
-0.03416179 -0.06347156 0.005910928 0.07976716 -0.030813718 -0.036886465 0.01590492 -0.037737638
0.050148033 0.012600785 0.03720144 0.06275408 -0.0001349238 -0.024976404 0.07929736 -0.06942215
0.0119760735 0.021884717 -0.035168484 -0.05698743 0.11116041 -0.054334838 0.073675334 -0.08402624
0.04792891 -0.00018916569 0.033128902 -0.07845551 -0.11494819 0.042386234 0.028036177 0.081238165
0.0031746756 -0.08960139 -0.062047556 0.033868473 -0.033378072 0.0016713568 -0.0059741363 -0.051208653
-0.0817609 -0.0953625 -0.016369428 0.09693865 -0.046869583 0.028291052 0.07533452 -0.089717545
-0.075350665 0.045026306 0.011172787 0.010773076 -0.027968146 -0.09679704 -0.041209515 -0.011956889
0.013793768 -0.051166438 0.0008009106 0.05945476 -0.0008304488 -0.029434146 -0.024195014 -0.019552918
-0.050545063 0.0032932851 0.031644158 0.073854946 0.04206875 0.033795316 0.035366286 0.026709769
-0.06924624 -0.009357336 0.04185317 -0.07845578 -0.07398594 0.026541235 -0.038779806 0.07155148
-0.07929731 0.06831195 -0.05052022 0.04218704 -0.060889214 -0.0027392395 0.11691317 -0.02513247
0.04057814 0.045417182 0.09553267 0.038216423 0.035280216 0.09047414 0.034171797 -0.052369624
00000000: 5487 20bd b78a 003d 4d48 b23c e23c 873b
00000010: 121f 76bd 5a8c 213e 6c08 df3a 057c 523d
00000020: 7827 e53c 86d4 663d 3c00 573d 6884 81bd
00000030: e379 633d d9ce 3dbd 9d2a b43c f509 c73d
00000040: 2342 413b af92 963d 3b87 f5bc bbb0 4e3d
00000050: 464a e2bc 589c 3cbc 3e76 153e 5413 1fbc
00000060: a2be 1cbd 1c5a 903d dd0f 323d c423 76bd
00000070: bc3c 503d 44c1 b5bd 0308 a83d abf4 b0bc
00000080: 95b2 5e3d b424 edbc 0bef 79bc 00b4 e6bd
00000090: d29b 9b3d 767b 10bd efbe 80bc 38d7 473d
000000a0: 9832 dfbd 44f6 483c de98 9e3c dfda a3bd
000000b0: eec8 3e3c 4ce5 47bd 5ec8 443c ac99 bc3d
000000c0: 0612 9dbd f8e4 3d3c 7428 c0bd 5d37 bdbc
000000d0: cae9 abbd 91f6 053d 578c 30bd 963e 8fbd
000000e0: 7b63 353d 3dba 3fbd 490b bebd 3dc4 903d
000000f0: e465 68bd 68fc 613d cd36 943d f2f0 863d
00000100: 25ca 9cbd 02f9 9e3c c40b ba3d 8134 233b
00000110: a679 f33b 83f5 7e3c 60f2 27bc a96c c4bb
00000120: 7d53 8e3b c435 6c3d c32d 933d 66fd 59bd
00000130: e008 ab3d f0d6 073d 42ef 5f3d 025f cabc
00000140: 615c 94bd b03e c1bb 4d6a 7a3c c096 c03c
00000150: cdc3 333d ce2a 8f3d 1cd7 213d 593a 123e
00000160: b03a 873d 434c 0a3c c401 a1bc 833f 893d
00000170: 7972 263d bebc 06bb 1c30 7f3d ecdb 88bc
00000180: 9887 96bd 1a35 1c3d a112 cb3d 65c3 453d
00000190: 3908 30bd 1d88 c0bb a663 143d bc2d ca3d
000001a0: e4c9 41bd e45d ffbb 403f 933d d1b7 4bbd
000001b0: 18f3 e6bc 76d5 fb3d fcf6 7d3d 2247 45bd
000001c0: a39c 9c3d 597a 0bbd 7f12 033d 0e52 a0bd
000001d0: 7897 143c 350c d5bc 7650 11bc 727e 08bc
000001e0: ec4d 643b 84bf 103d 07cd 593c 945b 6ebc
000001f0: 0b99 13bd 5257 153d fe20 8abb 70eb 963d
00000200: 8540 86bd 7d85 a9bb 6786 103d ecf7 1a3d
00000210: 251e b63c fa8a 1b3d 9384 443d 9d54 12bd
00000220: 1c03 9d3b ba53 20bb 4654 b5bd 1c7c b43d
00000230: 4aad 463b 0294 aebd be54 a0bd 385b c9bd
00000240: a124 be3d 8cf3 42bd b1e1 803d bf28 24bd
00000250: 52a7 10bd 0317 543d 8e27 73bd 162b 71bd
00000260: 7dcb 83bd a21b 4cbd f2c1 6bbd f36c fbbb
00000270: 78d2 c6bc b843 64bc c93e 803c 09b9 dabd
00000280: 3ced 0bbd 61fd 81bd 75b0 c13b f75c a33d
00000290: 0d6d fcbc 4316 17bd 094b 823c c892 1abd
000002a0: 0668 4d3d 8673 4e3c 8a60 183d 3685 803d
000002b0: 557a 0db9 519b ccbc a766 a23d 332d 8ebd
000002c0: 4b37 443c 9447 b33c d40c 10bd a76b 69bd
000002d0: 12a8 e33d 358e 5ebd 18e3 963d f315 acbd
000002e0: 1b51 443d c75a 46b9 2cb2 073d 48ad a0bd
000002f0: f569 ebbd 309d 2d3d 20ac e53c 3260 a63d
00000300: 380e 503b ef80 b7bd 9425 7ebd abb9 0a3d
00000310: 72b7 08bd 6e11 db3a b0c2 c3bb 2ac0 51bd
00000320: 4272 a7bd 6a4d c3bd 2e19 86bc c587 c63d
00000330: 52fa 3fbd a3c2 e73c fc48 9a3d d5bd b7bd
00000340: 7351 9abd 816d 383d 110e 373c 8e81 303c
00000350: 741d e5bc 873d c6bd 4fcb 28bd d4e6 43bc
00000360: 42ff 613c e693 51bd 33f4 513a d686 733d
00000370: 7ab2 59ba e11f f1bc 9f34 c6bc 712d a0bc
00000380: 5708 4fbd 28d4 573b 4e9d 013d 4341 973d
00000390: 4850 2c3d f56c 0a3d 3ddc 103d 72ce da3c
000003a0: f9d0 8dbd 834f 19bc 3b6e 2b3d 6dad a0bd
000003b0: f185 97bd 016d d93c 93d7 1ebd 9589 923d
000003c0: a166 a2bd 23e7 8b3d 4aee 4ebd 51cc 2c3d
000003d0: f866 79bd d084 33bb 2c70 ef3d 9ce2 cdbc
000003e0: 4435 263d 5e07 3a3d a2a6 c33d d388 1c3d
000003f0: fd81 103d 824a b93d baf7 0b3d 8881 56bd

fc_final1.bias f4 [64]
-0.0371015 0.04117446 -0.09352047 0.021742752 -0.07658857 0.0038633274 0.06744101 0.012660491
-0.0452662 0.10362539 -0.06263311 -0.0397866 -0.018587634 0.074531786 0.07852795 -0.027972512
-0.018099757 0.08049064 -0.067791246 -0.049040206 0.026661318 0.03686486 -0.06289304 -0.05261737
0.07892929 0.00908071 -0.05857224 0.044196673 0.032600306 -0.067552954 0.041084573 0.02945102
-0.06720436 -0.054168765 0.073863916 0.048457164 -0.03121455 0.029168101 -0.0041416907 -0.024555394
0.07791349 -0.014092439 0.025935033 0.0421178 -0.056712206 0.05380204 -0.10421037 0.018127343
0.047927856 -0.032038733 -0.06624887 -0.006752082 -0.0010430614 -0.033672307 0.06130539 -0.10087919
-0.07212767 0.022411136 0.02125554 -0.05007757 -0.065299794 0.02376538 -0.00942516 0.06045659
00000000: bef7 17bd 8da6 283d a987 bfbd db1d b23c
00000010: 78da 9cbd e12f 7d3b 831e 8a3d f36d 4f3c
00000020: 0d69 39bd 8c39 d43d ca45 80bd 46f7 22bd
00000030: 1845 98bc 1fa4 983d 43d3 a03d 9c26 e5bc
00000040: f145 94bc 47d8 a43d 23d6 8abd 62de 48bd
00000050: d668 da3c 9cff 163d 11ce 80bd 5085 57bd
00000060: aea5 a13d 42c7 143c 72e9 6fbd 9207 353d
00000070: e687 053d 3459 8abd 4c48 283d 4443 f13c
00000080: 71a2 89bd 11e0 5dbd f745 973d 057b 463d
00000090: a8b5 ffbc f1f1 ee3c 05b7 87bb 6528 c9bc
000000a0: 1c91 9f3d f9e3 66bc b575 d43c b783 2c3d
000000b0: 0f4b 68bd 875f 5c3d 3f6c d5bd cb7f 943c
000000c0: 0050 443d 0c3b 03bd 7dad 87bd 9240 ddbb
000000d0: 55b7 88ba f9eb 09bd 5c1b 7b3d c099 cebd
000000e0: acb7 93bd 8f97 b73c 1920 ae3c 231e 4dbd
000000f0: e6bb 85bd 9daf c23c fc6b 1abc 54a1 773d

fc_final2.weight f4 [1, 64]
0.0010724516 -0.0006961303 -0.051185146 -0.050486095 -0.07322816 -0.011072918 0.020691713 -0.015746387
-0.06501292 0.12920693 0.00029427762 0.0005798525 -0.0005057153 0.10187792 0.06384157 0.0015027439
0.04162362 0.10805234 -0.09500909 0.008635735 0.052282583 0.0723805 -0.045142908 -0.0064406763
0.051318817 0.109172605 0.033073906 0.08533861 0.052090563 -0.0452444 0.0005600853 -0.013011757
0.010218267 0.006167455 0.07257407 0.10410501 0.07240436 0.11234693 0.034145962 0.00025340848
-0.0037818928 -0.07197368 0.042291287 0.08509799 0.0007030725 0.07362823 -0.1301806 -0.0478014
0.11113946 -0.08037991 -0.097446114 -0.018398488 0.022719726 -0.00031874125 -0.037340704 -0.0809455
-0.02280968 -0.01755436 0.010319991 0.08559982 -0.046840277 0.0030263215 0.018969957 0.05386363
00000000: 8191 8c3a 837c 36ba 84a7 51bd 82ca 4ebd
00000010: a5f8 95bd 2f6b 35bc ab81 a93c 91fe 80bc
00000020: 7e25 85bd d24e 043e 4649 9a39 3e01 183a
00000030: fb91 04ba 5fa5 d03d 5ebf 823d b8f7 c43a
00000040: 877d 2a3d 8c4a dd3d 2094 c2bd e67c 0d3c
00000050: 4326 563d 3a3c 943d c5e7 38bd 4f0c d3bb
00000060: ae33 523d e395 df3d 8178 073d 02c6 ae3d
00000070: ea5c 553d 3152 39bd b0d2 123a 442f 55bc
00000080: 856a 273c 5d18 ca3b b7a1 943d 0235 d53d
00000090: bd48 943d 2616 e63d a3dc 0b3d e9db 8439
000000a0: a2d9 77bb f066 93bd a139 2d3d db47 ae3d
000000b0: 664e 383a 66ca 963d 104e 05be 67cb 43bd
000000c0: 169d e33d 399e a4bd d491 c7bd 6db8 96bc
000000d0: b81e ba3c ba1c a7b9 91f2 18bd c1c6 a5bd
000000e0: 5edb babc 29ce 8fbc 2e15 293c f54e af3d
000000f0: 97db 3fbd 4055 463b e266 9b3c 1ca0 5c3d
