weights_new/DecoderEpochnew400_17_8.pt (torch_old, 461851 bytes, 33 tensors)

attn_layer.0.weight f4 [64, 192]
0	0xbd61c2c8	-0.0551174
1	0x3dab4a6e	0.08363806
2	0x3e302bb9	0.17204179
3	0xbea723d5	-0.32644525
4	0xbdeec84a	-0.11659296
5	0x3e33a4f0	0.17543387
6	0x3ab6e1c2	0.0013952779
7	0xbe5aac7a	-0.21354857
8	0x3c99f0d5	0.018791595
9	0xbd97b23a	-0.07407041
10	0x3dd371d5	0.10324446
11	0x3dbc3d33	0.0919136
12	0x3e207f2b	0.1567351
13	0x3e77855f	0.24171971
14	0x3baf0648	0.005341325
15	0xbc25c953	-0.0101188
16	0xbd76dc75	-0.060268838
17	0x3e02d6de	0.12777278
18	0xbd5a8129	-0.053345833
19	0xbd5dbb9a	-0.05413399
20	0x3e368e6e	0.1782777
21	0xbcc0845b	-0.023500612
22	0x3e2f3533	0.17110138
23	0x3d315fbe	0.043304197
24	0x3e088c0d	0.13334675
25	0x3d8996cc	0.06718215
26	0xbdacefa3	-0.084441446
27	0xbd870aac	-0.065938324
28	0x3d705a7e	0.05868005
29	0x3e8f41db	0.2797993
30	0x3e828481	0.25491717
31	0x3e64b873	0.22335987
32	0x3e07bfe9	0.13256802
33	0x3e6e63cd	0.23280258
34	0xbe0caffc	-0.13739008
35	0xbe55ebeb	-0.20890777
36	0x3c62c39c	0.013840582
37	0x3dab9ae3	0.08379152
38	0xbd03fe5f	-0.03222501
39	0xbcf89615	-0.030345002
40	0x3d6fe717	0.058569994
41	0xbe0c4f06	-0.1370202
42	0xbe781b85	-0.24229248
43	0xbe53fe0f	-0.20702384
44	0xbe4bedbb	-0.19914906
45	0x3e661d62	0.22472146
46	0x3c611b13	0.013739365
47	0x3e034649	0.1281978
48	0x3e861332	0.2618652
49	0x3d066ac7	0.032816675
50	0x3e7d40ad	0.24731703
51	0xbeaa73e6	-0.33291548
52	0x3e61bb75	0.22044165
53	0x3e1f9740	0.15585041
54	0x3e1ffd6e	0.1562402
55	0xbd862af3	-0.06551161
56	0xbdebf94d	-0.1152216
57	0x3d7a7453	0.06114609
58	0x3e1ec0d0	0.1550324
59	0x3e2e27ea	0.17007414
60	0xbd0b76ee	-0.034048967
61	0xbe1f71f4	-0.15570813
62	0x3cb79983	0.022412067
63	0xbe395355	-0.18098195
64	0xbdbbebc2	-0.091758266
65	0x3dcf2772	0.101149455
66	0x3e3f5143	0.18683343
67	0xbea5ed6d	-0.32407704
68	0xbdf0cf96	-0.11758344
69	0x3e018a3a	0.12650385
70	0x3d639fc5	0.05557229
71	0xbead2111	-0.3381429
72	0xbc7afb41	-0.015318693
73	0xbd83689c	-0.06416437
74	0x3d802c23	0.062584184
75	0x3dc1d4f1	0.094644435
76	0x3e3b3daa	0.18285242
77	0x3e8b2970	0.27180052
78	0x3d3d5db9	0.04623196
79	0xbd852c3a	-0.06502576
80	0xbdb227f7	-0.08699029
81	0x3db1fd63	0.08690908
82	0x3d5e85da	0.05432687
83	0xbde248e9	-0.11049063
84	0x3ea2b2a1	0.31776908
85	0x3d6b40fa	0.057435013
86	0x3e49f78c	0.19723338
87	0x3d2a546d	0.04158442
88	0x3e4f409e	0.20239493
89	0x3d88e090	0.06683457
90	0xbe10217a	-0.1407527
91	0xbe06b650	-0.13155484
92	0x3d91796f	0.0710324
93	0x3e906c5c	0.28207672
94	0x3e6d69de	0.23184916
95	0x3e9a5924	0.30146134
96	0x3e48916d	0.19586726
97	0x3e71cd8d	0.23613568
98	0xbe47cfba	-0.19512835
99	0xbdb84225	-0.08996991
100	0x3d52e55e	0.051488273
101	0xbd66a22c	-0.056307003
102	0x3cd68830	0.026187986
103	0x3c8dc4cc	0.017305754
104	0xbb8c70df	-0.004285916
105	0xbe25e6e1	-0.16201355
106	0xbe729470	-0.23689437
107	0xbe69d207	-0.22834025
108	0xbe694ad3	-0.2278245
109	0x3e93b64c	0.2885002
110	0x3c389c4b	0.011267732
111	0x3e89fea2	0.26952082
112	0x3eaf8119	0.3427818
113	0x3ce462b9	0.027879106
114	0x3eaef602	0.34172064
115	0xbef6936f	-0.48159358
116	0x3e9b1ef6	0.3029706
117	0x3e43b852	0.19113281
118	0x3dcc5fa2	0.09979178
119	0xbd3329ff	-0.043741222
120	0xbe134a23	-0.1438375
121	0x3e0bf7e7	0.13668786
122	0x3e85ffe3	0.2617179
123	0x3e8f5cef	0.2800059
124	0x3d3ff733	0.046866607
125	0xbe07a167	-0.13245164
126	0xbd7c1e2d	-0.061552215
127	0xbe267784	-0.16256529
128	0xbdaf2848	-0.08552605
129	0x3eae77d4	0.34075797
130	0x3e030b48	0.12797272
131	0xbcf1b33b	-0.029504409
132	0xbdb87955	-0.09007517
133	0x3e4af242	0.19818977
134	0xbee5c798	-0.4487884
135	0x3eb68127	0.3564541
136	0x3ec1c630	0.37846518
137	0x3dd33708	0.10313231
138	0x3e94da99	0.29073027
139	0x3d5ea94e	0.05436068
140	0x3e1868db	0.14883749
141	0xbed88e66	-0.4229614
142	0x3ed622ef	0.41823527
143	0xbe0d3254	-0.1378873
144	0xbd3d6fe7	-0.046249297
145	0xbec43385	-0.38320556
146	0x3f7a4461	0.9776059
147	0x3d3a8262	0.0455345
148	0xbe278c58	-0.1636213
149	0x3e43c9a4	0.19119889
150	0xbecf9cd5	-0.4054934
151	0x3aa7dda1	0.001280714
152	0xbe58b3c9	-0.21162333
153	0xbe3a1101	-0.18170549
154	0xbdd3e187	-0.1034575
155	0xbdbed433	-0.093178175
156	0xbebad937	-0.36493847
157	0x3d52475e	0.051337592
158	0xbd135feb	-0.035980146
159	0x3d08994b	0.033349317
160	0x3e905a91	0.28194097
161	0x3d399e2b	0.045316856
162	0x3defe8fd	0.11714361
163	0xbe95983e	-0.29217714
164	0xbdd33c16	-0.10314195
165	0x3e61984f	0.22030757
166	0x3e27999b	0.1636719
167	0xbe872b70	-0.26400328
168	0x3e80fd27	0.2519314
169	0x3d9686f4	0.07349959
170	0xbe4392f9	-0.19099034
171	0xbdd1eac3	-0.10249855
172	0x3de9a696	0.11408727
173	0xbf121604	-0.57064843
174	0xbe37a903	-0.17935567
175	0xbe4b8265	-0.1987396
176	0x3e17e337	0.1483277
177	0xbe061770	-0.13094878
178	0xbe886de1	-0.2664633
179	0xbe6115e5	-0.21981008
180	0xbe6719ee	-0.22568485
181	0xbdf77981	-0.12083722
182	0xbe638481	-0.22218515
183	0xbdfecc47	-0.124413066
184	0x3e3402e2	0.17579225
185	0xbef4f8d7	-0.478461
186	0xbe95fc3d	-0.29294005
187	0xbec67b9f	-0.3876619
188	0x3e9053f1	0.28189042
189	0x3f2f53ca	0.68487227
190	0xbea1cbd3	-0.31600818
191	0xbed867aa	-0.4226659
192	0x3cdc5d39	0.02689992
193	0xbe359fa7	-0.17736684
194	0xbe2757b3	-0.16342048
195	0x3e8380dc	0.2568425
196	0x3e4e1bf9	0.20127858
197	0xbda65891	-0.081223615
198	0xbda2b85c	-0.0794532
199	0x3e9b25c0	0.30302238
200	0x3d9212ca	0.0713249
201	0x3df06726	0.11738424
202	0xbdfba855	-0.12287966
203	0x3cf018d6	0.029308718
204	0xbe1ef403	-0.1552277
205	0xbe81744a	-0.25284034
206	0xbca85e8e	-0.0205529
207	0x3cc8a8f5	0.024494627
208	0x3d85d945	0.065355815
209	0xbccbd285	-0.024880657
210	0xbc2b43c5	-0.010453169
211	0x3dce8c74	0.10085383
212	0xbe85444b	-0.26028666
213	0x3be69d5e	0.0070378026
214	0xbe706c0d	-0.23478718
215	0xbdc6d734	-0.097090155
216	0xbe34fa9b	-0.17673723
217	0xbe0492c0	-0.12946606
218	0x3d737e23	0.059446465
219	0x3e206e54	0.15667087
220	0xba413843	-0.00073707494
221	0xbe79c73e	-0.24392411
222	0xbe0fd89e	-0.14047477
223	0xbe61c1a1	-0.2204652
224	0xbe2f4d89	-0.17119421
225	0xbe9fa29d	-0.31178752
226	0x3e3a9366	0.1822029
227	0x3dde0bff	0.10842132
228	0xbd3403e8	-0.043949038
229	0x3cc05d18	0.02348189
230	0x3d01d358	0.031695694
231	0xbda92941	-0.08259822
232	0xbc14db79	-0.0090855295
233	0x3e0420d7	0.12903152
234	0x3e55d374	0.20881444
235	0x3e2035d9	0.15645541
236	0x3e8ddb12	0.277062
237	0xbe34f38b	-0.1767103
238	0x3d8b69da	0.06807299
239	0xbe40bc6c	-0.18821877
240	0xbe56fd25	-0.20995004
241	0xbd19cf03	-0.037550937
242	0xbe902764	-0.28155053
243	0x3eaec9d5	0.3413836
244	0xbea21b5d	-0.31661502
245	0xbde9a2d4	-0.1140801
246	0xbd986b02	-0.07442285
247	0x3d3311a2	0.043717988
248	0x3d64869b	0.055792432
249	0xbddb449c	-0.107064456
250	0xbe483bad	-0.19554015
251	0xbe78af2a	-0.2428557
252	0xbcecdbb6	-0.02891336
253	0x3dc61b7d	0.09673212
254	0x3bdd9a81	0.006762803
255	0x3e1c568a	0.15267387

attn_layer.0.bias f4 [64]
0	0xbdf8407c	-0.121216744
1	0x3e26cedc	0.16289848
2	0xbe005524	-0.12532479
3	0x3dd782de	0.10523008
4	0x3df8a57c	0.12140939
5	0xbe068534	-0.1313675
6	0x3dec404f	0.115357034
7	0x3e16fde8	0.14745295
8	0xbdcf61c3	-0.101260684
9	0xbe3500e5	-0.17676122
10	0xbe46136c	-0.19343346
11	0xbde4c77c	-0.11170861
12	0xbdc8070a	-0.097669676
13	0x3e21b51e	0.15791747
14	0x3e1d0adb	0.15336172
15	0xbdce52d1	-0.1007439
16	0x3e2e80bc	0.17041296
17	0x3e26da61	0.16294242
18	0xbe238a85	-0.1597081
19	0x3dd1023a	0.10205503
20	0x3dffb118	0.1248495
21	0x3e21edea	0.15813413
22	0x3e3baad5	0.18326886
23	0xbd9598e9	-0.07304556
24	0xbe1140ec	-0.14184922
25	0x3e0777be	0.13229272
26	0xbe269df6	-0.16271195
27	0x3e2e42b0	0.17017627
28	0x3dda1a16	0.10649507
29	0x3e306e92	0.17229679
30	0x3dd5e399	0.104438014
31	0x3e23644a	0.15956226
32	0x3e00f51b	0.125935
33	0x3e4efaf9	0.20212926
34	0x3e0c5b47	0.13706695
35	0x3e3ba591	0.18324877
36	0x3e0ac289	0.13550772
37	0x3e165024	0.14679009
38	0xbe18fcfb	-0.14940254
39	0x3e346518	0.17616689
40	0xbe056d00	-0.13029861
41	0x3e2207e4	0.15823323
42	0x3e0a3af8	0.13499057
43	0x3e24105b	0.16021864
44	0xbe0c195b	-0.13681547
45	0xbe09f708	-0.13473141
46	0x3e1bc7b9	0.15212907
47	0x3e2861c8	0.1644355
48	0xbe10cc8f	-0.14140533
49	0xbe29dd72	-0.16588381
50	0xbe193f34	-0.14965516
51	0xbdeac01a	-0.11462422
52	0xbdf2977d	-0.118453
53	0xbe0a66ef	-0.13515829
54	0x3dd8bef3	0.10583296
55	0x3dfbec29	0.12300903
56	0xbe21931a	-0.15778771
57	0xbdd8fc06	-0.10594945
58	0xbe0184e4	-0.1264835
59	0x3e005a3c	0.12534422
60	0xbe04c2e9	-0.12964977
61	0xbe3c7af1	-0.18406273
62	0xbe2c4763	-0.16824107
63	0x3e166bd4	0.1468957

attn_layer.2.weight f4 [1, 64]
0	0x3f0260c9	0.5092893
1	0xbf0e60e3	-0.5561659
2	0x3efc6ea8	0.49303174
3	0xbf12355e	-0.5711268
4	0xbf0a237d	-0.539604
5	0x3f0059ea	0.501372
6	0xbf06ce8c	-0.52658916
7	0xbf0583d5	-0.52154285
8	0x3eed73bd	0.46377364
9	0x3f02b35f	0.5105495
10	0x3f0270d6	0.50953424
11	0x3f0e82a1	0.55668074
12	0x3f0b0ab1	0.5431319
13	0xbf05fcc6	-0.52338827
14	0xbef7cc5e	-0.48398107
15	0x3f0b991e	0.54530513
16	0xbf048dc2	-0.51778805
17	0xbf123b25	-0.571215
18	0x3ef6513e	0.48108858
19	0xbf049d2a	-0.51802313
20	0xbf0002ec	-0.5000446
21	0xbf03a29a	-0.51419985
22	0xbf13f1bd	-0.5779074
23	0x3eea9fd5	0.45825067
24	0x3eef554e	0.4674477
25	0xbefec8cc	-0.4976257
26	0x3ef3a8e1	0.47589782
27	0xbef473be	-0.47744554
28	0xbf12e3fd	-0.5737913
29	0xbf044d04	-0.51680017
30	0xbef8e17d	-0.48609534
31	0xbefbcb3e	-0.491785
32	0xbf0627db	-0.52404565
33	0xbee51011	-0.4473882
34	0xbeee60bd	-0.4655818
35	0xbf03505b	-0.5129449
36	0xbf020833	-0.5079376
37	0xbef90709	-0.4863818
38	0x3f08e3cb	0.53472584
39	0xbee86858	-0.45392108
40	0x3efd4eb3	0.49474105
41	0xbf0d8182	-0.5527574
42	0xbf0da2de	-0.5532664
43	0xbef3fe77	-0.4765508
44	0x3f02c5ba	0.51082957
45	0x3eec2b25	0.46126667
46	0xbf0052e7	-0.501265
47	0xbf071749	-0.52769905
48	0x3ef85ebc	0.48509777
49	0x3f0d34b4	0.55158544
50	0x3f076c29	0.52899414
51	0x3f0f2f73	0.55931777
52	0x3ef92901	0.48664096
53	0x3f05f014	0.52319455
54	0xbf0beb89	-0.54656273
55	0xbf10e86f	-0.56604666
56	0x3f021f62	0.50829136
57	0x3f0d6453	0.5523121
58	0x3f0af90a	0.54286253
59	0xbf1098ab	-0.5648295
60	0x3f0e52c5	0.55595046
61	0x3f090213	0.5351879
62	0x3f005faa	0.5014597
63	0xbf05e76e	-0.5230626

lstm_layer.weight_ih_l0 f4 [256, 1]
0	0x3eff8960	0.49909496
1	0xbc9d93da	-0.01923554
2	0x3f1356e1	0.5755444
3	0x3e2ac8c8	0.16678154
4	0xbdf472b8	-0.11935943
5	0x3f3a2520	0.727129
6	0x3e06c889	0.13162436
7	0xbd5726d5	-0.052527267
8	0x3db86361	0.0900333
9	0x3e86102c	0.26184213
10	0x3d1e7138	0.038682193
11	0x3da108a0	0.07862973
12	0xbd112ba4	-0.03544201
13	0xbd9ddf67	-0.07708626
14	0x3e5d8b9a	0.21635285
15	0x3e452be9	0.19255032
16	0xbdc1c84a	-0.0946203
17	0x3f28632e	0.65776336
18	0x3e4f0771	0.20217682
19	0x3c2e69e3	0.010645363
20	0xbdadfcdb	-0.08495494
21	0x3e156abc	0.14591497
22	0x3ea0ff4a	0.3144477
23	0x3d08f9c4	0.03344132
24	0x3d99477f	0.0748434
25	0x3e4279b7	0.18991743
26	0x3dbec652	0.0931517
27	0x3dbcef8b	0.09225377
28	0x3df82163	0.12115743
29	0xbe8bb104	-0.2728349
30	0xbd9e99f0	-0.07744205
31	0x3e81dd5b	0.25364193
32	0x3f19a24a	0.6001326
33	0x3dd0f3bf	0.10202741
34	0xbe0c8067	-0.13720857
35	0x3d6336b1	0.05547208
36	0x3d03f386	0.032214664
37	0xbad70787	-0.0016405442
38	0x3e19fb84	0.15037352
39	0xbd00bd47	-0.03143051
40	0x3f11dbe2	0.5697614
41	0xbdc7979f	-0.09745716
42	0x3e939f6c	0.28832567
43	0x3dcfd45c	0.10147926
44	0x3c8dcb1a	0.01730876
45	0xbd111d4e	-0.035428338
46	0x3e234c65	0.15947111
47	0x3e8f7020	0.28015232
48	0xbd24815a	-0.04016242
49	0x3e6f05b3	0.23342018
50	0xbe373588	-0.17891514
51	0x3e1a7f6a	0.15087667
52	0xbe963966	-0.29340667
53	0xbdcea4ad	-0.10090003
54	0x3de6de2a	0.11272843
55	0x3cfd362d	0.030909622
56	0xbdc0151e	-0.09379028
57	0xbcb3f7f0	-0.021968812
58	0xbd943d89	-0.072382994
59	0x3ea1ece3	0.31626043
60	0xbc14e6f8	-0.00908827
61	0x3eb48c53	0.3526331
62	0x3da667f7	0.081252985
63	0x3eada772	0.33916813
64	0x3ed148d6	0.40875882
65	0x3e258b69	0.16166462
66	0x3ef20f88	0.47277474
67	0x3a038465	0.0005016982
68	0xbdc8de75	-0.09808055
69	0x3f308135	0.68947154
70	0x3dde93fe	0.10868071
71	0xbd4ec699	-0.050482366
72	0x3e0b5123	0.1360517
73	0x3ea3be1c	0.3198098
74	0xbc64e485	-0.013970499
75	0x3e06b2a1	0.13154079
76	0xbd02cfaf	-0.031936344
77	0x3c936fbe	0.017997619
78	0x3e8c06b0	0.27348852
79	0x3e28e9cf	0.16495441
80	0x3df26515	0.11835686
81	0x3f166de5	0.58761436
82	0x3e2ecf50	0.17071271
83	0x3dc3b9e7	0.095569424
84	0xbda5607e	-0.08075045
85	0x3e05df6b	0.13073508
86	0xbeac2fe8	-0.336303
87	0x3d06ee4a	0.032942094
88	0x3e463ac9	0.19358362
89	0x3e0d407f	0.13794135
90	0x3cc9e3b9	0.02464472
91	0xbcd79273	-0.02631495
92	0x3d958e88	0.07302576
93	0xbddb2c59	-0.10701818
94	0xbddb013a	-0.10693593
95	0x3eb83d7a	0.35984403
96	0x3efc373e	0.49260896
97	0xbdc70d1b	-0.097192965
98	0xbd9bcd65	-0.07607535
99	0x3e10cec0	0.14141369
100	0x3e5596a4	0.20858246
101	0x3d442095	0.047882635
102	0x3cd3a194	0.025833882
103	0xbc155824	-0.009115253
104	0x3eee7c82	0.46579367
105	0x3d9f5ebb	0.0778174
106	0x3e07ae48	0.13250077
107	0x3dbfae04	0.09359363
108	0x3d8b9579	0.06815619
109	0xbd989054	-0.074494034
110	0x3da80be1	0.08205391
111	0x3e31ec12	0.1737521
112	0xbd4743e1	-0.04864872
113	0x3d34de07	0.044157054
114	0xbda4f906	-0.0805531
115	0x3e131170	0.1436212
116	0xbe9d8182	-0.3076287
117	0xbd5c9f58	-0.0538629
118	0x3c070fd3	0.008243519
119	0x394f6b6c	0.00019781076
120	0xbd916747	-0.07099777
121	0x3e65bafd	0.22434612
122	0xbd154e76	-0.03645178
123	0x3e547f4b	0.20751683
124	0x3e0729df	0.13199566
125	0x3e8ace5f	0.27110574
126	0x3d58efb5	0.052962977
127	0x3e89c033	0.2690445
128	0x3e82b45b	0.25528225
129	0xbdc9c8ae	-0.0985273
130	0x3e93132b	0.28725561
131	0x3e02601a	0.12731972
132	0xbdbc29b4	-0.09187642
133	0x3eb53ac5	0.353964
134	0xbdbb6a36	-0.091511175
135	0xbccee446	-0.025255334
136	0x3b74726d	0.0037299648
137	0x3e725418	0.23664892
138	0x3d73e7eb	0.059547346
139	0xbe129c3e	-0.14317414
140	0xbd7e9ca4	-0.062161103
141	0xbe3dac11	-0.1852267
142	0xbe56f97d	-0.2099361
143	0xbe25bb63	-0.16184764
144	0x3d5f3acd	0.054499436
145	0x3ebf805e	0.37402624
146	0x3e3c3bb2	0.18382147
147	0xbdda4191	-0.10657037
148	0x3ce5bfb9	0.028045522
149	0x3cf008ea	0.029301126
150	0x3bffaeef	0.007802836
151	0x3c14cf96	0.0090826955
152	0x3d654e84	0.05598308
153	0x3e0247a0	0.12722635
154	0xbd9e91db	-0.077426635
155	0xbe0a53e8	-0.1350857
156	0xbe083af1	-0.13303734
157	0xbdfab7a8	-0.12242061
158	0xbd2d3a00	-0.04229164
159	0x3deb4bd2	0.11489071
160	0x3ea7b430	0.3275466
161	0xbdc82bae	-0.09773956
162	0x3c71e1b1	0.014763282
163	0x3e4838ca	0.19552913
164	0x3e0d2369	0.13783039
165	0xbd6cbadc	-0.05779539
166	0x3ca149de	0.019688543
167	0x3cf11122	0.029427115
168	0xbea62b59	-0.32454947
169	0x3d976c22	0.073936716
170	0x3e3e9f3e	0.18615434
171	0x3d8f2181	0.06988812
172	0x3dd2232f	0.10260617
173	0x3cd83714	0.02639345
174	0x3e1d63cc	0.153701
175	0x3e73e85a	0.23819104
176	0xbd488ef8	-0.04896447
177	0xbd54d800	-0.051963806
178	0x3cb1ba04	0.021695144
179	0x3e155d00	0.14586258
180	0xbdbbbbe1	-0.091666944
181	0x3d43ed84	0.047833934
182	0xbce79721	-0.028270306
183	0x3e0db85f	0.13839863
184	0x3db08107	0.0861836
185	0xbe0405c6	-0.12892827
186	0x3d8ae331	0.067816146
187	0xbe83b372	-0.25722843
188	0x3c807a7e	0.015683409
189	0xbe4840ef	-0.1955602
190	0xbe2a8095	-0.16650613
191	0xbe089340	-0.13337421
192	0x3f0a67fc	0.5406492
193	0xbcbe4ac7	-0.023229016
194	0x3f39d61c	0.7259233
195	0xbbacfb4a	-0.0052789794
196	0xbe0a8b31	-0.1352966
197	0x3f5f6048	0.8725629
198	0x3e2171d3	0.15766077
199	0xbe8a109c	-0.26965797
200	0xbd31d002	-0.043411262
201	0x3e6062ac	0.2191264
202	0xbcdc2ccb	-0.026876828
203	0x3da4687c	0.08027741
204	0x3cfd7edf	0.030944286
205	0x3c059ec9	0.008155533
206	0x3e2c5091	0.16827609
207	0x3ea53f72	0.32274967
208	0x3e048fdc	0.12945503
209	0x3f43d080	0.7649002
210	0x3e117e18	0.14208257
211	0x3cdd702e	0.02703103
212	0xbe4308fd	-0.19046398
213	0xbd433592	-0.04765851
214	0x3eadb9d7	0.33930847
215	0x3d40a953	0.04703648
216	0x3dcb0b93	0.09914317
217	0x3eca88bf	0.39557454
218	0xbd6c380c	-0.057670638
219	0x3e460fd6	0.19341978
220	0x3d8b6b7b	0.0680761
221	0xbee1259c	-0.43974006
222	0xbbdcf5ab	-0.006743153
223	0x3ec679c1	0.38764766
224	0x3f233555	0.63753253
225	0xbd80c727	-0.06287985
226	0xbea12ad7	-0.31477997
227	0x3e08c3ee	0.13355991
228	0x3e3e41e5	0.18579824
229	0x3e539486	0.20662126
230	0xbd9075bf	-0.07053708
231	0xbc8f6404	-0.017503746
232	0x3f187787	0.59557384
233	0xbd08ff54	-0.033446625
234	0x3e84f45d	0.25967684
235	0x3e833646	0.25627345
236	0x3d7f4eb6	0.062330924
237	0x3e4bcb5d	0.19901796
238	0x3e3d2ca8	0.18474066
239	0x3f042f24	0.5163443
240	0xbe2bf022	-0.16790822
241	0x3e8b9abc	0.2726649
242	0xbe87256a	-0.26395732
243	0x3e2be14e	0.16785166
244	0xbefca2b9	-0.49342898
245	0xbd95174c	-0.07279834
246	0x3dcef0b4	0.10104504
247	0x3cf5d9a7	0.030011011
248	0xbd3c9fc6	-0.04605081
249	0x3c626df1	0.013820157
250	0x3e06aaf7	0.13151155
251	0x3eb40974	0.35163462
252	0xbad88acf	-0.001652086
253	0x3e9e225d	0.30885592
254	0x3e876e2b	0.2645124
255	0x3ee19381	0.4405785

lstm_layer.weight_hh_l0 f4 [256, 64]
0	0x3e5f2f86	0.21795473
1	0xbe5d148a	-0.21589866
2	0x3f1edad7	0.62052673
3	0xbe4eb508	-0.20186245
4	0xbe7f6044	-0.24939066
5	0x3f3b6b23	0.7321035
6	0xbe6745e9	-0.22585262
7	0xbf0c34b1	-0.547679
8	0xbd63a863	-0.055580508
9	0x3d2c5944	0.042077318
10	0x3eaaf50a	0.33390075
11	0x3d10369d	0.035208333
12	0x3dd47a26	0.103748605
13	0x3e49844e	0.19679376
14	0xbe01ad8d	-0.1266386
15	0xbd365183	-0.04451133
16	0xbda22701	-0.07917596
17	0x3f2a3ebe	0.66501987
18	0x3d91ef70	0.07125747
19	0xbd1ff32b	-0.039050262
20	0x3f0b4ae2	0.5441114
21	0x3e5c7f20	0.2153287
22	0x3d3bab61	0.045817737
23	0x3e66ad89	0.22527136
24	0x3f14fcbf	0.5819816
25	0x3db25bc8	0.08708912
26	0xbe460b35	-0.19340213
27	0xbe866bb3	-0.26254043
28	0xbe360b3a	-0.1777772
29	0x3ede21ff	0.43385312
30	0x3e7f46a4	0.24929291
31	0x3f1a7f48	0.60350466
32	0x3ee854b8	0.45377135
33	0x3e3601ba	0.17774096
34	0xbf03478a	-0.51281035
35	0x3ca5390c	0.020168804
36	0x3ce97268	0.028496936
37	0x3d408de5	0.04701032
38	0xbe03cbc7	-0.12870704
39	0xbc735ab9	-0.014853173
40	0xbed146cf	-0.40874335
41	0x3c88f78c	0.016719602
42	0x3e5c4993	0.21512441
43	0xbe6bd45e	-0.2303023
44	0xbdd12950	-0.10212958
45	0x3ea4203d	0.32055846
46	0x3da3d4df	0.07999586
47	0x3eec66a8	0.4617207
48	0x3ed1f58a	0.41007644
49	0x3e3add59	0.182485
50	0x3eab043a	0.33401662
51	0xbe28bab6	-0.16477475
52	0x3ea3f8f9	0.3202589
53	0x3df05939	0.11735768
54	0x3da636dc	0.08115932
55	0xbd342321	-0.043978814
56	0xbd08ede4	-0.033429995
57	0x3d8ef054	0.06979433
58	0x3e47b9fe	0.19504544
59	0xbcb1c056	-0.021698158
60	0x3e4016e7	0.18758737
61	0xbeda133e	-0.42592806
62	0xbdad9219	-0.084751315
63	0xbecba313	-0.39772853
64	0xbdaf572a	-0.08561547
65	0xbdb60efa	-0.08889575
66	0x3e1d203f	0.15344332
67	0xbd94c6c4	-0.07264474
68	0xbdea606c	-0.11444172
69	0x3e0d2f9b	0.13787691
70	0xbd76f906	-0.06029608
71	0xbe9f1fe1	-0.3107901
72	0x3d833bff	0.06407928
73	0xbe0fed75	-0.14055426
74	0x3d87b9e4	0.06627253
75	0x3daee05a	0.085388854
76	0x3dc6876a	0.09693797
77	0x3dce0f78	0.10061544
78	0x3dc5112b	0.09622415
79	0xbd9056ab	-0.070477806
80	0x3d473545	0.048634786
81	0x3dfcfed3	0.12353291
82	0xbdf2a6e9	-0.11848242
83	0x3d80a1a7	0.06280833
84	0x3ebeda2e	0.37275833
85	0x3d881135	0.06643907
86	0x3e2aec11	0.16691615
87	0x3d9fa807	0.077957205
88	0x3e96b8de	0.29437917
89	0x3c164201	0.00917101
90	0x3d952230	0.072819114
91	0xbdfd1f43	-0.12359478
92	0xbc5e23c1	-0.013558329
93	0x3ea06801	0.3132935
94	0x3e82f903	0.25580606
95	0x3e9d3ab9	0.30708864
96	0x3e7a72bb	0.24457829
97	0x3d5907f7	0.05298611
98	0xbe255c79	-0.16148557
99	0xbbcb7d57	-0.00621001
100	0x3d284710	0.041083395
101	0x3d87fd15	0.066400684
102	0xbdadd345	-0.08487562
103	0x3e0573d3	0.13032465
104	0x3ce91d2c	0.028456293
105	0xbde3c7d6	-0.111221
106	0xbd985812	-0.07438673
107	0xbe545149	-0.20734133
108	0xbe31f48f	-0.17378448
109	0x3df51044	0.11965993
110	0x3c5baca3	0.013407859
111	0x3e36c448	0.17848313
112	0x3e66869f	0.22512291
113	0xbc725d38	-0.014792733
114	0x3e925adb	0.28584942
115	0xbdb96c2d	-0.09053836
116	0x3ecdeb0c	0.4021839
117	0x3a69a892	0.00089133636
118	0x3d5fce9c	0.054640397
119	0xbd9376b2	-0.07200374
120	0xbe4644aa	-0.19362131
121	0x3e325d29	0.1741835
122	0x3e399a21	0.18125202
123	0x3dc2725d	0.09494469
124	0xbdbac87f	-0.09120273
125	0xbdf7bb59	-0.120962806
126	0xbdfcae2e	-0.1233791
127	0xbe26edef	-0.16301702
128	0x3ecc75bf	0.39933583
129	0xbd410548	-0.047124177
130	0x3ec68b71	0.3877826
131	0xbc71c723	-0.014756951
132	0xbe7a44f5	-0.24440368
133	0x3ec9a39e	0.39382643
134	0xbdea4066	-0.11438064
135	0xbe9aca2a	-0.30232364
136	0xbce7dc97	-0.028303428
137	0x3db43577	0.0879926
138	0x3e18fb65	0.1493965
139	0x3d7837ed	0.06060021
140	0x3d821010	0.0635072
141	0x3d9118ba	0.07084794
142	0xbd0baa5d	-0.034098018
143	0x39402abe	0.0001832647
144	0xbd9c7e89	-0.07641322
145	0x3ebe593e	0.3717746
146	0x3cf9b48c	0.0304816
147	0xbdb1a93c	-0.08674857
148	0x3ed67429	0.41885498
149	0x3d5fa6a3	0.054602277
150	0x3e99b5ad	0.3002142
151	0x3e167cce	0.14696047
152	0x3ea486db	0.32134137
153	0x3eb2202c	0.3479017
154	0xbe7be37a	-0.24598494
155	0xbe37d6e7	-0.17953072
156	0x3d2cf8a0	0.042229295
157	0x3d38e808	0.045143157
158	0x3d85f337	0.0654053
159	0x3ec9f974	0.3944813
160	0x3ec860cb	0.39136347
161	0xbbdee1ac	-0.0068018045
162	0xbe7e1d12	-0.24815777
163	0x3e062816	0.13101229
164	0x3abbffe9	0.0014343235
165	0xbd3ce61b	-0.046117883
166	0x3c34f535	0.01104479
167	0x3dc7e397	0.09760206
168	0xbe6ec065	-0.2331558
169	0xbdb454f9	-0.0880527
170	0x3e645f93	0.22302084
171	0xbd84a5c3	-0.06476929
172	0xbd3895a0	-0.04506457
173	0x3ecab8c9	0.39594105
174	0x3e21e81a	0.15811196
175	0x3e1ed124	0.15509468
176	0x3e6bbab5	0.23020442
177	0xbb80fdd7	-0.00393651
178	0x3ebd07a1	0.36919883
179	0x3e1dba32	0.15403059
180	0x3e4cf5ad	0.20015593
181	0x3dc67c44	0.096916705
182	0xbd04971c	-0.03237067
183	0x3dc024f4	0.09382048
184	0xbdbea48d	-0.09308729
185	0xbd0fdf56	-0.0351251
186	0x3e573269	0.21015324
187	0xbe8b98c9	-0.27265003
188	0x3d7c8dc0	0.06165862
189	0xbe6f4580	-0.23366356
190	0xbd678fef	-0.05653375
191	0xbd585bfd	-0.0528221
192	0x3d67c94b	0.056588452
193	0x3cdbf911	0.026852163
194	0xbccdb435	-0.025110343
195	0x3d27b9c9	0.040948663
196	0xbc95308d	-0.018211627
197	0x3c84c67d	0.016207928
198	0xbe5bb553	-0.21455888
199	0xbd55ca2d	-0.052194763
200	0x3bd0cbbc	0.0063719433
201	0x3ceeac56	0.02913491
202	0x3da8b053	0.08236756
203	0xbdbc4ea1	-0.09194685
204	0xbd700386	-0.05859711
205	0x3c953509	0.018213766
206	0xbe39df46	-0.18151578
207	0xbdf2a98d	-0.118487455
208	0x3d0743d5	0.033023674
209	0x3e4f9b6b	0.20274131
210	0xbd84d319	-0.06485576
211	0x3daf1e9c	0.0855076
212	0x3e249a05	0.16074379
213	0x3e0ff1d2	0.14057091
214	0xbd574e54	-0.052564934
215	0xbcc964ae	-0.02458414
216	0x3dc1c57c	0.09461495
217	0xbdc53f3d	-0.09631202
218	0xbe90ce63	-0.2828246
219	0xbe497955	-0.19675191
220	0x3d9d9cfa	0.076959565
221	0x3cec47e9	0.028842883
222	0x3b97dde1	0.0046346043
223	0x3cb21483	0.021738296
224	0x3d7581ba	0.05993817
225	0xbd73d562	-0.05952967
226	0xbe254271	-0.16138627
227	0xbd8d5a32	-0.06901969
228	0x3cc019fa	0.023449887
229	0x3d48246c	0.04886286
230	0xbde17870	-0.110093
231	0xbdd5690d	-0.104204275
232	0xbe7e3e90	-0.24828553
233	0xbd38a2fc	-0.04507731
234	0xbdb9f39d	-0.09079669
235	0xbdeb97e2	-0.11503579
236	0xbe2889a9	-0.16458763
237	0x3db18f4e	0.08669911
238	0x3e054dc9	0.13017954
239	0xbc849aae	-0.016187038
240	0x3e57bd6b	0.21068351
241	0x3d735a21	0.059412125
242	0x3ce0051d	0.027346188
243	0x3d524867	0.05133858
244	0x3e435f12	0.19079235
245	0xbdb33e85	-0.08752159
246	0xbc2545ca	-0.01008744
247	0xbd884ae0	-0.06654906
248	0xbde94da0	-0.11391759
249	0xbd0d2aae	-0.03446453
250	0x3e16154f	0.14656566
251	0x3e525a11	0.2054217
252	0x3d0d0aa5	0.03443398
253	0xbd33f1ac	-0.043931648
254	0xbc65c09a	-0.014022971
255	0xbe650f25	-0.22369058

lstm_layer.bias_ih_l0 f4 [256]
0	0x3c8a8587	0.016909374
1	0xbd4604de	-0.048344485
2	0x3cd046c1	0.025424363
3	0x3d998c25	0.074974336
4	0xbd6614dd	-0.05617224
5	0x3e50f5f3	0.20406322
6	0xbdcd688f	-0.100297086
7	0x3dd1d347	0.10245376
8	0xbdfa7fd2	-0.12231411
9	0x3c5da42d	0.013527912
10	0x3d54e849	0.051979337
11	0xba9047ba	-0.0011007704
12	0x3d87da70	0.066334605
13	0x3db335af	0.08750474
14	0xbe0ef088	-0.13958943
15	0xbd34acf5	-0.044110257
16	0x3de7f4db	0.11325999
17	0x3d4a4ab3	0.049387645
18	0xbccff3af	-0.025384752
19	0xbdf59910	-0.11992085
20	0x3d5e4adf	0.05427062
21	0xbdaacf44	-0.08340314
22	0x3e31ab14	0.17350417
23	0xbd2b2888	-0.0417867
24	0xbdb0d332	-0.08634032
25	0xbdc2a5cc	-0.095042795
26	0xbe0e116a	-0.1387383
27	0x3d3e3f37	0.046447005
28	0xbddac11f	-0.10681366
29	0x3d5d15d4	0.053975895
30	0x3da2ea38	0.0795483
31	0x3bb667fd	0.0055665956
32	0x3c057d30	0.008147523
33	0xbd374ccf	-0.044750985
34	0x3cd36df9	0.025809275
35	0x3d357619	0.04430208
36	0x3b681cbd	0.003541752
37	0x3c5694db	0.013097013
38	0xbda0cc30	-0.07851446
39	0xbd1f65f7	-0.0389156
40	0x3d2d1674	0.04225774
41	0xbdd96a86	-0.10616021
42	0x3df707a0	0.12062001
43	0x3cd027b0	0.02540955
44	0x3d3086b1	0.0430972
45	0xbd911757	-0.0708453
46	0x3dbeee42	0.09322788
47	0xbd1d7d75	-0.038449723
48	0xbd81fd28	-0.06347114
49	0xbd23bff0	-0.039977968
50	0xbdcdf5bc	-0.10056636
51	0xbc28959e	-0.010289578
52	0x3d28df88	0.0412288
53	0xbe0fd41c	-0.14045757
54	0xbe0e7f56	-0.13915762
55	0xbd748ad3	-0.059702706
56	0xbcbf6c58	-0.023367092
57	0xbd027f3d	-0.031859625
58	0xbcdf9b59	-0.027295755
59	0x3e5f453a	0.21803752
60	0x3d51d38f	0.05122715
61	0xbcf95c22	-0.03043944
62	0xbd0f3042	-0.03495813
63	0xbd8c236a	-0.06842692
64	0xbe4f4a7b	-0.20243256
65	0x3d8462f0	0.06464183
66	0xbc9ddb83	-0.01926971
67	0x3dc00224	0.09375408
68	0xbca278fd	-0.019833082
69	0xbe5d69f5	-0.2162245
70	0x3c213002	0.009838106
71	0xbdf1cc03	-0.1180649
72	0xbd831440	-0.06400347
73	0xbdbc17c0	-0.091842175
74	0xbd807835	-0.06272928
75	0x3ca59fd8	0.020217821
76	0xbdd9c6e9	-0.10633642
77	0xbc6ee8fb	-0.014581914
78	0x3d05b82e	0.03264635
79	0xbd933abc	-0.07188937
80	0xbe121de7	-0.1426922
81	0xbe2ed647	-0.17073928
82	0xbae61e77	-0.0017556687
83	0xbddbe755	-0.107374825
84	0xbe03bd47	-0.12865172
85	0xbddcbdb1	-0.10778368
86	0xbec9116a	-0.39271098
87	0xbcfa6290	-0.030564576
88	0xbe018b26	-0.12650737
89	0xbe5adf7c	-0.21374315
90	0x3c23554c	0.009969067
91	0x3c6ab55f	0.014325469
92	0x3b3f4986	0.002918811
93	0xbdc19231	-0.09451712
94	0x3ca0ce76	0.019629698
95	0xbd79c8a3	-0.060982358
96	0x3d18dbaf	0.03731888
97	0xbe004898	-0.12527692
98	0xbd4e1e8a	-0.050322093
99	0xbe009685	-0.12557419
100	0xbce415a5	-0.027842352
101	0xbc94ce0a	-0.018164653
102	0x3a03194a	0.0005001022
103	0x3d248ec8	0.04017523
104	0x39c7a73d	0.0003808084
105	0xbdf80336	-0.121099874
106	0xbe153463	-0.14570765
107	0x3c6d16e6	0.014470791
108	0x3d52f07f	0.051498886
109	0xbc899e64	-0.01679916
110	0xbe13b2eb	-0.1442372
111	0xbde7cd2a	-0.11318429
112	0xbdddc673	-0.10828867
113	0x3ab062b1	0.0013457147
114	0xbd75c5fd	-0.06000327
115	0xbbb3a31f	-0.005482092
116	0xbe5140fe	-0.20434949
117	0xbcdebde4	-0.027190156
118	0xbcc2be28	-0.023772314
119	0x3afe8698	0.0019418774
120	0xbe011186	-0.12604341
121	0x3d4ec6e0	0.05048263
122	0x3b952786	0.0045518307
123	0xbe0de19c	-0.13855594
124	0x3dac90f5	0.08426086
125	0x3d7bcb2a	0.06147305
126	0xbccb343c	-0.02480518
127	0x3d99588c	0.07487592
128	0xbca09781	-0.019603493
129	0xbd5dc34d	-0.05414133
130	0xbd36968e	-0.044577174
131	0xbceb7ee1	-0.028747024
132	0x3d0cf3c3	0.034412157
133	0xbb8cada2	-0.0042931596
134	0x3c1446f3	0.009050119
135	0xbd9caa00	-0.076496124
136	0x3caa0fcc	0.020759486
137	0x3d7c7393	0.061633658
138	0x3d767e4a	0.060179032
139	0xbd81cb96	-0.06337659
140	0xbdaec36e	-0.08533369
141	0xbe085d5c	-0.13316864
142	0xbcd73047	-0.026268138
143	0xbdc2a657	-0.09504383
144	0xbcc3b358	-0.023889229
145	0x3de5b83b	0.1121678
146	0x3d769ae7	0.06020632
147	0x3d906286	0.07050042
148	0x3bc7e75b	0.006100578
149	0x3dc1235d	0.09430573
150	0xbd1f8bd3	-0.038951706
151	0xbbca1724	-0.0061673094
152	0x3d10be2f	0.035337623
153	0x3d9da9dc	0.07698414
154	0x3d9fd178	0.07803625
155	0x3d412596	0.047154985
156	0xbda51e20	-0.080623865
157	0xbd2f3656	-0.04277643
158	0x3d89229b	0.066960536
159	0x3d5f09b2	0.054452606
160	0x3ceb2152	0.028702412
161	0xbd82c0de	-0.06384443
162	0x3d6bcc81	0.057568077
163	0x3c973d75	0.018461922
164	0xbb903bd2	-0.0044016624
165	0xbc06b115	-0.008220931
166	0x3d8b5227	0.06802779
167	0xbcd67774	-0.026180007
168	0xbca1b077	-0.019737465
169	0x3d4f51a9	0.050614987
170	0xbdedc15c	-0.11609146
171	0x3c62ef86	0.013851052
172	0xbd782856	-0.060585342
173	0xbdae270d	-0.08503542
174	0xbdc6134c	-0.09671649
175	0x3d8d6bf0	0.06905353
176	0xbdc91ad6	-0.09819572
177	0xbcc57fa7	-0.024108721
178	0xbda9ba02	-0.08287431
179	0xbd581254	-0.052751854
180	0xbd2cca26	-0.04218497
181	0x3cb36f03	0.02190352
182	0xbd9490dc	-0.07254192
183	0x3d659c4a	0.056057252
184	0x3d0d4e26	0.034498356
185	0xbd3122bf	-0.043246027
186	0xbb6eb967	-0.0036426426
187	0xbdba9714	-0.09110847
188	0xbc943d35	-0.018095592
189	0xbc457027	-0.012050665
190	0xbd0a32bb	-0.033739787
191	0xbd5ea76f	-0.054358896
192	0xbd762e67	-0.060102846
193	0x3d44c19d	0.048036207
194	0x3dd4b1fd	0.10385511
195	0xbdc65c72	-0.09685601
196	0x3caba886	0.020954382
197	0x3dd8a238	0.10577816
198	0x3bc882ce	0.0061191088
199	0xbded3643	-0.11582615
200	0xbd8d9a3d	-0.06914184
201	0x3dc76abc	0.09737155
202	0xbe1758d6	-0.14779982
203	0x3cdbb216	0.026818316
204	0x3aaa0dca	0.001297408
205	0x3d1cbbdf	0.038265105
206	0x3d1ff7b3	0.039054584
207	0xbdbee2c9	-0.093205996
208	0xbd03db72	-0.0321917
209	0x3e18b03d	0.1491098
210	0xbdf72d68	-0.120692074
211	0xbdc51998	-0.09624022
212	0x3d99e21b	0.07513829
213	0x3d90ca62	0.070698515
214	0x3e45bd58	0.1931051
215	0xbde66d81	-0.11251355
216	0x3d1d2df4	0.038373902
217	0xbd84eee2	-0.06490876
218	0xbe006b50	-0.12540936
219	0xbd91ae35	-0.071133055
220	0xbd9846a0	-0.07435346
221	0x3ce1a8c8	0.027546301
222	0x3cd475cd	0.025935078
223	0xbdfdc1e6	-0.12390499
224	0x3cf7d29b	0.030251792
225	0xbd1da089	-0.038483176
226	0x3db70311	0.08936132
227	0xbcb2b975	-0.021816948
228	0xbbeb6a27	-0.007184285
229	0xbe1b4a2a	-0.1516501
230	0x3d434ebc	0.04768251
231	0xbb9329ad	-0.004491052
232	0x3dfa8ff7	0.1223449
233	0x3db84f57	0.08999508
234	0xbd5a17af	-0.053245243
235	0x3dc1e66a	0.09467776
236	0x3d244b75	0.040111024
237	0xbd3f0b65	-0.046641726
238	0x3db42996	0.087969944
239	0xbde61b11	-0.11235631
240	0x3d33f1ff	0.043931957
241	0x3da2ad55	0.07943217
242	0xbc7d0ddc	-0.015445199
243	0xbc75fa8d	-0.015013349
244	0xbd81c6d8	-0.063367546
245	0xbc19b2e6	-0.009381032
246	0xbdf905c3	-0.12159302
247	0xbda63ab1	-0.08116663
248	0xbc7dec0e	-0.015498174
249	0xbce6f28d	-0.02819183
250	0xbe0214cf	-0.1270325
251	0x3e82e743	0.25567064
252	0x3cf946c2	0.030429248
253	0xbd4e55c3	-0.050374757
254	0xbd062335	-0.03274842
255	0xbd241f15	-0.040068705

lstm_layer.bias_hh_l0 f4 [256]
0	0x3d0e5c3c	0.03475593
1	0xbd89d320	-0.06729722
2	0xbda64f57	-0.081206016
3	0xbdc22004	-0.09478763
4	0xbe19b5d7	-0.15010773
5	0x3e15ec55	0.14640935
6	0xbd8d0012	-0.06884779
7	0xbdbb6dcd	-0.09151802
8	0xbdc55d19	-0.096368976
9	0x3d845bf8	0.06462854
10	0xbcc04ad5	-0.023473183
11	0x3d3b5208	0.045732528
12	0x3d76f3a9	0.060290966
13	0x3e3f056b	0.1865441
14	0x38e93d6c	0.000111217465
15	0xbd808b0e	-0.062765226
16	0xbcec4500	-0.028841496
17	0x3e59538d	0.21223278
18	0xbd009505	-0.031392116
19	0xbdc709a2	-0.09718634
20	0xbde84a58	-0.11342305
21	0xb9db5824	-0.00041836605
22	0x3e217ec3	0.15771012
23	0x3d6c9275	0.05775686
24	0xbd4aae0f	-0.0494824
25	0x3d6b1aa7	0.057398465
26	0x3d46d23d	0.048540343
27	0x3d1b44f9	0.037907574
28	0xbd430c09	-0.0476189
29	0x3db40fcd	0.08792076
30	0x3cf38b51	0.029729517
31	0xbb5caf1e	-0.0033673714
32	0x3dbece1c	0.09316656
33	0xbd88bb7e	-0.06676386
34	0xbdd2dd5b	-0.102961265
35	0xbca8fd8b	-0.020628711
36	0xbd547fef	-0.05187982
37	0x3d88df04	0.06683162
38	0xbe07a70b	-0.13247316
39	0x3ce91164	0.028450675
40	0x3d5d776b	0.054068964
41	0xbd733966	-0.05938091
42	0x3e1700b5	0.14746363
43	0x3d96001a	0.07324238
44	0x3d8cdd26	0.06878118
45	0xbd4c4534	-0.049870685
46	0xbacd39e2	-0.0015657509
47	0x3d98ed2f	0.07467114
48	0x3d9600a4	0.07324341
49	0x3df45519	0.119302936
50	0x3d865c46	0.065605685
51	0x3d7b3b0a	0.0613356
52	0x3df67441	0.120338924
53	0x3cc7129d	0.024300868
54	0x3cbe44cd	0.023226166
55	0x3db715b9	0.0893969
56	0xbdfd5782	-0.123702064
57	0x3d72e7cc	0.05930309
58	0xbd12d2d3	-0.03584559
59	0x3e8e0fcb	0.27746424
60	0x3ce9c5c0	0.028536677
61	0xbdd0a3da	-0.10187502
62	0xbdabdf3f	-0.0839219
63	0xbcd03803	-0.025417333
64	0xbd917eac	-0.07104239
65	0xbde2e860	-0.11079478
66	0x3c9e4d14	0.019323863
67	0x3bfe269e	0.0077560684
68	0xbe129aa0	-0.14316797
69	0x3c86e353	0.016465819
70	0x3c849074	0.016182162
71	0x3d059aa1	0.03261817
72	0xbd9d94d7	-0.076944046
73	0xbd01f0cd	-0.031723786
74	0xbd963b02	-0.073354736
75	0xbd63015c	-0.05542122
76	0x3d332456	0.043735825
77	0x3d230629	0.039800797
78	0xbe0b2a23	-0.13590293
79	0xbd197f82	-0.037475117
80	0x3c7c7451	0.015408591
81	0xbde2a378	-0.110663354
82	0xbdbb4bc9	-0.09145314
83	0xbddf9f6c	-0.10919079
84	0x3d9a7dd1	0.07543529
85	0x3b464810	0.0030255355
86	0xbe97a778	-0.29619956
87	0x3cfa0152	0.030518208
88	0xbde4a1ec	-0.11163697
89	0xbe1287ff	-0.14309691
90	0xbd9a44fd	-0.0753269
91	0x3cd18d4e	0.025580075
92	0xbdd51ff1	-0.10406483
93	0xbcefbf4a	-0.029266018
94	0xbd939bdb	-0.072074614
95	0xbe0bdffb	-0.1365966
96	0xbcdee2a3	-0.027207678
97	0xbd6fef91	-0.058578078
98	0xbd209504	-0.039204612
99	0xbe15e570	-0.14638305
100	0xbdd49063	-0.10379102
101	0x3d8678c8	0.06566006
102	0x3d5eebe7	0.054424193
103	0x3c80e2b9	0.01573311
104	0xbdebfbc6	-0.11522631
105	0x3c4ca2bd	0.012489972
106	0xbd4d59bd	-0.05013441
107	0xbde628be	-0.1123824
108	0xbdac3016	-0.08407609
109	0x3ce4969b	0.027903846
110	0xbe1720f1	-0.1475866
111	0x3cf6c1ef	0.030121772
112	0xbdd1096d	-0.10206876
113	0xbe3714c6	-0.17879018
114	0x3d750cc0	0.059826612
115	0xbd260473	-0.040531587
116	0xbe167802	-0.14694217
117	0x3d45ee57	0.048323
118	0xbc7e6f4c	-0.015529465
119	0xbc6c54ce	-0.014424516
120	0xbd22b3a7	-0.03972211
121	0xbc2d151f	-0.010564118
122	0xbdc82383	-0.09772398
123	0xbe9f13cd	-0.31069794
124	0xbd0ff135	-0.035142142
125	0xbdf61783	-0.12016203
126	0xbd5d6bbd	-0.054057825
127	0x3b5a695f	0.0033326966
128	0x3d46eb8e	0.048564486
129	0x3cf97b28	0.030454233
130	0x3d2df3ea	0.042468943
131	0x3d51db79	0.051234696
132	0x3c33bd71	0.010970459
133	0x3b1c5c4b	0.0023858722
134	0x3c8a8d29	0.016913014
135	0x3dda8fd4	0.10671964
136	0x3d380796	0.04492911
137	0xbbbbf07e	-0.005735456
138	0xbd6e9181	-0.058244232
139	0xbc338000	-0.010955811
140	0x3d308063	0.04309119
141	0x3dba4f23	0.090971254
142	0xbd6d122b	-0.057878654
143	0xbc695f72	-0.014243947
144	0x3cf955d0	0.030436426
145	0xbdeeea8b	-0.11665829
146	0x3c943e15	0.01809601
147	0x3cc34739	0.023837673
148	0xbd6f7f23	-0.058470856
149	0xbdecdc08	-0.11565405
150	0x3dcf1919	0.10112209
151	0xbc61fecf	-0.013793661
152	0xbd91552d	-0.07096324
153	0xbd5d203c	-0.05398582
154	0xbdc5bae4	-0.09654787
155	0x3d393c97	0.0452238
156	0xbdbfd06a	-0.09365924
157	0xbcf999e6	-0.030468892
158	0xbda88a4d	-0.08229504
159	0xbd6fa38f	-0.05850559
160	0xbd20cc88	-0.039257556
161	0x3d464e3f	0.048414465
162	0xbbde1de9	-0.006778468
163	0x3d58b983	0.052911293
164	0x3d509c28	0.050930172
165	0x3d3d4686	0.046209835
166	0xbd93efb4	-0.07223454
167	0x3d1f3090	0.038864672
168	0xbd0fd124	-0.03511156
169	0x3d4205f0	0.047368944
170	0x3e01a9f0	0.12662482
171	0xbd15e344	-0.03659369
172	0x3cd429ac	0.025898777
173	0x3d879cd5	0.0662171
174	0x3dd71d7b	0.1050367
175	0xbd50b0ef	-0.050949987
176	0x3d2a409a	0.041565515
177	0x3d124fbb	0.03572057
178	0xbc4cd06a	-0.012500862
179	0x3d9b53e2	0.07584359
180	0xbc424636	-0.01185756
181	0xbd23ddf3	-0.04000659
182	0xbccf64a0	-0.025316536
183	0x3d5447ba	0.051826216
184	0x3d7fde03	0.062467586
185	0xbd57fa42	-0.0527289
186	0xbc847462	-0.016168777
187	0x3cb7a428	0.022417143
188	0x3a38312e	0.00070263713
189	0x3d69376e	0.056937627
190	0x3c6a23c2	0.014290752
191	0x3dcb5103	0.09927561
192	0x3e0b543f	0.13606356
193	0xbb3a12e4	-0.0028392607
194	0xbab36300	-0.001368612
195	0x3cd2daf1	0.025739165
196	0x3d840337	0.06445926
197	0x3d2b20d7	0.041779365
198	0xbd9bf518	-0.07615107
199	0x3d85204d	0.065003015
200	0x3cb28ba5	0.021795103
201	0xbdd5d316	-0.10440652
202	0xbe0e8666	-0.13918456
203	0x3cc8c9a5	0.024510214
204	0xbd561b77	-0.052272286
205	0xbd034539	-0.032048438
206	0x3c82784e	0.015926506
207	0xbd0d9ddb	-0.03457437
208	0x3c540b8b	0.012942205
209	0x3d838ed3	0.06423726
210	0xb7c36d64	-2.329675e-05
211	0xbddefb86	-0.10887818
212	0x3da9002f	0.08251988
213	0x3d92ca58	0.071675
214	0x3e7ef49c	0.24897999
215	0xbd38a1e8	-0.04507628
216	0xbe1d1cf2	-0.15343073
217	0xbc988c27	-0.018621517
218	0xbd59d12d	-0.053178
219	0xbd936f26	-0.07198934
220	0xbce71b2c	-0.028211199
221	0x39dd7a50	0.00042243535
222	0xbe11dae2	-0.14243653
223	0x3db45c8e	0.08806716
224	0x3e01f02c	0.12689275
225	0xbe19adb2	-0.15007666
226	0x3bd4ac69	0.0064902795
227	0x3c7080dd	0.014679161
228	0xbccdd170	-0.025124282
229	0xbdb2b2f2	-0.08725537
230	0x3d0a86ff	0.03382015
231	0x3d6ac565	0.057317156
232	0xbd0e4e07	-0.03474238
233	0xbdd1776b	-0.10227855
234	0x3e08e4e4	0.13368565
235	0xbb8125fa	-0.0039412947
236	0x3de15afc	0.11003682
237	0xbdc01a28	-0.09379989
238	0xbe0a311a	-0.13495293
239	0x3da05211	0.07828153
240	0x3d959f9d	0.073058344
241	0xbddc4058	-0.1075446
242	0xbd222546	-0.039586328
243	0xbd1d4fa8	-0.038406044
244	0xbe0daec4	-0.13836199
245	0xbdf29f9c	-0.11846849
246	0x3d2f9ae4	0.042872325
247	0xbd883501	-0.06650735
248	0xbddeea77	-0.10884564
249	0xbe2de801	-0.16983034
250	0x3cb2b8a5	0.021816561
251	0x3e6a7700	0.22896957
252	0xbcafd286	-0.02146269
253	0x3d83c33a	0.06433721
254	0xbd3ef730	-0.046622455
255	0xbd389630	-0.045065105

fc.weight f4 [1, 65]
0	0x3f4cbd04	0.79975915
1	0x3ec6a0d1	0.38794568
2	0xbf6d70fe	-0.9275054
3	0xbea7afe8	-0.32751393
4	0xbf85abc1	-1.044304
5	0xbd874aa0	-0.066060305
6	0xbef06ee8	-0.46959615
7	0x3ec92f74	0.39294016
8	0x3f3724da	0.71540606
9	0x3f1ff019	0.62475735
10	0xbc46f9fa	-0.01214456
11	0xbf9c9dc7	-1.223565
12	0x3f170046	0.5898479
13	0x3f918d71	1.137129
14	0x3f8392e2	1.02792
15	0xbe3bda77	-0.18345056
16	0x3fb24a80	1.3928986
17	0x3f2a4a08	0.6651921
18	0x3e96ded1	0.2946687
19	0xc06bdf7b	-3.6855152
20	0x3f92da79	1.1472923
21	0x3de61de9	0.11236174
22	0x4013d229	2.3097022
23	0x3fd61298	1.6724424
24	0xc00c1c78	-2.1892376
25	0xbd50e321	-0.050997857
26	0xc00501cb	-2.0782344
27	0xbf6c541c	-0.9231584
28	0xbe0987fc	-0.1343078
29	0xbf2b7a6d	-0.6698368
30	0x3f8e287e	1.1106107
31	0x3f0ad0cb	0.5422484
32	0xbf20ec6a	-0.6286074
33	0x3fc654bb	1.5494608
34	0xbea919be	-0.33027452
35	0x3e46a326	0.19398174
36	0x3f85284b	1.0402921
37	0xbe3e1834	-0.1856392
38	0x40041cd0	2.0642586
39	0x3e9c7483	0.3055764
40	0x3f60ec1b	0.8786027
41	0xbe77a495	-0.24183877
42	0x3f0481e1	0.5176068
43	0x3fd5199a	1.6648438
44	0xbf5d7fab	-0.8652293
45	0xbe8c156c	-0.27360094
46	0x3f4ae1a3	0.79250544
47	0x3ea7a1a1	0.327405
48	0xbefaf9e9	-0.4901879
49	0xbfb7ed1e	-1.4369237
50	0xbfdc4f5a	-1.7211716
51	0x3f53097a	0.82436335
52	0x3f36c4fa	0.7139431
53	0x3f97288b	1.1809248
54	0x3ec2493b	0.37946495
55	0xbf4912a2	-0.78544056
56	0xbf999ff0	-1.2001934
57	0x3f9bd02f	1.2172908
58	0xbfd00da8	-1.6254168
59	0x3f680038	0.90625334
60	0x3d8357bb	0.06413218
61	0x3f8a3735	1.0798098
62	0x3f4b75ba	0.7947651
63	0xbcab50a4	-0.020912476
64	0x3f361abe	0.71134555

fc_final1.weight f4 [64, 128]
0	0xbc3d3191	-0.011547462
1	0x3c206c58	0.009791456
2	0x3d0d7897	0.03453883
3	0x3d1ff731	0.0390541
4	0xbd891f28	-0.06695396
5	0x3e2bade5	0.16765554
6	0xbcc44fea	-0.023963887
7	0x3d3da067	0.04629555
8	0x3cec0db3	0.028815126
9	0x3db219f6	0.08696358
10	0x3d91d86e	0.07121359
11	0xbdad46a8	-0.08460742
12	0x3d24eb81	0.040263657
13	0xbda07670	-0.0783509
14	0x3b1713df	0.0023052616
15	0x3d75874f	0.059943493
16	0x3ce18acf	0.02753201
17	0x3d968d99	0.07351226
18	0xbb15bc59	-0.002284786
19	0x3d3f8eb0	0.046766937
20	0xbca7e364	-0.02049417
21	0xbb03c0a9	-0.0020103848
22	0x3de122e2	0.109929815
23	0xbc033ec3	-0.008010569
24	0xbd16cbf7	-0.03681561
25	0x3db6df04	0.089292556
26	0x3c6eb005	0.0145683335
27	0xbd8380ce	-0.06421052
28	0x3cd9750d	0.026545072
29	0xbdc6ed56	-0.09713237
30	0x3d96ebac	0.073691696
31	0xbd09481c	-0.033516034
32	0x3d8e2c86	0.06942086
33	0xbd619708	-0.055075675
34	0xbcb6efe2	-0.022331182
35	0xbd9bbe8f	-0.076047055
36	0x3db9391c	0.09044096
37	0xbd800e7b	-0.06252762
38	0xbaedb06d	-0.0018134244
39	0x3d8cef57	0.06881588
40	0xbe0353ca	-0.12824932
41	0x3ccf75cb	0.025324723
42	0x3d984315	0.0743467
43	0xbd82e4a9	-0.0639127
44	0x3d0adea4	0.033903733
45	0xbd5a4462	-0.05328787
46	0x3d34b01e	0.04411327
47	0x3dc498a4	0.095994264
48	0xbda7f19e	-0.08200382
49	0xbcdc78c6	-0.026913058
50	0xbdb701cb	-0.08935889
51	0x3c902b14	0.017598666
52	0xbda82d29	-0.082117386
53	0x3d5fa453	0.05460007
54	0xbd4cb295	-0.049974997
55	0xbd5b17ed	-0.053489614
56	0x3d66d19f	0.056352254
57	0xbd9ae693	-0.0756351
58	0xbda8e72b	-0.08247217
59	0x3cbcf23d	0.023064727
60	0xbd7197e1	-0.058982734
61	0x3d342a67	0.04398575
62	0x3d5c3699	0.053763006
63	0x3d90ab19	0.07063884
64	0xbd9c3d6a	-0.07628901
65	0x3ccb8c09	0.024847047
66	0x3dc0389e	0.09385799
67	0xbb0efd3c	-0.002181842
68	0x3c86362f	0.016383259
69	0xbb923891	-0.0044623096
70	0x3b62c500	0.0034602284
71	0x3c05a4b3	0.008156943
72	0x3c319464	0.010838602
73	0x3d881b3f	0.06645822
74	0x3dab5810	0.08366406
75	0xbd72e990	-0.059304774
76	0x3d907a96	0.070546314
77	0x3d000c03	0.031261455
78	0x3d5b44b8	0.053532332
79	0xbcbddaee	-0.023175683
80	0xbd934502	-0.071908966
81	0xbc4a9cd9	-0.012366497
82	0x3d0b3968	0.033990294
83	0x3d25a2bf	0.04043841
84	0x3d0df38b	0.03465609
85	0x3d9a4bee	0.07534014
86	0x3d227475	0.039661843
87	0x3e1f0b31	0.15531613
88	0x3d76b3da	0.060230114
89	0x39838f2d	0.0002509294
90	0xbc787936	-0.015165618
91	0x3d52836a	0.051394857
92	0x3d4e7c0d	0.050411273
93	0xbce7aa21	-0.028279366
94	0x3da73b5a	0.08165617
95	0xbbe7de3a	-0.007076052
96	0xbd948115	-0.07251183
97	0x3cf2b8fb	0.029629221
98	0x3dbaaa31	0.09114493
99	0x3d87174d	0.06596241
100	0xbd49bcc2	-0.04925228
101	0x3c6e84d6	0.014558038
102	0x3d2fea1a	0.042947866
103	0x3ddbbb6f	0.107291095
104	0xbc835003	-0.016029363
105	0x3ca789bb	0.020451417
106	0x3d7a84cc	0.0611618
107	0xbc559876	-0.013036838
108	0xbd470bd8	-0.04859528
109	0x3df11443	0.11771443
110	0x3d732bc7	0.05936792
111	0xbd670aa2	-0.056406625
112	0x3d9fc3b3	0.078009985
113	0xbd3f6181	-0.046723846
114	0x3c8329ac	0.016011082
115	0xbd9816f2	-0.074262515
116	0x3d4b2ead	0.04960506
117	0xbd00fe8d	-0.03149276
118	0xbc78c91e	-0.015184669
119	0xbc6c1622	-0.014409574
120	0x3d20d786	0.03926804
121	0x3ce730d1	0.02822152
122	0x39aab252	0.00032557786
123	0xbac4d3c0	-0.001501672
124	0xbcf26ee9	-0.029593902
125	0x3d95a288	0.07306391
126	0xbc786461	-0.015160651
127	0x3d441bfb	0.047878247
128	0xbadad060	-0.0016694181
129	0xbd12540f	-0.035724696
130	0x3cb2b341	0.02181399
131	0x3cba81e4	0.022767015
132	0x3d0e1f23	0.034697663
133	0x3dbd126f	0.092320316
134	0x3d2718a2	0.040794976
135	0xbd354593	-0.044255804
136	0x3c3714cb	0.011174391
137	0x3c38aae4	0.011271212
138	0xbd91390b	-0.07090958
139	0x3dbeefa7	0.09323054
140	0xbb8ea4f2	-0.004353159
141	0xbd5fbcbb	-0.054623347
142	0xbd6f76b9	-0.058462832
143	0xbd81f189	-0.06344897
144	0x3d88e292	0.0668384
145	0x3d25e3b0	0.040500343
146	0x3d0db0e4	0.034592524
147	0xbd0051e9	-0.031328116
148	0xbc9dce55	-0.019263426
149	0x3d8e2c76	0.06942074
150	0xbd82c77d	-0.063857056
151	0xbd10c27b	-0.03534172
152	0xbd540d63	-0.05177058
153	0xbdb19c1c	-0.086723536
154	0xbd9f20a1	-0.07769895
155	0xbba948ca	-0.005166148
156	0xbc81057c	-0.015749685
157	0xbc1674eb	-0.009183149
158	0x3cd7ac0d	0.026327157
159	0xbdac9a37	-0.08427852
160	0xbb864e6a	-0.004098703
161	0xbd57dc61	-0.052700404
162	0xbb77ce2a	-0.0037812092
163	0x3c8d5304	0.017251499
164	0xbd614157	-0.054993954
165	0x3bba389b	0.0056830174
166	0xbd2800fb	-0.04101656
167	0xbd52bab3	-0.05144758
168	0xbc9153c7	-0.017740143
169	0x3c7715c4	0.015080873
170	0x3c5787ff	0.013154983
171	0x3cfea6c9	0.031085389
172	0xbd2324c4	-0.039829984
173	0xbbe55bf0	-0.006999485
174	0x3d6aefcd	0.057357598
175	0xbd795245	-0.060869474
176	0x3c5e69ec	0.013575058
177	0x3d8130ca	0.06308134
178	0xbd2e4cd8	-0.042553753
179	0xbd735d80	-0.05941534
180	0x3dfb88dc	0.12281963
181	0xbd75f736	-0.06005021
182	0x3d88fb17	0.066885166
183	0xbda428b2	-0.080155745
184	0x3d0a0259	0.033693645
185	0x3c5d53e4	0.013508771
186	0x3d015e4e	0.031584077
187	0x39be017d	0.00036240733
188	0xbda12f3f	-0.078703396
189	0x3d3d9c23	0.04629148
190	0x3be3ac93	0.0069480627
191	0x3d4a388f	0.049370345
192	0x3a215e5a	0.0006155722
193	0xbd844e19	-0.064602084
194	0xbd686794	-0.056739405
195	0x3d74909e	0.05970823
196	0xbd072237	-0.032991614
197	0x3c213d4f	0.009841277
198	0xbc7e2743	-0.01551229
199	0xbd26ce91	-0.04072434
200	0xbd9f07a8	-0.07765132
201	0xbdbc0dd1	-0.09182323
202	0xbcbd4c77	-0.02310775
203	0x3da532ff	0.08066367
204	0xbdb47db5	-0.08813039
205	0x3d2fe7a1	0.042945508
206	0x3d749e44	0.059721246
207	0xbdc76f29	-0.09737999
208	0xbd901649	-0.070355006
209	0x3d23f07e	0.040024273
210	0x3c82a816	0.01594929
211	0x3c00cc7c	0.007861253
212	0xbd046ee6	-0.032332323
213	0xbdc648e5	-0.09681872
214	0xbd3eefbc	-0.046615347
215	0xbd42ef9b	-0.047591787
216	0x3c26771e	0.010160236
217	0xbd4c66bd	-0.049902666
218	0x3c24f74e	0.010068728
219	0x3d94e625	0.07270459
220	0xbca6a13d	-0.020340556
221	0x3bc8437c	0.0061115604
222	0xbcbb8934	-0.022892572
223	0xbc79c930	-0.015245721
224	0xbd51c09f	-0.05120909
225	0xbb531712	-0.0032209796
226	0x3d147cd5	0.03625186
227	0x3dbd0be8	0.092307866
228	0x3d4a6b10	0.04941851
229	0x3d7b3f47	0.061339643
230	0x3d29709f	0.04136717
231	0x3ca6f842	0.02038205
232	0xbd500d66	-0.050794028
233	0xbba6f1a5	-0.0050947242
234	0x3d1756f5	0.036948163
235	0xbda2e1fb	-0.079532586
236	0xbd338690	-0.0438295
237	0x3d2ccd65	0.042188067
238	0xbd3a2b43	-0.045451414
239	0x3d8ea95f	0.06965899
240	0xbd8e5561	-0.069498785
241	0x3d8d3800	0.06895447
242	0xbd63ef68	-0.055648237
243	0x3d149051	0.036270443
244	0xbd918911	-0.071062215
245	0xbc08eb72	-0.008356916
246	0x3de87805	0.11351017
247	0xbca9013d	-0.020630473
248	0x3d5ee431	0.05441684
249	0x3c03b1c2	0.008037986
250	0x3dd550cc	0.104158014
251	0x3d30f634	0.043203548
252	0x3cbc3a7f	0.022977112
253	0x3d711c6b	0.058864992
254	0x3d002c1e	0.031292073
255	0xbd111bae	-0.035426788

fc_final1.bias f4 [64]
0	0xbcf42f74	-0.029807784
1	0x3d399c9f	0.04531538
2	0xbdc7a021	-0.09747339
3	0x3c930468	0.017946437
4	0xbda1c9d2	-0.07899822
5	0xbb340cd5	-0.0027473469
6	0x3d984088	0.07434183
7	0x3c11a468	0.008889295
8	0xbd445856	-0.047935806
9	0x3dd5d9e5	0.10441951
10	0xbd6b69b7	-0.057473864
11	0xbd20aedf	-0.03922927
12	0xbc8e8a0b	-0.017399808
13	0x3d9b8ba7	0.07594996
14	0x3da73014	0.08163467
15	0xbce4b11e	-0.027916487
16	0xbc6a7f91	-0.014312641
17	0x3da723a4	0.08161095
18	0xbd8e1d46	-0.06939177
19	0xbd3a0752	-0.045417137
20	0x3cfb6102	0.030685905
21	0x3d20189c	0.03908597
22	0xbd8a21e1	-0.06744743
23	0xbd79b54c	-0.060963914
24	0x3da9c6f0	0.082898974
25	0x3c1faa82	0.009745242
26	0xbd6750e9	-0.056473646
27	0x3d3cab28	0.046061665
28	0x3d10e234	0.035371974
29	0xbd936cdc	-0.07198498
30	0x3d4b0f0c	0.049574897
31	0x3cf4313d	0.029808635
32	0xbd7c62c0	-0.061617613
33	0xbd4f1ec1	-0.05056644
34	0x3d9c1996	0.07622068
35	0x3d4c5ce8	0.04989329
36	0xbcebf5cd	-0.02880373
37	0x3cf84907	0.03030826
38	0xbb0972f3	-0.0020973056
39	0xbce1eb6c	-0.027578078
40	0x3d944f89	0.072417326
41	0xbc856288	-0.016282335
42	0x3d02a0cf	0.03189164
43	0x3d34380c	0.043998763
44	0xbd663e61	-0.056211833
45	0x3d66343f	0.05620217
46	0xbdd709b9	-0.10499901
47	0x3c6cfef0	0.014465079
48	0x3d492de8	0.049116045
49	0xbd0b68a5	-0.034035344
50	0xbd8a81f0	-0.06763065
51	0xbc74ebe2	-0.014948817
52	0x3b9ac255	0.004722873
53	0xbcedcac3	-0.029027348
54	0x3d74811c	0.05969344
55	0xbdd2dbc9	-0.10295827
56	0xbda22283	-0.07916739
57	0x3c8d69df	0.017262397
58	0x3d043ec2	0.032286413
59	0xbd54e2e7	-0.051974203
60	0xbd8ee7ac	-0.06977782
61	0x3cb59c2b	0.022169193
62	0xbb08ca12	-0.0020872396
63	0x3d8275fc	0.0637016

fc_final2.weight f4 [1, 64]
0	0x3bb7f439	0.0056138304
1	0xb99d79a6	-0.0003003601
2	0xbd482e41	-0.048872236
3	0xbd44995b	-0.047997814
4	0xbd93549f	-0.071938746
5	0xbb1ade8c	-0.0023631183
6	0x3c9c5bd1	0.01908675
7	0xbcbd2997	-0.02309112
8	0xbd7de828	-0.06198898
9	0x3e033c32	0.12815931
10	0x3ae44dbe	0.0017418189
11	0x3ae11764	0.0017173109
12	0x3b1c1fa7	0.0023822577
13	0x3dcd2c2e	0.10018192
14	0x3d6ac010	0.05731207
15	0xb7ddd346	-2.6443635e-05
16	0x3cd6205d	0.026138479
17	0x3de17174	0.110079676
18	0xbdb49361	-0.08817173
19	0x3a4b96b4	0.0007766292
20	0x3d21be9f	0.03948843
21	0x3d884ddc	0.066554755
22	0xbd27ad9f	-0.040937062
23	0xbc09e0c1	-0.008415402
24	0x3d3cb8fd	0.046074856
25	0x3dcd4109	0.1002217
26	0x3cdfd167	0.02732153
27	0x3daf93d8	0.08573121
28	0x3d25b5ec	0.040456697
29	0xbd2f932e	-0.04286497
30	0x3a1a4ead	0.00058863574
31	0xbb901eeb	-0.004398217
32	0x3caf2531	0.021380039
33	0x3c819eeb	0.015822848
34	0x3d93aa5d	0.072102286
35	0x3dd2d7ee	0.102950916
36	0x3d9a6e2e	0.07540546
37	0x3de22638	0.11042446
38	0x3d2dbabe	0.04241442
39	0xba1a12c9	-0.0005877433
40	0xba0a6050	-0.0005278634
41	0xbd9de3de	-0.07709478
42	0x3ceff52a	0.029291708
43	0x3dad57e2	0.08464028
44	0xba052a7e	-0.0005079879
45	0x3d814b20	0.06313157
46	0xbe035736	-0.12826237
47	0xbd6526a7	-0.055945065
48	0x3dda5596	0.106608555
49	0xbd9b033d	-0.07568977
50	0xbdcdb121	-0.1004355
51	0xbc87c9f0	-0.016575783
52	0x3ce5674f	0.028003363
53	0xb976b30a	-0.00023527085
54	0xbd384c4c	-0.044994637
55	0xbd9cfd75	-0.076655306
56	0xbcdc5bf8	-0.026899323
57	0xbc4f86c3	-0.012666407
58	0x3c7f2b14	0.0155742355
59	0x3da30025	0.07959012
60	0xbd2e6a80	-0.042582035
61	0xb956fdfc	-0.00020503247
62	0x3d01056a	0.031499304
63	0x3d551d43	0.05202986
