weights_new/DecoderEpochnew500_17_8.pt (torch_old, 461851 bytes, 33 tensors)

attn_layer.0.weight f4 [64, 192]
000000 17 8e 0d bd f8 2d 9e 3d ea 2a 4f 3e 9b 67 a9 be
       -0.034559336 0.077236116 0.20231214 -0.33086857
000010 ad 8b f8 bd 77 6a 4c 3e c0 76 c5 bb 8b 0b 5b be
       -0.12136016 0.19962488 -0.006026119 -0.21391122
000020 4a 39 a8 3b 67 ea 94 bd cc bb da 3d d7 45 c5 3d
       0.0051337825 -0.07271271 0.10680351 0.096324615
000030 52 77 27 3e d7 c5 83 3e f5 e2 d9 39 45 0e 77 bb
       0.16354111 0.25736877 0.00041558561 -0.0037697714
000040 45 12 84 bd 46 0e 1a 3e cf 61 53 bd 66 5c 7c bd
       -0.06448797 0.15044507 -0.05160695 -0.061611556
000050 56 95 37 3e c7 87 44 bc 15 68 20 3e 8d 36 4d 3d
       0.17928061 -0.0119952625 0.15664704 0.05010085
000060 cb 62 13 3e c1 b3 b4 3d 63 c1 b2 bd fb 02 bc bd
       0.14393155 0.08823348 -0.08728292 -0.09180256
000070 e3 6c 84 3d 89 9d 95 3e d0 0f 89 3e 38 b7 78 3e
       0.06466081 0.29221752 0.26769876 0.24288642
000080 24 38 1f 3e db c2 6f 3e 8d 07 0d be 48 53 56 be
       0.1554876 0.23414175 -0.13772412 -0.20930207
000090 71 51 08 3c de 68 a8 3d 56 57 20 bd 65 fb 17 bd
       0.008320198 0.08223127 -0.03914579 -0.037104983
0000a0 68 59 29 3d 50 37 1c be 42 e0 6f be c5 72 4c be
       0.04134503 -0.15255475 -0.23425391 -0.19965656
0000b0 0e e1 46 be d2 02 6d 3e 41 b2 b7 3c bc 8c 14 3e
       -0.19421789 0.23145607 0.022423865 0.14506811
0000c0 0f d2 89 3e b1 08 0c 3d 23 76 82 3e 44 5c ac be
       0.26918074 0.034187976 0.25480756 -0.33664143
0000d0 ae 0f 64 3e df 8e 0a 3e 62 7e 2d 3e 64 2d 99 bd
       0.22271606 0.13531063 0.16942742 -0.07479361
0000e0 f4 9b 0a be de 06 76 3d e3 9e 1e 3e fb 60 3a 3e
       -0.13536054 0.060065143 0.15490298 0.18201058
0000f0 57 79 dd bc 11 dc 33 be dd 14 9f 3c 07 96 46 be
       -0.027035398 -0.17564417 0.019419128 -0.19393168
000100 80 3f 9f bd b3 ac c7 3d 7e 12 59 3e ac 8e a8 be
       -0.077757835 0.09749737 0.2119846 -0.3292135
000110 10 e7 fa bd 47 94 13 3e c0 75 52 3d 3b b7 ae be
       -0.12251103 0.14412032 0.051381826 -0.3412417
000120 64 f4 f7 bc a7 1d 88 bd 72 34 86 3d 9c e8 cc 3d
       -0.030267902 -0.06646281 0.06552972 0.10005304
000130 22 79 42 3e ae f7 92 3e e8 0b 33 3d 14 a9 66 bd
       0.18991521 0.2870459 0.043712527 -0.05631359
000140 7d cb ba bd 60 85 d5 3d 14 61 59 3d a7 9a f2 bd
       -0.091208436 0.1042583 0.053071097 -0.11845904
000150 87 e2 a3 3e b5 61 8d 3d 9e ab 3a 3e e6 f4 3c 3d
       0.32008764 0.06903402 0.1822953 0.04613199
000160 ce 64 58 3e 9c fa ae 3d a0 aa 0f be 3a 5e 1e be
       0.21132204 0.08543894 -0.14029932 -0.15465632
000170 6a 67 9f 3d 36 6c 96 3e a7 0f 7a 3e db 64 a2 3e
       0.077833965 0.29379433 0.24420033 0.31717572
000180 52 df 5a 3e bc 00 73 3e e8 e8 4b be eb 13 b9 bd
       0.21374252 0.23730749 -0.19913065 -0.09037002
000190 bc c1 34 3d 89 59 6b bd 93 01 b3 3c 5b 51 39 3c
       0.044130072 -0.057458434 0.021851337 0.011310901
0001a0 f6 01 6d bc 8c 2f 37 be 05 45 6e be 23 fd 61 be
       -0.0144658 -0.17889231 -0.23268516 -0.2206922
0001b0 7d b9 64 be 1f 05 96 3e 3c e8 8f 3c ca 89 90 3e
       -0.22336383 0.29300782 0.017566793 0.28230125
0001c0 9b a2 b3 3e b6 fd fc 3c f5 b9 b3 3e 3b 4e f9 be
       0.35084996 0.030882698 0.3510281 -0.48692498
0001d0 eb 30 9e 3e 09 d2 2f 3e c3 46 e9 3d de 45 60 bd
       0.30896696 0.17169966 0.1139045 -0.05475413
0001e0 6e 67 28 be 5f 48 0e 3e 1a 12 85 3e 70 ba 95 3e
       -0.16445705 0.13894795 0.25990373 0.29243803
0001f0 e4 f6 59 3d 77 5b 18 be 6a 05 7a bd 96 49 2f be
       0.05321397 -0.14878641 -0.06104032 -0.17117915
000200 83 d0 a0 bd b1 0a b4 3e 7e d1 fe 3d 05 97 0d bd
       -0.078522705 0.35164407 0.12442301 -0.03456785
000210 f3 61 be bd 9a ad 4b 3e e9 ab ec be 96 d3 bd 3e
       -0.09296026 0.19890442 -0.46224907 0.3707549
000220 b1 3c c2 3e 58 51 d0 3d bb 6b a0 3e cc c2 70 3d
       0.3793693 0.10171765 0.31332192 0.058779523
000230 ef 2b 19 3e 2d f5 d9 be 26 a4 d7 3e fd 71 0e be
       0.14958166 -0.42569867 0.42117423 -0.1391067
000240 5a 7f 45 bd 5a fb c5 be 20 fb 7d 3f fa a8 43 3d
       -0.048217155 -0.3866833 0.9921131 0.04776857
000250 0a ea 2c be 28 92 3f 3e 75 3d d4 be 3a 72 95 bb
       -0.16886154 0.18708098 -0.41453138 -0.004560736
000260 7d f1 54 be c0 d9 36 be 8e 0f d4 bd c5 3e b6 bd
       -0.20795245 -0.17856503 -0.10354529 -0.08898691
000270 74 bb b9 be af 20 58 3d ac c5 20 bd ec 7d eb 3c
       -0.36275828 0.052765545 -0.039251015 0.028746568
000280 42 66 93 3e 06 f5 42 3d d2 f2 eb 3d 6e 53 98 be
       0.28788954 0.047596954 0.11520924 -0.29751152
000290 99 e9 da bd fd 61 78 3e bc 1a 27 3e 36 24 8a be
       -0.106890865 0.2425613 0.16318792 -0.26980752
0002a0 11 78 7f 3e 19 da a3 3d fc 8f 45 be f8 f5 da bd
       0.24948145 0.08000583 -0.19293207 -0.10691446
0002b0 58 49 fc 3d bc 28 14 bf d5 b9 42 be 01 6e 4d be
       0.12318677 -0.57874656 -0.19016202 -0.20061494
0002c0 bb 31 28 3e 04 47 00 be c4 f9 89 be 53 f2 69 be
       0.1642522 -0.1252709 -0.2694837 -0.22846346
0002d0 6b b7 64 be 2b 6a fa bd 72 81 6f be 79 67 ee bd
       -0.22335593 -0.12227281 -0.23389223 -0.116408296
0002e0 6b 16 35 3e a7 1e fc be 78 f3 95 be e1 f3 cb be
       0.17684333 -0.49242136 -0.29287314 -0.39834502
0002f0 af ab 8e 3e c5 0f 31 3f eb 16 a4 be 6b 3c de be
       0.2786536 0.6916469 -0.32048735 -0.4340547
000300 22 60 82 bc 74 b4 22 be d7 02 65 be 55 bf 84 3e
       -0.01591498 -0.1588915 -0.22364365 0.25927225
000310 aa f1 7b 3e 26 48 fe bd 93 44 60 bd aa 13 ad 3e
       0.24603906 -0.12416105 -0.054752897 0.33804065
000320 02 46 c1 3d 9a 3d cb 3d 3d 38 18 be 3d 24 15 3d
       0.09437181 0.09923859 -0.14865203 0.036411513
000330 8a b5 2a be e0 bb 8a be c2 8a 3a 3c d9 73 0b 3d
       -0.16670814 -0.27096462 0.0113856215 0.034046028
000340 20 c0 7d 3d b8 20 81 bd 20 3b 10 bd ce 9b 01 3e
       0.061950803 -0.06305069 -0.035212636 0.12657091
000350 75 a7 94 be 35 08 98 bc 36 45 57 be e7 52 03 be
       -0.2903401 -0.0185586 -0.21022496 -0.12824593
000360 64 e5 5a be cb e1 3b be c5 79 9a 3d 73 b5 5d 3e
       -0.21376568 -0.18347852 0.07542757 0.21651249
000370 43 b5 1c bb e0 dd 8a be ba 7e 31 be d6 1c 87 be
       -0.0023911751 -0.27122402 -0.17333499 -0.26389188
000380 26 e1 5b be 84 49 a0 be a7 99 63 3e 66 1b c6 3d
       -0.21472606 -0.31306088 0.22226582 0.096731946
000390 37 5a 88 bd 33 58 c5 3c bb 81 35 3d e2 8c 9b bd
       -0.06657832 0.024089908 0.044313174 -0.07595231
0003a0 75 34 f0 3c 74 a2 14 3e 8b b6 30 3e 1c 19 20 3e
       0.029321888 0.14515096 0.17257135 0.15634578
0003b0 34 3d 8e 3e 1d 9c 50 be b5 41 f9 3c 00 ee 6f be
       0.2778107 -0.20372052 0.03042684 -0.23430634
0003c0 cb 3f 74 be b1 0f e4 bc 79 14 a6 be 8d ba ac 3e
       -0.2385246 -0.027839513 -0.32437494 0.33736077
0003d0 83 27 b2 be 04 1d 01 be 33 c6 c2 bd 55 e4 4d 3d
       -0.3479577 -0.12608725 -0.0951046 0.050266583
0003e0 38 79 a3 3d 05 32 c0 bd 62 7e 68 be f1 2a 70 be
       0.07982105 -0.093845405 -0.22704461 -0.23453881
0003f0 3a 30 52 bd 6a f3 18 3e a7 df db 3c 80 1c 40 3e
       -0.051315524 0.14936605 0.026840044 0.18760872

attn_layer.0.bias f4 [64]
000000 26 b8 12 be 00 fa 3c 3e 97 aa 20 be 95 55 01 3e
       -0.1432806 0.18454742 -0.15690075 0.12630303
000010 0e 83 18 3e c1 f9 1f be 17 d1 12 3e df 3d 2e 3e
       0.14893743 -0.15622617 0.14337574 0.1701579
000020 21 87 00 be 08 34 50 be ac 0b 6e be 1d 36 08 be
       -0.12551548 -0.20332348 -0.2324664 -0.13301893
000030 ff bc fc bd 6c 33 3b 3e 10 cc 35 3e e8 3d ff bd
       -0.12340736 0.18281335 0.17753625 -0.124629796
000040 35 f4 46 3e e1 42 3d 3e e6 c2 43 be 0e 58 02 3e
       0.19429095 0.18482544 -0.19117317 0.12728903
000050 78 30 17 3e 5c a5 3a 3e 07 61 52 3e de f7 b8 bd
       0.14764583 0.18227142 0.20544825 -0.09031652
000060 3d e2 2a be de b6 1a 3e da ac 42 be 84 21 4d 3e
       -0.16687866 0.15108821 -0.1901125 0.20032316
000070 81 33 04 3e ed d3 50 3e 87 ca 09 3e cc 3f 42 3e
       0.12910272 0.20393343 0.13456164 0.18969649
000080 8a f2 11 3e da 3e 63 3e b6 ce 28 3e fe 75 5b 3e
       0.14252678 0.22191945 0.16485104 0.21431729
000090 ec b9 21 3e a8 2e 35 3e 28 45 27 be 5e cb 48 3e
       0.1579358 0.17693579 -0.16334975 0.19608828
0000a0 e8 9f 21 be 16 a3 3c 3e 32 d6 21 3e 1d f6 3e 3e
       -0.15783656 0.18421587 0.15804365 0.18648572
0000b0 4d 4e 24 be 49 ab 24 be 20 d7 36 3e f9 fd 39 3e
       -0.16045494 -0.16080965 0.17855501 0.18163289
0000c0 ba 5a 2c be 0f f6 42 be c2 47 35 be f0 b2 0e be
       -0.16831484 -0.19039176 -0.17703155 -0.13935447
0000d0 3b e6 14 be 25 32 23 be 33 1d 06 3e d5 61 13 3e
       -0.14540951 -0.15937097 0.13097076 0.14392789
0000e0 3a 9f 39 be 88 0f 09 be f5 66 1a be d7 15 1a 3e
       -0.18127146 -0.13384831 -0.15078337 0.15047394
0000f0 c9 f4 23 be 9b dc 5c be 88 f1 41 be 35 25 35 3e
       -0.16011347 -0.2156853 -0.18939793 0.17689975

attn_layer.2.weight f4 [1, 64]
000000 ac bb 0c 3f c1 7d 18 bf bf 35 09 3f ed e6 1c bf
       0.54973865 -0.59566885 0.53597635 -0.61289865
000010 39 80 14 bf 79 b1 0a 3f f3 88 11 bf 2f b2 0e bf
       -0.5800815 0.5417705 -0.5684959 -0.55740637
000020 af 36 02 3f ff 91 0c 3f fc d2 0d 3f 3f 70 19 3f
       0.5086469 0.5491027 0.5540006 0.599369
000030 4f 96 15 3f 58 2d 10 bf 4c 29 06 bf e2 d4 15 3f
       0.5843248 -0.5631919 -0.52406764 0.5852796
000040 b7 c9 12 bf 1b 5b 1c bf 96 a5 05 3f 55 73 0f bf
       -0.5733904 -0.61076516 0.5220579 -0.5603536
000050 be ac 09 bf f5 cf 0d bf 6b 16 1e bf fa 65 03 3f
       -0.5377921 -0.5539544 -0.6175296 0.5132748
000060 2c ab 00 3f dc cf 07 bf fa 3f 05 3f db 91 04 bf
       0.5026119 -0.53051543 0.52050745 -0.5178506
000070 1f 30 1e bf bd e1 0f bf 9f b9 06 bf cd fb 08 bf
       -0.61792177 -0.56203824 -0.52626985 -0.5350922
000080 47 cb 0e bf 62 e9 f9 be bb f1 00 bf bf 48 0e bf
       -0.55778927 -0.4881087 -0.5036885 -0.5557975
000090 c5 40 0c bf 57 ea 06 bf 1c 7b 11 3f 75 88 fc be
       -0.5478633 -0.52701324 0.56828475 -0.49322858
0000a0 25 58 09 3f 94 ba 18 bf a4 ec 16 bf ef 1d 08 bf
       0.5365012 -0.59659696 -0.58954835 -0.53170675
0000b0 e4 cd 0f 3f 5e 54 05 3f dc b4 0c bf b2 44 15 bf
       0.5617354 0.5208186 -0.5496347 -0.58307946
0000c0 3b 7e 06 3f 2e ca 17 3f ce 87 11 3f 59 0c 1a 3f
       0.5253636 0.59292877 0.56847847 0.6017509
0000d0 03 db 05 3f 6f b2 12 3f 0a 56 1a bf 83 36 1a bf
       0.5228731 0.5730352 -0.60287535 -0.6023943
0000e0 27 c3 0c 3f 63 e3 1a 3f 99 80 14 3f 95 51 1f bf
       0.5498528 0.60503215 0.58008724 -0.6223386
0000f0 db 67 18 3f 9d b2 13 3f 97 0f 0a 3f 6f 75 10 bf
       0.5953347 0.5769442 0.5393004 -0.5642919

lstm_layer.weight_ih_l0 f4 [256, 1]
000000 11 0f 06 3f dd 00 17 3c 97 9c 1c 3f ff 58 1a 3e
       0.5236674 0.009216514 0.6117644 0.15073012
000010 b8 4e f5 bd 81 47 41 3f e7 e6 09 3e c5 62 f5 bc
       -0.11977905 0.7549973 0.13466989 -0.029954324
000020 3a 60 dd 3d eb 67 8f 3e 62 ab 71 3d ff ef a6 3d
       0.108093694 0.2800897 0.059001334 0.08151244
000030 05 89 3d bd 0e 52 b5 bd db 08 80 3e 2f 4c 43 3e
       -0.04627325 -0.08853541 0.25006756 0.1907203
000040 d2 51 c8 bd 3a 8c 2f 3f 27 2c 57 3e 03 71 e3 3a
       -0.09781231 0.68573344 0.21012937 0.0017352406
000050 0f 70 91 bd ac e6 28 3e e1 27 b4 3e 55 cd 8f 3d
       -0.071014516 0.16494244 0.35186675 0.07021586
000060 4b 63 c3 3d 89 5b 43 3e 2a 58 06 3e 8c 05 0b 3e
       0.09540423 0.19077887 0.1311957 0.13576335
000070 5f 32 fb 3d 8c 85 87 be 7f ae 43 bd d7 38 97 3e
       0.12265467 -0.26469076 -0.047773834 0.29535553
000080 8d c4 21 3f 43 7e b0 3d c5 89 f7 bd 9a 31 36 3d
       0.6319054 0.086178325 -0.12086824 0.044480897
000090 a3 e2 30 3d e9 5b c6 3c 86 13 41 3e 4e 51 fa 3a
       0.043184888 0.024213748 0.18855104 0.0019097717
0000a0 9a 7d 19 3f 12 f5 c1 bd 68 cd 90 3e 01 53 03 3e
       0.5995728 -0.094705716 0.28281713 0.12824632
0000b0 dd bc a2 3c cc c0 de bb fa bd 19 3e 6d 86 a6 3e
       0.019865448 -0.0067978855 0.15013877 0.32524434
0000c0 1e 43 18 bd d4 89 72 3e bb fd 38 be 6c a3 0e 3e
       -0.037173383 0.2368539 -0.1806554 0.13929528
0000d0 51 5b 8b be 4e 40 b6 bd 72 b7 df 3d be 12 16 3d
       -0.27218106 -0.08898984 0.10923661 0.036638968
0000e0 f4 a2 c6 bd f4 91 a3 bc 31 ea 84 bd d8 e1 99 3e
       -0.096990496 -0.019967057 -0.06489981 0.30055118
0000f0 b5 99 88 bb bf 4c be 3e d7 a8 ed 3d 08 97 c2 3e
       -0.004168714 0.37167928 0.11604469 0.38005853
000100 96 5a da 3e a0 3e 39 3e 2b a3 fe 3e f0 f1 45 bb
       0.42647237 0.18090296 0.49733862 -0.003020402
000110 24 dc 02 be e5 60 38 3f f3 0f 00 3e b0 2c 1a bd
       -0.1277929 0.7202285 0.12506084 -0.037640274
000120 eb b1 24 3e 2e 73 b4 3e 9f 04 ec 3b 6f f9 07 3e
       0.16083495 0.35244125 0.0072026993 0.13278745
000130 9d 61 18 bd ae 7e d5 3c b2 9c 9a 3e 47 be 39 3e
       -0.037202466 0.026061382 0.30197674 0.18138991
000140 52 1b d7 3d ba 48 20 3f eb 27 3e 3e 53 0e 95 3d
       0.10503258 0.6261097 0.18569915 0.07278123
000150 bb c2 9b bd 9d ca 11 3e c7 be a8 be 09 70 ab 3d
       -0.07605501 0.14237447 -0.32958052 0.083709784
000160 d1 27 64 3e a1 69 57 3e e6 28 39 3d 84 d6 72 3b
       0.22280814 0.21036388 0.04520502 0.003705413
000170 8d 6d b6 3d 03 83 d8 bd cf 91 5c bd 4e 3c d4 3e
       0.08907614 -0.105718635 -0.05384999 0.4145226
000180 f7 a8 03 3f d2 bc d8 bd 8c 8b 8c bd 77 49 11 3e
       0.51429695 -0.105828896 -0.06862554 0.14188181
000190 6a f9 4a 3e b6 1b 99 3d 10 c4 b5 3c b8 b7 b6 bc
       0.19821706 0.074759886 0.022188216 -0.0223044
0001a0 7a ab f6 3e 64 3a c7 3d 76 ac 07 3e 9d e9 e8 3d
       0.481777 0.09727934 0.13249382 0.11372683
0001b0 b6 4d 82 3d 2e c3 9b bc 2c 3b a6 3d c5 1e 63 3e
       0.063624784 -0.019013967 0.08116755 0.22179706
0001c0 38 c1 42 bd 17 f7 54 3d 9f 4c b8 bd 4c 18 10 3e
       -0.04754755 0.051993456 -0.08998989 0.14071769
0001d0 0e 7f 97 be 79 18 5a bd cc cd 51 3c 0d 19 a7 3c
       -0.29589123 -0.053245995 0.012805413 0.020397687
0001e0 0b 6a 56 bd a6 c6 76 3e 3f d0 9b bb 16 a7 5c 3e
       -0.052347224 0.24099216 -0.0047550495 0.21548113
0001f0 16 53 18 3e 71 10 96 3e 95 7c b6 3d 82 58 a7 3e
       0.14875445 0.2930942 0.08910481 0.32684714
000200 dc 1a 93 3e a2 ed d0 bd 60 64 9f 3e 64 52 01 3e
       0.2873143 -0.10201575 0.31131268 0.12629086
000210 3e d6 fc bd 7d 8e c5 3e 40 5d ca bd e8 d2 2d bd
       -0.12345551 0.38585272 -0.09881067 -0.042437464
000220 e2 45 42 bc 08 5f 82 3e 8b b7 b2 3d c8 53 21 be
       -0.011857482 0.25463128 0.08726414 -0.15754616
000230 8c a2 6f bd ca 88 46 be 87 d7 64 be d6 0e 43 be
       -0.058504626 -0.19388118 -0.22347842 -0.19048628
000240 35 41 8b 3d 99 a3 d2 3e b8 d0 4f 3e f7 57 00 be
       0.06799547 0.4114044 0.20294464 -0.12533556
000250 b1 70 43 3d 16 d4 c4 3c ab da c3 3c 54 35 07 3d
       0.047714893 0.024026912 0.02390798 0.033009842
000260 f7 78 a7 3d d0 c7 38 3e 2a 9f b3 bd 5a 7f 19 be
       0.08177369 0.18044972 -0.087705925 -0.14989987
000270 0f 4a 14 be 08 0e ed bd 36 88 16 bd 75 d7 08 3e
       -0.14481376 -0.11574942 -0.036750995 0.1336344
000280 0b 48 b2 3e 1f f5 a5 bd a0 4c 20 3b fd 1e 59 3e
       0.3482059 -0.08103394 0.0024459735 0.21203227
000290 5c f6 22 3e 2a 00 66 bd 97 2e 25 3d b5 0e 31 3d
       0.15914291 -0.0561525 0.040327635 0.043226916
0002a0 da 41 b3 be f6 18 88 3d 8e d4 50 3e 6a 33 9d 3d
       -0.35011178 0.06645386 0.20393583 0.07675822
0002b0 81 30 dc 3d e3 f6 2f 3d 17 f6 2d 3e 26 c3 84 3e
       0.10751439 0.04296006 0.16988407 0.25930136
0002c0 6f 07 1e bd e0 c1 7b bd bd 13 2c 3d 7d 81 1a 3e
       -0.038581308 -0.06146419 0.04201101 0.15088458
0002d0 47 4a ab bd d7 af 4f 3d 65 47 86 bc 24 f0 0c 3e
       -0.08363777 0.050704803 -0.016391465 0.13763481
0002e0 69 77 a8 3d c9 e7 05 be d9 fe c0 3d 2b 7f 8a be
       0.08225901 -0.130767 0.09423608 -0.27050146
0002f0 a3 bc c5 3c b8 82 5e be e0 3a 33 be 48 f8 1b be
       0.0241378 -0.21729553 -0.17502928 -0.1523143
000300 eb e2 12 3f 8d 99 eb 3b d5 b2 42 3f 5e a4 1f 3c
       0.573775 0.0071899355 0.76054126 0.009743778
000310 2b e0 12 be a0 92 66 3f e7 7b 21 3e 99 7c 84 be
       -0.14343326 0.9006748 0.15769921 -0.2587631
000320 cb 6d 6a bc f5 fd 79 3e 5b d6 06 bd 0e aa b1 3d
       -0.014308403 0.24413283 -0.03291927 0.086750135
000330 9f ae b5 3c 36 98 bf 3c 3b d3 49 3e 2e 5a a5 3e
       0.022177992 0.02338801 0.19709484 0.32295364
000340 57 cc 10 3e 63 d0 4a 3f 64 1e 1b 3e d9 d0 e3 3c
       0.1414045 0.7922422 0.15148312 0.027809547
000350 00 5e 45 be 2f 72 26 bd 78 f7 c2 3e f7 b4 a3 3d
       -0.1927414 -0.040636238 0.3807943 0.07993501
000360 ec f2 ea 3d 4d b5 bb 3e c6 5d 33 bd 20 b4 71 3e
       0.11472115 0.3666176 -0.0437906 0.23603868
000370 2b a9 a2 3d 1d 99 de be 20 e6 19 3d 32 87 e0 3e
       0.079424225 -0.4347619 0.03757298 0.43853146
000380 87 31 2c 3f 1b 65 58 bd 4f a2 9d be ac 50 0d 3e
       0.6726307 -0.052830797 -0.30787894 0.13800305
000390 09 0d 3f 3e 23 9c 87 3e 5e 4f 57 bd 7b 74 27 3c
       0.18657316 0.2648631 -0.052565925 0.010220642
0003a0 ad de 1f 3f cf 1d c4 bc cb 4b 89 3e 10 8b 9a 3e
       0.6244915 -0.023939995 0.26815638 0.3018422
0003b0 bf d7 b1 3d 1f 1f 7b 3e 1e 69 34 3e 70 33 0d 3f
       0.086837284 0.2452359 0.17618224 0.5515661
0003c0 73 e8 2f be 79 58 9e 3e 69 37 8b be d0 6d 31 3e
       -0.17178516 0.30926874 -0.27190712 0.17327046
0003d0 9c dc f7 be 9a fe 6f bd ce 79 d3 3d fe 48 45 3d
       -0.484105 -0.058592416 0.10325967 0.048165314
0003e0 dc d1 0d bd d9 44 43 3d cf 18 c4 3d 7d 49 b6 3e
       -0.034623966 0.04767308 0.09575044 0.35602942
0003f0 a7 7d cf 3a 0a 62 a4 3e 2d e8 94 3e 2c 9d f5 3e
       0.0015830294 0.32106048 0.29083386 0.47971475

lstm_layer.weight_hh_l0 f4 [256, 64]
000000 69 c2 7a 3e 4e 68 7d be 45 3a 29 3f 08 70 4e be
       0.24488224 -0.2474682 0.6610454 -0.20159924
000010 fc 76 93 be d7 b8 48 3f 68 9b 84 be ea 93 1d bf
       -0.28801715 0.78407043 -0.25899816 -0.61553824
000020 02 84 2a bd 7a d4 8d 3d b9 ed cd 3e 46 ce 27 3c
       -0.0416298 0.06925292 0.4022043 0.0102420505
000030 c7 1e cf 3d 48 1f 49 3e 4a 0b 23 be b4 6e 9d bd
       0.10113292 0.19640839 -0.15922275 -0.076871306
000040 a3 99 b4 bd 61 02 38 3f 59 c2 c5 3d d0 24 09 bd
       -0.088183664 0.7187863 0.096562095 -0.033482373
000050 8b 0f 1f 3f 42 eb 69 3e 26 00 ab 3d 96 03 92 3e
       0.6213309 0.2284365 0.08349638 0.2851836
000060 02 9e 26 3f c8 67 ef 3d 6e 8f 59 be 7a 8f 92 be
       0.6508485 0.116897166 -0.2124612 -0.2862509
000070 7b 12 50 be ef 36 ef 3e c8 85 94 3e e9 c7 2a 3f
       -0.2031955 0.46721599 0.29008317 0.6671129
000080 87 cd 00 3f b0 be 33 3e 8d 3e 0f bf 05 fb bd 3c
       0.5031361 0.1755321 -0.5595482 0.023190985
000090 ea cf 22 3d a6 5a e5 3d 9b 60 24 be 57 f8 15 bd
       0.039749064 0.111989304 -0.16052477 -0.03661379
0000a0 38 c2 de be c9 62 12 3d 15 fd 75 3e 1c a6 96 be
       -0.43507552 0.03573874 0.24022324 -0.29423606
0000b0 e8 66 18 be 15 1a ca 3e e1 fb ee 3d a8 cf 07 3f
       -0.14883006 0.39473024 0.11669136 0.53051233
0000c0 58 99 e3 3e 07 66 56 3e 45 96 be 3e 02 5b 1d be
       0.4445293 0.20937358 0.37224022 -0.15366748
0000d0 ef 02 c2 3e 31 d8 1d 3e 1b cc 96 3d e9 3b a5 bc
       0.37892863 0.15414502 0.07363149 -0.020170169
0000e0 64 03 d8 bc ad 10 46 3d fc bf 7d 3e 4f 8b 43 bd
       -0.026368804 0.048355747 0.24780267 -0.047740277
0000f0 09 d4 6c 3e 87 ee ee be 5d 96 02 be ff 17 f1 be
       0.2312776 -0.46666357 -0.12752672 -0.4708862
000100 10 bf 93 bd 10 5a dc bd c7 c5 2f 3e df b7 a5 bd
       -0.07214177 -0.107593656 0.1716529 -0.08091711
000110 8c 38 17 be bd a9 23 3e 28 68 a8 bd 62 27 b7 be
       -0.14767665 0.15982719 -0.08222991 -0.35772234
000120 64 0b 54 3d 92 c5 00 be ee a0 bf 3d 44 cb a1 3d
       0.051768675 -0.12575367 0.09356867 0.07900098
000130 0e 1f df 3d 47 39 e4 3d 52 4c a4 3d 7e c7 a8 bd
       0.10894595 0.11143737 0.080223694 -0.08241175
000140 5e 0d ad 3c b4 80 13 3e f5 a8 e6 bd 7a 39 5f 3d
       0.021124538 0.14404565 -0.11262695 0.054498173
000150 93 72 d1 3e 29 34 ad 3d 33 b3 35 3e c4 30 d1 3d
       0.40907726 0.084572144 0.1774414 0.102143794
000160 e3 fd a6 3e 74 eb 1b 3d ff 40 44 3d 6d 2f 1f be
       0.32615575 0.038066342 0.047913548 -0.15545435
000170 1c 3e 9d bc f6 24 a8 3e a3 aa 8d 3e 5a 05 a6 3e
       -0.019194655 0.328407 0.27669248 0.32425958
000180 b1 f9 86 3e 69 bd 60 3d 9b 83 50 be f4 c1 84 bc
       0.26362374 0.054868136 -0.20362704 -0.016205765
000190 51 38 e0 3c 22 e0 94 3d 5e 1b d4 bd e6 04 e5 3d
       0.027370604 0.072693124 -0.103567824 0.11182575
0001a0 ed 8f 7b 3c 1b 29 f0 bd 39 fb 93 bd 82 f9 6f be
       0.015354139 -0.1172659 -0.07225651 -0.23435023
0001b0 04 dc 46 be 03 8e 12 3e 79 8a d3 3c 08 1f 4f 3e
       -0.19419867 0.14311986 0.025822865 0.20226681
0001c0 5a cd 80 3e bb 21 bf 3b f0 29 ab 3e 3f 9f b4 bd
       0.2515667 0.0058328784 0.33430433 -0.08819436
0001d0 66 b3 e0 3e 9a 80 bc 3c 34 7e 91 3d 1a 7d 95 bd
       0.4388687 0.02301054 0.071041495 -0.07299252
0001e0 eb f6 51 be ee 18 31 3e 9f f8 5c 3e 8b 57 bf 3d
       -0.20504348 0.17294666 0.21579216 0.09342869
0001f0 c4 c3 9a bd 82 cc 14 be 63 69 14 be 63 08 40 be
       -0.075568706 -0.14531139 -0.14493327 -0.187532
000200 22 7c e3 3e b4 35 bf bd 29 b1 c7 3e ec 82 ef 3b
       0.44430643 -0.09336415 0.3900235 0.0073093083
000210 8d 7a 77 be d4 f9 cc 3e 61 2b 18 be 1a 43 9e be
       -0.24167843 0.40034354 -0.14860298 -0.3091057
000220 29 2e 40 bc 56 7d 09 3e a1 a5 2b 3e 93 b2 f9 3c
       -0.011729755 0.13426718 0.16762401 0.030480659
000230 f1 7a 26 3d 02 f0 3a 3d 9c f9 6e bd 01 8a dc bc
       0.04064459 0.045639046 -0.058343515 -0.026921274
000240 72 22 77 bd 19 c7 c1 3e 00 a4 79 3d 48 4a af bd
       -0.060335584 0.37847212 0.06094742 -0.0855909
000250 a1 f4 d9 3e 2f 98 80 3d ec 86 9d 3e 11 64 1f 3e
       0.4256945 0.06279027 0.30767 0.15565516
000260 b2 77 a6 3e 02 39 b7 3e d3 32 8d be ae 42 38 be
       0.32513195 0.3578568 -0.27577838 -0.17994186
000270 d8 39 aa 3c 61 08 02 3d 49 92 69 3d 77 e0 c9 3e
       0.020779535 0.031746272 0.057024274 0.39429066
000280 32 84 cb 3e 17 3c d0 bc b7 d7 81 be f2 16 28 3e
       0.39749295 -0.025419278 -0.2535989 0.16415003
000290 82 bf 58 3c 79 2d 1c bd c7 17 30 bc 36 8f a6 3d
       0.013229253 -0.038129304 -0.010747856 0.08132784
0002a0 53 89 88 be 76 7f 82 bd f1 fb 86 3e a3 8f 8a bd
       -0.2666727 -0.063719675 0.2636409 -0.06765678
0002b0 44 fe 3a bd c5 7f cb 3e 8f 0b 3d 3e 72 b8 24 3e
       -0.045652643 0.39745918 0.1846144 0.16085985
0002c0 c8 69 61 3e 6c e1 e4 bb 8f bb ba 3e 03 eb 38 3e
       0.22013009 -0.00698488 0.3647122 0.180584
0002d0 46 77 47 3e 10 bd dd 3d 21 5f 4d bd af 17 01 3e
       0.19479093 0.108270764 -0.05013955 0.12606691
0002e0 0a a2 96 bd 6e cf 8e bd 74 0e 5c 3e c8 f6 a0 be
       -0.07355125 -0.06973158 0.21489888 -0.3143828
0002f0 fb 4e b0 3d 68 63 79 be 00 f3 c4 bd 6c 18 71 bd
       0.08608814 -0.24354327 -0.09616661 -0.05886118
000300 6f e1 7a 3d e9 60 96 bb 4f 3d cf bc 76 f7 3e 3d
       0.061250146 -0.0045891893 -0.025297789 0.046622716
000310 d5 36 86 bc 93 16 21 3d c4 78 83 be f3 80 a6 bd
       -0.016383568 0.03932817 -0.25678074 -0.08130064
000320 b9 30 ab 3a ff 94 36 3d 33 64 ee 3d 1b 7f de bd
       0.0013060785 0.044575687 0.11640205 -0.10864087
000330 ba 9e 90 bd b7 9b 0b 3d 73 65 3c be 5f 1c fb bd
       -0.07061525 0.034084048 -0.18398075 -0.12261271
000340 5a 26 69 bb 98 51 6b 3e 02 95 88 bd cc 58 cf 3d
       -0.0035575838 0.22980344 -0.06669046 0.101243585
000350 4e 82 47 3e 0a 93 43 3e 0a 97 d9 bd 57 0d 21 3c
       0.19483301 0.1909906 -0.106245115 0.009829841
000360 e2 c5 fa 3d 9a 54 de bd 7f e0 9b be 50 b5 62 be
       0.122447744 -0.1085598 -0.30444714 -0.22139478
000370 5f 75 72 3d 36 4b 2e 3d 21 0c ad 3c 84 1d f6 3c
       0.059193965 0.042552195 0.021123948 0.030043371
000380 48 c2 a6 3d 30 4a a6 bd fd b3 54 be d1 a3 c9 bd
       0.08142525 -0.08119619 -0.20771785 -0.098456986
000390 fb ab 8a bd f2 36 3e 3d 4a 3f 23 be 8d 80 1f be
       -0.06771084 0.04643912 -0.15942112 -0.15576382
0003a0 7e 53 89 be 63 a0 29 bd 88 5e a6 bd 84 c4 01 be
       -0.26821512 -0.041412722 -0.08123499 -0.12672621
0003b0 93 9c 2f be d9 8a dd 3d f7 48 06 3e ce b8 0f bc
       -0.17149572 0.10817499 0.13113771 -0.008772088
0003c0 23 6e 63 3e 39 a4 7e 3d eb fb 34 3d 60 f0 a8 3d
       0.22209983 0.062168334 0.04418556 0.08248973
0003d0 82 b6 61 3e e1 f7 57 bd 4f e2 9b bc 9b 85 66 bd
       0.22042277 -0.05272663 -0.01902881 -0.05627976
0003e0 de 46 00 be 69 03 23 bd 1a f0 20 3e 43 ae 85 3e
       -0.12527034 -0.039798174 0.15716591 0.26109514
0003f0 6d cb 81 3d 73 35 86 bd 2d fb 1d bd 05 51 7c be
       0.063376285 -0.065531634 -0.038569618 -0.24640281

lstm_layer.bias_ih_l0 f4 [256]
000000 6a c3 ed 3c dc e0 77 bd f0 aa 2a 3d ab 18 92 3d
       0.029023845 -0.060517177 0.041666925 0.07133611
000010 00 88 35 bd 4a f6 5d 3e cb f0 d3 bd e1 3f eb 3d
       -0.044319153 0.21675983 -0.10348662 0.11486793
000020 99 e8 ff bd de d1 5b 3c 9d 54 85 3d fa e5 c3 bb
       -0.12495536 0.013416735 0.06510279 -0.005978343
000030 37 4e 55 3d e2 14 c6 3d 7a 83 0f be c0 41 1d bd
       0.052076545 0.09671952 -0.14014998 -0.038392782
000040 1f 11 f8 3d ed bc 7a 3d 3d cf b5 bc 6f 8b f0 bd
       0.121126406 0.06121533 -0.022193545 -0.11745345
000050 83 62 87 3d b0 13 a0 bd b7 c7 34 3e cf 02 28 bd
       0.066105865 -0.07816255 0.1765431 -0.041018303
000060 82 54 a3 bd 7c 4c 16 bd 38 be 08 be 52 b8 8f 3d
       -0.07975103 -0.036694035 -0.13353813 0.07017578
000070 8a e2 e3 bd 78 9c 64 3d b9 2b a6 3d e4 46 a5 3c
       -0.11127193 0.055813283 0.08113808 0.020175405
000080 3d a0 a5 3c 7c 6e 62 bd f7 31 1a 3d 7c 28 3a 3d
       0.02021801 -0.055281147 0.037645306 0.045448765
000090 68 f5 ab 3c 8c 57 5a 3c 68 e6 92 bd c3 3f 2c bd
       0.020991042 0.013326537 -0.07172853 -0.042052995
0000a0 19 79 43 3d ac 1a e0 bd 3e d9 0a 3e b5 8e a2 3c
       0.04772291 -0.10942587 0.13559434 0.019843439
0000b0 28 62 37 3d 59 ce 95 bd d1 f1 d0 3d 6a d9 b8 bc
       0.044771343 -0.07314748 0.10202373 -0.022564609
0000c0 1d 16 81 bd b9 cf cf bc 15 b9 b9 bd 80 af 6c bb
       -0.06303046 -0.025367605 -0.09068505 -0.0036115348
0000d0 f2 de 5d 3d ca 7e 23 be e0 d3 14 be b1 94 87 bd
       0.054167695 -0.15966335 -0.14533949 -0.066201575
0000e0 19 06 e7 bc 87 56 32 bd 5d 12 ed bc c0 1d 66 3e
       -0.02820115 -0.04353955 -0.02893942 0.22472286
0000f0 f3 72 30 3d 38 c1 7c bc a2 83 24 bd 14 32 83 bd
       0.043078374 -0.015426926 -0.040164597 -0.06406036
000100 5b cb 4f be 14 72 43 3d 23 91 8b bc 2f ce ca 3d
       -0.20292418 0.047716215 -0.01703698 0.09902608
000110 17 30 a3 bc ff 28 56 be 5e 3e 26 3c 46 8a e8 bd
       -0.019920392 -0.20914076 0.010146705 -0.113544986
000120 5f e7 93 bd 4b a3 c6 bd 39 5a 87 bd fa ff 86 3c
       -0.07221865 -0.096991144 -0.066090055 0.016479481
000130 0d fa e7 bd 9c 45 96 bb 60 b4 aa 3c 40 43 8c bd
       -0.1132699 -0.004585935 0.020837963 -0.068487644
000140 54 79 1b be 58 d5 27 be ea 91 29 bb 47 5b e3 bd
       -0.15183002 -0.16389978 -0.0025874325 -0.11101394
000150 25 62 00 be 92 30 fa bd f3 db d6 be 74 7e 28 bd
       -0.12537439 -0.12216295 -0.41964683 -0.04113622
000160 88 0f 03 be bb a2 71 be 40 6a aa bc cb 8e dd 3c
       -0.12798893 -0.23597233 -0.020802617 0.027045628
000170 a1 ff 05 3b bb 9a af bd 5e 33 94 3c 49 1b 55 bd
       0.0020446556 -0.08574434 0.0180909 -0.052027974
000180 7f c6 25 3d 76 09 fa bd 44 af 4f bd 20 0d 04 be
       0.040472504 -0.12208836 -0.050704256 -0.12895632
000190 18 e1 51 bd 60 74 af bc 51 b8 bf bc 3f ff 85 3c
       -0.051240057 -0.021417797 -0.023403319 0.016357062
0001a0 7b a4 32 3b 07 d2 fa bd 00 7c 0f be 54 20 1e 3b
       0.0027258683 -0.12247091 -0.14012146 0.0024128156
0001b0 4c 59 3f 3d b6 83 f8 bc 78 a6 11 be d2 f7 e2 bd
       0.04671602 -0.030336242 -0.14223659 -0.11082424
0001c0 f3 05 d0 bd 0b b8 e9 ba 03 48 4f bd b1 0c 38 3c
       -0.10157385 -0.0017831338 -0.050605785 0.011233495
0001d0 f8 b0 4c be ab d9 2f bd 3e ba c6 bc 28 07 a8 bb
       -0.19989383 -0.042932194 -0.02425873 -0.005127806
0001e0 fb bc 02 be 01 c2 1d 3d 6c b2 8c bc 12 17 18 be
       -0.12767403 0.038515095 -0.017174922 -0.1485255
0001f0 3c 88 98 3d f1 c7 7e 3d e0 40 20 bd 50 e7 9c 3d
       0.0744786 0.062202398 -0.03912437 0.07661307
000200 91 3f 5b bc 4d 5a 58 bd 7c b4 3e bd 25 24 ce bc
       -0.013381855 -0.052820493 -0.046558842 -0.02516372
000210 89 b2 16 3d 95 98 bd bb a9 6a 8f 3b f2 07 92 bd
       0.03679136 -0.0057860115 0.0043767286 -0.07130422
000220 94 ac af 3c c3 5b 80 3d e4 ca 7e 3d 71 83 62 bd
       0.021444596 0.06267502 0.06220521 -0.055301134
000230 4e 57 a5 bd 6b 88 0f be 29 96 93 bc 0f 35 c0 bd
       -0.08073293 -0.14016883 -0.018015938 -0.0938512
000240 74 dd b0 bc 3b 7a df 3d b2 57 60 3d de c8 8c 3d
       -0.021589972 0.109119855 0.054771133 0.0687425
000250 21 1d 85 3b ce b4 c5 3d ab a0 ec bc 84 8c c1 bb
       0.0040623103 0.096536264 -0.028885206 -0.0059066433
000260 ff e6 02 3d 27 c9 9b 3d cf 79 99 3d d0 f9 5d 3d
       0.031958576 0.07606726 0.07493936 0.054193318
000270 9b 6f 9d bd b3 b0 47 bd a6 9c 7e 3d 5e c6 4c 3d
       -0.07687303 -0.048752498 0.06216111 0.049993865
000280 e4 b2 ca 3c 2e 34 85 bd b4 bc 75 3d e4 74 89 3c
       0.024743505 -0.06504093 0.059994414 0.01677937
000290 02 63 9b bb d1 e7 e4 bb 59 cf 93 3d df 33 cb bc
       -0.0047420273 -0.0069856425 0.07217283 -0.024805008
0002a0 9b 2e b2 bc 27 ce 64 3d 26 4a e3 bd a4 17 37 3c
       -0.021750739 0.055860665 -0.11098127 0.01117507
0002b0 d7 43 85 bd 1f 47 ae bd 1e 98 c0 bd 79 15 85 3d
       -0.0650708 -0.08509659 -0.09404014 0.06498236
0002c0 6d 05 d2 bd e5 0f bd bc 74 26 b7 bd 1c f6 35 bd
       -0.10254941 -0.023078868 -0.08942881 -0.04442416
0002d0 77 df 3d bd fc f7 c3 3c 24 ed 99 bd d6 c0 62 3d
       -0.04635569 0.02392196 -0.07515934 0.055359684
0002e0 2f 58 1f 3d 5d d7 33 bd 21 ad 2b bb 1f 00 ca bd
       0.038902458 -0.04390656 -0.0026195722 -0.09863304
0002f0 96 7e a2 bc d4 59 27 bc eb 09 de bc a6 49 48 bd
       -0.019835752 -0.010214288 -0.027104339 -0.04889836
000300 1a dd 3f bd 8d 51 0a 3d e4 78 ec 3d 0e 9a e4 bd
       -0.04684172 0.03376918 0.115464956 -0.11162196
000310 f4 7e dd 3c 75 da ee 3d 1f 37 2b ba d0 f6 e0 bd
       0.027038075 0.11662761 -0.0006531346 -0.10984576
000320 55 07 a2 bd 85 21 c7 3d 49 af 0e be c4 a7 ab 3c
       -0.07911555 0.0972319 -0.13934053 0.02095402
000330 1c 25 a1 bc fa d0 33 3d ef 37 19 3d 8d 31 b3 bd
       -0.019671015 0.043900467 0.037406858 -0.087496854
000340 65 93 b9 bc de 1b 21 3e 9f e7 f4 bd ab 0d c9 bd
       -0.022653291 0.15733287 -0.11958241 -0.0981706
000350 93 22 a5 3d d8 62 96 3d 57 8f 3d 3e 08 3b ef bd
       0.08063235 0.07343072 0.18511711 -0.11681181
000360 a9 69 19 3d ae 00 9a bc fb ac fc bd b2 86 77 bd
       0.03745428 -0.018799152 -0.12337681 -0.06043119
000370 2f 7e a3 bd 70 29 d7 3c de ab 67 3c de 19 f3 bd
       -0.07983052 0.026264876 0.014140097 -0.11870168
000380 2a b4 26 3d bc 55 9f bd a0 1f c0 3d da 8c aa bc
       0.04069916 -0.077800244 0.09381032 -0.020819116
000390 cc 4d 13 3c e2 35 1d be aa 63 52 3d 54 fa 33 bc
       0.008990716 -0.15352586 0.05136458 -0.010984976
0003a0 ae 61 04 3e a0 68 a9 3d 27 3b 1b bd 6c c0 be 3d
       0.12927887 0.08271909 -0.03789821 0.09314045
0003b0 2d 8e 2f 3d ad ea 84 bd aa 38 c5 3d 38 7f d6 bd
       0.0428602 -0.06490073 0.096299484 -0.10473484
0003c0 53 b2 03 3d b9 49 bf 3d f3 04 af bc ae 7e 68 bc
       0.032152485 0.09340233 -0.021364665 -0.014190359
0003d0 63 d3 66 bd a1 05 e3 bc b7 93 09 be 1a 4e ba bd
       -0.056353938 -0.027712645 -0.13435255 -0.09096928
0003e0 14 10 e7 bc 45 b6 44 bd 5c aa 18 be 27 b4 89 3e
       -0.028205909 -0.04802539 -0.14908737 0.26895258
0003f0 d1 66 ae 3c 8f b9 27 bd 74 1b 24 bd 8a f1 22 bd
       0.021289261 -0.040948447 -0.040065244 -0.03978113

lstm_layer.bias_hh_l0 f4 [256]
000000 16 fb 3f 3d 24 c1 a2 bd 95 0b 85 bd 7e 93 c9 bd
       0.046870314 -0.07946995 -0.0649635 -0.09842585
000010 a6 92 0d be ac ec 22 3e 4e 88 93 bd 33 01 a2 bd
       -0.13825473 0.15910596 -0.072037324 -0.07910385
000020 db c5 ca bd a3 21 84 3d 02 92 29 bc 94 57 27 3d
       -0.09901019 0.06451728 -0.010349752 0.040855005
000030 f6 8c 3c 3d f2 74 48 3e 7f 75 eb b9 e4 aa 69 bd
       0.04603287 0.19575861 -0.00044910234 -0.05704774
000040 00 d4 ab bc 11 70 65 3e 77 05 e7 bc 01 fc c1 bd
       -0.020975113 0.22406031 -0.028200848 -0.09471894
000050 4f 0d d0 bd 60 04 9e 3b 66 9b 24 3e 2d b8 6f 3d
       -0.101587884 0.004822299 0.16074905 0.058525253
000060 a3 b0 2f bd db 0c ed 3d ba 1e 5c 3d 60 76 7c 3d
       -0.042893063 0.115747176 0.05374024 0.06163633
000070 08 4f 55 bd 19 d3 b7 3d b7 48 00 3d 0b 2e 38 3c
       -0.052077323 0.089758106 0.031319346 0.011241446
000080 75 86 d7 3d 58 4c 9e bd ce 9f ba bd dd 98 9f bc
       0.105236925 -0.07729405 -0.091125116 -0.01948207
000090 0c 07 0d bd 4e 57 89 3d 2d b4 00 be af 5d cf 3c
       -0.03443055 0.06706105 -0.12568732 0.025313227
0000a0 10 da 73 3d e3 4c 80 bd 34 56 26 3e d7 99 8a 3d
       0.059534132 -0.06264665 0.16243821 0.06767624
0000b0 e9 4a 90 3d 2b b3 55 bd f7 e9 ec 3b 9e 75 b9 3d
       0.07045538 -0.05217282 0.007230039 0.09055637
0000c0 bd e7 96 3d 9a 20 09 3e ed 98 9a 3d ba 4a 8b 3d
       0.07368419 0.13391343 0.075486995 0.06801362
0000d0 fb 79 08 3e 1a f6 a6 3b 98 a0 8b 3c 61 c6 a9 3d
       0.13327782 0.0050952556 0.01704435 0.08289791
0000e0 01 9f 03 be 82 10 43 3d 55 8e 19 bd 1c 7c 91 3e
       -0.12853624 0.047623165 -0.037489254 0.28415
0000f0 87 04 a7 3c fa e4 b1 bd fc 88 b6 bd b6 72 ac bc
       0.020387901 -0.08686252 -0.089128464 -0.021050792
000100 60 80 92 bd 27 c9 02 be 74 97 b0 3c 37 73 55 3c
       -0.07153392 -0.12772046 0.021556593 0.013027958
000110 89 b1 12 be a2 ea c0 3c 98 17 87 3c eb 1d 18 3d
       -0.14325537 0.023549382 0.016490743 0.037137907
000120 f6 67 ae bd c4 07 17 bd 07 1d 9d bd 56 51 72 bd
       -0.08515923 -0.03687264 -0.07671552 -0.0591596
000130 1d be 16 3d a5 f7 4b 3d ad 41 17 be 96 90 0b bd
       0.0368024 0.04979672 -0.14771147 -0.034073435
000140 fe 77 cd 3b ae a1 d4 bd d8 ff bc bd 5e 13 e7 bd
       0.0062704077 -0.103824005 -0.09228486 -0.11282991
000150 0e 34 a1 3d 6e 04 3a bc 01 72 a5 be cb 66 a3 3c
       0.07871257 -0.011353595 -0.3231354 0.019946476
000160 b0 aa e7 bd 3e 4b 29 be 41 4a d9 bd ab e0 1c 3d
       -0.11311853 -0.16532609 -0.10609866 0.038300198
000170 3d ea d6 bd 6a e1 a7 bc 92 c2 96 bd ad b4 02 be
       -0.10493896 -0.020493228 -0.0736133 -0.12764235
000180 f6 0c c5 bc 33 e0 62 bd be 25 22 bd 0b 5c 19 be
       -0.024054032 -0.055389594 -0.039586775 -0.14976518
000190 cd 3d 02 be 57 9e 7f 3d b8 06 fa 3c fc 76 04 bc
       -0.12718888 0.062406864 0.030520782 -0.008085009
0001a0 53 2e e7 bd f7 2b 36 3c ce 77 36 bd 9e da fe bd
       -0.112881325 0.0111188805 -0.04454785 -0.12444042
0001b0 b2 fb b5 bd 7e 62 6b 3c 7e 14 15 be cf 0b 05 3d
       -0.08885898 0.014366744 -0.14558598 0.032481965
0001c0 ed 48 c3 bd f6 48 3a be 60 c5 8d 3d cb 19 c3 bc
       -0.09535394 -0.18191895 0.06922412 -0.02381601
0001d0 fc e7 11 be ac 73 05 3d bf 33 83 bc a4 14 b0 bc
       -0.14248651 0.032581016 -0.016015885 -0.021494217
0001e0 79 61 29 bd 42 94 b8 bc 87 a2 f4 bd 93 2e a4 be
       -0.041352723 -0.022531632 -0.11945062 -0.32066783
0001f0 d9 02 38 bd 3e 99 f4 bd 51 09 8c bd fd 20 a6 3b
       -0.04492459 -0.11943291 -0.068377145 0.0050698505
000200 6f 67 60 3d 8e 26 02 3d fc d5 25 3d dd 88 60 3d
       0.054786142 0.03177505 0.040487275 0.054818023
000210 7e b8 5a 3c 27 19 6a 3a a9 88 48 3c e2 31 e5 3d
       0.01334965 0.00089301396 0.012239614 0.11191155
000220 f9 d5 3a 3d 70 d0 99 bb e5 44 66 bd 5f c4 3c bb
       0.045614216 -0.004694037 -0.056218047 -0.002880357
000230 b1 58 43 3d 0a f9 ab 3d 05 45 4b bd d7 d4 55 bc
       0.047692005 0.0839711 -0.04962637 -0.013051233
000240 c9 15 06 3d 8b 28 f5 bd 50 6f 4f 3c cc e0 b4 3c
       0.03273562 -0.119706236 0.012660816 0.022079848
000250 6c d8 77 bd 97 4a e8 bd da b6 e3 3d 7f b9 5d bc
       -0.06050913 -0.11342352 0.111188605 -0.013532995
000260 ca 40 98 bd 92 e1 60 bd 8d 12 cc bd d1 10 56 3d
       -0.074342325 -0.05490262 -0.09964476 0.05226213
000270 e5 21 b8 bd 53 47 15 bd 95 5e b2 bd 73 f3 80 bd
       -0.0899084 -0.036444973 -0.08709446 -0.06296434
000280 b3 03 31 bd ab 67 41 3d e7 9c 8e bb 2b d5 51 3d
       -0.04321642 0.047218006 -0.0043522003 0.051228683
000290 33 37 4f 3d bf 55 42 3d 82 72 8b bd 6b d2 24 3d
       0.05058975 0.047445055 -0.0680895 0.040239733
0002a0 3d 10 18 bd 6e 82 57 3d 90 e5 06 3e 3c d9 20 bd
       -0.03712486 0.05261462 0.13173509 -0.03926967
0002b0 e2 6a af 3c c4 7c 87 3d a9 98 dc 3d e8 5d 61 bd
       0.02141327 0.06615594 0.10771305 -0.055021197
0002c0 97 6b 18 3d a8 87 16 3d 02 1a 9c bc ef 61 ac 3d
       0.03721198 0.036750466 -0.01905537 0.08417117
0002d0 9f 4d 83 bc 7e 99 1b bd e0 d5 e4 bc 46 6c 51 3d
       -0.016028224 -0.03798818 -0.027934015 0.05112865
0002e0 0b f4 88 3d e0 ae 5a bd b0 25 78 bc bc ff 73 3c
       0.066871725 -0.05338943 -0.015145704 0.014892515
0002f0 b6 fe 87 ba 12 bd 70 3d 72 6d ab 3c 06 80 d6 3d
       -0.0010375592 0.05877406 0.020926211 0.10473637
000300 97 e8 18 3e 8a 22 8c bc 00 cb 27 3c 00 c9 33 3c
       0.14932476 -0.017106313 0.01024127 0.010973215
000310 d3 78 90 3d 4c 91 57 3d b7 d3 a9 bd c0 5f 91 3d
       0.070542954 0.0526288 -0.082923345 0.07098341
000320 95 ae 41 3c 4d 1c d6 bd d9 dc 05 be 53 bf 98 3c
       0.011821409 -0.10454617 -0.13072528 0.018645918
000330 38 ff 95 bd 21 60 d8 bc 51 f1 69 3c c5 76 ec bc
       -0.0732407 -0.026413025 0.014278726 -0.028865227
000340 4b 29 b8 3c 3f 66 94 3d e1 65 8e 3a 99 ef e2 bd
       0.022480628 0.072460644 0.0010864103 -0.11080856
000350 a7 40 b4 3d ce 62 98 3d 8c c6 76 3e 12 3d 4a bd
       0.08801394 0.074407205 0.24099177 -0.049374647
000360 08 0e 1e be ac 2e e1 3c 94 7d 51 bd 8f 08 7b bd
       -0.1543504 0.027488075 -0.05114515 -0.06128746
000370 be fc 09 bd 08 2d 61 ba f3 ee 1d be 96 04 bf 3d
       -0.0336883 -0.0008589779 -0.15423183 0.093270466
000380 d7 a2 0c 3e 75 f0 41 be ce 3a 33 3c 06 6d 80 3c
       0.13733993 -0.18939383 0.010939313 0.015676986
000390 fc 9f 12 bc 48 8a b6 bd ed 9b 19 3d 01 2c 50 3d
       -0.008949276 -0.08913094 0.037502218 0.050823215
0003a0 6a ce e3 bc 22 5e e0 bd 03 9c 18 3e 96 84 b3 bb
       -0.027808387 -0.109554544 0.14903264 -0.005478452
0003b0 3a fc e6 3d 27 7f e5 bd 84 a9 01 be ea ed af 3d
       0.11278577 -0.11205893 -0.12662321 0.085903004
0003c0 79 ff 7a 3d f4 a3 bf bd 58 64 3a bd b1 f0 19 bd
       0.061278794 -0.093574435 -0.04550585 -0.037583057
0003d0 32 80 06 be 42 15 0c be 5e af f6 3c 6a 48 9c bd
       -0.1313484 -0.13679984 0.030112918 -0.076309994
0003e0 e5 f0 f8 bd 46 37 42 be 5a eb 79 b9 f7 10 78 3e
       -0.12155322 -0.18966398 -0.00023834166 0.24225222
0003f0 74 b2 fa bc 48 11 97 3d 6f ef 5c bd a5 68 37 bd
       -0.030602671 0.07376343 -0.05393928 -0.04477753

fc.weight f4 [1, 65]
000000 d3 9c 4d 3f 7a fe be 3e 97 68 6d bf 56 bf a3 be
       0.8031742 0.37303525 -0.92737716 -0.31981915
000010 f0 04 85 bf 83 48 95 bd 70 bf f8 be 34 f0 ce 3e
       -1.0392132 -0.07289221 -0.48583555 0.40417635
000020 82 63 37 3f 7d 24 1f 3f 47 18 6a bc 60 54 9c bf
       0.7163621 0.6216505 -0.014288015 -1.2213249
000030 4d 22 1a 3f 03 1e 91 3f 14 d4 83 3f 41 c4 57 be
       0.6020859 1.1337284 1.0299096 -0.21070959
000040 b2 c8 b1 3f d1 28 2a 3f 0f bc 9e 3e c1 17 6b c0
       1.3889372 0.6646853 0.31002852 -3.6733248
000050 43 91 92 3f 1b 61 e6 3d a0 da 13 40 f0 e2 da 3f
       1.145058 0.1124899 2.3102188 1.7100506
000060 a4 09 0c c0 43 eb 41 bd dd 7b 04 c0 38 ef 69 bf
       -2.1880884 -0.047343504 -2.07006 -0.91380644
000070 5c 30 04 be 2c 20 28 bf 51 fb 8d 3f 02 93 0a 3f
       -0.12909073 -0.6567409 1.1092321 0.54130566
000080 b0 f4 20 bf 9c 2d c6 3f cb 23 ac be a9 61 4e 3e
       -0.62873363 1.5482669 -0.33621058 0.20154442
000090 96 24 84 3f 3a db 4c be f5 06 04 40 f8 07 a4 3e
       1.0323665 -0.20005503 2.0629246 0.3203733
0000a0 ab c8 61 3f 7e 28 6c be dc 98 04 3f 2a c8 d9 3f
       0.8819682 -0.23062322 0.51795745 1.701421
0000b0 e4 4a 6b bf 7f 71 8c be 3d 04 4b 3f 89 c4 a6 3e
       -0.9191115 -0.2743034 0.7930334 0.3257182
0000c0 5d 21 01 bf 18 ea b7 bf 3c e5 dd bf 23 54 52 3f
       -0.50441533 -1.4368315 -1.7335582 0.8215963
0000d0 51 1c 40 3f a9 f7 96 3f 58 52 c2 3e 50 54 4a bf
       0.7504321 1.179433 0.37953448 -0.790349
0000e0 94 94 96 bf 6a 65 9e 3f 4a 65 cf bf f6 5a 68 3f
       -1.1764092 1.2374699 -1.6202786 0.90763795
0000f0 90 3b 86 3d 7e 5f 8c 3f 13 19 4a 3f 24 15 a2 bb
       0.065543294 1.0966642 0.7894451 -0.004946368
000100 6c a1 3a 3f
       0.7290256

fc_final1.weight f4 [64, 128]
000000 09 d3 da bb 59 c9 63 3c ba 78 18 3d 03 3e f3 3c
       -0.0066779894 0.0139029855 0.03722451 0.029692655
000010 45 3f 86 bd d3 60 2f 3e 90 08 9c bc 94 db 3d 3d
       -0.065550365 0.1712678 -0.019047052 0.046351984
000020 3c 3c ea 3c 6b af aa 3d 51 d7 86 3d 6d f3 a4 bd
       0.028593175 0.083342396 0.06584037 -0.08054242
000030 bc 2c 31 3d 43 5b 8e bd a0 6e 8e 3b 36 ea 84 3d
       0.043255553 -0.069510005 0.0043466836 0.06489985
000040 8d 3c d0 3c b6 d4 9e 3d 62 9a c4 bb 96 4a 3b 3d
       0.025419498 0.07755415 -0.005999849 0.045725428
000050 fb 33 af bc 04 1b 8d bb 82 86 f9 3d 5e 2e e3 bb
       -0.02138709 -0.004306199 0.121838585 -0.0069330176
000060 1b a0 0e bd 8f de bc 3d 2b a8 8e 3c 66 57 85 bd
       -0.034820657 0.09222137 0.017414173 -0.065108106
000070 51 0c 06 3d 88 65 c1 bd 64 21 9d 3d 51 9d e9 bc
       0.03272659 -0.09443194 0.076723844 -0.028517397
000080 05 65 91 3d db bf 3f bd d4 b8 b0 bc a9 7e a2 bd
       0.07099346 -0.046813827 -0.021572508 -0.07934315
000090 f9 09 b9 3d 9f da 7b bd 85 11 95 ba 99 70 8a 3d
       0.09035105 -0.06148779 -0.0011373019 0.067597575
0000a0 9f c1 06 be 4a e5 b3 3c 0e 5e 82 3d 34 e1 88 bd
       -0.13159798 0.02195992 0.06365596 -0.06683579
0000b0 ce e1 f6 3c 0f 81 4f bd fb 4b 1d 3d 67 d8 c6 3d
       0.030136969 -0.05066019 0.03840254 0.09709244
0000c0 72 90 a1 bd 40 4d ba bc 6c 3d b6 bd 05 c4 65 3b
       -0.07888879 -0.022741914 -0.08898434 0.0035059464
0000d0 85 bf a8 bd 83 68 59 3d 59 d5 3d bd a5 7d 6c bd
       -0.082396545 0.053078186 -0.046346042 -0.05773701
0000e0 a5 a8 5b 3d 88 f9 93 bd af 51 a7 bd d6 09 a3 3c
       0.05362763 -0.07225329 -0.08169877 0.019902151
0000f0 de 9d 75 bd de 43 34 3d a7 9c 67 3d 71 94 8b 3d
       -0.059965007 0.044010036 0.05654588 0.06815422
000100 29 23 95 bd 23 34 98 3c 73 2e ba 3d 7e 04 7e bb
       -0.07282097 0.018579548 0.09090891 -0.0038760002
000110 31 37 51 3c 6f 4c 95 bb 5a 76 07 bb 9f 0f 55 3a
       0.012769506 -0.0045562307 -0.0020669908 0.0008127633
000120 e4 ae dd 3b 80 cb 7f 3d 46 3d ae 3d d8 6d 5b bd
       0.0067652334 0.062449932 0.08507781 -0.053571552
000130 b7 38 b0 3d d1 05 e1 3c 64 f7 3d 3d 26 f9 c3 bc
       0.086045675 0.027468594 0.04637851 -0.023922514
000140 e8 7f 98 bd 6a ad ef bb d9 c6 bd 3c e2 60 27 3d
       -0.07446271 -0.0073143737 0.023166107 0.04086388
000150 00 64 1d 3d 7a d1 92 3d e7 33 29 3d 62 a5 20 3e
       0.038425446 0.07168861 0.041309264 0.15688089
000160 c4 a9 83 3d a4 f3 68 3b 02 d2 92 bc 1c c8 62 3d
       0.064288646 0.0035545612 -0.017922405 0.05536662
000170 fc 58 65 3d 52 56 a7 bc b4 e4 96 3d b2 d2 50 bc
       0.055993065 -0.020426903 0.073678404 -0.012745546
000180 91 38 9c bd 67 f0 18 3d 5b 8f b8 3d ea 87 80 3d
       -0.07627977 0.03733864 0.09011718 0.062759236
000190 fe 31 53 bd ad 6a 44 3c 63 06 1a 3d 89 b4 cb 3d
       -0.05156135 0.011988324 0.037603747 0.09946544
0001a0 c5 e2 c2 bc 03 d8 78 3c 83 78 8b 3d 66 4b 9c bc
       -0.023789773 0.01518822 0.06810095 -0.019078922
0001b0 1e 6d 5f bd 0d 2b f2 3d ff 5d 80 3d f7 12 5a bd
       -0.05454742 0.118246175 0.06267928 -0.053240743
0001c0 f8 22 98 3d 67 37 30 bd 57 5e 88 3c 48 81 9a bd
       0.07428545 -0.043021586 0.016646547 -0.0754419
0001d0 0b 3f 39 3d d5 d9 e0 bc 92 ef 18 bc 3e c7 81 bc
       0.045226138 -0.02744762 -0.009334462 -0.015842076
0001e0 98 5a 0c 3d 9b d7 e6 3c 5b 1e 92 3b ed e1 09 bb
       0.034266084 0.02817898 0.004459185 -0.0021039203
0001f0 72 e3 0a bd 74 e8 84 3d b0 c3 1d bc 64 5e 72 3d
       -0.033908315 0.064896494 -0.009629175 0.05917205
000200 be 8c 59 3c 80 00 19 bd b5 9a 9a 3c e0 52 b2 3c
       0.013278184 -0.037353992 0.018872598 0.021768034
000210 a5 2f 0f 3d 24 21 c5 3d 96 c0 25 3d fa 1e 40 bd
       0.034957547 0.09625462 0.040466867 -0.04690454
000220 0c 3a 3e 3c 20 b9 50 3c 73 4a 90 bd 4e 88 bf 3d
       0.011610519 0.01273945 -0.0704545 0.0935217
000230 c4 f7 95 bb 3c e7 5b bd c0 22 70 bd 58 31 81 bd
       -0.004576655 -0.05368732 -0.05862689 -0.0630824
000240 b4 1f 88 3d a5 fe 43 3d 5e 8b 0c 3d aa 46 02 bd
       0.06646672 0.04785027 0.0343126 -0.03180567
000250 d1 a2 8c bc 58 37 8d 3d c3 ae 7a bd 0d 5b 09 bd
       -0.01716748 0.068953216 -0.061201822 -0.0335341
000260 b5 5a 49 bd 13 03 af bd ab 28 ab bd fe 49 b9 bb
       -0.04915877 -0.08545508 -0.08357366 -0.0056545725
000270 55 b5 70 bc c0 fe 4b bc 6b 6d dc 3c fc 94 a9 bd
       -0.01469167 -0.012450874 0.026907643 -0.0828037
000280 80 40 18 bb b7 39 57 bd 25 87 f2 bb 20 c7 8a 3c
       -0.0023231804 -0.052545276 -0.0074013644 0.016940653
000290 82 c3 61 bd 71 0f c2 3b d6 80 2a bd ad 4c 57 bd
       -0.05511809 0.005922251 -0.041626774 -0.052563358
0002a0 6b 7b 05 bd 40 1b 7c 3c a2 e0 6e 3c bf 3d f6 3c
       -0.032588404 0.015387356 0.014579924 0.03005874
0002b0 79 cd 27 bd 3a 7d c1 bb 27 0b 69 3d 8e 6b 76 bd
       -0.04096744 -0.0059048207 0.0568954 -0.060161166
0002c0 08 23 62 3c 97 6e 82 3d 4f 3c 2d bd 78 ab 75 bd
       0.013802297 0.063687496 -0.042293843 -0.05997798
0002d0 04 da fb 3d d9 9b 76 bd 23 5e 89 3d 7d 1a a4 bd
       0.122974426 -0.06020722 0.06707408 -0.08012865
0002e0 27 7c 0b 3d bc 80 54 3c 82 c5 05 3d 54 31 f9 ba
       0.034053948 0.012970146 0.03265906 -0.0019011893
0002f0 30 29 a0 bd 7f 13 34 3d 2c 0a cc 3b 7c b9 3d 3d
       -0.07820356 0.043963905 0.0062267985 0.04631947
000300 b3 47 18 3b cc 31 81 bd 18 20 69 bd 99 65 7d 3d
       0.0023236095 -0.06308326 -0.056915373 0.06186447
000310 a4 83 07 bd e5 d7 4c 3c 5f 81 3c bc 68 86 1b bd
       -0.033084527 0.012502645 -0.011505454 -0.037969977
000320 c8 0e 9c bd fa 20 be bd 69 4f c5 bc 8a 88 a9 3d
       -0.07620007 -0.092836335 -0.024085717 0.08277996
000330 80 76 76 bd 20 96 2c 3d b9 57 80 3d be 53 c9 bd
       -0.060171604 0.042135358 0.06266732 -0.09830426
000340 5c f4 90 bd f0 15 1e 3d af dd 8c 3c 62 ba 0b 3c
       -0.07077858 0.03859514 0.01719555 0.008528324
000350 ae 94 03 bd 6b 14 cd bd c7 8d 3e bd b9 a8 fb bc
       -0.032124214 -0.1001366 -0.04652193 -0.030720102
000360 14 30 3f 3c 37 7a 4b bd b2 3d 22 3c 83 5a 96 3d
       0.011669178 -0.0496771 0.009902405 0.073414825
000370 38 e6 c4 bc f3 0b fe 3b aa 09 c9 bc 02 ed 8c bc
       -0.024035558 0.0077528893 -0.024540741 -0.017202858
000380 94 21 53 bd 3d d9 32 bb 6e 48 13 3d 3b 36 b5 3d
       -0.051545694 -0.0027290129 0.035957746 0.08848234
000390 96 5d 44 3d c4 47 85 3d e8 89 25 3d 03 57 df 3c
       0.047940813 0.06507829 0.04041472 0.02726317
0003a0 0f 52 42 bd 54 aa cc bb 28 8b 17 3d 0b 39 a0 bd
       -0.04744154 -0.0062458906 0.036997944 -0.0782338
0003b0 bf be 7a bd 2e fb 21 3d 85 f6 36 bd 89 13 8f 3d
       -0.061217066 0.039546184 -0.044668693 0.06986148
0003c0 60 e0 87 bd 1e 7f 8f 3d 3a 14 86 bd e5 d2 0e 3d
       -0.06634593 0.070066676 -0.06546827 0.034869093
0003d0 bf 34 61 bd 43 44 ec bb f9 24 e8 3d 04 65 a8 bc
       -0.054981943 -0.007210286 0.11335177 -0.02055598
0003e0 3a 92 62 3d f5 45 53 3c 3a 93 d9 3d 02 fb 24 3d
       0.055315234 0.012895097 0.10623784 0.040278442
0003f0 89 84 a8 3c 75 54 77 3d 31 69 03 3d 0b 83 f0 bc
       0.02057101 0.06038328 0.03208274 -0.029359361

fc_final1.bias f4 [64]
000000 d0 19 0a bd 26 9b 34 3d 06 55 c5 bd a5 a9 9b 3c
       -0.033716023 0.044093274 -0.096353576 0.019001791
000010 4f 8e a0 bd da ad 35 39 a1 19 93 3d 7f 34 2c 3c
       -0.07839643 0.0001732627 0.07182623 0.010510563
000020 ed 89 41 bd ee c9 d5 3d 08 2a 70 bd f0 98 2a bd
       -0.047250677 0.10438906 -0.058633834 -0.04164976
000030 fb 1b 91 bc da 03 9b 3d b9 75 a5 3d ed 75 e4 bc
       -0.017713537 0.07569094 0.080790944 -0.027888263
000040 64 7c 7e bc f0 df a6 3d a4 76 8d bd d0 68 3d bd
       -0.015532587 0.081481814 -0.069073945 -0.046242535
000050 0d da f0 3c 88 fb 1d 3d 38 48 87 bd bd 0f 6a bd
       0.02940085 0.038569957 -0.066055715 -0.057143915
000060 a5 6a a7 3d 4e 35 1f 3c 56 18 69 bd a8 12 3b 3d
       0.08174638 0.009717299 -0.056907974 0.04567209
000070 bf 0e 0d 3d 30 ba 90 bd f3 91 30 3d 71 6a fa 3c
       0.03443789 -0.070667624 0.043107938 0.030568333
000080 6e a6 81 bd e9 4f 50 bd fd e8 9a 3d 4c 38 4b 3d
       -0.06330572 -0.05085746 0.0756397 0.049614236
000090 30 b4 f0 bc 76 d4 f6 3c cd 5f 31 bb bc 0c cd bc
       -0.029382795 0.030130606 -0.0027065158 -0.025030486
0000a0 c3 26 9a 3d b3 52 81 bc ed 2c f4 3c d6 6d 32 3d
       0.075269245 -0.015786504 0.029806579 0.04356178
0000b0 e0 e3 63 bd 38 b3 63 3d 03 fc d6 bd 55 8a 7c 3c
       -0.05563724 0.05559084 -0.10497286 0.01541384
0000c0 07 5d 48 3d d1 78 09 bd 7a 0e 8a bd fc d4 3d bc
       0.048916843 -0.033562485 -0.067410424 -0.011586424
0000d0 18 6f 35 3b 34 83 f6 bc 8b fb 74 3d eb e1 d1 bd
       0.0027684625 -0.03009186 0.059810203 -0.102481686
0000e0 83 13 9e bd 1d a2 9f 3c ed 15 eb 3c 98 e3 50 bd
       -0.07718565 0.019486481 0.028696978 -0.0509983
0000f0 52 3d 8c bd f2 13 b0 3c 61 2d 85 bb 16 ba 80 3d
       -0.068476334 0.021493886 -0.0040642475 0.06285493
