weights_new/DecoderEpochnew350_20_8.pt (torch_old, 461851 bytes, 33 tensors)

attn_layer.0.weight f4 [64, 192]
00000000: 93b9 8b3f aa3f ce3f 1e67 9a3e 1c6e cdbe
00000010: b398 92bb ad68 503e 174b 21bf 82db 20bf
00000020: e71a 453f 487e 0c3f 5076 cabe 7e64 143f
00000030: 7a98 bd3e a2ad f43e 8faa 783e e227 903f
00000040: fae2 153f d97f dd3e 4107 4cbf c65d 93be
00000050: 816f 993e 9a7d 423f ffc8 133f ca60 9a3e
00000060: 2d6f efbd b8fe d53e f51c d13e 4dee 393e
00000070: be02 013f fddf 42bf 8357 5b3f 4e18 29bf
00000080: 1d5c 5d3f 2a5d 573f d2a4 1f3f 7f13 10bf
00000090: f5cf 2c3f 7427 73bd 065f 203f 41bf 70bf
000000a0: 6b48 04be 27c2 403f 4c1e 233f 07b4 503d
000000b0: 9543 993f a40d abbf 07f0 3b3f d3c3 2cbf
000000c0: f449 4b3f b9ad 263f 3701 df3d 432d 473f
000000d0: 8c4a 77bf 78bb 513f b7da ca3e e450 663f
000000e0: c134 da3b 5ab5 52bf 3eaa 7a3f d771 763f
000000f0: f038 ba3e 758b 793f ff25 913b 420b e1be
00000100: 8a3f bb3f 3eb5 cb3f f38a 5e3d ec03 d0be
00000110: ddb3 c23b 4ae3 8c3e fa84 19bf fb50 49bf
00000120: 24d8 753f ca8e cd3e 2251 04bf 8268 a13e
00000130: 2663 293e 3161 cc3e d19c 113e 701d 963f
00000140: defd f53e 1aab 043f 7747 83bf 2d2c a2be
00000150: f1d0 123f 3a08 873f 1526 343f 183a b83e
00000160: ef81 30be bb7c 233e 6fd3 cf3e 6ac7 09be
00000170: 205a c93e d4d3 0cbf 71b6 173f 2f65 00bf
00000180: 962a 3d3f 8e9c 773f 0401 053f b39a 2dbf
00000190: c279 463f aa8f dc3e 3d59 bf3e 6556 94bf
000001a0: 0874 b13b 5d33 293f 661f 153f 4be2 d23c
000001b0: ba79 a23f 907f c4bf 2fd0 223f 52ae 62bf
000001c0: ce5b 473f 4489 bb3e d810 10be accc 663f
000001d0: ad5c cabf 64f2 3e3f 9898 a23e 41f3 0c3f
000001e0: bf3e 83be 1ef7 38bf f7d3 463f 9218 973f
000001f0: 865e 163f 6ddd 923f c832 be3e f43c 4cbf
00000200: a499 babe 10c8 1bbd 9fe9 3bbe 2bb7 ed3c
00000210: a898 d3bd 6f7f 23bf 3117 7cbe 3cc4 1b3f
00000220: 59ed 9fbe 83f4 6e3e af7f 433e e486 e1bd
00000230: f161 1440 993e b2be 2645 49be 2daa 41be
00000240: cfa5 f93e a98e cbbd acec 803e 3dff 20bd
00000250: 802b 4fbf ab7a 28bf 055c 373f 76bd 2d3f
00000260: 45e4 813e 490d 973e f797 a13d 06f7 45bf
00000270: d646 80bf 7d1f 37be 7213 823f 6551 f7bd
00000280: a266 da3f 4bb1 2abe d25f ad3e 21e1 de3d
00000290: 3983 053d 6702 87be 280b 153f 12d8 5bbd
000002a0: 1190 bc3e d0b0 363e 0098 093d b86f 553f
000002b0: eebc 7e3e 6eab 1cbe 4e91 40be 7140 553e
000002c0: af7b 683e 316f 683d 56a6 163f 95cd 253e
000002d0: 9711 88be 539f d3bd 204f 46be 3029 b7bd
000002e0: c842 e13e 7808 933d 0a7e d1bd bd1b 23bd
000002f0: d740 b5be 1364 a73e 04c6 2fbf 0d21 8fbe
00000300: b88f 07be b434 adbe 89c7 00bf f629 8d3e
00000310: 0ca0 c43d 80d2 593f 9b6b fbbe 1b85 693e
00000320: b8fe a8bd c8e8 2bbf 2f10 4c3f a71c ca3e
00000330: 0481 4abf f2fd 02bf a657 e2be 8ad8 16be
00000340: d0ae 3dbe a2a1 54bf a401 1d3f 72ff 223f
00000350: 5cb1 763f 3405 583e 70de 76bf 5cd0 453e
00000360: 5b2b 1d3f 0427 5cbf 9ac2 a5bd a523 4a3f
00000370: 5956 cc3c 8229 703f 0ce5 fabe d356 173f
00000380: 0eac 66bf 071f fdbe e6a0 3cbf 85cf 2a3f
00000390: 8161 8bbf 8bcb 863f 53e2 c93e 3ce9 6c3f
000003a0: 9d86 efbe cba6 44bf 5d8f 123e 9782 d13e
000003b0: 38e7 cfbd 8a04 cabb 9eee 55be 1035 493f
000003c0: cdf4 c0bc aac1 4fbf 4ec8 febe 2607 44bf
000003d0: dd8e dbbe 5877 61bf f90c 8fbf 1c48 9bbf
000003e0: 3589 83bf 21db b93e bf55 94be bb12 66bf
000003f0: 52a9 8abe 5464 5c3c 89b1 a03f bea1 833f
1.0916008 1.6113179 0.30156797 -0.4012307 -0.0044737696 0.2035243 -0.63005203 -0.6283494
0.76994175 0.5488019 -0.3954339 0.5796584 0.37030393 0.4778872 0.24283813 1.1262171
0.58549464 0.43261603 -0.7969857 -0.2878248 0.29967883 0.759729 0.5772857 0.3015197
-0.11691127 0.41795897 0.40842405 0.18157311 0.5039481 -0.7612303 0.8568041 -0.6605271
0.8646868 0.8412653 0.6236087 -0.5627975 0.6750482 -0.059363797 0.62644994 -0.9404183
-0.1291825 0.7529625 0.63718104 0.050952937 1.1973749 -1.3363538 0.7341313 -0.67486304
0.7940972 0.6510883 0.108889036 0.7780344 -0.96598125 0.8192668 0.3961999 0.8996718
0.006659121 -0.8230797 0.9791602 0.96267456 0.36371565 0.9747842 0.0044295783 -0.43953902
1.4628766 1.5914686 0.05433173 -0.40627992 0.0059418515 0.27517158 -0.5996853 -0.7863919
0.9603293 0.40148002 -0.516863 0.31525046 0.16541728 0.399179 0.14219977 1.1727734
0.48045248 0.5182358 -1.0256184 -0.31674328 0.5735007 1.0549386 0.7037061 0.35981822
-0.17237066 0.1596555 0.40591 -0.13454977 0.39326572 -0.55010724 0.5926276 -0.50154394
0.73893106 0.9672326 0.51954675 -0.6781418 0.7752954 0.43078357 0.3737277 -1.1588866
0.0054154433 0.66094 0.58251035 0.02574267 1.2693398 -1.5351429 0.6359891 -0.8854724
0.7787446 0.36628163 -0.14068925 0.90156054 -1.5809532 0.7458861 0.31757045 0.55058676
-0.2563381 -0.7225207 0.7766718 1.1804373 0.5873798 1.1473824 0.37148118 -0.7978051
-0.36445343 -0.03803259 -0.18350838 0.029018005 -0.10331851 -0.63866323 -0.24618222 0.60846305
-0.3123577 0.23335461 0.19091676 -0.110120565 2.3184779 -0.34813383 -0.19655284 -0.18912573
0.48759314 -0.0993932 0.25180566 -0.039305914 -0.8092575 -0.65812176 0.71624786 0.6786722
0.25369468 0.29502323 0.07890313 -0.7733005 -1.0021617 -0.17883106 1.0162184 -0.12076072
1.7062571 -0.16669194 0.33862168 0.10882784 0.032595847 -0.2636902 0.5822015 -0.053672858
0.36828664 0.17840886 0.033592224 0.83373594 0.24876758 -0.1529977 -0.1880543 0.20825364
0.22703432 0.056746665 0.5884756 0.16191705 -0.2657592 -0.10333123 -0.19366121 -0.08943403
0.43996263 0.0717935 -0.10229118 -0.039821375 -0.3540103 0.32693538 -0.6866152 -0.27954903
-0.13238418 -0.33829272 -0.50304466 0.27571076 0.09600839 0.8508682 -0.49105534 0.22804682
-0.08251709 -0.6715207 0.79712194 0.39474985 -0.7910311 -0.5116874 -0.44207495 -0.1473104
-0.18523717 -0.8305913 0.6133063 0.6367103 0.9636438 0.21095735 -0.9643316 0.19317764
0.6139428 -0.85997033 -0.08093758 0.7896064 0.024943518 0.93813336 -0.49002874 0.5911686
-0.90106285 -0.49437734 -0.7368301 0.667229 -1.0889131 1.0530866 0.39430484 0.9254339
-0.4678239 -0.76817006 0.14312501 0.40919945 -0.10151523 -0.006165092 -0.20891806 0.7859659
-0.02355423 -0.8115488 -0.49762195 -0.7657341 -0.42882434 -0.8807273 -1.1175834 -1.2131381
-1.0276247 0.36299995 -0.2897167 -0.8987233 -0.27082306 0.013451654 1.255418 1.0283735

attn_layer.0.bias f4 [64]
00000000: 2b86 663e 1d35 003f 08c9 dd3e d95c 73bf
00000010: 02c4 973f 3afa dcbe 9cc8 9d3e d407 11bf
00000020: d042 743f 136b aa3e 64f1 893e a646 0c3d
00000030: 8e75 82be fb29 f63e 75dd 643e 69f2 15bf
00000040: 281d 00bf 81b6 903e 652a 633f fe5a 0b3e
00000050: d738 c83e 4afb 983d d942 453f 67bd 9dbf
00000060: 2b2a 7abf b1b4 8fbe 4a57 973e ac00 8a3c
00000070: d2f3 3e3d d3f9 f83e fc6e 12be 86e6 623f
00000080: 6e56 413f 06b3 bdbe 7ddc c13d bb5e 9a3e
00000090: ac3c b83d 25a3 303e 8df8 c2be df96 b03e
000000a0: 5d31 883d 767b 303f c7f9 bb3f 1a72 62bf
000000b0: 38ec 143f 1ea4 ac3e 80d9 ab3e 7482 edbe
000000c0: 65be d33e 1c3f 04bf 36d8 aebf ced9 01bf
000000d0: 9abf 14bf eb7b a63e 8935 6ebd 0bcc 6b3d
000000e0: 8ea0 8d3c c9bf 9dbe 8c10 b53d 5cbb a3bd
000000f0: a1ea 89bd d847 12bf 42d3 c8be 7f8d 1dbf
0.22512119 0.50081044 0.43317437 -0.9506355 1.1856692 -0.43159658 0.30817115 -0.5665257
0.9541445 0.33284816 0.2694198 0.034247063 -0.25480312 0.48078904 0.22350104 -0.58573014
-0.5004449 0.2826424 0.88736564 0.1360893 0.39105865 0.074698046 0.77055126 -1.2323426
-0.97720593 -0.28067544 0.29558784 0.016846023 0.046619244 0.486281 -0.1430015 0.88633
0.75522506 -0.37050647 0.09465883 0.301504 0.08995947 0.17249735 -0.38080254 0.34490106
0.0665004 0.68938386 1.4685601 -0.88455355 0.5817294 0.3371896 0.33564377 -0.4638859
0.41356197 -0.516588 -1.3659732 -0.5072297 -0.5810486 0.32516417 -0.058156524 0.057567637
0.017288473 -0.30810383 0.08841047 -0.0799472 -0.06734205 -0.57140875 -0.39223677 -0.6154403

attn_layer.2.weight f4 [1, 64]
00000000: 7be9 443f de74 f3bf a230 d0bf 06ca e03f
00000010: 1d12 d7bf b470 39bf d728 be3f 6c95 a73f
00000020: d001 b0bf 6831 89bf 3d96 07bf 72e6 a1bf
00000030: f922 b7bf 7b0e f7bf e272 4bbf 1491 9f3f
00000040: 121b 2b3f 732c c7bf a1c4 83bf a6d5 02bf
00000050: 85ae a8bf 1497 3bbf beec cdbf c7f0 a03f
00000060: 1968 e03f 7ead afbe 00ea 9dbf 1e19 4bbf
00000070: 38e5 18bf 8905 debf 7102 c23f 2292 153f
00000080: 4fb4 b1bf 8181 b93f 99c2 373e 8d11 60bf
00000090: a343 d4be 66f7 64bf f09e 503f cc42 8dbf
000000a0: 6578 b53f 36d6 29bf b810 f2bf e2d3 453f
000000b0: 1f04 a0bf 8bee 3cbf 5dd7 98bf 5655 c73f
000000c0: 11c5 943f 4170 9e3f c802 0040 6528 a03f
000000d0: 9463 0e3f 7e13 01bf ccc5 af3f fa9c 893f
000000e0: a642 1bbd 9ead 8cbf 749d 9dbe f6b2 003f
000000f0: 1026 3f3f c780 bb3f 6014 cabf 90d0 643f
0.7691876 -1.902004 -1.6264842 1.7561653 -1.6802403 -0.72437596 1.4856213 1.3092475
-1.3750553 -1.0718203 -0.5296362 -1.2648451 -1.4307548 -1.9301294 -0.7947217 1.2466149
0.6683818 -1.556044 -1.0294381 -0.5110725 -1.3178259 -0.732774 -1.6087873 1.257348
1.7531768 -0.34312052 -1.2337036 -0.793352 -0.5972476 -1.7345439 1.5156995 0.58426106
-1.3883151 1.4492646 0.17945327 -0.8752678 -0.41457853 -0.8944 0.8149252 -1.103601
1.4177366 -0.66342485 -1.8911352 0.7727643 -1.2501258 -0.7380149 -1.1940724 1.5572917
1.162264 1.2378007 2.0001698 1.2512327 0.55620694 -0.5042037 1.3732238 1.075103
-0.037905358 -1.0990484 -0.3078419 0.5027307 0.74667454 1.4648675 -1.5787468 0.8938074

lstm_layer.weight_ih_l0 f4 [256, 1]
00000000: b726 2fbf ea27 ba3e 8f6b b93e 2eeb 443f
00000010: 6f80 803f 70de 07bf 24b9 4a3f c639 80bd
00000020: fb80 5ebf 4efb e1be d83a 063f 1a89 0fbf
00000030: 8001 2abf fea1 24be 2f5d 3d3f 486a be3c
00000040: 9dec a43e 1ff9 153f e609 363f 9720 57be
00000050: 3ac6 a43f 9d3f 7d3d 2c1e d83e 2e30 313f
00000060: 4596 2c3f e33b 1f3e 8d43 0ebf 0249 5a3f
00000070: 1556 903f 6efb 963e f176 16bf ad5d 22be
00000080: 30f9 433f e7fb ee3e cc6c ea3e aa22 883e
00000090: 0ebc 6f3f 37a6 8dbf 9a33 85be 098d 41bf
000000a0: 99c1 2a3f de4c 1b3f 4c1a 9bbe 338e febe
000000b0: b61b 343f ee33 fcbe 78fb dc3e 47cc 213f
000000c0: 6bde 8a3f 69f9 723f c4fd 133f 016b 163f
000000d0: d8d6 df3e 4e46 a13a ab65 023e a4a9 4d3f
000000e0: 39bb db3e 55d3 263f 83d0 3b3f 83aa 0b3e
000000f0: d250 4e3f d258 773f 505b cf3f cf4f 933e
00000100: 6fe8 01be e65a a93d 3cf8 b53e dca2 093f
00000110: 9394 b03e 864d 07bf b56a 693f 37a4 6b3f
00000120: 1d05 6f3e afed c7be a60c f3bd 8eac 52be
00000130: 29d7 3a3e 0a4e 513f cbe4 ce3e 063c f93e
00000140: f1df c93e 76d0 643e 13dd 873e 6516 753e
00000150: 82f9 2e3f 6187 b23e 3039 f7be 5ea5 f53e
00000160: fa76 cb3d 334d e0be 8b9f 013f 4160 c63e
00000170: 73ae c73e 0ba8 36bf c070 a7be 4ff9 a5bf
00000180: 2ae0 2a3f 1831 bdbc 532b 753e 213d 3f3e
00000190: c0ac e53e 8b9f 6abf 78a4 fc3c 9e35 b7bf
000001a0: 3f07 0f3f c0a3 f73d f970 cd3e 1ce9 2bbd
000001b0: a99f 0e3f 2327 693e 30be 4bbe 2b28 233e
000001c0: fa7f 063f 00a3 1abe f483 ea3e 67fa ac3e
000001d0: becb b1bc 0161 573e 1b76 593f 5f6f 8bbf
000001e0: 2060 293f fdf1 803f 3681 2c3f 22d9 283f
000001f0: f091 493e 0c53 b33e a4c0 df3f ebeb 0a3f
00000200: 66c1 4bbc 0652 0abe 6fc5 95be 4f0e 0fbf
00000210: 39a3 5cbf 3db5 923e f2c5 2d3f e9d0 18be
00000220: 3cdd 94be 4ee1 3cbe 7bb4 e13e 7368 a83d
00000230: 61de d1be 431f 583d e970 a13e ffc7 f6be
00000240: b10a a1be 4fef 0f3d 908f b63e af84 76bd
00000250: 4e07 42bf b884 c0be 6184 bfbe 32ad 0e3f
00000260: 5a02 dd3e e1a2 13bf 8442 a63e d6ad 913e
00000270: 5cd5 20bf 139f 863e 968c eebd 2c85 fd3e
00000280: f184 99be 634a eb3d a850 07bf 8c19 223e
00000290: f003 a9be 68ed 933c 3563 ea3e 193f e5be
000002a0: 5614 05bf efab 40be 8eb2 02bf 199d d9bd
000002b0: 0fdb 8fbe d455 28bb ce59 40be 74bf cf3d
000002c0: a271 f7be 1d11 06bf ce16 e1be 75f1 ccbe
000002d0: c743 443e 7cc4 7b3d 83e4 8ebf 03d4 a5bf
000002e0: 2ff5 3fbf 8277 c13e 3c43 a5be 2924 75be
000002f0: 8804 fbbe 11dd 20bf 78ad 57bf 6b9a 2e3f
00000300: 7e76 423e 1cdc c63e 6bd1 bf3e befd 6b3f
00000310: 6ec7 953f d2bf a23e 9cbd fc3e a081 6a3f
00000320: 3bae 09be 7bd1 5b3e 19c7 4b3f c5fc 97be
00000330: a947 573e 332f 993b 447b 2b3f 08ec b83e
00000340: ccb9 1d3f aa50 ca3e 3832 203f 4660 e23d
00000350: d487 f03f 1e23 b73e ac01 b23e 333f c23f
00000360: 131a 1e3f 705c 41bc d14e 8b3f b11a b03f
00000370: b409 983f 9bf8 bdbe 277f b53c 81ca d1be
00000380: 5146 583f 0020 183f a967 943e 23e7 b83f
00000390: a54a 873e 929e b63e f524 983e 27e4 fa3f
000003a0: 4922 9b3f 1ac3 963e 0f33 783e 3423 463e
000003b0: b0c6 763f 6341 babd dccd 883d 597c 12be
000003c0: 87ff 843f 61a4 893f ee6f e23e 1342 163f
000003d0: af7d de3e 8439 0e3f cb3e 373d 21cb 5f3e
000003e0: 8d05 563f f528 523f a826 913f dd13 113f
000003f0: 5493 8a3f 8e3c 353f 14da 993f 01fb e3be
-0.6841845 0.36358577 0.36214873 0.76921356 1.0039195 -0.5307379 0.7918875 -0.062610194
-0.8691556 -0.44137043 0.5243354 -0.56068575 -0.6640854 -0.1607742 0.7397031 0.023244038
0.32211772 0.58583254 0.71108854 -0.21008526 1.2872994 0.061828244 0.4221052 0.6921414
0.67416793 0.15550189 -0.55571824 0.8526765 1.127627 0.294887 -0.5877524 -0.15856047
0.76552105 0.4667656 0.4578613 0.26588947 0.93646324 -1.106635 -0.2601593 -0.7560583
0.66701657 0.60664165 -0.302935 -0.49717864 0.70354784 -0.4925837 0.43160605 0.6320233
1.0849127 0.9491182 0.5780909 0.58757025 0.437186 0.0012304278 0.12734096 0.80336976
0.42916277 0.6516622 0.7336504 0.13639264 0.8059207 0.96619904 1.6199741 0.28771827
-0.12686323 0.082692906 0.3554095 0.5376413 0.34488353 -0.52852666 0.91178447 0.92047447
0.23341794 -0.39048526 -0.11867647 -0.20573637 0.1824614 0.81759703 0.4040893 0.48678607
0.39428666 0.22345147 0.26535854 0.23934324 0.6834947 0.3486891 -0.48285818 0.47977728
0.09934802 -0.43808898 0.5063407 0.3874531 0.39000282 -0.71350163 -0.3270321 -1.2966708
0.667483 -0.023094699 0.23942308 0.18675663 0.4485836 -0.91649693 0.030840144 -1.4313238
0.5587043 0.1209178 0.40125254 -0.041970357 0.5571237 0.22768836 -0.1989677 0.15933292
0.52539027 -0.15101242 0.45803797 0.33784792 -0.021703597 0.21033098 0.8494584 -1.0893363
0.661623 1.0073849 0.6738466 0.6595632 0.19684577 0.35024297 1.7480664 0.5426623
-0.0124362465 -0.13507852 -0.29252192 -0.5588121 -0.8618656 0.286539 0.67880166 -0.14923443
-0.29075038 -0.18445322 0.44083008 0.08223047 -0.40989974 0.05276419 0.31531456 -0.4819946
-0.3145347 0.03514033 0.35656404 -0.06018513 -0.75792396 -0.37601256 -0.37405685 0.55733025
0.43165857 -0.5767041 0.32472622 0.2845294 -0.6282556 0.2629324 -0.116479084 0.49515665
-0.2998424 0.114887975 -0.52857447 0.15830058 -0.33010817 0.01805754 0.45778814 -0.44774702
-0.51984155 -0.18815587 -0.510537 -0.10625667 -0.28096816 -0.0025685923 -0.18784258 0.10143939
-0.48328882 -0.5236986 -0.4396271 -0.40027967 0.1916648 0.06146668 -1.1163486 -1.2955326
-0.74983495 0.3778649 -0.32277858 -0.23939575 -0.49026895 -0.6283732 -0.8424907 0.68204373
0.18990514 0.38839805 0.3746446 0.92184055 1.1701486 0.31786972 0.4936341 0.9160404
-0.1344537 0.21466629 0.79600674 -0.29685035 0.2102343 0.004674816 0.66984963 0.36117578
0.6161163 0.39514667 0.6257663 0.11053519 1.8791451 0.3576898 0.347669 1.5175537
0.61758536 -0.011801824 1.0883428 1.3758146 1.1877961 -0.37103733 0.022155358 -0.4097481
0.84482294 0.5942383 0.28985336 1.4445537 0.26424137 0.35667855 0.29715696 1.9600877
1.2119838 0.29445726 0.24238227 0.19349366 0.96396923 -0.09094503 0.066798896 -0.14305247
1.0390481 1.075329 0.4422602 0.5869457 0.43455264 0.5555651 0.04473762 0.21854831
0.8360222 0.82093745 1.1339922 0.56670934 1.0826211 0.70795524 1.2019677 -0.44527438

lstm_layer.weight_hh_l0 f4 [256, 64]
00000000: 265c d03e 87d0 e7bd 179e 1b3e ddf0 c93c
00000010: d720 f3bd c0de a0bd e454 143f 503f 26be
00000020: 0f61 133e 7d4d 823e f6cc 8ebe 8d7d d9bd
00000030: 7121 803e 6e4f 20be 7dab a2bd 1696 3b3f
00000040: 404a 15be 3ae9 473e 036c 673e 5a70 51be
00000050: c125 243f f93d 8a3e 91ef 46be 42db 05bf
00000060: 5e3e a8be 3a9b e0be 1b05 8cbe 8aeb dfbe
00000070: 665e 34bf f0f1 2dbe 2822 913d 2a90 f93d
00000080: 73a7 7fbe 09bd 09bf e161 b03e 88aa c3be
00000090: 54c9 9c3e 9ccb b33d c352 0abd 488f 273e
000000a0: ed24 073f 5b45 86be f560 b53e 7a1c 413e
000000b0: a80f 403e 2acc 243d 30b6 693f 6019 c13e
000000c0: a879 5ebf 9fda acbd cd88 683e 123c 3d3c
000000d0: 7e95 e9be c808 cfbc 57dd d1bd 5edc be3d
000000e0: dcb6 f1be 4f88 3a3f 6466 95be 4584 70be
000000f0: b809 423c 64cf 7bbe e7c7 16be bbeb 713d
00000100: 4f93 943e 1069 6dbe e694 87bd 28fc bcbe
00000110: 449a cebe b662 4b3e efd4 cd3e 418a 08bf
00000120: 31b6 c83e d94e b73e 9f10 a43d 1f6c d73e
00000130: ed5f 0c3f 4d5c 343e b28d cebc 53ca de3e
00000140: 00bd 5abe 4e72 ddbd 6cc7 fb3e bd79 b93e
00000150: b41b bb3e 2be5 0b3f 5e14 c7be 3f7a e13d
00000160: 7b55 8c3d 3113 44be fcfa edbe d5e7 773c
00000170: 8029 2bbf ce89 bdbe 5b40 b03e 7e88 303e
00000180: 6995 9dbe 24bc 22bf e5e8 a7bb cc00 fd3c
00000190: 9d84 aabc 0cf2 193c 8668 323f 3f84 bdbd
000001a0: 198a 3e3d 90dd 35be c468 da3e b485 943e
000001b0: 6261 dcbe 0e92 913d f28d 063f d3b5 b63e
000001c0: a47a 3abf 40ec aabf fd23 a9bd 8dea bebe
000001d0: cc0e b1be 1b92 273f ddf2 72be 3b21 08bf
000001e0: 0dea 61bf c95f 0c3f cffe 26be ce8e 27be
000001f0: 4826 29bf 3b58 3fbf af03 183f 4c2e efbd
00000200: 93e0 bd3e e5ce f8bd 967e ae3e 96a3 083f
00000210: c62b 4c3f 1ab0 0f3e 6ad6 95be 34db c7be
00000220: b65b 0b3e 45c2 f13e 62a5 9bbe 895b 523f
00000230: 380b 0d3e 0feb fa3c 4acf 98bd ebfd 263f
00000240: f3e3 a53e a7ed e83e be7d 333e 1c94 a3be
00000250: 00e6 c03f f862 8e3f 1fce 683d 6981 8dbe
00000260: ca7e dcbe 07d2 803c 0b29 50be 5287 d2be
00000270: 01ba 31bf 387f cc3d 5efe 513f c34c e63e
00000280: c66b 503d b945 573e dc10 f33e 0af9 d5be
00000290: 7452 983e a9ba c7be e8eb 0c3d 977c dcbe
000002a0: a36d b53e 43d8 003e 128e 173f 6dad e53e
000002b0: 48d8 8ebd 3072 283e e9b0 5c3f 210d 65be
000002c0: 4e88 c43d 20fb 4bbe 1c0a cf3e faa5 f93d
000002d0: b13e 77bf f35b bf3d 426e 9d3d 2aaf 12bf
000002e0: a291 3dbd 8963 d83e b42b a7be 51c7 0d3e
000002f0: 9fbe 3bbf a8b2 0dbf 660f a33f 86dc edbc
00000300: 2494 f43e e726 f03d 3bc6 3e3e 08f0 223d
00000310: 4394 473e 94a2 f23e 4ba3 35bf 42e7 a43e
00000320: c923 0f3f 3827 2abe 3d23 24bd 5c35 62bb
00000330: c5aa b4bd ccde 793e 8e65 593e fe78 7b3f
00000340: c462 6a3c 5276 ed3d 97ab 223d 8026 7abe
00000350: 3225 1b3e e248 a7bd 67cd 773c 715f 0bbe
00000360: 8636 cf3c 913e 053c b1ff 193e 4252 b4bc
00000370: 49a4 1c3f 0264 9c3d 8550 b5bd 5551 91bd
00000380: f2f1 d9bd 959f bd3d 96bc e83d 2350 98be
00000390: d264 883c 0bcf 183e 47fa 80be ca5b 2ebe
000003a0: 4f1a fdbd 3ee2 2e3c 2206 ebbe 54ee f3be
000003b0: 1da7 8d3e 678b 16bf fad2 24bf 1b8a 08be
000003c0: bbdf d83e 90eb bf3e d4d9 0e3d aa72 85bd
000003d0: 1cae aebb 759d 703d a315 753c 673c 38bf
000003e0: 7a22 64be d6de f4be ce9b b43e 80e6 533d
000003f0: bc66 9e3d db09 4b3f 8dfa b0be 0f16 ccbe
0.40695304 -0.1131907 0.15197025 0.024650985 -0.11871498 -0.07854986 0.5794203 -0.1623509
0.14392494 0.25449744 -0.27890748 -0.1061965 0.25025514 -0.156553 -0.07942865 0.7327589
-0.14579105 0.19522563 0.22599797 -0.20453015 0.6412011 0.27000406 -0.19427325 -0.52287686
-0.32860082 -0.43868428 -0.27347645 -0.4373439 -0.7045654 -0.16986823 0.07086593 0.121857
-0.2496622 -0.5380407 0.34449676 -0.38216043 0.3062235 0.0877907 -0.033770334 0.16363251
0.5279072 -0.2622479 0.35425535 0.18858519 0.18755972 0.04023377 0.9129362 0.37714672
-0.8690438 -0.08440136 0.22708435 0.011549966 -0.45621866 -0.025272742 -0.10247295 0.093193755
-0.47209823 0.7286424 -0.2917968 -0.23487957 0.011843137 -0.24590832 -0.14724694 0.0590627
0.29018638 -0.2318461 -0.06620197 -0.3691113 -0.4035207 0.19861874 0.40201518 -0.5333596
0.392015 0.35802343 0.08010983 0.42074677 0.5483387 0.17613335 -0.02521405 0.43513736
-0.2136116 -0.108128175 0.49175584 0.3622569 0.36544573 0.5464656 -0.38882726 0.11009645
0.068522416 -0.19147946 -0.46480548 0.015130957 -0.668602 -0.370192 0.344241 0.17239568
-0.30778053 -0.6356833 -0.0051241987 0.030884169 -0.020815188 0.009396087 0.6969074 -0.092537396
0.04651842 -0.177603 0.42658055 0.29008257 -0.43043047 0.07107936 0.5256034 0.35685596
-0.72843385 -1.3353348 -0.08258817 -0.37288323 -0.34581602 0.65457314 -0.23725457 -0.53175706
-0.8824776 0.54833657 -0.1630814 -0.1636307 -0.6607404 -0.74744004 0.5938062 -0.11678752
0.370854 -0.12148837 0.34080952 0.5337461 0.7975429 0.14032021 -0.29265147 -0.39034426
0.13609204 0.47218528 -0.30399615 0.8217092 0.13773811 0.030629663 -0.07461412 0.652312
0.32400474 0.45493814 0.17528436 -0.31948936 1.507019 1.1123953 0.056837197 -0.27637795
-0.43065482 0.015725149 -0.20328157 -0.41118866 -0.69424444 0.099852026 0.8202876 0.4498044
0.05088403 0.21022691 0.474738 -0.41791564 0.29750407 -0.39009598 0.034404665 -0.43063805
0.3543521 0.12582497 0.5920116 0.44858876 -0.06974846 0.16449809 0.86207443 -0.2236829
0.095963106 -0.19920015 0.404374 0.12189861 -0.96580034 0.0934371 0.07687046 -0.5729853
-0.046281464 0.4226344 -0.3265053 0.13845564 -0.7333774 -0.5535073 1.2739074 -0.029035818
0.47769272 0.1172617 0.18630306 0.039779693 0.19490151 0.47389662 -0.7095229 0.32207686
0.5591398 -0.16616523 -0.04007267 -0.0034516668 -0.08821634 0.24401397 0.21230146 0.98231494
0.014305774 0.115948334 0.039714422 -0.24428749 0.15150908 -0.08168198 0.015124655 -0.13610627
0.025294553 0.008132593 0.15038945 -0.02201188 0.6118818 0.076362625 -0.088532485 -0.07095591
-0.106418505 0.092589535 0.11364095 -0.2974864 0.016649637 0.1492273 -0.25190946 -0.17027202
-0.123585336 0.0106740575 -0.45903116 -0.47642767 0.2766656 -0.5880646 -0.64384425 -0.13333933
0.42358193 0.37484407 0.034875706 -0.06516011 -0.005330814 0.058743913 0.014958772 -0.71967167
-0.22278777 -0.4782626 0.3527512 0.051733494 0.07734439 0.79311913 -0.34566155 -0.3986058

lstm_layer.bias_ih_l0 f4 [256]
00000000: 5dee dcbe 5ed8 fd3d 9e16 debe ea3b 8abe
00000010: 1b88 9fbe 2d75 9bbe 142e 013e 4a7a d2be
00000020: a396 fdbe 9f33 94be 60a1 e2bd cfb0 2cbf
00000030: 3be2 853c 1094 22bf ec81 83be 6f93 e5be
00000040: 7153 39be f603 5bbe 0b90 d5be 26e5 2fbf
00000050: d4f4 113e cc35 08bf 2589 5fbc 2057 71be
00000060: 5eeb abbe 6a6d 05bc d1c5 1bbf 533d 09be
00000070: bfbe 51bd 6593 9cbe ca2a e1be d4b7 a2be
00000080: 279f 2b3e ad64 a7be 3faa 9ebe 6389 43be
00000090: 5308 7e3d 62c0 8f3e 8539 ccbe 97a1 693e
000000a0: 3cbb e9be 9e4f 27be 25df 83be f1e1 0ebf
000000b0: 0822 1e3d 6da7 15bf 418a 93be 4b00 b7be
000000c0: 15b9 67be d01b abbe af3b 12bf 149e a4bd
000000d0: f98a 72bf 8073 ca3d 6a17 38bf 9941 3a3e
000000e0: 5041 acbe 24bc 5ebe 2271 2ebd d06d 983e
000000f0: 4aca ec3d 4c47 903e 0df2 c0be d1f1 2b3e
00000100: 2623 0ebf 2c9c 20be e666 c2bd 0f30 4abe
00000110: 6561 14be 21ba 7f3d 3bc9 48bf 7a78 00bf
00000120: e583 08bf 8614 d9be 2303 45be c7b2 f8be
00000130: ff8d b0bf db8a acbe ffc5 32bf eed4 6dbf
00000140: a280 e3be 32fe a5bd 7e45 c5be c789 5cbf
00000150: 57cc bd3e 12d5 34bf 400c 95be 4ec8 c8bd
00000160: 46f7 bbbe 13db c5bd 018f 65bf 26f9 d7bd
00000170: 274e cfbe ee49 0ebf a58d 3bbf 8d72 cfbe
00000180: 95b4 f73d f0c2 d73d 816e d8be 6bd5 1dbe
00000190: b531 dbbd 0f09 8c3f 53b9 4dbe 4112 9a3e
000001a0: 1fd2 1ebe 84a7 00bf 1418 6dbf a8e8 c2be
000001b0: b903 9fbe 2dac 55be 04d5 50bf 166b bdbd
000001c0: 1799 4fbf 1ebf 04bf b08a 82be 3cef e6be
000001d0: cc19 38bf cf1e 80be d7fe 8dbe 6bc7 3fbf
000001e0: ddeb 9abe b324 09bf cd5d bdbe c4ff 8c3d
000001f0: 9ee5 83be 3708 53bf 2747 b43d c49c 90be
00000200: b945 15bd 2c22 03be 4edc 11be c5bc ac3d
00000210: 0aab 7c3d 4c0c c73e c3cb b1be 7260 4e3e
00000220: 36d0 bebd 2ef0 93be 8de9 383e 6c85 83be
00000230: 0c88 7dbe af9f 84bd 0868 76be 4179 c5bd
00000240: c2b4 0abe 2d35 33be 6fd6 7f3e 70d8 813d
00000250: 67e0 79be 917c 52be 4bb5 38be b5af 803e
00000260: 2833 8e3e 7484 abbe d144 223c 4e30 953e
00000270: 96a3 a93e a9e0 2a3e 3aef 30be 2f0e 853e
00000280: b1fd 8ebe 6ca9 14be 95ad abbe abd4 873e
00000290: 2dc1 63be aaa7 e13e d80e 92bd f2bc ca3e
000002a0: f230 8bbe b03c 32be e569 82bd 5027 3dbd
000002b0: daf7 04be 7049 15bd e7a2 86be 7ffc 0c3e
000002c0: 1b3f c03e 0156 923d ef7b 2bbe bd38 89be
000002d0: 8148 0e3d 33bc 1ebe 1970 75be d453 bfbd
000002e0: a542 a0bd 877d 6fbe bc45 94be 15ec 7ebe
000002f0: ea41 f13d 4457 e43e dc6c 3bbe 1462 2d3e
00000300: 2bbb 03bf 57de e6be e645 d5be f7ee d43b
00000310: 5d27 3b3e b6f2 b4bf 8163 b83d ed2b b4be
00000320: f7fa f8be c6e6 04bf 6f2c 08bf a7cf 95be
00000330: 1488 84bd fc6e 56bf 89cc 04be ae24 88be
00000340: 1678 a1be 55bb 2bbf b2c5 a4be 3eff 1cbf
00000350: c84b 8f3d 27f3 ddbe e689 21bf 2533 52be
00000360: 2f73 a6be a4e8 16bf 6f9a 9abe 5a4b 7bbe
00000370: 098c a13d 8468 3ebf 424a 1fbf 0cef 84bf
00000380: 0548 8fbe 8bf0 20bf 8e88 ccbe f1f8 9dbe
00000390: ceed edbe 438f 89bf cf88 1bbe 6106 25bf
000003a0: 8790 24bf 92b6 13bf ce34 8abd 98d5 05bf
000003b0: d45c eabc 8d96 1cbf 522f 5abe 3090 9cbe
000003c0: a1fe a2bb 9323 97be d9fb 03bf a4f4 7abe
000003d0: d920 4ebe 3759 633e 6d66 c8be bb7a d2bd
000003e0: 9bf8 f73b a07b 6ebd 60f9 9cbe 8d21 0ebf
000003f0: 334d 53bd 1d52 e03a 0dec 8abd 3cff bcbe
-0.43150607 0.123947844 -0.4337663 -0.26998836 -0.31158528 -0.30362836 0.12615234 -0.41108924
-0.4952899 -0.28945634 -0.11065936 -0.6745729 0.016343227 -0.63507175 -0.2568506 -0.44839045
-0.18098237 -0.2138823 -0.4171146 -0.6870903 0.14253551 -0.5320709 -0.013643538 -0.23568392
-0.33578008 -0.008143762 -0.6084872 -0.134023 -0.0512073 -0.30581203 -0.43977958 -0.31780875
0.1675993 -0.32693997 -0.30989262 -0.19095378 0.062019657 0.28076464 -0.39887634 0.22815548
-0.4565066 -0.16338965 -0.25756183 -0.5581351 0.038606673 -0.58458596 -0.28816417 -0.3574241
-0.22629197 -0.33419657 -0.5712232 -0.080379635 -0.94743305 0.09885311 -0.7191073 0.18189086
-0.3364358 -0.21751457 -0.04258836 0.2977128 0.11562021 0.28179395 -0.3768467 0.16791464
-0.5552238 -0.15684575 -0.094922826 -0.19744895 -0.14490278 0.062433366 -0.78432053 -0.5018383
-0.53326255 -0.4239847 -0.19239478 -0.48573896 -1.3793334 -0.33699688 -0.6983337 -0.9290303
-0.44434077 -0.081051245 -0.3852958 -0.8614773 0.3706996 -0.7063762 -0.29110909 -0.0980383
-0.36712092 -0.09660926 -0.8967133 -0.10545568 -0.40489313 -0.5558156 -0.7326301 -0.40517083
0.1209499 0.10535228 -0.42271808 -0.15413444 -0.1070284 1.0940264 -0.20090227 0.30092052
-0.15509842 -0.5025561 -0.92614865 -0.38068128 -0.31057528 -0.20866461 -0.81575036 -0.09248941
-0.8109297 -0.5185412 -0.25496435 -0.45104396 -0.7191436 -0.25023505 -0.2773349 -0.7491366
-0.30258074 -0.53571624 -0.36985627 0.06884721 -0.25761122 -0.8243441 0.08802634 -0.28244603
-0.036443446 -0.12806004 -0.14244196 0.084344424 0.061686553 0.3887657 -0.3472577 0.20153978
-0.09317057 -0.2889418 0.18057843 -0.2568773 -0.24758929 -0.0647577 -0.24063122 -0.09642268
-0.13545516 -0.17500754 0.24984144 0.0634011 -0.24402009 -0.20555331 -0.18037908 0.25134054
0.27773404 -0.3349949 0.009904102 0.29138416 0.3313262 0.16687264 -0.17278758 0.25987384
-0.27927926 -0.14517754 -0.3353087 0.2652944 -0.2224166 0.4407323 -0.071317375 0.3959728
-0.2718578 -0.17405963 -0.06367854 -0.04618007 -0.12985173 -0.03644699 -0.2629616 0.13768195
0.37548146 0.0714531 -0.16746496 -0.268011 0.034737114 -0.1550148 -0.23968543 -0.09342161
-0.078252114 -0.23387729 -0.28959453 -0.24894746 0.1178015 0.44597828 -0.18303245 0.16931945
-0.5145747 -0.45091507 -0.4165489 0.0064982134 0.18276735 -1.413657 0.09003354 -0.35189763
-0.4862897 -0.5191463 -0.531928 -0.2925999 -0.06471267 -0.837631 -0.12968649 -0.26590484
-0.3153693 -0.6708272 -0.3218208 -0.6132697 0.06996876 -0.43349573 -0.6310104 -0.20527323
-0.32509753 -0.5894873 -0.30195948 -0.24540463 0.07888038 -0.7437823 -0.62222683 -1.0385451
-0.27984634 -0.6286704 -0.39947933 -0.3085399 -0.46470493 -1.0746845 -0.15188907 -0.6446286
-0.6428303 -0.57700455 -0.06748353 -0.52279043 -0.028608717 -0.6116722 -0.21307114 -0.30578756
-0.004974202 -0.29519328 -0.51556164 -0.24507385 -0.20129718 0.22202002 -0.39140645 -0.10277315
0.007567478 -0.058223367 -0.30659008 -0.55519944 -0.051587295 0.0017114315 -0.06783304 -0.36913478

lstm_layer.bias_hh_l0 f4 [256]
00000000: de78 00bf 0601 2d3e 09e2 b4be 764a 0abe
00000010: c1bb c8be 6b29 41be 972d 53bd 0af9 c7be
00000020: e11d fbbe 6124 bbbe ed3b 24be e1e2 2dbf
00000030: 4133 15bd c830 00bf 57ca aebe 3d95 ecbe
00000040: 9ac5 93be 08fb b2be b5ba d7be 0c1e fabe
00000050: 24f8 8b3d 8404 38bf ba0c 5c3e fcad a7be
00000060: f0d3 2bbe 27a0 fe3d 585f 11bf 744a 03be
00000070: 9977 1b3e 6227 8abe 6a57 d7be 0e51 03bf
00000080: 6644 373e 40f3 9bbe 2cd7 4cbe ef0f 8abe
00000090: e0bb a23d 9fa9 ae3e d7ec b8be eabd b03e
000000a0: a527 eebe 6488 b9bc c826 cabe 70de 24bf
000000b0: 1a65 bd3c ca50 38bf 174d 10be d6d0 a8be
000000c0: d388 c3be bd03 7abe f9eb 07bf 4b43 45bd
000000d0: 1560 64bf c9e0 77bd 1db2 12bf 044b 463e
000000e0: 0db2 c2be 55db b5be d5f1 2ebe e709 b83e
000000f0: 5614 263e fc78 9f3e 0e88 9dbe 9f26 3a3e
00000100: d539 fcbe 71c7 83be a5f2 9bbd a2c1 41be
00000110: a4c1 22be 89a0 3a3e fae0 52bf 582d 11bf
00000120: c94b 00bf 689a 10bf b23a 3bbe 0f44 14bf
00000130: c4dc a0bf ad86 b1be 7774 1abf 9cdd 71bf
00000140: 7daf b9be 5411 39be 5d8d 05bf 4843 51bf
00000150: 771c 8a3e d334 19bf 4844 25be c51d edbd
00000160: e879 12be ac8f 4fbe 38e3 51bf b051 8fbe
00000170: ab73 0dbf 526f 19bf 9c83 3fbf f8e0 39be
00000180: 8d77 3abd d9d6 5dbd dcbe dcbe f217 93be
00000190: b4d2 55be fbff 983f e397 64be e57e 173e
000001a0: 8384 a4be fab2 debe 711b 7ebf a689 14bf
000001b0: c651 59be 4c3c 51be a53e 3dbf ed5a b73d
000001c0: f527 33bf 44b6 00bf fe17 99be 0b6a 9bbe
000001d0: a05b 4fbf 70d2 ecbd 4eb7 99be 94ca 2dbf
000001e0: e23a a3be 7b3b 10bf fde2 7cbe 2050 2dbd
000001f0: 0583 5abe d479 60bf 4f85 55bd 04a2 1dbe
00000200: b872 5fbe e6ed 39be 1f0f 58be f457 e83d
00000210: e809 7f3c aedf d73e b537 66be 3dca 7d3d
00000220: 3091 35be f4b8 13be 35a4 9f3e 01d7 06be
00000230: 3aed 88be 4583 e4bd c567 a6be 9df7 20be
00000240: b5d7 46be ea4a 97be 9c4f 113e b697 943e
00000250: 8fb3 79be 9408 99bd e2bd 77be b068 733e
00000260: 195f 483e 2e29 b1be 9a8a 4e3d 0d87 9c3e
00000270: eabf 6e3e 9e80 563e c7ce b8be c3bd aa3e
00000280: d276 4bbe d6b5 3abe 92c5 28be 6162 993e
00000290: a6c0 96be 5b7d dd3e 6d57 b73b 6160 bb3e
000002a0: e87e 66be 9544 7ebe 48ba 2fbe df09 85bd
000002b0: a223 7bbd 902b 073e 8bfd bcbe 209c 433e
000002c0: cc32 7f3e 8308 fa3c 21f1 89be aa89 4fbe
000002d0: 20b6 9abd c9b3 27be d630 c6bd 4fc5 9abe
000002e0: 1ec6 193e aeb4 6bbe f478 0dbe de95 92be
000002f0: 8e96 a5bd 03e3 143f dff1 b7be d5f7 983e
00000300: 725b 18bf 96b3 e4be 188d dabe 3eb8 eabd
00000310: a7a1 e03d 061b b0bf c530 ab3c 279d 46be
00000320: 5193 b3be ab8c 06bf 5238 e3be 1870 03bf
00000330: 5037 5dbd c7fb 22bf dccd 2ebe 2229 fbbe
00000340: f89c 91be 629d 36bf a165 0bbf 22bb eebe
00000350: 5191 29be cc84 e2be d121 20bf 6156 9ebe
00000360: c47b f0be 5f25 35bf 858c d4be ecb7 55be
00000370: 0999 d03d 6c9d 5abf aed3 3bbf b780 5cbf
00000380: 532e a7be 4745 29bf 8c00 dbbe 086a b3be
00000390: 06ca bcbe 4c52 93bf 9467 33be cbe7 0bbf
000003a0: 75f6 eabe 4fb7 07bf bc6e 73be ae4d d4be
000003b0: 8784 1fbe 9910 f9be 2fe1 b5be 7dcc e2be
000003c0: 4ae9 513e a673 52be 6dc8 d2be 784d c6be
000003d0: 8138 b5bd a303 4a3e 4958 13bf 218a 453b
000003e0: 1379 743d 6c3d 87bd aa33 28be 4919 01bf
000003f0: ac1d b33d 9c3b 453e 14e7 d23d a095 bebe
-0.5018443 0.16894922 -0.353287 -0.13504967 -0.39205745 -0.18863456 -0.05155715 -0.3905719
-0.49046233 -0.36551192 -0.16038485 -0.67924315 -0.036425833 -0.50074434 -0.34138748 -0.4620761
-0.28861696 -0.34957147 -0.42134634 -0.4885105 0.068344384 -0.7188189 0.2148923 -0.32749927
-0.16780066 0.124328904 -0.5678611 -0.1282137 0.15182342 -0.26983172 -0.4205888 -0.51295555
0.17897186 -0.30459023 -0.20003957 -0.2696528 0.079459906 0.34113786 -0.36118194 0.34519893
-0.4651462 -0.022648044 -0.39482713 -0.6440191 0.023119498 -0.71998274 -0.14091907 -0.3297183
-0.38190326 -0.24415489 -0.5309444 -0.04815988 -0.8920911 -0.060517106 -0.5730303 0.19364554
-0.38026467 -0.355189 -0.17084439 0.35945055 0.16218695 0.3114699 -0.30767864 0.18178795
-0.49262872 -0.257381 -0.0761464 -0.18921521 -0.1589418 0.18225302 -0.82374537 -0.56709814
-0.5011564 -0.56485605 -0.18284109 -0.5791635 -1.2567372 -0.34673062 -0.6033396 -0.94478774
-0.362667 -0.18073016 -0.5216883 -0.8174329 0.26974842 -0.5984623 -0.16139328 -0.11577944
-0.14304316 -0.2026965 -0.81987333 -0.2799201 -0.5525462 -0.59935486 -0.74810195 -0.18152225
-0.04552417 -0.054159973 -0.43114364 -0.28729206 -0.20881158 1.1953119 -0.22323565 0.147945
-0.32132348 -0.43495923 -0.9926062 -0.58022535 -0.212226 -0.20433158 -0.7392371 0.089528896
-0.69982845 -0.50278115 -0.29901117 -0.30354342 -0.80999184 -0.11563575 -0.30022663 -0.67887235
-0.31880862 -0.5634076 -0.24695964 -0.04231274 -0.21339042 -0.87685895 -0.052129086 -0.15393835
-0.21821105 -0.18157157 -0.21099518 0.11344901 0.015566327 0.42162842 -0.22482188 0.061960448
-0.17731166 -0.14426023 0.31179968 -0.13167955 -0.2674349 -0.1115785 -0.32501045 -0.15719457
-0.19418223 -0.29549342 0.14190525 0.29021996 -0.24384902 -0.07472339 -0.24193528 0.23770404
0.19567527 -0.3460173 0.05042515 0.30571786 0.23315397 0.20947501 -0.3609526 0.33347902
-0.19869545 -0.18233427 -0.16481617 0.2995787 -0.29443854 0.432597 0.0055951388 0.3659697
-0.22509348 -0.2483085 -0.17160904 -0.064960234 -0.06131328 0.13200212 -0.36912188 0.19102526
0.24921721 0.030521637 -0.2694178 -0.20267358 -0.07554269 -0.16377176 -0.096772835 -0.3022866
0.15016982 -0.23018143 -0.13815671 -0.28629965 -0.08085357 0.5815889 -0.3592672 0.2987658
-0.59514534 -0.44668263 -0.4268577 -0.11460923 0.10968333 -1.3758247 0.020897279 -0.19395886
-0.3507333 -0.5255839 -0.44378906 -0.51342916 -0.05400783 -0.6366543 -0.17070717 -0.4905482
-0.2844007 -0.713339 -0.5445195 -0.46627146 -0.1655934 -0.4424194 -0.625516 -0.30925277
-0.46969426 -0.7076015 -0.41513458 -0.20870942 0.10185439 -0.85396457 -0.7336987 -0.86133903
-0.3265253 -0.66121334 -0.42773855 -0.35041833 -0.36872882 -1.150949 -0.1751998 -0.54650563
-0.45891157 -0.5301408 -0.2377271 -0.41465515 -0.15577899 -0.48645476 -0.35523364 -0.44296637
0.20499149 -0.20551929 -0.41168538 -0.3873098 -0.08848668 0.1972795 -0.5755659 0.0030142146
0.059685778 -0.06603512 -0.16425958 -0.5042921 0.08745894 0.1926102 0.10297981 -0.3722353

fc.weight f4 [1, 65]
00000000: 5f55 e13f 3e30 a23f ab9f 9c3e 98c9 0b3d
00000010: 4499 d63e 2edc 09bf 4bff 923f 2ff8 f33f
00000020: ba23 dbbf d0ad 1c3f 71a4 113d 907b 303f
00000030: 38e9 d63c f996 aa3f a495 873f 895a c73f
00000040: 27ee 773f e4aa e6be 3f18 f9be c72e 8e3d
00000050: fe8a 47bf efd8 8abf 4c28 fc3e 53cf 2240
00000060: b500 af3f 80c6 763f ea95 82be 6d6a c63e
00000070: b914 883f 5f3d 7f3f 3bb1 b3be e375 253e
00000080: f6e4 673e 0b6b 6bbf 013c 38bf 8527 44bf
00000090: 8fdb 4a3f 4ea6 d33e a81b c13d 5a1b d8bf
000000a0: 93b9 a53f 39f2 3ac0 3f84 bdbd 36c7 af3f
000000b0: 123b e83e 4dce 1ebf d39a 97be e5e6 a4be
000000c0: 86a6 4abe 2c56 313e fea4 b03f ed96 a2bb
000000d0: 68ce a5bf 2271 b13e 8738 94bf 9f22 6b3f
000000e0: c451 15bf 83cb 803f 9f28 e4be df96 243f
000000f0: fe2c 9abd f589 9b3f a77b e8be 50c9 2b3f
00000100: 8669 ca3f
1.7604178 1.2670972 0.30590567 0.0341278 0.41913807 -0.5385159 1.1484159 1.9060115
-1.7120278 0.61202717 0.035557214 0.6893854 0.026234254 1.3327323 1.0592542 1.5574504
0.96847767 -0.45052254 -0.4865131 0.06942516 -0.7794646 -1.0847453 0.49249494 2.543904
1.3672091 0.96396637 -0.25505 0.3875307 1.0631324 0.9970302 -0.35096154 0.16158251
0.22645935 -0.9196021 -0.7196656 -0.766228 0.7924127 0.41337818 0.09429103 -1.6883347
1.2947258 -2.921034 -0.092537396 1.3732669 0.45357567 -0.6203354 -0.2961031 -0.3220741
-0.19790086 0.17318028 1.3800352 -0.0049618394 -1.2953615 0.34656626 -1.1579751 0.918497
-0.5832789 1.0062107 -0.4456224 0.6429271 -0.07528113 1.2151476 -0.4540684 0.67104053
1.5813453

fc_final1.weight f4 [64, 128]
00000000: f262 babd 86fe 0cbd 8e57 8abd 6371 91bc
00000010: 68d1 07bc 7797 483d 1aaf 293e ae71 14bd
00000020: bc75 12bc 858f 52bb 0c9a 21bd ceb4 ca3d
00000030: 0d55 263d 21bd 50bd df68 f53c 31b8 c23a
00000040: e0dc dd3b c406 6e3d d466 f7bc 9eab 293d
00000050: d242 ac3c e580 e0bc 1421 07bc dd15 343c
00000060: 6f31 ae3d 77ea 743d f740 a8bd 224b 48bd
00000070: 288c 94bc 787e 1b3d 782d d73c 00f0 18be
00000080: 8b56 febd e8aa 7abd b3b7 a2bc f227 07bc
00000090: bdf3 133d 357b dd3c 6565 963d 06e1 283d
000000a0: 8e27 43bd 0362 92bd ec91 9abd 5889 1f3d
000000b0: 741b a93c 8920 a5bc d965 1abc 2b86 66bc
000000c0: 520f 31bd c8f1 87bd ea5f f8ba 68df ddbb
000000d0: ef55 f23c b408 ad3d 9374 1c3d 9fe2 10be
000000e0: afe4 d9bd 6497 35bd 7e2b e8bc 8168 33bd
000000f0: c440 61bd 841e e4bc acaa 533d 06f6 513d
00000100: 9b47 cc3c 45d8 c6bb 0a12 b0bc 22f7 023d
00000110: 692c af3d f944 87bc 7d7d 8abd ac56 333d
00000120: b216 ea38 f7cd d33d 1668 0bbd 573d 84bc
00000130: bf91 173c ee44 963c 35be cebc 888f 3cbc
00000140: 0d97 cbbd 178e b03c 13b2 25bd e3ba a2bd
00000150: 630d bb3c 96c6 3e3d a472 ef3c bf2b 273d
00000160: b427 ffbd e62d 5ebd e21e 5c3d 3287 45bd
00000170: 7bd5 6dbd 6330 c5bd 3bda 6f3d 1766 193a
00000180: 40fd 9e3c 0e46 61bd 3a6b 9b3d 108f 893d
00000190: 47df c0bb 4884 18bd 7ee8 31bd d8c9 4c3d
000001a0: c59d 92be 1afb 9bbd 0b01 f9bb 7be8 70be
000001b0: b4d9 3bbd 9609 cc3d b8f2 99bd af0c ab3d
000001c0: 8ca9 033e 172a f13c 04d2 023d fd97 2bbd
000001d0: d4ea 98bd dbfd 903c b11b 16be 4d02 583d
000001e0: d320 90bd 3578 053d 78bb 93bc 3538 20bb
000001f0: 1e07 943d d53c 983d 817b 853c 8b71 253d
00000200: 5b9d a9bd da67 7fbd de47 64bc 7514 703d
00000210: 9c95 a8bd 15e2 2a3c 250a bc3d f906 9d3c
00000220: 4f55 f1b9 77ae 8dbc bfcb ab3d c243 bbbb
00000230: ab9a a53d f9b3 ac3d b82d 3abd d200 353e
00000240: e346 693d 6e7b 05bd ec5b 6fbc 6aff c6bc
00000250: e489 16bc ad6f 99bb 1f22 c8bd 55d4 97bb
00000260: 6ee4 7cbd 9b35 323b a4ae a3bd 9502 3cbd
00000270: e722 a23d 6a98 113e f25b bd3d c177 ea3d
00000280: b221 853b 1a2a b0bd 3b3a 60bd 9694 b73c
00000290: ead9 4f3d 5480 08bd 6ace 0d3d aa72 52bd
000002a0: 90e0 6abd 3956 d3bd 1ade f1bc 66b0 0ebd
000002b0: 8b79 dabd c89b 81bc 9ea0 fa3c bf23 6fbd
000002c0: ece5 033e 74ef 78bd ebd8 6dbd e1ae ee3c
000002d0: b98f b83d f0cf 80bc 36e5 5fbd 5e63 0bbd
000002e0: cd16 a9bd 4dca 01bc ab0e 3f3d d6ff cfbd
000002f0: 3cc9 47bd 3f90 ccbd c2fc a03d ced4 e53d
00000300: 93e8 5abd fd7d 313c 4ee9 55ba 25dd 44bd
00000310: 40d7 f03d fbcb 12bc 23d5 713d 64af f53d
00000320: c4de 23bd 2bc3 883c dbf1 9ebd 95b1 1cbd
00000330: 6185 103b ee26 f3bc f464 f639 519a 8ebc
00000340: f6da 823a a440 1bbd 356e a03d 2244 973c
00000350: a712 31bd 018c 27bd bcd5 463b c9f3 883d
00000360: 36cd e9bd 4d41 50be 12c8 8a3d cca6 683d
00000370: f14b 183d e735 44bd bc76 a83c 052d 9abb
00000380: e554 153d 607e f23d 9699 883d 4c4e 2a3d
00000390: f5b1 393d 02a5 dcbc f0f7 f8bc efa3 573d
000003a0: 5af5 a4bd c3d4 11bc 54cb 383d b927 02bd
000003b0: 0024 783d aece be3d 8b07 2e3d db6e f03d
000003c0: 7714 8b3d fa0d c5bd 3601 3b3e 9715 0dbd
000003d0: b568 82bd fad7 34bd 1d9b 8dbd 9ef7 4dbc
000003e0: 31f5 d13d 7341 09bc 2066 b6bd c990 73bd
000003f0: caa1 573d 7ae0 033e f175 4abc 4011 71bd
-0.091009036 -0.03442242 -0.06754981 -0.017754262 -0.008289672 0.048972573 0.16570702 -0.036241226
-0.008939203 -0.0032129001 -0.03945355 0.09897767 0.040608454 -0.050961617 0.029957233 0.0014855919
0.006770715 0.05811192 -0.0302004 0.041423433 0.021027956 -0.027405212 -0.0082476325 0.010991541
0.085055225 0.059793916 -0.08215516 -0.048899777 -0.018133238 0.037962407 0.026266798 -0.14935303
-0.124188505 -0.061198145 -0.019862985 -0.00824927 0.03612112 0.027036289 0.07343558 0.041230224
-0.047645144 -0.071476005 -0.07547364 0.03894934 0.020642973 -0.020157116 -0.009423696 -0.014070074
-0.0432275 -0.06637913 -0.0018949483 -0.006771017 0.029581992 0.084489256 0.03819711 -0.14148949
-0.10639321 -0.04433383 -0.028341051 -0.043800835 -0.054993406 -0.027846582 0.051676437 0.051260017
0.024936488 -0.006068262 -0.021492977 0.031973965 0.085533924 -0.01651238 -0.06762216 0.04378383
0.00011162217 0.10342019 -0.03403481 -0.01614253 0.009251057 0.018343415 -0.025237182 -0.01150883
-0.0994092 0.021552129 -0.040453028 -0.07945802 0.022833532 0.046576105 0.02922947 0.040813204
-0.12458745 -0.05424299 0.05374039 -0.048224635 -0.05806492 -0.0962837 0.05855773 0.00058516994
0.019407868 -0.05499845 0.07588811 0.0671674 -0.0058859917 -0.03723553 -0.043434612 0.04999718
-0.28635994 -0.07616253 -0.0075990013 -0.23526184 -0.045861915 0.09962766 -0.07516998 0.083520286
0.12857646 0.029439015 0.031938568 -0.041892994 -0.07466665 0.017699173 -0.14659001 0.05273657
-0.07037511 0.03258534 -0.018033728 -0.0024447565 0.0722792 0.07433478 0.016294243 0.040391486
-0.08281966 -0.0623549 -0.01393315 0.05861326 -0.08231661 0.010429879 0.091816224 0.019168364
-0.00046030662 -0.017295105 0.08388471 -0.0057148645 0.08086141 0.084327646 -0.045453757 0.17676094
0.05695237 -0.032588415 -0.014609318 -0.024291713 -0.009188149 -0.0046825022 -0.09772133 -0.0046334662
-0.061741285 0.0027192596 -0.079922944 -0.0459009 0.07916813 0.14218298 0.09246053 0.114486225
0.0040628547 -0.0860178 -0.054743033 0.022409718 0.05074493 -0.03332551 0.03462068 -0.051378883
-0.057343066 -0.1031918 -0.029524852 -0.034836195 -0.10667714 -0.015821353 0.030594166 -0.0583837
0.12880677 -0.060775235 -0.058068197 0.029136123 0.09011788 -0.015724152 -0.054661952 -0.03403031
-0.08256302 -0.007921767 0.046644848 -0.10156219 -0.048775896 -0.0998845 0.0786071 0.1122223
-0.053444456 0.010833261 -0.000816007 -0.048062462 0.11759806 -0.008959766 0.059041154 0.11996344
-0.040007368 0.016694626 -0.07760974 -0.038255293 0.0022052156 -0.029681649 0.00046995992 -0.017407568
0.0009983468 -0.037903443 0.0783352 0.018465105 -0.04323068 -0.040905003 0.0030339798 0.06687123
-0.11416094 -0.2033741 0.06776442 0.056799695 0.0371818 -0.047902968 0.02056443 -0.004705074
0.036457915 0.1184051 0.06669919 0.041578576 0.04533573 -0.02693415 -0.030391663 0.052646574
-0.080546096 -0.008900824 0.045115784 -0.031776164 0.060581207 0.09316765 0.042487662 0.11739894
0.06791013 -0.096218064 0.1826218 -0.034444418 -0.063676275 -0.044151284 -0.06914351 -0.012571244
0.10251845 -0.008377421 -0.089061975 -0.05946425 0.05264453 0.128786 -0.012357221 -0.05885434

fc_final1.bias f4 [64]
00000000: 428c 81bc ecf0 e7bc dec6 e03c 4276 a33b
00000010: 3ce4 cabc e214 b8ba e758 793d d50c 9f3c
00000020: 7283 07bc 5a71 9c3b 3cdc 84bc eef9 4a3d
00000030: 7f5f 3b3b d622 ab3c 6807 903b cfc0 29ba
00000040: b067 18bd ab01 db3b 50ed 88bc 8334 1ebc
00000050: 0380 68bd 95b3 f83a d820 3f3c df1d dabc
00000060: 62eb f0bc df09 1239 56f8 273b 1cc7 3b3c
00000070: 35c4 843d bba3 8d3b c410 523d 5bf8 0cbd
00000080: b4c5 23bd 6ff2 023d 404f ecbc da8f b83c
00000090: d9da 733d 2459 a3bc 278a 47bd faf3 f6bb
000000a0: 62d0 b43c c35c 473c 356f 9d3c ba16 7f3c
000000b0: 0c1e 173d 2b9d e93b e008 2bbd 4a8d 943c
000000c0: f631 a43c 42c0 06bd 1410 b1bc 8c76 f8bc
000000d0: d2af 96bc 233a 43bd 5ab6 96bc a3c9 96bd
000000e0: e852 b03c 153f 103d 442b b4bc b538 75bb
000000f0: 12ca 5a3d e99a ea3c 9cd7 99bc f34e a0bc
-0.01581395 -0.028313123 0.027438577 0.0049884627 -0.024767034 -0.001404431 0.0608758 0.019415298
-0.008271085 0.0047742547 -0.016218297 0.049554758 0.0028590856 0.020890635 0.004395414 -0.0006475569
-0.03720826 0.0066835484 -0.016714722 -0.009656074 -0.056762706 0.0018974418 0.011665545 -0.026625572
-0.029409114 0.00013927322 0.0025630197 0.011461046 0.06482736 0.0043224967 0.05128552 -0.034416538
-0.039983466 0.031969484 -0.028846383 0.022529531 0.05953488 -0.019939966 -0.048715737 -0.0075364085
0.02207202 0.012168112 0.019218067 0.015569383 0.03689389 0.0071293316 -0.04175651 0.018133778
0.020043354 -0.032898195 -0.021614112 -0.030329965 -0.018394385 -0.047662865 -0.018397499 -0.07362678
0.021523908 0.03521641 -0.021993287 -0.0037417833 0.053415366 0.02863832 -0.018779568 -0.019568896

fc_final2.weight f4 [1, 64]
00000000: 942b 76ba e202 603b 7099 993a b971 e8ba
00000010: 9f5d 0eba b23f 86bb e5a1 4f3e 4428 213a
00000020: 9dca 7b38 6344 c73b 07e3 8c39 8126 ffbb
00000030: ad67 52bb e8f6 31bb db5f 74bb 46be 28bb
00000040: 1080 89ba 1acb 6d3b 7d96 0dbb c302 abba
00000050: e32b aeba b36c b339 c8fa 9b3b 1a57 8bb8
00000060: c27f fb3a 7850 c5ba 3895 f7ba fb0d a43b
00000070: 1360 9cb9 c42f 2dbb acfc 2aba c139 be3b
00000080: 2f19 acbb 2f8b e3bb d377 a7ba 4eb1 a3bb
00000090: fa58 793c 4acd 4739 49f5 19b8 7b50 dc3b
000000a0: c4b9 6c3b 3378 113c 6110 b73a 942d 1039
000000b0: e7ef f6bb fec8 b9b9 a235 b539 94be 02bb
000000c0: ce47 303b 764f 58bb aaa7 9f3a f081 54bb
000000d0: 2d5f cfb9 9cb8 3dbb 4828 423b a413 963b
000000e0: 1599 0dbb 8b0b e03a 4ca0 b539 29f5 d83b
000000f0: 5aa6 2ebc 607d 953a f7c8 16b9 023d 4fbb
-0.0009390649 0.0034181406 0.0011718702 -0.0017734087 -0.0005430821 -0.0040969485 0.20276602 0.00061476626
6.003176e-05 0.0060811504 0.0002687203 -0.0077865724 -0.0032105253 -0.0027155224 -0.003728858 -0.0025748177
-0.0010490436 0.0036284388 -0.002160459 -0.0013047088 -0.0013288226 0.00034222528 0.00476012 -6.6442604e-05
0.0019187855 -0.0015053889 -0.0018889075 0.0050065494 -0.0002982622 -0.0026426176 -0.00065226364 0.0058052246
-0.0052520256 -0.006944082 -0.0012776799 -0.0049955016 0.015218968 0.00019054595 -3.6706482e-05 0.006723461
0.0036121467 0.008878755 0.0013966673 0.0001374989 -0.007535923 -0.000354357 0.0003456297 -0.001995002
0.0026898268 -0.0033006347 0.0012180705 -0.0032426082 -0.00039553028 -0.0028949147 0.002962606 0.004579978
-0.0021606137 0.0017093284 0.0003464244 0.0066210222 -0.0106597785 0.0011405163 -0.0001437998 -0.0031622057
