weights_new/DecoderEpochnew250_20_8.pt (torch_old, 461850 bytes, 33 tensors)

attn_layer.0.weight f4 [64, 192]
0	0x3f82df80	1.0224457
1	0x3fba7d87	1.4569558
2	0x3eb3367a	0.350025
3	0xbed14fc0	-0.40881157
4	0xba03bc65	-0.00050253264
5	0x3e063d75	0.13109381
6	0xbf229cc3	-0.6352045
7	0xbf1a91c9	-0.603787
8	0x3f37420b	0.7158515
9	0x3f26e02a	0.651858
10	0xbf33807e	-0.7011794
11	0x3f127453	0.57208747
12	0x3ebeba1e	0.3725137
13	0x3f0bebc4	0.54656625
14	0xbb9850ad	-0.004648289
15	0x3f94f523	1.163731
16	0x3ecb3117	0.3968589
17	0x3ed8b0df	0.42322442
18	0xbf444aad	-0.76676446
19	0xbe1f6474	-0.15565664
20	0x3f148484	0.580147
21	0x3f4ff902	0.8123933
22	0x3f1ead84	0.61983514
23	0x3e1c6ed4	0.15276653
24	0xbe938b37	-0.2881715
25	0x3f1abe54	0.6044667
26	0x3eb9c409	0.36282375
27	0xbccd9c28	-0.025098875
28	0x3ef191b2	0.4718147
29	0xbf4636ae	-0.77427185
30	0x3f6c8de1	0.9240399
31	0xbf259b28	-0.64689875
32	0x3f2f5d91	0.68502146
33	0x3f351b70	0.7074499
34	0x3f46daf6	0.7767786
35	0xbf299ced	-0.66255075
36	0x3f39c437	0.72565025
37	0xbe92bc82	-0.28659445
38	0x3e70fe3b	0.23534481
39	0xbf9ff55c	-1.2496753
40	0x3e20dbdb	0.15708868
41	0x3f2dae06	0.67843664
42	0x3f458df1	0.7716971
43	0x3db9eeb1	0.0907873
44	0x3f98b1bb	1.1929239
45	0xbfa73115	-1.3061854
46	0x3f376fe5	0.7165511
47	0xbefb5155	-0.4908549
48	0x3f490669	0.78525406
49	0x3f09dabc	0.5384939
50	0x3e809746	0.25115412
51	0x3f4c2faf	0.7976026
52	0xbf7a44e0	-0.97761345
53	0x3f5faa72	0.87369454
54	0x3ed07744	0.40715992
55	0x3f6a658a	0.91561186
56	0xbe24a2af	-0.16077684
57	0xbf4bc7ff	-0.79602045
58	0x3f615da3	0.88033503
59	0x3f4dc037	0.8037142
60	0x3eceb268	0.40370488
61	0x3f6198c6	0.8812374
62	0x3cb80f1a	0.022468138
63	0xbf219c2e	-0.63128936
64	0x3fadeaf9	1.3587333
65	0x3fc8a9ba	1.5676796
66	0x3db7338a	0.08945377
67	0xbed7a4a1	-0.4211779
68	0x3c37fd8f	0.011229887
69	0x3e45dccd	0.1932251
70	0xbf1b3694	-0.60630155
71	0xbf1fd2c8	-0.62431
72	0x3f50d982	0.8158189
73	0x3f10bac6	0.56534994
74	0xbf49a076	-0.7876047
75	0x3ead835b	0.3388928
76	0x3e310240	0.17286015
77	0x3ef921f1	0.48658708
78	0xbe2cc128	-0.16870558
79	0x3f9ee3e3	1.2413296
80	0x3e8df5d1	0.27726606
81	0x3efad1f9	0.4898832
82	0xbf790e5e	-0.9728755
83	0xbe82aea3	-0.25523862
84	0x3f78a180	0.9712143
85	0x3f8c9841	1.0983964
86	0x3f34d513	0.70637625
87	0x3df533b4	0.11972752
88	0xbea827ec	-0.32842958
89	0x3f103115	0.56324893
90	0x3ebe57bd	0.37176314
91	0xbe8a8218	-0.2705238
92	0x3ebfe02d	0.3747572
93	0xbf0ddedb	-0.55418175
94	0x3f2fdfc2	0.687008
95	0xbf2a10d7	-0.66431946
96	0x3f1e60c6	0.61866415
97	0x3f375394	0.71611905
98	0x3f39ae1e	0.72531307
99	0xbf4f672b	-0.81016797
100	0x3f47c006	0.7802738
101	0x3e88c37e	0.2671165
102	0x3e5e89d8	0.2173227
103	0xbf9f3829	-1.2439014
104	0x3e3e1621	0.18563129
105	0x3f00f670	0.50376034
106	0x3f2d9c3b	0.67816514
107	0x3d80e60d	0.06293879
108	0x3fa15972	1.2605422
109	0xbfbd817f	-1.4805144
110	0x3f1ea38d	0.6196831
111	0xbf100e0b	-0.5627143
112	0x3f451b34	0.76994634
113	0x3ea0da7e	0.31416696
114	0x3d48d02a	0.049026646
115	0x3f696466	0.9116882
116	0xbfccdaaf	-1.6004237
117	0x3f4a6a1d	0.79068166
118	0x3ea8f46d	0.32998982
119	0x3f13735b	0.57597893
120	0xbeb77d9c	-0.3583802
121	0xbf2d6757	-0.6773581
122	0x3f452a15	0.7701734
123	0x3f70e8e5	0.9410537
124	0x3f139c01	0.5765992
125	0x3f8522c3	1.0401233
126	0x3ec67546	0.38761348
127	0xbf557784	-0.8338549
128	0xbefbc3d5	-0.49172845
129	0xbd3f39f4	-0.046686128
130	0xbe4fdec0	-0.20299816
131	0x3cc39981	0.023876907
132	0xbd0fd6b6	-0.035116874
133	0xbf28f43a	-0.6599766
134	0xbe75f7ae	-0.24020264
135	0x3f187907	0.59559673
136	0xbeb71de1	-0.35764983
137	0x3e42d021	0.19024707
138	0x3e7107c5	0.2353812
139	0xbdbac819	-0.09120197
140	0x4010c4bd	2.262008
141	0xbeabd3c3	-0.3356
142	0xbe3e3f78	-0.18578899
143	0xbe7f2ab4	-0.24918634
144	0x3ed26b4d	0.4109749
145	0xbdb5e647	-0.088818125
146	0x3e3367eb	0.1752011
147	0x3ba8723d	0.0051405714
148	0xbf3c5f6b	-0.73583096
149	0xbf29da51	-0.6634875
150	0x3f274864	0.65344834
151	0x3f25b902	0.64735425
152	0x3e15d19f	0.14630745
153	0x3e9ab1d8	0.3021381
154	0x3e1b5a8a	0.15171257
155	0xbf2a42a3	-0.6650793
156	0xbf6961d5	-0.91164905
157	0xbdd67ddd	-0.10473225
158	0x3f794fa8	0.9738717
159	0xbca975b7	-0.020686014
160	0x3fa479b9	1.2849647
161	0xbe1f10cd	-0.15533753
162	0x3eb699d2	0.3566423
163	0x3d916ef1	0.071012385
164	0x3ce7e6c6	0.028308284
165	0xbe280f01	-0.16411974
166	0x3ef53d3a	0.47898275
167	0x3e1af2af	0.15131639
168	0x3eba9f7d	0.36449805
169	0x3de742ea	0.1129206
170	0xbd22c54a	-0.03973893
171	0x3f11a07d	0.5688551
172	0x3e5af051	0.21380736
173	0xbdef3755	-0.116804756
174	0xbe1edf5f	-0.15514897
175	0x3e3b8474	0.18312246
176	0x3e6d07b8	0.23147476
177	0x3d4b161b	0.04958163
178	0x3f0c04b3	0.5469467
179	0xbc1d3a98	-0.009596489
180	0xbe0827b9	-0.13296403
181	0xbc66e534	-0.014092732
182	0xbd7be899	-0.06150112
183	0xbd73638e	-0.059421115
184	0x3eb3f259	0.35145834
185	0xbd312b7d	-0.043254364
186	0x3c8d9f93	0.017288005
187	0xbd1d5611	-0.038412157
188	0xbeb60ecf	-0.35558173
189	0x3eaf4bd4	0.3423754
190	0xbebabc28	-0.36471677
191	0xbea7ecf6	-0.32797974
192	0x3e5a65fa	0.21327963
193	0x3b9ab930	0.004721783
194	0xbeff6fe8	-0.49890065
195	0x3e0b256b	0.13588493
196	0xbdeb20da	-0.11480875
197	0x3f5c11cb	0.8596465
198	0xbf37e483	-0.71833056
199	0x3eea1e81	0.45726398
200	0x3e96e0a9	0.29468277
201	0xbf340e6d	-0.7033451
202	0x3f3dfb10	0.74211216
203	0x3ea81c67	0.3283417
204	0xbf77481d	-0.9659441
205	0xbecda4fc	-0.40164936
206	0xbeb6ff1d	-0.3574151
207	0xbe7234bc	-0.23652929
208	0xbebb0f3d	-0.36535063
209	0xbf3f1424	-0.7464011
210	0x3f3a72d3	0.7283146
211	0x3f287d0e	0.6581582
212	0x3f7bd5f9	0.9837337
213	0x3dfc9a9f	0.12334179
214	0xbf65acf1	-0.8971701
215	0x3ed307cb	0.41216883
216	0x3f1f2f2e	0.62181365
217	0xbf400ed4	-0.75022626
218	0xbc68a50f	-0.014199509
219	0x3f424e34	0.7590058
220	0x3e767bbd	0.2407064
221	0x3f6690af	0.9006452
222	0xbf078050	-0.52930164
223	0x3f004853	0.5011036
224	0xbf7938bc	-0.97352195
225	0xbf0af14c	-0.5427444
226	0xbf2f9225	-0.68582374
227	0x3f1a351c	0.6023729
228	0xbf821b4a	-1.0164578
229	0x3f641a7b	0.89102906
230	0x3e628f70	0.2212503
231	0x3f480b5f	0.7814235
232	0xbf0fcc7d	-0.561714
233	0xbf485014	-0.7824719
234	0x3e212024	0.15734917
235	0x3e381997	0.17978512
236	0x3e5486cd	0.20754547
237	0xbe8b92fa	-0.27260572
238	0xbef03af0	-0.46919966
239	0x3f444f13	0.7668316
240	0x3e7debf6	0.24797043
241	0xbf0d4f45	-0.5519908
242	0xbeee7e90	-0.46580935
243	0xbf3bee48	-0.73410463
244	0xbed6f91a	-0.41986924
245	0xbf80d54d	-1.0065094
246	0xbf4fbd27	-0.81148
247	0xbf94f1bf	-1.1636275
248	0xbf41cc61	-0.7570248
249	0x3e4c9108	0.199772
250	0xbd809498	-0.06278342
251	0xbf5d917f	-0.86550134
252	0xbe3f6048	-0.18689072
253	0x3ea97ddd	0.3310384
254	0x3f8d9cfa	1.106353
255	0x3f3717e8	0.71520853

attn_layer.0.bias f4 [64]
0	0x3e2b4d88	0.16728795
1	0x3ef349b0	0.47517157
2	0x3e9b5eb4	0.3034569
3	0xbf9b49f4	-1.2131944
4	0x3f864f47	1.0492944
5	0xbefb4101	-0.49073032
6	0x3d2fc5bd	0.042913187
7	0xbf1a1cb1	-0.6020003
8	0x3f5729e9	0.84048325
9	0x3edcf39b	0.43154606
10	0x3ef20789	0.47271374
11	0x3e8af737	0.27141735
12	0xbdd0af84	-0.10189727
13	0x3eb6b12b	0.35682043
14	0x3ee29215	0.44252077
15	0xbf1fad32	-0.6237365
16	0xbee6afd2	-0.45056015
17	0x3ea48148	0.32129884
18	0x3f01e6ea	0.5074297
19	0x3e2f9718	0.17147481
20	0x3f0ab805	0.5418704
21	0x3e01bac7	0.12668906
22	0x3f3a6009	0.7280279
23	0xbfaf7d11	-1.3710042
24	0xbf6ef078	-0.93335676
25	0xbeaebfeb	-0.34130797
26	0x3ef489be	0.4776134
27	0xbd2d07d9	-0.042243812
28	0x3d8c7491	0.06858171
29	0x3edf8ab9	0.43660524
30	0xbea8c1e0	-0.32960415
31	0x3f13d860	0.5775204
32	0x3f3fa5c5	0.7486232
33	0xbeaf62bb	-0.34255013
34	0x3e0ee566	0.13954696
35	0x3eb641d8	0.3559711
36	0x3e05e59e	0.13075873
37	0x3e4ea111	0.2017863
38	0xbe4ef27c	-0.20209688
39	0x3ecdfb12	0.40230614
40	0x3e5b5013	0.21417265
41	0x3ecd3c62	0.4008513
42	0x3fb8ad61	1.4427911
43	0xbf0f6df3	-0.56027144
44	0x3f3c9aa9	0.7367349
45	0x3ea09f8a	0.3137172
46	0x3ea8f150	0.32996607
47	0xbe2eaac4	-0.1705733
48	0x3e9d20b4	0.30689013
49	0xbf09acb7	-0.53779167
50	0xbf9c4858	-1.2209578
51	0xbf45d7f5	-0.7728265
52	0xbec18730	-0.37798452
53	0x3eadf65a	0.33977014
54	0xbdbe4f36	-0.09292452
55	0xbb39d909	-0.0028358123
56	0x3cb03171	0.02150795
57	0xbeb834c1	-0.35977748
58	0x3cce5642	0.025187615
59	0xbda6ec87	-0.08150583
60	0x3d0876f6	0.033316575
61	0xbf0338e7	-0.512587
62	0xbe81188c	-0.2521404
63	0xbec0f243	-0.3768483

attn_layer.2.weight f4 [1, 64]
0	0x3f386e2d	0.72043115
1	0xc005b42b	-2.0891216
2	0xbfcdb862	-1.6071894
3	0x3fbe29d3	1.4856514
4	0xbfcdee7c	-1.6088405
5	0xbf3b68fc	-0.7320707
6	0x3f001e5b	0.5004632
7	0x3f98e82b	1.1945852
8	0xbfafe482	-1.374161
9	0xbf943892	-1.1579764
10	0xbedcf8ae	-0.43158478
11	0xbfa0fe37	-1.257758
12	0xbf9ec742	-1.2404559
13	0xc003ba2f	-2.0582387
14	0xbf389fc3	-0.7211878
15	0x3f8c96a9	1.0983478
16	0x3f037bc4	0.51360726
17	0xbfb5d819	-1.4206573
18	0xbf6c61bc	-0.9233663
19	0xbf2327a4	-0.6373236
20	0xbf9550bc	-1.1665263
21	0xbf0e51d0	-0.55593586
22	0xbfd92aa3	-1.6966137
23	0x3f8bce68	1.0922365
24	0x3fcb06dc	1.5861468
25	0xbe897133	-0.26844177
26	0xbfa9effa	-1.327636
27	0xbf384907	-0.7198643
28	0xbf264bf6	-0.6495966
29	0xbfda0b2b	-1.7034658
30	0x3fad7de3	1.3554043
31	0x3eff904d	0.4991478
32	0xbfbdfff2	-1.4843733
33	0x3fb12bb5	1.3841463
34	0x3e06dfc3	0.13171296
35	0xbf51f5ea	-0.8201586
36	0xbed68b8a	-0.41903335
37	0xbf48f429	-0.7849756
38	0x3f435d23	0.7631399
39	0xbfa2c445	-1.2716147
40	0x3f6eb5bb	0.9324605
41	0xbf37ab4c	-0.71745753
42	0xbfeffa09	-1.874818
43	0x3f3e9cf7	0.7445826
44	0xbf903eb8	-1.126914
45	0xbef7a75d	-0.48369876
46	0xbfa66bda	-1.3001664
47	0x3fbacfc8	1.459466
48	0x3f842f30	1.03269
49	0x3f9339cf	1.1502017
50	0x3fe317e2	1.7741663
51	0x3fb3983e	1.4030836
52	0x3f1c9ad9	0.6117378
53	0xbf039987	-0.5140614
54	0x3f98b05f	1.1928824
55	0x3f58230f	0.84428495
56	0x3c4f5d4e	0.012656523
57	0xbf89c9ac	-1.076467
58	0xbec80105	-0.39063278
59	0x3ec6eeb1	0.38853982
60	0x3ebbb743	0.36663255
61	0x3fb409ab	1.406545
62	0xbfa09efd	-1.2548519
63	0x3f7248a6	0.946421

lstm_layer.weight_ih_l0 f4 [256, 1]
0	0xbec77944	-0.38959706
1	0x3eea06e6	0.45708388
2	0x3e807080	0.2508583
3	0x3f644705	0.8917087
4	0x3f9bb53e	1.2164686
5	0xbf4b115f	-0.7932338
6	0x3f6531a6	0.8952888
7	0x3e05409d	0.1301293
8	0xbf1439b5	-0.57900554
9	0xbf0a84d4	-0.5410893
10	0x3efd252c	0.49442422
11	0xbf26c60b	-0.6514594
12	0xbf2af406	-0.667786
13	0xbe34d60c	-0.17659777
14	0x3f6f0c43	0.93378085
15	0x3e115770	0.14193511
16	0x3eadb90c	0.33930242
17	0x3f186743	0.59532565
18	0x3f2045e8	0.6260667
19	0xbe2b4fc5	-0.16729648
20	0x3fa5ef79	1.2963706
21	0x3e1c98de	0.15292689
22	0x3eef3d31	0.46726373
23	0x3f0cecbd	0.55048734
24	0x3f17559a	0.5911499
25	0x3c09be68	0.008407213
26	0xbee2cfaa	-0.4429906
27	0x3f505e2e	0.81393707
28	0x3f9b308f	1.2124194
29	0x3eb7c918	0.3589561
30	0xbf2b3a77	-0.66886085
31	0xbe199cbc	-0.15001196
32	0x3f6d9ad8	0.928144
33	0x3f1e7812	0.6190196
34	0x3ed082dc	0.40724838
35	0x3e253ef5	0.16137297
36	0x3f7acafc	0.9796598
37	0xbfa12c74	-1.2591691
38	0xbeea7529	-0.4579251
39	0xbf5e3dc2	-0.86812985
40	0x3f2eb0f9	0.6823879
41	0x3f22a736	0.63536394
42	0xbe3a5736	-0.18197331
43	0xbece4022	-0.40283304
44	0x3f5b993a	0.8578068
45	0xbe93bc02	-0.28854376
46	0x3f040c82	0.51581585
47	0x3f0aa07f	0.5415115
48	0x3f9b0c80	1.211319
49	0x3f62fe90	0.8866968
50	0x3ef5adb7	0.47984096
51	0x3f16a841	0.58850485
52	0x3f3c81a4	0.73635316
53	0x3e57a190	0.21057725
54	0x3e536e6b	0.2064759
55	0x3f194aad	0.5987957
56	0x3f0651a4	0.52468324
57	0x3f2b5063	0.66919535
58	0x3f3ed1eb	0.7453906
59	0x3d264845	0.040596265
60	0x3f776587	0.96639293
61	0x3f85ab45	1.0442892
62	0x3fd5b9ef	1.6697367
63	0x3e4fb290	0.2028296
64	0x3c98baaa	0.018643696
65	0x3d9b68a6	0.075883195
66	0x3e18a932	0.14908293
67	0x3ee6686b	0.4500154
68	0x3eb2f47f	0.3495216
69	0xbe84ad28	-0.25913358
70	0x3f73d4ef	0.95246786
71	0x3f7bcbb0	0.9835768
72	0x3e9fd2f8	0.31215644
73	0xbef24f24	-0.47326005
74	0xbe6f7c37	-0.23387228
75	0xbe77e587	-0.24208651
76	0x3d271cc3	0.040798914
77	0x3f31bac0	0.6942558
78	0x3e4f6fb4	0.20257455
79	0x3ec0652e	0.37577194
80	0x3e924707	0.28569815
81	0x3ebe9b2b	0.3722776
82	0x3e649504	0.2232247
83	0x3dfb6b3b	0.12276312
84	0x3f18d134	0.5969422
85	0x3eb6edae	0.3572821
86	0xbe78c669	-0.24294437
87	0x3e93b32a	0.2884763
88	0xbc5adc2c	-0.013358157
89	0xbed4a5e3	-0.41532812
90	0x3ed4c333	0.41555175
91	0x3ebfc2a2	0.3745318
92	0x3ec55e6d	0.38548604
93	0xbeebddca	-0.4606765
94	0xbf1b9c9a	-0.6078583
95	0xbf8a0d44	-1.0785298
96	0x3f4ca360	0.7993679
97	0x3d74e2e1	0.05978668
98	0x3da1ea17	0.07905977
99	0x3dd1739c	0.10227129
100	0x3ed71438	0.42007613
101	0xbf587edf	-0.8456859
102	0x3e2e3bfa	0.17015067
103	0xbf8aa26d	-1.0830818
104	0x3ef710d2	0.4825502
105	0x3e98b1bc	0.298231
106	0x3eabe4d2	0.33573014
107	0xbe7546b3	-0.23952751
108	0x3f1e9738	0.6194949
109	0x3efb1271	0.49037507
110	0xbe6d7023	-0.23187308
111	0x3ea1c83d	0.31598082
112	0x3f0851d2	0.5324985
113	0xbd842dc6	-0.06454043
114	0x3ec86b9b	0.39144596
115	0x3e961a55	0.29316965
116	0xbd83f48a	-0.064431265
117	0xbcdb9b95	-0.026807586
118	0x3f3f0612	0.7461864
119	0xbf9e0e84	-1.234818
120	0x3e78f6c6	0.24312887
121	0x3f7f9b35	0.998462
122	0x3f40281b	0.75061196
123	0x3f08b8f1	0.534072
124	0x3dc7ec4f	0.09761869
125	0x3ea5e76f	0.32403132
126	0x3fe59c97	1.7938412
127	0x3f1b5266	0.60672605
128	0x3dbaafdf	0.09115576
129	0xbe6dd1be	-0.23224542
130	0xbe862d09	-0.26206234
131	0xbf523a7b	-0.82120484
132	0xbf6a07c1	-0.9141808
133	0x3ec27797	0.37981865
134	0x3f41e134	0.7573426
135	0xbe19c79a	-0.15017548
136	0xbe6ff283	-0.23432355
137	0xbe52ba9a	-0.20578995
138	0x3e9d6e3a	0.3074816
139	0x3ddcff70	0.10790908
140	0xbedb97b2	-0.42889172
141	0x3e8604b3	0.2617546
142	0x3eeb0812	0.45904595
143	0xbedca7ba	-0.43096715
144	0xbed539cb	-0.41645655
145	0x3e457518	0.19282949
146	0x3eaa5da9	0.33274582
147	0xbe4a22cc	-0.19739836
148	0xbf422d6a	-0.75850546
149	0xbec949d2	-0.39314133
150	0xbe5fd8be	-0.21860024
151	0x3ee7a611	0.45243886
152	0x3ea61ee2	0.32445437
153	0xbf0878d2	-0.5330936
154	0x3ed2c484	0.41165555
155	0x3e1f6d2d	0.15568991
156	0xbf343a25	-0.7040122
157	0x3e83a4d3	0.25711688
158	0xbe38712a	-0.18011919
159	0x3ecae075	0.39624372
160	0xbe332821	-0.17495777
161	0x3e1f8dd1	0.15581442
162	0xbf04bb6e	-0.51848495
163	0x3e05f5c3	0.13082032
164	0xbea2ccb7	-0.3179681
165	0x3e2496aa	0.16073099
166	0x3ebe65da	0.37187082
167	0xbea21ea8	-0.31664014
168	0xbebf5fdf	-0.3737783
169	0xbe34ccfe	-0.17656323
170	0xbed40d9f	-0.41416642
171	0xbe652b7e	-0.22379872
172	0xbea3621e	-0.31910795
173	0x3da2df53	0.07952752
174	0xbe47b035	-0.19500811
175	0xbc3c4d1a	-0.011492992
176	0xbf292967	-0.660788
177	0xbeffb425	-0.49942127
178	0xbea0ff16	-0.31444615
179	0xbead6c05	-0.33871475
180	0x3ef643f5	0.48098722
181	0x3defb867	0.11705094
182	0xbf6e5f3f	-0.93114084
183	0xbf9a5cf0	-1.2059612
184	0xbf545b85	-0.8295215
185	0x3ecb57f8	0.39715552
186	0xbe470f94	-0.19439536
187	0xbdedcd6a	-0.11611445
188	0xbf049f25	-0.51805335
189	0xbf4700f8	-0.77735853
190	0xbf805f04	-1.0028996
191	0x3f2b430a	0.6689917
192	0x3ec406ab	0.38286337
193	0x3ef11b61	0.470912
194	0x3eb216ca	0.34783012
195	0x3f894e5e	1.0727041
196	0x3fa01dab	1.2509054
197	0x3cfafb2c	0.030637346
198	0x3f14e1c3	0.58156985
199	0x3f2c21ca	0.6723906
200	0x3dee9eef	0.11651408
201	0xbda32764	-0.079664975
202	0x3f44414f	0.76662153
203	0xbecb0e68	-0.3965943
204	0x3e9472ac	0.28993738
205	0xbe6da4f5	-0.23207457
206	0x3f5b3c40	0.8563881
207	0x3f0411b0	0.5158949
208	0x3f2f594b	0.68495625
209	0x3ea38eb3	0.31944808
210	0x3f0ad067	0.54224247
211	0x3e78afd3	0.24285822
212	0x3ff74d3b	1.9320444
213	0x3f056376	0.5210489
214	0x3e945056	0.2896754
215	0x3fc8b4be	1.5680158
216	0x3f0f18b7	0.55897087
217	0xbe60fd11	-0.21971537
218	0x3f9a1fb2	1.2040923
219	0x3fae5797	1.362048
220	0x3f9fd6dc	1.2487445
221	0xbeb776ca	-0.35832816
222	0xbe776e76	-0.24163231
223	0xbe3c9071	-0.18414475
224	0x3f4f5f7c	0.8100507
225	0x3f120cd3	0.5705082
226	0x3e8c409c	0.27393043
227	0x3fbf4005	1.4941412
228	0x3e917d78	0.28416038
229	0x3e590331	0.21192624
230	0x3e74b259	0.23896159
231	0x3fb0d97a	1.3816369
232	0x3fa53ea5	1.2909743
233	0x3e9756ec	0.29558504
234	0x3c0e786f	0.008695706
235	0x3e186c29	0.1488501
236	0x3f8e7692	1.1129935
237	0x3e1ac03e	0.15112397
238	0x3df144fa	0.11780734
239	0xbe47b6ff	-0.19503401
240	0x3f929bcd	1.1453797
241	0x3f6545b2	0.8955947
242	0x3ec4cdbd	0.38438216
243	0x3f0e630c	0.55619884
244	0x3f1d5e9d	0.61472493
245	0x3ef61d3e	0.48069185
246	0x3e827e4b	0.2548698
247	0x3de66fbd	0.11251781
248	0x3f3ff967	0.7498993
249	0x3f4de6e9	0.80430466
250	0x3f9d8f5c	1.2309375
251	0x3ead12f3	0.3380352
252	0x3f9181ba	1.1367714
253	0x3f3e1223	0.74246424
254	0x3faeeba7	1.3665665
255	0xbf05dd9e	-0.52291286

lstm_layer.weight_hh_l0 f4 [256, 64]
0	0x3ecc370f	0.39885756
1	0xbd350d21	-0.044201974
2	0x3e940dfc	0.2891692
3	0x3e5c8f26	0.21538982
4	0x3d0c4c29	0.03425232
5	0xbe3ccd89	-0.1843778
6	0x3ebee01a	0.3728035
7	0x3c16d4a8	0.009205975
8	0x3e7349d0	0.23758626
9	0x3db16725	0.086622514
10	0xbedd7fe2	-0.4326163
11	0xbe887aa4	-0.26656067
12	0x3e4216a2	0.18953946
13	0xbdf98e50	-0.12185347
14	0xbe689b1e	-0.22715423
15	0x3ebb3591	0.36564305
16	0x3cd5342d	0.026025856
17	0x3e9534fe	0.29141992
18	0x3d652657	0.055944767
19	0xbdb7ea22	-0.08980204
20	0x3f0ecdb8	0.5578265
21	0x3e8730c1	0.26404384
22	0xbcc7629a	-0.02433901
23	0xbf01bfe5	-0.5068343
24	0xbef199ee	-0.47187752
25	0xbe865908	-0.262398
26	0xbe91e151	-0.28492215
27	0xbf171a98	-0.59024954
28	0xbf0d7ed5	-0.55271655
29	0xbe118061	-0.14209129
30	0x3d37f6f2	0.04491324
31	0xbd8d455b	-0.06897994
32	0xbd8200ae	-0.06347786
33	0xbedcb7ae	-0.43108886
34	0x3f00c576	0.503013
35	0xbecf08df	-0.40436456
36	0x3eddd0b8	0.43323302
37	0xbe2cc26d	-0.16871043
38	0xbe93643d	-0.28787413
39	0xbda54827	-0.080704026
40	0x3f2c46ad	0.6729534
41	0xbdc2711a	-0.09494229
42	0x3e9c94df	0.3058233
43	0x3e079988	0.13242161
44	0x3e22a00e	0.15881369
45	0x3dfcd006	0.12344365
46	0x3f583e65	0.84470206
47	0x3e5f4aa2	0.21805814
48	0xbf5b9cbb	-0.85786027
49	0x3da08f84	0.078398734
50	0x3eba8d26	0.36435813
51	0x3e36cbec	0.17851228
52	0xbf057ff5	-0.5214837
53	0xbf11e9f4	-0.5699761
54	0xbe5d1809	-0.215912
55	0xbc044e4d	-0.008075309
56	0xbe477117	-0.19476734
57	0x3f2b9122	0.6701833
58	0xbc7bee51	-0.015376643
59	0xbdf61f90	-0.12017739
60	0x3e419a8b	0.1890661
61	0xbe51f0af	-0.2050197
62	0xbcc2e063	-0.023788637
63	0xbe21199d	-0.15732427
64	0x3e9d0c28	0.30673337
65	0xbe5c6889	-0.21524252
66	0xbd523d74	-0.051328138
67	0xbea55d38	-0.32297683
68	0xbebb7c77	-0.36618397
69	0x3e3eb4e7	0.18623696
70	0x3eb16a09	0.3465121
71	0xbeb8ab36	-0.36068124
72	0x3ed35256	0.41273755
73	0x3e7c5e04	0.24645239
74	0x3d7c30cd	0.061569978
75	0x3e7e614e	0.24841806
76	0x3f0ca037	0.5493197
77	0x3e0e0474	0.13868886
78	0xbdef5e84	-0.11687949
79	0x3ec8c5e0	0.39213467
80	0xbe4537d7	-0.19259582
81	0xbdd767d3	-0.1051785
82	0x3eed6393	0.46365032
83	0x3edee6b1	0.4353538
84	0x3eb5b981	0.3549309
85	0x3f0dc934	0.55385137
86	0xbebe86c5	-0.37212196
87	0x3de73cdf	0.11290907
88	0x3d4bd849	0.049766812
89	0xbe3875a0	-0.1801362
90	0xbef4e74c	-0.47832716
91	0xbbb076e9	-0.005385269
92	0xbf1e97e1	-0.619505
93	0xbebf9299	-0.37416533
94	0x3e99a98c	0.30012167
95	0x3e2647ca	0.16238323
96	0xbe8e171e	-0.27752012
97	0xbf205baa	-0.6263987
98	0x3c4e4e05	0.0125918435
99	0x3cc23d81	0.023710968
100	0x3928b7df	0.00016090226
101	0x3cb019cb	0.021496674
102	0x3f0fc226	0.5615562
103	0xbdd0b214	-0.10190216
104	0x3d8940d1	0.06701816
105	0xbe232abc	-0.1593427
106	0x3ee63720	0.44963932
107	0x3e7777d6	0.24166808
108	0xbed4d396	-0.41567677
109	0x3e0d94e8	0.13826334
110	0x3f052a8b	0.5201804
111	0x3eb0f1c3	0.3455945
112	0xbf38fb3f	-0.7225837
113	0xbfa4332f	-1.282812
114	0xbd8955ee	-0.06705843
115	0xbeb4b4b6	-0.35294122
116	0xbeb89ce5	-0.360572
117	0x3ef51ed6	0.47875088
118	0xbe8bc9ba	-0.27302343
119	0xbf0385e9	-0.51376206
120	0xbf5663a4	-0.8374579
121	0x3f093f67	0.5361237
122	0xbdf22921	-0.11824251
123	0xbe1c1664	-0.15242916
124	0xbf1a9d5b	-0.60396355
125	0xbf33694e	-0.7008256
126	0x3f20b0ff	0.62770075
127	0xbe33be70	-0.17553115
128	0x3e85a8b6	0.2610528
129	0xbdfced26	-0.1234992
130	0x3eea3dab	0.45750174
131	0x3f2bb05a	0.67065966
132	0x3f6b7eff	0.91990656
133	0x3b8eb202	0.0043547163
134	0xbefba19f	-0.49146745
135	0xbefb85b1	-0.49125436
136	0x3e2988b2	0.16556051
137	0x3ea42722	0.32061106
138	0xbed1c31b	-0.40969166
139	0x3ef8e31f	0.4861078
140	0x3e23c681	0.15993692
141	0xbcd96a27	-0.026539875
142	0x3be1c362	0.0068897465
143	0x3f292eb0	0.66086864
144	0x3ede1209	0.43373135
145	0x3edd221f	0.43190095
146	0xbc4edea2	-0.012626322
147	0xbeecce4d	-0.46251145
148	0x3fc67bd3	1.5506538
149	0x3f7c556d	0.9856785
150	0x3e10c88d	0.14139004
151	0xbeadaa84	-0.33919156
152	0xbf071182	-0.5276109
153	0x3e175b8f	0.1478102
154	0xbe01e6e6	-0.12685737
155	0xbef2ad22	-0.47397715
156	0xbf27626b	-0.6538455
157	0x3de9e600	0.11420822
158	0x3f25bea3	0.64744014
159	0x3d80d880	0.06291294
160	0x3dee1734	0.116255194
161	0x3e3b868b	0.18313043
162	0x3f0e4cfb	0.5558621
163	0xbecc856a	-0.39945537
164	0x3eb2528e	0.3482861
165	0xbeb4a825	-0.35284534
166	0xbdcbf883	-0.09959509
167	0xbec85b52	-0.39132172
168	0x3eeed3f3	0.4664608
169	0x3e4b87f3	0.1987608
170	0x3efb5a4c	0.4909233
171	0x3ea36d6a	0.31919414
172	0xbe0956a2	-0.13411954
173	0x3e4f12df	0.20222043
174	0x3f7b25ab	0.9810435
175	0xbe38ff2e	-0.18066093
176	0x3dd992f3	0.106237315
177	0xbe3d9c0f	-0.18516563
178	0x3ef1fb42	0.47262007
179	0x3e64eb6a	0.22355428
180	0xbf6bbdb0	-0.92086315
181	0xbaceaadb	-0.0015767472
182	0xbd16c3d9	-0.03680787
183	0xbf0f90b3	-0.5608017
184	0xbbdf7dcf	-0.0068204175
185	0x3ee5db23	0.4489375
186	0xbe8c9e7d	-0.27464667
187	0x3e1209b8	0.1426152
188	0xbf227f20	-0.6347523
189	0xbf0bc320	-0.5459461
190	0x3fa4e3f2	1.2882063
191	0xbe2a0b78	-0.16605937
192	0x3eadf749	0.33977726
193	0x3df2eadb	0.118612014
194	0x3e64ca77	0.22342859
195	0x3e143ff1	0.14477517
196	0x3e95dbee	0.29269356
197	0x3eb75cba	0.35812932
198	0xbf34fbe9	-0.70696884
199	0xbe4863c7	-0.19569312
200	0x3ed6cfea	0.419555
201	0x3ea0b5e9	0.31388786
202	0xbd4f265b	-0.050573688
203	0x3e4a2c83	0.19743542
204	0x3d4921e3	0.049104583
205	0x3e35f8e3	0.17770724
206	0xbe623681	-0.22091104
207	0x3f282f4c	0.6569717
208	0x3dcbea66	0.09956817
209	0x3e4da153	0.20081072
210	0xbc5fc1f1	-0.013657079
211	0x3ce714e5	0.028208205
212	0xba8707eb	-0.0010302042
213	0x3e83255a	0.25614434
214	0x3cc5de99	0.024153994
215	0xbe27840b	-0.16358964
216	0x3c43b2cf	0.011944487
217	0x3c807009	0.015678423
218	0x3ddcd6ec	0.107831806
219	0xbd32a42b	-0.043613594
220	0x3ede092a	0.43366367
221	0x3dba4faa	0.09097226
222	0x3d6ea38c	0.05826144
223	0xbd34f08a	-0.04417471
224	0x3c6bb5a2	0.014386566
225	0x3dca98ac	0.09892401
226	0x3df4f867	0.119614415
227	0xbe866a96	-0.26253194
228	0xbc9f4de2	-0.019446317
229	0xbce8df96	-0.028426927
230	0x3dcfe358	0.10150784
231	0xbe872545	-0.26395622
232	0x3d7eb413	0.06218345
233	0x3d37470c	0.04474549
234	0x3d1ed540	0.03877759
235	0x3cbf82c3	0.023377782
236	0x3e75527a	0.23957244
237	0xbe461633	-0.19344406
238	0xbe8dedcd	-0.2772049
239	0xbe549e31	-0.2076347
240	0x3f1c607c	0.61084723
241	0x3e1c2641	0.15248968
242	0x3cf052f7	0.029336436
243	0xbcdf6009	-0.027267473
244	0xbe99151e	-0.29898924
245	0x3d84b129	0.06479103
246	0x3c39519c	0.011310961
247	0xbf4aa435	-0.7915681
248	0xbda6dc06	-0.08147435
249	0xbf0b3962	-0.54384434
250	0x3e352e9b	0.1769356
251	0x3deb31b4	0.114840895
252	0x3e65ca84	0.22440535
253	0x3f2d62c3	0.67728823
254	0xbe99c011	-0.30029348
255	0xbdcaba28	-0.09898788

lstm_layer.bias_ih_l0 f4 [256]
0	0xbeee3b2a	-0.46529514
1	0x3e1385db	0.1440653
2	0xbed01df5	-0.40647855
3	0xbe6fcead	-0.23418684
4	0xbe76b9e8	-0.24094355
5	0x3d848ef4	0.06472579
6	0x3e993552	0.29923493
7	0xbe9b1490	-0.30289125
8	0xbf23d2c4	-0.6399348
9	0xbe414645	-0.18874462
10	0xbe2fc757	-0.17165886
11	0xbf045c1a	-0.51703036
12	0x3daabaf8	0.08336443
13	0xbefa70cc	-0.48914182
14	0xbe8d2943	-0.27570543
15	0xbf196f36	-0.5993532
16	0xbe4bfb3f	-0.19920062
17	0xbe8b7325	-0.27236286
18	0xbee98d84	-0.4561578
19	0xbf2e0ac0	-0.67985153
20	0x3e7d9e8e	0.24767515
21	0xbee5ec36	-0.44906777
22	0xbde1f813	-0.110336445
23	0xbe8ab8f4	-0.27094233
24	0xbee0aedf	-0.43883416
25	0xbd30664c	-0.043066308
26	0xbef47ace	-0.47749943
27	0xbe52bf90	-0.20580888
28	0x3dd87ef3	0.10571089
29	0xbeae7c6c	-0.340793
30	0xbe81ed7a	-0.25376493
31	0xbe990c11	-0.29892018
32	0xbdaff8fe	-0.08592413
33	0xbeeedbcc	-0.46652067
34	0xbebc5437	-0.36783
35	0xbe94ea54	-0.29085028
36	0x3d2cc548	0.04218033
37	0x3eaf189e	0.3419847
38	0xbef53f3a	-0.478998
39	0x3ea17a2d	0.31538525
40	0xbeea2417	-0.4573066
41	0xbe18bc8d	-0.14915676
42	0xbe8bcf85	-0.27306762
43	0xbf0fa22a	-0.5610682
44	0x3db6c435	0.08924142
45	0xbf1c28d5	-0.60999805
46	0xbee8f1e5	-0.4549705
47	0xbee3e41f	-0.4450998
48	0xbd88708f	-0.06662094
49	0xbeb85eaf	-0.36009738
50	0xbf1cf30d	-0.61308366
51	0xbdb9e91d	-0.09077666
52	0xbf3674f2	-0.71272194
53	0xbe307fb0	-0.17236209
54	0xbf2503c8	-0.64458895
55	0x3eae7e3d	0.34080687
56	0xbecfdd88	-0.40598702
57	0xbcf46831	-0.029834839
58	0x3e155c1d	0.1458592
59	0xbd13bd62	-0.03606928
60	0x3ca26569	0.019823747
61	0x3eaadd70	0.33372068
62	0xbed7dc79	-0.42160395
63	0x3ddd48b9	0.10804886
64	0xbf1c439f	-0.6104068
65	0xbe876d88	-0.26450753
66	0xbe26766e	-0.16256115
67	0xbd128e76	-0.035780393
68	0xbd5d3ed6	-0.054015003
69	0xbe1435ab	-0.14473598
70	0xbf822c0a	-1.016969
71	0xbedec5f9	-0.43510416
72	0xbf360225	-0.7109702
73	0xbed0a7f1	-0.4075313
74	0xbe8a016b	-0.26954207
75	0xbed9986e	-0.42499107
76	0xbfa77d70	-1.3085155
77	0xbe1bb556	-0.15205893
78	0xbf55eb0e	-0.8356179
79	0xbf0bfd8f	-0.54683775
80	0xbef04103	-0.469246
81	0xbe6ba0e5	-0.23010595
82	0xbf0759a5	-0.5287116
83	0xbf33f8dd	-0.7030161
84	0x3e73342b	0.23750369
85	0xbf1a3f3a	-0.60252726
86	0xbf039706	-0.5140232
87	0xbe0706ed	-0.13186236
88	0xbeca9a9a	-0.39571077
89	0xbe2a01da	-0.16602269
90	0xbf4c8f23	-0.7990591
91	0xbe1d6a40	-0.15372562
92	0xbeea6da9	-0.4578679
93	0xbf39bc2b	-0.72552747
94	0xbf09957c	-0.5374372
95	0xbe8e2e81	-0.27769855
96	0xbddda43f	-0.10822343
97	0xbeaed63b	-0.3414782
98	0xbed3622c	-0.41285837
99	0xbe0de819	-0.1385807
100	0xbe03f955	-0.12888081
101	0x3f546ec2	0.82981503
102	0xbe3bf62e	-0.18355629
103	0x3e2793ff	0.1636505
104	0xbe9b2a62	-0.30305773
105	0xbef7d44e	-0.48404163
106	0xbed68ce3	-0.41904363
107	0xbeac0d4e	-0.336039
108	0xbebc16cc	-0.36736143
109	0xbe8ca2b4	-0.27467883
110	0xbf4748d1	-0.77845484
111	0xbeb1ca35	-0.34724584
112	0xbf54adba	-0.83077586
113	0xbf034b58	-0.5128684
114	0xbe92dc95	-0.28683916
115	0xbf17db58	-0.59319067
116	0xbf2dd33c	-0.67900443
117	0xbe1c7f13	-0.1528285
118	0xbe3a5ab4	-0.18198663
119	0xbf23fecf	-0.6406068
120	0xbe7c3d9b	-0.24632876
121	0xbf00e3d1	-0.5034762
122	0xbd870a6b	-0.06593784
123	0xbe45fd13	-0.19334821
124	0xbf083f8a	-0.5322195
125	0xbf6db889	-0.92859703
126	0xbd7d8cec	-0.06190197
127	0xbec75644	-0.38933003
128	0xbdba9106	-0.09109692
129	0xbe1df321	-0.15424778
130	0xbe20019b	-0.15625612
131	0xbcfb0cfa	-0.030645836
132	0xbd33f254	-0.043932274
133	0x3e834696	0.2563979
134	0xbe234402	-0.15943912
135	0x3e7b172b	0.24520557
136	0xbe1e6788	-0.15469182
137	0xbeaacfbd	-0.33361617
138	0x3e3608a6	0.17776737
139	0xbe9bf885	-0.30463043
140	0xbe6ff06f	-0.23431562
141	0xbbab7b84	-0.00523323
142	0xbd8bf0cb	-0.06833037
143	0xbe35a908	-0.17740262
144	0xbe3a3dea	-0.18187681
145	0xbe167b82	-0.14695552
146	0x3e85ee1e	0.26158231
147	0x3d69bab9	0.05706284
148	0xbe7f0607	-0.24904643
149	0xbe8ce53b	-0.2751864
150	0xbe628211	-0.22119929
151	0x3e4ed0b0	0.20196795
152	0x3e896e81	0.2684212
153	0xbea2c038	-0.31787276
154	0x3dc7f09c	0.097626895
155	0x3e6f2832	0.23355177
156	0x3e69e653	0.22841768
157	0x3e3ccd79	0.18437757
158	0xbe244b4b	-0.16044347
159	0x3e60df8e	0.2196028
160	0xbe8e56f1	-0.27800706
161	0xbe0808aa	-0.13284555
162	0xbea83c6e	-0.32858604
163	0x3e3fb944	0.18723017
164	0xbe655fb1	-0.22399785
165	0x3ea094f1	0.31363633
166	0xbdf7ad39	-0.120935865
167	0x3ea25895	0.31708208
168	0xbe8bc0c8	-0.27295518
169	0xbe3ee296	-0.18641123
170	0xbe30b3d0	-0.17256093
171	0xbe3521dc	-0.17688698
172	0xbe125d06	-0.14293298
173	0x3c688bf5	0.014193525
174	0xbe209e92	-0.1568549
175	0x3e28aea5	0.16472872
176	0x3e76821c	0.2407307
177	0x3dae4263	0.08508756
178	0xbe2efdaa	-0.17088953
179	0xbe959d43	-0.29221544
180	0x3e149b83	0.14512448
181	0xbde36016	-0.11102311
182	0xbe576b35	-0.2103699
183	0xbd212741	-0.039344076
184	0xbc579664	-0.0131584145
185	0xbe6e93ad	-0.23298521
186	0xbe758efa	-0.23980322
187	0xbe68c10a	-0.22729889
188	0x3df35d23	0.11882999
189	0x3e896a86	0.26839083
190	0xbe19ec2c	-0.15031499
191	0x3e3b0f41	0.18267538
192	0xbf1f11cc	-0.6213653
193	0xbe8b6b60	-0.27230358
194	0xbeb314b0	-0.3497672
195	0x3ddd0ef4	0.10793868
196	0x3e1a6f97	0.1508163
197	0xbfa815d7	-1.3131665
198	0x3e8889ef	0.26667735
199	0xbe997188	-0.2996943
200	0xbf28d08d	-0.65943223
201	0xbe920c68	-0.2852509
202	0xbef9f262	-0.48817736
203	0xbe726539	-0.23671426
204	0xbe978591	-0.2959409
205	0xbf39a2cb	-0.7251403
206	0xbe6a8f70	-0.2290628
207	0xbed0055e	-0.40629095
208	0xbe8c9176	-0.27454728
209	0xbf18acca	-0.59638655
210	0xbeca514a	-0.39515144
211	0xbf2ec149	-0.6826368
212	0x3df597dc	0.119918555
213	0xbeb77694	-0.35832655
214	0xbf281671	-0.6565924
215	0xbe3848e7	-0.1799656
216	0xbec6187f	-0.38690564
217	0xbf0efa23	-0.5585043
218	0xbe99f5c0	-0.30070305
219	0xbe855257	-0.26039383
220	0x3e03c2c5	0.12867267
221	0xbf4ced4c	-0.80049586
222	0xbf115795	-0.56774265
223	0xbf8550e7	-1.0415314
224	0xbebd22ae	-0.3694052
225	0xbf19f76d	-0.60143167
226	0xbed4a4a5	-0.41531864
227	0xbea05e86	-0.31322116
228	0xbf0028a7	-0.5006203
229	0xbf859014	-1.0434594
230	0xbe8479ae	-0.25874084
231	0xbf22cec7	-0.6359677
232	0xbf149ae7	-0.5804886
233	0xbf148828	-0.5802026
234	0xbd36bf05	-0.044615764
235	0xbed14d35	-0.40879217
236	0x3c4175f0	0.011807904
237	0xbf39ae22	-0.7253133
238	0xbeb3e988	-0.35139108
239	0xbebfdcfb	-0.37473282
240	0x3cfac539	0.030611621
241	0xbeb45250	-0.3521905
242	0xbf0c09fa	-0.54702723
243	0xbe85cb83	-0.2613183
244	0xbd91edd7	-0.071254425
245	0x3d82c24e	0.06384717
246	0xbe9ee48f	-0.3103375
247	0xbdb8ad5a	-0.09017439
248	0xbbefc685	-0.0073173665
249	0x3cf2d917	0.029644532
250	0xbe578a1d	-0.2104878
251	0xbf288bd1	-0.6583834
252	0x3d0412e4	0.032244578
253	0xbc69763c	-0.014249381
254	0xbdf9e3f6	-0.12201683
255	0xbed6b9e7	-0.41938707

lstm_layer.bias_hh_l0 f4 [256]
0	0xbf091f4a	-0.5356337
1	0x3e419aac	0.18906659
2	0xbea6e960	-0.32599926
3	0xbdcb42e5	-0.099248685
4	0xbea49099	-0.3214157
5	0x3e380877	0.17971979
6	0x3df8e247	0.12152534
7	0xbe909350	-0.2823739
8	0xbf229662	-0.63510716
9	0xbe8793e3	-0.26480016
10	0xbe62b287	-0.22138415
11	0xbf058e2c	-0.5217006
12	0x3cfaa32f	0.03059539
13	0xbeb5aa2d	-0.35481396
14	0xbeb871ab	-0.36024222
15	0xbf1cf01a	-0.61303866
16	0xbe9d1980	-0.30683517
17	0xbed0ec3b	-0.4080523
18	0xbeebb82e	-0.46038955
19	0xbef66950	-0.48127222
20	0x3e31a5cf	0.17348407
21	0xbf22c4cc	-0.6358154
22	0x3df21292	0.11819948
23	0xbeb9bb59	-0.36275747
24	0xbe8aad79	-0.27085474
25	0x3db71abb	0.08940645
26	0xbedfaded	-0.43687382
27	0xbe4cccb3	-0.19999962
28	0x3e9e1361	0.3087416
29	0xbe9c1068	-0.30481267
30	0xbe703433	-0.23457412
31	0xbefcf642	-0.4940663
32	0xbd98ae86	-0.07455163
33	0xbee36a5f	-0.44417092
34	0xbe841587	-0.25797674
35	0xbebd359a	-0.36954957
36	0x3d7434c2	0.059620626
37	0x3ece01e0	0.40235806
38	0xbee1f28c	-0.4413036
39	0x3edd6741	0.4324284
40	0xbeee9084	-0.46594632
41	0xbc09df5a	-0.008415068
42	0xbed21736	-0.41033334
43	0xbf259ea9	-0.6469522
44	0x3d970c84	0.07375434
45	0xbf3ed233	-0.7453949
46	0xbe9d8e32	-0.3077255
47	0xbed5b4aa	-0.41739398
48	0xbe6390ee	-0.22223255
49	0xbe8a44c7	-0.27005598
50	0xbf12a359	-0.572805
51	0xbd6fd96d	-0.058556963
52	0xbf284a0e	-0.65738
53	0xbea9d8ce	-0.3317322
54	0xbeff3ced	-0.4985117
55	0x3eb482f2	0.35256153
56	0xbee64e45	-0.4498159
57	0xbe2b879e	-0.16750953
58	0x3c90342d	0.017603004
59	0x3cd24689	0.0256684
60	0x3d87f7bc	0.066390485
61	0x3eba0f23	0.36339673
62	0xbeb4727a	-0.3524359
63	0x3df9b25d	0.12192223
64	0xbf0c3d5a	-0.54781115
65	0xbebae6e2	-0.36504275
66	0xbe133c41	-0.14378454
67	0xbce1a95f	-0.027546583
68	0xbd8b5fe8	-0.06805402
69	0xbccc1dc5	-0.024916539
70	0xbf8737ea	-1.0563939
71	0xbf0017d7	-0.50036377
72	0xbf2dca09	-0.67886406
73	0xbf0c6426	-0.54840314
74	0xbe851d3f	-0.25998875
75	0xbf04b6e3	-0.51841563
76	0xbf97cc35	-1.1859194
77	0xbe25acfb	-0.16179268
78	0xbf3d9986	-0.74062383
79	0xbf10063d	-0.5625952
80	0xbec66fc0	-0.38757133
81	0xbea8d9a1	-0.32978538
82	0xbf2a444a	-0.6651045
83	0xbf28b25e	-0.65897167
84	0x3e0bd460	0.13655233
85	0xbefd3df9	-0.49461344
86	0xbec4c3e7	-0.38430712
87	0xbe1931ac	-0.14960355
88	0xbe2fc0ce	-0.17163393
89	0xbe8b51e8	-0.27210927
90	0xbf38e35a	-0.7222191
91	0xbea80886	-0.32819003
92	0xbf1b037d	-0.605522
93	0xbf44e18f	-0.76906675
94	0xbf0d8b73	-0.5529091
95	0xbd5d63eb	-0.054050367
96	0xbe8ca525	-0.27469745
97	0xbf0040e3	-0.5009901
98	0xbed7b287	-0.42128393
99	0xbe8b2142	-0.2717381
100	0xbe6c333a	-0.23066416
101	0x3f6e5c96	0.93110025
102	0xbe52d4ca	-0.20588985
103	0x3c2ee546	0.01067478
104	0xbef045d9	-0.4692829
105	0xbed5382e	-0.41644424
106	0xbef8939b	-0.48550114
107	0xbf091bf9	-0.5355831
108	0xbe89bc00	-0.26901245
109	0xbe8a6ac4	-0.2703458
110	0xbf33b272	-0.7019416
111	0xbe293169	-0.16522755
112	0xbf383c98	-0.7196746
113	0xbefe84f6	-0.49710816
114	0xbea969df	-0.33088586
115	0xbee431a2	-0.44569117
116	0xbf451510	-0.76985264
117	0xbc95557c	-0.018229239
118	0xbe51cbac	-0.20487851
119	0xbf1201f8	-0.57034254
120	0xbe866dcd	-0.26255646
121	0xbf07fa8e	-0.5311669
122	0x3d694dd9	0.056959007
123	0xbe9be882	-0.30450827
124	0xbef9daec	-0.48799837
125	0xbf7b2a26	-0.9811119
126	0xbe4ee83c	-0.20205778
127	0xbe858a88	-0.26082253
128	0xbe8bb4e4	-0.27286446
129	0xbe54bed5	-0.20775922
130	0xbe66346c	-0.22480935
131	0xbac9fdf6	-0.0015410769
132	0xbdb86d6c	-0.090052456
133	0x3e9419f2	0.28926045
134	0xbd17903c	-0.037002787
135	0x3dd85285	0.10562614
136	0xbe7490a3	-0.238833
137	0xbe417812	-0.1889346
138	0x3e9e33a9	0.3089879
139	0xbe37bd58	-0.17943323
140	0xbe82215b	-0.25416073
141	0xbd553676	-0.05205389
142	0xbe1c5ff7	-0.15270983
143	0xbe73e3fe	-0.23817441
144	0xbe7660dd	-0.24060388
145	0xbe88ee33	-0.26744232
146	0x3e1d5561	0.153646
147	0x3e9158ec	0.28388155
148	0xbe7ed931	-0.2488754
149	0xbe13d226	-0.14435634
150	0xbe90c55f	-0.28275582
151	0x3e40d9f1	0.18833138
152	0x3e3ed5c5	0.18636234
153	0xbea864f2	-0.32889515
154	0x3e0d76a4	0.13814789
155	0x3e7dd5bb	0.24788563
156	0x3e055eff	0.1302452
157	0x3e686d6a	0.22697988
158	0xbeb27cd1	-0.34860852
159	0x3e961f55	0.2932078
160	0xbe4a293f	-0.19742297
161	0xbe2e1514	-0.17000228
162	0xbe21e37e	-0.15809438
163	0x3e62d4b3	0.22151451
164	0xbe978fe0	-0.29601955
165	0x3e9c6aa5	0.30550113
166	0xbd3451e7	-0.04402342
167	0x3e92fc04	0.28707898
168	0xbe679e93	-0.22619085
169	0xbe85752f	-0.26065966
170	0xbe8f9c83	-0.28049096
171	0xbe485cf9	-0.19566716
172	0xbd985c35	-0.07439462
173	0x3e3b06a3	0.1826425
174	0xbe86a9f6	-0.26301545
175	0x3e5f4e46	0.21807203
176	0x3dea6d4e	0.114466295
177	0x3d34dd01	0.04415608
178	0xbe8bb206	-0.2728426
179	0xbe6852ee	-0.22687885
180	0x3d0eb932	0.034844585
181	0xbdf54f45	-0.1197801
182	0xbd8a271d	-0.067457415
183	0xbe7e2a89	-0.24820913
184	0x3e5c6df9	0.21526326
185	0xbe6acad4	-0.22928935
186	0xbdb4f904	-0.088365585
187	0xbe87805b	-0.26465115
188	0xbda37b57	-0.079825096
189	0x3eced922	0.40400034
190	0xbea73182	-0.3265496
191	0x3e9fce60	0.3121214
192	0xbf33b211	-0.7019358
193	0xbe89409f	-0.26807114
194	0xbeb85be2	-0.360076
195	0xbc57c215	-0.013168831
196	0x3d9f323c	0.07773253
197	0xbfa33e27	-1.2753342
198	0x3e4a484d	0.19754143
199	0xbe11285d	-0.14175554
200	0xbf061cbb	-0.5238759
201	0xbe955836	-0.29168862
202	0xbeccd1ec	-0.40003908
203	0xbeea4340	-0.45754433
204	0xbe920a77	-0.2852361
205	0xbf062f96	-0.5241636
206	0xbe8a4866	-0.2700836
207	0xbf2184e7	-0.6309342
208	0xbe796ca7	-0.24357854
209	0xbf238ed7	-0.6388983
210	0xbf1e2b6a	-0.61784995
211	0xbf091f94	-0.5356381
212	0xbdecd6a6	-0.115643784
213	0xbebc0845	-0.3672506
214	0xbf26ae5c	-0.651098
215	0xbe916136	-0.2839448
216	0xbf081091	-0.5315028
217	0xbf2d36de	-0.67661846
218	0xbed3e7d6	-0.41387814
219	0xbe651142	-0.22369865
220	0x3e1b494b	0.15164678
221	0xbf692234	-0.91067815
222	0xbf2de0ff	-0.6792144
223	0xbf5d4498	-0.8643279
224	0xbed508fc	-0.41608417
225	0xbf224c29	-0.6339746
226	0xbee31ca3	-0.44357786
227	0xbeb5cfa2	-0.35509974
228	0xbecf2d8f	-0.40464446
229	0xbf8f531d	-1.1197239
230	0xbe906912	-0.28205162
231	0xbf09b031	-0.5378447
232	0xbecb0b3a	-0.39657003
233	0xbf0888e3	-0.5333387
234	0xbe5c0416	-0.21485934
235	0xbe99efa2	-0.30065638
236	0xbdec430d	-0.115362264
237	0xbf199fe8	-0.6000962
238	0xbefcb2fc	-0.49355304
239	0xbf030c9f	-0.51191133
240	0x3e7659d4	0.24057704
241	0xbe866898	-0.26251674
242	0xbee2e4b5	-0.44315115
243	0xbece9e98	-0.40355372
244	0x3d2a36db	0.04155622
245	0x3d202e4b	0.03910665
246	0xbefd2ebd	-0.4944972
247	0x3c7fceac	0.015613239
248	0x3d378108	0.04480079
249	0x3cb2dab1	0.021832796
250	0xbd8b9617	-0.06815737
251	0xbf1b838c	-0.607476
252	0x3e2f66c7	0.1712905
253	0x3e34e385	0.17664917
254	0x3d47de59	0.04879603
255	0xbed8504b	-0.4224876

fc.weight f4 [1, 65]
0	0x3fe26807	1.7687997
1	0x3faf40c7	1.3691643
2	0x3ecb395c	0.396922
3	0x3d496bb2	0.049174972
4	0x3e925f86	0.28588504
5	0xbf159146	-0.58424795
6	0x3f8b5943	1.0886616
7	0x3fec83e6	1.8477752
8	0xbfcf5744	-1.6198506
9	0x3f13e6c4	0.57773995
10	0x3bae67c3	0.005322428
11	0x3f3b642c	0.73199725
12	0x3e14327e	0.14472386
13	0x3fae214e	1.3603914
14	0x3f86cbf5	1.0530993
15	0x3fd13c0f	1.6346453
16	0x3f6f1db7	0.93404716
17	0xbeefaf4e	-0.46813434
18	0xbeb88015	-0.3603522
19	0x3d1aaebc	0.037764296
20	0xbf437f34	-0.7636597
21	0xbf8617d9	-1.0476028
22	0x3f0bffc9	0.5468717
23	0x4023d07b	2.5595996
24	0x3fb1eda9	1.3900653
25	0x3f8e001c	1.1093783
26	0xbe6022c7	-0.21888267
27	0x3eb36d8e	0.3504452
28	0x3f74fb27	0.9569573
29	0x3f70007a	0.9375073
30	0xbe87d4ab	-0.2652944
31	0x3e8674d9	0.26261023
32	0x3e193048	0.14959824
33	0xbf82396c	-1.0173774
34	0xbf38d9b7	-0.72207206
35	0xbf689846	-0.9085735
36	0x3f59dbaf	0.85100836
37	0x3ecde00d	0.4021
38	0x3e248d13	0.1606944
39	0xbfcae9ca	-1.5852597
40	0x3fb3b68a	1.4040082
41	0xc043a298	-3.056799
42	0xbb84a6cb	-0.0040482036
43	0x3fa74555	1.3068033
44	0x3f0270d0	0.5095339
45	0xbf11ef81	-0.5700608
46	0xbe885027	-0.2662365
47	0xbeb134a1	-0.34610465
48	0xbe127d55	-0.14305623
49	0x3e887549	0.2665198
50	0x3fa15b66	1.2606018
51	0x3d1e326f	0.038622316
52	0xbfa286c3	-1.2697376
53	0x3e253ee6	0.16137275
54	0xbf982d41	-1.188881
55	0x3f6ff2ab	0.93729657
56	0xbe8e417e	-0.27784342
57	0x3f868bbb	1.0511392
58	0xbefd9523	-0.49527845
59	0x3f3dddad	0.74166375
60	0xbd840faf	-0.06448304
61	0x3f95873c	1.1681895
62	0xbf114a73	-0.56754225
63	0x3f2fac13	0.6862194
64	0x3fcddc68	1.6082888

fc_final1.weight f4 [64, 128]
0	0xbd56e875	-0.052467782
1	0xbc77ad78	-0.015117042
2	0xbd456ac8	-0.048197538
3	0xbcee1605	-0.029063234
4	0xbc48b909	-0.012251147
5	0x3d61ec48	0.055156976
6	0x3dfb9cde	0.122857794
7	0xbc7cfad3	-0.0154406605
8	0x3d2e489f	0.042549726
9	0xbd92c436	-0.071663305
10	0xbd81d071	-0.06338585
11	0x3d8325c4	0.064036876
12	0x3cec3dbc	0.028838031
13	0xbd3e9f60	-0.04653871
14	0xbd3d7bf4	-0.04626079
15	0x3c2f354d	0.01069386
16	0x3caa114c	0.0207602
17	0x3d88db06	0.066824004
18	0xbd2348a7	-0.03986421
19	0x3db5d401	0.08878327
20	0x3d750e01	0.05982781
21	0xbc187162	-0.009304376
22	0x3b6f1c86	0.0036485507
23	0xbb88f320	-0.0041793734
24	0x3d76ecb6	0.06028434
25	0x3d7c9d58	0.061673492
26	0xbdc32f4a	-0.09530504
27	0xbd7cd27c	-0.06172417
28	0x3c5446ee	0.012956364
29	0x3d19ece2	0.037579425
30	0xbca92fce	-0.020652678
31	0xbd46ca8c	-0.048533008
32	0xbdcd09f2	-0.100116625
33	0xbd3f8b19	-0.046763513
34	0x3b0ace69	0.002118016
35	0xbd6232d2	-0.055224247
36	0x3d53bc6c	0.051693365
37	0x3ce2a86e	0.027668204
38	0x3d863fcb	0.06555136
39	0x3adfa549	0.0017062809
40	0xbcf621b6	-0.030045372
41	0xbd4002f4	-0.046877816
42	0xbd846914	-0.064653546
43	0x3cd2d4ab	0.025736174
44	0x3d664d3b	0.056225996
45	0xbcdf290f	-0.027241258
46	0xbcf30b81	-0.029668571
47	0xbcc5df52	-0.024154339
48	0xbd61ba36	-0.055109225
49	0xbd177d27	-0.03698459
50	0x3b9c637a	0.0047726007
51	0x3c527db9	0.012847357
52	0x3ca27d75	0.019835213
53	0x3da17206	0.07883076
54	0x3da02251	0.07819045
55	0xbda37e97	-0.079831295
56	0xbd8230c5	-0.06356958
57	0xbd70a648	-0.05875233
58	0x3c196263	0.009361836
59	0xbd198297	-0.037478056
60	0xbd1160cb	-0.0354927
61	0xbcb71528	-0.022348955
62	0x3cdb50f2	0.026771996
63	0xbd080bfc	-0.033214554
64	0x3d81d68a	0.06339748
65	0x3da5792e	0.08079754
66	0xbc8b22fc	-0.016984455
67	0x3ce459b1	0.0278748
68	0xbd81c524	-0.0633643
69	0x3c02c8e1	0.007982464
70	0xbdbda6b5	-0.092603125
71	0xbc5d421a	-0.013504529
72	0x3cb341ef	0.021882026
73	0xbc643162	-0.013927789
74	0xbd17d9d2	-0.037072964
75	0xbc169909	-0.00919176
76	0xbba40a71	-0.0050061275
77	0x3cc46cd2	0.02397767
78	0xbc825162	-0.015907947
79	0xbb0267bc	-0.0019898256
80	0xbd8cd6e7	-0.06876927
81	0x3c94754c	0.018122338
82	0xbc727519	-0.014798426
83	0xbd9dc069	-0.07702715
84	0x3cb30142	0.021851186
85	0x3d233bcb	0.039851945
86	0xbc7d8491	-0.015473501
87	0x3d4e8827	0.050422814
88	0xbcb87926	-0.022518706
89	0x3cd1f586	0.02562977
90	0x3c2ae1fc	0.010429855
91	0x3b63a91f	0.0034738255
92	0xbd606041	-0.054779295
93	0xbd1dec49	-0.038555417
94	0x3d19b0f4	0.03752227
95	0x3c1f09d8	0.009706937
96	0xbc4b0dfa	-0.012393469
97	0xbd7ccd40	-0.06171918
98	0x3d97467b	0.0738649
99	0x3d490887	0.049080398
100	0x3bc3224e	0.005955017
101	0xba0722f1	-0.0005155048
102	0xbd7f5190	-0.062333643
103	0xbcf645f4	-0.030062653
104	0xbca6e8f8	-0.02037476
105	0xbdf10f4d	-0.117704965
106	0x3c4040de	0.011734216
107	0xbe058556	-0.13039145
108	0xbd369d36	-0.04458352
109	0x3d84f7d0	0.06492579
110	0xbda88673	-0.08228769
111	0x3d2a0b40	0.041514635
112	0x3e03a46b	0.12855689
113	0x3d30a825	0.043129105
114	0xbc43efd9	-0.01195904
115	0xbd62c855	-0.055366833
116	0xbd1442de	-0.036196582
117	0xbcb3d0aa	-0.021950085
118	0xbd862390	-0.06549752
119	0x3d819c81	0.06328679
120	0xbca7f6e3	-0.020503467
121	0x3d8b81bc	0.06811854
122	0xbbe5ab41	-0.0070089404
123	0x3c3e7d7d	0.011626598
124	0x3cffaf17	0.031211419
125	0x3d6cd138	0.057816714
126	0xbd144f99	-0.036208723
127	0x3d7a1f7c	0.061065182
128	0xbd9842f6	-0.07434647
129	0xbd40c8ae	-0.047066383
130	0xbbbf0e51	-0.005830564
131	0x3d48c51a	0.049016096
132	0xbd99ba03	-0.07506182
133	0xbc40b983	-0.011762979
134	0x3da858da	0.08220072
135	0x3d6011bf	0.054704424
136	0x3d1bb41a	0.038013555
137	0xbcd5d930	-0.02610454
138	0x3d8886e1	0.06666351
139	0xbc1631b7	-0.009167126
140	0x3d0e982e	0.0348131
141	0x3db7422c	0.08948168
142	0xbd7063e2	-0.058689006
143	0x3d88f4a7	0.06687289
144	0x3d791422	0.060810216
145	0xbce6d6b5	-0.028178552
146	0xbce2f85b	-0.027706316
147	0xbb7a5ade	-0.0038201134
148	0x3bc52b6f	0.0060171406
149	0x3c8deb93	0.017324245
150	0xbdb5a52f	-0.08869397
151	0xbaec3e8f	-0.0018024015
152	0xbd9e2dde	-0.07723592
153	0x3d3b16ae	0.045675926
154	0xbd72e7ac	-0.05930297
155	0xbd5d23a3	-0.053989064
156	0x3dec23e3	0.11530282
157	0x3e0d19de	0.13779399
158	0x3dc9d07a	0.09854217
159	0x3d2ed443	0.042682897
160	0xbb18f68a	-0.0023340308
161	0xbda34622	-0.07972361
162	0xbd33e62c	-0.04392068
163	0xbbc0770d	-0.005873567
164	0x3d718527	0.058964875
165	0xbd2b85a3	-0.041875493
166	0x3ccd4a83	0.025059944
167	0xbd949403	-0.072547935
168	0xbd4af013	-0.04954536
169	0xbda57c90	-0.08080399
170	0xbd2ff601	-0.042959217
171	0xbd180a82	-0.037119396
172	0xbdb61fb1	-0.088927634
173	0xbb2bcfd6	-0.002621641
174	0x3dbfcf7c	0.093657464
175	0xbd6fc184	-0.05853416
176	0x3daddb0d	0.08489046
177	0x3ca1cad7	0.019750042
178	0xbd5cc6dc	-0.053900585
179	0x3d1aa3ab	0.037753742
180	0x3d8e7e75	0.069577135
181	0xbd358d76	-0.04432436
182	0x3d197b33	0.037471008
183	0x3cb6b837	0.022304637
184	0x3cd295b7	0.025706155
185	0xbcc25d09	-0.023726003
186	0x3d90215b	0.07037612
187	0xbdd433d7	-0.1036145
188	0xbd3aa538	-0.04556772
189	0xbd57a206	-0.052644752
190	0x3b8dec65	0.004331159
191	0x3d87d436	0.06632273
192	0xbd2a65bb	-0.041600924
193	0x3d3f8732	0.04675979
194	0x3c2e2e66	0.010631179
195	0xbd3270f6	-0.04356476
196	0x3d172a90	0.036905825
197	0x3cbd9045	0.023140082
198	0x3cc95b75	0.024579743
199	0x3c9a3ebb	0.01882874
200	0x3ca8022d	0.02050885
201	0xbd27ced5	-0.040968735
202	0xbda425de	-0.08015035
203	0xbd06e998	-0.032937616
204	0xbbe784ef	-0.0070654075
205	0xbcbcd465	-0.023050496
206	0xbacd8c4a	-0.0015682068
207	0xbc384f88	-0.0112494305
208	0x3b85464d	0.0040672184
209	0xbd217348	-0.03941658
210	0x3da2bffc	0.07946774
211	0x3c8e5cfb	0.01737832
212	0xbc9215d5	-0.017832676
213	0xbb8ed723	-0.0043591424
214	0xbd5ba519	-0.053624246
215	0x3d6f9943	0.05849577
216	0xbd488e1b	-0.048963647
217	0xbde3e57d	-0.11127756
218	0x3d52abbe	0.051433317
219	0x3da11b02	0.078664795
220	0x3cd34104	0.025787838
221	0x3c290f6a	0.010318616
222	0x3c887acb	0.016660115
223	0x3bdeb2df	0.0067962254
224	0x3d6c09d9	0.05762658
225	0x3dc8e07d	0.09808443
226	0x3d854cca	0.06508787
227	0x3cfb571b	0.030681184
228	0x3d5b80eb	0.053589743
229	0xbc7a4131	-0.015274332
230	0xbd455219	-0.048173998
231	0x3cfe3da2	0.031035248
232	0xbc3694ae	-0.011143846
233	0xbd16c851	-0.03681213
234	0x3d92a7b8	0.07160896
235	0x3949e3e0	0.00019253744
236	0x3dbcb350	0.09213889
237	0x3d9e41dc	0.077274054
238	0x3d25112c	0.04029958
239	0x3dbf540c	0.093422025
240	0x3da27caf	0.07933938
241	0xbd36b4ff	-0.044606205
242	0x3db56a2b	0.088581406
243	0xbd16bef2	-0.036803193
244	0xbcc6f0cc	-0.024284743
245	0xbdbefed7	-0.093259506
246	0xbd978a22	-0.073993936
247	0xbb19fda5	-0.0023497131
248	0xbbb094e6	-0.005388844
249	0x3c147bda	0.009062732
250	0xbdaa49df	-0.08314871
251	0xbd08f5b9	-0.033437464
252	0x3d589fdb	0.052886825
253	0x3db3e2ce	0.08783494
254	0xbd0c3382	-0.03422881
255	0xbd6eac7b	-0.05826996

fc_final1.bias f4 [64]
0	0xbb6dfbc2	-0.003631339
1	0xbc93d566	-0.018046092
2	0x3ca1e159	0.019760774
3	0xbc93a8e0	-0.018024862
4	0xbc6fbbfa	-0.014632219
5	0xbcdb7b24	-0.026792116
6	0x3d0f000f	0.034912165
7	0x3ca6baea	0.0203528
8	0xbc2dcc0a	-0.010607729
9	0x3c976ea4	0.018485375
10	0xbc6a8053	-0.014312821
11	0x3c5c0fea	0.013431529
12	0xbb8beeb5	-0.0042703995
13	0x3cb782d4	0.02240125
14	0xbb42869f	-0.0029682291
15	0xbb4b20b2	-0.003099483
16	0xbd230146	-0.039796136
17	0x3afc98cb	0.001927161
18	0xbc4d5fd0	-0.0125350505
19	0x3c5e89aa	0.013582626
20	0xbd6f9e65	-0.058500666
21	0x3b955c74	0.0045581404
22	0x3cc8ef78	0.02452825
23	0xbcda4968	-0.026646331
24	0x3caaaa32	0.020833109
25	0xbcc4efaf	-0.024040071
26	0xbcf45f25	-0.029830525
27	0x3cf3c4f6	0.029757004
28	0x3d8d70f0	0.06906307
29	0xbc1d8816	-0.009614965
30	0x3cc93a22	0.024563853
31	0x3c9caab8	0.019124374
32	0xbcf1968e	-0.029490735
33	0x3b5fdc18	0.0034158286
34	0xbd13c14c	-0.036073014
35	0x3cb4ba30	0.022061437
36	0x3d550f7a	0.052016713
37	0xbbd80eac	-0.006593546
38	0xbd3ee4cb	-0.046604913
39	0xbb7133c8	-0.0036804546
40	0x3caff523	0.021479195
41	0x3bb4d8f9	0.005519029
42	0x3c69b093	0.01426329
43	0x3c84757b	0.0161693
44	0x3b97e12f	0.0046349983
45	0xbc2a4540	-0.010392487
46	0xba01aa2c	-0.0004946317
47	0x3cbe2b4c	0.023214005
48	0x3d2267d0	0.039649785
49	0xbc9c9b09	-0.019116895
50	0xbb50efa4	-0.0031881118
51	0xbc053e3c	-0.008132514
52	0xbd1ef183	-0.038804542
53	0xbd496fae	-0.04917877
54	0xbc33c232	-0.010971593
55	0xbd16a3ea	-0.036777414
56	0x3c9da491	0.01924351
57	0xb93c5330	-0.00017960067
58	0xbbcbf0dc	-0.006223781
59	0x3bca46b0	0.0061729774
60	0x3d2769e5	0.040872473
61	0x3cbd328d	0.023095394
62	0xbd14050e	-0.036137633
63	0xbd3d7388	-0.046252757

fc_final2.weight f4 [1, 64]
0	0xbac314a2	-0.0014883468
1	0x3be0f504	0.0068651456
2	0x3baa1e29	0.0051915837
3	0x3ac89372	0.0015302731
4	0x3b16efbc	0.0023031076
5	0xbaaf0a74	-0.0013354556
6	0x3e4a175e	0.19735476
7	0x3b971e5b	0.004611773
8	0xbc1db3e5	-0.00962541
9	0xbc38a8a3	-0.011270675
10	0xbbb21ba0	-0.005435422
11	0x3c0a67d3	0.008447605
12	0xbb04a497	-0.0020239705
13	0x3b3700fc	0.002792417
14	0x3bb7e2c7	0.0056117508
15	0xb85242a3	-5.0129962e-05
16	0xbc08aff5	-0.008342733
17	0x3aa3167a	0.0012442612
18	0xbb6be57f	-0.0035994945
19	0x3c58181e	0.013189344
20	0xb91398b8	-0.00014075905
21	0xb9e722f6	-0.000440858
22	0x3b63842a	0.0034716227
23	0xbb832acb	-0.004002904
24	0xbc0df7c0	-0.008665025
25	0xbbc9f753	-0.0061635165
26	0x3b4b5bff	0.0031030176
27	0x3a5832fe	0.00082473445
28	0x3b356e50	0.002768416
29	0x3bce2a91	0.0062916954
30	0x3c15d0a5	0.009143983
31	0xbb3b7db3	-0.0028608858
32	0xbbb2d867	-0.005457926
33	0x3bcc7d79	0.0062405434
34	0xbbdc6c6b	-0.0067267916
35	0x3acecae6	0.0015777021
36	0x3d059443	0.032612097
37	0xbb9af826	-0.0047292886
38	0xbb078932	-0.002068114
39	0x3b153786	0.002276869
40	0xbbe4550e	-0.006968147
41	0xbb5da7b3	-0.003382188
42	0x3ab95c97	0.0014141974
43	0xb90c933b	-0.00013406288
44	0x3ba04271	0.004890733
45	0x3c09e74b	0.008416961
46	0xbbc32e41	-0.0059564416
47	0xbc10e313	-0.008843201
48	0xba016dca	-0.00049373193
49	0xbbf079bb	-0.00733873
50	0x3a80298d	0.0009778008
51	0xbbab1ea0	-0.0052221566
52	0x3b8a41cb	0.004219269
53	0xbbe8a573	-0.007099801
54	0xbbbb9593	-0.0057246177
55	0xb95caf54	-0.0002104615
56	0x3be78c4c	0.0070662852
57	0x39d42840	0.0004046578
58	0xbb86bfb5	-0.0041122087
59	0x3b28b8b6	0.0025744862
60	0x3c4d77e8	0.012540795
61	0x3bd99303	0.0066398396
62	0xbbce3026	-0.006292361
63	0xbc658c95	-0.014010568
