weights_new/EncoderEpochnew850_17_8.pt (torch_old, 237354 bytes, 27 tensors)

gamma_x_l.weight f4 [7, 7]
000000 4c 36 c2 be ac 8b ae be 46 e7 02 3e e7 b4 88 3e
       -0.3793205 -0.34090936 0.12783536 0.26700518
000010 7e ea 2f 3e 94 78 aa 3d f7 df 35 be 2f e8 a8 3e
       0.17179295 0.0832378 -0.17761217 0.32989642
000020 26 2c 0e c0 5e e8 73 be de 92 90 be 6a 2f 2f 3e
       -2.2214446 -0.2381911 -0.2823705 0.17107931
000030 2c 5e 86 be 00 3c 03 bd 0a 40 33 3e b0 9f 94 3c
       -0.26243722 -0.032039642 0.17504898 0.018142551
000040 91 64 a0 40 50 f3 24 be 38 7a ff bd 77 05 ac 3e
       5.012276 -0.16108441 -0.12474483 0.3359792
000050 1c 6a a0 be 40 ee df bd 84 83 9c 3d d6 93 5a 3e
       -0.31330955 -0.109341145 0.07642272 0.21345457
000060 14 c1 7a bd 0b d6 96 3e eb 7c ae 3e 6a 58 0c 3e
       -0.06121929 0.29460177 0.3407968 0.13705602
000070 62 90 90 be 76 e8 95 be a4 01 36 be d0 24 81 3c
       -0.28235155 -0.29278916 -0.17774063 0.015764624
000080 2c af 90 bd cd 41 b3 3e 88 ed 21 bd 77 ad b9 3e
       -0.070646614 0.3501114 -0.039533168 0.36265156
000090 b6 54 0d 3e de af 71 3e 76 b9 80 be ad 88 83 3e
       0.13801846 0.23602244 -0.25141495 0.25690213
0000a0 e4 55 9a 40 fe 74 4a 3e 18 b7 e6 3d 3e aa 4b 3e
       4.8229847 0.19771191 0.11265391 0.19889161
0000b0 de bf a6 be e6 cc 0a 3e f7 92 16 be ee a7 29 3e
       -0.32568258 0.13554725 -0.147045 0.16567966
0000c0 69 3f 79 be
       -0.24340595

gamma_x_l.bias f4 [7]
000000 9c 2c dd bc ea 87 0a 40 69 d3 3a bd ee 90 84 bd
       -0.02699881 2.1645455 -0.045611773 -0.06472956
000010 70 80 3a be aa 1b f7 3f aa 95 f8 bc
       -0.18213058 1.9305317 -0.030344803

gamma_h_l.weight f4 [64, 7]
000000 80 21 0d be cb 4c 00 3f 4e 6c 8f be 7c d3 0a bf
       -0.1378231 0.50117177 -0.28012317 -0.5422895
000010 06 9d 96 be 78 22 36 be a8 7c 3f be a4 a4 66 3f
       -0.29416674 -0.17786586 -0.18699896 0.9009497
000020 d9 00 59 bf d5 13 34 be 22 bf 4f bf 56 70 1c be
       -0.8476692 -0.1758569 -0.8115102 -0.15277228
000030 9f d3 85 be ad 48 5f 3f d5 e7 88 3e bd b7 24 bf
       -0.26138017 0.8722027 0.26739374 -0.6434286
000040 32 7f 89 be 1b b9 18 bf 20 40 0d be 83 e6 e8 be
       -0.26854855 -0.5965745 -0.13793993 -0.45488366
000050 7f 2f b9 3e 7f d8 7e be 98 63 c5 be bd 21 6a 3d
       0.3616905 -0.24887274 -0.38552547 0.05716108
000060 85 cb a1 3e c9 c5 84 be e4 1c 10 be 7a 37 bb be
       0.31600586 -0.25932148 -0.14073521 -0.36565763
000070 23 56 cf bc a5 4e 34 3e a9 db 70 bd bf 19 c5 be
       -0.025309628 0.17608126 -0.058803234 -0.38496205
000080 34 a7 5f 3e d3 ad 83 3c 65 29 31 be 2b 3b a8 3e
       0.21841127 0.016074097 -0.17300947 0.32857642
000090 1a 37 6c be 79 90 eb 3e 95 63 6a bd 0c 07 d4 bd
       -0.23067895 0.4600866 -0.057223875 -0.103529066
0000a0 58 7b 12 bf db 45 e1 3e 7a 6d 57 3e f3 66 c7 3e
       -0.5721946 0.43998608 0.21037856 0.38945732
0000b0 a0 34 84 3f cb 6e 51 3f 4e 7c 8a 3d 53 db 0e 3f
       1.032856 0.8180968 0.067619905 0.5580341
0000c0 1d f9 da be fc 1c ab bd a7 1a a4 3e ec ff 9c 3f
       -0.42768183 -0.08355138 0.32051584 1.2265601
0000d0 26 8d 24 bf 52 fb 33 3f ab 63 5f 3f 98 2e 1d bf
       -0.64277875 0.7030536 0.87261456 -0.6139922
0000e0 4a 44 6c be 12 86 8a 3e 2a 71 8c be 8e b0 3b be
       -0.23072925 0.27055413 -0.27430087 -0.18329069
0000f0 d2 c6 94 be 1d 54 87 be e3 bb 73 3e c2 3c b9 be
       -0.29057938 -0.2643136 0.23802142 -0.36179167
000100 e0 cb c6 bd f8 5b df bd 13 dd 40 be 72 b8 3b be
       -0.09706855 -0.109062135 -0.18834333 -0.18332079
000110 7b 3e 8a 3e b0 de 16 be 58 b3 15 3f 67 3e 3a be
       0.27000794 -0.14733386 0.5847678 -0.18187867
000120 55 92 8e be 07 86 68 37 b6 d1 40 3d 05 db c7 3d
       -0.27846017 1.3859483e-05 0.047074996 0.097585715
000130 df 25 7b 3f 2c 5f 34 bf 44 b5 4e 3d a7 ca 9a 3f
       0.9810466 -0.7045772 0.050465837 1.2093095
000140 81 d7 7a bd 7e be e4 be 87 cb 0e bf 00 47 35 3f
       -0.061240677 -0.44676584 -0.5577931 0.7081146
000150 d6 ba 0b bf 46 97 08 bf 72 76 df be c2 6c 8f be
       -0.54581964 -0.53355825 -0.43645054 -0.28012663
000160 44 55 02 bf 22 19 22 bf b2 c2 22 3f 25 61 96 be
       -0.50911355 -0.633196 0.6357833 -0.2937099
000170 c9 50 f7 bd c0 8e 01 3e 54 a2 fb bc a7 ec 9f be
       -0.120759554 0.12652111 -0.030717053 -0.3123524
000180 ce 5e 50 be 73 0f 62 be 3e 94 02 bf 1b ae 4b 3e
       -0.20348665 -0.22076206 -0.5100745 0.19890635
000190 3c 37 9a be 16 c7 10 3c 48 e1 39 be b7 fd 25 3e
       -0.30120265 0.008836528 -0.18152344 0.16210066
0001a0 64 15 94 be 07 27 be 3d 5b c7 8b 3e 28 66 85 3c
       -0.2892257 0.092847876 0.27300534 0.016284063
0001b0 96 ca 29 3e 93 4e 36 be cb 57 15 bf 87 28 a1 bf
       0.16581187 -0.17803411 -0.58337086 -1.2590493
0001c0 06 6b 5f 3e 39 4b f4 be 87 44 e4 bd b1 ad 4b bd
       0.2181817 -0.4771364 -0.11145883 -0.049726192
0001d0 79 15 29 bf 88 d4 eb 3d 60 29 ac be d1 f6 88 3d
       -0.6604839 0.115151465 -0.33625317 0.066877015
0001e0 9e 28 74 bd 52 34 07 3e f5 f8 e8 be 4e b8 8e be
       -0.059609048 0.13203552 -0.4550244 -0.27874988
0001f0 73 63 2e be 31 2b ca be 4a db 5a 3f 30 ea 7d bf
       -0.17030124 -0.39486077 0.8549086 -0.99185467
000200 e0 8c 91 3f 3b e4 09 3f c3 84 8d 3e a9 58 fd bd
       1.1371117 0.5386388 0.27640352 -0.12370426
000210 a1 2b 83 bf f7 af 08 3f 68 24 d4 3d d3 31 20 3f
       -1.024769 0.533935 0.103585064 0.62576026
000220 bc 4b cc be ea 3c a4 be 98 01 fa 3e 82 2f ff 3e
       -0.3990153 -0.32077724 0.4882934 0.49840933
000230 7a 48 bf bc 4b e4 b6 be e8 10 94 be b3 44 ce bd
       -0.02334999 -0.3572105 -0.28919148 -0.10071697
000240 a6 6e db be 0d 10 dd 3d 91 e3 8a 3e 4a 00 05 bf
       -0.42857856 0.10794077 0.27126744 -0.51953566
000250 f8 09 5e 3e 04 af 24 3d 44 ab b2 bd c7 16 00 3d
       0.2168349 0.04020597 -0.087240726 0.031271722
000260 20 9d ac 3d f6 e0 b6 be af 15 68 3e 59 42 09 3f
       0.08428407 -0.35718507 0.22664522 0.53616863
000270 b0 73 ec bf d0 5b 86 3f 04 c7 16 be 70 9a 1d 3f
       -1.8472805 1.0496769 -0.14724356 0.6156378
000280 3f 4a 34 3f 6e b5 5c be 5e 17 a0 3d 8c 37 60 3d
       0.7042579 -0.21553585 0.07816957 0.054740474
000290 6b 45 a2 3e 51 d4 b0 be 21 ce 7e be 56 80 e0 bd
       0.31693587 -0.34536985 -0.2488332 -0.10961978
0002a0 2b 2b 12 3d 76 64 a5 be 89 d3 95 bd 05 61 20 bf
       0.0356857 -0.32303208 -0.07315738 -0.6264804
0002b0 f4 08 e1 bd 07 3e 07 3d 94 2e 5c 3e 57 e8 85 3e
       -0.10988036 0.03301814 0.21502143 0.26153824
0002c0 31 4a 35 bf 67 82 d7 be ad a4 31 3f b8 f5 bd be
       -0.7081633 -0.42091677 0.693919 -0.3710153
0002d0 c8 36 35 3f c2 ec 49 3d ba 9c fe be 52 d3 d0 3e
       0.70786715 0.049298055 -0.49728948 0.40786225
0002e0 2e b2 62 3e f0 59 ef 3d 88 13 c1 3b c3 49 11 3f
       0.22138283 0.11687076 0.005892221 0.56753176
0002f0 8a 40 aa be 88 6c 24 be b3 e5 70 be a4 a0 87 bd
       -0.33252364 -0.16057026 -0.23525123 -0.06622437
000300 c0 ba c7 3c fc 72 39 be 00 92 a1 be 48 d0 53 bd
       0.024381042 -0.1811027 -0.31556702 -0.051712304
000310 06 f4 5b 3e 45 d4 1d be 32 76 f9 be ca 0a ba be
       0.21479806 -0.15413006 -0.48722988 -0.36336356
000320 5b 9c c9 be ba 7f 4b bd a1 7a bb be 0c da dd 3d
       -0.39377102 -0.049682356 -0.36616996 0.10832605
000330 ad fa 96 3e 58 af bc be 3d 42 61 be f9 3b 82 be
       0.29488125 -0.36852527 -0.21997924 -0.2543638
000340 c8 57 25 be 10 32 82 bc 01 12 83 bf c0 e4 a2 3d
       -0.16146767 -0.015893012 -1.0239869 0.07953787
000350 6c 8c 89 3f 85 b5 72 3e 0e 28 66 bf c9 12 a2 3e
       1.0745978 0.23702057 -0.8990487 0.31654957
000360 0c ca f3 be f1 21 7f bf 64 93 d2 3e 57 af 07 3f
       -0.47615087 -0.99661165 0.41128075 0.5300192
000370 c8 70 50 3f 12 79 ad 3a 69 8b 2a 3f 6d af 2d bf
       0.8142209 0.0013234934 0.66618973 -0.67845803
000380 0e 8b dd be 3e 54 0b bf 8d ce be 3e 1d d3 3b bf
       -0.43270153 -0.5442542 0.3726696 -0.7336901
000390 0a f5 30 bf 71 5f 4f bf f3 cd e9 3d 61 d9 b7 3f
       -0.691239 -0.8100501 0.11416235 1.4363214
0003a0 35 08 1a bc ec 6e ba bf 7e 0f 1f be 13 36 8e 3e
       -0.009401371 -1.4565101 -0.15533254 0.2777563
0003b0 d5 92 44 be e5 ce 89 bf 54 55 d6 be c3 4d 99 be
       -0.19196637 -1.0766264 -0.41861975 -0.2994214
0003c0 cf d9 07 be d7 4c 58 be f8 33 39 be 47 7b 08 bf
       -0.13266681 -0.21123062 -0.18086231 -0.53313106
0003d0 1c ec c9 3e 4d 29 a6 be 71 21 91 be 0a fe 4e be
       0.3943795 -0.32453385 -0.28345826 -0.20214096
0003e0 dc af 9d be 00 48 b9 bb 40 84 76 bd ce 86 0d 3e
       -0.30798233 -0.005654335 -0.060184717 0.13820955
0003f0 8e 11 b4 bf 26 23 cd 3c 7b be 4e 3f fa 8a cd 3e
       -1.4067857 0.025041174 0.807594 0.40145093

gamma_h_l.bias f4 [64]
000000 0c 1b 95 be f1 4d d5 be 2d 6a e7 be 6d 75 16 3e
       -0.29122198 -0.41661027 -0.45198193 0.14693232
000010 8d e0 bc be 9e 27 a3 be 37 96 cd 3e ef dc 24 3f
       -0.3689007 -0.31866163 0.40153667 0.6439962
000020 0e e5 a4 be 42 1a 6c 3e 21 ad 09 3f 67 a0 3c be
       -0.32206005 0.23056892 0.537798 -0.18420564
000030 82 24 e0 be e2 8c 42 be d0 0e 47 be e2 06 df 3d
       -0.43777853 -0.18999055 -0.19439244 0.10889985
000040 9c 4a a2 be 1a 5d 83 be 48 c8 e2 bd 6f 43 cd be
       -0.31697547 -0.25656968 -0.11073357 -0.4009051
000050 1f 86 b9 be 8a 8a a8 be 33 93 ef 3e 3a 41 15 be
       -0.3623514 -0.32918197 0.46791992 -0.14575663
000060 08 33 2f be 5c c3 7f 3d 7b 35 4c be c2 7b 58 3e
       -0.1710931 0.06244217 -0.19942276 0.2114096
000070 52 59 82 be 6e 34 53 be 87 b1 01 bf 47 72 d8 bd
       -0.2545877 -0.20625469 -0.5066151 -0.10568672
000080 83 b8 83 be ac 5c 87 3d 7a a1 ab be 76 45 14 be
       -0.2572671 0.06609473 -0.33521634 -0.14479622
000090 11 9b a9 bc 3d da 1c 3e 4a ce 6d be 05 00 09 3d
       -0.020703824 0.15317626 -0.23223224 0.033447284
0000a0 5e 0e c0 3d dc 0a 07 3e 67 ee 86 be ab 4c c1 bb
       0.0937774 0.13187736 -0.26353762 -0.005899032
0000b0 82 ce 82 3e 64 04 ae be 2e ca e9 be 69 48 cf bd
       0.25548178 -0.33987725 -0.45662063 -0.10121233
0000c0 a3 05 95 3e 81 9d 89 bd 6f 7a bf 3c 3c b9 96 bd
       0.29105863 -0.067194946 0.02337381 -0.073595494
0000d0 18 3c 51 bd 42 07 42 bf 03 71 fb be a2 02 01 bf
       -0.0510827 -0.75792325 -0.4910966 -0.5039464
0000e0 87 0c aa 3e 57 ed 4b bd 56 f8 a5 be d0 b7 10 3b
       0.33212683 -0.04978689 -0.32416028 0.0022082217
0000f0 22 76 41 bf 6b 2b 4a be 0a 92 0a bf 7c a7 cd be
       -0.7557088 -0.19743125 -0.5412909 -0.40166843

encoder_lstm.weight_ih_l0 f4 [256, 7]
000000 d0 68 c4 c0 76 25 18 c0 27 74 96 bf 4a 63 19 40
       -6.1377945 -2.3772864 -1.1754197 2.3966851
000010 c3 fa 4d c0 8e cb 90 3f 51 93 49 3f 32 f9 19 be
       -3.2184303 1.131212 0.7874041 -0.15036467
000020 d4 c8 95 3e f3 65 2c c0 06 4f 0e c0 67 bb 16 3f
       0.29254782 -2.6937225 -2.2235732 0.58879703
000030 0b 00 d7 3f 2b 73 85 3f 70 f0 04 40 da 37 ba bf
       1.6796888 1.0425771 2.0771751 -1.4548295
000040 1d 4e 1d bf 32 1a 2e c0 61 49 1b 3e 77 29 33 3f
       -0.61447316 -2.7203488 0.1516471 0.69985145
000050 3b e7 9d 3f d6 3b 56 bf d5 45 0d 3e 91 29 60 bf
       1.2336191 -0.8368505 0.1379617 -0.87563425
000060 a7 28 f4 c0 07 b2 ef bf 0a 5e 4d 3e 20 80 f3 bf
       -7.6299624 -1.8726205 0.20055404 -1.9023476
000070 c4 07 23 40 9b bd 3b 3f 57 da 8f bf 3a 3e 22 bf
       2.547349 0.7333619 -1.1238507 -0.633762
000080 73 01 5a bf ad 7d 3e bf 2d 8b 31 40 b1 03 ab 3e
       -0.8515846 -0.74410516 2.7741196 0.33401254
000090 3a 26 28 be aa 00 81 3f 7f 12 49 bf c5 2a 53 3f
       -0.16420832 1.0078328 -0.7854385 0.82487136
0000a0 54 af d1 3f 89 cb cd 3e d1 69 bb c0 ac 7b 62 bf
       1.6381631 0.40194348 -5.856667 -0.8846996
0000b0 2d bb 30 c0 7f 57 dc 3f 89 ab 91 bf 4d 53 df bf
       -2.7614243 1.7214202 -1.1380473 -1.7447296
0000c0 d2 c4 bf be 1d c3 d3 c0 02 d5 b7 bd 05 79 2e bf
       -0.3745485 -6.6175675 -0.08976175 -0.6815341
0000d0 c1 da 10 3b 30 34 f9 be 88 d7 9a be 01 e9 f6 bf
       0.0022103044 -0.48672628 -0.30242562 -1.9289857
0000e0 71 84 18 40 db c4 24 40 36 f5 2c c0 f8 19 7c 40
       2.3830836 2.574515 -2.7024665 3.939085
0000f0 65 17 4c bf 87 98 16 c0 90 b2 d2 3f 2b 72 38 c0
       -0.797232 -2.3530595 1.6460743 -2.8819683
000100 67 2e 54 bf 56 fb 5e 40 6e af ca c0 9c 33 4d be
       -0.82883304 3.4840903 -6.3339148 -0.20039219
000110 50 23 9c 3e 66 a9 33 c0 aa 81 6c 3f f1 7d ed 3d
       0.3049569 -2.8072143 0.9238535 0.11596287
000120 77 9a 02 40 c6 81 91 3f ab d7 28 40 7c fe 03 c0
       2.0406778 1.1367729 2.6381633 -2.0624075
000130 b2 75 d6 3f 2f b4 86 bf 6a 6d 31 bf f7 2f 11 c0
       1.6754668 -1.0523738 -0.6930758 -2.2685525
000140 71 2d 22 bf 66 ba 05 bf 58 b9 65 3e ce cc 09 bf
       -0.6335059 -0.52237546 0.22433984 -0.5382813
000150 46 de c8 be d8 01 dc 3f 7e 7b a6 3f 18 d5 13 40
       -0.3923208 1.7188063 1.3006437 2.3098812
000160 5f 6f 2e 40 01 f2 20 bf f1 72 38 3f 38 54 3f bf
       2.7255476 -0.6286927 0.72050387 -0.7473788
000170 6b d0 3b bf 38 e6 9a bc f2 65 6a 40 9b 0a e4 3b
       -0.73364896 -0.018908605 3.6624722 0.006959272
000180 d8 50 45 bd 84 fb c2 3f 03 16 bd bd 4a e0 cb 3e
       -0.0481728 1.5233006 -0.09232714 0.39819556
000190 2b c9 4a bf 42 46 42 3e 91 c6 6c 3f 26 92 43 3f
       -0.7921321 0.18972114 0.9249049 0.7639488
0001a0 19 b7 ba 3f df f1 93 3e bf dd c1 3e f9 74 8c bf
       1.4587127 0.2889547 0.3786449 -1.0973197
0001b0 6f ca 6c bf 64 d6 cb be 9e e8 e7 bf 4b 0e a8 3e
       -0.9249639 -0.39812005 -1.8117864 0.32823405
0001c0 be f6 bb bc 5f 81 8b bf 53 45 2e c0 24 85 29 3f
       -0.022944804 -1.0898856 -2.7229812 0.6621878
0001d0 96 c2 81 bd 70 c6 ba 3f bc 72 a0 3f 0a 48 43 40
       -0.063359424 1.4591808 1.2535014 3.051272
0001e0 e6 34 47 c0 4b 3c 99 40 91 1d 03 bd 4c 4d 27 40
       -3.1126037 4.78861 -0.03201062 2.6140928
0001f0 47 49 9f bd 7f 95 fe 3f 9f 1a 11 40 8b 0e 3c 3e
       -0.077776484 1.9889373 2.2672498 0.18364923
000200 d6 7e 04 c0 3f 29 ac bf b8 47 bd be 7b 26 40 be
       -2.0702415 -1.3450087 -0.3696878 -0.18764679
000210 ec 4d 59 3f 1a 3e 15 3f d4 aa 65 be 1d 82 8d 3d
       0.84884524 0.58297884 -0.22428447 0.06909583
000220 5e df 66 bf b5 7b d6 3f e8 b4 55 3f 3b 5a 1f bf
       -0.9018458 1.6756502 0.83479166 -0.62247056
000230 2e ad 25 3d 30 dc 1b bf 6a 20 34 c0 0b ef f1 bf
       0.04044836 -0.60882854 -2.8144784 -1.8901075
000240 7f 49 16 bf 15 29 55 3f 0b af c0 3f b3 90 59 3f
       -0.58705896 0.8326581 1.5053419 0.8498642
000250 b6 10 45 bf 10 94 b4 bf 40 b8 47 bf fa 38 b9 3b
       -0.76978624 -1.4107685 -0.7801552 0.005652544
000260 c1 92 e8 bf e4 df b8 3f 5b 01 3f c0 04 6b 64 bf
       -1.8169786 1.4443326 -2.9844577 -0.8922579
000270 f0 26 bd bf 2f 6f 5b c0 c3 ad 3c be 3f 65 28 3f
       -1.4777508 -3.428661 -0.1842566 0.6577949
000280 98 c8 eb 3f 33 69 c9 3f 5a 5a af 3f 37 88 0e c0
       1.8420591 1.5735229 1.3699448 -2.227064
000290 61 65 06 40 0f b0 9f be 83 24 9a bf c8 af 0b 3f
       2.0999377 -0.3118901 -1.2042392 0.54565096
0002a0 8b b9 63 bf f7 8e 87 bf 4c 61 24 c0 41 70 24 c0
       -0.8895499 -1.0590504 -2.5684385 -2.5693514
0002b0 5b 45 15 bf 4c 29 3d 3f 79 d6 a5 3d 88 8c 35 bf
       -0.58308953 0.7389114 0.08097548 -0.7091756
0002c0 58 d5 7f bf 6d 68 a8 3f 48 11 48 c0 f5 9d 2d bf
       -0.9993491 1.3156868 -3.1260548 -0.6781915
0002d0 75 d6 6a be 71 c6 93 3f 5c da 4f 3e 43 02 0f be
       -0.22933371 1.1544935 0.20298141 -0.13965707
0002e0 81 39 49 c0 aa 0e e0 be cb 89 06 c0 91 36 48 bd
       -3.1441348 -0.43761188 -2.1021602 -0.048880164
0002f0 88 e2 e9 be 21 cc 9b 3f ec 80 4c 3e 2f 8c f4 bf
       -0.45680642 1.217167 0.19971055 -1.9105281
000300 ef f8 27 3f 28 2d 77 be ee 1e 0f 3f 76 2a ad be
       0.6561422 -0.2413832 0.5590657 -0.33821458
000310 a4 70 cb 3e 9c 57 59 3f 66 56 07 c0 96 72 3d 40
       0.39734375 0.84899306 -2.1146483 2.9601188
000320 71 ac 14 bf 5b 73 83 be e6 d5 e7 3f 65 dd 90 3f
       -0.58075625 -0.25673947 1.8112152 1.1317564
000330 4d 6d 4b 3e e5 3d b1 c0 f8 b1 bd be aa 2e 24 c0
       0.19865914 -5.5388055 -0.37049842 -2.5653481
000340 43 ca 88 bf e0 ac e8 bf c0 31 b6 c0 0c ce 7a bf
       -1.0686725 -1.8177757 -5.693573 -0.9797065
000350 cc 38 5b 3f d1 72 b7 3f 1a 6b 1c be de 1f f8 bf
       0.8563354 1.4331914 -0.15275231 -1.9384725
000360 a8 9d 0a c0 f7 ac 13 c0 66 fc f6 bf 45 dd 46 c0
       -2.1658726 -2.307432 -1.9295776 -3.1072552
000370 85 ac c4 bf e4 67 53 bf ab b4 b0 3d c9 1d 5c 3e
       -1.5365149 -0.825804 0.0862821 0.21495737
000380 1f 90 e2 bf d0 16 df be bd 3e 67 3e 9b 6c e9 c0
       -1.7700232 -0.43572092 0.22582527 -7.2945075
000390 e0 68 4a 3f 3d 17 f4 3e b9 d5 0d bf 9e b7 d2 be
       0.79066277 0.4767398 -0.5540424 -0.41155714
0003a0 92 16 46 bf bf 74 28 3c ce f8 1d 3f 73 47 5c 3f
       -0.7737819 0.010281741 0.6170777 0.8604652
0003b0 7e 4f 20 3e 96 00 38 3f 5c 50 cc be 57 65 d2 3f
       0.15655324 0.71875894 -0.3990506 1.6437176
0003c0 2e 96 cc bd bf 7d 8e be a5 39 2e 3f e7 c8 9e bf
       -0.09989582 -0.27830312 0.6805671 -1.240506
0003d0 6f 96 83 3f c5 b2 51 c0 f1 75 65 bf 47 3e 08 40
       1.0280284 -3.2765362 -0.8963309 2.128801
0003e0 3a 0c 4f 40 6f a8 75 3f b3 15 56 bf 50 60 24 be
       3.2351213 0.95960134 -0.8362686 -0.16052365
0003f0 8e b9 43 3c 34 14 31 bf 27 2f 91 3f 73 85 a3 40
       0.011946095 -0.6917145 1.1342515 5.11004

encoder_lstm.weight_hh_l0 f4 [256, 64]
000000 97 ff 62 bf 93 4f ad be 51 0d fd 3e 05 5a c4 bc
       -0.8867125 -0.33849773 0.49424222 -0.023968706
000010 d9 41 3b 3e a6 71 76 bf c4 ca 12 3e 54 0a 45 3f
       0.18286838 -0.96267164 0.14335161 0.76968884
000020 ea e4 4b bf f6 b4 28 bf 20 f0 db 3f 09 67 f9 3f
       -0.7964617 -0.65901124 1.7182655 1.9484569
000030 15 22 05 bf 37 5f fb 3d be a0 33 bf 38 f1 09 bf
       -0.5200513 0.1227402 -0.7016715 -0.53883696
000040 0d bb 21 bf 9d e1 b9 be 3c f0 01 be 51 a5 c7 be
       -0.6317604 -0.36304942 -0.12689298 -0.38993314
000050 f9 db 2c bf 86 a3 27 c0 63 87 87 bf 78 9a d5 3e
       -0.6752315 -2.6193557 -1.0588192 0.41719413
000060 f8 e8 50 3e 42 f5 27 bf cb e2 93 3f b4 72 8d 3f
       0.2040137 -0.6560861 1.1553587 1.105063
000070 d7 50 ce be 01 59 a6 bf 40 d7 1f 3f c7 61 b9 bf
       -0.4029605 -1.2995912 0.6243782 -1.4482964
000080 43 22 5a be 3d 29 0e 40 ac 58 8d bf 02 4c 7c be
       -0.21302132 2.221267 -1.1042686 -0.2463837
000090 1f 40 4f 3f 7f 6c 84 3e 4a 58 10 be 03 42 6f be
       0.80957216 0.25864026 -0.1409618 -0.23365025
0000a0 7f d8 91 3e 1a dd 54 3e 9b 97 d3 3e 68 19 93 3d
       0.28485486 0.20787469 0.41326603 0.0718258
0000b0 31 34 47 be 92 4e 71 3e 69 79 11 bf 47 14 85 bf
       -0.19453503 0.23565128 -0.5682588 -1.0396813
0000c0 e9 6d 8d 3e b5 21 41 3f 0d bd 09 3e ad a6 db 3e
       0.27622917 0.7544206 0.13451023 0.429006
0000d0 be 75 d2 3e 16 40 e6 bf ec 43 34 be 96 e8 fb be
       0.41105455 -1.7988307 -0.17604035 -0.49200886
0000e0 91 58 15 be c6 59 24 bf d2 34 b8 3f 2f 05 5d be
       -0.14584567 -0.64199483 1.439112 -0.21584009
0000f0 5d 0c 9a be f4 4d 48 3f 06 99 c9 be b6 d7 da bf
       -0.30087557 0.7824395 -0.3937456 -1.709708
000100 ae a1 73 3e 02 00 e2 bc 90 9f 55 3f 3e 96 25 3e
       0.23792145 -0.027587894 0.834466 0.16170594
000110 51 42 1f bf 08 20 19 3f 6a 14 9d 3e fa 81 9d be
       -0.62210566 0.598145 0.30679637 -0.30763227
000120 1a 96 75 3f f0 6f 06 3f d2 1b a0 3e 7e 89 dc 3d
       0.9593216 0.52514553 0.31271225 0.10768412
000130 60 fe 33 3d d0 b8 01 be 1d a2 21 bf 80 52 4d bf
       0.043943763 -0.12668157 -0.6313799 -0.8020401
000140 b3 b0 41 bf a7 46 46 bf 82 d9 8e 3e 59 d3 fe bd
       -0.75660247 -0.77451557 0.2790032 -0.12442655
000150 c3 92 aa 3c e0 43 79 be d9 92 34 3f 10 c9 05 3f
       0.020821935 -0.24342299 0.7053657 0.5225992
000160 00 0e a7 3e 19 8d 6b be b0 ac 21 bd 67 76 0c 3f
       0.3262787 -0.23003043 -0.03947133 0.5486817
000170 62 48 15 3f 4e bf 72 3d 8b 9d cb 3e 40 fd 8e bf
       0.5831357 0.059264474 0.39768633 -1.1171036
000180 bd 63 83 3e 3f b5 f3 be b0 37 4a bd af ce 5e 3d
       0.25662032 -0.47599217 -0.049369514 0.054396328
000190 70 8b 88 3e 9c ab 4f bf b3 e2 e3 3d 4b ff b0 3d
       0.26668882 -0.8112123 0.11127224 0.08642443
0001a0 83 c5 6a bf 71 b9 06 be 57 27 9d 3d 40 21 ce be
       -0.9170763 -0.13156678 0.07673519 -0.40259743
0001b0 aa 9f c3 bd 0e 3e ff 3e 97 bd aa be 7e 2f 76 be
       -0.09551938 0.4985203 -0.3334777 -0.24041554
0001c0 79 11 6b 3d 5d bd 07 bf 2d 60 bd 3c df cc 2e 3f
       0.05738971 -0.5302332 0.02311715 0.6828136
0001d0 a6 54 7f be 9c 21 11 bf 88 7f b0 bf 3f 22 d5 bd
       -0.24934635 -0.5669191 -1.378892 -0.104069225
0001e0 0e 51 07 bf 7c aa 2a bf 06 f5 83 3e 1f 28 ab 3e
       -0.52858055 -0.6666639 0.25772876 0.33429047
0001f0 9f 63 6d bf fa 68 5d be 85 f3 d1 3e 0a 6b bd 3c
       -0.92730135 -0.21622077 0.41006103 0.02312233
000200 56 95 fd be 2f dd 80 3f 05 15 64 be 0a f4 62 3f
       -0.49527997 1.00675 -0.22273643 0.88653624
000210 b8 8a 94 bf 2c ed 89 3f f1 55 1d be 42 c5 91 3c
       -1.1604834 1.0775504 -0.15364815 0.017794255
000220 9f 16 77 3f e6 f0 9a bb 3a 3a 20 bf 93 b5 69 bf
       0.9651889 -0.0047284244 -0.62588847 -0.91292685
000230 da f4 2b 3d 76 d0 ef bf 4a 2a e7 be a9 cd 7d bd
       0.041981556 -1.8735492 -0.45149451 -0.06196371
000240 1a 40 4d 3f 8b 0e 47 3e d7 32 86 be c3 45 ad 3e
       0.80175936 0.19439141 -0.26210663 0.33842286
000250 32 5b 88 be a5 40 7c 3f 8a b3 97 bf 44 13 d5 be
       -0.26632077 0.9853614 -1.1851666 -0.4161626
000260 6b 58 09 bf ab d3 b8 3e 52 86 53 be ad 68 40 bf
       -0.5365054 0.3609899 -0.20656708 -0.7515972
000270 79 e3 0c bd aa 84 06 be 7e e1 d3 be 5c d3 76 3f
       -0.034396622 -0.13136545 -0.41382974 0.9641626
000280 71 8c f3 3e 09 fa 8f be 22 e5 f0 be a1 6f 51 3e
       0.47568086 -0.2812045 -0.47049814 0.2045274
000290 f5 ab 13 bf fa 9b 11 bf 7d 3d 3c bf 63 aa c3 be
       -0.5768426 -0.56878626 -0.73531324 -0.38215932
0002a0 67 40 9c 3e 5d 2f 72 be bc e4 38 bf b9 cd 95 be
       0.30517885 -0.2365088 -0.7222402 -0.29258516
0002b0 42 de 9f bf 06 0a 88 bd 4b 2d ba 3f f4 de 9d be
       -1.2489703 -0.06642537 1.4545072 -0.30834162
0002c0 dd b4 d2 be 1d ca 7a 3f a2 6e fd be 29 73 e6 3e
       -0.41153613 0.9796465 -0.4949847 0.45009735
0002d0 72 3e 08 bf 15 49 5d bd ec 9d dd be 9e c6 a2 3e
       -0.53220284 -0.054024775 -0.43284547 0.31792158
0002e0 9f 08 05 be 40 e6 15 3f 11 e7 be bf e5 17 f2 bd
       -0.1299157 0.5855446 -1.4914266 -0.11820964
0002f0 17 87 cd 3e 74 ea 62 bf ad 8c d8 3f 81 fd 27 3f
       0.40142128 -0.88639 1.6917931 0.6562119
000300 ad bf 4f bf 6a 92 6c 3e 76 5a b0 bf ff 54 8d bf
       -0.8115185 0.23102728 -1.3777606 -1.1041564
000310 08 0f 36 3f 45 28 77 bf 59 59 64 bf 79 91 63 3f
       0.71116686 -0.9654582 -0.89198834 0.8889385
000320 20 1f 1f 3f f0 1e 51 bf 8f e7 40 bf f8 b1 39 3f
       0.6215687 -0.8168783 -0.7535333 0.72537184
000330 58 2b ef 3e 96 0c f0 be c9 cd 85 bf b9 74 29 bf
       0.46712756 -0.46884602 -1.0453426 -0.6619373
000340 c9 58 de 3e ac d1 0c bf 12 8d 91 bf 65 e5 20 3f
       0.43427113 -0.55007434 -1.1371176 0.6285003
000350 4e 50 b2 3e 77 e1 2e 3f 55 59 01 bf fd c0 95 be
       0.34826893 0.6831278 -0.50526935 -0.292488
000360 6c 7a 78 3e 7f e8 9b be ce 3b 47 3f e7 ae 5d 3f
       0.2426545 -0.30450818 0.7782563 0.86595005
000370 ee 39 ad bf ab 08 13 3f a6 cb 42 be dc 92 2d bd
       -1.3533304 0.574351 -0.19022998 -0.042376384
000380 9c e8 c7 be 6c 14 df be ce f5 05 40 4f 33 8f 3d
       -0.39044654 -0.43570268 2.0931277 0.06992208
000390 a3 45 6a bf 43 61 68 3f f1 9c 27 3f 8f 6c b6 bc
       -0.9151251 0.9077341 0.6547385 -0.022268562
0003a0 2b 57 da 3e 5f 04 eb be f2 af d2 bc 0b 43 a9 bb
       0.4264463 -0.45901772 -0.025718663 -0.005165463
0003b0 29 3b a0 3e 6f 9b 3e 3e ff 60 2f bf 73 e8 5c bf
       0.31295136 0.1861398 -0.6850738 -0.8629219
0003c0 5a f4 16 bf 87 7b 46 bf f6 a2 fb bf c5 c0 d0 bf
       -0.589666 -0.7753224 -1.9659107 -1.6308829
0003d0 00 d8 f1 be 28 83 56 3f 3c 90 55 bf aa 90 b9 bd
       -0.47235107 0.8379388 -0.8342321 -0.090607956
0003e0 a7 ee 85 be 95 9b e3 3f 5d 53 a2 bf 08 d0 63 bf
       -0.2615864 1.7781855 -1.268169 -0.88989305
0003f0 97 2e cd be 3b 23 a4 be c1 3f 00 3f 28 26 c1 3f
       -0.40074608 -0.3205813 0.5009728 1.5089769

encoder_lstm.bias_ih_l0 f4 [256]
000000 07 15 a4 ba 68 2a 77 be db 54 0f bf 5b 7b a3 be
       -0.0012518474 -0.2413727 -0.55988854 -0.3193005
000010 cc 27 83 3d 04 91 8d be 04 9d 1e 3e 3b 09 60 be
       0.06404075 -0.276497 0.15489584 -0.21878521
000020 6b c6 2c 3e a1 27 0a bf 72 a9 ab be b3 7b 00 bf
       0.16872565 -0.5396672 -0.33527714 -0.5018875
000030 4b 7b 02 3d e5 71 4b be a3 e4 ec 3d fb b2 ba be
       0.031855863 -0.19867666 0.115670465 -0.36464676
000040 61 ce 07 bf 29 57 80 be 73 4c 2e 3e f1 be ad bd
       -0.53049284 -0.25066498 0.1702135 -0.08483685
000050 c4 df 3d bf 63 d6 c2 be b6 1d ae bd 8a 96 6a be
       -0.74169564 -0.3805419 -0.08501761 -0.22908989
000060 d8 c3 27 bf 91 33 e7 be c6 f8 f1 be 5f ca 46 bd
       -0.6553321 -0.4515653 -0.47260112 -0.04853284
000070 4e 62 15 bf 9c b2 83 be 77 2a 2b be e4 8d c7 be
       -0.58353126 -0.25722206 -0.16715418 -0.3897544
000080 fe 25 d8 be 59 3d a4 be 93 c8 ef be a7 8d ca bd
       -0.42216486 -0.32078055 -0.46832713 -0.09890299
000090 e5 78 17 bf af 1c 96 be 3c 4d fa be 39 d6 c8 be
       -0.59168845 -0.2931876 -0.4888705 -0.3922594
0000a0 88 bd 10 bf 56 2d b5 be 6b a6 37 bf 19 69 9b be
       -0.565392 -0.3538615 -0.7173831 -0.3035362
0000b0 8a c9 aa be 48 13 ae be bd aa 96 be 0d 2f 28 3d
       -0.33356887 -0.33999085 -0.29427138 0.041060496
0000c0 19 c0 41 3d 43 ff 29 bf 19 6d 0b be fe 84 f0 be
       0.04730234 -0.66405123 -0.13615836 -0.46976465
0000d0 2f e2 44 3e f5 54 05 3f 6d e1 d7 be 39 03 c1 be
       0.19226907 0.5208276 -0.42164174 -0.3769777
0000e0 2f 55 f5 be fa 7f f7 be d0 0f 2f be 60 81 03 bf
       -0.47916552 -0.48339826 -0.17095876 -0.51369286
0000f0 14 68 5d be 51 1e 59 be 4d ae 4b bd 51 bd d2 3e
       -0.21621734 -0.21202971 -0.049726773 0.41160062
000100 58 2d 66 bd fe 91 9a 3e 1f bd 84 3e 35 c4 21 bf
       -0.056195587 0.30189508 0.25925538 -0.63190013
000110 f8 e0 6d bf 5b af 0c bf 8a 1d 60 3e 70 ad b0 3f
       -0.929214 -0.5495507 0.21886268 1.3802929
000120 49 93 14 bf 85 44 cf be 99 1f 22 bf b6 3c 96 be
       -0.5803724 -0.40481964 -0.63329464 -0.29343194
000130 a5 17 34 bf c1 3d 23 be a4 6b e8 be 84 dc 8f bf
       -0.7034858 -0.15941526 -0.45394623 -1.1239171
000140 b2 90 e9 3d 7b b3 22 be 45 2b 28 be 8f a7 ef be
       0.114045516 -0.15888779 -0.16422756 -0.46807525
000150 cd de f3 bd 1f 0d 5f bf 6b 8f 2b 3e d5 56 78 bf
       -0.1190773 -0.87129396 0.16753928 -0.97007495
000160 98 fd 05 bf 81 e0 c6 be cc 57 e8 be 2a d2 2a bf
       -0.5234008 -0.38843158 -0.45379484 -0.66726935
000170 28 ca 96 3d b5 62 05 bf 91 b4 0c 3f 1f 50 fc be
       0.07362777 -0.5210374 0.5496302 -0.49279878
000180 e0 bb b5 be ac 7e 4a bf d9 e8 7b be 95 a0 85 bd
       -0.354949 -0.79099536 -0.24600543 -0.06524769
000190 86 3f 36 3f 51 ef f3 be 55 e6 41 bd ff 50 bc be
       0.7119068 -0.4764352 -0.047338802 -0.36780545
0001a0 c2 c9 06 bf 48 ce 93 3d 9e df 3b bf 25 e3 37 bd
       -0.5265161 0.072170794 -0.7338809 -0.044894356
0001b0 c1 04 fb be ae 1a 02 bf f5 ad 55 bf 25 d7 c6 be
       -0.49027064 -0.5082196 -0.8346856 -0.38836017
0001c0 21 8d d8 be 10 e2 d2 be 05 04 1b bf f1 06 e5 be
       -0.42295173 -0.41188097 -0.6055301 -0.44731858
0001d0 c7 24 44 bf f5 a4 ce be 6f eb 8b be 7b a7 e0 be
       -0.7661862 -0.40360227 -0.2732806 -0.43877777
0001e0 31 dd c8 be 9b 41 33 3d dd 98 4f be 95 10 27 3e
       -0.39231256 0.043763738 -0.20273156 0.1631492
0001f0 ec 09 4a bc b8 8b 47 be 6c 56 0b bf dc b5 62 be
       -0.012331467 -0.19486892 -0.54428744 -0.22139686
000200 15 06 04 3e 97 e6 a2 3e a7 eb 91 be c9 0d 07 bd
       0.12892945 0.3181655 -0.285001 -0.03297213
000210 83 96 21 be ee 70 ca bc c4 60 03 3e ad ea 9a be
       -0.15780072 -0.024712052 0.12829882 -0.30257168
000220 6a d5 e3 bd 81 eb 2e be 3d 39 80 3d 62 9e 92 3e
       -0.1112469 -0.17082025 0.06260917 0.28636461
000230 ad c0 3c 3e 9d 4a 18 3e a0 cb 4f 3e ca 47 3f 3e
       0.18432875 0.14872213 0.2029252 0.18679729
000240 bc a4 09 be a6 f4 cb 3d d1 0b 30 bd ff 55 f0 bd
       -0.13441747 0.09958772 -0.04298002 -0.117351525
000250 3a b4 50 3e bb d7 6d bd 7c e1 c9 3e ea 03 22 3e
       0.20381251 -0.058067065 0.39429843 0.15821806
000260 4f 02 30 3e 11 9d 14 3e 80 5a 55 3d 50 4c a3 3d
       0.1718838 0.14513041 0.05208826 0.0797354
000270 fc 37 14 bc 77 8d c5 3c 74 7c 0d 3f b8 93 c6 bd
       -0.009046551 0.024115307 0.55268025 -0.09696144
000280 65 b2 28 be 37 7b d3 3d 17 00 25 3e 66 7c db 3d
       -0.16474302 0.10326236 0.16113316 0.107170865
000290 0b 5b b5 3d e7 b7 23 3e 74 3b c1 3e e9 a3 cf bd
       0.08855256 0.15988122 0.37740672 -0.10138685
0002a0 5a 4b a6 3d 46 d7 29 bc 9c ca b2 bd 18 f4 88 3e
       0.08119841 -0.010366267 -0.08730051 0.2674873
0002b0 e6 9c 4e 3e 10 e9 28 bb e0 6a fd bc d6 34 04 3f
       0.2017704 -0.0025773682 -0.030934751 0.5164312
0002c0 9a c4 26 be bf 2a f3 bd e5 f0 f9 3d e6 3c f9 bc
       -0.16285935 -0.118733875 0.1220415 -0.030424546
0002d0 ea d9 1a be 2d 26 52 bd fe a2 34 3e 32 26 2c bd
       -0.1512219 -0.05130594 0.17640302 -0.042028613
0002e0 8a fb 66 3e 00 f8 08 3d 0e ef 35 3e 89 65 3b be
       0.22556892 0.033439636 0.17766973 -0.18300451
0002f0 78 d6 85 be 7d 31 33 3e ee 25 c6 3d c1 9c 1b 3e
       -0.2614019 0.17499347 0.09675203 0.15196516
000300 50 ef a2 bd 48 3d 85 be 4d 0e 60 be 65 4b a6 be
       -0.079558015 -0.26023316 -0.21880455 -0.32479396
000310 d8 30 ae 3d 38 5f d8 be f4 f8 a3 bb ae 38 0c 3e
       0.0850541 -0.42260146 -0.0050040428 0.13693497
000320 2b 34 60 3e cb 20 aa be 12 73 d7 be 5a 0f 14 bf
       0.218949 -0.33228144 -0.4207998 -0.57835925
000330 12 ec 19 be 2d 2f f2 bd 39 49 d0 3e 0e 9f 00 bf
       -0.1503146 -0.11825404 0.40680864 -0.502427
000340 ee de d2 be 62 e3 a3 3e 18 a9 2b bd 8d 9a 81 be
       -0.41185707 0.32009417 -0.041909307 -0.25313225
000350 50 5f f9 be 1b 1f 77 be 76 e7 68 3c d0 46 6f be
       -0.4870553 -0.2413296 0.014215341 -0.23366857
000360 4b d8 11 bf 7a 0a d5 be 5a 05 c9 be 16 1c a1 3d
       -0.5697066 -0.41609555 -0.39261895 0.07866685
000370 99 58 17 bf e6 15 4e be 14 e9 b2 be 2e 17 e7 be
       -0.59119564 -0.20125541 -0.3494345 -0.45134872
000380 dc 63 12 bf 58 ae 9f be 84 fc 0f bf 1b b8 7c be
       -0.57183623 -0.311877 -0.56244683 -0.24679606
000390 c1 61 80 be ca 85 39 be bf 0a 1c bf 2c c6 e3 be
       -0.2507458 -0.18117443 -0.609539 -0.4448713
0003a0 41 56 bf be 8f 62 42 be 49 98 1b bf 50 6c 0d bf
       -0.37370494 -0.1898291 -0.60779244 -0.55243397
0003b0 f1 3c b0 be ab a7 5b bc f6 d3 7e be ba 46 8a bd
       -0.34421495 -0.013406674 -0.24885544 -0.06751771
0003c0 59 ff 05 3e 0c d0 34 bf 33 4e 38 be 17 f9 e4 be
       0.13085689 -0.70629954 -0.1799858 -0.4472129
0003d0 a2 5a f5 3d d8 ae b1 3e 64 6f 69 be 01 8d 75 be
       0.119801775 0.34703708 -0.22796398 -0.2397957
0003e0 f9 3f 96 be 06 1a 85 be f8 b1 55 be c6 ee df be
       -0.29345682 -0.25996417 -0.20868671 -0.43736857
0003f0 ce 86 0a bf 5e de b4 be cf 67 dc 3d b4 13 6e 3c
       -0.54111946 -0.35325903 0.107619874 0.014531065

encoder_lstm.bias_hh_l0 f4 [256]
000000 fb 31 11 3e 7e cc d4 bc 09 c3 e3 be 4c 4b 89 be
       0.14179222 -0.025976416 -0.44484738 -0.2681526
000010 bb 16 b4 3d 28 16 a5 be b8 f9 11 bc 29 8d ee bd
       0.08793398 -0.32243466 -0.008909635 -0.11648018
000020 8f 18 4c 3d 72 0f e0 be 2a 82 b4 be 4e 79 1e bf
       0.04982811 -0.43761784 -0.35255557 -0.61903846
000030 1a 4d 1e be 75 85 95 be d6 1a 32 3e 7c 7e 03 bf
       -0.154591 -0.29203382 0.1739305 -0.51364875
000040 fe e9 bd be 62 24 f0 be 3b bd 7d 3b 7f 9d d2 3b
       -0.37092584 -0.46902758 0.0038717526 0.0064274664
000050 e0 38 30 bf e5 62 de be 03 8e a7 bd 1b 69 ff bd
       -0.68836784 -0.43434826 -0.081813835 -0.12471219
000060 29 18 41 bf 60 81 95 be 02 2d d2 be f7 1c f4 3c
       -0.7542749 -0.29200268 -0.41049963 0.029798968
000070 5f fa e0 be 51 d5 11 be 56 7d 6b bd 13 a2 01 bf
       -0.43941018 -0.1424153 -0.057492577 -0.5063793
000080 12 44 d8 be 9b b4 79 be 1e 44 0d bf 47 cc 51 be
       -0.42239434 -0.24385302 -0.55182064 -0.20488082
000090 35 71 10 bf 5c 9c d4 bd 74 01 ea be 3f f6 ef be
       -0.5642274 -0.10381386 -0.45704234 -0.46867558
0000a0 ac 5d c7 be 3a 64 ba be ce 80 1f bf 26 2e e6 be
       -0.38938653 -0.36404592 -0.62305915 -0.44957083
0000b0 ee e7 ad be 4d e4 37 be 8b 42 7c be 04 7c 9d 3d
       -0.3396601 -0.17958184 -0.24634759 0.0768967
0000c0 5e 48 f7 3d 7b 44 39 bf 71 1a 1c be 6c 58 03 bf
       0.1207435 -0.7237012 -0.15244462 -0.51306796
0000d0 c0 5a 36 3e c5 af 08 3f 6e f1 71 be 3b 82 c4 be
       0.17808056 0.53393203 -0.23627254 -0.38380608
0000e0 bb 4e fa be bf 07 fc be 03 a2 af bd 9c e1 14 bf
       -0.48888192 -0.4922466 -0.08575823 -0.5815675
0000f0 f6 cd 2d be e6 32 4f be 7e be 53 bd cf d1 de 3e
       -0.16973099 -0.2023426 -0.05169534 0.43519446
000100 72 75 6a bb 1f 8f 9e 3e b6 93 95 3e 3e 50 12 bf
       -0.003577557 0.30968568 0.29214257 -0.5715369
000110 5d 15 73 bf 01 69 2e bf 07 c6 b2 3e 5f 99 af 3f
       -0.9495447 -0.68128973 0.34916708 1.371868
000120 4a 8c 12 bf 84 ac ec be da 1c 1d bf 5a 9e a6 be
       -0.57245314 -0.4622537 -0.6137215 -0.32542688
000130 04 52 11 bf ae 36 fa bd 2b aa ec be d3 54 93 bf
       -0.5676577 -0.122174606 -0.46223578 -1.1510261
000140 db 3e 1d bd d0 af 8d be 87 91 8f be 24 a2 16 bf
       -0.03839002 -0.27673197 -0.28040716 -0.58841157
000150 77 c3 bb be d1 d1 87 bf 54 ca c7 3c 4f 64 6b bf
       -0.36672565 -1.0610906 0.02438847 -0.91949934
000160 64 7d f1 be 68 04 08 bf 12 b2 2e bf db 48 26 bf
       -0.47165978 -0.53131723 -0.68240464 -0.6495492
000170 0a 3b a4 3c 96 30 fe be 7c a3 14 3f 70 d2 d4 be
       0.020047683 -0.49646443 0.5806196 -0.415668
000180 bc 57 c3 be 1a 32 2d bf a9 a3 e0 bd d8 e1 95 be
       -0.38152874 -0.67654574 -0.10968716 -0.29273868
000190 fb f7 37 3f 8e 7e 8a be 6f d8 f1 3d 68 99 99 be
       0.71862763 -0.2704968 0.118088596 -0.29999852
0001a0 ab 4d fb be 4e b7 08 3e fc 9f 61 bf 50 b2 a6 bd
       -0.49082693 0.13351175 -0.8813474 -0.08139479
0001b0 0e e6 09 bf 51 d8 ed be 95 36 37 bf 0b 34 d3 be
       -0.5386666 -0.464541 -0.7156766 -0.41250643
0001c0 89 f9 de be 3e 6c ae be 79 a5 12 bf 45 9d f5 be
       -0.43549755 -0.34066957 -0.5728374 -0.4797155
0001d0 bd 1b 4a bf 14 ca cb be 9f ff 83 be a0 9d b2 be
       -0.78948575 -0.3980261 -0.2578096 -0.34885883
0001e0 1e c5 c2 be ab 52 07 bd 9a ea 5a be 81 37 91 3e
       -0.38041013 -0.033037823 -0.21378556 0.2836266
0001f0 26 10 0b bd 8c c7 59 be c4 5d 2a bf d7 bf 85 be
       -0.033950947 -0.21267527 -0.66549325 -0.26122925
000200 17 c3 99 3e 0e 36 ae 3e ce cb 68 be 04 94 37 be
       0.30031654 0.34025615 -0.22733995 -0.17927557
000210 2a 42 b1 bd dc 50 87 bc 1d 75 4d 3e a7 e1 0c be
       -0.08655198 -0.016518049 0.20064206 -0.13757955
000220 59 08 5a be 34 35 8b bd 62 12 de bd 06 6b 09 3e
       -0.21292247 -0.06797257 -0.1084335 0.13419732
000230 cb d2 ef 3b 75 5a b2 3d dd 88 40 3e 1e 52 c8 3d
       0.0073188297 0.087086596 0.18802209 0.097812876
000240 4f 0d 38 be 86 c0 52 3e b9 51 b9 bc be 85 89 3d
       -0.17973827 0.20581254 -0.022621976 0.067149624
000250 71 f3 26 3e 06 a9 32 be 62 39 44 3e 1a 07 83 3d
       0.16303803 -0.1744729 0.19162515 0.06397839
000260 08 66 91 3e 4b 27 29 3e 07 a3 09 bd cb 2a 12 3e
       0.28398156 0.16518895 -0.03360274 0.14274137
000270 8d ce b0 3a 74 01 9e bd 11 f9 15 3f a2 64 8c be
       0.0013489291 -0.07715121 0.5858317 -0.27420527
000280 21 ee 80 be 25 53 b5 3d a1 d9 b7 3d 56 c2 a0 3c
       -0.25181678 0.08853749 0.08977056 0.019623917
000290 d9 ac 67 bd 6d 75 7d 3e 09 9e 28 3e 00 39 2b be
       -0.056561325 0.24751826 0.16466536 -0.16720963
0002a0 fc b3 37 3e 0c c3 55 3b 9f aa 04 3c fc 4d 80 3e
       0.17939752 0.0032617478 0.00809732 0.25059497
0002b0 1a 25 81 3e fb 8d ee bc c1 f5 35 be 7d 94 c3 3e
       0.2522362 -0.029120436 -0.17769529 0.38199225
0002c0 aa 71 a3 bd 86 f7 cd 3c 28 53 b5 bd 90 1e 61 be
       -0.07980664 0.025142442 -0.088537514 -0.21984315
0002d0 f0 1e 32 bd 3c dd 87 bd 70 29 6e 3e 2f 84 c9 bc
       -0.043486536 -0.06633994 0.23257995 -0.024599163
0002e0 e1 15 1e 3e 06 35 55 3d be 2f 55 3e a0 d3 48 be
       0.15438034 0.05205252 0.20818993 -0.19611979
0002f0 9e b1 35 be dd 24 3b 3e b3 c1 35 3e a2 27 ce 3d
       -0.17743537 0.18275781 0.17749672 0.10066153
000300 42 1c c3 3d 0b 1a 92 be 86 c1 4f be 03 2a c7 be
       0.09526874 -0.28535494 -0.20288667 -0.3889924
000310 4b 8f 12 3d b6 e8 a2 be 1c f8 15 3e 74 1d 32 3d
       0.035781186 -0.3181817 0.14645427 0.04348512
000320 70 24 21 3e 35 3a 95 be 16 82 94 be 68 92 1a bf
       0.15736556 -0.2914597 -0.29005498 -0.6037965
000330 2d 60 1d be 42 d0 62 be ce b3 b6 3e 93 c1 b8 be
       -0.1536872 -0.22149757 0.35684055 -0.36085185
000340 16 59 c0 be 74 d8 c4 3e db e8 9b bb 81 7d 86 be
       -0.37567967 0.3844639 -0.004757983 -0.26267627
000350 3f 0c 35 bf 14 05 c7 be 98 85 ed 3d bf d8 da bd
       -0.7072181 -0.38871062 0.115977466 -0.10685872
000360 a9 70 22 bf 22 36 d4 be 39 6c b0 be 69 8f c5 bd
       -0.63453156 -0.4144755 -0.34457567 -0.09646494
000370 67 b1 40 bf 6d 55 6e be 1c 78 d1 be a6 22 17 bf
       -0.75270694 -0.23274775 -0.4091195 -0.59037244
000380 e3 ad 18 bf 7d ad 5b be d3 04 01 bf 4e f7 4a be
       -0.5964033 -0.214529 -0.50397986 -0.19820902
000390 da cd a7 be 06 3a 2f be 8b 65 0c bf 78 18 f3 be
       -0.3277424 -0.17111978 -0.5484244 -0.47479606
0003a0 c9 a5 a8 be 24 b9 75 be 6d 70 2c bf 4b a1 1e bf
       -0.32938984 -0.23996407 -0.6735905 -0.61964864
0003b0 c6 33 90 be 94 bd 14 be 01 77 ae be cd d5 97 3d
       -0.281645 -0.14525443 -0.34075168 0.07413826
0003c0 4c d8 28 3d df 9a 26 bf 2c a2 7f be d5 cc 0a bf
       0.0412219 -0.65080065 -0.24964207 -0.542188
0003d0 75 dc 8d 3d d8 08 8b 3e cf 67 32 be 31 b6 af be
       0.069268145 0.27155185 -0.17422412 -0.3431869
0003e0 ad 04 90 be 8b 44 d0 be 75 96 ba bd e3 aa b9 be
       -0.28128567 -0.40677294 -0.09110729 -0.3626319
0003f0 11 7b c7 be 2f 69 9c be f0 a1 8b 3d b9 dd ca bc
       -0.3896108 -0.30549 0.068179965 -0.024763929

encoder_attn.weight f4 [1, 148]
000000 09 1f 87 3d 61 0b 44 3d 23 9a 0c bd 82 3c a0 3d
       0.06597716 0.047862414 -0.034326684 0.07824041
000010 3b 0b 61 bd b7 42 1c bd 73 0e 6c 3d 2e af 86 3d
       -0.05494235 -0.03814956 0.057630967 0.065763816
000020 b3 e7 59 3c be 58 e4 b9 12 8e 95 3d 12 f2 98 bd
       0.01329987 -0.00043553667 0.073024884 -0.07468046
000030 de 37 3a 3c 7a 1c 7f bd b8 48 8a bc 72 a4 80 3b
       0.011365859 -0.062283017 -0.016880378 0.0039258534
000040 bd 1e 8e 3c 24 29 18 3d a5 b0 06 bd 04 7e a6 bd
       0.017348642 0.03714861 -0.032883305 -0.08129504
000050 95 23 9d bd d3 45 83 3d 02 ef ac bc 17 e8 22 bd
       -0.07672802 0.06409802 -0.021110062 -0.03977212
000060 9a be 51 3d a3 2b 01 bd 6a 5f 9e 3d 40 5b be ba
       0.051207162 -0.031535756 0.077330425 -0.0014523044
000070 b6 2b 85 3c 13 ed 9b 3d c1 37 b4 3c b8 2f 17 bd
       0.016256195 0.07613578 0.021999242 -0.036910743
000080 38 5e da 3b 42 99 4b 3d c3 96 f0 bc a1 38 65 3d
       0.006664064 0.049706705 -0.029368764 0.05596221
000090 2e bb 9e 3d 50 2a 8f 3d 36 c4 24 3c 7f 28 03 3d
       0.077505454 0.06990492 0.010056546 0.032021042
0000a0 41 cd 56 3d de 1c d9 bc 0d 47 ea 3c 2c 98 1f bd
       0.05244184 -0.026503023 0.028598333 -0.03896348
0000b0 0a 17 97 3d 17 6b ca bc c7 46 84 bd 56 67 6d 3d
       0.07377441 -0.024709268 -0.06458812 0.057959877
0000c0 06 e0 84 3d 65 8b 65 3d dc c3 40 bd 29 a0 38 bd
       0.064880416 0.05604114 -0.047061786 -0.045074616
0000d0 36 b6 7d 3c 99 4e 9c 3d 18 3a 4c 3d 8a f9 80 3d
       0.015485337 0.07632179 0.04986009 0.06297596
0000e0 96 2b 0f bd 5d 88 a5 bc 93 69 25 3d df 55 5d bd
       -0.034953676 -0.020206625 0.040383887 -0.05403697
0000f0 52 ea 76 bd 32 5f 47 3d 44 18 43 3c cd aa 42 bd
       -0.06028206 0.04867477 0.011907641 -0.04752617
000100 58 ac 12 bd 68 09 da 3c e0 fe df bc 52 9c 7d 3d
       -0.03580889 0.026615813 -0.027343214 0.061916657
000110 7f b8 be 3b 07 c3 09 bd 78 71 b7 bb 2a 29 fc 3c
       0.0058203335 -0.03363326 -0.0055982433 0.030781347
000120 e0 09 9b 3d f3 0e 07 3d 57 fa b7 3d ce 47 bf 3c
       0.07570243 0.03297324 0.089832954 0.023349669
000130 18 5f 30 bd fe 70 2b 3d 54 cd ef bc f4 30 85 3d
       -0.04305944 0.041855805 -0.029272713 0.06503478
000140 62 ad 63 3c a2 7c 05 bc ac 27 34 bd 46 67 6b 3d
       0.013896318 -0.008147391 -0.043983147 0.057471536
000150 3b ed a7 3d d2 f1 11 bd d7 65 70 bd bc c9 16 bd
       0.08199545 -0.03563101 -0.058690872 -0.036813483
000160 38 e7 ba bc 7a 10 96 3d 78 80 91 3c 2c 0e 87 3d
       -0.022815332 0.073273614 0.017761454 0.065945
000170 de 2b a4 3d 27 8f 4d bd 58 21 b6 3d 31 99 22 3b
       0.080161795 -0.05018535 0.088930786 0.0024810547
000180 7d c9 a9 bd 2c a0 1c bd 44 76 3f 3d e4 3b 05 bd
       -0.08290384 -0.03823869 0.046743646 -0.03252782
000190 c8 c7 1a bd 5a d6 82 bd 6c 38 98 3d a1 62 be bc
       -0.037788182 -0.063885406 0.074326366 -0.02324039
0001a0 8d 5c 58 bd 8c e8 5c 3c 6e a4 2d 3d 4d 4f 24 3c
       -0.05282264 0.013483178 0.04239314 0.010028672
0001b0 9d 04 c3 bb bc e6 12 bd 88 09 45 3c 4d b6 a4 3d
       -0.0059514777 -0.035864577 0.012026198 0.080425836
0001c0 52 fc 8e bd 61 68 91 ba 52 79 48 bd f1 86 32 3d
       -0.0698172 -0.0011093729 -0.048943825 0.04358572
0001d0 dc 7a 16 bd f9 2c 85 bc c2 0e 8e 3a 37 e1 36 3b
       -0.03673826 -0.016256796 0.0010838138 0.0027905235
0001e0 81 b3 a5 bd bf 34 a3 3c 92 ba a0 bd 3e 74 ac bc
       -0.08090878 0.019922612 -0.078480855 -0.021051522
0001f0 d0 90 09 3d 8b 6e b1 bc 99 b8 65 bd f5 c0 18 3d
       0.03358537 -0.021659156 -0.05608425 0.037293393
000200 c1 3c 39 bf d6 20 8a bd 35 55 1f 3f 27 c9 06 3f
       -0.7235833 -0.06744544 0.6223939 0.52650684
000210 b7 0d ca 3f ed b7 f5 3e 96 4f 0a 3e 1a b4 8d 3f
       1.5785435 0.47991887 0.13506922 1.1070588
000220 dc f0 4b 40 ee e1 64 bf 6b 48 fc be 7a 1e 9e be
       3.186576 -0.8940724 -0.49274 -0.30882627
000230 ce 0d 34 c0 ab 8d ad bf 83 95 0f 40 33 d4 71 40
       -2.8133426 -1.3558859 2.2435005 3.7785766
000240 8d ac a9 bf 71 f4 60 3f d4 4b 89 be 81 ff 12 be
       -1.3255783 0.8787299 -0.26815665 -0.1435528

exp_avg f4 [7, 7]
000000 04 00 00 00 00 00 00 00 00 00 00 00 00 00 00 00
       6e-45 0.0 0.0 0.0
000010 00 00 00 00 00 00 00 00 00 00 00 00 00 00 00 00
       0.0 0.0 0.0 0.0
000020 04 00 00 00 00 00 00 00 00 00 00 00 00 00 00 00
       6e-45 0.0 0.0 0.0
000030 00 00 00 00 00 00 00 00 00 00 00 00 00 00 00 00
       0.0 0.0 0.0 0.0
000040 68 35 89 b2 00 00 00 00 00 00 00 00 00 00 00 00
       -1.5973185e-08 0.0 0.0 0.0
000050 00 00 00 00 00 00 00 00 00 00 00 00 00 00 00 00
       0.0 0.0 0.0 0.0
000060 04 00 00 00 00 00 00 00 00 00 00 00 00 00 00 00
       6e-45 0.0 0.0 0.0
000070 00 00 00 00 00 00 00 00 00 00 00 00 00 00 00 00
       0.0 0.0 0.0 0.0
000080 00 00 00 00 00 00 00 00 00 00 00 00 00 00 00 00
       0.0 0.0 0.0 0.0
000090 00 00 00 00 00 00 00 00 00 00 00 00 00 00 00 00
       0.0 0.0 0.0 0.0
0000a0 a2 77 0d b1 00 00 00 00 00 00 00 00 00 00 00 00
       -2.0586204e-09 0.0 0.0 0.0
0000b0 00 00 00 00 00 00 00 00 00 00 00 00 00 00 00 00
       0.0 0.0 0.0 0.0
0000c0 04 00 00 00
       6e-45

exp_avg_sq f4 [7, 7]
000000 e7 e3 7c 1d 00 00 00 00 00 00 00 00 00 00 00 00
       3.3469745e-21 0.0 0.0 0.0
000010 00 00 00 00 00 00 00 00 00 00 00 00 00 00 00 00
       0.0 0.0 0.0 0.0
000020 e3 48 2f 2a 00 00 00 00 00 00 00 00 00 00 00 00
       1.556841e-13 0.0 0.0 0.0
000030 00 00 00 00 00 00 00 00 00 00 00 00 00 00 00 00
       0.0 0.0 0.0 0.0
000040 87 b6 04 28 00 00 00 00 00 00 00 00 00 00 00 00
       7.367051e-15 0.0 0.0 0.0
000050 00 00 00 00 00 00 00 00 00 00 00 00 00 00 00 00
       0.0 0.0 0.0 0.0
000060 fd 65 47 1d 00 00 00 00 00 00 00 00 00 00 00 00
       2.6390157e-21 0.0 0.0 0.0
000070 00 00 00 00 00 00 00 00 00 00 00 00 00 00 00 00
       0.0 0.0 0.0 0.0
000080 00 00 00 00 00 00 00 00 00 00 00 00 00 00 00 00
       0.0 0.0 0.0 0.0
000090 00 00 00 00 00 00 00 00 00 00 00 00 00 00 00 00
       0.0 0.0 0.0 0.0
0000a0 77 9b 3d 27 00 00 00 00 00 00 00 00 00 00 00 00
       2.6313297e-15 0.0 0.0 0.0
0000b0 00 00 00 00 00 00 00 00 00 00 00 00 00 00 00 00
       0.0 0.0 0.0 0.0
0000c0 a0 0a f7 23
       2.6784294e-17

exp_avg f4 [7]
000000 04 00 00 00 7d 67 4a b3 e5 30 89 b2 04 00 00 00
       6e-45 -4.7125912e-08 -1.5971134e-08 6e-45
000010 00 00 00 00 1c f2 0f 34 04 00 00 00
       0.0 1.3405992e-07 6e-45

exp_avg_sq f4 [7]
000000 02 06 a1 1d bb dd a6 2a 70 68 bb 29 a4 16 1f 1d
       4.2622557e-21 2.964138e-13 8.322585e-14 2.105518e-21
000010 00 00 00 00 02 5b 3c 2c 61 7a 82 23
       0.0 2.6766926e-12 1.4146458e-17
