weights_new/EncoderEpochnew425_17_8.pt (torch_old, 237354 bytes, 27 tensors)

gamma_x_l.weight f4 [7, 7]
0	0x3f2f3adf	0.68449205
1	0xbe361570	-0.17781615
2	0x3e464812	0.1936343
3	0x3e2de8e6	0.16983375
4	0xbd889120	-0.066683054
5	0x3dc8b05c	0.09799263
6	0x3cab1670	0.020884722
7	0xbd95a94c	-0.073076814
8	0xbe81718d	-0.25281945
9	0xbe8a95ee	-0.27067512
10	0x3dfd7d64	0.12377432
11	0x3e398dee	0.18120548
12	0x3eb3f129	0.35144928
13	0xbeb7a554	-0.35868323
14	0xbe873b94	-0.26412642
15	0xbd08c040	-0.03338647
16	0x3ed18d19	0.4092796
17	0xbdcbaf40	-0.09945536
18	0xbeb3e2f7	-0.35134098
19	0x3e58c42a	0.2116858
20	0xbd8fc3c4	-0.07019761
21	0xbe5384a4	-0.20656067
22	0x3e794f36	0.24346623
23	0x3eb2bda5	0.34910312
24	0x3f8f50fd	1.1196591
25	0xbe6603ad	-0.2246234
26	0xbc3ce8e0	-0.011530131
27	0x3ec02151	0.37525418
28	0x3e59bae6	0.21262702
29	0x3e4799ca	0.1949226
30	0xbcb9e400	-0.022691727
31	0xbdc6a094	-0.096985966
32	0x3ea9ce79	0.3316534
33	0xbe98e58d	-0.29862633
34	0x3e726456	0.23671088
35	0xbd70deb0	-0.05880612
36	0x3e76be0e	0.24095938
37	0x3cf8c320	0.03036648
38	0xbebe3e24	-0.37156785
39	0xbe94c7c8	-0.2905867
40	0xbe6e41b3	-0.2326725
41	0x3ea65c2f	0.32492206
42	0x3dc6fcf8	0.09716219
43	0xbe073c91	-0.13206698
44	0xbe9d042b	-0.30667242
45	0x3c810d00	0.01575327
46	0xbd0c4c68	-0.034252554
47	0x3e53ce06	0.2068406
48	0x3cb0db6b	0.021589002

gamma_x_l.bias f4 [7]
0	0x3e224eea	0.15850416
1	0xbe925656	-0.28581494
2	0x3f1fc1b1	0.62404925
3	0x3f132500	0.5747833
4	0xbd48fb85	-0.049067993
5	0x3f13932d	0.5764645
6	0xbdcbe0ee	-0.09955011

gamma_h_l.weight f4 [64, 7]
0	0xbea0d3e5	-0.31411663
1	0x3ea52586	0.3225519
2	0x3ed9580e	0.42449993
3	0xbe3f91f7	-0.18708025
4	0xbe8c13f8	-0.27358985
5	0x3de01eea	0.109433964
6	0xbeb661b7	-0.35621426
7	0xbd4122d0	-0.04715234
8	0x3d2b4e08	0.041822463
9	0xbde05790	-0.10954201
10	0x3e8130cd	0.25232545
11	0x3d9607ec	0.0732573
12	0x3d99c400	0.07508087
13	0xbea4fa80	-0.32222366
14	0xbe27122e	-0.16315529
15	0xbe91c3af	-0.28469607
16	0x3e8f0f0a	0.2794116
17	0xbe3fbef4	-0.18725187
18	0xbe8878dd	-0.2665471
19	0x3ee52f9e	0.44762892
20	0x3ebe5f12	0.37181908
21	0x3eb9f841	0.36322215
22	0x3d4621f2	0.048372217
23	0xbe954270	-0.2915225
24	0xbea0ba77	-0.3139226
25	0xbdf51541	-0.119669445
26	0xbed0d4f3	-0.40787467
27	0x3d2ea63b	0.042639
28	0x3d441d02	0.047879227
29	0xbd83e320	-0.06439805
30	0xbd97eeb3	-0.07418575
31	0x3e8370e8	0.25672078
32	0xbeae199a	-0.34003907
33	0xbea22bef	-0.31674144
34	0xbcb9111e	-0.02259117
35	0x3e8588a1	0.26080802
36	0xbea712b2	-0.3263145
37	0xbe6882c5	-0.22706135
38	0xbea227e1	-0.3167105
39	0xbc8a9dd4	-0.016920961
40	0x3e9362e5	0.28786388
41	0xbec492fe	-0.38393396
42	0xbe9feee2	-0.3123694
43	0x3e913857	0.28363296
44	0xbeab544a	-0.33462745
45	0x3ea2fca9	0.3183339
46	0xbe85752e	-0.26065964
47	0x3eb1dea1	0.34740165
48	0xbd9f448b	-0.077767454
49	0xbecbf37b	-0.39834198
50	0xbc4425d1	-0.011971907
51	0xbb2eb2ca	-0.002665686
52	0x3e2c81b6	0.16846356
53	0x3d8662b4	0.06561795
54	0xbed10dfb	-0.4083098
55	0x3e4688e6	0.1938816
56	0xbe890f6e	-0.26769584
57	0xbe9f8a49	-0.3116019
58	0x3a8d35ae	0.0010773444
59	0x3b98280e	0.0046434468
60	0xbd74e125	-0.059785027
61	0x3e571d95	0.21007378
62	0x3ef8c9d3	0.4859148
63	0x3ec19fb8	0.37817168
64	0xbe34264b	-0.17592733
65	0x3f0e701a	0.55639803
66	0x3e1b2d51	0.15154006
67	0x3c2bdbed	0.010489446
68	0xbe5e7fdb	-0.2172846
69	0x3e7d9854	0.2476514
70	0xbd585642	-0.052816637
71	0xbe0ad33d	-0.13557144
72	0xbe4f36dc	-0.20235771
73	0x3ceb9644	0.028758176
74	0x3e6f3e5e	0.23363635
75	0xbe447117	-0.19183765
76	0xbe0c875f	-0.13723515
77	0x3ebf5963	0.37372884
78	0xbd503e88	-0.050840884
79	0xbe895bce	-0.26827854
80	0x3e7ff664	0.24996334
81	0x3e6dac9c	0.23210377
82	0x3d82821d	0.063724734
83	0xbe1e25a9	-0.15444054
84	0x3dfc5613	0.12321105
85	0xbec0a999	-0.37629393
86	0xbdaf59d3	-0.085620545
87	0x3c84fd5c	0.016234092
88	0x3e952203	0.2912751
89	0xbd00c8b3	-0.0314414
90	0x3e9a9e53	0.30198917
91	0x3e80453c	0.25052822
92	0x3e29ca7a	0.16581145
93	0x3e1ce56b	0.15321891
94	0x3e000c49	0.12504686
95	0xbe63cdbc	-0.2224645
96	0x3ea8805f	0.3291044
97	0xbebc79c2	-0.36811644
98	0xbd7ffec0	-0.062498808
99	0x3d956304	0.07294276
100	0xbdc7858c	-0.09742269
101	0xbe315039	-0.17315759
102	0xbe0f2454	-0.13978702
103	0x3b6a0a00	0.0035711527
104	0xbd782d50	-0.06059009
105	0x3e75ed31	0.24016263
106	0x3dcb5655	0.09928576
107	0xbe4b64fe	-0.19862744
108	0xbe70d8de	-0.23520228
109	0xbe1fdfc1	-0.15612699
110	0x3e8475ab	0.25871024
111	0x3e9ec97e	0.310131
112	0xbdcff71e	-0.10154556
113	0xbd0d69c5	-0.034524698
114	0xbe5fddf2	-0.21862009
115	0xbe3e5b70	-0.18589568
116	0xbe4d81cb	-0.20069043
117	0x3e6c4c47	0.23075972
118	0xbeabed05	-0.3357927
119	0xbe92b90b	-0.28656802
120	0x3e2f9bc5	0.17149265
121	0x3eacc9e9	0.33747795
122	0x3e07359c	0.13204044
123	0x3e87ca3e	0.26521486
124	0x3d12a9e3	0.035806548
125	0x3dd5c439	0.10437817
126	0x3e3ba842	0.18325904
127	0xbe35574a	-0.1770908
128	0xbc4ce0f7	-0.012504808
129	0xbd4136ed	-0.047171522
130	0xbebc5847	-0.367861
131	0xbd39cf9d	-0.04536401
132	0x3ebfab7e	0.37435526
133	0x3e155c36	0.14585957
134	0xbd67c861	-0.05658758
135	0x3ec6b0bf	0.38806722
136	0x3e11735e	0.14204165
137	0xbefa16e3	-0.48845586
138	0x3d8a6aba	0.06758638
139	0x3e18241c	0.14857525
140	0xbe933c0c	-0.2875675
141	0x3e56422b	0.20923679
142	0x3eaab186	0.33338565
143	0x3e6be9c2	0.2303839
144	0xbe97f1d8	-0.296767
145	0xbe185e12	-0.14879635
146	0x3eccb4e5	0.39981762
147	0x3e810803	0.25201425
148	0x3ea89f9b	0.3293427
149	0xbe72450a	-0.23659149
150	0x3e9f1fb2	0.3107887
151	0xbec27790	-0.37981844
152	0x3e397710	0.18111825
153	0xbe9d1cc1	-0.30686
154	0x3db8e415	0.09027878
155	0x3f0267f9	0.509399
156	0xbe9e77a8	-0.30950665
157	0x3eb934f1	0.36173204
158	0x3e72e8b3	0.2372158
159	0xbe618e07	-0.22026835
160	0xbeafd8d5	-0.34345117
161	0x3e12e9df	0.14347027
162	0xbe437fd6	-0.19091734
163	0x3e453daa	0.19261804
164	0xbdb57716	-0.088606045
165	0x3dd7edc3	0.10543396
166	0xbeb958da	-0.362006
167	0xbe199966	-0.14999923
168	0x3ef90541	0.4863682
169	0x3e852d85	0.2601129
170	0x3db93095	0.090424694
171	0xbe03dfc1	-0.12878324
172	0x3d8540f2	0.06506528
173	0x3ec36e33	0.38170013
174	0x3ed1aad2	0.40950638
175	0xbdedddf4	-0.116146
176	0xbdbef8e7	-0.09324818
177	0x3ddb4f24	0.10708454
178	0xbe0755fe	-0.13216397
179	0x3d62468d	0.055243064
180	0x3e0f63bb	0.14002888
181	0x3ec8425f	0.39113137
182	0x3ec5f4c3	0.386633
183	0x3e9ae38f	0.30251738
184	0xbeab096e	-0.33405632
185	0xbe6e6a9b	-0.23282854
186	0xbd36d5a7	-0.04463735
187	0x3e69f2fd	0.22846599
188	0x3dd044ec	0.10169396
189	0x3e3381a7	0.17529927
190	0xbe61e280	-0.22059059
191	0x3eab674b	0.33477244
192	0xbe798b22	-0.24369481
193	0x3e487b4b	0.19578283
194	0xbd7e31e1	-0.062059287
195	0x3e82d492	0.25552803
196	0xbea1d94c	-0.31611097
197	0xbe6adfc5	-0.22936924
198	0xbdb457fc	-0.08805844
199	0xbc906dd0	-0.017630488
200	0xbe4b080e	-0.19827291
201	0xbebb1d31	-0.3654571
202	0xbdc193d8	-0.09452027
203	0xbb8a72c0	-0.004225105
204	0x3dcc3c7c	0.09972474
205	0xbe09a255	-0.13440831
206	0xbea465b5	-0.32108846
207	0xbd44fa08	-0.04809001
208	0xbe7ce782	-0.24697688
209	0x3d57e650	0.052709877
210	0x3d03803c	0.032104716
211	0xbed4db6c	-0.41573656
212	0x3ea2abe4	0.31771767
213	0xbe35380a	-0.17697158
214	0xbea617bd	-0.32439986
215	0x3eafe934	0.34357607
216	0x3e88fc61	0.2675505
217	0xbe28c984	-0.16483122
218	0x3e02f217	0.12787662
219	0xbe5d5888	-0.21615803
220	0x3f148a6d	0.5802372
221	0x3e673f3a	0.22582713
222	0x3e9a2a3d	0.3011035
223	0xbe48acdb	-0.19597189
224	0x3ed562ba	0.41676885
225	0xbe627ec9	-0.22118677
226	0x3e23efe6	0.16009483
227	0x3eace988	0.3377192
228	0x3da8213b	0.08209463
229	0x3eb82855	0.3596827
230	0xbe6f7292	-0.23383549
231	0x3ee3dafc	0.4450301
232	0xbe3ffa9b	-0.18747942
233	0x3e6f052e	0.2334182
234	0xbe47c061	-0.1950698
235	0x3e47fc77	0.19529901
236	0xbe0fa89a	-0.1402916
237	0xbea52af8	-0.32259345
238	0x3c146eae	0.009059591
239	0x3d0b51d3	0.03401358
240	0x3ec095a0	0.37614155
241	0xbe065858	-0.13119638
242	0x3d45431a	0.048159696
243	0xbe8c5f6a	-0.27416545
244	0xbd7960b1	-0.060883228
245	0x3db99cf3	0.09063139
246	0x3e90268c	0.2815441
247	0x3edde318	0.4333732
248	0x3e860c27	0.26181147
249	0xbe5f65f5	-0.21816237
250	0xbdd3c121	-0.10339571
251	0xbd88f569	-0.06687433
252	0x3dab1949	0.08354432
253	0x3eb517a1	0.3536959
254	0x3e343769	0.17599262
255	0x3e8d243c	0.27566707

gamma_h_l.bias f4 [64]
0	0x3cc29406	0.023752224
1	0xbeb87aca	-0.3603118
2	0x3e9fa270	0.31178617
3	0xbeda7e75	-0.42674604
4	0xbeb86198	-0.36011958
5	0xbea92176	-0.3303334
6	0xbc36eccc	-0.011164855
7	0xbc934bbb	-0.017980447
8	0xbdd39dfc	-0.103328675
9	0xbea22b16	-0.31673497
10	0x3e2b9961	0.16757728
11	0x3e19842b	0.14991824
12	0xbe9fd33b	-0.31215844
13	0xbdbd1ddb	-0.0923421
14	0xbe2699e9	-0.1626965
15	0x3e9c1f19	0.30492476
16	0x3e7870d6	0.24261793
17	0xbecc4ce4	-0.39902413
18	0x3dd6644a	0.10468347
19	0xbed1fd46	-0.41013545
20	0x3edba8fd	0.42902365
21	0x3e700c90	0.23442292
22	0xbe68034e	-0.2265751
23	0xbe7e07c8	-0.24807656
24	0xbe911850	-0.2833886
25	0xbe861d7d	-0.26194373
26	0xbe070675	-0.13186057
27	0xbdf8cfcf	-0.12149011
28	0x3e9b851d	0.30374995
29	0x3ebfb32f	0.37441394
30	0x3da938b7	0.082627706
31	0x3e454a92	0.19266728
32	0xbe48b17a	-0.19598952
33	0xbe956af6	-0.29183167
34	0xbd820c12	-0.063499585
35	0xbea4e321	-0.32204536
36	0x3e67a0ca	0.2261993
37	0x3e44cd95	0.19219048
38	0x3ec2b002	0.38024908
39	0xbddeb54e	-0.10874425
40	0x3e080e9e	0.13286826
41	0xbc90ca24	-0.017674513
42	0xbe0cfc24	-0.13768059
43	0x3da8a5c4	0.08234742
44	0x3ea27b8f	0.31734893
45	0xbe7bd959	-0.2459463
46	0x3ea911f4	0.3302151
47	0xbd7b4177	-0.06134173
48	0xbe4c6955	-0.19962056
49	0x3e158c10	0.14604211
50	0xbe89c478	-0.26907706
51	0x3cdfd068	0.027321056
52	0x3d433b69	0.04766408
53	0x3eb17329	0.34658173
54	0x3d947d67	0.07250481
55	0x3e6abec4	0.22924334
56	0xbdb96447	-0.090523295
57	0xbe875e60	-0.2643919
58	0xbe16466e	-0.14675304
59	0x3e99fb9a	0.3007477
60	0xbe85571c	-0.26043022
61	0xbe28a7a7	-0.16470204
62	0x3ea7800d	0.32714882
63	0x3e1b195b	0.15146391

encoder_lstm.weight_ih_l0 f4 [256, 7]
0	0x3e7a0328	0.24415267
1	0x3d9521c8	0.07281834
2	0xbe7ae10e	-0.24499914
3	0xbe0ed8ba	-0.13949862
4	0x3dd36f2c	0.10323939
5	0x3cce3224	0.025170393
6	0x3e3a79bc	0.182105
7	0x3e762c77	0.240404
8	0xbe2d3bd7	-0.16917358
9	0x3e626de7	0.22112237
10	0xbf0a8de0	-0.54122734
11	0x3ea3b5dc	0.31974685
12	0x3e41b956	0.18918356
13	0x3c606f5f	0.013698428
14	0xbe076bf3	-0.13224773
15	0xbcb1cae3	-0.02170319
16	0xbe54b752	-0.20773056
17	0x3e316bf2	0.17326334
18	0xbda351ec	-0.0797461
19	0xbe987a78	-0.29780936
20	0x3e452d05	0.19255455
21	0xbbb5c431	-0.0055470695
22	0x3e3b9671	0.18319108
23	0xbe2d7155	-0.16937764
24	0x3e5bbe61	0.21459343
25	0xbe1c335f	-0.15253972
26	0xbea68026	-0.32519644
27	0x3d83f90c	0.06443986
28	0xbe2dba40	-0.1696558
29	0xbdc9586d	-0.09831319
30	0xbe2284bd	-0.15870948
31	0xbef03cfb	-0.46921524
32	0xbea80936	-0.32819527
33	0xbe134278	-0.14380825
34	0xbd83144b	-0.06400355
35	0x3bed5451	0.0072427173
36	0x3dc31a96	0.09526555
37	0x3e7f0d7e	0.2490749
38	0x3e780ad6	0.24222884
39	0x3e87a817	0.2649543
40	0xbeacd2a8	-0.33754468
41	0x3cedacb5	0.029013017
42	0x3df8cc11	0.121482976
43	0x3e1061a9	0.14099754
44	0x3e108e46	0.14116773
45	0x3ec3bb72	0.38228947
46	0x3de8401d	0.11340354
47	0xbe63fec6	-0.22265157
48	0x3eb17cc0	0.3466549
49	0x3e956b8d	0.29183617
50	0x3eaa90bb	0.33313546
51	0x3e6993fe	0.22810361
52	0x3e460657	0.19338356
53	0x3e33126c	0.17487496
54	0x3e5c73ec	0.21528596
55	0x3c185152	0.009296732
56	0x3f0fc902	0.5616609
57	0x3f16bc81	0.58881384
58	0x3f40a762	0.75255406
59	0x3f52e928	0.8238702
60	0x3f421e28	0.75827265
61	0x3ecf78a9	0.40521744
62	0x3efbcbf2	0.49179035
63	0x3e6359d1	0.22202231
64	0xbc38d333	-0.011280823
65	0xbcfb05a5	-0.03064234
66	0xbe2df790	-0.16988969
67	0x3e99b143	0.30018052
68	0x3e92ca7c	0.28670108
69	0x3d200ac1	0.039072756
70	0x3bde82f9	0.0067905155
71	0x3ccc8cc5	0.024969468
72	0x3e952691	0.29130986
73	0x3ee50162	0.44727618
74	0x3ebf9c74	0.37424052
75	0xbd17ab22	-0.03702844
76	0xbcd04d76	-0.025427561
77	0x3e5c5ca5	0.21519716
78	0x3dd3f447	0.103493266
79	0xbc0fe6ba	-0.008783037
80	0xbd698f88	-0.057021648
81	0x3e857042	0.26062208
82	0x3db87cbc	0.09008166
83	0x3e404515	0.18776353
84	0x3eb06005	0.34448257
85	0x3ebdaa7d	0.37044135
86	0xbc442fe6	-0.0119743105
87	0x3e8e155f	0.2775068
88	0x3e9b2b14	0.30306304
89	0x3e60c44a	0.21949878
90	0x3e93a9ef	0.28840587
91	0x3e906db1	0.28208688
92	0x3bd30d4c	0.006440794
93	0xbe8f69c7	-0.2801039
94	0x3f102f1a	0.5632187
95	0x3e52a020	0.20568895
96	0x3e6d6efc	0.23186868
97	0x3e4818b6	0.19540676
98	0x3eaa9ccf	0.3332276
99	0x3e8f94c7	0.28043196
100	0x3e5daad2	0.21647194
101	0x3f086755	0.5328267
102	0x3ed98698	0.424855
103	0x3e1712c2	0.1475325
104	0x3e98bfaa	0.29833728
105	0x3cba4d5a	0.022741962
106	0x3d757347	0.05992439
107	0xbe595ec1	-0.21227552
108	0xbd52cfc6	-0.05146768
109	0xbe48ae51	-0.19597746
110	0x3e24aefa	0.16082373
111	0x3eb0a151	0.34498075
112	0x3ecf9f49	0.40551212
113	0x3cd0c9cb	0.025486847
114	0x3dc37196	0.09543149
115	0xbd7c8102	-0.06164647
116	0x3e851b0f	0.25997207
117	0x3e91403e	0.28369325
118	0x3dbfe42b	0.093696915
119	0xbc4bf535	-0.012448599
120	0x3e508abf	0.20365427
121	0xbe423554	-0.18965656
122	0xbef24740	-0.47319984
123	0xbd88f39c	-0.0668709
124	0xbea31015	-0.31848207
125	0x3f11d3c8	0.5696378
126	0x3eb29dfa	0.34886152
127	0x3ecee563	0.40409383
128	0x3ecd9b12	0.40157372
129	0xbed9ab68	-0.42513585
130	0x3e947761	0.2899733
131	0x3e1b88fe	0.15188977
132	0x3f98bcd8	1.193263
133	0x3e721015	0.23638947
134	0xbd296dfc	-0.041364655
135	0x3e3f0f32	0.1865814
136	0xbe2094bd	-0.15681739
137	0x3e85d898	0.2614181
138	0x3dd86ac6	0.105672404
139	0x3dedc5d3	0.116099976
140	0xbe4945d5	-0.19655545
141	0x3c8d3e64	0.017241664
142	0x3e27584b	0.16342275
143	0x3e771072	0.24127367
144	0xbe132a25	-0.14371546
145	0xbe67e592	-0.22646168
146	0x3e06353f	0.1310625
147	0x3ed4cbc1	0.41561702
148	0xbda8952f	-0.082315795
149	0xbd7cebf3	-0.061748456
150	0xbceb3886	-0.028713476
151	0x3e1e032c	0.15430897
152	0x3dc6d2f7	0.09708207
153	0x3ea504e4	0.32230294
154	0xbe3d48c0	-0.18484783
155	0xbdbc7ff7	-0.09204095
156	0xbdfeb1e7	-0.12436276
157	0x3e43f4fa	0.1913642
158	0xbeb2dba7	-0.34933206
159	0xbeaa9246	-0.33314723
160	0x3d9881ee	0.07446657
161	0x3edff458	0.43741107
162	0x3f5c862f	0.8614225
163	0x3f339d09	0.7016149
164	0x3eaf968e	0.34294552
165	0x3f372690	0.71543217
166	0x3f0412d4	0.5159123
167	0x3ed2a9f8	0.411453
168	0x3ef620a6	0.48071784
169	0x3d4a938e	0.049457125
170	0x3e1617c9	0.14657511
171	0x3d601da7	0.05471578
172	0x3e8255af	0.25455996
173	0x3e86cd78	0.26328635
174	0xbd0219dc	-0.031762943
175	0x3ec0f377	0.3768575
176	0x3d99f6f2	0.07517804
177	0x3e04c62f	0.12966226
178	0x3f26388c	0.64930034
179	0x3e751d51	0.23936965
180	0x3d2beb4a	0.041972436
181	0x3e3ce23c	0.18445677
182	0xbeb64ae4	-0.35604012
183	0x3d88f3c5	0.0668712
184	0xbe3675cb	-0.17818372
185	0xbdc42da8	-0.09579021
186	0xbe5d6cb6	-0.21623501
187	0xbe95bb86	-0.29244632
188	0xbe0c4d7f	-0.13701437
189	0x3e3ea962	0.18619302
190	0x3d0d8891	0.034554068
191	0x3e64519b	0.22296755
192	0xbea7f4b8	-0.32803893
193	0x3e3569b6	0.17716107
194	0x3d9d128c	0.07669553
195	0x3dfbae83	0.12289145
196	0xbd805975	-0.062670626
197	0xbcf21b25	-0.02955396
198	0x3d9aee27	0.07564955
199	0xbe686d61	-0.22697975
200	0x3ea90fdf	0.3301992
201	0xba632bcd	-0.00086658896
202	0xbca922ba	-0.020646442
203	0x3d9b6491	0.07587541
204	0x3e066e2c	0.13127965
205	0xbd2a6203	-0.041597378
206	0xbe821190	-0.25404024
207	0x3e6447bb	0.22292988
208	0x3d25b7da	0.040458538
209	0x3dac8f43	0.084257625
210	0x3e9eea8f	0.3103833
211	0x3d829ff0	0.06378162
212	0x3d5d3e54	0.05401452
213	0x3be7eb5e	0.0070776185
214	0x3eb5cbc8	0.35507035
215	0x3d0f2ef2	0.03495688
216	0x3dc39866	0.09550552
217	0x3e9bbff7	0.30419895
218	0xbd792b87	-0.060832527
219	0xbd1fa3c1	-0.038974527
220	0xbe98871c	-0.2979058
221	0x3dc7f85e	0.09764169
222	0x3e6b8872	0.23001269
223	0x3d96a518	0.07355708
224	0xbca6590d	-0.020306135
225	0x3e6656dd	0.22494073
226	0x3cfdd7e2	0.03098673
227	0xbcc33dae	-0.023833122
228	0xbd6920f4	-0.056916192
229	0xbe35ae3c	-0.17742246
230	0x3f200cd5	0.6251958
231	0x3eae6af7	0.34065983
232	0x3c1fed56	0.009761175
233	0x3f94d3de	1.1627157
234	0xbf1975fb	-0.5994565
235	0x3f5dcca6	0.86640394
236	0xbdc250ff	-0.09488105
237	0x3f4bdcf6	0.79634035
238	0x3e37a0e4	0.17932469
239	0xbd88884c	-0.066666216
240	0xbdca145a	-0.09867163
241	0xbea74668	-0.32670903
242	0x3e2e8e41	0.17046453
243	0xbe99c907	-0.30036184
244	0x3ea8409e	0.328618
245	0x3d8e1aa5	0.06938676
246	0x3dab840b	0.083747946
247	0x3ed5462d	0.41655102
248	0xbf064b13	-0.52458304
249	0x3e42da3e	0.19028565
250	0xbe217e55	-0.15770848
251	0xbe79b5f6	-0.24385819
252	0x3eb65e4e	0.35618824
253	0xbdd9047f	-0.10596561
254	0x3d004bd7	0.031322327
255	0xbeadf4fc	-0.3397597

encoder_lstm.weight_hh_l0 f4 [256, 64]
0	0xbdac5fbe	-0.08416699
1	0xbcd31a47	-0.025769366
2	0xba89938c	-0.0010496243
3	0x3d2a5bd2	0.041591473
4	0x3c88335f	0.016626058
5	0xbda2e338	-0.07953495
6	0xbe0f8458	-0.14015329
7	0x3dde9ebf	0.10870122
8	0xbc37b489	-0.0112124765
9	0xbcabd70c	-0.020976566
10	0x3d873e37	0.066036634
11	0x3d99050a	0.07471664
12	0xbdee789b	-0.116440974
13	0x3e25edee	0.16204044
14	0xbdb87240	-0.090061665
15	0x3c9a44f2	0.018831704
16	0xbd412f6c	-0.047164366
17	0x3cd4b5fc	0.025965683
18	0x3cda4657	0.026644869
19	0xbe0439a0	-0.12912607
20	0xbd1271d4	-0.035753086
21	0x3e053d5e	0.13011691
22	0x3d0ed95c	0.03487526
23	0xbeb32501	-0.3498917
24	0xbd158978	-0.036508054
25	0x3cf3e4f2	0.029772256
26	0x3b006bf7	0.0019595602
27	0xbe0cde3f	-0.13756655
28	0x3e66de7a	0.22545806
29	0xbd9b004f	-0.07568418
30	0x3d958fd4	0.07302824
31	0x3dd7c59c	0.10535738
32	0x3e28cebd	0.16485114
33	0x3dcf4c33	0.10121956
34	0xbd821d5e	-0.063532576
35	0x3dbda347	0.09259658
36	0x3e0c0808	0.13674939
37	0xbd5e77ab	-0.054313343
38	0xbd2cd24e	-0.04219275
39	0xbdc92912	-0.09822287
40	0xbbe33da3	-0.006934838
41	0xbc8cca69	-0.01718636
42	0x3ccac430	0.024751753
43	0xbe821977	-0.25410053
44	0x3ee1a6f3	0.44072685
45	0xbd4e0dca	-0.05030612
46	0xbde8d0bd	-0.11367939
47	0xbd233bc9	-0.039851937
48	0xbe03e979	-0.12882032
49	0xbc93286f	-0.017963616
50	0x3e4a8b13	0.19779615
51	0xbd158f03	-0.03651334
52	0xbd8c1697	-0.06840246
53	0xbd96f050	-0.07370055
54	0x3d1315d3	0.035909485
55	0x3e00fdd5	0.12596829
56	0x3da3c588	0.079966605
57	0xbba7559c	-0.005106641
58	0x3c0f8ba9	0.008761325
59	0x3da58150	0.08081305
60	0x3e27c250	0.16382718
61	0x3e033202	0.12812045
62	0xbe2e5176	-0.17023262
63	0xbcdde71d	-0.027087742
64	0x3d0a5264	0.03376998
65	0xbd6fb64c	-0.05852346
66	0xbdce351d	-0.10068724
67	0x3eb1841b	0.346711
68	0x3d7e8018	0.06213388
69	0x3edfe447	0.4372885
70	0x3ea300ef	0.3183665
71	0xbe9a76c4	-0.30168736
72	0x3e2064d7	0.15663467
73	0xbd4913e9	-0.049091253
74	0x3c9d21e5	0.019181201
75	0xbb1b5295	-0.0023700346
76	0xbe155d46	-0.14586362
77	0xbe538d54	-0.20659381
78	0xbe69fe0c	-0.22850817
79	0x3c48f9b2	0.012266563
80	0x3dfdce5b	0.12392875
81	0xbe5ad738	-0.21371162
82	0x3d44d752	0.048056908
83	0xbd96308e	-0.0733348
84	0xbe386bdb	-0.18009894
85	0x3dd22abd	0.10262058
86	0xbe54b7a0	-0.20773172
87	0xbf0378a7	-0.51355976
88	0x3e00afa9	0.12567009
89	0xbd31ea3d	-0.043436278
90	0x3cee3d17	0.029081864
91	0x3d3ccb6b	0.046092432
92	0xbe423b41	-0.18967916
93	0x3dab5184	0.08365157
94	0xbb902ea2	-0.0044000903
95	0x3ddb3c6c	0.10704884
96	0x3d8f4c52	0.06996979
97	0x3e06b668	0.1315552
98	0x3de1b239	0.110203214
99	0xbce51124	-0.027962275
100	0xbcdc6422	-0.026903216
101	0x3debca27	0.11513167
102	0xbc2cd426	-0.010548627
103	0x3d7bb08f	0.061447676
104	0xbd59f554	-0.05321248
105	0x3e491ce1	0.19639923
106	0xbe373d33	-0.1789444
107	0x3e4458bc	0.19174474
108	0xbde9e148	-0.11419922
109	0x3e6087e4	0.21926838
110	0xbd5a10f7	-0.053238835
111	0x3d8ff04d	0.070282556
112	0x3d02b531	0.03191108
113	0x3da39e84	0.07989219
114	0xbd12a369	-0.03580037
115	0x3d2c571d	0.042075265
116	0xbe3beb8d	-0.18351574
117	0xbe508bb5	-0.20365794
118	0xbce4dcdf	-0.02793735
119	0x3e20fc55	0.15721257
120	0x3d78c5ca	0.0607355
121	0xbe8ed208	-0.27894616
122	0x3df6c2c5	0.12048868
123	0xbe0a3025	-0.13494928
124	0x3dc2cc4c	0.09511623
125	0xbe89bd03	-0.26902017
126	0xbe4e8ac7	-0.20170127
127	0xbe299ff3	-0.16564922
128	0x3dc2418c	0.09485158
129	0x3caa17b4	0.020763256
130	0xbe077330	-0.13227534
131	0x3c9ef4db	0.019403866
132	0x3bdda5d8	0.006764155
133	0x3b2f90bf	0.0026789156
134	0xbe125ef7	-0.14294039
135	0x3dffbf47	0.12487655
136	0x3e4480de	0.19189784
137	0x3d1d72ee	0.038439684
138	0xbde3ebce	-0.111289605
139	0xbd942584	-0.07233718
140	0xbe2c68c5	-0.16836841
141	0x3e132b31	0.14371945
142	0x3d4c0e86	0.049818538
143	0xbdaf3d0d	-0.085565664
144	0xbd51cb1f	-0.051219102
145	0xbdad0b25	-0.08449391
146	0x3d98b1af	0.074557655
147	0x3d305d0d	0.04305749
148	0x3d68bb27	0.056819107
149	0x3d2973c2	0.04137016
150	0x3e2282c5	0.15870197
151	0x3ba9fa31	0.005187296
152	0xbd0bfc25	-0.03417601
153	0xbd2cb0f8	-0.042160958
154	0xbc7776b0	-0.015103981
155	0x3da40355	0.08008448
156	0x3d764a0b	0.060129207
157	0xbd10c0e3	-0.0353402
158	0x3cba8387	0.022767795
159	0xbd2a45b0	-0.041570365
160	0xbd9513a6	-0.07279138
161	0x3dd35b91	0.10320199
162	0xbddda8b1	-0.10823191
163	0x3cb8a061	0.022537412
164	0xbdf8c4a1	-0.12146879
165	0xbdf6d3ad	-0.12052093
166	0x3dee14e0	0.11625075
167	0x3e6e1851	0.23251463
168	0x3e0d5d73	0.1380518
169	0x3d362173	0.044465493
170	0x3dd97363	0.106177114
171	0xbdd4dfe1	-0.10394264
172	0xbdb23f07	-0.08703428
173	0x3e043c5a	0.12913647
174	0x3db66c21	0.08907343
175	0xbcb63de1	-0.022246303
176	0x3d29094c	0.04126863
177	0xbe0896a5	-0.13338716
178	0xbe3da0d0	-0.18518376
179	0xbc1530c2	-0.009105863
180	0x3da96274	0.082707316
181	0xbc95357f	-0.018213985
182	0xbe006f71	-0.12542512
183	0xbe002da3	-0.12517409
184	0x3e091980	0.13388634
185	0x3e6b5c69	0.2298447
186	0x3b2539bd	0.0025211417
187	0xbd5aa427	-0.053379204
188	0x3d80365b	0.062603675
189	0xbd5fd65b	-0.054647785
190	0xbdec2b2a	-0.115316704
191	0xbcedad0f	-0.029013185
192	0x3debd7d1	0.11515773
193	0xbe78cc7a	-0.24296752
194	0xbd9f3f2f	-0.07775723
195	0x3e642efe	0.22283551
196	0x3e80101f	0.250123
197	0x3e9a49bb	0.30134377
198	0x3ed94a2f	0.4243941
199	0xbec77b47	-0.3896124
200	0xbcbae516	-0.022814315
201	0xbe1d735e	-0.1537604
202	0x3bb74b87	0.0055937204
203	0xbe9f5d12	-0.31125695
204	0x3cacf06a	0.021110732
205	0x3cfc07ec	0.030765496
206	0x3d72d834	0.05928822
207	0x3e9560f5	0.29175535
208	0x3d5a8227	0.05334678
209	0x3d702e09	0.058637653
210	0xbd6e8c0e	-0.058239035
211	0xbe23bcf5	-0.1599005
212	0xbb3e7cb2	-0.0029066023
213	0x3e125f9b	0.14294283
214	0xbb326931	-0.0027223343
215	0xbf266364	-0.6499541
216	0x3e286873	0.16446094
217	0x3d0bb5a7	0.034108784
218	0x3e59256a	0.21205679
219	0x3cb47b4f	0.022031454
220	0xbe4337f3	-0.19064312
221	0xbe2deeca	-0.16985622
222	0xbda1cf1b	-0.0790083
223	0x3e9970d6	0.299689
224	0xbe024c10	-0.12724328
225	0xbe6ec157	-0.23315941
226	0x3d69fa60	0.05712354
227	0xbe06b5cb	-0.13155286
228	0xbc790f2e	-0.015201373
229	0x3e271b10	0.16318917
230	0x3e27db54	0.16392261
231	0x3ead2fdc	0.33825576
232	0xbecd83b8	-0.40139556
233	0xbce82ce3	-0.028341716
234	0xbdd9e168	-0.10638696
235	0x3e5fbfac	0.21850461
236	0xbe3c809b	-0.18408434
237	0x3e431ff5	0.1905516
238	0xbe53e8fb	-0.20694344
239	0x3e1cbfc6	0.15307531
240	0x3d5195af	0.05116814
241	0xbc65e2f2	-0.014031159
242	0x3dac0f61	0.08401371
243	0x3d8d00c0	0.06884909
244	0x3be64d47	0.007028255
245	0xbd37508a	-0.044754542
246	0xbe5fe8b3	-0.21866111
247	0x3e7e3243	0.24823861
248	0xbe1b7a8f	-0.15183471
249	0xbc1fa1d1	-0.00974317
250	0x3d66e6f6	0.056372605
251	0xbdbbd030	-0.09170568
252	0x3e14a010	0.14514184
253	0x3d34c73b	0.044135313
254	0xbe431f89	-0.19054998
255	0xbe70329e	-0.23456809

encoder_lstm.bias_ih_l0 f4 [256]
0	0x3e14e042	0.14538673
1	0xbc275d92	-0.01021518
2	0xbaa97d2e	-0.0012930983
3	0x3d2cf3b5	0.042224605
4	0xbd030776	-0.031989537
5	0x3e4f5f1f	0.2025113
6	0x3e35de6a	0.17760625
7	0x3e8fc847	0.28082487
8	0x3e9f599c	0.31123054
9	0xbcdd6b30	-0.02702865
10	0x3df995f4	0.121868044
11	0xba0cc342	-0.0005369672
12	0x3ed5f498	0.41788173
13	0x3e05b4f4	0.1305731
14	0x3de055d4	0.109538704
15	0x3b57923b	0.0032893557
16	0xbc832f42	-0.016013745
17	0x3e52a45b	0.20570509
18	0x3f1ced54	0.61299634
19	0xbe052138	-0.13000953
20	0xbcf0df86	-0.02940346
21	0x3e285270	0.16437697
22	0x3e1088eb	0.1411473
23	0x3f840883	1.0315098
24	0x3dd56af0	0.10420787
25	0xbc2c9265	-0.01053295
26	0xbcd52f0b	-0.026023408
27	0x3cd7b408	0.026330963
28	0x3e1e1e78	0.1544131
29	0xbc77b7dd	-0.01511952
30	0xbbadcf0b	-0.0053042225
31	0xbd5ec916	-0.05439099
32	0x3d9cb9e9	0.07652647
33	0x3e5d2351	0.21595503
34	0xbde9e012	-0.11419691
35	0xbd4deacf	-0.05027276
36	0x3beb18cf	0.0071745883
37	0x3e255bf4	0.16148359
38	0x3e05bc18	0.13060033
39	0x3eedf1ae	0.4647345
40	0x3e011fb1	0.12609746
41	0x3cc67246	0.024224412
42	0x3d7ac3ba	0.061221816
43	0x3e866b15	0.26253572
44	0x3e273a8b	0.16330926
45	0x3e8a1a7c	0.2697333
46	0x3d8f7662	0.070050016
47	0x3c019622	0.00790933
48	0xbd37bd7f	-0.044858452
49	0xbd90d411	-0.070716985
50	0x3ec2b468	0.38028264
51	0xbe0a8339	-0.1352662
52	0x3ea76ed0	0.3270173
53	0x3d16ac37	0.03678533
54	0xbd8078d9	-0.0627305
55	0xbaf7ac1c	-0.0018895897
56	0xbd01286a	-0.031532682
57	0x3e02381f	0.12716721
58	0xbdc3c4ba	-0.09559007
59	0xbc9ac8d3	-0.018894589
60	0x3d6d982b	0.058006447
61	0x3ec3207b	0.38110718
62	0x3de838fb	0.11338993
63	0x3eac7d0f	0.33689162
64	0xbd500a48	-0.050791055
65	0x3b920033	0.00445559
66	0xbde69788	-0.11259371
67	0xbd4dbb7d	-0.05022763
68	0x3c1ac565	0.009446477
69	0x3b2d1f1e	0.0026416252
70	0xbd1ff36c	-0.039050505
71	0xbda6ad28	-0.08138496
72	0x3d1b7171	0.037949983
73	0x3d9e6cb2	0.07735576
74	0xbdbd5db7	-0.0924639
75	0xbc535e06	-0.012900835
76	0xbe0c845e	-0.13722369
77	0xbe03192c	-0.12802571
78	0xbe6fc8ac	-0.23416394
79	0xbde40a20	-0.11134744
80	0xbda28838	-0.07936138
81	0x3d1a0bbc	0.037608847
82	0xbdc2a352	-0.09503807
83	0xbcf9fef6	-0.030517083
84	0xbdc06ae1	-0.093953855
85	0x3c57e802	0.013177874
86	0xbe1c629c	-0.15271991
87	0xbe3ed4b0	-0.18635821
88	0x3dd303c8	0.103034556
89	0xbd6eabc6	-0.058269285
90	0x3d04b8b0	0.032402694
91	0xbca22a4d	-0.019795561
92	0x3de6f3cd	0.1127697
93	0xbd0d4662	-0.03449095
94	0xbd9609b7	-0.07326072
95	0x3a83b713	0.0010049067
96	0xbcff2052	-0.031143341
97	0xbdde7d65	-0.10863761
98	0x3d39f17d	0.045396317
99	0xbdbb4ccb	-0.091455065
100	0xbdcd3138	-0.10019153
101	0xbd732ab5	-0.0593669
102	0xbda04523	-0.07825687
103	0x3c3e2531	0.011605547
104	0xbdc0b89e	-0.09410213
105	0x3dbe741a	0.09299488
106	0x3cd4cd47	0.02597679
107	0x3e1757c6	0.14779577
108	0x3b2f9e6d	0.002679731
109	0x3d50241f	0.050815698
110	0x3d9b96c6	0.07597117
111	0xbd3f26f1	-0.046667997
112	0x3e00ae0a	0.1256639
113	0xbdb8257b	-0.08991524
114	0xbe091f3c	-0.13390821
115	0xbcce8eb5	-0.025214532
116	0x3b4990d3	0.0030756488
117	0x3e02bf40	0.12768269
118	0x3e1ba48e	0.15199491
119	0xbc34943f	-0.011021673
120	0xbd64d53d	-0.055867422
121	0x3dc72dde	0.09725545
122	0x3b68d1af	0.0035525372
123	0x3db710eb	0.08938774
124	0x3df21b44	0.11821607
125	0xbe587215	-0.21137269
126	0x3b880508	0.0041509904
127	0xbbe7565c	-0.0070598554
128	0xbdfecc6b	-0.124413334
129	0x3cfbb693	0.030726707
130	0x3de3a07b	0.111145936
131	0xbdc5055f	-0.09620165
132	0x3db209ca	0.08693273
133	0xbc364938	-0.011125855
134	0x3d635310	0.055499136
135	0xbd47cbbc	-0.04877828
136	0xbd08fc02	-0.03344346
137	0xbcee8daa	-0.029120285
138	0x3bc01560	0.005861923
139	0x3a4acf2d	0.000773656
140	0xbdfd3037	-0.12362712
141	0xbda5f529	-0.08103401
142	0xbc820742	-0.015872601
143	0x3ca1a7af	0.019733278
144	0x3b774b7b	0.00377342
145	0xbdd049ae	-0.10170303
146	0xbe09ca9d	-0.13456197
147	0xbd2f9c64	-0.042873755
148	0x3ab67a19	0.0013921886
149	0x3db6e46a	0.08930285
150	0x3c9b3376	0.018945437
151	0xbda59018	-0.08084124
152	0x3d2d8b18	0.04236898
153	0x3c8cd42e	0.017191019
154	0x3d94a71b	0.07258435
155	0xbd51729e	-0.051134698
156	0xbd4f7aeb	-0.050654333
157	0x3da339dc	0.0797002
158	0x3bddfac0	0.0067742765
159	0x3db32f8a	0.08749302
160	0x3d8fe572	0.07026185
161	0xbc7acc64	-0.01530752
162	0x3d071f90	0.032989085
163	0xbcad2c67	-0.021139337
164	0x3cbc82e9	0.023011642
165	0xbdc9b4fd	-0.09848974
166	0x3e132153	0.14368181
167	0x3d15dc81	0.036587242
168	0xbd53d2c1	-0.051714662
169	0x3e0a545b	0.13508742
170	0xbdf17974	-0.117907435
171	0x3daf7afa	0.08568378
172	0x3da78619	0.08179874
173	0x3cc90e8e	0.024543073
174	0xbc39a631	-0.011331127
175	0xbda8a5ff	-0.08234786
176	0xbd774cac	-0.060375854
177	0xbd083bbb	-0.03326009
178	0x3dd19840	0.102341175
179	0x3c172be5	0.009226774
180	0xbda8d02d	-0.082428314
181	0xbe049c42	-0.12950233
182	0xbe0d11ca	-0.13776317
183	0x3d597d39	0.053097937
184	0xbbd95bfc	-0.00663328
185	0xbd5d7ad4	-0.054072216
186	0xbd8e15b4	-0.06937733
187	0xbd82df2a	-0.063902214
188	0x3d94fe5c	0.07275078
189	0xbdd7678c	-0.10517797
190	0xbdda3051	-0.10653747
191	0xbd85668e	-0.065137014
192	0x3bd6125a	0.0065329494
193	0x3d53247c	0.051548466
194	0xbd173931	-0.036919776
195	0x3e1b613a	0.15173808
196	0xbce8e23c	-0.02842819
197	0x3e4c1232	0.19928816
198	0x3e8cd0d3	0.2750307
199	0x3ea3b404	0.3197328
200	0x3e46b868	0.19406283
201	0x3bdb3501	0.006689668
202	0xbd012fd9	-0.03153977
203	0xbb3be773	-0.002867189
204	0x3ecc1fee	0.3986811
205	0x3d2fc497	0.042912092
206	0x3e322105	0.17395408
207	0x3e180c4d	0.14848442
208	0x3cae0307	0.021241678
209	0x3e3e48eb	0.18582503
210	0x3f0dca08	0.553864
211	0x3c70060f	0.014649882
212	0x3bb7c1c5	0.005607816
213	0x3ce3ea8c	0.027821802
214	0x3de2da48	0.1107679
215	0x3f852f30	1.0405025
216	0xbd6b76d9	-0.05748639
217	0xbba72a72	-0.0051014954
218	0x3d4cfa50	0.050043404
219	0xbc12063b	-0.008912618
220	0x3de5f79b	0.112288676
221	0x3d21d353	0.039508175
222	0xbdb79c2c	-0.08965334
223	0x3d75c3bf	0.06000113
224	0x3db9960f	0.090618245
225	0x3ea6a08e	0.32544369
226	0xbd8a8426	-0.067634866
227	0x3de3b471	0.11118401
228	0x3dbc5a78	0.09196943
229	0x3d432477	0.047642197
230	0xbdcfd39e	-0.10147785
231	0x3ee4d153	0.44690952
232	0x3ea573a6	0.32314795
233	0x3e209211	0.1568072
234	0xbd4edfe1	-0.050506476
235	0x3e7bd8f8	0.24594486
236	0x3e30edde	0.17278239
237	0x3eaa9da6	0.333234
238	0x3d7d1751	0.061789814
239	0xbd6ef92c	-0.058343098
240	0xbd40d2f9	-0.0470762
241	0xbda3b208	-0.07992941
242	0x3f07d0a1	0.5305272
243	0x3da0ec27	0.078575425
244	0x3ec6479c	0.3872651
245	0x3dd802f2	0.10547437
246	0x3da67bfe	0.081291184
247	0x3dac96ae	0.08427177
248	0xbc3d7087	-0.011562473
249	0x3df92e47	0.1216703
250	0xbd0a71b1	-0.03379983
251	0x3db0e027	0.08636504
252	0x3d2b0b9b	0.041759115
253	0x3e8a5cb2	0.27023846
254	0x3dd8a682	0.10578634
255	0x3ec5670c	0.3855518

encoder_lstm.bias_hh_l0 f4 [256]
0	0xbdb36591	-0.08759607
1	0xbda588eb	-0.08082756
2	0xbdb63be7	-0.08898144
3	0x3c34c689	0.011033663
4	0xba3811ee	-0.00070217147
5	0x3d98833c	0.07446906
6	0x3e5be643	0.21474557
7	0x3e23820c	0.15967578
8	0x3eab6eb5	0.334829
9	0xbcb28331	-0.021791073
10	0x39b0168d	0.00033586138
11	0x3db15969	0.08659632
12	0x3ecaf517	0.39640114
13	0x3e3d34c8	0.18477166
14	0x3e6d8f06	0.2319909
15	0x3e3b03d9	0.18263187
16	0xbdfb7206	-0.122776076
17	0x3e1fd2b7	0.15607725
18	0x3ed0072e	0.40630478
19	0xbd1c8c16	-0.038219534
20	0x3ca38ef3	0.019965624
21	0x3de05ed4	0.10955587
22	0x3e0e6c52	0.13908508
23	0x3f683551	0.90706354
24	0xbc8d5d8e	-0.017256524
25	0xbdefd537	-0.117105894
26	0xbe0224fa	-0.12709418
27	0x3b3e1170	0.0029002093
28	0x3e148c70	0.14506698
29	0x3dbeba24	0.09312847
30	0xbc3894dc	-0.01126596
31	0x3c9b3d97	0.018950267
32	0x3df9e549	0.12201936
33	0x3eb380c8	0.3505919
34	0xbde788f6	-0.1130542
35	0x3daa419b	0.083132945
36	0xbd0b4159	-0.033997867
37	0x3e129209	0.1431352
38	0x3ca4a183	0.020096546
39	0x3ed05af4	0.40694392
40	0x3e9a4a87	0.30134985
41	0x3e17dfe0	0.14831495
42	0x3d5faadf	0.054606315
43	0x3ea56594	0.3230406
44	0x3eb7f407	0.35928366
45	0x3e6ce1ed	0.23133059
46	0xbd8b1a10	-0.067920804
47	0xbdb84e6e	-0.08999334
48	0x3dd48e24	0.10378674
49	0xbd9c2676	-0.07624523
50	0x3f01ff12	0.5077983
51	0xbe175fcb	-0.14782636
52	0x3f0322f6	0.5122522
53	0x3d04bb33	0.03240509
54	0x3da168b9	0.078813024
55	0xbd9b4350	-0.07581198
56	0x3dd9125f	0.10599207
57	0x3c4f343e	0.012646733
58	0x3d85563e	0.0651059
59	0xbd555ec3	-0.052092325
60	0xbd66a97c	-0.056313977
61	0x3ed67b18	0.41890788
62	0x3d68f5dd	0.0568751
63	0x3ed92892	0.42413765
64	0x3dfad138	0.122469366
65	0x3d1316d2	0.035910435
66	0xbdbdeb00	-0.09273338
67	0x3d81cbaf	0.06337678
68	0x3d535268	0.05159226
69	0x3ce89d21	0.028395237
70	0xbcf7bbd4	-0.03024093
71	0x3c64b6b6	0.013959577
72	0x3df50396	0.119635746
73	0xbdcd0c20	-0.10012078
74	0x3cac8e34	0.021063901
75	0xbc7599d1	-0.014990286
76	0x3b8c66c3	0.004284711
77	0xbe01f045	-0.12689312
78	0xbe5c7034	-0.21527177
79	0xbcbdb3df	-0.023157058
80	0xbc9dc14e	-0.019257214
81	0xbdaa5989	-0.08317859
82	0xbcdd6ac2	-0.027028445
83	0xbd3c133d	-0.045916785
84	0x3db2ed09	0.08736617
85	0xbc86359b	-0.016382983
86	0xbdbd14af	-0.09232461
87	0xbe21dfec	-0.15808076
88	0x3d4979b5	0.049188334
89	0x3d663a45	0.056207914
90	0xbd804c1b	-0.06264516
91	0x3c9f20c8	0.019424811
92	0x3e39095e	0.1806998
93	0xbd9deefc	-0.07711598
94	0x3cb83ef9	0.022490965
95	0x3d2b5005	0.04182436
96	0x3cf51a22	0.029919688
97	0xbb3b8c43	-0.0028617538
98	0x3d21eeaa	0.03953425
99	0x3cda1b79	0.026624428
100	0x3d1fd872	0.039024778
101	0xbc8f8e74	-0.017523982
102	0x3c8925d3	0.016741669
103	0x3d98df65	0.07464484
104	0x3dafb737	0.08579867
105	0xbc378ad7	-0.011202536
106	0xbd795ec9	-0.06088141
107	0x3e1c0da4	0.15239578
108	0xbdee3b57	-0.11632412
109	0xbbdeee52	-0.0068033123
110	0x3dc753b7	0.09732764
111	0x3d6b678a	0.05747179
112	0xbd9f0cd7	-0.07766121
113	0xbe15f7c5	-0.14645298
114	0xbdf26930	-0.11836469
115	0xbd4ef0d9	-0.05052266
116	0xbdbbd8c8	-0.09172207
117	0xbda5d286	-0.08096795
118	0x3d32af74	0.043624356
119	0x3d320304	0.043459907
120	0x3d82a410	0.06378949
121	0xbc715da9	-0.014731803
122	0x3d88758b	0.066630445
123	0xbd8ad410	-0.06778729
124	0xbda6ce86	-0.0814486
125	0xbdd90e11	-0.10598386
126	0xbdad5628	-0.084636986
127	0xbdc61044	-0.09671071
128	0x3afe1543	0.0019384999
129	0xbd9d5f19	-0.07684154
130	0x3d7e31bd	0.062059153
131	0x3dccde7b	0.10003372
132	0x3d1cc19e	0.038270585
133	0xbc839b43	-0.016065245
134	0xbd35f8e3	-0.04442681
135	0xbd1bdbbd	-0.038051356
136	0x3d3ca11d	0.046052087
137	0x3dcf4802	0.10121156
138	0x3d6a990d	0.057274867
139	0xbd13e047	-0.03610256
140	0x3cda5472	0.026651595
141	0x3dcbbd2f	0.09948193
142	0xbd88e08d	-0.06683455
143	0x3dad3d00	0.084589005
144	0x3d841471	0.064492114
145	0x3d30f992	0.04320676
146	0x3d4e1deb	0.0503215
147	0x3c335863	0.010946366
148	0xbda5ec31	-0.081016906
149	0xbc3bbaa6	-0.011458075
150	0xbdcf2ae8	-0.101156056
151	0xba9386fd	-0.001125544
152	0xbdb797d8	-0.08964509
153	0xbd85f612	-0.06541075
154	0x3d4304a7	0.04761186
155	0x3ccb85eb	0.02484413
156	0x3dc8953a	0.09794088
157	0xbda6e684	-0.08149436
158	0x3ddd4539	0.10804219
159	0x3ddc7b42	0.10765697
160	0x3d1f6b5d	0.03892075
161	0xbdb1567b	-0.08659073
162	0x3db30755	0.08741633
163	0x3d2b8be2	0.04188145
164	0x3d9bf8c4	0.07615808
165	0x3dcb3b2d	0.09923396
166	0xbd86079e	-0.065444216
167	0xbc89ea0d	-0.016835237
168	0x3c176bd2	0.009242015
169	0x3c9472a6	0.018121075
170	0x3d86feca	0.06591566
171	0xbd9183b8	-0.071052015
172	0xbd39a281	-0.04532099
173	0x3e09ea87	0.13468371
174	0xbe1477e8	-0.14498866
175	0xbd7f83ce	-0.062381558
176	0x3d00b1b9	0.03141949
177	0xbd91b312	-0.07114233
178	0xbd053e3a	-0.032530047
179	0x3d15565f	0.036459323
180	0x3d7e5ce8	0.06210032
181	0xbde286d4	-0.11060873
182	0x3d68e2eb	0.05685703
183	0x3dcd3181	0.10019208
184	0xbd1f01a7	-0.038819935
185	0x3d787c90	0.060665667
186	0x3cb95861	0.02262515
187	0x3dbecf7e	0.0931692
188	0x3c16eea9	0.009212174
189	0x3cddba73	0.027066445
190	0xbcf7c6ab	-0.0302461
191	0x3c86b3b0	0.016443104
192	0x3d95567b	0.072918855
193	0x3debe256	0.115177795
194	0xbc38605b	-0.011253442
195	0x3c966820	0.018360198
196	0x3d49d7b1	0.049277965
197	0x3e88672a	0.26641208
198	0x3e54eea0	0.20794153
199	0x3ec2d9eb	0.38056883
200	0x3e9f2c5f	0.3108854
201	0xbe07cc59	-0.13261546
202	0x3d8d5d19	0.069025226
203	0x3db3cfc2	0.08779861
204	0x3ecc1763	0.39861593
205	0x3e73f891	0.2382529
206	0x3e82cf94	0.25548995
207	0x3da03a15	0.07823578
208	0xbe04f4bc	-0.12983984
209	0x3e072d36	0.1320084
210	0x3eea7325	0.45790973
211	0x3dc35015	0.09536759
212	0xbc2cb2b4	-0.010540653
213	0x3da00fa4	0.07815483
214	0xbd6ce6f9	-0.05783746
215	0x3f81b477	1.0133198
216	0xbdc8a8b1	-0.097978
217	0xbd1dc16e	-0.038514547
218	0xbd9462c4	-0.072454005
219	0x3dbf483d	0.0933995
220	0x3e1fc975	0.15604194
221	0x3d7a6885	0.061134834
222	0x3cdbc401	0.02682686
223	0xbb226364	-0.002477848
224	0x3e1055ff	0.14095305
225	0x3edb008d	0.42773858
226	0xbe151081	-0.14557077
227	0x3dc527d1	0.09626735
228	0xbdbde6de	-0.0927255
229	0xbcc120ba	-0.023575176
230	0x3ceb8b53	0.028752958
231	0x3ec00bcf	0.3750901
232	0x3e5f63fe	0.21815488
233	0x3c7c26c6	0.015390104
234	0xbaf342d1	-0.0018559342
235	0x3e87a2da	0.26491433
236	0x3e703cc2	0.23460677
237	0x3e812287	0.25221655
238	0x3c64b56d	0.013959271
239	0x3d337846	0.043815874
240	0x3908aa09	0.00013033314
241	0xbd65fc9e	-0.056149118
242	0x3f10d21e	0.56570613
243	0xbd7e0db9	-0.062024806
244	0x3eefd064	0.46838677
245	0xbd06fd92	-0.032956667
246	0x3e27a355	0.163709
247	0x3d0b46d0	0.03400308
248	0xbcca4429	-0.024690704
249	0x3e4667c6	0.19375524
250	0x3d830540	0.06397486
251	0x3dbdc4a3	0.09266021
252	0x3c23ba3c	0.009993132
253	0x3e577316	0.21039996
254	0xbd8634d0	-0.06553042
255	0x3eb55ab8	0.35420775

encoder_attn.weight f4 [1, 148]
0	0xbd1c1292	-0.038103648
1	0x3d0d2b26	0.034464978
2	0x3cbce58b	0.023058673
3	0xbb224aee	-0.00247639
4	0xbd84347b	-0.06455322
5	0x3d3a8b3a	0.045542933
6	0x3c0c2747	0.008554286
7	0x3d81144d	0.063027
8	0xbd7b40db	-0.061341148
9	0xbc164be0	-0.009173363
10	0x3d2b91d5	0.041887123
11	0xbb985b10	-0.0046495274
12	0x3da58a37	0.08083003
13	0x3cdb8850	0.026798397
14	0x3da615f5	0.08109657
15	0x3da695c2	0.08134033
16	0xbd765008	-0.060134917
17	0x3d0bb5f9	0.03410909
18	0xbda791e7	-0.081821255
19	0x3d8c9b3d	0.06865547
20	0xbd98ef18	-0.074674785
21	0xbc28cca8	-0.0103027
22	0xbcd49f6e	-0.025954928
23	0xbcf127e5	-0.029437969
24	0xbb0d1a1e	-0.002153046
25	0xbd6a5b4e	-0.05721598
26	0xbca9e648	-0.02073969
27	0x3da1c9a6	0.078997895
28	0xbd997e89	-0.07494838
29	0xbd4fb5bd	-0.05071043
30	0x3d329041	0.043594602
31	0xbd80a349	-0.06281144
32	0xbd50d0c7	-0.050980356
33	0x3d5af5ae	0.053456955
34	0xbca5a262	-0.020219032
35	0xbb448d51	-0.0029991458
36	0x3b33214f	0.0027333086
37	0xba1f7d21	-0.00060840143
38	0x3d8ebc4e	0.0696951
39	0xbcb2f4b8	-0.021845207
40	0x3ba5b555	0.005057017
41	0xbbf7317a	-0.00754374
42	0x3bbbeb6d	0.005734852
43	0xbd2805d7	-0.041021194
44	0xbd9eb1a5	-0.07748727
45	0xbd93ea59	-0.07222433
46	0x3d9c2d70	0.07625854
47	0xbd934318	-0.071905315
48	0xbd92a5f9	-0.07160563
49	0x3d3178b0	0.043327987
50	0xbd92ab78	-0.07161611
51	0xbd76c097	-0.06024226
52	0xbd0c43fd	-0.034244526
53	0x3c4ca5eb	0.01249073
54	0x3d30088e	0.04297691
55	0xbce5ad00	-0.028036594
56	0xbccb99f1	-0.024853678
57	0xbc6c1259	-0.014408671
58	0xbc6dfaee	-0.014525158
59	0xbcdb2fe5	-0.026756236
60	0x3d20d8d3	0.03926928
61	0xbd787591	-0.060658995
62	0x3da4ac8c	0.08040723
63	0xbd99b03d	-0.07504318
64	0x3ceea497	0.029131217
65	0x3d7f7c9c	0.062374696
66	0x3ba02791	0.004887529
67	0xbd39cd0d	-0.045361567
68	0x3d5b0175	0.053468186
69	0x3d897765	0.06712226
70	0x3d67ab99	0.056560133
71	0xbd1ebbbe	-0.038753264
72	0xbd815e91	-0.06316865
73	0x3cbd366b	0.023097238
74	0x3d155788	0.03646043
75	0xbb526fc7	-0.0032110082
76	0xbd26604d	-0.040619183
77	0xbbdc2b51	-0.006719031
78	0xbc09644a	-0.008385727
79	0xb9f85624	-0.00047366426
80	0xbd42d2b3	-0.04756422
81	0xbb94023b	-0.0045168675
82	0x3d796478	0.06088683
83	0x3cc6a756	0.024249714
84	0xbd376a1c	-0.04477893
85	0xbc1936f9	-0.009351485
86	0xbc5c92dc	-0.013462748
87	0xbcaf1b90	-0.021375448
88	0xbd3bdd86	-0.045865558
89	0xbd684027	-0.056701805
90	0x3ca43325	0.020043919
91	0xbd86fc82	-0.06591131
92	0x3d15d935	0.036584098
93	0x3cce25c3	0.02516449
94	0x3d8ebd2a	0.06969674
95	0xbc9bd0b1	-0.01902041
96	0xbd8f7377	-0.07004445
97	0xbd575880	-0.052574635
98	0x3c8d3f91	0.017242225
99	0xbd7a6139	-0.061127875
100	0x3cf30726	0.029666495
101	0xbd9907f1	-0.07472218
102	0x3d890948	0.066912234
103	0x3b99b143	0.0046903207
104	0x3da2aec1	0.07943488
105	0xbcdf8e64	-0.027289577
106	0x3c4ab400	0.012372017
107	0xbcb6b367	-0.022302343
108	0x3c12daf6	0.008963337
109	0x3d1945eb	0.037420195
110	0x3da1afaf	0.07894837
111	0x3b47fe8f	0.003051672
112	0xbb886ce1	-0.00416337
113	0x3d20872e	0.039191417
114	0xbca84db3	-0.020544862
115	0xbca4d202	-0.02011967
116	0xbd1d552b	-0.0384113
117	0xbd8566c6	-0.06513743
118	0xbd05befd	-0.032652844
119	0x3d9484aa	0.07251866
120	0x3d6c0981	0.05762625
121	0x3bc694d8	0.006060224
122	0xbd9c5641	-0.07633639
123	0xbd604280	-0.05475092
124	0x3d347b75	0.04406305
125	0x3c9d3bc6	0.019193541
126	0xbd9e4e93	-0.077298306
127	0x3da6a1d6	0.081363365
128	0xbed96d26	-0.42466086
129	0xbdb952dd	-0.09049008
130	0xbd1cc660	-0.038275123
131	0xbeb0a4c7	-0.34500715
132	0x3d5025f7	0.050817456
133	0x3ea8226b	0.3283876
134	0xbd1fbb22	-0.038996823
135	0xbc12df9a	-0.008964444
136	0x3f97e6a5	1.1867262
137	0x3f26f8e9	0.65223557
138	0xbe5c1260	-0.21491385
139	0x3ec33ea3	0.38133726
140	0xbf5bd2b6	-0.85868394
141	0xbec1e6de	-0.3787145
142	0xbdaa6d5c	-0.0832164
143	0x3b4fdc66	0.003171706
144	0xbec04a5a	-0.37556726
145	0xbf1b38ff	-0.60633844
146	0x3e49daab	0.19712321
147	0xbeb57f7e	-0.3544883

exp_avg f4 [7, 7]
0	0xb4e264dd	-4.2169168e-07
1	0x00000000	0.0
2	0x00000000	0.0
3	0x00000000	0.0
4	0x00000000	0.0
5	0x00000000	0.0
6	0x00000000	0.0
7	0x00000000	0.0
8	0x00000000	0.0
9	0x00000000	0.0
10	0x00000000	0.0
11	0x00000000	0.0
12	0x00000000	0.0
13	0x00000000	0.0
14	0x00000000	0.0
15	0x00000000	0.0
16	0x34f0dadd	4.4862728e-07
17	0x00000000	0.0
18	0x00000000	0.0
19	0x00000000	0.0
20	0x00000000	0.0
21	0x00000000	0.0
22	0x00000000	0.0
23	0x00000000	0.0
24	0xaf7f3467	-2.3210732e-10
25	0x00000000	0.0
26	0x00000000	0.0
27	0x00000000	0.0
28	0x00000000	0.0
29	0x00000000	0.0
30	0x00000000	0.0
31	0x00000000	0.0
32	0x34de41c7	4.1398582e-07
33	0x00000000	0.0
34	0x00000000	0.0
35	0x00000000	0.0
36	0x00000000	0.0
37	0x00000000	0.0
38	0x00000000	0.0
39	0x00000000	0.0
40	0xb616ff89	-2.2500483e-06
41	0x00000000	0.0
42	0x00000000	0.0
43	0x00000000	0.0
44	0x00000000	0.0
45	0x00000000	0.0
46	0x00000000	0.0
47	0x00000000	0.0
48	0x00000004	6e-45

exp_avg_sq f4 [7, 7]
0	0x2a63248a	2.0174327e-13
1	0x00000000	0.0
2	0x00000000	0.0
3	0x00000000	0.0
4	0x00000000	0.0
5	0x00000000	0.0
6	0x00000000	0.0
7	0x00000000	0.0
8	0x00000000	0.0
9	0x00000000	0.0
10	0x00000000	0.0
11	0x00000000	0.0
12	0x00000000	0.0
13	0x00000000	0.0
14	0x00000000	0.0
15	0x00000000	0.0
16	0x2c9af51a	4.404155e-12
17	0x00000000	0.0
18	0x00000000	0.0
19	0x00000000	0.0
20	0x00000000	0.0
21	0x00000000	0.0
22	0x00000000	0.0
23	0x00000000	0.0
24	0x27c1060a	5.357481e-15
25	0x00000000	0.0
26	0x00000000	0.0
27	0x00000000	0.0
28	0x00000000	0.0
29	0x00000000	0.0
30	0x00000000	0.0
31	0x00000000	0.0
32	0x2c2afdde	2.4299378e-12
33	0x00000000	0.0
34	0x00000000	0.0
35	0x00000000	0.0
36	0x00000000	0.0
37	0x00000000	0.0
38	0x00000000	0.0
39	0x00000000	0.0
40	0x2eea38e4	1.0651194e-10
41	0x00000000	0.0
42	0x00000000	0.0
43	0x00000000	0.0
44	0x00000000	0.0
45	0x00000000	0.0
46	0x00000000	0.0
47	0x00000000	0.0
48	0x270926ef	1.9033675e-15

exp_avg f4 [7]
0	0xb4534e8d	-1.9679483e-07
1	0x00000000	0.0
2	0xb667d612	-3.4546288e-06
3	0x32815862	1.5057768e-08
4	0x346d39e5	2.2093407e-07
5	0xb62c9671	-2.5717566e-06
6	0x00000004	6e-45

exp_avg_sq f4 [7]
0	0x2a11d7e3	1.2953488e-13
1	0x00000000	0.0
2	0x2dd8fe2f	2.4669237e-11
3	0x29082fd0	3.0239537e-14
4	0x2b8f4050	1.0178611e-12
5	0x2f4fca70	1.889846e-10
6	0x261cdbda	5.4421327e-16

exp_avg f4 [64, 7]
0	0x393510c5	0.00017267752
1	0x395095bc	0.00019892206
2	0x39c9d06a	0.00038492988
3	0x39363401	0.00017376246
4	0x393634ca	0.00017376538
5	0x39486214	0.00019110023
6	0x393634ca	0.00017376538
7	0x00000000	0.0
8	0x00000000	0.0
9	0x00000000	0.0
10	0x00000000	0.0
11	0x00000000	0.0
12	0x00000000	0.0
13	0x00000000	0.0
14	0xb92af783	-0.00016304669
15	0xb919045f	-0.00014592845
16	0xb8c57d55	-9.417037e-05
17	0xb90c525e	-0.00013382125
18	0xb914c67a	-0.00014188318
19	0xb8fecbad	-0.000121496014
20	0xb94b1149	-0.00019366028
21	0x37abe923	2.0493351e-05
22	0x3690674e	4.3035607e-06
23	0x3695c4dd	4.463464e-06
24	0x368e7c27	4.246383e-06
25	0x36953c61	4.447575e-06
26	0x36953c61	4.447575e-06
27	0x369456ff	4.4208714e-06
28	0x00000004	6e-45
29	0x00000004	6e-45
30	0x00000004	6e-45
31	0x00000004	6e-45
32	0x00000004	6e-45
33	0x00000004	6e-45
34	0x00000004	6e-45
35	0x375de87e	1.3226758e-05
36	0x362afb7b	2.5478355e-06
37	0x362afb7b	2.5478355e-06
38	0x362afb7b	2.5478355e-06
39	0x362afb7b	2.5478355e-06
40	0x36432a74	2.9081975e-06
41	0x362afb7b	2.5478355e-06
42	0x382aab39	4.0690622e-05
43	0x37cf2851	2.4695097e-05
44	0x37d20b4d	2.5039213e-05
45	0x37febf2a	3.0368177e-05
46	0x37d24c09	2.5069357e-05
47	0x383fef34	4.5760724e-05
48	0x37d24c5e	2.5069512e-05
49	0x3526171b	6.187344e-07
50	0x3526171b	6.187344e-07
51	0x35260f6f	6.186228e-07
52	0x3526171b	6.187344e-07
53	0x3526171b	6.187344e-07
54	0x3526171b	6.187344e-07
55	0x35fdf343	1.8920767e-06
56	0xb846f647	-4.7436242e-05
57	0x369a7032	4.602619e-06
58	0x3773430c	1.4499539e-05
59	0xb7ab38dd	-2.0411268e-05
60	0xb7119137	-8.676484e-06
61	0xb7b4ff0f	-2.1576443e-05
62	0xb709e3c2	-8.218865e-06
63	0x34e9993f	4.3511133e-07
64	0xb75bad1a	-1.3093721e-05
65	0xb6c24cfc	-5.7906127e-06
66	0xb7892f4d	-1.6353699e-05
67	0xb742e809	-1.1617326e-05
68	0xb7953601	-1.7787332e-05
69	0xb60e3d6c	-2.11954e-06
70	0x00000004	6e-45
71	0x00000004	6e-45
72	0x00000004	6e-45
73	0x00000004	6e-45
74	0x00000004	6e-45
75	0x00000004	6e-45
76	0x00000004	6e-45
77	0x3811f3ff	3.4797933e-05
78	0x382adb09	4.073515e-05
79	0xb82947e0	-4.035968e-05
80	0x3821e6f0	3.860047e-05
81	0x3829d42f	4.049035e-05
82	0x380fe35d	3.4305605e-05
83	0x380b5eb8	3.3228396e-05
84	0xb89b4b85	-7.4050426e-05
85	0xb84e6c61	-4.9215163e-05
86	0xb8a32f97	-7.78131e-05
87	0xb83caa76	-4.4981447e-05
88	0xb85dce17	-5.2882442e-05
89	0xb84b8a74	-4.8527916e-05
90	0xb8cf7982	-9.893162e-05
91	0xb930fa6f	-0.00016877962
92	0xb8eec4ce	-0.00011385382
93	0xb9012776	-0.00012317099
94	0xb8ece46f	-0.00011295906
95	0xb8ef34fe	-0.00011406279
96	0xb90363f5	-0.0001253037
97	0xb90ed84d	-0.00013622754
98	0x00000000	0.0
99	0x00000000	0.0
100	0x00000000	0.0
101	0x00000000	0.0
102	0x00000000	0.0
103	0x00000000	0.0
104	0x00000000	0.0
105	0x37bd97aa	2.260118e-05
106	0x38000dda	3.053048e-05
107	0x383e6ab3	4.53989e-05
108	0x38023a4d	3.1048712e-05
109	0x38041c5e	3.149767e-05
110	0x381d4a1f	3.7500748e-05
111	0x381da403	3.7584465e-05
112	0x00000004	6e-45
113	0x00000004	6e-45
114	0x00000004	6e-45
115	0x00000004	6e-45
116	0x00000004	6e-45
117	0x00000004	6e-45
118	0x00000004	6e-45
119	0xb9cf0bd8	-0.0003949094
120	0xb9f82f3d	-0.0004733744
121	0xb99eaf2a	-0.00030266616
122	0xba09f477	-0.00052625634
123	0xb9ff3ec2	-0.00048684148
124	0xb9e8aea3	-0.00044380603
125	0xba29e901	-0.00064815587
126	0x3a174c5c	0.00057715713
127	0x3a0e0a57	0.0005418411
128	0x3a75d264	0.0009377359
129	0x3a0dddd8	0.00054117804
130	0x3a0dc357	0.0005407831
131	0x3a0ec817	0.0005446686
132	0x3a149ca9	0.0005669096
133	0x35febd5d	1.8979587e-06
134	0x375451f7	1.2655269e-05
135	0x3805937a	3.184702e-05
136	0x3769f161	1.3944083e-05
137	0x378ed26e	1.7025708e-05
138	0x37495b1a	1.2001745e-05
139	0x38871edd	6.4430504e-05
140	0xb85afe0b	-5.2211846e-05
141	0xb7f4a67d	-2.9164594e-05
142	0xb827d66f	-4.001561e-05
143	0xb7ec9816	-2.8204213e-05
144	0xb7c98429	-2.4022609e-05
145	0xb786e8a0	-1.608237e-05
146	0xb85fc03a	-5.3346368e-05
147	0xb9966ed4	-0.00028692803
148	0xb952379c	-0.00020047877
149	0xb9943894	-0.00028270914
150	0xb97369bd	-0.00023213676
151	0xb94e61a1	-0.0001968206
152	0xb972952b	-0.00023134488
153	0xb84222dd	-4.6285673e-05
154	0xb98d8ea4	-0.0002699989
155	0xb986a20f	-0.00025679215
156	0xb986ecf3	-0.00025735013
157	0xb98c20d8	-0.0002672735
158	0xb98670bc	-0.00025642465
159	0xb985dff7	-0.00025534604
160	0xb98698cc	-0.00025672314
161	0xb8b92a3e	-8.829356e-05
162	0xb7b560be	-2.162193e-05
163	0xb8702a18	-5.7259662e-05
164	0xb7b560be	-2.162193e-05
165	0xb7b560be	-2.162193e-05
166	0xb7b560be	-2.162193e-05
167	0xb7b560be	-2.162193e-05
168	0xb6adfa1d	-5.184919e-06
169	0xb6248686	-2.4516207e-06
170	0xb52d4bb9	-6.4557713e-07
171	0xb70e754e	-8.491172e-06
172	0xb5c594a2	-1.4720902e-06
173	0xb68e7fd5	-4.2468114e-06
174	0x37017797	7.716843e-06
175	0x37cff988	2.479252e-05
176	0x377162ce	1.4387724e-05
177	0xb6d4438d	-6.3259563e-06
178	0x37f1c455	2.8820863e-05
179	0x37e2a937	2.7020096e-05
180	0x37bacc96	2.2268196e-05
181	0x36d2990c	6.2763047e-06
182	0xb8810f25	-6.15402e-05
183	0xb8830af9	-6.2486106e-05
184	0xb884bd26	-6.329482e-05
185	0xb856b8e5	-5.1193772e-05
186	0xb884c483	-6.330854e-05
187	0xb87a0133	-5.960576e-05
188	0xb88e169b	-6.775298e-05
189	0xb78fe80d	-1.7154985e-05
190	0xb789705e	-1.6383998e-05
191	0xb717e7ff	-9.054317e-06
192	0xb783e44f	-1.5722731e-05
193	0xb78beb4a	-1.6679656e-05
194	0xb76a4194	-1.39627555e-05
195	0xb7a98aa6	-2.0210933e-05
196	0x00000000	0.0
197	0x00000000	0.0
198	0x00000000	0.0
199	0x00000000	0.0
200	0x00000000	0.0
201	0x00000000	0.0
202	0x00000000	0.0
203	0x00000000	0.0
204	0x00000000	0.0
205	0x00000000	0.0
206	0x00000000	0.0
207	0x00000000	0.0
208	0x00000000	0.0
209	0x00000000	0.0
210	0x38ccc38f	9.763904e-05
211	0x3907fcd6	0.00012968792
212	0x391f0f29	0.00015169069
213	0x3917b143	0.00014466517
214	0x390f88a1	0.00013688441
215	0x3901513e	0.00012332664
216	0x39506a2e	0.00019875981
217	0xb918a7c9	-0.00014558354
218	0xb8c8768b	-9.5588235e-05
219	0xb9928220	-0.0002794424
220	0xb8fa4071	-0.00011932932
221	0xb8cba3e2	-9.71032e-05
222	0xb8e7c285	-0.000110511704
223	0xb8e9937c	-0.00011137777
224	0xb9a80c0a	-0.00032052427
225	0xb9a1c14d	-0.00030852333
226	0xb9c37dd0	-0.00037287036
227	0xb9a49b17	-0.00031396069
228	0xb9a40ad0	-0.00031288574
229	0xb99840c7	-0.00029039962
230	0xb9cd8ab9	-0.00039204003
231	0x39ca2a42	0.00038559927
232	0x3960dc64	0.00021444407
233	0x39d170d7	0.0003994766
234	0x39764ee5	0.00023489779
235	0x396bcd8d	0.0002248792
236	0x3953ed30	0.00020210887
237	0x398ec463	0.0002723067
238	0x3875ebab	5.8632035e-05
239	0x38608f77	5.3539374e-05
240	0x38fc15e2	0.000120203724
241	0x38626edc	5.3985845e-05
242	0x38653c5f	5.465408e-05
243	0x3859f3a3	5.1963736e-05
244	0x383b59fb	4.4668075e-05
245	0xb8620c52	-5.3894073e-05
246	0xb830ab0e	-4.2120977e-05
247	0xb87d355f	-6.0369606e-05
248	0xb8450991	-4.697737e-05
249	0xb83368af	-4.277442e-05
250	0xb84f4b15	-4.942257e-05
251	0xb845d912	-4.7170623e-05
252	0x379b432e	1.8508723e-05
253	0x37aecaa9	2.0836787e-05
254	0x36ef4bfa	7.1316e-06
255	0x37a1bc84	1.928048e-05
