weights_new/EncoderEpochnew275_20_8.pt (torch_old, 862771 bytes, 27 tensors)

gamma_x_l.weight f4 [7, 7]
0	0xbd236698	-0.039892763
1	0x3e13c8de	0.14432094
2	0x3da36160	0.07977557
3	0xbe80e5a5	-0.25175205
4	0xbe089091	-0.13336398
5	0x3e0ef7ca	0.13961712
6	0xbe681b71	-0.22666718
7	0xbe7f7835	-0.24948199
8	0xbeb6771e	-0.35637754
9	0x3eba615d	0.36402407
10	0x3db526ec	0.088453144
11	0x3d3ee558	0.046605438
12	0x3cb8cdf0	0.022559136
13	0x3e55c5be	0.20876214
14	0xbdff31f4	-0.124607
15	0xbe190226	-0.14942226
16	0x3f485554	0.782552
17	0x3e621bf2	0.22080973
18	0x3e1fec3e	0.15617463
19	0xbeb578f2	-0.35443836
20	0xbebbca72	-0.3667789
21	0xbde33ef0	-0.11095989
22	0x3d5cd228	0.053911358
23	0xbe819780	-0.25310898
24	0xbeb4f0b4	-0.35339892
25	0xbd7d06f8	-0.061774224
26	0xbe7106e3	-0.23537783
27	0xbe28ce73	-0.16485004
28	0x3e1f5562	0.15559915
29	0x3eb5db95	0.3551909
30	0xbe6159bf	-0.22006892
31	0xbea9fce0	-0.3320074
32	0x3f0e0652	0.55478394
33	0xbe9b4054	-0.30322516
34	0xbdb2ef20	-0.08737016
35	0x3dcbf44c	0.09958705
36	0xbeb389f5	-0.3506619
37	0xbe3e8ca9	-0.18608345
38	0x3ea8c64d	0.3296379
39	0xbd0b33c0	-0.0339849
40	0x3fa9b60f	1.3258685
41	0xbe40cd9d	-0.18828435
42	0xbe193d80	-0.14964867
43	0x3d0b4ee0	0.034010768
44	0x3eb56365	0.35427395
45	0x3ea09ff1	0.31372026
46	0x3eb32697	0.3499038
47	0xbe0974d3	-0.13423471
48	0x3f70f1c9	0.94118935

gamma_x_l.bias f4 [7]
0	0xbe0d225e	-0.13782641
1	0x3f275a96	0.653726
2	0x3f83ff16	1.0312221
3	0x3eb49d25	0.35276142
4	0x3efe5ace	0.49678653
5	0x3f6f1d2b	0.9340388
6	0x3f940b3e	1.1565931

gamma_h_l.weight f4 [128, 7]
0	0x3e83486d	0.25641194
1	0x3e3b9376	0.1831797
2	0xbde95f2d	-0.113951065
3	0x3c66a206	0.014076715
4	0xbe842f63	-0.25817403
5	0x3d9e56fa	0.07731433
6	0x3eab84fd	0.334999
7	0xbe91eaf0	-0.28499556
8	0xbeb2abbc	-0.34896648
9	0xbdabd5b8	-0.08390373
10	0xbe6c47bc	-0.2307424
11	0xbea99428	-0.33120847
12	0xbe61d884	-0.2205525
13	0xbd34b968	-0.04412213
14	0xbe7566a3	-0.23964934
15	0xbd784803	-0.06061555
16	0x3ec01645	0.3751699
17	0xbdb95d86	-0.09051041
18	0xbd8d0399	-0.06885452
19	0x3e724e98	0.23662794
20	0xbe8fef0e	-0.28112072
21	0xbd9dc1b1	-0.07702959
22	0xbe7d7a38	-0.24753654
23	0xbec07f40	-0.37597084
24	0x3ebba953	0.36652622
25	0x3ec13c6c	0.3774141
26	0xbdba41ad	-0.09094558
27	0x3c8f205f	0.01747149
28	0x3e40a7a5	0.18813951
29	0x3e9bbcba	0.30417424
30	0x3ea8f2ea	0.3299783
31	0xbe1ef58c	-0.15523356
32	0xbdef8a49	-0.11696298
33	0xbece2f42	-0.4027043
34	0x3df5ae90	0.11996186
35	0xbec05b9b	-0.3756989
36	0xbe917a95	-0.28413835
37	0x3e2e443c	0.17018217
38	0xbe199a67	-0.15000306
39	0xbe5af2b2	-0.21381643
40	0xbe1d5354	-0.15363818
41	0x3f1bd966	0.608786
42	0x3e6429c9	0.22281565
43	0x3dace6e8	0.08442479
44	0xbdec04cb	-0.11524352
45	0xbec53b56	-0.38521832
46	0xbeca3a80	-0.39497757
47	0x3f041f72	0.5161048
48	0x3ecf938d	0.4054226
49	0xbd218128	-0.039429814
50	0xbe909b25	-0.28243366
51	0xbd690798	-0.056892008
52	0x3de3a944	0.11116269
53	0xbe166f5b	-0.14690916
54	0x3c91e1a0	0.017807782
55	0xbe4bfa8e	-0.19919798
56	0xbd2bf39a	-0.041980363
57	0xbe205782	-0.15658382
58	0xbe8dc6bd	-0.27690688
59	0x3d691353	0.056903195
60	0x3d64736a	0.05577413
61	0x3ea1b3c7	0.31582472
62	0x3e8ae60a	0.2712863
63	0xbe8e399e	-0.27778333
64	0x3e066eca	0.131282
65	0x3f04dee6	0.51902616
66	0x3a646587	0.00087126385
67	0xbd10f75d	-0.035392154
68	0x3dc2508d	0.0948802
69	0x3f0e5acc	0.55607295
70	0xbe9024e7	-0.28153154
71	0xbe3e794c	-0.18600959
72	0x3e0f3064	0.13983303
73	0x3eee6529	0.46561554
74	0xbd4b6205	-0.049654026
75	0xbdf29d6e	-0.118464336
76	0x3ea30600	0.31840515
77	0xbd248c78	-0.040173024
78	0xbe7ac323	-0.24488501
79	0xbeb08e08	-0.3448336
80	0xbe7d098c	-0.24710673
81	0xbebd73fe	-0.37002558
82	0xbe1d82e7	-0.15381967
83	0x3e870bcd	0.2637619
84	0xbe9ca5f6	-0.30595368
85	0xbd96dc10	-0.07366192
86	0xbc3abfc0	-0.011398256
87	0xbde015b4	-0.109416395
88	0x3c985e30	0.0185996
89	0xbe6f225d	-0.23352952
90	0xbe947dcb	-0.29002222
91	0xbea0a26d	-0.3137392
92	0x3e424675	0.1897219
93	0xbe2540d8	-0.16138017
94	0xbe972b27	-0.2952511
95	0x3d365bba	0.04452107
96	0x3e88c513	0.26712856
97	0x3eed268a	0.46318465
98	0xbebceb53	-0.36898288
99	0x3e719d22	0.23595098
100	0xbe2f4d11	-0.17119242
101	0x3e52efe6	0.20599326
102	0xbe1b9d90	-0.15196824
103	0xbebfeb53	-0.37484226
104	0xbd73a688	-0.05948499
105	0x3e81b9c6	0.25337046
106	0x3eb78254	0.3584162
107	0x3e9469d2	0.28986984
108	0x3eb11b7b	0.34591278
109	0xbdece8df	-0.11567854
110	0x3c5a7492	0.013333457
111	0xbebdc269	-0.37062386
112	0xbe97cc16	-0.29647893
113	0x3dd9f7c3	0.1064296
114	0x3ed0539c	0.4068879
115	0x3e96f225	0.29481617
116	0x3e8b75b2	0.27238232
117	0x3e70d90d	0.23520298
118	0xbc04f38f	-0.0081147095
119	0x3e34a3b0	0.17640567
120	0x3e8ebc4b	0.2787803
121	0xbd4203b8	-0.047366828
122	0xbd8bb513	-0.068216465
123	0xbdd659ef	-0.10466372
124	0xbe4cd98e	-0.20004866
125	0x3e917db6	0.28416222
126	0x3ef9c336	0.48781747
127	0x3d5f9ad8	0.05459103
128	0xbebb09a8	-0.36530805
129	0xbdc55b6c	-0.09636578
130	0xbe9d97a0	-0.30779743
131	0xbeaca34e	-0.33718342
132	0x3d12b60f	0.035818156
133	0x3eda0e16	0.42588872
134	0x3eaf9cbd	0.3429927
135	0xbdf5be6d	-0.119992115
136	0x3e0307e2	0.12795976
137	0xbe91c3ba	-0.2846964
138	0xbe16e02c	-0.14733952
139	0x3ed7156f	0.4200854
140	0xbe3da39a	-0.1851944
141	0xbe77e3bc	-0.24207968
142	0x3edba9a7	0.42902872
143	0x3e66d910	0.2254374
144	0x3dcdacfa	0.10042758
145	0x3e494045	0.19653423
146	0xbe866e86	-0.26256198
147	0x3e8219b7	0.25410244
148	0x3e7b734f	0.24555705
149	0xbe37db7f	-0.17954825
150	0xbd6998c5	-0.057030458
151	0x3e5fe62e	0.2186515
152	0xbd5d4244	-0.054018274
153	0x3e57a3e7	0.21058618
154	0xbea3d835	-0.3200089
155	0xbe4cc4db	-0.1999697
156	0xbe7f7ac1	-0.2494917
157	0x3e57b1ff	0.21063994
158	0x3ee25782	0.44207388
159	0xbe736ec2	-0.2377272
160	0x3ecf61f3	0.40504417
161	0x3e1730b4	0.14764673
162	0xbe9d46f8	-0.30718207
163	0x3e7fcedc	0.24981254
164	0x3eac9804	0.3370973
165	0x3cca5470	0.024698466
166	0x3cc86fe0	0.024467409
167	0xbe856f14	-0.26061308
168	0xbeb13a27	-0.3461468
169	0x3d237ee0	0.03991592
170	0xbe6e4577	-0.23268686
171	0xbda7c618	-0.0819208
172	0x3e572aca	0.21012416
173	0xbea226f7	-0.31670353
174	0xbe9c7a50	-0.30562067
175	0xbe6c9a05	-0.23105629
176	0xbe005e63	-0.12536006
177	0x3ee701ef	0.45118663
178	0xbe07fd15	-0.13280137
179	0x3e94d160	0.2906599
180	0xbec663e2	-0.3874808
181	0x3e9cd1fd	0.30628958
182	0xbd6525fe	-0.055944435
183	0x3e973546	0.29532832
184	0x3e7cd2cf	0.24689792
185	0x3ee0e932	0.43927914
186	0x3d51c303	0.05121137
187	0xbeae86c7	-0.34087202
188	0xbdaa1575	-0.08304874
189	0x3e65176d	0.22372217
190	0xbe0b8667	-0.13625489
191	0x3ebc9ab5	0.36836782
192	0xbdff69a9	-0.12471325
193	0xbe802e24	-0.25035203
194	0xbe35c868	-0.1775223
195	0x3eb09099	0.3448532
196	0xbeb30674	-0.3496586
197	0xbea39b00	-0.31954193
198	0xbe80144a	-0.2501548
199	0x3e16f87e	0.1474323
200	0xbd728ff8	-0.05921933
201	0xbd372b38	-0.04471895
202	0x3e31dd76	0.17369637
203	0xbe7ff4f4	-0.24995786
204	0xbe21735a	-0.1576666
205	0x3e9922e5	0.29909435
206	0xbe27d687	-0.1639043
207	0xbe81d879	-0.25360468
208	0x3e8675d9	0.26261786
209	0xbe67f6c9	-0.22652735
210	0x3e868871	0.26275972
211	0xbe5ee19d	-0.21765752
212	0x3e9b46f8	0.30327582
213	0xbd90b570	-0.070658565
214	0xbec612f5	-0.38686338
215	0xbe225f81	-0.15856744
216	0x3eaa76c9	0.3329375
217	0x3eb3c2e8	0.3510964
218	0xbe141cc0	-0.14464092
219	0x3ea48158	0.3212993
220	0xbe93ee72	-0.28892857
221	0xbd4c79f2	-0.049920984
222	0xbe1cde70	-0.15319228
223	0x3e412adb	0.18864004
224	0x3e017a94	0.12644416
225	0xbea540e6	-0.32276076
226	0x3dbc1802	0.091842666
227	0x3ebbf1cd	0.36707917
228	0x3d1a2dd6	0.03764137
229	0xbcc3e389	-0.023912208
230	0x3e81d33c	0.25356472
231	0x3dbec39f	0.093146555
232	0x3ea77bc8	0.32711625
233	0xbe34ae54	-0.17644626
234	0xbd500f87	-0.050796058
235	0xbe86a731	-0.26299432
236	0x3e995f45	0.29955497
237	0x3e276e41	0.16350652
238	0xbd4ab9ea	-0.049493708
239	0xbebe38d0	-0.3715272
240	0xbec37ccb	-0.38181147
241	0x3e23665d	0.15957017
242	0xbe7d8e61	-0.24761344
243	0xbd403268	-0.04692307
244	0x3de802fd	0.11328695
245	0xbe71d0c8	-0.236148
246	0xbe12e220	-0.14344072
247	0xbdc86804	-0.097854644
248	0xbe197e40	-0.14989567
249	0xbe94e926	-0.29084128
250	0x3e5c8a12	0.21537045
251	0x3dcf0908	0.101091444
252	0xbd0ccea5	-0.03437676
253	0x3de16ef7	0.11007493
254	0x3eeabfd0	0.45849466
255	0x3ee19b7b	0.44063935

gamma_h_l.bias f4 [128]
0	0x3ec1a797	0.37823173
1	0xbe0fec88	-0.14055073
2	0x3db23427	0.087013535
3	0x3e2694d9	0.16267718
4	0xbe48fb38	-0.19627082
5	0x3e683ab8	0.2267865
6	0x3d940420	0.07227349
7	0x3e80a971	0.25129274
8	0x3e794f2b	0.24346606
9	0x3e854c6e	0.26034874
10	0x3e9a8815	0.30181947
11	0xbd61aa98	-0.05509433
12	0x3dee2d54	0.116297394
13	0x3e68e514	0.22743636
14	0x3df8014c	0.12109622
15	0xbeb6ff49	-0.35741642
16	0xbec19fd4	-0.37817252
17	0x3e494daa	0.19658533
18	0x3ebb6114	0.36597502
19	0x3e1f601f	0.15564011
20	0xbe887533	-0.26651916
21	0xbe7ee4ba	-0.2489194
22	0x3ecbe161	0.39820388
23	0x3d8560dc	0.06512615
24	0x3e95745f	0.29190347
25	0xbe3141a8	-0.17310202
26	0x3dedc254	0.11609331
27	0xbdbba514	-0.091623455
28	0xbeabde67	-0.33568117
29	0x3de8ff1d	0.11376784
30	0xba53401e	-0.00080585654
31	0xbe44c1c0	-0.19214535
32	0x3e23533b	0.15949719
33	0xbe98ab7a	-0.29818326
34	0x3df3a12c	0.118959755
35	0xbebe8dc1	-0.37217525
36	0x3e01b619	0.12667121
37	0x3dbde57f	0.092722885
38	0x3e53aff6	0.20672593
39	0xbbb283c0	-0.0054478347
40	0xbea0625a	-0.31325036
41	0xbe18eb43	-0.14933495
42	0x3d5b3684	0.053518787
43	0xbcdde408	-0.027086273
44	0x3e94343e	0.28946108
45	0xbe8e39d3	-0.2777849
46	0x3ebe3113	0.37146816
47	0x3d847fd5	0.064696945
48	0x3d9ab593	0.07554164
49	0xbe02a5a7	-0.12758504
50	0x3c9b738e	0.018976
51	0x3e31d220	0.17365313
52	0x3b775280	0.0037738383
53	0x3eb24285	0.34816375
54	0x3e679e60	0.22619009
55	0x3e087a46	0.13327894
56	0x3d97e461	0.07416607
57	0xbcee08b0	-0.029056877
58	0x3ed26541	0.41092876
59	0xbe1316cb	-0.14364164
60	0x3d6b5918	0.057458013
61	0x3ec84f2f	0.39122912
62	0x3dcc64c1	0.09980155
63	0x3e326d3e	0.17424485
64	0x3e6cf4ec	0.23140305
65	0xbd953cd0	-0.0728699
66	0xbbf0d9ff	-0.007350206
67	0x3e8a4c8a	0.2701152
68	0xbd5fc05d	-0.05462681
69	0xbe606499	-0.21913375
70	0xbc879f90	-0.016555578
71	0x3e3d84d0	0.18507695
72	0xbeba7913	-0.36420497
73	0xbd0e0a79	-0.034677956
74	0x3e7b0800	0.2451477
75	0xbe2e0986	-0.1699582
76	0x3c91c215	0.01779274
77	0xbda0e8cd	-0.07856903
78	0xbe8dec6f	-0.27719447
79	0xbe97bcdb	-0.29636273
80	0xbe37881d	-0.17923017
81	0x3e509f67	0.20373307
82	0x3be24821	0.006905571
83	0xbeb3faac	-0.35152185
84	0x3e057903	0.13034444
85	0xbd7c50a6	-0.06160035
86	0xbe809190	-0.25111055
87	0xbebbaaf4	-0.36653864
88	0xbe86df21	-0.2634211
89	0xbd85dcfb	-0.06536289
90	0x3ec10f63	0.37707052
91	0xbe3cf0cf	-0.18451236
92	0xbc897f9d	-0.016784484
93	0xbe4ef7d9	-0.20211734
94	0x3e600185	0.2187558
95	0xbd974fae	-0.073882446
96	0xbe02c4a8	-0.12770331
97	0xbdc9860d	-0.09840021
98	0x3e9fd52a	0.3121732
99	0x3dc609aa	0.09669812
100	0x3e97ae54	0.2962519
101	0x3e3ed832	0.1863716
102	0xbe1878e2	-0.14889863
103	0x3ea8cee2	0.3297034
104	0xbe6f5ed3	-0.23376016
105	0x3e552391	0.20814349
106	0x3e3aa80d	0.18228169
107	0xbe525b8d	-0.20542736
108	0xbea82d42	-0.3284703
109	0x3e333609	0.17501082
110	0x3d2e285e	0.042518966
111	0x3e921f06	0.28539294
112	0x3e40db47	0.18833648
113	0xbdd2a4a4	-0.10285309
114	0x3eb72a14	0.3577429
115	0xbe863d8d	-0.26218835
116	0x3e1d36c2	0.1535292
117	0xbe9389bc	-0.2881602
118	0x3e5b95e4	0.21443897
119	0xbe5e867b	-0.21730988
120	0x3d9725ad	0.07380233
121	0xbea815fa	-0.32829267
122	0x3dbf24ec	0.09333214
123	0x3e03c75d	0.1286902
124	0xbc7039d8	-0.0146622285
125	0xbd18317e	-0.037156574
126	0x3ec7c9b3	0.39021072
127	0x3eab8fa3	0.33508024

encoder_lstm.weight_ih_l0 f4 [512, 7]
0	0xbe894111	-0.26807454
1	0x3d9becd9	0.076135345
2	0xb94f4da4	-0.00019769982
3	0xbe1ad189	-0.15118994
4	0xbdaeada7	-0.08529215
5	0x3de3b572	0.11118592
6	0xbed6fb9a	-0.41988832
7	0xbdd4f509	-0.10398299
8	0x3d7d01f0	0.061769426
9	0x3df65238	0.12027401
10	0x3d461b0a	0.04836563
11	0x3e0b60f2	0.136112
12	0x3cfed668	0.031108096
13	0x3dffd678	0.124920785
14	0x3a8c71fe	0.0010715125
15	0xbde08b94	-0.109641224
16	0xbcd972de	-0.02654403
17	0x3e654194	0.22388297
18	0xbe25c134	-0.16186982
19	0xbe154c5e	-0.14579913
20	0x3ea416fc	0.32048786
21	0x3effa020	0.49926853
22	0x3aa08668	0.0012247087
23	0x3e145b09	0.14487852
24	0x3d2a6f2a	0.04160992
25	0x3d07cc63	0.033153903
26	0x3d03842e	0.03210848
27	0x3e668119	0.22510184
28	0xbce90c9e	-0.0284484
29	0x3e5b6e43	0.2142878
30	0xbea2bd1c	-0.31784904
31	0x3e983346	0.2972662
32	0x3b9bbb11	0.0047525247
33	0x3e88bdfd	0.2670745
34	0x3e2170ec	0.15765733
35	0x3c3d44b3	0.011552024
36	0x3d1b7270	0.037950933
37	0x3d9c7edd	0.07641385
38	0xbdcb460f	-0.09925472
39	0x3de5b76b	0.11216625
40	0x3da4f54e	0.08054601
41	0x3e08740a	0.13325515
42	0xbf14d277	-0.58133644
43	0x3e4bb003	0.19891362
44	0x3e7cc291	0.24683596
45	0xbf0a383f	-0.53992075
46	0x3e4f91eb	0.20270507
47	0x3db055ac	0.086100906
48	0x3d0b9f6a	0.034087576
49	0xbe8c9337	-0.27456066
50	0x3d2412b0	0.040056884
51	0xbe520b86	-0.20512208
52	0x3da1720f	0.07883083
53	0xbc936f50	-0.017997414
54	0x3d2e963a	0.042623736
55	0xbe4b0283	-0.19825177
56	0xbd46325c	-0.04838787
57	0x3dcfb44a	0.10141809
58	0xbd690192	-0.056886263
59	0x3e6419b1	0.22275425
60	0xbe39901a	-0.18121377
61	0xbe2f20ea	-0.171024
62	0xbebd26c4	-0.36943638
63	0xbda1f3af	-0.07907807
64	0xbd48e175	-0.049043138
65	0x3c0f7343	0.008755508
66	0xbe5c0079	-0.21484555
67	0xb9ca1449	-0.00038543556
68	0x3d7cdc48	0.061733514
69	0xba88ce0c	-0.0010437383
70	0x3f04a3b8	0.51812315
71	0xbe1118ac	-0.14169568
72	0xbdc256e3	-0.094892286
73	0x3deebacc	0.116567224
74	0x3d591681	0.052999977
75	0xbde76649	-0.11298806
76	0x3ed46882	0.41485983
77	0xbcefd3ce	-0.029275801
78	0x3ca348db	0.019932201
79	0xbe72f21c	-0.2372517
80	0xbdf0cc6a	-0.11757739
81	0xbabdadfc	-0.0014471407
82	0x3e1cdf0f	0.15319465
83	0xbe87f6c8	-0.26555467
84	0xbd77c9e5	-0.060495276
85	0x3d1b4ccb	0.037915032
86	0xbe6c698b	-0.23087136
87	0x3e8ca02f	0.2746596
88	0xbe238983	-0.15970425
89	0x3c173bf5	0.009230603
90	0xbe06fab0	-0.13181567
91	0xbf48444f	-0.7822923
92	0x3d8249b4	0.06361714
93	0x3ed39796	0.41326588
94	0xbeb0470e	-0.3442921
95	0x3dc9f299	0.09860725
96	0x3eb81e26	0.359605
97	0xbd19c468	-0.037540823
98	0x3ded7240	0.11594057
99	0x3c839895	0.016063968
100	0x3d1babb9	0.038005564
101	0x3ed55ac9	0.41670826
102	0xbe376f24	-0.1791349
103	0xbe495556	-0.1966146
104	0xbd3c7fff	-0.046020504
105	0xbef95499	-0.48697355
106	0x3d85223a	0.06500669
107	0xbe525d74	-0.20543462
108	0xbe927d3a	-0.28611165
109	0xbca9fd37	-0.020750625
110	0xbd2396eb	-0.03993885
111	0xbf14e4b6	-0.58161485
112	0xbe474c18	-0.19462621
113	0x3e0ea658	0.13930643
114	0x3d54bc1f	0.05193722
115	0xbd3ffe6c	-0.046873495
116	0x3d15406c	0.03643839
117	0x3d878d6d	0.06618772
118	0x3c38dd82	0.01128328
119	0xbe4ed207	-0.20197307
120	0x3bd4f2f2	0.006498688
121	0x3d3e6cdd	0.04649054
122	0xbc8b6883	-0.017017609
123	0x3e1e5589	0.15462317
124	0x3d943211	0.07236112
125	0x3de04c44	0.109520465
126	0xbe25f6b7	-0.16207395
127	0xbdeb3d89	-0.11486346
128	0xbe628250	-0.22120023
129	0xbc300a5a	-0.0107446555
130	0xbe5bdd39	-0.21471108
131	0xbe0149b3	-0.1262577
132	0x3e00f1bb	0.12592213
133	0xbdb238e7	-0.087022595
134	0xbbd5130d	-0.006502515
135	0x3d617b65	0.05504932
136	0xbe471752	-0.1944249
137	0xba06ff3e	-0.00051497284
138	0x3db4080e	0.08790599
139	0xbdb487aa	-0.08814938
140	0xbdbf6a2e	-0.09346424
141	0x3e2a70ab	0.16644542
142	0x3e8474bb	0.25870308
143	0x3eab19fe	0.33418268
144	0x3e04537a	0.12922469
145	0x3d18822a	0.03723351
146	0x3dacfe54	0.08446947
147	0xbe0e79ac	-0.13913602
148	0xbd851b1c	-0.06499311
149	0xbc609b4f	-0.013708903
150	0xbe7c0ff7	-0.24615465
151	0xbda0856e	-0.0783795
152	0x3b6e6658	0.003637692
153	0x3d80cbd7	0.06288879
154	0x3dd8ff11	0.10595525
155	0x3deb837a	0.114996865
156	0x3d67fbe2	0.0566367
157	0x3d390492	0.045170374
158	0x3deb0960	0.114763975
159	0xbd2f6c52	-0.04282791
160	0x3e9be91b	0.30451283
161	0xbe601ba9	-0.21885552
162	0x3d255ee3	0.040373694
163	0x3e1f21dd	0.15540262
164	0xbe6d84f0	-0.23195243
165	0x3e0ed2b9	0.13947572
166	0x3df01f1b	0.11724683
167	0xbead413d	-0.33838835
168	0xbe140544	-0.14455134
169	0xbc985e83	-0.018599754
170	0xbd89768a	-0.06712063
171	0x3de1d3fb	0.1102676
172	0x3da29cf1	0.079400904
173	0xbaa5060d	-0.0012590304
174	0xbea38ee5	-0.31944957
175	0x3de2a24e	0.110661134
176	0xbe43a573	-0.19106083
177	0x3e6db993	0.23215322
178	0xbf16e03c	-0.58935905
179	0xbdc9c729	-0.0985244
180	0x3e91b564	0.28458703
181	0x3c839aa8	0.016064957
182	0x3e625fef	0.22106908
183	0xbe1388a9	-0.144076
184	0xbe388bcb	-0.18022077
185	0x3e9ec354	0.310084
186	0xbe05aeb6	-0.13054928
187	0xbdec8dfd	-0.115505196
188	0x3de1c0be	0.11023091
189	0xbd8c4b90	-0.0685035
190	0x3d57b8c4	0.05266644
191	0x3cfa2b76	0.030538302
192	0xbd7269b7	-0.05918285
193	0x3dc5b2e5	0.09653262
194	0xbd805722	-0.06266619
195	0x3d240e29	0.040052567
196	0xbe605ad4	-0.21909648
197	0x3ed6d038	0.41955733
198	0xbe58a540	-0.21156788
199	0xbda17a74	-0.07884684
200	0x3e0cadaf	0.1373813
201	0xbd9893dc	-0.07450077
202	0xbc7a46e1	-0.015275688
203	0xbac78cb1	-0.0015224424
204	0x3f0eb8b9	0.55750614
205	0x3f3dedd9	0.7419105
206	0xbdbc11df	-0.09183096
207	0x3ec4bb82	0.38424307
208	0xbbbe4537	-0.005806591
209	0x3f71efd7	0.9450659
210	0xbe973d48	-0.2953894
211	0x3da9b295	0.08286015
212	0xbd4a0923	-0.04932512
213	0xbd8d2a66	-0.068928525
214	0x3ddcd328	0.10782462
215	0x3c26fa5e	0.010191528
216	0xbe25a921	-0.16177799
217	0x3e72e807	0.23721324
218	0xbc3ff925	-0.0117171155
219	0xbe3c8d38	-0.18413246
220	0x3e4e3ffe	0.20141599
221	0xbe38a515	-0.18031724
222	0xbe1a3c64	-0.150621
223	0xbbf9df00	-0.0076254606
224	0x3efa7ac2	0.48921782
225	0xbdd9a1b4	-0.106265455
226	0xbe9d7634	-0.30754244
227	0x3e9566f0	0.29180098
228	0xbe40585c	-0.18783706
229	0xbd7fdee6	-0.062468432
230	0x3df57f10	0.11987126
231	0xbcedd709	-0.0290332
232	0x3dfd9e22	0.12383677
233	0x3e5232d0	0.20527196
234	0x3df3d099	0.11905021
235	0x3e322aa1	0.17399074
236	0x3d40af28	0.047042042
237	0x3e518a58	0.2046293
238	0xbe91aac9	-0.2845061
239	0x3d88e5be	0.06684445
240	0xbcf3387f	-0.029690025
241	0x3e1766f4	0.14785367
242	0x3d80f12b	0.06295999
243	0x3ce6366a	0.028102119
244	0xbde4eaf9	-0.1117763
245	0x3dbfc7d2	0.093642846
246	0x3ef56880	0.4793129
247	0xbd5c2890	-0.05374962
248	0xbea8d2ad	-0.32973233
249	0x3ec9e2ef	0.3943095
250	0x3e7dc0a9	0.24780525
251	0x3e6f73af	0.23383974
252	0xbdfbf91e	-0.12303375
253	0xbd952586	-0.07282548
254	0xbd7ec1fe	-0.062196724
255	0xbe1a8da8	-0.150931

encoder_lstm.weight_hh_l0 f4 [512, 128]
0	0x3c07eb6c	0.008295875
1	0xbdb5007d	-0.08837984
2	0x3d49134d	0.049090672
3	0x3d555340	0.052081347
4	0x3e179c85	0.14805801
5	0xbd18b473	-0.037281465
6	0x3d683abb	0.056696635
7	0xbd40d9a4	-0.04708256
8	0xbd93adbe	-0.07210873
9	0xbdb7abf9	-0.08968348
10	0x3d34f484	0.0441785
11	0x3daf34c8	0.08554989
12	0xbdbaf120	-0.09128022
13	0xbe2fc0de	-0.17163417
14	0xbcb18704	-0.021670826
15	0xbdbdcf5d	-0.09268067
16	0xbcdfd485	-0.027323017
17	0xbd3c0692	-0.045904703
18	0xbd3b8680	-0.045782566
19	0xbd918137	-0.07104724
20	0x3e08ef5d	0.1337256
21	0xbd9d0d59	-0.076685615
22	0x3d5a4e61	0.053297404
23	0xbab2d829	-0.0013644743
24	0x3e11e33f	0.14246844
25	0xbe362c68	-0.17790377
26	0x3d35b232	0.044359393
27	0x3d500e93	0.05079515
28	0xbd2643b6	-0.040591918
29	0xbe443f72	-0.19164827
30	0x3e1efd78	0.15526378
31	0x3db3ad17	0.08773249
32	0xbcbf1354	-0.023324646
33	0xbdb81b20	-0.08989549
34	0x3e04583f	0.12924288
35	0x3dc86ec2	0.097867504
36	0xbdb14db3	-0.08657398
37	0x3d5bfd04	0.05370809
38	0xba1a3fb0	-0.0005884124
39	0x3cfdc242	0.030976418
40	0x3d7d3c1b	0.0618249
41	0xbd39c0c4	-0.04534985
42	0xbc56a04e	-0.013099743
43	0xbd4969ab	-0.04917304
44	0xbce2f1f7	-0.027703268
45	0x3dc17d47	0.09447723
46	0x3da8005d	0.08203194
47	0xbb2cfb9d	-0.002639509
48	0xbdb8953e	-0.09012841
49	0x3db3123f	0.087437145
50	0x3d22f82b	0.039787453
51	0xbce322dc	-0.027726583
52	0x3d0f8b52	0.035044976
53	0x3d3ac020	0.04559338
54	0xbc46a51c	-0.012124326
55	0xbceb9da9	-0.028761702
56	0xbd8d5a92	-0.069020405
57	0x3dc560a5	0.09637574
58	0x3d63e351	0.055636708
59	0xbc874730	-0.016513437
60	0xbea49620	-0.32145786
61	0x3db763b2	0.08954562
62	0xbdf6713c	-0.120333165
63	0xbd3e5696	-0.046469294
64	0xbe222ea5	-0.15838106
65	0xbcb1d65a	-0.021708656
66	0xbd403e87	-0.04693463
67	0xbd692c14	-0.0569268
68	0x3d03310a	0.03202919
69	0xbd632504	-0.055455223
70	0x3cb47b28	0.022031382
71	0xbdf48fd0	-0.119414926
72	0xbc898589	-0.016787307
73	0x3bb1f399	0.0054306504
74	0x3d217354	0.039416626
75	0x3dc77d74	0.09740725
76	0xbe12eb3f	-0.14347552
77	0x3abf0da9	0.0014576215
78	0x3d6c797c	0.057733044
79	0xbd92cc77	-0.07167905
80	0xbdc70ad3	-0.097188614
81	0xbd8dc3cd	-0.06922112
82	0x3d2b3c24	0.0418054
83	0x3d05bec8	0.032652646
84	0xbcddadcb	-0.02706041
85	0x3ce9f2c3	0.02855814
86	0x3d8d56aa	0.069012955
87	0xbcf1ae10	-0.029501945
88	0xbd3ff6a1	-0.046866063
89	0x3d8ae002	0.06781007
90	0x3d88640b	0.06659707
91	0xbe49cff1	-0.1970823
92	0x3d74cba6	0.059764527
93	0x3ddef4d1	0.10886539
94	0xbda9042a	-0.08252747
95	0xbdee775d	-0.116438605
96	0x3c2b3554	0.010449726
97	0x3d94a8fa	0.07258792
98	0xbdccd1e5	-0.10000972
99	0x3cd3d553	0.025858557
100	0x3d57f755	0.05272611
101	0xbd07f131	-0.033189002
102	0x3d1a3ec3	0.03765751
103	0x3db665d0	0.08906138
104	0x3d8af190	0.06784356
105	0xbd1d31c4	-0.03837754
106	0x3dc4ae8b	0.09603604
107	0xbc6a3786	-0.014295464
108	0xbe09d089	-0.13458456
109	0x3bf4f91a	0.0074759843
110	0x3d24682f	0.04013842
111	0x3d41a4f8	0.047276467
112	0xbd85fb98	-0.06542128
113	0xbe123b80	-0.1428051
114	0x3dad0eea	0.0845011
115	0xbcf00e58	-0.029303715
116	0x3d0b6933	0.034035873
117	0x3d20bd4f	0.03924304
118	0x3cb1c7cd	0.021701718
119	0xbc8b1f52	-0.016982708
120	0xba612be6	-0.000858961
121	0x3d2e66bd	0.042578448
122	0xbdd86870	-0.10566795
123	0xbd2dba22	-0.04241384
124	0x3da675b2	0.08127917
125	0x3b6dd5b8	0.0036290716
126	0x3ddeaeb9	0.108731695
127	0xbd242fc5	-0.04008462
128	0x39bfc4b8	0.00036576926
129	0xbca3027b	-0.019898644
130	0xbd819d69	-0.06328852
131	0x3d6756c1	0.05647922
132	0x3e18e0ee	0.14929554
133	0xbc907dfd	-0.0176382
134	0x3d017534	0.031605914
135	0x3b1f8121	0.0024338441
136	0x3dc4ea39	0.09614987
137	0xbd09e282	-0.03366328
138	0x3dd02827	0.101639085
139	0x3d3ded67	0.046368983
140	0xbcee75e0	-0.029108942
141	0x3da518d9	0.0806138
142	0x3da674f4	0.08127776
143	0xbc8db33f	-0.017297385
144	0xbd9d0d30	-0.07668531
145	0x3aba77a4	0.001422633
146	0x3c63f316	0.013912937
147	0xbd639a31	-0.05556697
148	0x3dfd2e74	0.12362376
149	0xbdb80690	-0.08985627
150	0xbe10059a	-0.14064637
151	0x3dad2610	0.084545255
152	0xbd522ff1	-0.05131525
153	0xbc92f61b	-0.017939618
154	0x3c8581ca	0.01629724
155	0xbd33c5f1	-0.043889944
156	0x3b1def32	0.002409887
157	0xbd13b7ca	-0.036063947
158	0xbb3973be	-0.0028297747
159	0xbde92616	-0.113842174
160	0xbd4b8222	-0.04968465
161	0x3d8792e2	0.066198125
162	0x3d110225	0.035402436
163	0x3d3b02eb	0.04565708
164	0xbd706fb7	-0.05870029
165	0x3d95222c	0.072819084
166	0x3e5952a4	0.21222931
167	0xbc20a6d0	-0.009805396
168	0xbd423733	-0.047415923
169	0x3c6c6c7e	0.014430163
170	0x3db182a8	0.08667499
171	0x3d490eb5	0.04908629
172	0x3cbcdec7	0.023055447
173	0xbe03eafb	-0.12882607
174	0xbdcb74c8	-0.09934384
175	0x3c14ee36	0.009089997
176	0x3d36890d	0.044564296
177	0x3d210d51	0.03931934
178	0xbd718591	-0.05896527
179	0x3da38481	0.079842575
180	0x3e04cc6a	0.12968603
181	0xbe1ec96f	-0.15506528
182	0xbd3a802e	-0.045532398
183	0x3e6983d8	0.228042
184	0xbd6b5c21	-0.057460908
185	0xbe24c0b3	-0.16089134
186	0x3a0a16d9	0.0005267687
187	0x3d9b2280	0.0757494
188	0xbd3420fd	-0.043976773
189	0x3c2c1fe4	0.01050565
190	0x3d76f399	0.060290907
191	0x3d2a261d	0.041540254
192	0xbc7514c0	-0.0149585605
193	0xbcac7159	-0.021050142
194	0x3cdd7a18	0.027035758
195	0x3d7ecf9f	0.06220972
196	0x3b8c45d8	0.004280787
197	0x3d1e2ae6	0.03861513
198	0x3e220763	0.1582313
199	0xbd50fdfb	-0.051023465
200	0xbbc3bb30	-0.005973242
201	0xbe110af0	-0.14164329
202	0xbd4dd2bd	-0.050249804
203	0xbd2a2cc8	-0.041546613
204	0xbdfc4b8b	-0.12319096
205	0xbd1daff0	-0.038497865
206	0x3d6a1d8e	0.05715709
207	0x3c6c907c	0.014438745
208	0xbd7136dd	-0.058890212
209	0xbc856850	-0.016285092
210	0x3cb2b88c	0.021816514
211	0x3d011d6b	0.031522196
212	0x3c8f84b6	0.017519336
213	0xbdd8de90	-0.105893254
214	0xbacaa697	-0.0015461025
215	0xbab62506	-0.0013896532
216	0xbd9f535e	-0.07779573
217	0xbd8076a2	-0.062726274
218	0x3d9d18c7	0.076707415
219	0x3cde8038	0.027160749
220	0xbd88469b	-0.06654092
221	0x3d2e691d	0.042580713
222	0x3d203e8b	0.039122146
223	0x3da87d37	0.08227008
224	0x3d4cbfcc	0.0499876
225	0x3d61ac36	0.055095874
226	0x3b8f1b2e	0.0043672537
227	0x3b24fed6	0.0025176308
228	0xbbc65252	-0.006052294
229	0x3c5c5426	0.013447797
230	0xbdaf9bd6	-0.08574645
231	0xbda9665e	-0.08271478
232	0xbce7497f	-0.028233288
233	0xbde1be30	-0.110226035
234	0x3d1542a9	0.036440525
235	0xbd2304e1	-0.039799575
236	0x3d34b212	0.044115134
237	0x3d2ee1c6	0.042695783
238	0xbdb37b85	-0.08763794
239	0x3d5be217	0.053682413
240	0x3d568d5a	0.052380897
241	0xbd30fd79	-0.04321048
242	0x3cab73e1	0.020929279
243	0xbdf56cec	-0.11983666
244	0x3d59982d	0.05312364
245	0x3cfb1165	0.030647943
246	0xbd83d3de	-0.06436895
247	0xbd34d307	-0.044146564
248	0xbd171a50	-0.036890328
249	0xbde401a7	-0.11133128
250	0x3d13bc3a	0.03606818
251	0xbcea824a	-0.02862658
252	0x3e25d37d	0.16193958
253	0x3d362bed	0.044475485
254	0x3d46a822	0.048500188
255	0xbdd8d0cd	-0.105867006

encoder_lstm.bias_ih_l0 f4 [512]
0	0x3d33536d	0.043780733
1	0xbd1e24cd	-0.038609315
2	0x3c989c22	0.018629137
3	0x3da0fc8f	0.07860672
4	0x3ddb7772	0.10716142
5	0xbd46f85d	-0.0485767
6	0x3d5e3e8f	0.05425888
7	0xbd894d3f	-0.06704187
8	0xbd4ca6f1	-0.049963895
9	0xbd86063f	-0.0654416
10	0x3d3e39fd	0.04644202
11	0xbcce4f12	-0.025184188
12	0x3ce93329	0.028466778
13	0x3d986f76	0.074431345
14	0x3da8680d	0.08222971
15	0x3e12b8fd	0.1432838
16	0x3ce04102	0.027374748
17	0x3c6e734e	0.014553858
18	0xbb0c97da	-0.0021452815
19	0xbd493db5	-0.049131114
20	0xbc0bc199	-0.008530044
21	0xbda1e466	-0.07904892
22	0x3c729523	0.014806065
23	0x3e3b4bd9	0.18290652
24	0xbc9cc59a	-0.019137193
25	0x3e4e9fd6	0.2017816
26	0x3d840f27	0.064482026
27	0xbd854294	-0.065068394
28	0x3e505c43	0.20347695
29	0x3eabaf49	0.3353217
30	0x3d9d74c8	0.0768829
31	0x3d137eca	0.036009587
32	0xbd9ac6fe	-0.07557486
33	0x3d937a65	0.07201079
34	0xbd3ef509	-0.046620402
35	0x3e708e98	0.23491895
36	0x3cdb8f82	0.026801828
37	0x3cbd95b5	0.023142675
38	0x3e23c001	0.15991212
39	0xbdbb65c7	-0.09150272
40	0xbb216b02	-0.0024630432
41	0x3c3ab2f0	0.011395201
42	0xbcc30268	-0.023804858
43	0x3d9fd66b	0.07804569
44	0x3c517a17	0.012785456
45	0x3e3df589	0.18550695
46	0x3dbf3cda	0.093377784
47	0x3e71182a	0.23544374
48	0x3d8786d8	0.06617516
49	0xbd5b8665	-0.053594965
50	0x3e482964	0.1954704
51	0xbbf44289	-0.0074542207
52	0x3e24d311	0.1609614
53	0x3d4a2369	0.049350176
54	0x3df1fcff	0.11815833
55	0x3dfdd4d7	0.123941116
56	0x3d7d3065	0.06181373
57	0x3d71a6b6	0.05899688
58	0x3cac380a	0.021022815
59	0xbd9bf4f1	-0.07615078
60	0x3ea26018	0.3171394
61	0xbd1dac70	-0.038494527
62	0x3e1580a6	0.14599857
63	0x3e9bb67d	0.30412665
64	0x3e002f59	0.12518062
65	0x3e2453a6	0.16047534
66	0x3ad84c9f	0.0016502327
67	0x3d009764	0.031394377
68	0x3e1aac28	0.15104735
69	0x3ecd19b5	0.40058675
70	0x3e18726b	0.14887397
71	0x3e2f9df5	0.171501
72	0x3db4def2	0.08831586
73	0x3d5033a8	0.050830513
74	0x3e31349c	0.17305225
75	0xbdacab88	-0.084311545
76	0x3ec69b39	0.387903
77	0xbd2a239e	-0.041537873
78	0x3d5e69da	0.054300167
79	0x3d1074e5	0.03526773
80	0x3bebcd34	0.007196093
81	0x3b9ef3db	0.004850847
82	0x3d18c3d5	0.037296135
83	0xbcd57a9a	-0.026059438
84	0xbdcc57dd	-0.09977696
85	0xbdf05134	-0.11734238
86	0xbc5c26ce	-0.013436986
87	0x3e1e118d	0.15436383
88	0x3ca96794	0.020679273
89	0x3cbeb2b9	0.023278581
90	0xbcf3abb8	-0.029744968
91	0x3e788d12	0.24272564
92	0x3d9289b4	0.07155171
93	0x3dd91306	0.105993316
94	0x3d60a83f	0.054847952
95	0x3e86243e	0.26199526
96	0x3f08afd7	0.5339331
97	0x3dccba60	0.09996486
98	0x3d62fada	0.055415012
99	0x3db5b981	0.08873273
100	0xbcbaea58	-0.022816822
101	0xbb8fc666	-0.0043876646
102	0x3ded4571	0.115855105
103	0x3de0e004	0.109802276
104	0x3d14b833	0.03630848
105	0x3e038264	0.12842709
106	0xbd05baa1	-0.032648686
107	0x3e2ae890	0.16690278
108	0x3dfdf939	0.12401051
109	0xbd960473	-0.07325067
110	0x3db75661	0.08952022
111	0xbdc468a7	-0.09590273
112	0x3d7a6670	0.06113285
113	0xbcabadf3	-0.020956969
114	0x3df36f43	0.11886456
115	0xbded7de2	-0.11596276
116	0x3dd2e0fa	0.10296817
117	0x3e3dd894	0.18539649
118	0x3e553a4f	0.20823024
119	0xbdbd317a	-0.092379525
120	0xbda41756	-0.080122635
121	0xbd8cc8f9	-0.0687427
122	0x3e090682	0.13381389
123	0x3da82011	0.08209241
124	0x3e358fa8	0.17730582
125	0xbcedac0d	-0.029012704
126	0xbd5c8ab8	-0.05384323
127	0x3e8394b9	0.25699404
128	0xbd7a1914	-0.061059073
129	0x3b10dfe9	0.0022106117
130	0x3d233a69	0.039850626
131	0xbda83866	-0.08213882
132	0x3e0a0e86	0.13482103
133	0x3cc1fb70	0.023679465
134	0xbd79ab69	-0.060954485
135	0xbdb0bf28	-0.0863021
136	0x3d60179e	0.054710023
137	0x3bf334e8	0.0074220784
138	0xbd2ae03c	-0.041717753
139	0x3c908815	0.017643014
140	0x3bfea10d	0.0077706636
141	0xbd677757	-0.056510296
142	0x3d77caa5	0.06049599
143	0x3cc7ee81	0.02440572
144	0xbdb62750	-0.08894217
145	0x3baf6974	0.005353147
146	0xbdbeb9ef	-0.09312808
147	0xbd88a76f	-0.066725604
148	0xbd9a54e4	-0.07535723
149	0x3ccfe1f1	0.025376292
150	0xbc8ce7f1	-0.017200442
151	0x3d279e3d	0.040922392
152	0xbd37305b	-0.04472385
153	0x3e1b9a3a	0.15195552
154	0x3d37d23d	0.044878233
155	0x3c6db109	0.0145075405
156	0xbc5f5efc	-0.013633486
157	0xbcf08932	-0.029362295
158	0x3d5eadab	0.05436484
159	0xbd1392fb	-0.036028843
160	0xbdcaa4c3	-0.09894707
161	0xbd00efc7	-0.03147867
162	0xbd1eab8c	-0.03873782
163	0xbd150d6b	-0.03638975
164	0xbdbf3019	-0.09335346
165	0x3b9098b5	0.0044127353
166	0xbdf6de62	-0.12054135
167	0xbce59baf	-0.028028337
168	0xbddba377	-0.10724538
169	0x3d77c1a0	0.06048739
170	0xbd9bed66	-0.076136395
171	0x3db9abfa	0.09066005
172	0x3da5efef	0.08102404
173	0x3dc8ceba	0.09805055
174	0xbcd2a53c	-0.025713556
175	0xbd005324	-0.03132929
176	0x3d9b040a	0.0756913
177	0xbd057575	-0.03258272
178	0xbd1a7ac1	-0.037714723
179	0xbd71393b	-0.05889247
180	0x3d987f44	0.07446149
181	0xbd0a7eb9	-0.03381226
182	0xbd9c1f18	-0.07623118
183	0x3e22a1df	0.15882061
184	0x3d6d9f7d	0.058013428
185	0xbc565c64	-0.013083551
186	0xbcafd725	-0.021464894
187	0xbd90c786	-0.07069306
188	0xbe095a2d	-0.13413306
189	0x3d0e5390	0.03474766
190	0x3e134ee8	0.14385569
191	0x3e2c5935	0.16830905
192	0xbd481f52	-0.048857994
193	0xbdb70749	-0.089369364
194	0x3cc840b3	0.024444913
195	0x3b84152b	0.0040308437
196	0xbdd6bd9b	-0.10485383
197	0xbe248c91	-0.16069247
198	0x3dfa25c7	0.12214237
199	0x3d559387	0.052142646
200	0x3d2c5a6d	0.042078424
201	0xbbf427e3	-0.007451044
202	0x3c0e0088	0.008667119
203	0xbda726c0	-0.08161688
204	0xbd1a9133	-0.03773613
205	0xbd9984fa	-0.074960664
206	0x3deddcdd	0.11614392
207	0xbdab8539	-0.083750196
208	0x3d6f027d	0.058351982
209	0xbd99b5de	-0.075053915
210	0xbdec41e9	-0.11536009
211	0xbcf8b9ff	-0.030362127
212	0xbd71ea26	-0.059061192
213	0xbd6e5882	-0.058189876
214	0x3d29ba1f	0.041437265
215	0xbdb95fd0	-0.09051478
216	0x3c716a6d	0.014734847
217	0x3d80779f	0.06272816
218	0xbd1de9cb	-0.03855304
219	0x3c3ad544	0.011403386
220	0xbc8f91a4	-0.017525502
221	0xbc2532a8	-0.010082878
222	0xbe0f4785	-0.13992126
223	0x3c6107ed	0.0137348
224	0xbce13578	-0.027491316
225	0xbd57793a	-0.052605845
226	0x3daa9f2e	0.08331142
227	0xbc6a404d	-0.014297557
228	0xbd626953	-0.055276226
229	0xbd8ee631	-0.06977499
230	0xbd6b66f5	-0.057471234
231	0x3c206b8b	0.009791265
232	0xbd768e57	-0.06019434
233	0x3d05b06f	0.032638963
234	0xba8f981e	-0.0010955369
235	0x3e3bdc43	0.18345742
236	0x3d10b0ab	0.035324734
237	0xbd803d1e	-0.06261657
238	0xbcc485ac	-0.023989521
239	0xbcb2e71a	-0.021838713
240	0x3da000c9	0.0781265
241	0x3dadd0d2	0.08487095
242	0xbc4fad7b	-0.012675638
243	0x3d0f19eb	0.034936827
244	0xbb865834	-0.00409987
245	0xbd3cb6f7	-0.046072926
246	0x3e41d87d	0.1893024
247	0x3c98898e	0.018620279
248	0xbdb1cd0e	-0.08681689
249	0x3d439d10	0.04775721
250	0x3d0881a7	0.03332677
251	0xbd4603b5	-0.04834338
252	0x3b86ce89	0.0041139764
253	0xbd9b676c	-0.075880855
254	0xbe050dd1	-0.12993552
255	0xbd7a51b6	-0.061113082

encoder_lstm.bias_hh_l0 f4 [512]
0	0xbd256a7d	-0.04038476
1	0xbd602432	-0.05472202
2	0x3e12c891	0.14334323
3	0x3d8f93cb	0.07010611
4	0x3e882a1d	0.2659463
5	0xbd5b4774	-0.05353494
6	0xbcd49763	-0.025951093
7	0xbde9f107	-0.114229254
8	0x3b12e3b8	0.0022413563
9	0x3c232125	0.009956633
10	0xbd675477	-0.056477036
11	0xbda01bad	-0.07817779
12	0xbd7a9fba	-0.061187483
13	0x3d54421c	0.05182086
14	0x3bb20c25	0.0054335766
15	0x3de3af21	0.111173876
16	0x3e18c55b	0.14919035
17	0xbd55a9de	-0.05216395
18	0xbcb46c8e	-0.02202442
19	0xbdc8cff4	-0.09805289
20	0xbc85f3e8	-0.016351655
21	0xbba4cc08	-0.0050292052
22	0x3d8c2685	0.068432845
23	0x3e2769ee	0.16349003
24	0xbd8b8eff	-0.06814384
25	0x3dee2f69	0.116301365
26	0xbd0c0f0f	-0.03419405
27	0xbd267588	-0.04063943
28	0x3e4d656d	0.20058222
29	0x3eadb18c	0.3392452
30	0x3ba7042a	0.005096932
31	0x3d10473d	0.035224188
32	0xbd1fc23d	-0.0390036
33	0x3c8dc243	0.017304545
34	0xbcaddbcf	-0.021222977
35	0x3ea0a4e0	0.3137579
36	0x3aa7f037	0.0012812678
37	0xbd508b14	-0.050913885
38	0x3da8bb54	0.08238855
39	0xbdb8d6e1	-0.0902536
40	0x3c7da707	0.015481717
41	0x3d9f0856	0.07765262
42	0xbdbbafcb	-0.09164389
43	0x3e1121c4	0.14173037
44	0x3d0a1913	0.03371532
45	0x3e580491	0.21095492
46	0x3cc2ef0f	0.023795633
47	0x3dfff295	0.12497441
48	0x3d9e65c4	0.07734254
49	0xbba7b62a	-0.005118151
50	0x3e5a0b53	0.21293382
51	0x3d609ecb	0.054838937
52	0x3d9a3703	0.07530024
53	0xba23dd00	-0.0006250888
54	0x3d2f5a74	0.042810872
55	0x3e504114	0.20337325
56	0x3d962659	0.07331533
57	0x3bf02d34	0.0073296074
58	0x3d768435	0.060184676
59	0x3db40fbe	0.08792065
60	0x3ebfd571	0.3746753
61	0x3d8289a2	0.063739076
62	0x3e3895b0	0.18025851
63	0x3e97dc16	0.296601
64	0x3d551ede	0.05203139
65	0x3cb2839f	0.021791277
66	0xbdebacad	-0.11507545
67	0xbc5a388e	-0.013319148
68	0x3d8c4ff4	0.06851187
69	0x3f0a8a42	0.54117215
70	0x3e27e360	0.1639533
71	0x3e8b0b0f	0.27156875
72	0x3c9348cf	0.017979054
73	0x3d6be4f4	0.057591394
74	0x3cca2a49	0.024678366
75	0xbcdd1300	-0.026986599
76	0x3eaf0873	0.34186134
77	0x3dae0fcb	0.08499106
78	0xbc01cc59	-0.007922255
79	0xbd99b895	-0.07505909
80	0xbd5a811d	-0.05334579
81	0xbd711acc	-0.058863446
82	0xbb658426	-0.0035021394
83	0xbbc7afb9	-0.006093946
84	0x3c818e1f	0.015814839
85	0xbd91de0b	-0.071224295
86	0xbcbc8cca	-0.023016352
87	0x3e332992	0.17496327
88	0x3d467662	0.048452742
89	0x3d491705	0.04909422
90	0xbc82da1f	-0.015973149
91	0x3d9c92fd	0.07645223
92	0xbd12434e	-0.035708718
93	0x3cf87a05	0.030331621
94	0x3d5f4c01	0.054515842
95	0x3e764217	0.24048649
96	0x3f0c9c8d	0.5492638
97	0x3e30e863	0.17276148
98	0x3bd4d525	0.0064951354
99	0x3e40af6e	0.18816921
100	0x3d80b3b3	0.06284275
101	0xbd374862	-0.044746764
102	0x3e27325e	0.16327807
103	0x3c8c9172	0.017159197
104	0x3cc08010	0.023498565
105	0x3e79da99	0.24399795
106	0x3d9ae2a4	0.075627595
107	0x3e73faac	0.23826092
108	0x3d479c2e	0.04873293
109	0xbd957623	-0.072979234
110	0xbccfc705	-0.025363455
111	0x3beb1181	0.0071737175
112	0x3d8385d0	0.06422007
113	0x3d2d42ba	0.042299964
114	0x3d8eaec3	0.06966927
115	0xbe07e875	-0.13272269
116	0x3ccab88e	0.024746206
117	0x3de63dd6	0.11242263
118	0x3ea548d2	0.3228212
119	0xbd1ef5fb	-0.038808804
120	0x3d2178dc	0.0394219
121	0x3c56c023	0.013107332
122	0x3d041ee7	0.032256033
123	0xbc0cf620	-0.008603603
124	0x3e7ee30f	0.24891303
125	0xbd011810	-0.03151709
126	0x3d2d0b29	0.04224697
127	0x3e2af6c0	0.1669569
128	0xbdb78401	-0.089607246
129	0xbd6aaa3a	-0.057291247
130	0xbc8a278d	-0.016864562
131	0x3ce60dee	0.028082814
132	0x3e0b32a0	0.1359353
133	0xbdd727af	-0.10505616
134	0x3cb8e5f8	0.022570595
135	0x3c1886e2	0.009309502
136	0xbb923137	-0.0044614333
137	0x3d3826ca	0.044958867
138	0x3da709fb	0.081562005
139	0xbd53417d	-0.051576126
140	0x3d93f71a	0.07224865
141	0x352b81a3	6.389111e-07
142	0x3db4f36d	0.08835492
143	0x3d93546c	0.071938366
144	0xbd9068ec	-0.07051262
145	0xbb0cc16e	-0.0021477598
146	0xbdaf473e	-0.0855851
147	0xbd8d6da1	-0.06905676
148	0x3d089b90	0.03335148
149	0xbc31e8e7	-0.010858751
150	0xbd130d24	-0.035901204
151	0x3e0c2076	0.13684258
152	0xbbfd8d3a	-0.007737783
153	0x3e02c6b4	0.12771112
154	0xbdbbe4c3	-0.09174492
155	0xbd2d3e8c	-0.042295977
156	0xbdfd4a13	-0.12367644
157	0xbdd99774	-0.106245905
158	0xbd80bc65	-0.062859334
159	0xbdbc18a8	-0.0918439
160	0x3d57d806	0.05269625
161	0x3d1437f0	0.03618616
162	0xbd694384	-0.056949154
163	0xbd596da8	-0.053083092
164	0xbd5b72be	-0.053576224
165	0xbce4a323	-0.02790982
166	0xbe0ea6d3	-0.13930826
167	0xbd19ffa1	-0.037597302
168	0x3d48cb5d	0.049022067
169	0xbd29fabd	-0.04149889
170	0x3d66fdba	0.056394316
171	0x3d240bea	0.040050425
172	0x3dba3993	0.09093013
173	0x3cf0704b	0.02935042
174	0xbd2bcf03	-0.04194547
175	0x3d401365	0.046893496
176	0xbd9265fd	-0.07148359
177	0x3c4311c7	0.011906094
178	0xbdc29ccb	-0.09502562
179	0xbce8466f	-0.028353898
180	0xbd83a0e5	-0.064271726
181	0xbda342c9	-0.07971723
182	0xbd061743	-0.032737028
183	0x3d58b0e0	0.052903056
184	0xbc87370b	-0.016505739
185	0xbd36557c	-0.044515118
186	0xbc4e3e16	-0.012588045
187	0x3ccdc3af	0.025117723
188	0xbe344601	-0.1760483
189	0xbd9c7b11	-0.076406606
190	0x3d734a6d	0.05939715
191	0x3e4f1ebe	0.20226571
192	0xbd0d3e93	-0.034483504
193	0x3b7fe478	0.003904609
194	0xbdc0affa	-0.09408565
195	0xbb42d854	-0.0029730992
196	0xbd10bb16	-0.03533467
197	0xbe02c505	-0.1277047
198	0x3d7300c2	0.059326895
199	0xbd8bc249	-0.06824166
200	0x3d428a77	0.04749533
201	0x3dcb5efc	0.09930226
202	0x3c0f2115	0.008735915
203	0xbdc99fce	-0.098449335
204	0xbd9c81a1	-0.07641912
205	0x3d7909bb	0.060800295
206	0xbc7bbf1a	-0.015365386
207	0x3cc36c43	0.023855334
208	0x3d64042f	0.055668052
209	0x3d285266	0.041094206
210	0xbdba3842	-0.090927616
211	0xbc1ec96d	-0.009691578
212	0x3b3ccc06	0.002880813
213	0x3d19ee48	0.03758076
214	0x3c8bd182	0.017067675
215	0xbe505e51	-0.20348479
216	0x3d7f6cf8	0.06235978
217	0xbd4edcdb	-0.050503593
218	0xbd4eb99b	-0.050469976
219	0xbc6cd123	-0.014454159
220	0xbd027f32	-0.031859584
221	0xbd703740	-0.05864644
222	0xbd9f81b6	-0.07788412
223	0x3d997634	0.074932486
224	0xbdc6bfae	-0.09704529
225	0xbda40c27	-0.080101304
226	0xbd74a3fb	-0.059726696
227	0x3ce83876	0.028347235
228	0x3d950bcf	0.07277643
229	0xbd04f2af	-0.032458004
230	0x3c880ae2	0.016606752
231	0xbda17439	-0.07883496
232	0xbda1d71d	-0.07902358
233	0x3da9d135	0.08291856
234	0xbd43322a	-0.047655262
235	0x3e75313a	0.2394456
236	0xbc51c5c5	-0.0128035
237	0xbccbd8a1	-0.02488357
238	0xbd85384e	-0.0650488
239	0xbb48d56a	-0.0030644783
240	0x3d9311a7	0.07181101
241	0xbd95cdc1	-0.07314635
242	0xbcfaff15	-0.03063921
243	0xbda8acfb	-0.082361184
244	0x3dcaf101	0.09909249
245	0x3df085f8	0.117443025
246	0x3da0aac6	0.078450724
247	0xbcde0643	-0.027102595
248	0x3ccb3f50	0.024810463
249	0xbd9df149	-0.07712037
250	0xbc1d5263	-0.009602162
251	0xbdb1c90f	-0.08680927
252	0xbd0da6d3	-0.034582924
253	0xbdd3cd00	-0.10341835
254	0xbdbda1b4	-0.09259358
255	0xbe2a40b1	-0.1662624

encoder_attn.weight f4 [1, 296]
0	0xbcf34c16	-0.029699367
1	0x3d420e6f	0.047377046
2	0xbd1eb8fa	-0.038750626
3	0xbcea2a50	-0.02858463
4	0x3c5ace14	0.013354797
5	0x3d2e9f80	0.04263258
6	0x3c5d5cf0	0.013510928
7	0xbcd15f5c	-0.025558166
8	0x3d2be50b	0.04196648
9	0x3d17e3e7	0.03708258
10	0xbc5703d4	-0.013123471
11	0x3d351ce7	0.044217017
12	0xbcdcda0e	-0.026959445
13	0x3d512eab	0.051069897
14	0x3cd3f7df	0.02587503
15	0x3cd289c5	0.02570046
16	0x3cc7c7dc	0.024387293
17	0xbc0f1363	-0.0087326495
18	0xbd2a6ce4	-0.041607752
19	0xbc8b5202	-0.017006878
20	0xbd44061c	-0.04785739
21	0xbd4fcfdf	-0.05073535
22	0xbc113597	-0.0088628745
23	0x3d00f1ea	0.031480707
24	0xbb9720d5	-0.004612068
25	0x3cd5fa2a	0.026120264
26	0x3d3ebb6f	0.04656547
27	0x3cb1fb33	0.021726226
28	0xbcf7f053	-0.030265963
29	0x3d6d8762	0.05799044
30	0x3d0d9513	0.034565996
31	0xba70fb35	-0.0009192706
32	0x3d18c792	0.0372997
33	0x3d1c3e85	0.03814556
34	0xbb3bfcc1	-0.0028684589
35	0xbc6c1963	-0.01441035
36	0x3bfa91f2	0.0076467926
37	0xbd6cb4bd	-0.057789553
38	0xbd587238	-0.052843302
39	0x3c30e73e	0.01079732
40	0xbcc59fbd	-0.02412402
41	0x3be261f9	0.006908652
42	0xbd43f341	-0.047839407
43	0x3ccaa399	0.024736213
44	0x3d2d114d	0.042252827
45	0xbd270e1c	-0.04078494
46	0xbb03f8fd	-0.0020137422
47	0xbcf1cd76	-0.029516917
48	0x3ada2ee5	0.0016646056
49	0x3cefce5c	0.029273205
50	0x3d5d57e4	0.054038897
51	0xbcd4f36e	-0.025994983
52	0x3b5dbb17	0.0033833438
53	0xbcc7da31	-0.024396034
54	0xbcecdb8f	-0.028913287
55	0x3d0fcc3a	0.035106875
56	0xbcaeb526	-0.021326613
57	0xbd6a3b5f	-0.057185527
58	0xbd6cfefa	-0.057860352
59	0xbd10f088	-0.03538564
60	0x3d55d626	0.05220618
61	0x3d0c91da	0.034318782
62	0x3ca1be18	0.019743964
63	0x3d2531d2	0.040330715
64	0xbcfc9539	-0.030832874
65	0x3d158380	0.03650236
66	0x3d053f77	0.032531228
67	0xbd4e7072	-0.050400205
68	0x3c8f8c28	0.017522886
69	0x3d27743c	0.040882334
70	0x3c86172d	0.016368473
71	0x3d4426b7	0.047888484
72	0xbce26c16	-0.02763943
73	0xbc63032a	-0.013855735
74	0x3d1b1b4f	0.03786784
75	0x3c46d897	0.0121366
76	0x3d661cc3	0.056179773
77	0x3d0dc01b	0.034607034
78	0x3d42b01f	0.047531243
79	0x3d07e746	0.033179544
80	0x3d3a2a42	0.045450456
81	0xba71494e	-0.00092043437
82	0xbb79973d	-0.003808453
83	0xbcef348a	-0.029199857
84	0x3c4867f9	0.01223182
85	0x3d534df8	0.05158803
86	0xbcf92e8d	-0.030417705
87	0x3c6bd618	0.014394306
88	0xbc8dcd06	-0.017309677
89	0x3bbd358e	0.0057742065
90	0x3c8eafcf	0.017417816
91	0xbcf61961	-0.030041398
92	0x3d4ec3e7	0.050479796
93	0x3d57d8d1	0.052697007
94	0xbc49c8e7	-0.012315965
95	0xbd0d4bb6	-0.03449603
96	0xbce53288	-0.027978197
97	0x3c8f455b	0.017489126
98	0xbd1a9027	-0.03773513
99	0x3d6b17f9	0.05739591
100	0xbd6c9a24	-0.057764187
101	0xbc75f0d2	-0.015011029
102	0x3cb05b44	0.021527894
103	0xbd254c69	-0.040356074
104	0xbd5e9dd1	-0.054349724
105	0x3d05cc53	0.032665562
106	0x3d3da934	0.046303943
107	0xbd0c935e	-0.034320228
108	0x3c8d93a5	0.017282316
109	0x3a9084a3	0.0011025857
110	0xbc7edb0c	-0.0155551545
111	0x3d22307b	0.039597016
112	0x3ccd5b97	0.025068088
113	0x3c7fe004	0.015617374
114	0xbd008450	-0.031376183
115	0x3d591723	0.05300058
116	0xbceeffba	-0.029174674
117	0x3d4c5fb5	0.04989596
118	0xbd603805	-0.054740924
119	0xbcc106d3	-0.023562824
120	0x3bc83e9c	0.0061109792
121	0xbd42866e	-0.047491483
122	0xbd4f2384	-0.05057098
123	0xbd6a39b8	-0.05718395
124	0x3cd89ff2	0.026443455
125	0x3d3c1632	0.045919605
126	0xbbf65677	-0.0075176316
127	0x3c0e047c	0.008668061
128	0xbd092c92	-0.03348977
129	0xbd21952b	-0.0394489
130	0x3ca1d76c	0.019756041
131	0x3d2d6127	0.04232898
132	0xbd442e2b	-0.04789559
133	0xbceb6009	-0.028732317
134	0x3d0b4a95	0.034006674
135	0xbcd2c1b0	-0.025727123
136	0xbc96e553	-0.018419897
137	0x3c6ee6ff	0.014581441
138	0xbd696fb9	-0.056991313
139	0x3c47b995	0.012190242
140	0x3d62b1a4	0.055345193
141	0xbd4bb3ea	-0.049732126
142	0xbc6ae5e9	-0.014337041
143	0xbcc41032	-0.023933504
144	0xbd45f078	-0.048325032
145	0xbbfecc7a	-0.0077758403
146	0xbc83d417	-0.016092343
147	0x3d53a6e0	0.051672816
148	0x3d2162ba	0.039400794
149	0x3d34935b	0.04408584
150	0x3b896858	0.004193347
151	0x3cd81f46	0.0263821
152	0x3d392259	0.045198772
153	0xbd33cc2e	-0.043895893
154	0xbad1db07	-0.001601071
155	0xbc605058	-0.01369103
156	0x3d62d234	0.055376247
157	0xbca6e181	-0.0203712
158	0xbba8f5b9	-0.0051562455
159	0xbd017bfd	-0.031612385
160	0xbc8a3289	-0.0168698
161	0xbd34d361	-0.0441469
162	0xbd14798c	-0.03624873
163	0xbd53175a	-0.05153594
164	0x3d21f1d8	0.03953728
165	0x3d3e9d7a	0.0465369
166	0xbd14cb98	-0.036326975
167	0xbcaa6494	-0.020799913
168	0x3d303aef	0.043024953
169	0xbcbeda12	-0.023297343
170	0xbc021f83	-0.007942083
171	0xbca2f186	-0.019890558
172	0x3cd4d831	0.025981994
173	0x3d58ac1a	0.052898504
174	0xbcb2b131	-0.021813007
175	0x3b8bcecd	0.004266596
176	0xbb3362d3	-0.0027372136
177	0x3cc80e5a	0.024420906
178	0xbd494cf0	-0.04914564
179	0xbb4e08f2	-0.0031438437
180	0xbd0973b0	-0.033557594
181	0xbd021675	-0.031759698
182	0x3bd0ba5f	0.0063698734
183	0x3d2a21c9	0.041536126
184	0x3cd663ac	0.026170574
185	0xbd0a7209	-0.03380016
186	0x39df5183	0.00042594605
187	0x3d5a3ccf	0.053280648
188	0xbcc28ec6	-0.02374972
189	0xbd17c941	-0.037057165
190	0x3d559d78	0.052152127
191	0x3bf3c020	0.0074386746
192	0x3c51f0ab	0.012813727
193	0xbbb46a51	-0.005505838
194	0xbc5c7914	-0.013456602
195	0xbd2b3325	-0.041796822
196	0x3c4d8e81	0.012546183
197	0xbd222b30	-0.039591968
198	0x3d672e2d	0.05644052
199	0xbbb51f51	-0.005527415
200	0x3c46f94e	0.0121444
201	0x3d2ba042	0.04190088
202	0x3c7f22b2	0.015572237
203	0xbd26ddff	-0.040739056
204	0x3c96f39c	0.018426709
205	0x3bb5cb41	0.0055479114
206	0xbd156c49	-0.036480222
207	0x3d394faa	0.04524199
208	0xbcabbb35	-0.02096329
209	0xbcc309b9	-0.023808347
210	0xbd468014	-0.04846199
211	0xbce51c92	-0.027967725
212	0xbc192566	-0.009347295
213	0xbcfde1a5	-0.030991385
214	0x3c9a968f	0.01887062
215	0x3b7a380a	0.0038180375
216	0xb8ae4918	-8.310581e-05
217	0xbcb2150d	-0.021738553
218	0xbc3bba8a	-0.011458049
219	0xbcd20346	-0.025636327
220	0xbd06843e	-0.03284096
221	0x3bfc9ff7	0.007709499
222	0x3d67e68f	0.056616362
223	0x3cc01ad8	0.0234503
224	0x3ce04a9e	0.02737933
225	0xbc40a458	-0.011757933
226	0xbd1991c9	-0.037492547
227	0x3d2a367f	0.041555878
228	0x3d158bc0	0.03651023
229	0x3d2ce60c	0.042211577
230	0x3d19a63b	0.037512045
231	0xbbe880a6	-0.007095414
232	0xbca4dc73	-0.02012465
233	0xbc49eb5e	-0.012324182
234	0x3c74e626	0.01494745
235	0x3c831264	0.01599998
236	0x3c599ddf	0.013282268
237	0xbc88dfde	-0.01670831
238	0x3d3d2788	0.046180278
239	0xbceda031	-0.02900705
240	0xbd659e42	-0.05605913
241	0x3c5d31a6	0.013500607
242	0xbd378e01	-0.04481316
243	0xbd6b71e0	-0.057481647
244	0x3d15e0c6	0.036591314
245	0x3cf51cae	0.029920902
246	0xbcae9c9b	-0.02131491
247	0xbc84fa73	-0.016232705
248	0x3c8e33ae	0.017358627
249	0xbce3a3a0	-0.027787983
250	0xbd134d4e	-0.035962395
251	0x3caebc8a	0.021330137
252	0x3cf037d5	0.029323498
253	0xbd0797f4	-0.0331039
254	0x3cbcd837	0.023052318
255	0x3d0f1068	0.034927756

exp_avg f4 [7, 7]
0	0x00000000	0.0
1	0x00000000	0.0
2	0x00000000	0.0
3	0x00000000	0.0
4	0x00000000	0.0
5	0x00000000	0.0
6	0x00000000	0.0
7	0x00000000	0.0
8	0xb4b25093	-3.321371e-07
9	0x00000000	0.0
10	0x00000000	0.0
11	0x00000000	0.0
12	0x00000000	0.0
13	0x00000000	0.0
14	0x00000000	0.0
15	0x00000000	0.0
16	0xb4d58012	-3.9767525e-07
17	0x00000000	0.0
18	0x00000000	0.0
19	0x00000000	0.0
20	0x00000000	0.0
21	0x00000000	0.0
22	0x00000000	0.0
23	0x00000000	0.0
24	0x2f4872d5	1.823069e-10
25	0x00000000	0.0
26	0x00000000	0.0
27	0x00000000	0.0
28	0x00000000	0.0
29	0x00000000	0.0
30	0x00000000	0.0
31	0x00000000	0.0
32	0x32053541	7.753727e-09
33	0x00000000	0.0
34	0x00000000	0.0
35	0x00000000	0.0
36	0x00000000	0.0
37	0x00000000	0.0
38	0x00000000	0.0
39	0x00000000	0.0
40	0x3395e732	6.9804074e-08
41	0x00000000	0.0
42	0x00000000	0.0
43	0x00000000	0.0
44	0x00000000	0.0
45	0x00000000	0.0
46	0x00000000	0.0
47	0x00000000	0.0
48	0xb29515f3	-1.7355864e-08

exp_avg_sq f4 [7, 7]
0	0x00000000	0.0
1	0x00000000	0.0
2	0x00000000	0.0
3	0x00000000	0.0
4	0x00000000	0.0
5	0x00000000	0.0
6	0x00000000	0.0
7	0x00000000	0.0
8	0x2d22f79a	9.2636124e-12
9	0x00000000	0.0
10	0x00000000	0.0
11	0x00000000	0.0
12	0x00000000	0.0
13	0x00000000	0.0
14	0x00000000	0.0
15	0x00000000	0.0
16	0x2b1fa968	5.6723246e-13
17	0x00000000	0.0
18	0x00000000	0.0
19	0x00000000	0.0
20	0x00000000	0.0
21	0x00000000	0.0
22	0x00000000	0.0
23	0x00000000	0.0
24	0x243e56d1	4.127322e-17
25	0x00000000	0.0
26	0x00000000	0.0
27	0x00000000	0.0
28	0x00000000	0.0
29	0x00000000	0.0
30	0x00000000	0.0
31	0x00000000	0.0
32	0x2a8ceb0b	2.503209e-13
33	0x00000000	0.0
34	0x00000000	0.0
35	0x00000000	0.0
36	0x00000000	0.0
37	0x00000000	0.0
38	0x00000000	0.0
39	0x00000000	0.0
40	0x2be5a976	1.6318464e-12
41	0x00000000	0.0
42	0x00000000	0.0
43	0x00000000	0.0
44	0x00000000	0.0
45	0x00000000	0.0
46	0x00000000	0.0
47	0x00000000	0.0
48	0x2b8afc8d	9.875587e-13

exp_avg f4 [7]
0	0x00000000	0.0
1	0xb4b92243	-3.4483864e-07
2	0xb4ab023a	-3.1852852e-07
3	0xb0dff3a1	-1.6294629e-09
4	0xb1199931	-2.235151e-09
5	0x32fb5420	2.9258501e-08
6	0xb35f4203	-5.198127e-08

exp_avg_sq f4 [7]
0	0x00000000	0.0
1	0x2d1fd4a9	9.085324e-12
2	0x2af5ebea	4.368444e-13
3	0x2537794a	1.5913814e-16
4	0x2a2582a8	1.4700274e-13
5	0x2be787b3	1.6451201e-12
6	0x2b87d729	9.652046e-13
