weights_new/EncoderEpochnew875_20_8.pt (torch_old, 862531 bytes, 27 tensors)

gamma_x_l.weight f4 [7, 7]
0	0xbe4ee787	-0.20205508
1	0x3e434326	0.19068584
2	0x3cac9590	0.02106741
3	0xbd1f6a48	-0.038919717
4	0xbe644742	-0.22292808
5	0xbaaf7e00	-0.0013388991
6	0x3e60300a	0.21893325
7	0xbb332a80	-0.0027338564
8	0xbe976c0a	-0.29574615
9	0x3e2834ae	0.16426346
10	0x3dec30d8	0.11532754
11	0xbe2503a3	-0.16114669
12	0x3e0c5872	0.13705614
13	0xbd6e4840	-0.05817437
14	0x3e9545fb	0.29154953
15	0xbeabc89c	-0.3355149
16	0xbe8cd473	-0.27505836
17	0x3e84e52b	0.2595609
18	0xbe9bafda	-0.30407602
19	0x3e495c3a	0.19664088
20	0x3eb30f99	0.34972838
21	0xbeb934d6	-0.36173123
22	0xbdfc7088	-0.12326151
23	0xbdfa7a78	-0.1223039
24	0x3fc55639	1.5416938
25	0xbea17a1a	-0.3153847
26	0x3e9f3043	0.31091508
27	0x3dbf2488	0.0933314
28	0x3ea82c35	0.32846227
29	0xbe4be453	-0.19911318
30	0xbe5c62e9	-0.21522106
31	0xbe910cf1	-0.28330186
32	0x3f606c66	0.876654
33	0xbe382cf1	-0.17985894
34	0x3e7811a2	0.24225476
35	0x3e5535fe	0.20821378
36	0x3d587990	0.052850306
37	0xbcc1f230	-0.023675054
38	0xbe8b699e	-0.27229017
39	0xbea470f2	-0.3211742
40	0x3fba57e9	1.4558078
41	0x3e773366	0.241407
42	0xbeab13f4	-0.3341366
43	0x3c54b920	0.01298359
44	0xbe874a9d	-0.26424113
45	0xbd239d90	-0.039945185
46	0x3e11f2de	0.14252803
47	0xbe932620	-0.28740025
48	0xbe85038d	-0.25979272

gamma_x_l.bias f4 [7]
0	0xbeaa4ac4	-0.33260167
1	0x3e86dca7	0.2634022
2	0xbd79ab68	-0.06095448
3	0x3f476620	0.77890205
4	0x3f5a18f2	0.85194314
5	0x3f82e76e	1.0226877
6	0xbd2ed7a0	-0.042686105

gamma_h_l.weight f4 [128, 7]
0	0x3ea6b8da	0.32562906
1	0x3e777749	0.24166597
2	0x3dfbb746	0.12290816
3	0x3dbb18eb	0.09135612
4	0xbea15b7c	-0.3151511
5	0x3eb587ab	0.3545507
6	0x3dff92e3	0.12479188
7	0x3e996dca	0.29966575
8	0x3e96bd89	0.2944148
9	0x3e9a9507	0.30191824
10	0x3eb12cc3	0.34604463
11	0xbe523347	-0.20527373
12	0x3e89c546	0.2690832
13	0xbed897d1	-0.42303327
14	0xbe57eb2d	-0.21085806
15	0xbeadcb28	-0.33944058
16	0xbe0250d8	-0.12726152
17	0xbe31132b	-0.17292468
18	0xbda84284	-0.08215812
19	0xbc8b08a0	-0.016971886
20	0xbe71d05b	-0.23614638
21	0xbe756674	-0.23964864
22	0xbebd47a1	-0.3696871
23	0xbde41178	-0.111361444
24	0xbebe4c80	-0.3716774
25	0x3ea961ab	0.33082327
26	0xbeb16917	-0.3465049
27	0xbd73d380	-0.059527874
28	0x3eb40d1d	0.35166255
29	0xbedcf3b5	-0.43154684
30	0x3e8113a9	0.25210312
31	0xbebbb094	-0.36658156
32	0x3bf6bb4e	0.0075296527
33	0x3e9ca36d	0.30593434
34	0x3e859cff	0.2609634
35	0x3da4f956	0.080553696
36	0x3d0d59cb	0.03450946
37	0x3dc5ea56	0.09663837
38	0xbda0aab4	-0.07845059
39	0x3e4ff386	0.2030774
40	0x3e86a81a	0.26300126
41	0xbec47205	-0.3836824
42	0xbefcfe04	-0.4941255
43	0x3bbbf462	0.00573592
44	0xbce5d079	-0.02805351
45	0x3e51ef36	0.20501408
46	0x3e5a93ba	0.21345416
47	0x3e89710f	0.2684407
48	0x3ddf0bf6	0.10890953
49	0xbba6edb8	-0.0050942563
50	0x3e4e89e1	0.20169784
51	0xbe93d868	-0.28876042
52	0xbeb7a7bd	-0.35870162
53	0x3ea8ec8c	0.3299297
54	0xbe9e3204	-0.30897534
55	0xbe9f0476	-0.3105809
56	0xbe8a19e3	-0.26972875
57	0xbe414fd1	-0.18878104
58	0xbdcaedd5	-0.09908644
59	0x3e0c082a	0.1367499
60	0xbeac8533	-0.33695373
61	0x3e9ee330	0.31032705
62	0xbea1dca9	-0.31613663
63	0x3d14cc67	0.036327746
64	0x3d06fc9d	0.032955755
65	0xbc99caba	-0.018773425
66	0xbea83877	-0.3285558
67	0x3c3e39c4	0.011610452
68	0xbd4ecc0c	-0.050487563
69	0x3e593f78	0.21215618
70	0xbd91b8a4	-0.071152955
71	0xbea1bb4e	-0.31588215
72	0xbebdc0c4	-0.3706113
73	0xbeb57504	-0.35440838
74	0xbdca9468	-0.098915875
75	0x3e01214a	0.12610355
76	0xbe0eba07	-0.13938151
77	0x3dfc53ec	0.12320694
78	0x3df6fcd6	0.120599434
79	0xbc97fae2	-0.018552247
80	0xbe8356a6	-0.25652045
81	0xbedca51d	-0.4309472
82	0x3ef16f56	0.47155255
83	0x3d84f0e0	0.06491256
84	0xbeaaa992	-0.33332497
85	0xbd8cc480	-0.06873417
86	0xbdfb86f4	-0.122816
87	0xbe973b9a	-0.2953766
88	0x3e87d46b	0.2652925
89	0xbe820778	-0.25396323
90	0x3e14cca6	0.14531192
91	0xbe9b8bca	-0.30380088
92	0xbe103a92	-0.14084843
93	0xbe636b31	-0.22208859
94	0xbdb21de4	-0.086971074
95	0xbe79fb14	-0.24412185
96	0x3e5f8a7e	0.21830174
97	0xbde05448	-0.109535754
98	0x3f087ce9	0.533156
99	0x3ec2ea82	0.3806954
100	0xbe0d0ed8	-0.13775194
101	0x3edaafea	0.42712337
102	0xbe86677b	-0.26250824
103	0xbe79ec89	-0.24406637
104	0xbe5e33b4	-0.2169941
105	0x3e9727cc	0.2952255
106	0xbe63f27d	-0.2226047
107	0x3e8b036a	0.27151042
108	0xbe46b9ab	-0.19406764
109	0xbe02a3bd	-0.12757774
110	0xbea2b8cd	-0.31781617
111	0xbe5a95c6	-0.21346197
112	0xbe00f95e	-0.12595126
113	0xbe23b4b1	-0.15986897
114	0x3e65007b	0.22363465
115	0xbeb6e07d	-0.35718146
116	0x3e61f774	0.22067052
117	0x3d6210f3	0.055191945
118	0x3e8e8340	0.2783451
119	0x3f05b377	0.52226967
120	0xbe409beb	-0.18809478
121	0x3eb74cec	0.35800874
122	0xbe3bc596	-0.18337092
123	0x3df92080	0.12164402
124	0xbdc094bf	-0.09403371
125	0xbe85e9ac	-0.2615484
126	0x3e5cd090	0.21563935
127	0xbe841c7e	-0.25802988
128	0x3d4bef2a	0.04978863
129	0xbdcc92f0	-0.099889636
130	0x3dc48b24	0.095968515
131	0x3e7728bd	0.24136634
132	0x3e9da1e5	0.30787578
133	0x3e927487	0.28604528
134	0x3d5f72c9	0.054552827
135	0x3ca33740	0.019923806
136	0xbe8ab50a	-0.27091247
137	0xbe38b9f4	-0.18039685
138	0x3a15fcda	0.0005721577
139	0xbe354c85	-0.17704971
140	0x3ebd69ec	0.36994874
141	0xbe0404a2	-0.12892392
142	0x3ebb316f	0.36561152
143	0xbd0bc813	-0.034126353
144	0xbdae0837	-0.084976606
145	0xbe434759	-0.19070186
146	0x3e6944ee	0.22780201
147	0x3e5eb280	0.2174778
148	0x3dd099a0	0.10185552
149	0x3db73be6	0.089469716
150	0xbeb03388	-0.34414315
151	0x3d384823	0.04499067
152	0x3f021cb9	0.5082508
153	0xbe97eaff	-0.29671475
154	0x3e8be130	0.27320242
155	0x3c80ed4b	0.01573815
156	0x3ce8e1e8	0.028428033
157	0x3dadb5bc	0.08481929
158	0x3e0081b2	0.12549475
159	0xbc9f259e	-0.019427117
160	0x3e5e1adf	0.21689938
161	0xbe81836b	-0.25295576
162	0x3ec7b48f	0.39004943
163	0xbd1f4f14	-0.038893774
164	0x3ecd36d3	0.4008089
165	0xbe2cbd9d	-0.16869207
166	0x3eb5301d	0.3538827
167	0x3e9db287	0.30800268
168	0x3c69e659	0.014276111
169	0x3de06079	0.10955901
170	0xbe7b6b6b	-0.24552695
171	0x3e392cd6	0.1808351
172	0xbe37615e	-0.17908236
173	0x3ec1f955	0.37885538
174	0x3ea3b756	0.31975812
175	0xbd25bf5e	-0.040465705
176	0xbe7cf7c8	-0.24703896
177	0xbe30e93d	-0.17276473
178	0x3f1ec959	0.6202598
179	0x3ec44a50	0.38337946
180	0x3dbbe386	0.09174256
181	0x3dc347cf	0.09535181
182	0xbe27803e	-0.16357514
183	0xbe4e2df0	-0.20134711
184	0xbe3a7974	-0.18210393
185	0xbcc7fd68	-0.024412826
186	0xbe215539	-0.15755166
187	0x3e04ea9c	0.12980121
188	0xbca61afe	-0.020276543
189	0xbd560716	-0.05225285
190	0xbeb6f6de	-0.3573522
191	0xbe1269cf	-0.14298175
192	0x3eac7414	0.3368231
193	0x3eb69fa5	0.35668674
194	0x3ebb4182	0.36573416
195	0xbeefdf75	-0.46850172
196	0xbea6a3e6	-0.3254692
197	0x3d40d620	0.047079206
198	0xbe3d59f4	-0.18491346
199	0x3d870b3c	0.0659394
200	0xbbfce900	-0.0077182055
201	0xbec053a6	-0.3756382
202	0xbe1f589e	-0.15561149
203	0xbe4d448e	-0.20045683
204	0x3edfb916	0.43695897
205	0xbe9d36d8	-0.30705905
206	0x3ee82d8b	0.45347247
207	0x3d5fe841	0.054664854
208	0x3ed77e94	0.4208876
209	0xbeb94b95	-0.36190477
210	0x3e0ec233	0.13941269
211	0xbeae99ce	-0.3410172
212	0xbec60f76	-0.3868367
213	0xbe616549	-0.22011293
214	0x3dc1d763	0.0946491
215	0x3e222026	0.15832576
216	0x3c2a27b8	0.010385446
217	0xbead41c0	-0.33839226
218	0xbdda70f0	-0.10666072
219	0xbdc0d1df	-0.0941503
220	0x3e02ec2a	0.12785402
221	0xbe887484	-0.26651394
222	0x3e0e7620	0.13912249
223	0xbcd10811	-0.025516542
224	0xbd039db9	-0.032132838
225	0x3ebb441d	0.36575404
226	0xbea5ab86	-0.32357424
227	0xbdf9db25	-0.122000016
228	0x3e2f7d49	0.17137636
229	0x3c5d8b71	0.013522015
230	0xbe8bb359	-0.2728527
231	0xbece36da	-0.40276223
232	0x3c02b5b9	0.007977896
233	0xbe8b47cc	-0.27203214
234	0x3ea35bc5	0.31905952
235	0x3ea4f926	0.32221335
236	0xbe4c9e1d	-0.1998219
237	0x3eb34bee	0.35018867
238	0x3f0f6d36	0.5602602
239	0xbe63d5f1	-0.22249581
240	0x3d2131d7	0.03935417
241	0x3e2571ec	0.16156739
242	0x3d8364db	0.06415721
243	0xbedc789a	-0.43060762
244	0x3e593740	0.21212482
245	0x3e12e212	0.14344051
246	0x3ec68431	0.3877273
247	0x3e793a81	0.24338724
248	0x3bf029c1	0.007329196
249	0x3ec2765f	0.37980935
250	0x3e70807c	0.23486513
251	0xbef29f31	-0.47387078
252	0x3e42c06c	0.19018716
253	0xbec25a3e	-0.37959474
254	0xbe4a4372	-0.19752291
255	0xbec8c51a	-0.39212877

gamma_h_l.bias f4 [128]
0	0xbe541cd9	-0.2071413
1	0x3e859fb2	0.260984
2	0xbe82d287	-0.25551245
3	0xbd15b758	-0.036551803
4	0xbd13db62	-0.03609789
5	0x3cad3782	0.021144632
6	0xbd3f2d7e	-0.046674244
7	0x3e9cd6c0	0.3063259
8	0x3ddffd0f	0.10936939
9	0x3e9301bf	0.2871227
10	0xbe6999fa	-0.22812644
11	0xbea64d6b	-0.3248094
12	0x3d9fb68c	0.0779849
13	0x3e89a94b	0.26886973
14	0xbd8a85ae	-0.067637786
15	0x3dc68f05	0.096952476
16	0x3e52fd44	0.20604426
17	0xbe3a33c0	-0.18183804
18	0xbec07806	-0.3759157
19	0x3ec3ce54	0.38243353
20	0x3defe7f6	0.11714165
21	0xbe8d3df8	-0.2758634
22	0x3ced8b4d	0.028997088
23	0xbe5461f1	-0.20740487
24	0xbdae6295	-0.08514897
25	0xbe63565a	-0.2220091
26	0x3eab81a7	0.33497354
27	0x3eab1486	0.33414096
28	0x3eae0e01	0.3399506
29	0x3e2637d4	0.16232234
30	0xbee755ce	-0.4518265
31	0x3e90a6a0	0.28252125
32	0x3ef68178	0.48145652
33	0x3e4e6d0e	0.20158789
34	0xbe9f7903	-0.31147012
35	0xbe0e23fc	-0.13880914
36	0xbe943a73	-0.28950843
37	0x3eb75e60	0.3581419
38	0x3e51f872	0.2050493
39	0xbdd47480	-0.10373783
40	0x3db6f32c	0.089331
41	0xbda3457f	-0.0797224
42	0xbe8bdaec	-0.27315462
43	0xbd5789b8	-0.052621573
44	0xbdc2d906	-0.0951405
45	0x3ae603bf	0.0017548724
46	0xbcd73615	-0.026270906
47	0xbe165014	-0.14678985
48	0x3d9e4526	0.07728033
49	0x3e83f0c0	0.25769615
50	0x3e7dafe4	0.24774128
51	0xbeb33862	-0.35003954
52	0xbecbf0cd	-0.39832154
53	0x3e34dba8	0.17661917
54	0x3c963d29	0.01833971
55	0xbdc4fedf	-0.09618925
56	0xbd5ea673	-0.054357957
57	0x3e583ccf	0.21116947
58	0x3e9b49e4	0.30329812
59	0x3e6a0b98	0.22855985
60	0x3d8b65d5	0.06806532
61	0xbd734a2d	-0.05939691
62	0x3ed4233b	0.4143313
63	0xbe3406b6	-0.17580685
64	0xbe8a7009	-0.270386
65	0x3ddbf213	0.10739531
66	0x3e1c3a17	0.15256535
67	0xbdae369f	-0.08506512
68	0x3e70bebf	0.23510264
69	0xbe850ad8	-0.25984836
70	0xbdd12e30	-0.10213888
71	0xbe54f26a	-0.20795599
72	0xbe8ee056	-0.2790553
73	0xbe2cc013	-0.16870145
74	0x3e8fbca6	0.28073615
75	0x3e649d56	0.22325644
76	0x3d953017	0.07284563
77	0x3ab84f9a	0.0014061809
78	0xbe5fe404	-0.21864325
79	0xbcdefed8	-0.027221128
80	0xbe153066	-0.14569244
81	0xbea8fd42	-0.3300572
82	0x3de174bc	0.110085934
83	0x3ec75eef	0.38939616
84	0xbe4eda1a	-0.20200387
85	0xbe26b536	-0.16280064
86	0xbd00b8b9	-0.031426165
87	0x3d7a4c39	0.061107848
88	0xbe89e548	-0.2693274
89	0x3d40c1a2	0.047059663
90	0x3ec054bc	0.37564647
91	0xbe679c96	-0.22618327
92	0x3de74c52	0.11293854
93	0xbe3dbc86	-0.18528947
94	0xbebba7c3	-0.3665143
95	0x3de43421	0.11142755
96	0x3e0125b1	0.12612034
97	0xbeaa6bf6	-0.33285493
98	0x3e6d01bd	0.23145194
99	0xbd0a78c8	-0.033806592
100	0x3e3831a2	0.17987683
101	0xbebe0246	-0.3711111
102	0xbd72c7e8	-0.059272677
103	0xbe98e474	-0.29861796
104	0x3e66ca3e	0.22538087
105	0xbe2bcab8	-0.1677655
106	0x3d387fb8	0.045043677
107	0x3e8ab32d	0.27089825
108	0xbea29376	-0.3175313
109	0xbe5e2e76	-0.21697411
110	0x3c4b9b48	0.012427159
111	0xbec031b8	-0.37537932
112	0x3cb8250a	0.0224786
113	0x3e99a0d5	0.30005518
114	0xbdc1fdd4	-0.09472242
115	0x3e0226ea	0.12710157
116	0x3e31a4d9	0.1734804
117	0x3e2810c2	0.16412643
118	0xbd7ca526	-0.061680935
119	0xbc86672f	-0.016406624
120	0x3e054f30	0.13018489
121	0xbebb0c79	-0.36532953
122	0xbd69827b	-0.0570092
123	0xbd2d5f50	-0.042327225
124	0xbecef59d	-0.40421763
125	0x3ee6f7f8	0.4511106
126	0x3e95de1b	0.29271016
127	0xbeba4b22	-0.36385447

encoder_lstm.weight_ih_l0 f4 [512, 7]
0	0xbe1cf279	-0.15326871
1	0xbc0d1eed	-0.00861333
2	0x3dbf3d87	0.09337907
3	0x3f04fa5d	0.51944524
4	0x3d0d147a	0.034443356
5	0xbd4bb0ea	-0.049729265
6	0xbf055d16	-0.5209516
7	0x3e791658	0.2432493
8	0xbccb229f	-0.024796782
9	0xbeacf84d	-0.33783188
10	0xbeeee5d6	-0.46659726
11	0x3e3b8ac6	0.18314657
12	0x3d89c698	0.06727332
13	0x3b0cebd7	0.0021502876
14	0xbd7a7acb	-0.06115226
15	0xbde88550	-0.11353552
16	0x3d920d5d	0.07131455
17	0x3fa57dc1	1.2929002
18	0xbd02692a	-0.031838574
19	0xbe400532	-0.18751982
20	0x3da931e5	0.0826147
21	0xbec56e81	-0.3856087
22	0x3ead2d3b	0.3382357
23	0xbd74a53f	-0.059727903
24	0x3f460767	0.77355045
25	0x3e3995a5	0.18123491
26	0xbefcd143	-0.49378404
27	0xbe3f0072	-0.18652514
28	0x3dcc2fc4	0.09970048
29	0x3eaa5c76	0.33273667
30	0x3ee47793	0.44622478
31	0xbd2e6345	-0.04257514
32	0x3edbcc94	0.42929518
33	0xbe0517f6	-0.12997422
34	0x3efdae3f	0.49547002
35	0x3e082e41	0.13298894
36	0x3e06a197	0.13147579
37	0xbd0ecbd2	-0.034862347
38	0xbf2da1ac	-0.67824817
39	0x3e022266	0.12708434
40	0x3d4bd121	0.049759988
41	0x3dfe6b50	0.12422812
42	0x3e44d7b5	0.1922291
43	0x3ddf58dd	0.10905621
44	0x3ea6a3d1	0.32546857
45	0x3ef5621e	0.4792642
46	0x3dd1ad24	0.10238102
47	0x3d0731c4	0.033006445
48	0x3e6e7820	0.23288012
49	0x3e20b67d	0.15694614
50	0x3bd411da	0.0064718546
51	0x3e5133ff	0.20429991
52	0xbe4b468a	-0.19851127
53	0x3e298efb	0.16558449
54	0x3edd3c16	0.43209904
55	0x3e764765	0.24050672
56	0xbe12c579	-0.14333142
57	0x3c7728c5	0.015085404
58	0x3d8b65b6	0.06806509
59	0x3f0aee46	0.54269826
60	0x3d8a9b25	0.06767873
61	0x3dab3b8f	0.08360969
62	0x3e32fc81	0.17479135
63	0x3cf16d8e	0.029471185
64	0xbd2cc6a9	-0.042181645
65	0x3e8eeb67	0.27913973
66	0xbd30cec1	-0.043165926
67	0x3dfbd726	0.12296896
68	0x3e2a859b	0.16652529
69	0x3e23e0c7	0.16003715
70	0xbea3341c	-0.31875694
71	0x3d81e153	0.06341805
72	0x3ecd0736	0.40044564
73	0x3e3e7ef8	0.18603122
74	0x3e6faa21	0.23404743
75	0xbf10b199	-0.5652099
76	0x3d13e759	0.036109302
77	0x3e285cad	0.16441603
78	0x3d80f681	0.06297017
79	0x3f167382	0.5877
80	0x3f57312e	0.8405942
81	0x3f009d33	0.50239867
82	0x3dbe9d88	0.093073905
83	0x3f51ded7	0.8198065
84	0x3eeed5c7	0.46647474
85	0x3e8e32dd	0.2777318
86	0x3f255637	0.6458468
87	0x3e8a6034	0.27026522
88	0x3e50360f	0.20333122
89	0x3e4bc3b5	0.19898875
90	0x3e76c87d	0.24099918
91	0xbc47f390	-0.012204066
92	0x3dac0cdd	0.08400891
93	0x3e1e7980	0.15476036
94	0xbe1dd6a0	-0.15413904
95	0x3b917d4f	0.004439987
96	0x3df1cfcc	0.11807212
97	0x3d18576e	0.037192754
98	0xbddc96b9	-0.107709356
99	0xbaf5569f	-0.0018717832
100	0x3eb9d5b5	0.36295858
101	0x3f543f87	0.82909435
102	0x3e4101e2	0.18848374
103	0xbe9d7e95	-0.30760637
104	0x3f203990	0.62587833
105	0xbed2f594	-0.41202986
106	0xbe70911e	-0.23492858
107	0xbe02ef46	-0.12786588
108	0xbc268718	-0.010164045
109	0x3db0ec8f	0.0863887
110	0xbedd63dc	-0.4324025
111	0xbe174c20	-0.14775133
112	0xbead160b	-0.3380588
113	0xbe042fe9	-0.12908901
114	0x3bed4f5d	0.007242127
115	0xbf0fc638	-0.5616183
116	0x3e048698	0.12941968
117	0xbeb020e2	-0.34400088
118	0x3e8325cc	0.25614774
119	0x3db9559f	0.09049534
120	0x3e024061	0.12719871
121	0x3e543488	0.20723164
122	0x3e414c13	0.18876676
123	0x3e9500d2	0.29102188
124	0xbdbf68fa	-0.093461946
125	0xbe0bc9d7	-0.13651215
126	0x3e9ccef6	0.3062665
127	0x3e347fef	0.17626928
128	0x3e0f11a3	0.13971572
129	0x3e0f6fde	0.14007518
130	0xbc9c89ee	-0.019108739
131	0x3d9745ca	0.07386358
132	0x3e148dde	0.14507243
133	0x3cc86ec1	0.024466874
134	0xbd47d065	-0.048782725
135	0xbe07aaf5	-0.13248809
136	0x3eb2457f	0.34818646
137	0x3d20fb25	0.03930201
138	0xbdfca3c5	-0.12335924
139	0x3d8910e8	0.06692678
140	0x3ebd4c0c	0.36972082
141	0x3e69e4aa	0.22841135
142	0x3d6cb4b2	0.057789512
143	0xbea68221	-0.32521155
144	0x3e6d8f0e	0.23199102
145	0x3d6c22cc	0.057650372
146	0x3e8f24f4	0.2795788
147	0xbcdfa0d4	-0.027298369
148	0xbda6f34d	-0.08151875
149	0xbe831738	-0.25603652
150	0x3f040d55	0.51582843
151	0xbc271026	-0.010196721
152	0xbdecde14	-0.115657955
153	0x3e79c579	0.24391736
154	0xbe12a0d5	-0.14319165
155	0xbdabc611	-0.083873875
156	0xbddc51ad	-0.10757766
157	0xbe365164	-0.17804486
158	0xbce413ed	-0.027841533
159	0xbed7783e	-0.42083925
160	0xbd85a073	-0.06524744
161	0x3ea32935	0.31867376
162	0xbcb6a441	-0.02229512
163	0xbdb119a7	-0.08647471
164	0x3dec678e	0.11543189
165	0x3e28b0ff	0.16473769
166	0xbe21b450	-0.1579144
167	0x3e4f37e8	0.2023617
168	0x3e7e2475	0.24818595
169	0x3d36e1e5	0.044649024
170	0xbe4b81ad	-0.19873686
171	0xbea6970d	-0.32537118
172	0x3e406ecf	0.1879227
173	0xbd208bb4	-0.03919573
174	0xbdc41dfe	-0.09576033
175	0xbe992970	-0.29914427
176	0xbdb689b0	-0.089129806
177	0x3ab6c84d	0.0013945192
178	0x3eacadb3	0.33726272
179	0x3d3529ab	0.04422919
180	0xbef204e9	-0.4726937
181	0x3d2e82c4	0.042605177
182	0xbe01c8f2	-0.12674311
183	0x3e7d3550	0.24727368
184	0x3ec664d2	0.38748795
185	0x3f7b4a11	0.9815989
186	0x3df6015e	0.120119795
187	0xbe3eb59a	-0.18623963
188	0x3e567e55	0.2094663
189	0x3ddd1d54	0.107966095
190	0x3e40c283	0.188242
191	0x3ecb4350	0.39699793
192	0xbfb35ae3	-1.4012111
193	0x3e6c36c6	0.2306777
194	0x3f0f9064	0.560797
195	0xbcf061ad	-0.02934345
196	0x3edd76ea	0.43254787
197	0x3e9a804a	0.30176002
198	0x3eb2dd66	0.3493454
199	0x3f1aa663	0.60410136
200	0x3e909bdc	0.2824391
201	0x3eaefa90	0.3417554
202	0x3e835fc0	0.2565899
203	0xba9f7f50	-0.0012168679
204	0x3dc7fdb6	0.097651884
205	0xbdec82e6	-0.115484044
206	0x3dd802f5	0.10547439
207	0x3d78c412	0.060733862
208	0x3e919f1e	0.2844171
209	0xbce40f99	-0.027839469
210	0xbe113334	-0.14179689
211	0x3d598440	0.05310464
212	0x3ec9e989	0.39435986
213	0xbf3658f6	-0.71229494
214	0x3ed1acda	0.40952188
215	0xbdc6b73f	-0.0970292
216	0x3ead34cf	0.33829352
217	0x3e4a63d3	0.19764642
218	0xbce16330	-0.027513117
219	0x3e77274d	0.24136086
220	0x390496e4	0.00012644712
221	0x3e4bcb7c	0.19901842
222	0xbd706c77	-0.05869719
223	0xbdbd1d41	-0.09234095
224	0xbf3c98f9	-0.7367092
225	0x3d189f89	0.03726152
226	0xbe844dd3	-0.25840625
227	0xbe42e213	-0.19031553
228	0x3d85769c	0.065167636
229	0xbdc10765	-0.094252385
230	0xbe75689f	-0.23965691
231	0xbe15a29e	-0.14612815
232	0x3cbdf3c7	0.023187531
233	0xbdbcf20e	-0.09225856
234	0x3f1976af	0.5994672
235	0x3eaf6552	0.3425699
236	0xbee00d08	-0.43759942
237	0x3c6fc259	0.014633738
238	0x3e8c08f9	0.27350596
239	0x3edf9fd4	0.43676627
240	0xbec2eac3	-0.38069734
241	0x3e6f249c	0.23353809
242	0x3de1ac08	0.110191405
243	0x3f0859f5	0.53262264
244	0x3f1d32d1	0.61405665
245	0xbeb3bd67	-0.3510544
246	0x3e0b319b	0.13593142
247	0x3d7cd55d	0.061726917
248	0x3e7c0567	0.24611436
249	0x3e3bd429	0.18342651
250	0xbe6ef9f0	-0.23337531
251	0xbe247020	-0.16058397
252	0x3dda25bf	0.10651731
253	0x3e86c65a	0.26323205
254	0x3e85ea7e	0.26155466
255	0xbf514d50	-0.81758595

encoder_lstm.weight_hh_l0 f4 [512, 128]
0	0xbdb4ef1c	-0.08834669
1	0x3e03d9e8	0.12876093
2	0xbed12745	-0.40850273
3	0xbe20716e	-0.1566827
4	0x3d176959	0.0369657
5	0xbe8d5753	-0.27605686
6	0x3c9983fd	0.018739695
7	0x3ee7a678	0.45244193
8	0xbc862702	-0.016376022
9	0x3ea1a56e	0.31571525
10	0xbe0613bf	-0.1309347
11	0x3e44237d	0.19154163
12	0xbd599d25	-0.05312838
13	0xbe5c7795	-0.21529992
14	0xbcfdb0ff	-0.030968187
15	0xbdd984a1	-0.10621
16	0xbd829967	-0.063769154
17	0x3e1a2551	0.15053298
18	0xbda242d6	-0.07922904
19	0xbe6e44fe	-0.23268506
20	0xbe41b6f1	-0.18917443
21	0xbd99cf18	-0.07510203
22	0xbc5d3746	-0.013501948
23	0x3d5a8414	0.053348616
24	0xbdab60f8	-0.08368105
25	0xbbf81fd5	-0.007572154
26	0xbdc13a95	-0.09435002
27	0x3ec62d04	0.3870622
28	0xbcd51e01	-0.026015284
29	0x3dd3c0a4	0.10339478
30	0xbe396aa7	-0.18107091
31	0xbd130227	-0.035890725
32	0x3d3eb0a1	0.046555165
33	0x3e02a86d	0.12759562
34	0xbddc0444	-0.10743001
35	0xbe3fcbfd	-0.18730159
36	0x3ea02a9d	0.3128251
37	0xbdf22e25	-0.118252076
38	0xbe1fa60e	-0.15590689
39	0x3e2f2c67	0.17106782
40	0x3d84c0c6	0.06482081
41	0x3e18ada6	0.14909992
42	0xbd6aa56e	-0.057286672
43	0x3d78568f	0.060629424
44	0x3e8d7882	0.27631003
45	0x3e433fd1	0.19067313
46	0x3dae52ea	0.08511908
47	0xbd5f7fcd	-0.05456524
48	0x3d8f00c0	0.06982565
49	0x3cd7c67f	0.026339768
50	0x3e3dd5b7	0.18538557
51	0x3d5e9d8b	0.054349463
52	0x3eb71750	0.35759974
53	0x3e212471	0.15736558
54	0x3e2e1c99	0.17003097
55	0x3e80ace9	0.2513192
56	0x3e28cbaf	0.16483949
57	0xbd5a8c4e	-0.05335646
58	0x3dc59032	0.09646644
59	0xbdb08a76	-0.08620159
60	0xbee13e08	-0.4399264
61	0xbddec2a8	-0.108769715
62	0x3dbee840	0.09321642
63	0xbdb4a389	-0.08820254
64	0x3da43f57	0.080198936
65	0x3daab4db	0.08335277
66	0xbd3bb557	-0.045827236
67	0xbdfe99d0	-0.12431681
68	0xbead871e	-0.3389215
69	0x3dcf80ea	0.1013201
70	0x3e5d663c	0.2162103
71	0x3dbe8950	0.09303534
72	0x3d47e9a0	0.048806787
73	0xbd7f36f7	-0.062308278
74	0xbde89932	-0.11357345
75	0x398f2ee4	0.00027310022
76	0xbd886ba6	-0.06661157
77	0x3c68eb41	0.014216245
78	0xbdf9aefd	-0.121915795
79	0xbce1b877	-0.02755378
80	0x3d6bc713	0.0575629
81	0xbe217aac	-0.15769452
82	0x3cb212cf	0.021737484
83	0xbe0d36c1	-0.13790418
84	0x3d9f9b6a	0.07793315
85	0x3f16ba3e	0.58877933
86	0x3e9e8ece	0.30968326
87	0xbd43206e	-0.04763835
88	0xbdeabf17	-0.11462229
89	0xbcde228d	-0.027116084
90	0xbc49ffb5	-0.012329032
91	0xbe32aaaa	-0.17447916
92	0x3a39f9ad	0.00070943945
93	0xbe177d54	-0.14793903
94	0xbe26e895	-0.1629966
95	0x3ddbe87e	0.10737704
96	0xbe1733fe	-0.14765927
97	0x3d2d5e5b	0.042326313
98	0xbe89cc2c	-0.26913583
99	0x3e4e2c22	0.20134023
100	0x3e1ebbe0	0.15501356
101	0xbcd1b5a1	-0.025599303
102	0x3dd6cd73	0.10488405
103	0x3cc356f5	0.023845175
104	0xbd8980c6	-0.06714015
105	0x3cee6e40	0.029105306
106	0x3ca99d5a	0.020704914
107	0x3d205a60	0.03914869
108	0x3d4f76bf	0.050650354
109	0xbe75e018	-0.24011266
110	0x3de17536	0.11008684
111	0xbebcf24c	-0.36903608
112	0x3e4fcdb4	0.20293313
113	0xbe40ee7a	-0.18840972
114	0x3da94ffc	0.08267209
115	0xbbf02e23	-0.0073297187
116	0x3e89b2ef	0.26894328
117	0xbd9d4a06	-0.076801345
118	0x3d9069c6	0.07051425
119	0xbeb2c252	-0.3491388
120	0xbdb50145	-0.08838133
121	0x3e0b2acf	0.13590549
122	0xbdf9dda5	-0.122004785
123	0x3e93d599	0.288739
124	0xbd8d1098	-0.06887931
125	0x3e18c68b	0.14919488
126	0xbd8cb795	-0.06870953
127	0xbe52ad07	-0.20573817
128	0x3d7f01fe	0.06225776
129	0x3d808e55	0.06277148
130	0x3d95d2e3	0.07315614
131	0x3e677aa1	0.22605373
132	0xbdb7208b	-0.08941754
133	0x3ed47e31	0.41502526
134	0x3e14003f	0.14453219
135	0xbf0ec7f5	-0.5577386
136	0x3d63eeeb	0.05564777
137	0xbdc9e486	-0.098580405
138	0x3e84d138	0.2594087
139	0xbe5afbd6	-0.2138513
140	0xbdaaf75c	-0.08347961
141	0x3e6d1541	0.23152639
142	0x3e3e5f04	0.18590933
143	0xbd33d218	-0.043901533
144	0xbdc19df8	-0.09453958
145	0xbda899cf	-0.08232462
146	0x3c9cb612	0.019129787
147	0x3e7a6e97	0.24456249
148	0x3da50605	0.08057789
149	0xbe47dfc3	-0.19518952
150	0x3e09ca66	0.13456115
151	0xbdd803f1	-0.10547627
152	0x3da50974	0.08058444
153	0xbcb07347	-0.021539344
154	0x3f044e6d	0.5168217
155	0xbea004f5	-0.31253782
156	0x3e918fac	0.28429925
157	0xbddeab17	-0.108724765
158	0x3c23a67e	0.009988425
159	0x3e3e7901	0.18600847
160	0xbd639073	-0.05555768
161	0x3e2c0b3b	0.16801159
162	0xbdd68359	-0.10474271
163	0x3b071b75	0.002061573
164	0xbcb96a23	-0.022633618
165	0x3d413987	0.047174003
166	0xbe91e705	-0.28496566
167	0x3c3ef4b5	0.011655022
168	0xbda94d21	-0.08266664
169	0xbe52194b	-0.20517461
170	0xbcb32005	-0.021865854
171	0xbb7e63a1	-0.0038816708
172	0xbe469a7a	-0.19394866
173	0xbd7d3a0d	-0.06182294
174	0x3d342e13	0.043989252
175	0x3b4975db	0.0030740413
176	0xbe486907	-0.19571315
177	0xbd1baa1d	-0.03800403
178	0xbe037b10	-0.12839913
179	0xbceadf6b	-0.028670987
180	0xbcae6992	-0.021290574
181	0xbe7131ef	-0.23554204
182	0xbd9edee1	-0.077573545
183	0xbe285e84	-0.16442305
184	0x3dafa9b4	0.0857729
185	0x3d3d4b4b	0.046214383
186	0x3e0778c9	0.1322967
187	0xbe3ff42d	-0.1874549
188	0x3ea6b20a	0.32557708
189	0xbbe02d46	-0.0068413345
190	0x3ccfeff6	0.025382977
191	0xbc9e7675	-0.019343594
192	0xbe94a639	-0.29033068
193	0xbe3c939c	-0.18415684
194	0xbe078836	-0.13235554
195	0x3b3b2ec3	0.0028561808
196	0x3e4e8dbd	0.20171256
197	0xbe13fad1	-0.14451148
198	0x3c4002a0	0.011719376
199	0x3da7286c	0.08162007
200	0xbcba0d6f	-0.022711484
201	0xbc9dcbc8	-0.01926221
202	0x3e0575fd	0.1303329
203	0xbd2411dd	-0.0400561
204	0x3dd3f43e	0.1034932
205	0xbd9467b3	-0.072463416
206	0x3cceaa78	0.02522777
207	0xbcde38d9	-0.027126716
208	0x3e181464	0.14851528
209	0xbe220cef	-0.15825246
210	0xbd1f28b3	-0.038857173
211	0x3d3cd2ea	0.04609958
212	0x3d30e111	0.04318339
213	0xbeb5aa0a	-0.35481292
214	0xbe521451	-0.20515563
215	0x3da9dc22	0.0829394
216	0xbcdb45f1	-0.02676675
217	0xbe42e780	-0.19033623
218	0x3cfc7643	0.03081811
219	0x3e982ecb	0.297232
220	0xbe4e83ac	-0.20167416
221	0x3d38da50	0.045130074
222	0x3d6681ec	0.056276247
223	0xbe167f6d	-0.14697047
224	0x3ec88255	0.39161935
225	0xbde1ac56	-0.110191986
226	0x3e66e2b9	0.22547425
227	0xbdbdbe12	-0.09264769
228	0xbc850b30	-0.016240686
229	0xbe1d0050	-0.1533215
230	0xbda1a8a9	-0.078934975
231	0xbe03f302	-0.12885669
232	0x3e70da04	0.23520666
233	0xbcb11b2a	-0.021619398
234	0xbd3639d3	-0.04448874
235	0x3c8b30f9	0.016991125
236	0x3e8f875f	0.28032967
237	0x3c94b2ef	0.018151728
238	0xbe61cda5	-0.22051103
239	0x3e13d0af	0.14435075
240	0xbe61a4ae	-0.22035477
241	0x3e32bd43	0.1745501
242	0xbe908dce	-0.28233188
243	0x3e382394	0.17982322
244	0xbe717ac7	-0.23581992
245	0xbd223dc8	-0.0396097
246	0x3d7b6444	0.061374918
247	0x3e3ddded	0.18541689
248	0x3c979970	0.018505782
249	0xbe25a778	-0.16177166
250	0x3dc0cf20	0.09414506
251	0xbe58d0c9	-0.21173395
252	0x3d4e83cd	0.050418664
253	0x3c339dbc	0.0109629
254	0xbe482e36	-0.19548878
255	0x3d75282e	0.05985277

encoder_lstm.bias_ih_l0 f4 [512]
0	0x3d7720ae	0.0603339
1	0xbd89abc2	-0.06722213
2	0x3db81621	0.08988596
3	0x3e520581	0.20509912
4	0x3df721da	0.120670035
5	0x3e1a62ac	0.15076703
6	0x3e423ea4	0.18969208
7	0x3e757dfd	0.23973842
8	0x3e600baf	0.21879457
9	0x3df55842	0.119797245
10	0x3e1e20b4	0.15442163
11	0x3e926f0e	0.28600353
12	0x3e15a2e1	0.14612915
13	0x3c48281c	0.012216594
14	0x3df09b0a	0.11748321
15	0x3de4dd8d	0.1117507
16	0x3d3d0117	0.046143617
17	0x3e802d2d	0.25034466
18	0xbcda07e0	-0.026615083
19	0x3ddb8f23	0.107206605
20	0xbd489b39	-0.048976157
21	0xbc8bb09c	-0.017051987
22	0x3dea2ca2	0.11434294
23	0x3dd90ada	0.10597773
24	0xbd67ff4a	-0.056639947
25	0xbbfda47a	-0.0077405544
26	0x3e2280c8	0.15869439
27	0x3e5eb721	0.21749546
28	0x3db251f3	0.08707037
29	0x3d94b213	0.072605275
30	0x3dbb09cd	0.09132729
31	0x3e20317a	0.15643874
32	0x3dfcb652	0.12339462
33	0x3d37d527	0.044881012
34	0x3f0332a7	0.51249164
35	0x3e2c4dff	0.16826628
36	0x3e8a18d7	0.26972076
37	0x3eb928cb	0.36163935
38	0x3e3b7dc7	0.18309699
39	0x3de18a72	0.110127345
40	0x3c925592	0.017863069
41	0x3e1714ea	0.14754072
42	0x3c4ffc48	0.012694426
43	0x3d818990	0.06325066
44	0x3d9284c9	0.07154233
45	0x3e021e28	0.12706816
46	0x3f1d1f54	0.6137593
47	0x3dc7211e	0.097231135
48	0xbdbc6e5f	-0.09200739
49	0x3e700506	0.23439416
50	0x3d28335d	0.04106461
51	0xbb7daf59	-0.0038709252
52	0x3d1d6f69	0.038436327
53	0x3ccf4242	0.025300149
54	0x3e881921	0.26581672
55	0x3ea1454b	0.3149818
56	0x3e7734e1	0.24141265
57	0xba1bb784	-0.0005940127
58	0xbd45a00d	-0.04824834
59	0x3a931804	0.0011222367
60	0x3ed1f7e8	0.4100945
61	0x3e885d38	0.2663362
62	0xbd7d2ac3	-0.06180836
63	0x3d79a6e9	0.060950194
64	0x3dded619	0.1088068
65	0xbd35176e	-0.044211797
66	0x3e8de30b	0.27712283
67	0xbce44d2c	-0.02786883
68	0x3cb5cbbd	0.022191877
69	0xbc87467f	-0.016513107
70	0x3d25be27	0.040464547
71	0xbd848612	-0.064708844
72	0x3d21e027	0.03952041
73	0x3d1adbde	0.037807338
74	0x3e17a3f1	0.14808632
75	0x3d15ebae	0.036601715
76	0x3ed60112	0.41797692
77	0x3d8e5618	0.06950015
78	0x3e6476de	0.22310969
79	0xbd98fae2	-0.07469727
80	0x3da70170	0.08154571
81	0x3e0ab604	0.13545996
82	0x396fb97a	0.00022861912
83	0x3e204df4	0.15654737
84	0x3d8178c8	0.06321865
85	0x3deed7a4	0.11662224
86	0x3e897787	0.26849005
87	0xbd03ba91	-0.032160345
88	0x3e8e8b75	0.27840772
89	0x3d7f7e78	0.06237647
90	0x3c5cf359	0.013485753
91	0x3e073757	0.13204704
92	0x3dbb028b	0.091313444
93	0x3d43057e	0.04761266
94	0x3dc6d36c	0.09708294
95	0xbc997373	-0.018731808
96	0x3e9570ee	0.2918772
97	0x3edcbe66	0.43114012
98	0x3e33ccfb	0.17558663
99	0x3ea14fde	0.31506246
100	0x3e46574e	0.19369242
101	0xbbf26922	-0.0073977867
102	0x3cad418c	0.02114942
103	0x3edeaab0	0.434896
104	0xbd546ac9	-0.05185965
105	0x3e86c0c0	0.26318932
106	0x3e452fe2	0.19256547
107	0xbd326450	-0.043552697
108	0x3ed126e7	0.40849993
109	0x3d06c009	0.032897983
110	0x3eb6ddf2	0.35716206
111	0x3d13670a	0.035986938
112	0x3e7b53db	0.24543707
113	0x3cb6b008	0.022300735
114	0x3e7ed0f1	0.24884392
115	0x3dc0927d	0.094029404
116	0x3e7ad5cf	0.24495624
117	0x3ceaa823	0.028644627
118	0x3e80b1d8	0.25135684
119	0x3db66d81	0.08907605
120	0xbd72b147	-0.059251096
121	0x3ca578ea	0.020199258
122	0xbbaded37	-0.005307819
123	0x3ba4da1c	0.0050308835
124	0xbd128509	-0.035771403
125	0xbcbdfd40	-0.023192048
126	0xbc055c7e	-0.008139728
127	0x3e824ad1	0.25447705
128	0x3ab2eeb7	0.0013651465
129	0x3c90fdfc	0.017699234
130	0xbd9fce2f	-0.07802998
131	0xbd22bd4f	-0.03973132
132	0xbd488663	-0.048956286
133	0xbdbbda51	-0.091725
134	0xbdfbc362	-0.12293126
135	0x3c1e55f8	0.009664051
136	0x3dcf45a2	0.10120703
137	0xbdf15fe6	-0.11785869
138	0xbd2c84f4	-0.04211898
139	0xbc8b7fbf	-0.017028688
140	0x3ccd8b7a	0.025090922
141	0xbe0734f5	-0.13203795
142	0x3e028b37	0.12748419
143	0x3e040d1e	0.12895629
144	0xbb2eb0a4	-0.002665558
145	0xbcd5d634	-0.026103117
146	0xbd9aff75	-0.07568256
147	0xbca0331b	-0.019555619
148	0x3c5c6e91	0.013454095
149	0x3d0f3258	0.03496012
150	0xbcaa6b4f	-0.020803122
151	0x3dae5a22	0.08513285
152	0xbd897d8e	-0.06713401
153	0xbc74921e	-0.014927415
154	0xbd578896	-0.052620493
155	0x3c2b19e6	0.010443186
156	0x3d172b6a	0.036906637
157	0xbd048eaa	-0.032362618
158	0xbdcc1037	-0.0996403
159	0x3e903e8e	0.28172725
160	0xbda8422d	-0.08215747
161	0xbdf71d34	-0.12066117
162	0xbdea4fc6	-0.11440997
163	0x3e019240	0.12653446
164	0xbd6f13e6	-0.058368586
165	0x3c35abd0	0.011088327
166	0xbd1e6c99	-0.038677786
167	0xbdd4e30b	-0.103948675
168	0x3db16f84	0.08663848
169	0xbe4d6d2f	-0.20061181
170	0x3d5edca9	0.054409657
171	0xbe3feb6b	-0.18742149
172	0xbcb3a882	-0.021930937
173	0xbdd5b4b4	-0.10434857
174	0xbe239be5	-0.15977438
175	0xbd86d221	-0.06583048
176	0xbd9a6e95	-0.07540623
177	0xbd902cf4	-0.07039824
178	0xbccbd701	-0.024882795
179	0x3d47ed1a	0.048810102
180	0xbda2295f	-0.07918047
181	0xbdee8dc4	-0.116481334
182	0xbd32fa4d	-0.043695737
183	0xbe063f21	-0.1311002
184	0xbcea9ac0	-0.028638244
185	0x3c72958b	0.014806162
186	0xbda8a0d8	-0.082338035
187	0xbdab8c05	-0.08376316
188	0xbe66e71d	-0.225491
189	0xbe40ef7f	-0.1884136
190	0xbd8c1a71	-0.06840981
191	0xbc8db070	-0.017296046
192	0x3e0cf3a9	0.13764824
193	0xbbea68c6	-0.0071536032
194	0xbd024363	-0.031802546
195	0xbd7bd00f	-0.061477717
196	0xbd2e4869	-0.042549524
197	0xbdc97043	-0.09835865
198	0x3d0ecc4a	0.034862794
199	0xbd9c36ad	-0.07627616
200	0x3d81fe51	0.06347335
201	0x3d7b7c04	0.061397567
202	0x3cbc7dea	0.02300926
203	0xbe05c6eb	-0.13064162
204	0xbd3727dd	-0.04471575
205	0x3c1b1375	0.009465088
206	0x3d875522	0.06608035
207	0xbc1b2f9a	-0.009471798
208	0x3da4fe87	0.0805636
209	0xbdf1a8f7	-0.117998056
210	0x3d2ef60a	0.04271511
211	0x3b70743e	0.003669038
212	0xbd39a093	-0.04531915
213	0x3d281be9	0.041042242
214	0xbe08498a	-0.13309303
215	0xbdf945af	-0.12171494
216	0xbdd87100	-0.10568428
217	0x3c6a5515	0.014302512
218	0xbd8e2728	-0.06941062
219	0x3bb90d76	0.0056473566
220	0xbc963dd9	-0.018340038
221	0xbcc4dd85	-0.02403141
222	0x3dffc47c	0.12488648
223	0xbc400108	-0.011718996
224	0xbd163b1d	-0.03667747
225	0x3d778c5f	0.060436603
226	0x3c7d7ee0	0.015472144
227	0xbd5e7df6	-0.054319344
228	0x3cb88630	0.022524923
229	0x3ca1f784	0.019771345
230	0xbc8612e1	-0.016366424
231	0xbc039d3c	-0.008033093
232	0x3cb87bfd	0.02252006
233	0xbe7d35b6	-0.2472752
234	0xbca2b312	-0.019860778
235	0xbd67ce4f	-0.056593236
236	0xbc544a78	-0.012957208
237	0xbd54e6d9	-0.051977966
238	0x3cb65328	0.022256449
239	0xbd839462	-0.06424786
240	0xbd9fbe57	-0.07799976
241	0xbe27fedc	-0.16405815
242	0xbd38b5f2	-0.04509539
243	0xbda6d536	-0.081461355
244	0x3c077681	0.008268
245	0x3c4980d8	0.012298785
246	0xbe2d0fcd	-0.16900559
247	0x3da91407	0.08255773
248	0x3d68900a	0.05677799
249	0xbc954489	-0.018221157
250	0xbc8653ef	-0.016397445
251	0xbdbbc700	-0.091688156
252	0x3d237d19	0.039914224
253	0xbdf6e4ca	-0.12055357
254	0x3df02f20	0.117277384
255	0xbcdd1db9	-0.026991712

encoder_lstm.bias_hh_l0 f4 [512]
0	0xbc2be58d	-0.010491741
1	0x3a0340f0	0.000500693
2	0xbc66323d	-0.014050064
3	0x3e31c1fe	0.17359158
4	0x3e63a39e	0.22230384
5	0x3dc7d682	0.09757711
6	0x3e82d98d	0.25556603
7	0x3dd7f3ec	0.10544571
8	0x3e6ce836	0.23135456
9	0xbbf99e37	-0.0076177376
10	0x3bfe3d8f	0.007758803
11	0x3e702c38	0.23454368
12	0x3d267590	0.04063946
13	0x3c86bd63	0.016447728
14	0x3e236c6d	0.1595933
15	0x3cf3b735	0.029750446
16	0xbdb5262b	-0.088451706
17	0x3e85fd5e	0.26169866
18	0x3d9b062f	0.07569539
19	0xbd18ccb3	-0.03730459
20	0xbd15fb95	-0.03661688
21	0x3aa14f9d	0.0012307052
22	0x3d82385e	0.063584074
23	0xbd02a8c9	-0.031899247
24	0xbd8bf794	-0.06834331
25	0x3be2d84c	0.0069227573
26	0x3e73ad24	0.23796517
27	0x3e9ffd90	0.3124814
28	0x3e49df4d	0.19714089
29	0xbc3bc899	-0.0114614
30	0x3e0780aa	0.13232675
31	0x3e33c348	0.17554963
32	0x3e0e568e	0.13900205
33	0x3dfa037f	0.12207698
34	0x3ee19eec	0.4406656
35	0x3e3530b8	0.17694366
36	0x3e61d326	0.22053203
37	0x3ee184db	0.44046673
38	0x3e8650bc	0.2623347
39	0x3e02c31c	0.12769741
40	0xbcc88675	-0.024478177
41	0x3e0f40a1	0.13989498
42	0xbc637764	-0.013883445
43	0x3e0aee34	0.1356743
44	0xbc7ea1fa	-0.015541548
45	0x3cfd6998	0.03093414
46	0x3ef86ac1	0.48518947
47	0x3dd01a0c	0.10161218
48	0x3ceead53	0.029135382
49	0x3e9523c4	0.2912885
50	0x3e0adda3	0.1356111
51	0xbcae6ffa	-0.021293629
52	0x3cb496b1	0.022044512
53	0x3d4a0092	0.04931695
54	0x3e95d98b	0.29267535
55	0x3e93195b	0.28730282
56	0x3e4706fc	0.19436258
57	0x3d00c08f	0.03143364
58	0x3c453cbf	0.012038409
59	0xbc8a9e39	-0.01692115
60	0x3e91a58c	0.28446615
61	0x3e640570	0.22267699
62	0xbb9c5840	-0.0047712624
63	0x3c6e8df6	0.014560213
64	0x3e0a205e	0.1348891
65	0x3da4e3a7	0.08051234
66	0x3e81c3f2	0.25344807
67	0xbc91607e	-0.017746206
68	0x3d6f6883	0.05844928
69	0x3dcb51ee	0.09927736
70	0x3e0e5313	0.13898878
71	0xbb67887d	-0.0035329156
72	0x3e58257b	0.21108048
73	0x3d2355f5	0.039876897
74	0x3dc6110e	0.09671222
75	0x3e03abb6	0.12858471
76	0x3e938e96	0.28819722
77	0xbbec6a10	-0.007214792
78	0x3e798d15	0.24370225
79	0x3db2cf19	0.08730907
80	0x3c64369b	0.013929035
81	0x3e0ef3f2	0.13960245
82	0xbd0641d1	-0.03277761
83	0x3ddd22a8	0.10797626
84	0x3d8c1871	0.06840599
85	0x3e506a2f	0.20353006
86	0x3e6717fd	0.22567745
87	0xbde13571	-0.10996521
88	0x3e328d23	0.17436652
89	0x3df552ec	0.11978707
90	0x3de73682	0.112896934
91	0x3d8cf772	0.06883134
92	0x3e285783	0.16439633
93	0x3d3ff27b	0.046862107
94	0xbc8b3e2a	-0.016997416
95	0x3cf99652	0.030467186
96	0x3e6e8879	0.23294248
97	0x3eb74557	0.3579509
98	0x3e344a72	0.17606524
99	0x3e300b12	0.17191723
100	0x3e65c06e	0.22436687
101	0x3d613807	0.054985072
102	0x3db0c843	0.08631947
103	0x3ea913ce	0.33022922
104	0xbb85e758	-0.004086416
105	0x3e864b30	0.2622924
106	0x3dfeff92	0.1245109
107	0x3d12ad9b	0.035810094
108	0x3eb1a40d	0.34695473
109	0x3db821e8	0.08990842
110	0x3ee0a99f	0.4387941
111	0x3d7c3fa7	0.06158414
112	0x3e9d6255	0.30739084
113	0x3d747e1c	0.05969058
114	0x3ec2a850	0.38019037
115	0x3d27019a	0.04077301
116	0x3de5a5d4	0.1121327
117	0xbd301ae8	-0.04299441
118	0x3e445a95	0.1917518
119	0x3d614453	0.0549968
120	0xbd8c38fc	-0.068468064
121	0x3cee3ea9	0.029082613
122	0x3c4c6d43	0.012477222
123	0x3e12a680	0.14321327
124	0x3c1e2fe9	0.009654977
125	0xbccda424	-0.025102682
126	0x3e056d88	0.13030064
127	0x3e93524a	0.2877372
128	0xbdd33aac	-0.10313925
129	0xbba10638	-0.0049140714
130	0x3c1a6d9e	0.009425549
131	0x3cb1f30b	0.021722337
132	0xbdce8218	-0.10083407
133	0xbddc3dc1	-0.10753966
134	0xbcd99e0a	-0.026564617
135	0xbd87d4f7	-0.06632417
136	0x3d92d0d2	0.071687356
137	0xbdb45924	-0.08806065
138	0xbcdaad71	-0.026694031
139	0xbd8f4908	-0.069963515
140	0xbdc1af10	-0.09457219
141	0xbcc13ced	-0.023588622
142	0x3de62a07	0.11238485
143	0x3db407f1	0.08790577
144	0x3c345f0c	0.011008989
145	0xbe14f71a	-0.14547387
146	0xbcaa8ec4	-0.02082003
147	0x3d1d3af6	0.038386308
148	0xbd1d2407	-0.038364436
149	0x3c87af40	0.016563058
150	0xbd5aa3d8	-0.05337891
151	0x3d649d0e	0.05581384
152	0xbd92df22	-0.071714655
153	0xbce326d9	-0.027728485
154	0x3c317cae	0.010832949
155	0x3bd2cd25	0.0064331465
156	0xbcc7b961	-0.024380388
157	0x3dd3c2e1	0.103399046
158	0x3b171792	0.002305482
159	0x3e50f7c9	0.20407023
160	0xbc571292	-0.013126986
161	0xbdbb5c47	-0.0914846
162	0xbd551328	-0.052020222
163	0x3e1a6521	0.1507764
164	0xbde30739	-0.11085362
165	0x3dbd09cf	0.092303865
166	0xbde4bd50	-0.11168921
167	0xbcc12068	-0.023575023
168	0x3d8fd319	0.070226856
169	0xbe441350	-0.19147992
170	0xbd638e50	-0.05555564
171	0xbde18f1d	-0.11013625
172	0xbdfc85ea	-0.123302296
173	0xbe1ff665	-0.15621336
174	0xbe19894d	-0.14993782
175	0xbd11443d	-0.035465468
176	0xbe0535e8	-0.13008845
177	0x3d04433b	0.03229068
178	0xbd2ecdce	-0.04267674
179	0xbc8f3895	-0.017483035
180	0xbda874e4	-0.0822542
181	0xbd045116	-0.032303892
182	0xbc6fa9b5	-0.014627864
183	0xbdaaa82f	-0.0833286
184	0xbe2b59d3	-0.16733484
185	0x3c766a63	0.015040013
186	0xbd9ce1f5	-0.076602854
187	0x3ca3eb26	0.020009588
188	0xbdd7b5ac	-0.10532698
189	0xbe04c518	-0.1296581
190	0xbcf70a31	-0.030156227
191	0xbdc29b1b	-0.0950224
192	0x3dfd3a50	0.12364638
193	0xbb3b9c06	-0.0028626933
194	0xbdbfd002	-0.09365846
195	0xbdaa0b61	-0.083029516
196	0xbd3378d3	-0.0438164
197	0x3c968b96	0.018377107
198	0xbaff8e54	-0.0019497373
199	0xbca0bdb8	-0.019621715
200	0x3e41ebbc	0.18937582
201	0xbd217510	-0.03941828
202	0xbd989a70	-0.074513316
203	0xbd673941	-0.056451086
204	0x3db11cc2	0.08648063
205	0xbd9ed615	-0.07755677
206	0x3d63ce5b	0.055616718
207	0xbd6a5c6a	-0.05721704
208	0x3d9508af	0.07277047
209	0xbde329a7	-0.11091929
210	0xbdfcba14	-0.12340179
211	0xbd1aacbc	-0.03776239
212	0x3bfd9875	0.0077391216
213	0x3d5a7b7c	0.05334042
214	0xbd8e171f	-0.06938004
215	0x3d19cb87	0.037547614
216	0xbd6e725c	-0.05821453
217	0xbb58393e	-0.0032993103
218	0xbdc92133	-0.098207854
219	0xbd4724bf	-0.04861903
220	0x3cd87177	0.026421292
221	0x3c2a8714	0.010408182
222	0x3dfc3d44	0.12316373
223	0xbd8de422	-0.069282785
224	0xbd2bc685	-0.04193737
225	0xbd3f46f2	-0.046698518
226	0xbd1aeb63	-0.03782214
227	0x3d4329e1	0.04764736
228	0x3dc86727	0.097853
229	0xbc306402	-0.010766031
230	0x3bee7caf	0.007278047
231	0xbe0aba9e	-0.13547751
232	0xbd9b135b	-0.07572051
233	0xbe4eb54c	-0.20186347
234	0x3dc4bb34	0.09606019
235	0x3c35a4d5	0.011086662
236	0xbdcaa501	-0.09894753
237	0xbdd11cd8	-0.1021058
238	0xbd29f877	-0.04149672
239	0x3c9bf366	0.01903696
240	0xbd94ea01	-0.07271195
241	0xbda89e39	-0.082333036
242	0xbd31c819	-0.04340372
243	0xbd5a5faa	-0.05331389
244	0x3d8756d3	0.06608357
245	0xbdca9765	-0.098921575
246	0xbdb26834	-0.087112814
247	0xbda01775	-0.07816974
248	0xbc1f81cf	-0.009735539
249	0x3ddadc2a	0.10686524
250	0xbd887072	-0.06662072
251	0xbb29a829	-0.0025887585
252	0xbd9a700e	-0.07540904
253	0x3d2ea33e	0.04263615
254	0x3dcaf9be	0.09910916
255	0x3bbb7b8c	0.005721515

encoder_attn.weight f4 [1, 276]
0	0xbb8ed3bd	-0.0043587373
1	0xbd191870	-0.03737682
2	0x3b5fe565	0.003416383
3	0xbc35139c	-0.0110520385
4	0x3d31349d	0.043263067
5	0x3b4b401f	0.003101356
6	0xbcf9215e	-0.030411419
7	0xbd5b4fa2	-0.05354274
8	0x3d4a542d	0.049396683
9	0xbd111132	-0.03541679
10	0xbd08bcbb	-0.033383112
11	0x3c1aa36f	0.00943838
12	0xbcf2b455	-0.029627005
13	0x3ca3ff53	0.020019209
14	0xbb0e6ea6	-0.0021733432
15	0xbd6fe714	-0.058569983
16	0x3d4fa3b6	0.050693236
17	0xbc4719cd	-0.0121521475
18	0x3d1bdb5c	0.038050994
19	0xbd6aa1b7	-0.05728313
20	0xbcb300dc	-0.021850996
21	0x3d1fd547	0.039021757
22	0x3d37f2f1	0.04490942
23	0xbd0105c4	-0.03149964
24	0xbd3292f3	-0.043597173
25	0x3be1a01b	0.006885541
26	0x3b723e09	0.0036963245
27	0xbd037f8a	-0.032104053
28	0xbba9f2ee	-0.00518643
29	0x3d5173ef	0.051135954
30	0xbab24eca	-0.0013603803
31	0x3d186e18	0.03721437
32	0x3d382638	0.044958323
33	0x3ccfe545	0.025377879
34	0x3d38e160	0.04513681
35	0xb9463701	-0.00018903242
36	0xbd3bb5e0	-0.045827746
37	0x3d3e19cd	0.046411324
38	0x3c9caaf1	0.01912448
39	0x3d451495	0.04811533
40	0xbc9e00e9	-0.019287543
41	0xbd55e75e	-0.052222602
42	0xbca63c1b	-0.020292332
43	0x3ce994fb	0.028513422
44	0x3d730041	0.059326414
45	0xbd002267	-0.03128281
46	0x3d3b45f2	0.045721002
47	0xbd1989cc	-0.03748493
48	0x3d425ee9	0.047453795
49	0x3d123e08	0.03570369
50	0xbc7b7b0e	-0.015349163
51	0xbbd34b79	-0.006448206
52	0x3d4eee0c	0.050519988
53	0x3c6c8d41	0.014437974
54	0xbcdc92a3	-0.02692539
55	0xbc2bb3c2	-0.010479869
56	0x3c28e16d	0.010307652
57	0xbc9c1053	-0.019050753
58	0x3d2adc1e	0.041713826
59	0x3d617963	0.055047404
60	0x3cb5e840	0.022205472
61	0xbbb7c4b2	-0.0056081647
62	0xbd28a40c	-0.041172072
63	0x3b5db0ef	0.0033827384
64	0xbc0b6bc4	-0.00850958
65	0x3cba41b4	0.022736408
66	0xbcee0b99	-0.029058265
67	0x3cb47e6a	0.022032935
68	0x3d18d491	0.037312094
69	0xbd4d989d	-0.05019437
70	0xb88fc2f6	-6.855086e-05
71	0x3a547084	0.00081039243
72	0xbcacf867	-0.021114541
73	0xbc95b74f	-0.018275885
74	0x3d735c11	0.059413973
75	0x3be2b63d	0.006918697
76	0xbcbe2e9b	-0.023215583
77	0xbc90573a	-0.017619718
78	0x3d51c9b3	0.051217746
79	0x39215a6c	0.00015387841
80	0xbc9eabd9	-0.019369053
81	0x3c1f012a	0.009704867
82	0xbd2e65cf	-0.04257756
83	0xbd59610c	-0.053071067
84	0xbc9ef44d	-0.019403601
85	0x3d4ca4a3	0.049961697
86	0xbd61af13	-0.055098604
87	0x3bed785e	0.007247015
88	0xbd19ffe8	-0.037597567
89	0xbd34877d	-0.044074524
90	0x3c131e88	0.008979447
91	0xbd2763f8	-0.040866822
92	0xbcc80c05	-0.024419794
93	0x3d3e039d	0.046390165
94	0xbbd191b0	-0.006395541
95	0xbd417be5	-0.047237296
96	0xbba328e2	-0.004979239
97	0x3d47da4f	0.04879218
98	0xbcf5b4ed	-0.029993499
99	0xbc9d604b	-0.019210955
100	0xbd3db66a	-0.04631654
101	0xbd4c3787	-0.049857643
102	0xbd3732b3	-0.044726085
103	0xbd278143	-0.040894758
104	0xbd2b4e5a	-0.04182277
105	0x3abf84df	0.0014611742
106	0x3c9390fb	0.018013468
107	0x3d09f32e	0.03367918
108	0x3d1ea8d9	0.038735244
109	0x3b37d975	0.0028053198
110	0x3c52c699	0.012864732
111	0xbd39abca	-0.045329846
112	0x3ccf1733	0.025279617
113	0xbcdc4939	-0.026890384
114	0xbd2bbc8c	-0.04192786
115	0x3d1792f1	0.03700537
116	0xbc5b6daf	-0.01339285
117	0x3d58ca29	0.05292717
118	0x3be3c12f	0.0069505195
119	0xbd2c5da3	-0.042081486
120	0xbd06fc2a	-0.032955326
121	0xbc9e4a62	-0.019322578
122	0xbce0ab35	-0.027425388
123	0xbd57b769	-0.052665148
124	0x3cfcc742	0.030856732
125	0xbb8b01dc	-0.004242165
126	0x3c6cbff9	0.014450067
127	0x3ad46a3e	0.0016205979
128	0xbd0b9850	-0.034080803
129	0x3c66e40d	0.0140924575
130	0x3d760ce9	0.060070906
131	0xbbcd8782	-0.0062722573
132	0x3ceaf1fe	0.028679844
133	0xbc561b34	-0.013068009
134	0x3cae1ea3	0.021254843
135	0xbc663303	-0.014050248
136	0xbca3ecd4	-0.02001039
137	0xbd76239a	-0.060092546
138	0xbb5c41e6	-0.0033608614
139	0x3d4fb4d6	0.050709568
140	0xbd007d51	-0.03136951
141	0xbcec6f09	-0.02886154
142	0xbcd733ad	-0.026269758
143	0x3bf26069	0.007396747
144	0x3c43f4ed	0.01196025
145	0x3c77adee	0.015117152
146	0xbbd312ad	-0.0064414353
147	0x3d3a5b64	0.045497313
148	0x3c7ec6cc	0.015550327
149	0xbc34e06d	-0.011039835
150	0xbc654e46	-0.013995713
151	0x3b90f7f1	0.004424088
152	0xbc3817da	-0.011236155
153	0xbc44aa6d	-0.012003523
154	0x3d691da2	0.056913026
155	0x3c8be14f	0.017075209
156	0xbb07add0	-0.0020702966
157	0x3d04b937	0.032403197
158	0x3d380bf0	0.04493326
159	0xbb2ff807	-0.0026850717
160	0xbbb2cb2a	-0.005456348
161	0xbd08cbfd	-0.033397663
162	0xbc849dab	-0.016188463
163	0x3d1ad1d9	0.037797783
164	0xbd652725	-0.055945534
165	0x3cf24b8f	0.029577045
166	0x3d205a19	0.039148424
167	0xbd6620be	-0.05618357
168	0x3d1426dc	0.03616987
169	0xbc77137d	-0.01508033
170	0x3d391b5d	0.04519211
171	0xbd182112	-0.037140913
172	0xbc8f8766	-0.017520618
173	0xbc34a04e	-0.011024548
174	0xbd435562	-0.04768885
175	0x3d6b3961	0.057427768
176	0x3c044d1b	0.008075024
177	0x3d32a1f9	0.0436115
178	0x3d300a53	0.042978596
179	0x3cbf678b	0.023364803
180	0x3d41a50e	0.04727655
181	0xbb429e04	-0.0029696235
182	0xbd72b85d	-0.059257854
183	0xbc5a950a	-0.013341198
184	0xbc3d9eb6	-0.011573484
185	0x3c95961d	0.018260056
186	0x3bfe60ba	0.0077629955
187	0x3d290eed	0.041274
188	0xbd38db60	-0.045131087
189	0xbd70a6a2	-0.058752663
190	0x3d0a4c83	0.033764374
191	0xbd3a7f0c	-0.045531318
192	0x3ce64d2c	0.02811297
193	0x36ba9ace	5.5612536e-06
194	0xbcb8145e	-0.02247065
195	0x3cfb8ffa	0.030708302
196	0x3d3404bb	0.043949824
197	0xbc4dbc59	-0.012557113
198	0x3d59afb2	0.05314607
199	0xbc5b90e0	-0.01340124
200	0x3d2e73b0	0.042590797
201	0xbd4efe96	-0.05053576
202	0x3d22716c	0.03965895
203	0x3d571a72	0.052515455
204	0x3c4fa75f	0.012674182
205	0xbd14febe	-0.036375754
206	0xbd70d19c	-0.05879365
207	0x3d6ad767	0.05733433
208	0x3d67dc43	0.056606542
209	0xbcb409fe	-0.02197742
210	0x3cb382ea	0.02191301
211	0xbc2d6eb9	-0.01058548
212	0x3d26c244	0.04071261
213	0x3d232394	0.03982885
214	0x3d535f9a	0.051604845
215	0x3d6465ad	0.055761028
216	0x3d3097ef	0.043113645
217	0x3bd214ac	0.0064111557
218	0xbc19f94e	-0.009397818
219	0xbd6daf53	-0.05802853
220	0xbbaf907a	-0.005357799
221	0x3d209459	0.039203975
222	0xbd29c04d	-0.041443158
223	0xbc25177c	-0.0100764
224	0xbd148fd9	-0.036269996
225	0x3d2604a9	0.040531788
226	0xbc81977a	-0.0158193
227	0x3c80d0cc	0.015724562
228	0xbcb7728e	-0.022393491
229	0xbac26775	-0.0014831858
230	0xbd346325	-0.044039864
231	0xbd079658	-0.033102363
232	0xbd5e48e1	-0.05426872
233	0x3d44a7c4	0.048011556
234	0x3c46134e	0.0120895635
235	0xbb4f2564	-0.003160798
236	0x3c7185ef	0.014741405
237	0xbd0d2e73	-0.034468126
238	0x3c2c42e2	0.010513993
239	0xbd2c1427	-0.042011406
240	0x3c10f8a5	0.008848344
241	0x3c8515c9	0.01624574
242	0x3ce64e08	0.02811338
243	0xbcb6e7a1	-0.022327246
244	0x3ca608be	0.02026784
245	0x3ce24cc8	0.027624503
246	0x3d35e7f6	0.04441067
247	0xbb6dbd75	-0.0036276255
248	0xbd3f4bbc	-0.046703085
249	0x3c87b191	0.016564162
250	0xbcdf1c74	-0.027235247
251	0xbcaa0264	-0.020753093
252	0xbc39d27c	-0.011341687
253	0xbc52fe37	-0.012877992
254	0x3d1e699c	0.038674936
255	0xbcded523	-0.02720124

exp_avg f4 [7, 7]
0	0x00000000	0.0
1	0x00000000	0.0
2	0x00000000	0.0
3	0x00000000	0.0
4	0x00000000	0.0
5	0x00000000	0.0
6	0x00000000	0.0
7	0x00000000	0.0
8	0x00000004	6e-45
9	0x00000000	0.0
10	0x00000000	0.0
11	0x00000000	0.0
12	0x00000000	0.0
13	0x00000000	0.0
14	0x00000000	0.0
15	0x00000000	0.0
16	0x00000000	0.0
17	0x00000000	0.0
18	0x00000000	0.0
19	0x00000000	0.0
20	0x00000000	0.0
21	0x00000000	0.0
22	0x00000000	0.0
23	0x00000000	0.0
24	0x2eb85a28	8.383366e-11
25	0x00000000	0.0
26	0x00000000	0.0
27	0x00000000	0.0
28	0x00000000	0.0
29	0x00000000	0.0
30	0x00000000	0.0
31	0x00000000	0.0
32	0xb3b4cb36	-8.418867e-08
33	0x00000000	0.0
34	0x00000000	0.0
35	0x00000000	0.0
36	0x00000000	0.0
37	0x00000000	0.0
38	0x00000000	0.0
39	0x00000000	0.0
40	0x33bbd264	8.746136e-08
41	0x00000000	0.0
42	0x00000000	0.0
43	0x00000000	0.0
44	0x00000000	0.0
45	0x00000000	0.0
46	0x00000000	0.0
47	0x00000000	0.0
48	0x00000000	0.0

exp_avg_sq f4 [7, 7]
0	0x00000000	0.0
1	0x00000000	0.0
2	0x00000000	0.0
3	0x00000000	0.0
4	0x00000000	0.0
5	0x00000000	0.0
6	0x00000000	0.0
7	0x00000000	0.0
8	0x1fbd18a5	8.0085384e-20
9	0x00000000	0.0
10	0x00000000	0.0
11	0x00000000	0.0
12	0x00000000	0.0
13	0x00000000	0.0
14	0x00000000	0.0
15	0x00000000	0.0
16	0x00000000	0.0
17	0x00000000	0.0
18	0x00000000	0.0
19	0x00000000	0.0
20	0x00000000	0.0
21	0x00000000	0.0
22	0x00000000	0.0
23	0x00000000	0.0
24	0x26c87151	1.3908502e-15
25	0x00000000	0.0
26	0x00000000	0.0
27	0x00000000	0.0
28	0x00000000	0.0
29	0x00000000	0.0
30	0x00000000	0.0
31	0x00000000	0.0
32	0x2abddb25	3.3725206e-13
33	0x00000000	0.0
34	0x00000000	0.0
35	0x00000000	0.0
36	0x00000000	0.0
37	0x00000000	0.0
38	0x00000000	0.0
39	0x00000000	0.0
40	0x2c353283	2.5749687e-12
41	0x00000000	0.0
42	0x00000000	0.0
43	0x00000000	0.0
44	0x00000000	0.0
45	0x00000000	0.0
46	0x00000000	0.0
47	0x00000000	0.0
48	0x00000000	0.0

exp_avg f4 [7]
0	0x00000000	0.0
1	0xb2173d4f	-8.803297e-09
2	0x00000000	0.0
3	0xb04cbdd8	-7.448455e-10
4	0xb394ccf0	-6.929065e-08
5	0x3448f7a2	1.871654e-07
6	0x00000000	0.0

exp_avg_sq f4 [7]
0	0x00000000	0.0
1	0x2b895cab	9.760156e-13
2	0x00000000	0.0
3	0x26d3f3ea	1.4707179e-15
4	0x2a8e84c3	2.531639e-13
5	0x2c32b383	2.539497e-12
6	0x00000000	0.0
