weights_new/EncoderEpochnew0_20_8.pt (torch_old, 862760 bytes, 27 tensors)

gamma_x_l.weight f4 [7, 7]
00000000: 9866 23bd dec8 133e 6061 a33d a5e5 80be
00000010: 9190 08be caf7 0e3e 711b 68be 3578 7fbe
00000020: e76e b4be 5d61 ba3e ec26 b53d 58e5 3e3d
00000030: f0cd b83c bec5 553e f431 ffbd 2602 19be
00000040: e029 8fbd f21b 623e 3eec 1f3e f278 b5be
00000050: 72ca bbbe f03e e3bd 28d2 5c3d 8097 81be
00000060: f524 abbe f806 7dbd e306 71be 73ce 28be
00000070: 6255 1f3e 95db b53e bf59 61be e0fc a9be
00000080: 71cb 613c 5440 9bbe 20ef b2bd 4cf4 cb3d
00000090: f589 b3be a98c 3ebe 4dc6 a83e c033 0bbd
000000a0: 98b3 203e 9dcd 40be 803d 19be e04e 0b3d
000000b0: 6563 b53e f19f a03e 9726 b33e d374 09be
000000c0: 0f02 363b
-0.039892763 0.14432094 0.07977557 -0.25175205 -0.13336398 0.13961712 -0.22666718 -0.24948199
-0.35240862 0.36402407 0.088453144 0.046605438 0.022559136 0.20876214 -0.124607 -0.14942226
-0.06990409 0.22080973 0.15617463 -0.35443836 -0.3667789 -0.11095989 0.053911358 -0.25310898
-0.33426633 -0.061774224 -0.23537783 -0.16485004 0.15559915 0.3551909 -0.22006892 -0.3320074
0.013781414 -0.30322516 -0.08737016 0.09958705 -0.3506619 -0.18608345 0.3296379 -0.0339849
0.1569351 -0.18828435 -0.14964867 0.034010768 0.35427395 0.31372026 0.3499038 -0.13423471
0.0027772223

gamma_x_l.bias f4 [7]
00000000: 5e22 0dbe aa1e 1e3e b7d1 453d 870c a13e
00000010: 63dd ff3c 395d 28be b96e f93c
-0.13782641 0.15441385 0.048295703 0.3145487 0.031233495 -0.16441812 0.030448304

gamma_h_l.weight f4 [128, 7]
00000000: 8fc9 313e 2d81 093e 7261 e9bd d4ed 5dbd
00000010: 5266 9fbe 4cb8 5b3c 6833 933e f0ea 91be
00000020: bcab b2be b8d5 abbd bc47 6cbe 2894 a9be
00000030: 84d8 61be 68b9 34bd ac57 4abe 76eb ecbd
00000040: c26c de3d 484e 3dbe eb63 14be de39 cd3d
00000050: fad3 bbbe dc48 d2bd 3d2d 7fbe ee19 c1be
00000060: 5abf 4d3e 9a32 703e 91ba 3bbd 6c48 cbbd
00000070: a70e 573e 6619 6c3e 6043 263e f10b 0dbe
00000080: 1a00 b4bd c7b2 b9be 1b74 2d3c 0328 bdbe
00000090: bd4c a6be 1a5b ae3e ff1a 43be 7b4b 82be
000000a0: 70fb 46be 59a7 733e df50 143e 7043 02bd
000000b0: 46a8 27bd aa3e 52be d3cf aabe e32c bb3e
000000c0: c91b 9b3e 2881 21bd 259b 90be 9807 69bd
000000d0: 44a9 e33d 5b6f 16be a0e1 913c 8efa 4bbe
000000e0: a9b6 d5bd e953 2bbe 386e 4dbe a8f9 3e3d
000000f0: 5e75 6d3d e96b 833e a0ae 603e db43 90be
00000100: 9cd8 1f3e d2ac c23e 8141 83bd 6bce 0fbe
00000110: f56b ff3c acf3 ab3e 108b 69be 0131 3bbe
00000120: e018 153d 9d08 8b3e e848 59be 65cc ffbd
00000130: 0e2b 573e 788c 24bd 23c3 7abe 088e b0be
00000140: 8c09 7dbe fe73 bdbe e782 1dbe cd0b 873e
00000150: f6a5 9cbe 10dc 96bd c0bf 3abc b415 e0bd
00000160: 305e 983c 5d22 6fbe cb7d 94be d11a 9fbe
00000170: d9d5 383e b869 16be b630 96bd ffa9 f23d
00000180: 0e83 0d3e 8284 b53e 53eb bcbe 229d 713e
00000190: 114d 2fbe e6ef 523e 909d 1bbe 53eb bfbe
000001a0: 88a6 73bd 90d4 463e 1a69 a53e e509 e23d
000001b0: cff5 9c3e c72f 9ebd b779 86bd 9240 abbe
000001c0: 7b51 5abe 0774 f63d 3325 813e 5753 923e
000001d0: ecf4 9f3e 3fe9 0b3e 53b4 213c f21f 433e
000001e0: 2d9b b53e b6c9 963d a753 2438 6117 70bd
000001f0: 0f1d a4bd e156 a03e 1970 c23e d00c 8639
00000200: d60f bbbe 8d71 0fbe de0d 9abe 01f3 8dbe
00000210: 2d4f ba3c 5923 9a3e ddd3 913e e156 48be
00000220: f71c d93d 5192 a6be dcc7 25be aaae b33e
00000230: d5f7 2bbe 925d 36be e4df be3e 23a1 6d3e
00000240: 9c36 133e a20a 643e a453 82be 2a4d 4e3e
00000250: 3ead 7e3e 258b 55be 159d b1bd 8185 603e
00000260: e02d 39bd 5acf 1d3e b666 babe 18d8 2ebe
00000270: 5dde 25be f6b7 233e d023 be3e 1f99 64be
00000280: 98a4 8f3e 721b ee3c 64c2 9cbe 765c a93d
00000290: 8e1e 8e3e 8532 223d 5388 a5bc a9bc 53be
000002a0: 273a b1be e07e 233d 7745 6ebe 18c6 a7bd
000002b0: ca2a 573e f726 a2be 507a 9cbe 23be 78be
000002c0: 17d6 a7bd 4078 b33e 014c 02be 8168 9e3e
000002d0: f6db b1be 3469 703e f1c1 0d3c 1841 a83e
000002e0: ce3b 3e3e 6ca3 af3e ec25 033d 6afa 29be
000002f0: d1f5 c73c 4b9f 153e d031 b3bd 169f 873e
00000300: bcb6 16be a90e 90be 07bd 0dbe 1f2b 943e
00000310: 7406 b3be 009b a3be 4a14 80be 7ef8 163e
00000320: f88f 72bd 382b 37bd 76dd 313e bbf1 42be
00000330: 53f4 e7bd ad03 5a3e f81b 07be 558e 61be
00000340: f866 943e 3bc4 38be 042f c43d 70bc 79be
00000350: 5803 993c f54f 95bd ad45 b0be 97de e8bd
00000360: 103f 9a3e 9440 9b3e fd00 38be 5b98 913d
00000370: 7935 8cbe aa24 6bbd 9c3c 96bd efa9 923e
00000380: f7b5 9d3d 04a9 95be f4b5 8c3c ef72 623e
00000390: e673 e5bc 2a34 2a3d b464 6e3e 30e5 a23d
000003a0: aa2d b93e aaa5 41be ad7f 42bd 5d5b 6abe
000003b0: df8d 8f3e 122a 053e 0bff e1bb 3bf8 a9be
000003c0: 363c afbe 6977 533e f5e3 58be 0d6b f1bb
000003d0: b359 233e c8d0 71be 20e2 12be 0468 c8bd
000003e0: 407e 19be 26e9 94be 128a 5c3e 0809 cf3d
000003f0: 796b a8bd a5d5 933d e642 873e bfcf a93e
0.17362045 0.13428183 -0.11395539 -0.05418189 -0.31132752 0.013410639 0.28750157 -0.28499556
-0.34896648 -0.08390373 -0.2307424 -0.33120847 -0.2205525 -0.04412213 -0.19760007 -0.11568348
0.10860588 -0.18486893 -0.1449124 0.10020803 -0.36685163 -0.10267803 -0.24919601 -0.37715095
0.20092526 0.23456803 -0.04583222 -0.09925923 0.21001683 0.23056564 0.16236639 -0.13774087
-0.08789082 -0.3626921 0.010586764 -0.3694459 -0.32480422 0.3405388 -0.19053267 -0.25448212
-0.19431853 0.23794307 0.14483975 -0.031802595 -0.040931962 -0.20531717 -0.33361682 0.36557683
0.30294636 -0.039429814 -0.28243366 -0.056892008 0.11116269 -0.14690916 0.017807782 -0.19919798
-0.1043523 -0.16731228 -0.20061576 0.04662481 0.05797326 0.25668266 0.21941614 -0.2817677
0.15609974 0.38022476 -0.06408978 -0.14043586 0.031179408 0.33584344 -0.22806954 -0.18280412
0.036400676 0.2715501 -0.21219218 -0.12490157 0.21012518 -0.040173024 -0.24488501 -0.3448336
-0.24710673 -0.37002558 -0.15381967 0.2637619 -0.30595368 -0.07366192 -0.011398256 -0.109416395
0.0185996 -0.23352952 -0.29002222 -0.31075147 0.18050326 -0.14688766 -0.073335096 0.118488304
0.13819525 0.35452658 -0.36898288 0.23595098 -0.17119242 0.20599326 -0.15196824 -0.37484226
-0.05948499 0.19417024 0.3230675 0.110370435 0.30656287 -0.077239566 -0.06566184 -0.334477
-0.21320145 0.12033849 0.25223693 0.28579208 0.31241548 0.13663195 0.009869653 0.19055155
0.35469952 0.07362692 3.9178554e-05 -0.058616046 -0.08013355 0.31316283 0.3797615 0.00025568018
-0.3653552 -0.1400816 -0.30088705 -0.2772446 0.022742832 0.30105093 0.2848195 -0.19564392
0.10601228 -0.32533506 -0.16189522 0.35094196 -0.16793759 -0.17809132 0.3728019 0.23206
0.143763 0.22269681 -0.25454438 0.20146623 0.24870774 -0.2085386 -0.08672539 0.21925928
-0.045209765 0.1541113 -0.36406487 -0.1707462 -0.16198106 0.15988144 0.37136698 -0.22324036
0.28055263 0.029065821 -0.30617058 0.08269589 0.27757686 0.03959896 -0.020206606 -0.20677437
-0.3461468 0.03991592 -0.23268686 -0.0819208 0.21012416 -0.31670353 -0.30562067 -0.24291281
-0.08195131 0.3505268 -0.12724306 0.30939105 -0.3473813 0.23477632 0.008652196 0.32862163
0.18577501 0.34304368 0.032018587 -0.16599432 0.024409207 0.14611547 -0.08749735 0.2648856
-0.14718145 -0.28136185 -0.1384164 0.2893915 -0.3496586 -0.31954193 -0.2501548 0.1474323
-0.05921933 -0.04471895 0.17369637 -0.19037525 -0.11325898 0.21290465 -0.13194263 -0.22026952
0.2898481 -0.18043606 0.0957928 -0.2438829 0.018678352 -0.07290641 -0.34428158 -0.11370581
0.30126238 0.30322707 -0.17969127 0.071091376 -0.27384546 -0.057408012 -0.07335779 0.28645274
0.07700723 -0.2923051 0.017176606 0.22114156 -0.028009366 0.041553654 0.23280603 0.0795387
0.3616765 -0.18910852 -0.047485042 -0.22886415 0.28037927 0.1300433 -0.0068968586 -0.33197197
-0.34225625 0.2065102 -0.21180709 -0.007367498 0.15952186 -0.236148 -0.14344072 -0.097854644
-0.14989567 -0.29084128 0.21537045 0.101091444 -0.08223624 0.07218484 0.26418227 0.3316631

gamma_h_l.bias f4 [128]
00000000: d9b9 ab3e 88ec 0fbe 697f 333c 042b 243e
00000010: 10d3 3fbe 7796 3e3e 8923 043d 71a9 803e
00000020: f103 803e cdbc 873e a7f6 6d3e 98aa 61bd
00000030: 542d ee3d 7209 763e 4c01 f83d 5c46 bdbe
00000040: 11f1 afbe 4ce3 803e 59bf bd3e 9a04 f63d
00000050: 7539 5cbe 9ea0 81be 5331 b83e 9cce 8a3d
00000060: 5f74 953e 8cc5 05be f66e 0b3e 7aae c4bd
00000070: 67de abbe 4ea2 163e d7d8 0ebd aabd 5cbe
00000080: 39bf 033e 253d 8ebe d951 223e c18d bebe
00000090: f42b 8f3d ef57 423d 30ed 4b3e c083 b2bb
000000a0: 5a62 a0be 423c 43be 57e3 79bb 6ce5 babc
000000b0: 3f88 873e 6c21 a8be 1d6d 823e 96c4 ac3c
000000c0: 055f 253e 77c6 3cbe a80d df3d 3475 4b3e
000000d0: 8052 773b 8542 b23e 8025 7f3e 467a 083e
000000e0: 6d14 c63d b008 eebc 8004 be3e 6d8e 10be
000000f0: 1859 6b3d b234 b33e 07e0 2b3e 21dd 333e
00000100: 091c 7e3e 5073 5a3d f69d 69bc 29ff 8f3e
00000110: 0caa 3abd 9964 60be 909f 87bc ac53 073e
00000120: d666 93be 87c5 0d3d 0da9 173e 8ca9 0bbe
00000130: 832e 2a3e 04e4 8fbd 699b 91be 0844 9fbe
00000140: ac17 c9bd 5657 2c3e bd73 6dbd 1ba9 a1be
00000150: 4615 253e 4777 35bd 391f c0be f4aa bbbe
00000160: 3c8b 58be a03c 89bd 86c7 be3e da90 87be
00000170: 1c66 d5bd dda6 36be c404 8a3e 5a56 6ebe
00000180: 2988 3cbe 9715 fabd db50 713e 1ba1 923c
00000190: f4a1 9b3e 7b82 1c3e 5e8f 78be 611e a73e
000001a0: 033f 71be 54ad b43e aa22 663e 456f 50be
000001b0: 422d a8be f383 8bbc ff78 19bd af84 a83e
000001c0: ed0f 9d3e 816c 0abe d3a5 ad3e 8d3d 86be
000001d0: 9ec9 543e e822 2cbe 6873 0a3e f24c 63be
000001e0: 189e 453d 3fd0 b2be 7c65 1e3d 2e2e 4a3d
000001f0: c8dc bd3d ef34 a9bd e350 b13e 4bad a73e
0.33540228 -0.14055073 0.01095567 0.16032034 -0.18732858 0.18612085 0.03226045 0.25129274
0.25003007 0.2651123 0.23238622 -0.05509433 0.116297394 0.2402704 0.12109622 -0.36967742
-0.34363607 0.25173414 0.3706005 0.120125964 -0.21506293 -0.25317854 0.3597513 0.06777689
0.29190347 -0.1306364 0.13616547 -0.09603591 -0.33568117 0.14710352 -0.034874763 -0.21556726
0.12865914 -0.27781025 0.15851535 -0.37217525 0.06990805 0.04744714 0.19914699 -0.0054478347
-0.31325036 -0.19065955 -0.003812989 -0.022814475 0.26471135 -0.32838 0.25473872 0.021089833
0.16149528 -0.18435083 0.108912766 0.19868928 0.0037738383 0.34816375 0.24916649 0.13327894
0.09671865 -0.029056877 0.37112808 -0.14116831 0.057458013 0.3500114 0.16784678 0.17564823
0.24815382 0.053332627 -0.014258852 0.2812436 -0.045572326 -0.21913375 -0.016555578 0.13215512
-0.28789395 0.034612205 0.14810582 -0.13638896 0.16619305 -0.070259124 -0.2843888 -0.3110659
-0.09818968 0.16830191 -0.057971705 -0.3157433 0.16121396 -0.044303205 -0.3752382 -0.36653864
-0.21146864 -0.067010164 0.372616 -0.264777 -0.104198664 -0.17837091 0.2695676 -0.23275128
-0.18411316 -0.12211149 0.23566 0.017899087 0.30396998 0.1528415 -0.2427344 0.32640365
-0.23559193 0.3528849 0.22474161 -0.20354946 -0.3284703 -0.017030692 -0.037468906 0.3291373
0.30676213 -0.13517953 0.33915576 -0.26218835 0.20780036 -0.1681019 0.13520586 -0.22197321
0.048246473 -0.34924504 0.038671 0.049360447 0.09270626 -0.082620494 0.34632024 0.327494

encoder_lstm.weight_ih_l0 f4 [512, 7]
00000000: e24b b8bd 2be3 ae3d fe70 4e3d 5194 d0bb
00000010: 688e 3d3d bb3a 48bc 9107 213b 9e6e a3bd
00000020: 9050 b8bc 124c 813c 6466 4f3d df57 223b
00000030: 479d 363c c50d 8cbd 3030 84bd 00b0 85bd
00000040: d756 133c 4fc5 ad3c 8590 66bd a809 0abd
00000050: ebf2 85bc e771 50bc 7137 85bd 073f 8a3d
00000060: c88d ac3d 2d82 19bd a86c 5ebd 4cc8 a13c
00000070: 072d 753c fe09 77bd dfdb 3bbd 01b5 abbd
00000080: 1107 f53a a5d1 753d 5ec8 0bbd e0b2 c5bc
00000090: 989b af3c 393a 08bd d00e 5f3d f47a 9a3d
000000a0: 4175 0abd 1ef3 b13c 1fac 2e3d bafa 693d
000000b0: 64c2 693d 5c84 8cbd 3307 623d 7b1b 7dbd
000000c0: 4a9e d63c 99c0 1e3d d2c5 5abd 48d1 abbd
000000d0: 5bc5 153d 4b44 93bd 99cc 3d3c 4745 88bd
000000e0: 45b1 f03c dc6b 8d3c 93f0 8dbd 1c2a 823d
000000f0: 317a 873d b7f9 1ebd 093d ff3b e018 083c
00000100: 8556 99bd 3553 2d3d a297 7abd dda2 95bd
00000110: f459 26bd d16b 9abd 180e 873d 596b abbd
00000120: 379a 17bd f305 40bc fb09 d8bc f380 75bd
00000130: 0af9 ae3d 01a6 923d 60ae 8d3d 405d a43c
00000140: 203b 99bd 2918 643d e173 9cbc b703 a93d
00000150: dc8f aebc d1b8 973c 4f19 7abd e93c 6fbd
00000160: b188 81bd b5b9 98bc 7718 9e3d 73b8 bdbd
00000170: 3756 8dbd e5c7 8a3d 5e1a c3bb feef 99bd
00000180: 8ac1 9b3d d7c1 983d 7fbd a63c 2e6a 2fbd
00000190: 6901 273d 5959 a93c 7d73 a1bd df4e 86bd
000001a0: d6c4 55bc 6491 08bd 8d5f 463d 40ff 32bd
000001b0: f75e 9fbc dc0f 1c3d a023 dfbc 0912 a8bd
000001c0: eb9d 313d 8910 9d3d 3d22 183d e640 81bc
000001d0: 7ca3 66bd fe4f 3fbd deae 84bd f248 b3bd
000001e0: 1382 c1bc 08a6 01bd 62f1 cdbc dd20 853d
000001f0: f869 9f3d d796 b63a 07fc fabc d913 37bc
00000200: 59b3 b5bd 3be3 9abd 18f1 a6bd 1acd c9bc
00000210: 8647 1fbc 6c7f 8cbc 123c 88bd 0365 8ebd
00000220: 4b59 613b cb06 a3bd fe8f a83b 170b 08bd
00000230: 1811 b13c 4b8d 3abd 0a81 61bd dabc ab3d
00000240: 8301 8ebb 7bdc 8b3d ee5f 1a3d 17cf 0d3d
00000250: 8d03 98bd d648 c23c 68ab b3bd 71da 6abd
00000260: 3c47 a2bd b853 6dbd 84b4 a5bd 2c12 16bd
00000270: b7af adbc c057 76bd bd35 34bc bd62 a5bc
00000280: c21e 5c3d 75fa 55bd 36c5 2bbd 7360 16bd
00000290: 2f5b a2bc 0b32 e73c 8313 8bbd d816 8c3c
000002a0: 7168 bc3b 0ac0 98bd 69d9 033b 6655 773d
000002b0: e615 9d3c b43a bfbc 6d1d 10bd ed5e 313d
000002c0: 37e9 f53c 185b 993d 7806 a63c 4017 cd3b
000002d0: 71b9 11bc 5320 a3bc ce78 6c3c 80d6 3bbd
000002e0: 2efb afbb f2e7 9b3d 0e3f b03c 89d6 3bbc
000002f0: c7c3 2bbc 5fb4 0dbd d38a 8ebc 0d1b 37bd
00000300: 5417 7fbd d358 8bbc 025d 15bd 0a48 283c
00000310: d074 c7bc f11d 433d a41a ecbc c7e3 693d
00000320: 8e06 723c 2f7a 8d3c 4417 9c3d 1368 d83c
00000330: 96d3 863d 3276 0fbd 237c 28bd 0026 95bd
00000340: 23c9 cc3c 6918 dd3c 86df bf3c e8f3 b2bd
00000350: 2c6a 9fbd 5264 72bd 24c7 0c3d cf64 b8bc
00000360: 58c6 14bd ddd2 a93c eba4 f4bc 545b 72bd
00000370: a4f5 a8bd 00df 99bd 4ba2 adbb 68df 41bd
00000380: 69da 8f3d 8105 5bbd 0c94 3dbd 02d8 98bd
00000390: 82fe 363d 3ae9 d23c ea41 9fbd 329d a9bd
000003a0: 55fd 833c b2c8 e6bc 072f 293c c2e0 a93d
000003b0: e3cc 25bd ee3d 8e3c 206d e83c 6527 223c
000003c0: 9032 a23a 567d 91bc 6a3a 453d 52c9 39bd
000003d0: 1e9c c938 e037 b2bd 4c0e 993d ff76 323b
000003e0: f213 a2bd 516a 503d 4929 263d 37be adbd
000003f0: fc82 8a3c f814 18bd 00cc 40bc 0bc4 53ba
-0.089988485 0.085394226 0.050400726 -0.006365337 0.046278387 -0.012221034 0.002457116 -0.07980083
-0.022499353 0.015783343 0.050634757 0.0024771614 0.011145896 -0.06838564 -0.064545035 -0.0652771
0.008992872 0.021212248 -0.05629017 -0.033700615 -0.016351184 -0.012722469 -0.06504715 0.06750303
0.0842548 -0.03747766 -0.05430284 0.01974883 0.014964349 -0.060312264 -0.045863982 -0.08384133
0.0018694123 0.060014386 -0.034126632 -0.024133146 0.021436498 -0.03325865 0.054457486 0.07542983
-0.03380323 0.021722373 0.042644616 0.057123877 0.05707015 -0.06861183 0.055182647 -0.061793786
0.026198525 0.038757894 -0.053411312 -0.083895266 0.036565166 -0.0719076 0.011584424 -0.066538386
0.029381404 0.017263345 -0.069306515 0.06355688 0.06615103 -0.038812365 0.0077892584 0.008306712
-0.074872054 0.04231568 -0.061179765 -0.07306454 -0.04061313 -0.075400956 0.06594485 -0.08370084
-0.037012305 -0.011720168 -0.026371947 -0.05993743 0.08543594 0.07160569 0.06918025 0.020063996
-0.0748198 0.055687103 -0.019098224 0.08252662 -0.021308832 0.018520745 -0.061059292 -0.058407698
-0.063249 -0.01864324 0.0771951 -0.092636965 -0.0690121 0.06776408 -0.005954071 -0.07516478
0.07605274 0.07458847 0.02035403 -0.04282587 0.04077283 0.020672487 -0.07883356 -0.06558012
-0.013047418 -0.03334178 0.048430968 -0.043700457 -0.019454462 0.038101062 -0.027238667 -0.08206565
0.043363493 0.076691695 0.037142027 -0.015778016 -0.056308255 -0.046707146 -0.06478666 -0.087541476
-0.023621595 -0.03165248 -0.025139514 0.06500409 0.07783884 0.0013930452 -0.030637754 -0.011174166
-0.088720985 -0.07562872 -0.08151454 -0.024633933 -0.009721642 -0.017150603 -0.066520825 -0.0695286
0.0034385498 -0.0796028 0.0051441183 -0.0332137 0.021614596 -0.045544904 -0.055054702 0.0838563
-0.0043336763 0.06829163 0.037689142 0.034621324 -0.07422552 0.023716372 -0.087729275 -0.05733723
-0.07923743 -0.05794117 -0.08091071 -0.036638424 -0.021201951 -0.06014228 -0.01099914 -0.020188684
0.05374027 -0.052240808 -0.041936122 -0.036713075 -0.01981887 0.028222105 -0.06790831 0.017100736
0.005749755 -0.074585035 0.00201186 0.060384177 0.019175481 -0.023343422 -0.035184313 0.04330342
0.030018432 0.07488078 0.020266756 0.006258875 -0.00889431 -0.019912874 0.014433099 -0.04585886
-0.005370519 0.076125994 0.021514442 -0.011464723 -0.010483689 -0.034595843 -0.01740018 -0.044703532
-0.062278107 -0.017010128 -0.036465652 0.010271082 -0.024347693 0.047635976 -0.028821297 0.05710199
0.014772071 0.017270176 0.07621625 0.026416814 0.065833256 -0.03502483 -0.04113401 -0.072826385
0.024998253 0.026989179 0.023422014 -0.08737928 -0.077839226 -0.059177704 0.034369603 -0.022509007
-0.036321968 0.02073043 -0.029863795 -0.05916913 -0.08249977 -0.07513237 -0.005298888 -0.047332197
0.0702408 -0.053472046 -0.046283767 -0.07463075 0.04467631 0.025745977 -0.07776244 -0.08281936
0.016112009 -0.02817187 0.010326154 0.08294822 -0.0404786 0.017363515 0.028372347 0.009897088
0.0012374688 -0.01775996 0.04815141 -0.04535801 9.613506e-05 -0.087020636 0.0747343 0.0027231572
-0.079139605 0.05088264 0.040566716 -0.08483546 0.016908161 -0.037129372 -0.011767387 -0.0008078224

encoder_lstm.weight_hh_l0 f4 [512, 128]
00000000: 32f0 0f3d 3f5f 69bb 2c46 803d d916 3b3d
00000010: 2991 2c3c d5ed e1bc 812e 973c f1fe 2f3d
00000020: 7ca1 09bd 53ee 9bbd 7801 103d aa19 8f3d
00000030: 31ce 4bbd 6cd3 ccbc 63eb d5bc bc6d f0bc
00000040: a3f1 233c 243f 6ebd c91b ccba da58 5dbd
00000050: e730 ac3d aaf4 40bd eb36 3dbd 5b9a 883d
00000060: a89b 863d f870 46bc ae73 ad3c 5dcc 8f3d
00000070: c49c 9ebd ef0f b9bb 59a3 983d efa6 793d
00000080: 3e5b afbc d4a4 30bd 3bb9 aa3d 1343 ac3c
00000090: 7e2d 12bd 8577 773d 9382 8a3d af10 0c3d
000000a0: 4120 063d a67d 2abd 11ec ebbc 4f30 f0bc
000000b0: 8a89 10bd c1ba aa3d 477f 3c3d 9f46 373a
000000c0: e157 44bd fb6d b63d be5b f43c 74fb 29bd
000000d0: d43d a03a 69ac 53bd 55a1 65bc 6c63 39bd
000000e0: d076 573c e9a8 7b3d d6e9 1a3d 2038 c1bb
000000f0: 674e b9bd b32a 733d 5c09 35bd 61f0 93bc
00000100: bc7b 2dbd a9c0 9b3d 4bc0 58bd d0c2 4bbd
00000110: d95f 9dba e6ae d83b c051 08bd c8d3 9b3c
00000120: 2577 a8ba 42d6 923d 76e9 7dbd 402e 9d3d
00000130: 45b6 10bd 3d5e 3dbd b0ef ad3d 5347 4dbd
00000140: d665 3ebd bb6e b7bd fbc2 853d 3d98 c13c
00000150: 367b b2bc 70a7 fe3c b2df 9f3d d323 a93c
00000160: e05b 0abd 1871 ea3c 403a ac3d 5a62 28bd
00000170: f8ac 3e3d 9be1 903d 3386 a9bd 9f94 6bbd
00000180: 1b88 40bd e13e 063d b140 80bd 3c8a 233d
00000190: 2c15 8a3d 2262 d63c 1de0 223d a4f8 3f3d
000001a0: 3e20 733d 53d3 8cbd 66a0 4d3d 9314 c5bb
000001b0: 7b97 9fbd 179b 2aba 3b66 a5bc 7be8 453d
000001c0: 1198 0d3d fc04 b3bd 7337 9c3d 5c85 94bb
000001d0: 287b 293c 82fe 543d 6fc2 21bd 6a90 64bc
000001e0: d2e1 8e3c 4abf 683d b05c acbd 4acb 83bd
000001f0: 034b 813d 1a88 29bb 13b2 833d a856 863b
00000200: 9935 6cbc 9631 b1bd 60cd e83b 07bc 9b3d
00000210: 09a7 993d 6001 543c 939c f03c 5ec5 023d
00000220: 1785 043d c333 7ebd acde 813d c96d 5f3d
00000230: aaed 66bd 40cd 893d 273f da3c c663 c93c
00000240: 8b69 89bd 1192 18bc d561 203a 2f80 53bd
00000250: 0f58 b63c 9d47 9abd cbac a3bd 5682 9f3d
00000260: 8fac 6cbb ef1f 72bd 04b6 77bc a186 3dbd
00000270: 23be 13bc 6287 173d b641 9cbc 3c87 afbd
00000280: f082 5ebd a7c4 243d 66fc 8d3d f2c0 9e3d
00000290: e2ec f1bc 64fa 813d 3927 a03d 0c49 463c
000002a0: 0a79 d3bc 6b12 313d 6621 853d 8159 683c
000002b0: 41a4 a03c 4a31 21bd b57f 85bd d754 8bbd
000002c0: 1027 4abc 227e 1b3d 4ad8 9cbd d043 1b3d
000002d0: 79cf 903d 5681 54bd 4a24 febb a6a8 533d
000002e0: fdd9 2dbd e296 92bd 51e7 fbbc 749b a53d
000002f0: 4bbd d33b a10b 933c 82af f93c ded2 383d
00000300: 37d8 d23b 9616 063d bccc 793d 7fc2 273d
00000310: aa3e 003d aa79 8ebd 837d 923d a144 d4bc
00000320: 42d6 293c 7d3c dcbc 878b 0b3d bf7e 07bd
00000330: c0cb aebd 250b 35bd 1a80 573c 334a 053d
00000340: 4998 96bd 3c27 85ba cd4f 4c3b 64dd ac3d
00000350: d31d 803b eb6d a7bd 1826 5abd a6b1 20bd
00000360: f1ee 62bd fd82 99bd e6c3 803d ef2d 943c
00000370: 3118 26bd ee09 263c 9cfb 923d 8205 433d
00000380: 80ff f63c a09f b2bc 9ec8 a6bd 5954 a6bc
00000390: 0df7 813d fa3c 7bbc 3e89 bbbd 1a10 95bd
000003a0: 925b 1fbd da71 80bd 8d05 803d aea6 ef3c
000003b0: d712 4fbc edfd 433d 48a0 5bbd c6b5 e33b
000003c0: efdb 113d d249 3dbd ee5a fd3c 0f45 c0bd
000003d0: 8375 853d cca0 053d 915f a0bc 0398 7abc
000003e0: 2a0c 27bd d099 7abd bac4 83bc 29c1 443c
000003f0: b50e 3f3d 20de 1c3d ac00 513d 6eac 62bd
0.035141177 -0.003560975 0.06263384 0.045676086 0.010532656 -0.027579227 0.018454792 0.04296774
-0.03360127 -0.07613816 0.03515765 0.06987317 -0.049757186 -0.025003158 -0.026113218 -0.0293492
0.010006341 -0.058165684 -0.0015572245 -0.054039814 0.08407765 -0.04710833 -0.046194952 0.06670066
0.06572658 -0.012111895 0.021173324 0.07021401 -0.077447444 -0.0056476514 0.07453031 0.060950216
-0.021405812 -0.043125942 0.08336111 0.021028077 -0.035687916 0.060416717 0.06763186 0.0341956
0.032745603 -0.041623734 -0.028799089 -0.02931991 -0.035287417 0.08336402 0.04601982 0.00069914194
-0.04793537 0.08907696 0.029828902 -0.04149957 0.0012225457 -0.051678095 -0.014015515 -0.04526083
0.013150886 0.061440382 0.03782066 -0.005896583 -0.09048157 0.059366893 -0.04419838 -0.018058958
-0.04235433 0.076051064 -0.05291776 -0.049746335 -0.0012006714 0.0066126464 -0.033281088 0.019021884
-0.0012852891 0.07169773 -0.061990224 0.07674837 -0.035330076 -0.04623245 0.084929824 -0.05011685
-0.046483837 -0.08956667 0.0653133 0.023632163 -0.021787267 0.0310857 0.07806338 0.020646965
-0.033779025 0.02861838 0.08409548 -0.04110942 0.046551675 0.07074281 -0.082775496 -0.057514783
-0.0470048 0.03277481 -0.06262339 0.039926752 0.067423195 0.02616984 0.039764512 0.04686798
0.05935692 -0.068762444 0.050201796 -0.0060144155 -0.077925645 -0.00065080955 -0.020190349 0.048317414
0.03456885 -0.08741185 0.076277636 -0.0045324992 0.010344304 0.05200053 -0.039492067 -0.013950447
0.017441664 0.056823052 -0.08416116 -0.06435259 0.063131355 -0.0025868476 0.06430449 0.0040996857
-0.014417076 -0.08652036 0.0071045607 0.07604223 0.075025626 0.012939781 0.029371535 0.031926505
0.032353487 -0.062061083 0.063412994 0.05454806 -0.056378998 0.067286015 0.026641442 0.024583708
-0.06709584 -0.009312169 0.0006118094 -0.051635917 0.022258786 -0.075331904 -0.07991942 0.077885315
-0.0036113595 -0.059112485 -0.0151190795 -0.04627097 -0.0090175 0.036994345 -0.019074302 -0.08570716
-0.05432409 0.040226605 0.06932907 0.07751645 -0.0295319 0.06346586 0.07819981 0.012102377
-0.025814552 0.043230455 0.06500511 0.014181496 0.019609572 -0.039353646 -0.06518499 -0.06803291
-0.012338415 0.037962086 -0.07658441 0.037906468 0.07070822 -0.051881157 -0.007755791 0.051674508
-0.042444218 -0.07157685 -0.030749949 0.08086291 0.0064617745 0.017949881 0.030479196 0.045122974
0.006434466 0.032736383 0.060986266 0.04095697 0.03130976 -0.06956799 0.07152846 -0.025911631
0.010366024 -0.026884312 0.03406861 -0.03307986 -0.08534956 -0.04420008 0.0131531 0.032541465
-0.07353265 -0.0010158787 0.0031175495 0.084406644 0.0039098053 -0.08175262 -0.053258985 -0.03923192
-0.055403654 -0.07495687 0.06287365 0.01808831 -0.040550414 0.010134203 0.07176897 0.047612675
0.030151129 -0.02180463 -0.081437334 -0.020303892 0.06345949 -0.015334362 -0.09157036 -0.07278462
-0.038905688 -0.062717155 0.06251059 0.029254284 -0.012638769 0.047849584 -0.053619653 0.0069491593
0.035610136 -0.04621298 0.030927148 -0.09388172 0.06516554 0.03262405 -0.01957682 -0.0152950315
-0.040783085 -0.061181843 -0.016085017 0.012008944 0.046644885 0.038297772 0.05102603 -0.055340223

encoder_lstm.bias_ih_l0 f4 [512]
00000000: 14ec 4d3d 1b1b 3dbd aeb6 32bd 1e65 b93d
00000010: 5f8d 98bd cde6 18bc af00 343c 9fbf 11bc
00000020: 6800 a9bd 5b8c 88bd 83d1 a93c 1165 07bd
00000030: 5137 743d 6c0d dbbc 3c28 663d 7152 9e3d
00000040: 809e 17bd b9af 553d acff 793c c6c6 c4bc
00000050: 8ea4 6ebd 935b 3dbd a8d5 44bd b3bc 313d
00000060: f4d7 a3bc a2a8 0e3d 477f 913d f62f 2ebd
00000070: d37e d8bc 2fb1 bdbc c229 583d d4cb 743c
00000080: 85b2 6abd 07e6 0e3d 5501 f8bb 6d9b 57bd
00000090: d4bb f23b a270 433d e3fd 9b3d ce6a 7cbd
000000a0: 1dff 9d3c 559b 17bc 494f 0ebc 3bab 2b3c
000000b0: bd54 a3bd 36d8 d9bc 1d6d f03c 71e2 313d
000000c0: a489 7a3d a859 d3bc f6ac d0bc 7130 9ebb
000000d0: be94 34bc 69d3 583d acfd fe3c b36e b5bd
000000e0: 54c8 003c d180 8b3d fd00 0a3d ce37 9dbd
000000f0: c1a9 813c b865 97bc 84f5 96bc dada 0cbd
00000100: 1f7d 3b3d aa8b a23d c324 ee3c b701 843d
00000110: 46e3 243c 07fc 80bd 060a dfbc e59a e6bc
00000120: a43d 06bc 8455 823c 2f9e 953d 9f7a 8cbd
00000130: dba6 0b3d 81c2 a8bd a423 013d 8eb3 1a3d
00000140: eacf 153d be6c 023c 29ef 853d de35 5dbd
00000150: b180 8ebd 6724 21bd d69b 8d3d 93cb f33a
00000160: 48b0 093d ecb1 1a3d 7e4c 49bc 94cc af3d
00000170: 967c 173d e15e 3d3d 3678 de3c 79ee a83d
00000180: 1188 303d 908c 9cbd 3c1d 0c3d 5851 7ebd
00000190: deeb ebbc 90c2 df3c ce2b ea3c 9f0e 413d
000001a0: aa2b 763d 4514 a9bd 1563 efbc c89b 89bd
000001b0: ca33 e03a 7709 30bd 5702 733d cece 8abd
000001c0: e61a bcbb ca18 4fbd 0209 b63d f33f 85bd
000001d0: cffa 923d c690 5c3d 4258 b3bd 5bbe 17bd
000001e0: bf31 35bd 1f99 13bd bb8d 123d 5e38 853d
000001f0: 8a71 81bd f68a 70ba 3f67 92bd 12d3 4b3d
00000200: 949c e03c 321c 843d 9c58 8f3d 8f1b 8abd
00000210: 60f3 693d 2797 693d d32d 86bd 2dd8 49bd
00000220: 867a 1e3d 2ada b13b 9e72 49bd 1f66 823d
00000230: e326 ba3c 942a a5bd 3104 443d 02a4 c0b9
00000240: 9cb8 76bd d0ea 703d 0767 85bd 56a1 1ebd
00000250: 6349 80bd 2ac7 803d 05ef bcbc bb3b 8abc
00000260: 5b1f 0cbc d349 76bd d5fc 543d 23c0 3f3d
00000270: 5940 9b3d 8a33 523d 4b43 843d f1c4 b9bb
00000280: 33a2 aabd 04bd 80bc 5d40 cc3b 0144 f3bc
00000290: 2ea6 54bd 7039 f03c 8f05 71bd 8f6c 383c
000002a0: ce9b 9ebd 02f8 9e3d e705 76bd 02a8 893d
000002b0: 448c 873c 17d9 f13c e58f d0bb 4a4d 67bd
000002c0: b3b1 823d 9861 c8bb 7746 633b 7468 bbbc
000002d0: 2f6a 5e3d 4260 3fbd b08d 0dbc 1a97 a03d
000002e0: 57e7 6e3d 5055 a43c 95d9 943b c307 a3bd
000002f0: 6357 23bd af55 513d 7a22 693d 09bb 053d
00000300: 052e 163d e3b9 babc 8607 3d3d 513e 0b3d
00000310: 27d5 afbc ea6e ec3a 930a 4dbb dc54 0f3d
00000320: 1ce6 cabc 51a9 1bbd c0ae 303d 6d8f 78bd
00000330: 2bac b5bc a372 91bd a054 9b3d e5dc 6bbd
00000340: 4386 b73d 46a0 32bd 406c b1bd 8dcd cd3b
00000350: 6f0e 07bd f63f 8fbc ce66 383d b2fb a93c
00000360: 1052 f93c beb0 9d3d 9e3f 50bc a538 38bd
00000370: 9e8f 12bc 7f45 3dbd 7cb4 afbd a2ea f73b
00000380: ec37 4a3d 45ec 99bc dfab 873d 7630 e8bc
00000390: bdb7 62bd 7848 3ebd 72d9 50bd 4552 4d3d
000003a0: 8585 31bd 5634 1b3a 17fe deba 0dad c53c
000003b0: 682a ce3c 786f ffbc c181 133c 66b5 5a3c
000003c0: 9127 073d 4b04 943d 43b1 a2bc 7519 8e3d
000003d0: 008e 39bd 9046 adbd a1b9 a63c 5ab4 743d
000003e0: 655c 58bd 9131 913d a82f a2bb 610a 52bd
000003f0: 381a af3c 1e7a 71bd cc42 90bd aa6d 8c3d
0.05027397 -0.046168428 -0.04363125 0.0905249 -0.074488394 -0.009332371 0.010986491 -0.008895784
-0.082520306 -0.06667396 0.020729786 -0.03305537 0.059623066 -0.026739798 0.056190714 0.07730568
-0.03701639 0.052169535 0.015258711 -0.024020564 -0.0582624 -0.04622991 -0.04805532 0.04339285
-0.020000435 0.03482879 0.07104354 -0.042526208 -0.026427662 -0.023155777 0.0527742 0.014941175
-0.057299156 0.03488734 -0.007568518 -0.05263846 0.0074076448 0.047714837 0.076167844 -0.061625294
0.019286687 -0.009253343 -0.008685895 0.010477836 -0.07975147 -0.026592355 0.029348904 0.043428842
0.06116642 -0.025799587 -0.0254731 -0.004827552 -0.011021791 0.05293599 0.03112682 -0.08859005
0.007860262 0.06811679 0.03369235 -0.076766595 0.015828015 -0.01848112 -0.018427618 -0.0343884
0.04577362 0.07936795 0.029070264 0.064456396 0.010063952 -0.062980704 -0.02722646 -0.028150031
-0.008193407 0.015909918 0.07305562 -0.068593256 0.034094673 -0.08240224 0.03152813 0.037768893
0.036575235 0.0079604965 0.06539757 -0.05400645 -0.0695814 -0.039341357 0.06914489 0.0018600099
0.03361538 0.037767336 -0.012286304 0.08583942 0.03698405 0.04623306 0.02715693 0.0824861
0.043098513 -0.07643998 0.034207568 -0.062089294 -0.028798994 0.027314454 0.02858534 0.047133084
0.060100235 -0.08255819 -0.02922205 -0.06719166 0.0017105278 -0.042977776 0.059328403 -0.06777726
-0.005740511 -0.05056075 0.08888437 -0.06506338 0.07176744 0.053849004 -0.08757068 -0.03704677
-0.044236895 -0.0360347 0.035779696 0.06504892 -0.06320484 -0.000917598 -0.07148599 0.04976184
0.027418412 0.0645069 0.06999323 -0.06743538 0.057116866 0.057028916 -0.06551709 -0.049278427
0.038691066 0.0054276185 -0.049181573 0.06367134 0.02272362 -0.08064762 0.04785556 -0.0003674329
-0.06023465 0.058817685 -0.065137915 -0.03872808 -0.062639974 0.062879875 -0.023063192 -0.016874185
-0.008552398 -0.060128998 0.051998932 0.046814095 0.07580633 0.051318683 0.064581476 -0.005669229
-0.08331718 -0.01571513 0.0062332586 -0.029695513 -0.051916294 0.029324263 -0.05884319 0.011256351
-0.07744561 0.077621475 -0.060064223 0.06721498 0.016546376 0.029522462 -0.00636481 -0.056470193
0.0638155 -0.0061151497 0.0034679451 -0.022876956 0.054300483 -0.046722658 -0.008639738 0.0784132
0.05832609 0.020060211 0.0045425394 -0.07960465 -0.03987826 0.051107105 0.056917645 0.032649074
0.03666498 -0.022793716 0.046149753 0.033994976 -0.021463944 0.0018038426 -0.003128682 0.034993038
-0.024767928 -0.03800327 0.043135405 -0.060683656 -0.022176823 -0.07101943 0.075845 -0.05758371
0.08961155 -0.04360988 -0.08663225 0.006280607 -0.03297275 -0.017486554 0.045019917 0.0207499
0.030434638 0.076997265 -0.01271048 -0.044975895 -0.008945374 -0.046208855 -0.085793465 0.007565812
0.049369738 -0.01878942 0.06624579 -0.02834342 -0.055351008 -0.04645583 -0.050988622 0.050127286
-0.043340225 0.00059205794 -0.001701298 0.024130369 0.025166705 -0.031181082 0.009003104 0.013348913
0.032996718 0.07227381 -0.019859916 0.06938449 -0.045301437 -0.08460724 0.020352187 0.05974231
-0.05282249 0.07089532 -0.0049495287 -0.05127943 0.021374807 -0.05895435 -0.070439905 0.06856854

encoder_lstm.bias_hh_l0 f4 [512]
00000000: ced1 0abd 811a 7fbd c10e a63d 5afc a73d
00000010: daa3 ac3d 1423 6abc 10c5 8dbd a1b7 65bd
00000020: 1a57 f8bc 61ef 0e3c eb52 a8bd 5d3a b0bd
00000030: c803 f6bc bb23 4abd b3cc a8bc 3a1f 393d
00000040: 3bab ad3d 4b5c 6ebc b566 97bb cc62 95bd
00000050: 0257 87bd 40a7 e33c 9490 b63b 0e6a c43c
00000060: 9253 8dbd 8877 4fbd 9c5d e2bc f140 94bc
00000070: 7d35 f0bc 178d 9dbc ddbe 9bbc 9bed 673c
00000080: 18cd a9bc 255b a2bc ed0d 923c 57a3 d63c
00000090: 7f61 94bc b7ca d7bc 43ad b1ba 024d 77bd
000000a0: f37f 183d 0e7d 693d 1fb9 9cbd 94e2 973d
000000b0: f6ee 70bd 14fb 95ba b4cb 24bd aa4c 89bd
000000c0: a823 943d 82c5 b93c 103b 03bc 1461 6b3d
000000d0: a601 c6bd c706 423b c420 35bd 960a 16bc
000000e0: 9b9c 9e3c efc0 863c 9c34 953d e1cc b23d
000000f0: cc3f 963d 5586 ab3d bcb2 813c 28ae 2bbd
00000100: 9f42 e0bc 96f5 72bd ba84 b3bd 60bb a13c
00000110: f16b 94bd 4fef 9e3d 3305 47bc df49 933d
00000120: 7fd4 a0bd 2cb8 b93c 6b40 9abd 689e 38bc
00000130: 1cbe 43bc 09be 343d ac72 fbbc 5999 94bd
00000140: 7f55 c4bc 0c5e 64bd 6084 c93c 866e 0bbd
00000150: 6e75 3c3d 920e de3b e4fa 733d f9fc b73c
00000160: d972 7b3d cc37 823d 0fb7 c23a 8aba a4bd
00000170: 21ed 8fbd 5214 f1bc babf db3c 5bc3 793d
00000180: f653 6f3d 0fc5 6ebb 900b 71bc 41f9 183d
00000190: c9e6 683d 15b9 55bc 3aaa 9b3d ae68 3abd
000001a0: 77b3 413d 3338 073d 36e7 a13d 2d87 883b
000001b0: 4daa 96bd d8ec 2ebd 178e 63bd 2c96 103d
000001c0: cae2 2dbb 7903 503c f190 223d 0593 a7bd
000001d0: f481 d3bb 7eab 9cbc 6a5a dd3c 4e5d 873c
000001e0: fd3a 9a3d ffa8 3b3d abb6 86bd e519 d2bc
000001f0: 84aa 093c de42 60bb ab8e c93c daf7 24bd
00000200: 0712 94ba 3100 a43b f88b 593c be40 2f3d
00000210: c783 6e3d 00db 92bd 9585 933c dec7 3d3d
00000220: 9dc6 a7bc 6efb 2f3d b7c0 973d bdca b5bb
00000230: b896 b23d 24ba c5bc 3710 9b3d 5630 413d
00000240: bc3b 2bbd 9131 523d 96e8 6bbd ce2d 28bd
00000250: 97b2 3c3d 2246 da3c a410 2bbd bfe2 a13d
00000260: e1ed e83c e2cb acbd 814f adbd 6daa 23bc
00000270: b13b 0cbd 796d d1bc ec9f 57bd 06d7 7bbd
00000280: 92ee 8b3d 4cc9 543d 713f 44bc 3502 3ebd
00000290: e5e2 46bc 477f 44bb 3ff2 9ebd 3c2b dd3a
000002a0: 626d a13d c998 c7bc 6069 943d d207 883c
000002b0: a4b2 d83c cf78 20bd 9d1c b9bc 9432 b23c
000002c0: 48b8 aabd a92d 1d3d 698a 5cbd 8d0e fb3b
000002d0: 13eb acbd 85b3 bdbd 76c3 0e3d 7650 e1bc
000002e0: 80a7 84bc 214f 3abc 27dd 5b3c 9dc2 843c
000002f0: 5283 a7bd 5cf4 75bd a19c e1bc 9d68 883d
00000300: e10e 513d f357 903d 713c 94bd 6f1c dd3c
00000310: c1d5 443d fb81 0e3d c00d 87bd b3e1 aebd
00000320: f185 9ebc bbcc 8c3d e4f6 303d c4c0 9ebd
00000330: ff47 79bd 3e97 843d 0f00 64bd a5e3 4c3d
00000340: 1f07 b23d ff8e 943d 28c5 7ebd 84c8 dc3c
00000350: 0951 ed3c 6553 a03d f02a a93c 20de bcbd
00000360: c4dd 9f3d c56a 14bd 86bf c9bc 1611 91bd
00000370: d2b4 bebc 1c18 c2bd cf9c c2bc ddd3 8c3d
00000380: 7659 a5bc 4595 3dbd 7045 9dbd b650 6a3c
00000390: 9be4 943d 79ba 15bc a725 bd3c 27b1 1dbd
000003a0: 27a5 7ebd 0d5f 503d a0ad 45bd 2d15 a43d
000003b0: a519 bcbc 35b2 d63b 394d 03bd 8a93 033d
000003c0: 9892 da3c 499a afbd c3ec 1abd 0d41 44bd
000003d0: 151f 6d3d c99a a13d cf57 b9bd 01b2 653c
000003e0: 1ddd 703d 7a1c 5dbd 5b1c 44bd 58cc b7bd
000003f0: fee6 8dbc a122 b1bd 6f91 07bd b5d5 15bd
-0.03389149 -0.062281135 0.08108283 0.08202429 0.0842969 -0.01429059 -0.06922352 -0.056083325
-0.03031497 0.008724065 -0.0821894 -0.08604882 -0.0300311 -0.04935048 -0.02060542 0.045195796
0.08479925 -0.014548372 -0.004620398 -0.07294235 -0.06608392 0.027789712 0.0055714343 0.023976352
-0.069007054 -0.050651103 -0.027632527 -0.018097373 -0.02932238 -0.019232316 -0.01901191 0.014155771
-0.02072768 -0.019818852 0.017828906 0.026200933 -0.018112896 -0.02634178 -0.0013555664 -0.060376175
0.037231397 0.057004027 -0.076524965 0.07416263 -0.05882164 -0.0011442625 -0.04023333 -0.06704076
0.072333634 0.022677187 -0.008009687 0.057465628 -0.09668283 0.002960609 -0.0442207 -0.009157797
0.019361785 0.01644942 0.07285425 0.08730484 0.07336387 0.08375231 0.015832298 -0.041914135
-0.027375517 -0.05931624 -0.0876555 0.019742668 -0.07247151 0.07760488 -0.012147236 0.07191824
-0.078530304 0.022670828 -0.07531818 -0.011268236 -0.011947181 0.044126544 -0.030694328 -0.07255811
-0.023966549 -0.055753753 0.024599254 -0.03404095 0.046010427 0.0067766393 0.05956544 0.022459494
0.061388824 0.06358299 0.0014855581 -0.08043392 -0.070276506 -0.029428635 0.02682482 0.06097732
0.05842968 -0.0036433374 -0.014712229 0.037347082 0.05686072 -0.013044615 0.076008275 -0.045509987
0.04729029 0.03301258 0.07905428 0.004166505 -0.07356701 -0.04270634 -0.05555543 0.035299465
-0.0026532882 0.01269614 0.03968901 -0.081823386 -0.0064547006 -0.019124743 0.027020652 0.016523983
0.07530782 0.045815464 -0.0657781 -0.025647113 0.0084024705 -0.0034219543 0.024604162 -0.040275432
-0.0011296876 0.0050049056 0.013278 0.042786352 0.05823114 -0.07170677 0.018008033 0.046333186
-0.020480448 0.04296439 0.07409804 -0.00554785 0.087201536 -0.02413661 0.07571452 0.047165237
-0.041805014 0.0513168 -0.057594858 -0.041059308 0.046068754 0.02664477 -0.041763917 0.079045765
0.028433742 -0.08437325 -0.0846243 -0.009989363 -0.034236614 -0.025564896 -0.052642748 -0.06148436
0.06832613 0.051949784 -0.011978016 -0.046388824 -0.012139057 -0.002998309 -0.077610485 0.0016873847
0.07882191 -0.024364846 0.07246661 0.016605292 0.02645237 -0.039177712 -0.022596652 0.021752633
-0.0833593 0.038373623 -0.053842936 0.0076616467 -0.08443274 -0.09262756 0.034854375 -0.027504187
-0.016193151 -0.011371405 0.013419426 0.01620608 -0.08179344 -0.060047492 -0.027540507 0.066605784
0.05103958 0.07048025 -0.07238091 0.026991097 0.048055414 0.034791928 -0.065944195 -0.085391425
-0.019350978 0.06874987 0.043204203 -0.07751611 -0.060859676 0.0647416 -0.05566412 0.050021786
0.086927645 0.07253837 -0.06219974 0.026951082 0.028969305 0.07828406 0.020650357 -0.092220545
0.0780597 -0.036234636 -0.024627458 -0.07083337 -0.023279581 -0.09477255 -0.023756413 0.06876347
-0.02018426 -0.046284933 -0.0767926 0.01430147 0.072701655 -0.009138697 0.023089243 -0.038499024
-0.06216922 0.050871897 -0.048261285 0.080118515 -0.022961447 0.0065520057 -0.032056067 0.032123126
0.02668123 -0.085743494 -0.03782345 -0.0479136 0.05789097 0.07890851 -0.09049951 0.01401949
0.05880462 -0.053982235 -0.047878604 -0.08974522 -0.01732206 -0.08649183 -0.03309768 -0.03658076

encoder_attn.weight f4 [1, 296]
00000000: a243 f3bc a00a 423d dad4 1ebd e22e eabc
00000010: d037 5b3c d09b 2e3d 0068 5d3c 5c55 d1bc
00000020: b6ec 2b3d d0ec 173d b4fd 56bc de0e 353d
00000030: 37da dcbc 26f0 503d b82d d43c 84a0 d23c
00000040: 40c9 c73c 0820 0fbc 4d75 2abd 0e47 8bbc
00000050: a8f6 43bd 56da 4fbd 10fd 10bc 22f4 003d
00000060: a883 97bb 7cda d53c d8d2 3e3d 1ce6 b13c
00000070: c716 f8bc 8669 6d3d 9a83 0d3d fe18 71ba
00000080: 30af 183d 6661 1c3d 20fa 3bbb 5831 6cbc
00000090: c012 fb3b 37ce 6cbd d36f 58bd d8d7 303c
000000a0: 1683 c5bc 6051 e23b 18f2 43bd b475 ca3c
000000b0: 2c28 2d3d b90e 27bd d007 04bb 33d8 f1bc
000000c0: 21f3 db3a 74b3 ef3c d037 5d3d 40de d4bc
000000d0: a005 5f3b dec8 c7bc 9ed2 ecbc 5ee7 0f3d
000000e0: 18ce aebc 074c 6abd 38ff 6cbd b8f2 10bd
000000f0: a401 563d d097 0c3d 7c25 a23c d278 253d
00000100: 0644 fcbc f886 153d 803a 053d f870 4ebd
00000110: 70a2 8f3c 3475 273d 503a 863c ee36 443d
00000120: 1c4b e2bc 6c13 62bc 1418 1b3d 780f 463c
00000130: dc0e 663d b4c4 0d3d 1eba 423d 10f5 073d
00000140: 682b 3a3d ff9a 70ba 19a3 79bb 9c39 efbc
00000150: 886c 483c d052 533d 6c1c f9bc 88ac 6b3c
00000160: 3232 8ebc e06d bd3b b0bb 8e3c c41b f6bc
00000170: bebe 4e3d 90d4 573d d0b7 49bc df49 0dbd
00000180: c689 e5bc 6836 8f3c 0f85 1abd 9e14 6b3d
00000190: d794 6cbd 8007 76bc 4c56 b03c 6a4c 25bd
000001a0: 3b98 5ebd 3ce9 053d 0ca5 3d3d d8dd 0cbd
000001b0: e0e2 8d3c 1cd8 913a 24bb 7ebc 283a 223d
000001c0: c839 cd3c 2833 803c 167d 00bd 261e 593d
000001d0: 505a eebc b08b 4c3d e974 60bd ea0d c1bc
000001e0: 6086 c83b b89b 42bd 4a2e 4fbd 803d 6abd
000001f0: 84a2 d83c 3811 3c3d f83b f6bb e021 0e3c
00000200: 7521 09bd c39a 21bd d8a1 a13c aa1a 2d3d
00000210: d424 44bd 992d ebbc fe14 0b3d 64ab d2bc
00000220: c4ad 97bc 0815 6f3c 253a 69bd 6815 473c
00000230: 4ebf 623d ce61 4bbd 510b 6abc 90cd c3bc
00000240: 1705 46bd 586b febb e6ea 83bc f0b8 533d
00000250: 687c 213d 8282 343d 203d 8b3b ecac d93c
00000260: 1af6 383d 1ca7 33bd b3d0 d7ba 8c3b 60bc
00000270: 1cc8 623d 9cff a6bc 7874 a9bb 5e79 01bd
00000280: 34a8 8abc 127c 34bd a78d 14bd 7311 53bd
00000290: 3805 223d c052 3e3d cdbd 14bd d26a aabc
000002a0: 0c5a 303d c4c3 bebc 8000 02bc c82b a2bc
000002b0: cc11 d53c 54c0 583d c0a4 b2bc c8b0 8b3b
000002c0: 60f4 32bb 00d7 c73c a638 49bd d1fd 4cbb
000002d0: 2f4e 09bd bff7 01bd 4001 d23b 4269 2a3d
000002e0: 1856 d63c d089 0abd b374 f639 74bd 5a3d
000002f0: 4a32 c2bc 99cc 17bd 36e3 553d d099 f93b
00000300: 0058 503c 8016 b5bb 9029 5dbc b22b 2bbd
00000310: 60d1 4d3c a826 22bd e257 673d 7804 b4bb
00000320: b04d 473c 96a5 2c3d e093 7e3c 168d 26bd
00000330: 18d0 963c 4097 b53b fa84 15bd e068 393d
00000340: 34bd abbc b0ff c2bc 937b 46bd 3c4d e5bc
00000350: b4b8 18bc a9f0 fdbc 28aa 9a3c b0d4 783b
00000360: 9e38 3ab9 98df b1bc f8a7 3bbc becb d1bc
00000370: 6956 06bd 50e8 fc3b 54f1 673d 44b4 bf3c
00000380: 6801 e03c 8870 40bc 1793 19bd 3e0f 2a3d
00000390: 004f 153d 50eb 2c3d 58e8 193d d0f1 e8bb
000003a0: 9288 a4bc e088 49bc 6097 743c 5009 833c
000003b0: d879 5a3c 02fe 88bc c21d 3d3d 2874 edbc
000003c0: 95b2 65bd 6857 5d3c 0736 38bd 5a4c 6bbd
000003d0: c0b2 163d 3866 f53c 1215 b0bc 9024 85bc
000003e0: d00b 8e3c 8b1f e4bc da4b 13bd fc5e ae3c
000003f0: 0c09 f03c 868d 07bd 0c5f bc3c 2c10 0f3d
-0.029695336 0.047373414 -0.03877721 -0.028586809 0.013380006 0.042629063 0.013513565 -0.025553398
0.041973792 0.037091076 -0.013122011 0.04420363 -0.026959522 0.051010273 0.025900707 0.025711305
0.024387956 -0.008735664 -0.041615773 -0.017001655 -0.04784265 -0.05074533 -0.008849397 0.031482823
-0.004623849 0.026105158 0.046587795 0.02171617 -0.030284299 0.057961963 0.034549333 -0.00091971445
0.037276447 0.038178824 -0.0028683022 -0.014416061 0.0076621473 -0.05781385 -0.05284102 0.010793649
-0.024110358 0.0069066733 -0.0478383 0.024714328 0.04227464 -0.040785525 -0.0020146258 -0.029522037
0.0016780832 0.029260375 0.054008305 -0.025984883 0.0034030452 -0.024387773 -0.028909024 0.03513276
-0.021338508 -0.05720141 -0.057860583 -0.035387725 0.05224766 0.034324467 0.019793265 0.040398426
-0.030794155 0.03650567 0.032526493 -0.050400704 0.01753351 0.040883258 0.016385227 0.047903948
-0.027623706 -0.013798576 0.03786476 0.012088649 0.056166515 0.03461142 0.047540776 0.033192694
0.04545155 -0.00091783697 -0.0038091599 -0.029202275 0.012232907 0.051592648 -0.03040906 0.014384396
-0.01735792 0.0057809204 0.01742348 -0.030042537 0.050474875 0.05269295 -0.012311891 -0.034494277
-0.028019797 0.017481998 -0.03772455 0.05739271 -0.057759132 -0.015016437 0.021525525 -0.040356077
-0.054344397 0.032693133 0.04629998 -0.034391254 0.017320096 0.0011127028 -0.0155475475 0.039606243
0.025051966 0.015649393 -0.03136929 0.053007267 -0.029095799 0.049937904 -0.054798994 -0.023566205
0.0061195344 -0.047511786 -0.050581254 -0.057187557 0.026444681 0.04591486 -0.007514473 0.008675069
-0.033479173 -0.039454233 0.019730493 0.042261757 -0.047886685 -0.028708266 0.033955567 -0.025716491
-0.018515475 0.014592417 -0.056940217 0.0121511 0.055358224 -0.04965382 -0.014284925 -0.02390173
-0.048344698 -0.007764261 -0.01610322 0.051690042 0.039425284 0.044069774 0.00424923 0.026571713
0.045156576 -0.04386054 -0.0016465395 -0.013686072 0.05536662 -0.020385556 -0.005171355 -0.031609885
-0.016925909 -0.044063635 -0.036267903 -0.051530313 0.03955576 0.046465635 -0.03631382 -0.020802889
0.043054625 -0.023286708 -0.0079346895 -0.019796267 0.026009463 0.052917793 -0.021807075 0.0042630173
-0.0027306303 0.024394512 -0.04912629 -0.0031279216 -0.033521827 -0.03173041 0.0064088404 0.041604288
0.0261641 -0.033822834 0.00047007724 0.053403333 -0.02370562 -0.037060354 0.05221864 0.007617213
0.012716293 -0.005526364 -0.013498679 -0.041789718 0.012562126 -0.039587647 0.056480296 -0.005493697
0.012164518 0.042150103 0.015538186 -0.040661894 0.018409774 0.005541712 -0.03650377 0.045266032
-0.020964243 -0.023803562 -0.048457693 -0.02799093 -0.00932138 -0.030998545 0.018879965 0.0037968569
-0.00017759434 -0.021713063 -0.011453621 -0.025609847 -0.03279725 0.0077181235 0.056626633 0.023401387
0.02734442 -0.01174558 -0.03749379 0.041518442 0.036452293 0.0422166 0.037575096 -0.0071089044
-0.020084653 -0.0123007 0.014928669 0.015995651 0.013334714 -0.016722683 0.046170957 -0.028986052
-0.056078512 0.013509609 -0.0449734 -0.05744586 0.036791563 0.029955968 -0.021494422 -0.016252786
0.017339617 -0.027847072 -0.03596101 0.021285526 0.029301189 -0.03309395 0.02299454 0.034927532

exp_avg f4 [7, 7]
00000000: 0000 0000 0000 0000 0000 0000 0000 0000
00000010: 0000 0000 0000 0000 0000 0000 0000 0000
00000020: 0000 0000 0000 0000 0000 0000 0000 0000
00000030: 0000 0000 0000 0000 0000 0000 0000 0000
00000040: 0000 0000 0000 0000 0000 0000 0000 0000
00000050: 0000 0000 0000 0000 0000 0000 0000 0000
00000060: 0000 0000 0000 0000 0000 0000 0000 0000
00000070: 0000 0000 0000 0000 0000 0000 0000 0000
00000080: 1d79 4b30 0000 0000 0000 0000 0000 0000
00000090: 0000 0000 0000 0000 0000 0000 0000 0000
000000a0: 5444 2430 0000 0000 0000 0000 0000 0000
000000b0: 0000 0000 0000 0000 0000 0000 0000 0000
000000c0: ab95 522f
0.0 0.0 0.0 0.0 0.0 0.0 0.0 0.0
0.0 0.0 0.0 0.0 0.0 0.0 0.0 0.0
0.0 0.0 0.0 0.0 0.0 0.0 0.0 0.0
0.0 0.0 0.0 0.0 0.0 0.0 0.0 0.0
7.402308e-10 0.0 0.0 0.0 0.0 0.0 0.0 0.0
5.975995e-10 0.0 0.0 0.0 0.0 0.0 0.0 0.0
1.9152561e-10

exp_avg_sq f4 [7, 7]
00000000: 0000 0000 0000 0000 0000 0000 0000 0000
00000010: 0000 0000 0000 0000 0000 0000 0000 0000
00000020: 0000 0000 0000 0000 0000 0000 0000 0000
00000030: 0000 0000 0000 0000 0000 0000 0000 0000
00000040: 0000 0000 0000 0000 0000 0000 0000 0000
00000050: 0000 0000 0000 0000 0000 0000 0000 0000
00000060: 0000 0000 0000 0000 0000 0000 0000 0000
00000070: 0000 0000 0000 0000 0000 0000 0000 0000
00000080: fb4c 951f 0000 0000 0000 0000 0000 0000
00000090: 0000 0000 0000 0000 0000 0000 0000 0000
000000a0: db17 0d20 0000 0000 0000 0000 0000 0000
000000b0: 0000 0000 0000 0000 0000 0000 0000 0000
000000c0: 23cc 8221
0.0 0.0 0.0 0.0 0.0 0.0 0.0 0.0
0.0 0.0 0.0 0.0 0.0 0.0 0.0 0.0
0.0 0.0 0.0 0.0 0.0 0.0 0.0 0.0
0.0 0.0 0.0 0.0 0.0 0.0 0.0 0.0
6.323131e-20 0.0 0.0 0.0 0.0 0.0 0.0 0.0
1.1951058e-19 0.0 0.0 0.0 0.0 0.0 0.0 0.0
8.863177e-19

exp_avg f4 [7]
00000000: 0000 0000 d8b3 feae 9988 05af e474 9f2b
00000010: f8a3 dc2f fde7 342f b46a 81af
0.0 -1.15825294e-10 -1.2144809e-10 1.1330073e-12 4.0134274e-10 1.6453323e-10 -2.354078e-10

exp_avg_sq f4 [7]
00000000: 0000 0000 44f6 d81c e38c a51c 9ed7 9317
00000010: 07c5 a41e 4a06 151f a847 0321
0.0 1.4357339e-21 1.0955202e-21 9.554082e-25 1.7445664e-20 3.155718e-20 4.4479363e-19
