weights_new/EncoderEpochnew675_20_8.pt (torch_old, 862771 bytes, 27 tensors)

gamma_x_l.weight f4 [7, 7]
-0.039892763 0.14432094 0.07977557 -0.25175205 -0.13336398 0.13961712 -0.22666718 -0.24948199
-0.072006546 0.36402407 0.088453144 0.046605438 0.022559136 0.20876214 -0.124607 -0.14942226
0.87278026 0.22080973 0.15617463 -0.35443836 -0.3667789 -0.11095989 0.053911358 -0.25310898
-0.014219414 -0.061774224 -0.23537783 -0.16485004 0.15559915 0.3551909 -0.22006892 -0.3320074
0.73535806 -0.30322516 -0.08737016 0.09958705 -0.3506619 -0.18608345 0.3296379 -0.0339849
1.3583722 -0.18828435 -0.14964867 0.034010768 0.35427395 0.31372026 0.3499038 -0.13423471
1.3286763
00000000: 9866 23bd dec8 133e 6061 a33d a5e5 80be
00000010: 9190 08be caf7 0e3e 711b 68be 3578 7fbe
00000020: 2b78 93bd 5d61 ba3e ec26 b53d 58e5 3e3d
00000030: f0cd b83c bec5 553e f431 ffbd 2602 19be
00000040: 876e 5f3f f21b 623e 3eec 1f3e f278 b5be
00000050: 72ca bbbe f03e e3bd 28d2 5c3d 8097 81be
00000060: 8cf8 68bc f806 7dbd e306 71be 73ce 28be
00000070: 6255 1f3e 95db b53e bf59 61be e0fc a9be
00000080: 6d40 3c3f 5440 9bbe 20ef b2bd 4cf4 cb3d
00000090: f589 b3be a98c 3ebe 4dc6 a83e c033 0bbd
000000a0: 24df ad3f 9dcd 40be 803d 19be e04e 0b3d
000000b0: 6563 b53e f19f a03e 9726 b33e d374 09be
000000c0: 1112 aa3f

gamma_x_l.bias f4 [7]
-0.13782641 0.933795 1.0745028 0.6231084 0.7210739 1.096524 1.5662613
00000000: 5e22 0dbe 300d 6f3f 4f89 893f 0884 1f3f
00000010: 4d98 383f e65a 8c3f 407b c83f

gamma_h_l.weight f4 [128, 7]
0.27205274 0.16764283 -0.16466798 0.03587781 -0.25654152 0.06545137 0.36134654 -0.28499556
-0.34896648 -0.08390373 -0.2307424 -0.33120847 -0.2205525 -0.04412213 -0.2551983 -0.06849759
0.38588536 -0.108617745 -0.07688197 0.2791275 -0.25401917 -0.07109993 -0.22923335 -0.36526743
0.404138 0.38823766 -0.10099149 0.031155558 0.17118599 0.29499805 0.3340788 -0.2252513
-0.13978438 -0.41390774 0.17437007 -0.32949135 -0.269965 0.21565367 -0.12617788 -0.20918484
-0.13866308 0.691481 0.25446507 0.08488459 -0.10577803 -0.42559525 -0.38075423 0.5076477
0.42002434 -0.039429814 -0.28243366 -0.056892008 0.11116269 -0.14690916 0.017807782 -0.19919798
-0.03986832 -0.20219536 -0.3487956 0.07531276 0.045086466 0.27243087 0.3606295 -0.25848234
0.15878902 0.55232817 -0.028796926 -0.0015852017 0.11190818 0.6008629 -0.30365643 -0.18687801
0.16697833 0.48059246 -0.05495316 -0.14667079 0.35150152 -0.040173024 -0.24488501 -0.3448336
-0.24710673 -0.37002558 -0.15381967 0.2637619 -0.30595368 -0.07366192 -0.011398256 -0.109416395
0.0185996 -0.23352952 -0.29002222 -0.3051469 0.20746803 -0.13159774 -0.33364007 0.054228995
0.25959438 0.46643382 -0.36898288 0.23595098 -0.17119242 0.20599326 -0.15196824 -0.37484226
-0.05948499 0.2641433 0.3486547 0.3089387 0.34389415 -0.12507404 0.018221008 -0.40034074
-0.26593444 0.113117315 0.4531623 0.32786623 0.276127 0.23933601 0.019223476 0.17943941
0.25097457 -0.08241153 -0.03599232 -0.1156486 -0.26894718 0.25648728 0.4927274 0.08490787
-0.35619202 -0.0379739 -0.34510309 -0.43922457 0.11320933 0.44421965 0.3344321 -0.12401085
0.11187459 -0.28158978 -0.20856285 0.42739713 -0.19858299 -0.27377164 0.4631632 0.27377063
0.07235049 0.25905997 -0.3260372 0.30518427 0.23286472 -0.15739202 -0.029218012 0.21701592
-0.034602627 0.21073776 -0.32190856 -0.21933623 -0.31557494 0.22202617 0.46502826 -0.2691754
0.3880502 0.18586983 -0.3268886 0.26017082 0.35139015 0.008694763 0.027047815 -0.25524956
-0.3461468 0.03991592 -0.23268686 -0.0819208 0.21012416 -0.31670353 -0.30562067 -0.23605353
-0.12895346 0.49567536 -0.14733216 0.27493143 -0.38677755 0.2786247 -0.05038363 0.26902565
0.2547355 0.4779551 0.055310976 -0.3684541 -0.096028514 0.24604349 -0.14988112 0.39282903
-0.11150627 -0.23520163 -0.18739334 0.38057736 -0.3496586 -0.31954193 -0.2501548 0.1474323
-0.05921933 -0.04471895 0.17369637 -0.2255552 -0.19558902 0.34907514 -0.1586696 -0.24837014
0.25703046 -0.20208688 0.26708278 -0.21880369 0.31135342 -0.08586941 -0.38999215 -0.15996648
0.36491293 0.36658227 -0.1781991 0.33891213 -0.3314596 -0.08826881 -0.23034161 0.2627483
0.15937309 -0.3062939 0.11462315 0.39550546 0.04919595 -0.042128235 0.29898387 0.11644885
0.32107037 -0.17430997 -0.062144782 -0.26395708 0.3235354 0.20963798 -0.049493708 -0.3715272
-0.38181147 0.15957017 -0.24761344 -0.04692307 0.11328695 -0.236148 -0.14344072 -0.097854644
-0.14989567 -0.29084128 0.21537045 0.101091444 -0.053080533 0.09125206 0.43802205 0.5106616
00000000: 7f4a 8b3e 90aa 2b3e b99e 28be 9cf4 123d
00000010: 6959 83be 5e0b 863d 6a02 b93e f0ea 91be
00000020: bcab b2be b8d5 abbd bc47 6cbe 2894 a9be
00000030: 84d8 61be 68b9 34bd 5aa9 82be 7748 8cbd
00000040: c492 c53e fb72 debd 4b74 9dbd cde9 8e3e
00000050: cd0e 82be d79c 91bd 26bc 6abe 5504 bbbe
00000060: 2deb ce3e 16c7 c63e a0d4 cebd f139 ff3c
00000070: 614b 2f3e fc09 973e 600c ab3e 47a8 66be
00000080: a323 0fbe b7eb d3be 118e 323e 17b3 a8be
00000090: da38 8abe 51d4 5c3e c634 01be 8d34 56be
000000a0: b2fd 0dbe e604 313f 3f49 823e f9d7 ad3d
000000b0: 27a2 d8bd 9fe7 d9be 38f2 c2be 33f5 013f
000000c0: 6e0d d73e 2881 21bd 259b 90be 9807 69bd
000000d0: 44a9 e33d 5b6f 16be a0e1 913c 8efa 4bbe
000000e0: f74c 23bd 4d0c 4fbe 5695 b2be 943d 9a3d
000000f0: 96ac 383d 0f7c 8b3e 6ea4 b83e cc57 84be
00000100: 9799 223e 6165 0d3f 88e7 ebbc 8bc6 cfba
00000110: 1e30 e53d 27d2 193f db78 9bbe f35c 3fbe
00000120: 5efc 2a3e 3710 f63e 9116 61bd de30 16be
00000130: 02f8 b33e 788c 24bd 23c3 7abe 088e b0be
00000140: 8c09 7dbe fe73 bdbe e782 1dbe cd0b 873e
00000150: f6a5 9cbe 10dc 96bd c0bf 3abc b415 e0bd
00000160: 305e 983c 5d22 6fbe cb7d 94be 373c 9cbe
00000170: 8072 543e 8fc1 06be dfd2 aabe 391f 5e3d
00000180: 8ee9 843e 6ad0 ee3e 53eb bcbe 229d 713e
00000190: 114d 2fbe e6ef 523e 909d 1bbe 53eb bfbe
000001a0: 88a6 73bd ca3d 873e de82 b23e 372d 9e3e
000001b0: e512 b03e 6913 00be 3944 953c 76f9 ccbe
000001c0: 8f28 88be 0daa e73d e404 e83e 15de a73e
000001d0: 8560 8d3e 8014 753e 8d7a 9d3c f7be 373e
000001e0: bd7f 803e 60c7 a8bd af6c 13bd 2cd9 ecbd
000001f0: 72b3 89be 4d52 833e c446 fc3e 2de4 ad3d
00000200: cd5e b6be 858a 1bbd 5ab1 b0be 0be2 e0be
00000210: 4bda e73d c270 e33e af3a ab3e 67f9 fdbd
00000220: 811e e53d 892c 90be 8091 55be ccd3 da3e
00000230: 5759 4bbe cc2b 8cbe ba23 ed3e aa2b 8c3e
00000240: 7e2c 943d 82a3 843e 59ee a6be 1d41 9c3e
00000250: 1774 6e3e 602b 21be 9d5a efbc 6c39 5e3e
00000260: 7cbb 0dbd a4cb 573e 33d1 a4be ad99 60be
00000270: 0a93 a1be d45a 633e 2f18 ee3e 5cd1 89be
00000280: 84ae c63e a954 3e3e f15d a7be 1c35 853e
00000290: 69e9 b33e 7b74 0e3c 6193 dd3c 12b0 82be
000002a0: 273a b1be e07e 233d 7745 6ebe 18c6 a7bd
000002b0: ca2a 573e f726 a2be 507a 9cbe 04b8 71be
000002c0: 600c 04be 29c9 fd3e 3ede 16be d0c3 8c3e
000002d0: b507 c6be e6a7 8e3e 115f 4ebd bbbd 893e
000002e0: b16c 823e 88b6 f43e c38d 623d 04a6 bcbe
000002f0: 99aa c4bd d3f2 7b3e 707a 19be e320 c93e
00000300: 665d e4bd b2d8 70be 0ae4 3fbe 09db c23e
00000310: 7406 b3be 009b a3be 4a14 80be 7ef8 163e
00000320: f88f 72bd 382b 37bd 76dd 313e f1f7 66be
00000330: 7d48 48be fab9 b23e 497a 22be be54 7ebe
00000340: 7f99 833e ddef 4ebe 13bf 883e 130e 60be
00000350: b769 9f3e 4ddc afbd 0dad c7be 41ce 23be
00000360: ded5 ba3e acb0 bb3e d379 36be e485 ad3e
00000370: 13b5 a9be 47c6 b4bd acde 6bbe f286 863e
00000380: b332 233e 8ed2 9cbe 8bbf ea3d b17f ca3e
00000390: b181 493d a88e 2cbd 6a14 993e bc7c ee3d
000003a0: 5663 a43e 507e 32be 878b 7ebd 6225 87be
000003b0: 6fa6 a53e 57ab 563e eab9 4abd d038 bebe
000003c0: cb7c c3be 5d66 233e 618e 7dbe 6832 40bd
000003d0: fd02 e83d c8d0 71be 20e2 12be 0468 c8bd
000003e0: 407e 19be 26e9 94be 128a 5c3e 0809 cf3d
000003f0: f96a 59bd 5ce2 ba3d 6d44 e03e b8ba 023f

gamma_h_l.bias f4 [128]
0.369701 -0.14055073 0.07898611 0.1736254 -0.20816931 0.24090049 0.07633491 0.25129274
0.21726334 0.2751864 0.29682016 -0.05509433 0.116297394 0.23725542 0.12109622 -0.36278412
-0.37335607 0.18385117 0.38099703 0.15366578 -0.2945947 -0.24889441 0.41831037 0.057269376
0.29190347 -0.17669556 0.12237228 -0.09363859 -0.33568117 0.11900222 -0.0019921947 -0.23093474
0.16728327 -0.30480453 0.118959755 -0.37217525 0.11310847 0.09567867 0.20184176 -0.0054478347
-0.31325036 -0.114285514 0.054294955 -0.031603284 0.29860625 -0.27912638 0.3520752 0.09032728
0.10051231 -0.13577063 0.016214645 0.1544777 0.0037738383 0.34816375 0.23306976 0.13327894
0.07416607 -0.029056877 0.4299092 -0.1413581 0.057458013 0.41157404 0.066865675 0.18541628
0.23962118 -0.082523435 -0.038223922 0.24984042 -0.05462681 -0.21913375 -0.016555578 0.17791115
-0.3974277 -0.04190523 0.24905345 -0.14816909 0.03160326 -0.058974784 -0.2471606 -0.29590014
-0.111279346 0.20898265 0.02046505 -0.39667487 0.13257816 -0.051983424 -0.25125176 -0.36653864
-0.2634211 -0.06549086 0.38092473 -0.1872333 -0.027757877 -0.24027166 0.15389839 -0.060940467
-0.13550155 -0.102331735 0.31566444 0.05072035 0.29898846 0.21473679 -0.09860526 0.31338167
-0.23324998 0.20193176 0.117090635 -0.21188356 -0.3284703 0.18403456 -0.0120880725 0.28539294
0.186754 -0.11303766 0.37483683 -0.26218835 0.13467152 -0.31239557 0.20989625 -0.24342814
0.031696584 -0.32277942 0.059740808 0.121683046 -0.064048775 -0.02837821 0.39203027 0.32522607
00000000: 7349 bd3e 88ec 0fbe 78c3 a13d dbca 313e
00000010: 562a 55be 9eae 763e 7a55 9c3d 71a9 803e
00000020: 487a 5e3e 3be5 8c3e d0f8 973e 98aa 61bd
00000030: 542d ee3d 16f3 723e 4c01 f83d d7be b9be
00000040: 8728 bfbe 7b43 3c3e 0b12 c33e 905a 1d3e
00000050: 1ed5 96be 2dde 7ebe c72c d63e 4b93 6a3d
00000060: 5f74 953e aeef 34be 519e fa3d 97c5 bfbd
00000070: 67de abbe 70b7 f33d 7b8f 02bb 287a 6cbe
00000080: 4e4c 2b3e 570f 9cbe 2ca1 f33d c18d bebe
00000090: 6aa5 e73d 2ef3 c33d 9baf 4e3e c083 b2bb
000000a0: 5a62 a0be 860e eabd 6364 5e3d 7272 01bd
000000b0: ebe2 983e a7e9 8ebe 3343 b43e 82fd b83d
000000c0: 66d9 cd3d 7507 0bbe 93d4 843c 672f 1e3e
000000d0: 8052 773b 8542 b23e d7a9 6e3e 467a 083e
000000e0: 61e4 973d b008 eebc 0f1d dc3e 2ec0 10be
000000f0: 1859 6b3d d5b9 d23e dff0 883d c4dd 3d3e
00000100: 415f 753e 0c02 a9bd b090 1cbd 2bd6 7f3e
00000110: 5dc0 5fbd 9964 60be 909f 87bc 572e 363e
00000120: a57b cbbe d2a4 2bbd de07 7f3e a3b9 17be
00000130: 6c72 013d 8b8f 71bd ab17 7dbe 3980 97be
00000140: 6de6 e3bd 8cff 553e 52a6 a73c f818 cbbe
00000150: 92c2 073e 92ec 54bd 12a4 80be f4aa bbbe
00000160: 21df 86be 1220 86bd 9108 c33e 16ba 3fbe
00000170: 7d64 e3bc c609 76be 8a97 1d3e b69c 79bd
00000180: ebc0 0abe 4d93 d1bd c59e a13e 24c0 4f3d
00000190: 0415 993e f6e3 5b3e 8ef1 c9bd 9073 a03e
000001a0: 15d9 6ebe 33c7 4e3e 37cd ef3d 01f8 58be
000001b0: 422d a8be 8e73 3c3e 0d0d 46bc 061f 923e
000001c0: 713c 3f3e 4a80 e7bd 9dea bf3e 8d3d 86be
000001d0: 55e7 093e 50f2 9fbe 0bef 563e 3a45 79be
000001e0: 47d4 013d 5843 a5be c7b2 743d f634 f93d
000001f0: 012c 83bd 6b79 e8bc 31b8 c83e 0884 a63e

encoder_lstm.weight_ih_l0 f4 [512, 7]
-0.49051598 0.1623156 0.11976686 -0.51952666 -0.060590558 0.11175932 -0.69496024 -0.16077194
0.131139 0.07670348 0.24485543 0.27481785 -0.1515477 0.15797862 -0.12490797 -0.12095752
-0.03831533 0.1373128 -0.21148479 -0.1725312 0.31186143 0.7308293 0.008882678 0.15641439
0.05041279 -0.008586021 0.007377477 0.33659786 0.015796514 0.17497012 -0.1074925 0.4806779
0.05354608 0.13877206 -0.07940406 -0.056092177 0.043696146 0.09893948 0.013059214 0.05914662
0.046409223 0.092736006 -0.8099956 0.16996866 0.23685935 -0.62233937 0.2964482 0.05650251
0.006546925 -0.5516014 0.12513563 -0.30227092 0.15946431 -0.076161444 -0.085669674 -0.1045177
-0.20420462 0.13384582 -0.06694247 0.34929577 -0.1862798 -0.06355778 -0.21088663 -0.2806855
-0.023992982 0.087226026 -0.34491885 0.11290507 0.054320205 0.08564285 0.5372432 -0.10388674
-0.0646599 0.13495055 -0.0032667476 -0.22441228 0.5941992 -0.085080646 -0.021480493 -0.32600108
-0.5080956 -0.043258846 0.12961887 -0.41048914 -0.048463874 0.04691659 -0.18606779 0.19884638
-0.12164195 0.15891024 -0.07463813 -1.033882 0.06784986 0.42044264 -0.4522367 0.16865139
0.33237752 -0.110121354 0.09330592 0.026239995 0.105597146 0.57080674 -0.17140053 -0.3855031
0.114888094 -0.7992739 0.07939823 -0.34127825 -0.33276254 -0.060234725 -0.078971125 -0.54935825
-0.57455266 0.13691138 -0.13340525 0.13976048 0.018258844 -0.15781441 0.040869508 -0.16256145
0.08860636 -0.22938408 -0.39710897 0.20803994 -0.08330935 0.10143774 -0.24184231 -0.075626634
-0.37439936 -0.032219417 -0.31693542 -0.2243442 0.4067384 -0.119521484 -0.005506331 0.045612894
-0.43770278 -0.018675797 0.01467571 -0.06555124 0.19368893 0.272264 0.56940675 0.5849619
0.19919327 0.1927462 0.11415552 -0.24530646 -0.040011734 0.06730858 -0.37432447 -0.09623707
-0.01896915 0.028825505 -0.025171533 0.13014948 0.23036222 0.030425785 0.33615997 -0.19067429
0.47388363 -0.29680803 0.07346022 0.056384154 -0.26673114 0.13029028 0.16052346 -0.30181372
-0.16431586 0.029734313 -0.15230446 -0.0018511653 0.17061158 -0.119176626 -0.5190496 -0.025232935
-0.14977603 0.16223352 -1.0265689 -0.1529346 0.2494774 0.0037793568 0.26536867 -0.14109339
-0.15462585 0.34405974 -0.20158806 -0.110073805 0.19350737 -0.009999172 0.08795156 0.064708106
-0.34761846 0.1431267 -0.21208003 0.112960696 -0.38940406 0.57308865 -0.34305984 0.059588373
0.12977743 -0.15455696 0.24515626 -0.04559306 0.58238214 0.5548193 0.008416692 0.38595366
0.09550576 1.1865925 -0.40358612 0.14575589 -0.07493163 -0.04012405 0.09246169 -0.0357748
-0.09123498 0.34099913 0.04422818 -0.3101438 0.35612372 -0.28225088 -0.19912447 -0.056778572
0.5190157 -0.11736245 -0.4097072 0.34780502 -0.34954488 -0.060287446 0.15592727 -0.059467085
0.23678498 0.2023354 0.3076884 0.18499777 -0.010784805 0.37935188 -0.35001317 0.16246417
-0.16554065 0.44074857 0.07768168 -0.052711032 -0.15567933 0.29412073 0.53479946 -0.15436955
-0.59480375 0.38384417 0.31428698 0.5620688 -0.2136312 -0.063384786 0.09067668 -0.16630614
00000000: e924 fbbe 1036 263e 5448 f53d b3ff 04bf
00000010: ce2d 78bd 12e2 e43d eae8 31bf 66a1 24be
00000020: 4d49 063e b716 9d3d 62bb 7a3e edb4 8c3e
00000030: 522f 1bbe 26c5 213e c0cf ffbd 94b8 f7bd
00000040: 89f0 1cbd ba9b 0c3e 788f 58be 05ac 30be
00000050: 4dac 9f3e a117 3b3f a788 113c 182b 203e
00000060: a47d 4e3d 62ac 0cbc c3be f13b 8e56 ac3e
00000070: b167 813c 5e2b 333e 0725 dcbd 6a1b f63e
00000080: 2253 5b3d 431a 0e3e 999e a2bd e9c0 65bd
00000090: bbfa 323d c8a0 ca3d 50f6 553c ba43 723d
000000a0: 9917 3e3d 60ec bd3d df5b 4fbf 440c 2e3e
000000b0: 428b 723e a251 1fbf 0fc8 973e 2d6f 673d
000000c0: 9687 d63b c035 0dbf 8e23 003e 41c3 9abe
000000d0: 9d4a 233e 88fa 9bbd 9573 afbd 600d d6bd
000000e0: 041b 51be e10e 093e 2219 89bd e5d6 b23e
000000f0: 22c0 3ebe 952a 82bd aaf2 57be 03b6 8fbe
00000100: ee8c c4bc 8fa3 b23d 3499 b0be c63a e73d
00000110: dd7e 5e3d 8565 af3d c588 093f 92c2 d4bd
00000120: 696c 84bd 7a30 0a3e ee16 56bb 55cc 65be
00000130: 701d 183f c33e aebd dcf7 afbc 9de9 a6be
00000140: 8e12 02bf 3030 31bd cfba 043e a22b d2be
00000150: 0e82 46bd 9c2b 403d 8e88 3ebe 639e 4b3e
00000160: 6a1f f9bd 5eb9 223e e0db 98bd 3f56 84bf
00000170: def4 8a3d 4244 d73e 928b e7be f3b2 2c3e
00000180: 632d aa3e 4e87 e1bd 2d17 bf3d 42f5 d63c
00000190: 5143 d83d 6420 123f 9f83 2fbe aa60 c5be
000001a0: 734a eb3d 379d 4cbf 8a9b a23d 06bc aebe
000001b0: da5f aabe b0b8 76bd 9dbb a1bd bea2 0cbf
000001c0: e215 13bf 7f32 0c3e 639b 08be 5f1d 0f3e
000001d0: 9293 953c 1a9a 21be c966 273d 8276 26be
000001e0: 4077 b53d a9e3 6abe de51 cbbe 6c08 553e
000001f0: 189e aabd 97be cf3d 83a5 77be 23e2 9abd
00000200: 46b1 bfbe 82f8 03bd 5c45 a2be 7cba 65be
00000210: 0440 d03e aec7 f4bd 746e b4bb 96d4 3a3d
00000220: 941a e0be fcfd 98bc 6472 703c bb3f 86bd
00000230: 6456 463e 3066 8b3e a4c4 113f 10c0 153f
00000240: 52f9 4b3e 435f 453e 5fca e93d 9e31 7bbe
00000250: 58e3 23bd 15d9 893d 75a7 bfbe f117 c5bd
00000260: 3165 9bbc 7723 ec3c 8834 cebc e845 053e
00000270: 13e4 6b3e 7f3f f93c 291d ac3e 1f40 43be
00000280: e0a0 f23e 39f7 97be 5072 963d 12f3 663d
00000290: fc90 88be d16a 053e 4360 243e 5487 9abe
000002a0: 6b42 28be 6095 f33c b3f5 1bbe cda2 f2ba
000002b0: cdb4 2e3e e012 f4bd 6fe0 04bf 4db5 cebc
000002c0: e35e 19be 8b20 263e 9c66 83bf e39a 1cbe
000002d0: 0177 7f3e 16af 773b 67de 873e c97a 10be
000002e0: 3d56 1ebe 9928 b03e 1a6d 4ebe 606e e1bd
000002f0: cc26 463e 91d3 23bc f31f b43d af85 843d
00000300: 0cfb b1be ce8f 123e 822b 59be f057 e73d
00000310: f85f c7be f0b5 123f 8aa5 afbe f012 743d
00000320: 60e4 043e 2e44 1ebe 3e0a 7b3e cabf 3abd
00000330: ff16 153f a308 0e3f 2ae6 093c b89b c53e
00000340: 8698 c33d 43e2 973f d7a2 cebe 0841 153e
00000350: c175 99bd 1e59 24bd 8e5c bd3d 9988 12bd
00000360: 68d9 babd 7097 ae3e 9c28 353d 2bcb 9ebe
00000370: d955 b63e 3083 90be 49e7 4bbe a690 68bd
00000380: 37de 043f b95b f0bd 24c5 d1be 8013 b23e
00000390: 8cf7 b2be f8ef 76bd 66ab 1f3e c293 73bd
000003a0: c377 723e 0331 4f3e 5589 9d3e 0e70 3d3e
000003b0: c0b2 30bc 693a c23e ed34 b3be 025d 263e
000003c0: 7d83 29be cca9 e13e 9317 9f3d 86e7 57bd
000003d0: 676a 1fbe fe96 963e 9ee8 083f 0d13 1ebe
000003e0: 0f45 18bf 3987 c43e 39ea a03e bee3 0f3f
000003f0: 23c2 5abe e2cf 81bd b2b4 b93d 284c 2abe

encoder_lstm.weight_hh_l0 f4 [512, 128]
-0.04083132 -0.3052584 -0.03331438 0.0050194887 0.2708468 0.0133584095 -0.027979838 -0.10282002
-0.05182033 0.022705153 0.100298926 0.12928708 0.0005053467 -0.0763512 0.018982526 -0.22904627
-0.122547776 -0.07212646 -0.14420553 -0.010748639 0.08783166 -0.042010028 -0.021908201 -0.10355424
0.25805926 -0.22949666 0.087225735 0.105950564 0.009848374 -0.15224603 0.32847223 0.19242038
0.017307783 -0.22039858 0.20314875 0.28434235 -0.10577912 0.09540037 -0.02453894 -0.044768155
0.011645914 -0.17170712 0.12917654 -0.046279736 0.05289667 0.08238901 0.04816389 0.098761246
-0.24987328 0.015674703 0.023050731 -0.027055748 -0.039346818 -0.089795895 -0.014445623 0.04898136
-0.1559854 0.10056458 0.0786279 -0.109346524 -0.446382 0.16278917 -0.32945576 -0.13611257
-0.20544808 -0.095260076 -0.17535457 -0.024854958 -0.13767457 -0.16086623 -0.034083467 -0.12846854
-0.14919801 -0.057260606 0.3481292 0.04452497 -0.12347102 0.048497252 0.17849837 -0.13500865
-0.14802323 0.062347602 0.027288869 0.0012455977 -0.04293271 -0.10909626 -0.03599565 -0.1650606
-0.16484664 0.045671202 -0.081176564 -0.11194746 0.078625016 0.054190025 -0.09679783 -0.110533394
0.13554752 0.18955728 -0.21876878 -0.008210762 -0.014264312 -0.01364754 -0.06991052 0.08569933
0.11587085 -0.035845846 0.25604996 -0.06352883 -0.23892398 -0.043141637 0.1431031 0.08056474
0.03659513 -0.19361971 0.15697281 0.012249526 -0.0163922 -0.058589395 0.20077066 -0.10406031
-0.008907246 -0.04279709 -0.37727132 0.08493248 -0.03363106 -0.0057311114 0.1681615 0.070828974
0.029376741 0.12168784 -0.17299208 -0.07388485 0.16230775 0.080884725 -0.011761017 0.101960115
0.024651011 0.09556684 0.30888924 0.07665136 -0.09666416 0.15463446 0.15636341 -0.15347369
0.11517716 0.071459346 0.1746763 0.0021982356 0.2845984 -0.002748702 -0.2595918 -0.027833913
-0.0057615316 0.13303335 0.1468882 0.072903536 0.014627927 -0.0254981 0.04936141 -0.048075654
0.018712318 0.055157967 -0.07617121 0.04126155 -0.28935823 0.15633404 0.1742846 0.12391269
0.024611033 0.0046903156 0.0012827179 0.12493941 -0.034513593 -0.14399742 -0.049592357 0.037700027
0.038766697 -0.010178993 -0.15981796 0.18873566 0.18925202 0.0050699236 0.06103097 0.21670796
-3.7794263e-05 -0.12517338 0.12459554 0.060196776 -0.14975415 0.017549668 0.054642733 0.00095672533
-0.0468605 -0.029843802 0.046711586 0.13034508 0.08374852 0.20471703 0.256077 -0.027774047
0.11401818 -0.22083268 -0.20037895 -0.1108321 0.012910838 -0.0034175848 0.09909858 -0.056255024
0.0742939 -0.091119915 0.08074975 0.0407819 -0.081564575 0.063290566 -0.0061002504 0.27237913
-0.14728984 -0.1282277 0.06059673 0.14211139 -0.052308958 0.1528174 0.28552923 0.15133096
0.028671937 0.31344113 0.15765013 0.0693572 -0.1503461 0.13345338 -0.0041948077 -0.120087184
0.0015537326 -0.21652164 0.044649705 -0.044468585 0.076561674 -0.015660979 -0.24971612 0.047530953
0.10002778 -0.2017942 0.062977016 -0.084973596 -0.0004230373 0.02391597 0.055271044 0.029542593
0.013211397 -0.13748288 0.23567067 0.0099185025 0.3704575 -0.037822302 0.15927114 -0.094919614
00000000: be3e 27bd d44a 9cbe a974 08bd 867a a43b
00000010: 6fac 8a3e 3bdd 5a3c f935 e5bc 4d93 d2bd
00000020: 8e41 54bd 2800 ba3c 8669 cd3d d563 043e
00000030: 3e79 043a 055e 9cbd 3e81 9b3c 1b8b 6abe
00000040: 54fa fabd 0ab7 93bd 9daa 13be 0f1b 30bc
00000050: 16e1 b33d b512 2cbd d478 b3bc 3f14 d4bd
00000060: 5820 843e 2c01 6bbe 68a3 b23d 9cfc d83d
00000070: 135b 213c 62e6 1bbe 832d a83e d909 453e
00000080: 0dc9 8d3c 2ab0 61be 3a06 503e 5295 913e
00000090: b9a2 d8bd 4561 c33d e305 c9bc d05e 37bd
000000a0: 81ce 3e3c fed3 2fbe db46 043e d28f 3dbd
000000b0: 2eaa 583d 92bb a83d 8047 453d 5643 ca3d
000000c0: c8de 7fbe 3c68 803c e3d4 bc3c 04a4 ddbc
000000d0: 212a 21bd e9e6 b7bd 56ad 6cbc aea0 483d
000000e0: a3ba 1fbe cdf4 cd3d aa07 a13d 12f1 dfbd
000000f0: 2e8c e4be 34b2 263e 6dae a8be 1861 0bbe
00000100: fb60 52be b717 c3bd 2690 33be a09c cbbc
00000110: 90fa 0cbe 1eba 24be 1b9b 0bbd 428d 03be
00000120: 5dc7 18be 198a 6abd fe3d b23e d15f 363d
00000130: 60de fcbd 0ea5 463d 47c8 363e b53f 0abe
00000140: 6793 17be 3360 7f3d e88c df3c 5343 a33a
00000150: 36da 2fbd dc6d dfbd 2d70 13bd a505 29be
00000160: 8fcd 28be ba11 3b3d e63f a6bd b644 e5bd
00000170: 2706 a13d 5cf6 5d3d f13d c6bd 555f e2bd
00000180: f8cc 0a3e 4e1b 423e ec04 60be 6f86 06bc
00000190: dcb4 69bc ee99 5fbc 3f2d 8fbd 2183 af3d
000001a0: b24d ed3d 18d3 12bd fb18 833e 671b 82bd
000001b0: 7da8 74be 49b5 30bd 9e89 123e 20ff a43d
000001c0: c6e4 153d 3f44 46be 7bbd 203e 3cb2 483c
000001d0: ef48 86bc 6ffb 6fbd d396 4d3e 921d d5bd
000001e0: b3ef 11bc 004c 2fbd b529 c1be 14f1 ad3d
000001f0: b9c0 09bd 0ccc bbbb 8732 2c3e c80e 913d
00000200: 7ea7 f03c 7937 f93d d624 31be f150 97bd
00000210: 0134 263e e4a6 a53d 48b1 40bc 77d0 d03d
00000220: ebf0 c93c 8cb8 c33d bb26 9e3e 63fb 9c3d
00000230: dcf7 c5bd 7f58 1e3e bb1d 203e 3528 1dbe
00000240: 01e2 eb3d 4759 923d 58de 323e 4610 103b
00000250: e2b6 913e 9123 34bb 37e9 84be f203 e4bc
00000260: 3bcb bcbb e539 083e dc69 163e 734e 953d
00000270: f9a9 6f3c 64e1 d0bc 312f 4a3d faea 44bd
00000280: 934a 993c 52ed 613d a7ff 9bbd df01 293d
00000290: c326 94be 0816 203e aa77 323e f0c5 fd3d
000002a0: 149d c93c 38b1 993b df20 a83a 3ce0 ff3d
000002b0: 205e 0dbd 0f74 13be 5b21 4bbd 586b 1a3d
000002c0: d4c9 1e3d cbc5 26bc 52a7 23be ec43 413e
000002d0: 48cb 413e 9a21 a63b 9cfb 793d b1e8 5d3e
000002e0: 4885 1eb8 732d 00be f22b ff3d e590 763d
000002f0: 2759 19be 52c4 8f3c 0fd1 5f3d c0cc 7a3a
00000300: ccf0 3fbd fd7a f4bc a654 3f3d 2e79 053e
00000310: 5884 ab3d 57a1 513e 861c 833e 6686 e3bc
00000320: 5d82 e93d f621 62be 2430 4dbe f1fb e2bd
00000330: fb87 533c 8ff9 5fbb 32f4 ca3d ab6b 66bd
00000340: 6627 983d 149d babd 2060 a53d ec0a 273d
00000350: 540b a7bd 7c9e 813d 9ce4 c7bb 4775 8b3e
00000360: 26d3 16be 1f4e 03be 4734 783d a685 113e
00000370: eb41 56bd 2a7c 1c3e e330 923e 81f6 1a3e
00000380: 69e1 ea3c 5b7b a03e 096f 213e 260b 8e3d
00000390: 54f4 19be 01a8 083e 9974 89bb 45f0 f5bd
000003a0: 9da6 cb3a d9b7 5dbe 9ce2 363d b124 36bd
000003b0: 5ecc 9c3d 744b 80bc 95b5 7fbe d1af 423d
000003c0: 5ddb cc3d 24a3 4ebe 18fa 803d a306 aebd
000003d0: 1bcb ddb9 6deb c33c e463 623d 4f03 f23c
000003e0: 9e74 583c 50c8 0cbe a753 713e 3781 223c
000003f0: 9bac bd3e 8feb 1abd f917 233e 3765 c2bd

encoder_lstm.bias_ih_l0 f4 [512]
0.111219145 0.033388663 0.029745094 0.07081966 0.12335513 -0.06628588 0.06582154 -0.07120058
-0.038162272 -0.03665421 0.054958165 0.045031767 0.07077893 0.07640767 0.10511196 0.14779417
0.07463253 0.006892296 0.06638696 -0.06332722 0.06159766 -0.07659081 0.084656954 0.19217433
0.00460334 0.21843317 0.07179597 -0.07035016 0.22477323 0.31255862 0.088885285 0.10833546
-0.06396218 0.09666003 -0.01843257 0.25802162 0.063054875 0.008894332 0.1787675 -0.033639673
0.015259582 0.044422027 -0.028010353 0.073514804 0.074437775 0.20254843 0.13844377 0.22196402
0.04585873 -0.043565847 0.21331196 -0.0053444495 0.24393563 0.072109826 0.1210449 0.11766196
0.09823724 0.0320311 0.020659786 -0.07687713 0.329837 -0.04116534 0.1325426 0.30898446
0.14146303 0.17559735 0.03824171 0.008663103 0.19641997 0.39417207 0.18014608 0.19247131
0.13629955 0.049365077 0.20027937 -0.0956288 0.39899442 0.01306697 0.064068876 0.026423585
0.06980615 0.038999762 0.0016258333 0.042517845 -0.10886558 -0.12890661 -0.004120456 0.22494291
0.012394065 0.022579104 -0.038433313 0.2393303 0.08842724 0.15352935 0.11203389 0.28045392
0.5383707 0.13054453 0.059054606 0.1115429 -0.02346362 -0.00952413 0.16240548 0.15240288
0.036504492 0.108119175 0.047463737 0.17235623 0.12374203 -0.0851784 0.13073689 -0.035564337
0.104685165 -0.0015522713 0.1283739 -0.1463964 0.10032301 0.19159941 0.20646892 -0.08310745
-0.09348966 -0.07239897 0.15872446 0.08113116 0.15669382 -0.039769102 -0.07390119 0.39975485
-0.034242515 0.015461242 0.07137226 -0.08509972 0.13110758 0.005031717 -0.05843941 -0.08711905
0.08474702 0.056774348 -0.025471976 0.07429078 0.036384787 -0.069359094 0.06694526 0.0342717
-0.07266111 -0.018684354 -0.0734617 -0.0732431 -0.016654795 0.016890297 0.02619657 0.043326385
-0.08849818 0.17449284 0.04830703 0.0076131867 -0.0015214081 -0.036650795 0.044336144 0.006486098
-0.119263835 -0.013518533 -0.11723832 -0.029197566 -0.08987509 -0.02510902 -0.11973499 0.124109745
-0.10977151 0.052301515 -0.07228836 0.09203094 0.13010092 0.08109768 -0.014005295 -0.03875091
0.078685775 -0.027474869 -0.039938845 -0.044735834 0.11260568 0.010712343 -0.0777362 0.19824067
0.03361033 -0.025787331 -0.034720927 -0.08207224 -0.14152884 0.008005217 0.13422593 0.16442864
-0.0311303 -0.089458376 0.036991503 -0.028458811 -0.04768472 -0.20399785 0.16153355 0.04449325
0.10619515 -0.007982202 0.039588165 -0.09112099 -0.025482683 -0.024173256 0.14378163 -0.1015406
0.092703454 -0.05282743 -0.13138956 0.052659705 -0.06377364 -0.047827743 0.04251447 -0.1496924
0.011255255 0.08613828 -0.027568622 -0.0015710485 0.016543442 0.03755467 -0.12920998 0.037833974
-0.031586345 -0.054873124 0.08196572 -0.08316662 -0.06319755 -0.07792581 -0.039838575 0.019047936
-0.07338125 0.022665396 0.05962189 0.18584563 0.014257486 -0.0735966 0.0074411994 0.050665956
0.11032706 0.11639612 -0.01183251 -0.0025068994 0.0090442225 -0.04800253 0.1885388 0.01318055
-0.108793564 0.02665823 0.071495764 -0.050011307 0.0133015765 -0.080960765 -0.1661889 -0.13543239
00000000: ddc6 e33d 8dc2 083d fcab f33c e609 913d
00000010: 9da1 fc3d e4c0 87bd 72cd 863d 9cd1 91bd
00000020: 0b50 1cbd ba22 16bd d01b 613d 3b73 383d
00000030: 8bf4 903d a07b 9c3d f044 d73d 5b57 173e
00000040: f1d8 983d c5d8 e13b e3f5 873d b4b1 81bd
00000050: d44d 7c3d a5db 9cbd a060 ad3d 59c9 443e
00000060: 9dd7 963b f2ac 5f3e c409 933d bf13 90bd
00000070: f42a 663e af07 a03e 7d09 b63d fbde dd3d
00000080: 9afe 82bd b2f5 c53d e7ff 96bc 691b 843e
00000090: ea22 813d 88b9 113c d40e 373e c1c9 09bd
000000a0: 5303 7a3c dff3 353d f875 e5bc ee8e 963d
000000b0: d572 983d db68 4f3e 34c4 0d3e 894a 633e
000000c0: 5dd6 3b3d 1a72 32bd 736e 5a3e 7e20 afbb
000000d0: 43ca 793e 51ae 933d 63e6 f73d c1f8 f03d
000000e0: 9b30 c93d 0b33 033d b63e a93c c271 9dbd
000000f0: 65e0 a83e fd9c 28bd 3fb9 073e 3633 9e3e
00000100: afdb 103e cbcf 333e 57a3 1c3d b0ef 0d3c
00000110: 5122 493e ecd0 c93e 3778 383e 3317 453e
00000120: 1c92 0b3e 0933 4a3d 0916 4d3e 08d9 c3bd
00000130: ff48 cc3e d816 563c 8b36 833d 4676 d83c
00000140: 87f6 8e3d 37be 1f3d ea19 d53a 3127 2e3d
00000150: ebf4 debd 1800 04be e404 87bb 6f57 663e
00000160: 7a10 4b3c d0f7 b83c 406c 1dbd 0113 753e
00000170: 5719 b53d cc36 1d3e 0672 e53d a897 8f3e
00000180: aad2 093f 77ad 053e 3ee3 713d 9b70 e43d
00000190: c736 c0bc 190b 1cbc 9f4d 263e 800f 1c3e
000001a0: bc85 153d 966d dd3d 5669 423d 277e 303e
000001b0: 766c fd3d 0372 aebd e4df 053e e9ab 11bd
000001c0: 2d65 d63d 9575 cbba 7374 033e f0e8 15be
000001d0: 2676 cd3d a332 443e 976c 533e 3d34 aabd
000001e0: 8277 bfbd e945 94bd aa88 223e 1828 a63d
000001f0: 5874 203e ede4 22bd 8259 97bd abac cc3e
00000200: e141 0cbd 2651 7d3c 9f2b 923d c348 aebd
00000210: 1141 063e 1ae1 a43b 2a5e 6fbd 796b b2bd
00000220: d88f ad3d 388c 683d 9baa d0bc c425 983d
00000230: 3708 153d 240c 8ebd 991a 893d 7b60 0c3d
00000240: 59cf 94bd ee0f 99bc 1673 96bd 7a00 96bd
00000250: a36f 88bc 855d 8a3c 309a d63c 0277 313d
00000260: 893e b5bd 40ae 323e 98dd 453d 0a78 f93b
00000270: fc69 c7ba 251f 16bd d199 353d 5589 d43b
00000280: 9940 f4bd d67c 5dbc a51a f0bd bc2f efbc
00000290: 6e10 b8bd 6eb1 cdbc 9e37 f5bd 402d fe3d
000002a0: e3cf e0bd 1d3a 563d eb0b 94bd b87a bc3d
000002b0: 2d39 053e 8a16 a63d 7776 65bc 46b9 1ebd
000002c0: 0226 a13d fa12 e1bc ea96 23bd ec3c 37bd
000002d0: cf9d e63d d382 2f3c 2834 9fbd 9aff 4a3e
000002e0: fcaa 093d f43f d3bc 8837 0ebd 7e15 a8bd
000002f0: f0ec 10be 5028 033c 8672 093e fb5f 283e
00000300: f904 ffbc f435 b7bd 6784 173d 7422 e9bc
00000310: 0e51 43bd d0e4 50be 0d69 253e 8e3e 363d
00000320: d87c d93d c8c7 02bc 3327 223d a49d babd
00000330: 0fc1 d0bc fe06 c6bc 7e3b 133e 85f4 cfbd
00000340: 4fdb bd3d 9361 58bd fc8a 06be b4b1 573d
00000350: c19b 82bd 06e7 43bd a723 2e3d f748 19be
00000360: f667 383c 4469 b03d 97d7 e1bc a4eb cdba
00000370: 1d86 873c edd2 193d 9f4f 04be ccf7 1a3d
00000380: af60 01bd a4c2 60bd a5dd a73d 4353 aabd
00000390: b86d 81bd 9197 9fbd c62d 23bd 6b0a 9c3c
000003a0: e948 96bd c8ac b93c 1536 743d 514e 3e3e
000003b0: 3b98 693c d0b9 96bd 4ed5 f33b 1b87 4f3d
000003c0: 27f3 e13d 1761 ee3d 25dd 41bc cb4a 24bb
000003d0: 382e 143c 4d9e 44bd 5110 413e 3cf3 573c
000003e0: 29cf debd 5c62 da3c 5f6c 923d a8d8 4cbd
000003f0: dbee 593c c2ce a5bd 6c2d 2abe caae 0abe

encoder_lstm.bias_hh_l0 f4 [512]
0.027053498 0.017276043 0.1544594 0.062319033 0.28214067 -0.07124409 -0.014388288 -0.11838797
0.014043025 0.038744085 -0.047960892 -0.007961816 -0.01887546 0.053796876 0.028315661 0.11568466
0.19644836 -0.05982529 0.046507876 -0.11224899 0.053776063 -0.0025708943 0.13828366 0.17275783
-0.04440354 0.13295293 -0.026880426 -0.04592099 0.2218785 0.31648213 0.01709926 0.107550055
-0.027390994 0.041953884 0.0069648875 0.33686033 0.037534315 -0.06516232 0.101244114 -0.032390606
0.033204313 0.11067941 -0.09584912 0.13719945 0.095367536 0.2279964 0.06886208 0.111494675
0.05702598 0.00491098 0.23077539 0.05694869 0.15827449 0.022134406 0.045697782 0.19709411
0.10973887 -0.019636225 0.05982143 0.0871943 0.3873729 0.061068155 0.16680254 0.3014588
0.06831271 0.036913447 -0.078484066 -0.03605045 0.11388495 0.5347579 0.19522542 0.29253906
0.06596294 0.056125958 0.051905658 -0.038303986 0.35295275 0.13959563 0.0018463151 -0.08390316
0.009264191 -0.024714535 -0.039172478 0.062483456 0.006726269 -0.08278855 -0.013699799 0.24554235
0.040167555 0.048394613 -0.02466163 0.07305693 -0.01883312 0.077867344 0.11170179 0.2589449
0.5537014 0.20334116 0.010134633 0.21097864 0.062195975 -0.04988329 0.20982839 0.059759695
0.02369455 0.22369054 0.15573992 0.24371438 0.04846446 -0.08490696 0.01585304 0.06751178
0.10777236 0.06170471 0.07917813 -0.16315655 0.022101136 0.11862599 0.32106104 -0.02953661
0.026054805 0.009451358 0.057166614 -0.00956512 0.22830118 -0.042273477 0.022189187 0.30971786
-0.062790416 -0.044040553 0.01465712 0.02512184 0.13222186 -0.12370406 0.025085662 0.008492901
0.025575558 0.09431114 0.097807944 0.005071759 0.10086279 -0.01284836 0.094804175 0.08180411
-0.05423157 -0.026185283 -0.06591872 -0.07557425 0.09205408 -0.019344717 0.007495848 0.13924702
-0.05151205 0.15024844 -0.08831631 -0.049190164 -0.11156401 -0.113534376 -0.07288794 -0.049328927
0.032379605 0.05414632 -0.13544944 -0.04589087 -0.050097983 -0.05743151 -0.138502 0.11454081
0.046496067 -0.04968472 0.06024263 0.04142138 0.14000674 0.012397291 -0.030237235 0.039471872
-0.06848911 0.017014133 -0.09724967 -0.014197291 -0.02612759 -0.035192803 -0.034242045 0.092322506
-0.04090873 -0.05721888 -0.025844047 0.0137386955 -0.18344408 -0.10314909 0.049767684 0.1983853
-0.0167559 0.0038155662 -0.08153892 -0.035462733 0.021834353 -0.17101008 0.09871838 -0.07589052
0.111612104 0.098771095 0.03965696 -0.107953444 -0.06416592 0.11158803 0.012272745 0.006064765
0.0900195 0.06332092 -0.10695761 0.073330194 -0.001831699 0.04794289 0.018144913 -0.2626626
0.058880303 -0.027093468 -0.03948568 -0.027428579 0.002209339 -0.011008796 -0.06717247 0.0990317
-0.10114038 -0.08236894 -0.061072703 -0.040521763 0.064854965 -0.04060872 0.034239374 -0.06957809
-0.09221068 0.07294471 0.013062292 0.2418338 -0.0338707 -0.03586346 -0.0336182 0.06944018
0.10401157 -0.041621055 -0.02979603 -0.119804904 0.1122367 0.11551351 0.077687554 -0.03254226
0.0028339573 -0.098219365 0.02856692 -0.088477604 -0.025395237 -0.10849826 -0.12884727 -0.2405821
00000000: 4c9f dd3c 7d86 8d3c 9b2a 1e3e 3e42 7f3d
00000010: be74 903e 6ce8 91bd dbbc 6bbc 6475 f2bd
00000020: b714 663c 1eb2 1e3d a472 44bd 4772 02bc
00000030: b5a0 9abc 1d5a 5c3d 3ff6 e73c 14ec ec3d
00000040: c229 493e 5d0b 75bd 0b7f 3e3d cce2 e5bd
00000050: 4a44 5c3d 737c 28bb 3b9a 0d3e 6ee7 303e
00000060: 7de0 35bd d024 083e 5734 dcbc a617 3cbd
00000070: 1e34 633e f209 a23e bf13 8c3c 3443 dc3d
00000080: 1463 e0bc d6d7 2b3d b639 e43b f578 ac3e
00000090: 95bd 193d d373 85bd 1359 cf3d 03ac 04bd
000000a0: 3f01 083d e3ab e23d 8b4c c4bd 037e 0c3e
000000b0: 0e50 c33d e377 693e 9007 8d3d 5257 e43d
000000c0: 1394 693d 49ec a03b 6250 6c3e 0843 693d
000000d0: b512 223e 3753 b53c 992d 3b3d 0ad3 493e
000000e0: c6be e03d 26dc a0bc 5107 753d ed92 b23d
000000f0: be55 c63e 9a22 7a3d 49ce 2a3e cf58 9a3e
00000100: 89e7 8b3d 8e32 173d 41bc a0bd a3a9 13bd
00000110: 833c e93d e5e5 083f 2ce9 473e aec7 953e
00000120: 9417 873d 55e4 653d 079b 543d a4e4 1cbd
00000130: 39b6 b43e 28f2 0e3e 0e00 f23a 6cd5 abbd
00000140: d5c8 173c 2376 cabc 5273 20bd a7ee 7f3d
00000150: 0968 dc3b 0b8d a9bd 1f75 60bc 746f 7b3e
00000160: bc86 243d 6e39 463d 3007 cabc df9e 953d
00000170: ea47 9abc ea78 9f3d e8c3 e43d 6d94 843e
00000180: 60bf 0d3f aa38 503e bb0b 263c c90a 583e
00000190: 35c1 7e3d 6c52 4cbd 41dd 563e 95c6 743d
000001a0: 131b c23c 220f 653e 497a 1f3e 4390 793e
000001b0: ab82 463d b3e3 adbd 3cde 813c 9e43 8a3d
000001c0: c1b7 dc3d 14be 7c3d 2528 a23d 8312 27be
000001d0: 710d b53c 2ff2 f23d 1d62 a43e c3f6 f1bc
000001e0: e370 d53c ded9 1a3c 8a27 6a3d 05b7 1cbc
000001f0: c9c7 693e f426 2dbd 19c6 b53c 5793 9e3e
00000200: 4398 80bd de63 34bd 6b24 703c 51cc cd3c
00000210: 2b65 073e 8e58 fdbd 7280 cd3c cf25 0b3c
00000220: d583 d13c 3326 c13d 884f c83d 0031 a63b
00000230: 2791 ce3d ee81 52bc b128 c23d ea88 a73d
00000240: ec21 5ebd 8582 d6bc 6500 87bd acc6 9abd
00000250: d986 bc3d d078 9ebc bb9f f53b c596 0e3e
00000260: 4dfe 52bd bada 193e 2edf b4bd a07b 49bd
00000270: ac7b e4bd b684 e8bd 4646 95bd 210d 4abd
00000280: 7aa0 043d 88c8 5d3d 42b3 0abe 11f8 3bbd
00000290: 8b33 4dbd 4e3d 6bbd 78d3 0dbe 5f94 ea3d
000002a0: a972 3e3d 3482 4bbd fac0 763d 77a9 293d
000002b0: ed5d 0f3e 021e 4b3c 14b4 f7bc 42ad 213d
000002c0: 0544 8cbd 3961 8b3c d62a c7bd c19b 68bc
000002d0: 8709 d6bc 5426 10bd 6341 0cbd 9513 bd3d
000002e0: ea8f 27bd 585e 6abd e5b6 d3bc 4418 613c
000002f0: c4d8 3bbe d53f d3bd 33d9 4b3d 8425 4b3e
00000300: ab43 89bc 940e 7a3b e1fd a6bd 5f41 11bd
00000310: f5dd b23c 441d 2fbe dd2c ca3d 7d6c 9bbd
00000320: e394 e43d 8048 ca3d 566f 223d b216 ddbd
00000330: 6c69 83bd 4488 e43d a013 493c f0ba c63b
00000340: 255c b83d 66ae 813d 970c dbbd 242e 963d
00000350: 9f15 f0ba c45f 443d a4a4 943c b67b 86be
00000360: 792c 713d 1ff3 ddbc bdbb 21bd e6b1 e0bc
00000370: 8fca 103b 3d5e 34bc b891 89bd 22d1 ca3d
00000380: b022 cfbd 0cb1 a8bd 5f27 7abd 26fa 25bd
00000390: aed2 843d 5455 26bd 963e 0c3d f57e 8ebd
000003a0: f4d8 bcbd 0964 953d 3903 563c 48a3 773e
000003b0: 01bc 0abd 90e5 12bd 3db3 09bd a736 8e3d
000003c0: 0504 d53d d77a 2abd ce16 f4bc 465c f5bd
000003d0: 5bdc e53d 5992 ec3d a71a 9f3d 084b 05bd
000003e0: eab9 393b 3c27 c9bd 2c05 ea3c bf33 b5bd
000003f0: ac09 d0bc 5634 debd 8af0 03be 275b 76be

encoder_attn.weight f4 [1, 296]
-0.02972352 0.04736453 -0.038767364 -0.028774787 0.0133201685 0.04262972 0.013348782 -0.025555637
0.041963153 0.037043087 -0.0131185 0.044221643 -0.026932424 0.050953507 0.025898173 0.025733192
0.024376154 -0.00876837 -0.041600417 -0.016976899 -0.047929894 -0.050718084 -0.008810388 0.031627737
-0.004593582 0.02617982 0.046674423 0.021708427 -0.030373124 0.05804155 0.034620658 -0.00091347477
0.037328783 0.038120624 -0.0028935028 -0.014468941 0.007634401 -0.057706557 -0.05282142 0.010806781
-0.024085786 0.006928167 -0.04784109 0.02471426 0.042182527 -0.040821463 -0.002032483 -0.029510526
0.0016876095 0.029284693 0.054097258 -0.0259893 0.00336595 -0.02435591 -0.028897824 0.035161294
-0.021337457 -0.057155214 -0.057881482 -0.035425693 0.051975016 0.03433687 0.019759009 0.0401702
-0.030995222 0.036446333 0.032501012 -0.050400272 0.01750531 0.040883794 0.016305678 0.04789812
-0.027851364 -0.0140114995 0.03789718 0.012196576 0.056163177 0.034569003 0.047577266 0.03315023
0.04541812 -0.0009516809 -0.0038004855 -0.029197814 0.012229659 0.051550176 -0.030391522 0.014305143
-0.017461611 0.005740137 0.017447796 -0.030059792 0.050522033 0.052701402 -0.012291428 -0.034405764
-0.027911797 0.017537497 -0.03774036 0.057396498 -0.057748042 -0.015044683 0.021578318 -0.040355787
-0.05435148 0.032541215 0.0463284 -0.03421215 0.017377375 0.001094938 -0.015562224 0.039592024
0.025066605 0.01566895 -0.03147715 0.052981447 -0.029178735 0.04985767 -0.054727484 -0.023571733
0.006146872 -0.047537655 -0.050519463 -0.0570851 0.026550323 0.045908757 -0.0075170854 0.008732247
-0.0336407 -0.039457764 0.01961962 0.04198135 -0.04789474 -0.028736008 0.034065127 -0.025703277
-0.01823186 0.014828187 -0.05711424 0.012275729 0.055280164 -0.049474344 -0.01447851 -0.024041008
-0.04838995 -0.007872672 -0.016052399 0.051632643 0.039498765 0.044042107 0.004213075 0.026622925
0.045203906 -0.04383671 -0.0016667697 -0.01371689 0.055273052 -0.020301051 -0.005216913 -0.03158561
-0.016623262 -0.044223893 -0.036276285 -0.05140138 0.039569985 0.046731908 -0.03624743 -0.020844538
0.042989757 -0.023348473 -0.007827448 -0.019787101 0.025873216 0.052798573 -0.021887781 0.004170467
-0.002624407 0.024661243 -0.049425077 -0.0031184037 -0.033569764 -0.03185834 0.006396085 0.041569747
0.026172005 -0.033805184 0.0004912595 0.053011216 -0.023694318 -0.03729978 0.05210796 0.0073960703
0.013451661 -0.00564806 -0.013407538 -0.041769218 0.012468379 -0.0396273 0.056490026 -0.005550275
0.012144336 0.04144212 0.015510957 -0.04052757 0.018506354 0.005413927 -0.036578365 0.045257736
-0.020899799 -0.02378958 -0.048480336 -0.02795063 -0.009368154 -0.03105914 0.018971216 0.0037496742
-0.00014905236 -0.021730589 -0.011464647 -0.025567764 -0.032440677 0.0075604655 0.056635007 0.023738444
0.027467221 -0.01172945 -0.037536025 0.041448 0.036434017 0.04223025 0.037522007 -0.0072420407
-0.019803144 -0.01234722 0.015104524 0.016470766 0.013376411 -0.016805494 0.04619902 -0.029034374
-0.056142047 0.013701843 -0.044757184 -0.057447746 0.036154848 0.029788073 -0.021421408 -0.016292006
0.017393628 -0.027905336 -0.03595983 0.021663725 0.029379306 -0.033142492 0.023132138 0.03501462
00000000: bd7e f3bc 4f01 423d 87ca 1ebd 1ab9 ebbc
00000010: d63c 5a3c 809c 2e3d dab4 5a3c 0e5a d1bc
00000020: 8ee1 2b3d 7eba 173d faee 56bc c121 353d
00000030: 63a1 dcbc a0b4 503d 6828 d43c 6ace d23c
00000040: 80b0 c73c 36a9 0fbc 3365 2abd 2313 8bbc
00000050: 2352 44bd c4bd 4fbd 7259 10bc 168c 013d
00000060: c285 96bb 1077 d63c ae2d 3f3d dfd5 b13c
00000070: 0fd1 f8bc fabc 6d3d 64ce 0d3d 4176 6fba
00000080: 11e6 183d 5f24 1c3d eca0 3dbb 230f 6dbc
00000090: ff29 fa3b b65d 6cbd 465b 58bd ed0e 313c
000000a0: 8e4f c5bc ad05 e33b 05f5 43bd 8f75 ca3c
000000b0: 96c7 2c3d 6834 27bd 6833 05bb 0fc0 f1bc
000000c0: c732 dd3a 74e6 ef3c 1695 5d3d 83e7 d4bc
000000d0: 4597 5c3b 0c86 c7bc 21bb ecbc 4a05 103d
000000e0: e4cb aebc 961b 6abd 2215 6dbd 881a 11bd
000000f0: c1e3 543d d1a4 0c3d a5dd a13c 8289 243d
00000100: b1e9 fdbc c048 153d c81f 053d 8470 4ebd
00000110: 4c67 8f3c c475 273d 7c93 853c d230 443d
00000120: 8b28 e4bc 7d90 65bc 133a 1b3d 26d4 473c
00000130: 5c0b 663d 3a98 0d3d 61e0 423d 89c8 073d
00000140: 5a08 3a3d 397a 79ba 9111 79bb 4130 efbc
00000150: e85e 483c 4726 533d a4f7 f8bc 1e60 6a3c
00000160: a70b 8fbc c217 bc3b aeee 8e3c f43f f6bc
00000170: 31f0 4e3d 6ddd 573d fc61 49bc 0fed 0cbd
00000180: 48a7 e4bc ccaa 8f3c a395 1abd 9718 6b3d
00000190: 3689 6cbd f97d 76bc 03c5 b03c 1c4c 25bd
000001a0: a89f 5ebd f049 053d d9c2 3d3d 0a22 0cbd
000001b0: ff5a 8e3c 0684 8f3a b3f8 7ebc 3f2b 223d
000001c0: 7b58 cd3c 2b5c 803c 2fee 00bd 1303 593d
000001d0: 3e08 efbc 8e37 4c3d ed29 60bd 8219 c1bc
000001e0: b36b c93b d8b6 42bd 7fed 4ebd 11d2 69bd
000001f0: 1080 d93c d20a 3c3d e251 f6bb b311 0f3c
00000200: d5ca 09bd 779e 21bd 53b9 a03c a3f4 2b3d
00000210: 462d 44bd c767 ebbc e087 0b3d ae8f d2bc
00000220: fb5a 95bc edf1 723c 9ff0 69bd 2420 493c
00000230: 746d 623d 9ca5 4abd 4637 6dbc a6f1 c4bc
00000240: 8a34 46bd 61fc 00bc 5280 83bc c07c 533d
00000250: 75c9 213d 7f65 343d d60d 8a3b 5218 da3c
00000260: bb27 393d 1f8e 33bd 8377 daba cebc 60bc
00000270: ff65 623d 644e a6bc a3f2 aabb ea5f 01bd
00000280: 822d 88bc 1d24 35bd 7196 14bd 418a 52bd
00000290: 2314 223d f569 3f3d 2f78 14bd 2ac2 aabc
000002a0: 0716 303d 4c45 bfbc b23e 00bc 8f18 a2bc
000002b0: 11f4 d33c 5143 583d 014e b3bc 6aa8 883b
000002c0: 3efe 2bbb 6006 ca3c f371 4abd 225e 4cbb
000002d0: 7380 09bd e47d 02bd 4096 d13b 0a45 2a3d
000002e0: ac66 d63c 4e77 0abd dec7 003a 4a22 593d
000002f0: 961a c2bc a7c7 18bd 286f 553d bc5a f23b
00000300: 5b64 5c3c 5c13 b9bb 4aab 5bbc 3316 2bbd
00000310: 2c48 4c3c 3c50 22bd 1662 673d 15df b5bb
00000320: 09f9 463c 36bf 293d ab21 7e3c 3d00 26bd
00000330: a39a 973c 5067 b13b 32d3 15bd 2d60 393d
00000340: 0e36 abbc 5ee2 c2bc 5193 46bd b8f8 e4bc
00000350: e37c 19bc bd6f febc 8669 9b3c 18bd 753b
00000360: f04a 1cb9 5904 b2bc 37d6 3bbc 7d73 d1bc
00000370: 84e0 04bd c8bd f73b 1cfa 673d 2077 c23c
00000380: f002 e13c e12c 40bc 60bf 19bd 61c5 293d
00000390: d63b 153d a0f9 2c3d adb0 193d a44e edbb
000003a0: 343a a2bc ff4b 4abc f778 773c b3ed 863c
000003b0: bc28 5b3c adab 89bc 2f3b 3d3d 7fd9 edbc
000003c0: 34f5 65bd b27d 603c 4f53 37bd 544e 6bbd
000003d0: 1b17 143d 1e06 f43c f37b afbc d076 85bc
000003e0: 157d 8e3c bb99 e4bc 9d4a 13bd 2078 b13c
000003f0: dfac f03c 6cc0 07bd 9c7f bd3c 7d6b 0f3d

exp_avg f4 [7, 7]
0.0 0.0 0.0 0.0 0.0 0.0 0.0 0.0
-3.0236188e-06 0.0 0.0 0.0 0.0 0.0 0.0 0.0
7.5615515e-07 0.0 0.0 0.0 0.0 0.0 0.0 0.0
-1.1397888e-09 0.0 0.0 0.0 0.0 0.0 0.0 0.0
-3.8938478e-07 0.0 0.0 0.0 0.0 0.0 0.0 0.0
3.7779424e-07 0.0 0.0 0.0 0.0 0.0 0.0 0.0
2.6118545e-07
00000000: 0000 0000 0000 0000 0000 0000 0000 0000
00000010: 0000 0000 0000 0000 0000 0000 0000 0000
00000020: 60e9 4ab6 0000 0000 0000 0000 0000 0000
00000030: 0000 0000 0000 0000 0000 0000 0000 0000
00000040: 96fa 4a35 0000 0000 0000 0000 0000 0000
00000050: 0000 0000 0000 0000 0000 0000 0000 0000
00000060: c1a6 9cb0 0000 0000 0000 0000 0000 0000
00000070: 0000 0000 0000 0000 0000 0000 0000 0000
00000080: a30c d1b4 0000 0000 0000 0000 0000 0000
00000090: 0000 0000 0000 0000 0000 0000 0000 0000
000000a0: a5d3 ca34 0000 0000 0000 0000 0000 0000
000000b0: 0000 0000 0000 0000 0000 0000 0000 0000
000000c0: 0e39 8c34

exp_avg_sq f4 [7, 7]
0.0 0.0 0.0 0.0 0.0 0.0 0.0 0.0
3.90121e-10 0.0 0.0 0.0 0.0 0.0 0.0 0.0
7.99305e-13 0.0 0.0 0.0 0.0 0.0 0.0 0.0
2.3650708e-13 0.0 0.0 0.0 0.0 0.0 0.0 0.0
1.9894079e-13 0.0 0.0 0.0 0.0 0.0 0.0 0.0
1.5468129e-11 0.0 0.0 0.0 0.0 0.0 0.0 0.0
8.1942e-13
00000000: 0000 0000 0000 0000 0000 0000 0000 0000
00000010: 0000 0000 0000 0000 0000 0000 0000 0000
00000020: a678 d62f 0000 0000 0000 0000 0000 0000
00000030: 0000 0000 0000 0000 0000 0000 0000 0000
00000040: fffb 602b 0000 0000 0000 0000 0000 0000
00000050: 0000 0000 0000 0000 0000 0000 0000 0000
00000060: 4324 852a 0000 0000 0000 0000 0000 0000
00000070: 0000 0000 0000 0000 0000 0000 0000 0000
00000080: c7fc 5f2a 0000 0000 0000 0000 0000 0000
00000090: 0000 0000 0000 0000 0000 0000 0000 0000
000000a0: 210f 882d 0000 0000 0000 0000 0000 0000
000000b0: 0000 0000 0000 0000 0000 0000 0000 0000
000000c0: 6fa5 662b

exp_avg f4 [7]
0.0 -1.3002292e-06 6.548232e-07 1.7408508e-08 -2.2530803e-07 3.9398884e-07 2.2959854e-07
00000000: 0000 0000 8983 aeb5 1cc7 2f35 b789 9532
00000010: 33ec 71b4 6a85 d334 9187 7634

exp_avg_sq f4 [7]
0.0 9.107979e-11 7.5908057e-13 1.6028016e-13 1.3605492e-13 1.4979486e-11 8.120888e-13
00000000: 0000 0000 5d49 c82e 85a9 552b 9c75 342a
00000010: 292f 192a cec2 832d 2a95 642b

exp_avg f4 [128, 7]
5.1569263e-05 4.4567016e-05 6.054023e-05 4.114449e-05 4.284278e-05 4.5001805e-05 4.649708e-05 0.0
0.0 0.0 0.0 0.0 0.0 0.0 0.00010598637 7.0545546e-05
0.00015811391 0.00010105754 0.0001034918 0.00017498505 0.000102998536 0.00030076626 -2.7185632e-05 -1.6630132e-05
-4.679226e-05 -2.3166129e-05 4.9729035e-05 0.00025961173 -3.3993485e-05 -4.2801898e-05 -9.79622e-06 -1.931911e-05
-5.1513685e-05 -5.580832e-05 -1.8430654e-05 2.0764739e-05 8.982558e-06 -5.6564255e-05 9.638436e-06 1.1746086e-05
1.4876038e-05 2.9881769e-05 -0.00017914419 0.00018989132 -0.00011352676 0.00015136489 0.000112479305 0.00022810344
-0.00021579125 0.0 0.0 0.0 0.0 0.0 0.0 0.0
0.00018479326 0.000121300625 6.247005e-05 5.57457e-05 7.5753574e-05 6.979573e-05 5.1244548e-05 -1.6568494e-05
-1.6918104e-05 5.524623e-05 -4.114605e-05 1.4250511e-06 6.3374406e-05 -3.4313118e-05 0.00022984814 6.854336e-05
0.00016257177 2.6891234e-05 7.445755e-05 0.00015733461 0.00018736118 0.0 0.0 0.0
0.0 0.0 0.0 0.0 0.0 0.0 0.0 0.0
0.0 0.0 0.0 0.00022964 0.00029159553 0.00020212698 0.00038697914 0.00043331552
0.0003460257 -2.9615045e-05 0.0 0.0 0.0 0.0 0.0 0.0
0.0 -0.00013543373 -9.1574766e-05 -0.00021285066 -3.863857e-05 -6.7285124e-05 -0.00011276405 -0.00015538288
-0.000144818 -5.2847336e-05 -3.167505e-05 -7.383481e-05 -4.9509716e-05 -5.022216e-05 -0.00010262396 4.5925717e-05
5.5392953e-05 0.00010398074 2.5333828e-05 3.5076413e-05 6.7888286e-05 1.9486219e-05 2.467057e-05 2.3174418e-05
1.2187593e-05 1.1537431e-05 1.3899569e-05 1.7171318e-05 2.9109147e-05 2.3400318e-05 2.8541494e-05 0.00011160661
8.3531095e-06 2.2366115e-05 5.4942622e-05 1.4500878e-05 0.00012656249 6.8779475e-05 0.00013991777 0.000105525665
6.8779475e-05 5.5256674e-05 0.00011864016 2.135162e-05 8.274982e-06 1.8892057e-05 6.6331377e-06 4.32915e-06
-1.9173083e-06 1.20126815e-05 4.9814458e-05 5.4279855e-05 0.0001285995 2.4295769e-05 6.327562e-05 0.0001355165
-4.198265e-05 0.0001843733 -0.000101454425 -0.0006180864 -0.000103256534 -0.000108261556 -0.00035079918 0.0002646012
0.0 0.0 0.0 0.0 0.0 0.0 0.0 0.00033420805
0.00017544246 0.00032708625 0.00017832944 0.00016756782 0.00017097135 0.00025099164 0.00071285415 0.00018514981
0.0002726526 0.00017366363 0.0001806574 0.00024484863 0.00051901315 3.411713e-05 3.233026e-05 8.7706154e-05
-5.4732063e-06 3.979035e-05 9.9354846e-05 1.49138095e-05 0.0 0.0 0.0 0.0
0.0 0.0 0.0 -0.00026543456 -0.000253271 -0.0007575704 -0.000253271 -0.000253271
-0.00023642002 -0.00026543456 -0.00013338508 3.746743e-06 3.8566627e-06 -1.0252238e-05 -4.158962e-05 -2.555938e-05
-8.608547e-05 3.181967e-05 4.1496776e-05 8.5490545e-05 3.3902015e-05 3.8240592e-05 4.2759082e-05 3.3284126e-05
5.2171214e-07 -2.3114506e-05 5.9208498e-05 -2.8215074e-05 -2.269805e-05 -9.407353e-06 -1.0027983e-05 -0.00010050241
-3.9995197e-05 -5.3486812e-05 -5.291897e-05 -9.592904e-05 -7.000422e-05 -5.8997884e-05 6e-45 6e-45
6e-45 6e-45 6e-45 6e-45 6e-45 0.0 0.0 0.0
0.0 0.0 0.0 0.0 9.875619e-06 -7.0815986e-05 -1.0461697e-05 -4.5118202e-05
00000000: 134c 5838 78ed 3a38 94ec 7d38 8f92 2c38
00000010: 16b2 3338 52c0 3c38 dc05 4338 0000 0000
00000020: 0000 0000 0000 0000 0000 0000 0000 0000
00000030: 0000 0000 0000 0000 0045 de38 daf1 9338
00000040: 61cb 2539 dbee d338 bd09 d938 317c 3739
00000050: eb00 d838 2ab0 9d39 b30c e4b7 f080 8bb7
00000060: ce42 44b8 e254 c2b7 2594 5038 7f1c 8839
00000070: 3a94 0eb8 3086 33b8 725a 24b7 790f a2b7
00000080: 6610 58b8 ba13 6ab8 879b 9ab7 f02f ae37
00000090: cbb3 1637 683f 6db8 c4b4 2137 0e11 4537
000000a0: 1994 7937 9caa fa37 a7d8 3bb9 901d 4739
000000b0: 3715 eeb8 b4b7 1e39 dee2 eb38 0d2f 6f39
000000c0: 0646 62b9 0000 0000 0000 0000 0000 0000
000000d0: 0000 0000 0000 0000 0000 0000 0000 0000
000000e0: 10c5 4139 c762 fe38 5a02 8338 7dd0 6938
000000f0: e4dd 9e38 4c5f 9238 6aef 5638 92fc 8ab7
00000100: 5aeb 8db7 30b8 6738 3c94 2cb8 6244 bf35
00000110: e0e7 8438 6eeb 0fb8 6403 7139 f0be 8f38
00000120: 0778 2a39 7c94 e137 1826 9c38 30fa 2439
00000130: 6276 4439 0000 0000 0000 0000 0000 0000
00000140: 0000 0000 0000 0000 0000 0000 0000 0000
00000150: 0000 0000 0000 0000 0000 0000 0000 0000
00000160: 0000 0000 0000 0000 0000 0000 85cb 7039
00000170: 4ae1 9839 0cf2 5339 76e3 ca39 a02e e339
00000180: c96a b539 d36d f8b7 0000 0000 0000 0000
00000190: 0000 0000 0000 0000 0000 0000 0000 0000
000001a0: 0000 0000 3703 0eb9 d40b c0b8 aa30 5fb9
000001b0: d90f 22b8 6d1b 8db8 bd7b ecb8 46ee 22b9
000001c0: 49da 17b9 65a8 5db8 d3da 04b8 c3d7 9ab8
000001d0: a7a8 4fb8 a2a5 52b8 d237 d7b8 5da0 4038
000001e0: bb55 6838 3c10 da38 fb83 d437 031f 1338
000001f0: 3f5f 8e38 5676 a337 a5f3 ce37 af66 c237
00000200: 5079 4c37 e490 4137 3232 6937 200b 9037
00000210: 6b2f f437 cd4b c437 646c ef37 580e ea38
00000220: 5524 0c37 de9e bb37 3172 6638 cc48 7337
00000230: dcb5 0439 b33d 9038 e4b6 1239 a94d dd38
00000240: b33d 9038 67c3 6738 73ce f838 411c b337
00000250: c7d4 0a37 627a 9e37 3892 de36 1e43 9136
00000260: 1bab 00b6 138a 4937 deef 5038 8daa 6338
00000270: aad8 0639 c4ce cb37 d7b2 8438 6f19 0e39
00000280: 8716 30b8 5554 4139 eec3 d4b8 1307 22ba
00000290: 6e8b d8b8 7b0a e3b8 78eb b7b9 2cba 8a39
000002a0: 0000 0000 0000 0000 0000 0000 0000 0000
000002b0: 0000 0000 0000 0000 0000 0000 a538 af39
000002c0: faf6 3739 c67c ab39 f2fd 3a39 25b5 2f39
000002d0: c646 3339 8797 8339 d5de 3a3a c624 4239
000002e0: d0f2 8e39 7a19 3639 da6e 3d39 075f 8039
000002f0: 620e 083a fd18 0f38 5a9a 0738 e2ee b738
00000300: 7ca6 b7b6 90e4 2638 ba5c d038 5336 7a37
00000310: 0000 0000 0000 0000 0000 0000 0000 0000
00000320: 0000 0000 0000 0000 0000 0000 062a 8bb9
00000330: 75c9 84b9 b097 46ba 75c9 84b9 75c9 84b9
00000340: 84e7 77b9 062a 8bb9 49dd 0bb9 8e70 7b36
00000350: 7b68 8136 0701 2cb7 8470 2eb8 5a68 d6b7
00000360: c988 b4b8 1c76 0538 d30c 2e38 6349 b338
00000370: 0332 0e38 8664 2038 3758 3338 8f9a 0b38
00000380: c90b 0c35 06e6 c1b7 a456 7838 69af ecb7
00000390: b167 beb7 46d4 1db7 dc3d 28b7 d2c4 d2b8
000003a0: 84c0 27b8 0757 60b8 50f5 5db8 832d c9b8
000003b0: 3bcf 92b8 7f74 77b8 0400 0000 0400 0000
000003c0: 0400 0000 0400 0000 0400 0000 0400 0000
000003d0: 0400 0000 0000 0000 0000 0000 0000 0000
000003e0: 0000 0000 0000 0000 0000 0000 0000 0000
000003f0: 76af 2537 0b83 94b8 a584 2fb7 4d3d 3db8
