weights_new/EncoderEpochnew1150_20_8.pt (torch_old, 237354 bytes, 27 tensors)

gamma_x_l.weight f4 [7, 7]
0.03574431 -0.3379728 0.060782492 0.3630711 -0.03633532 -0.080423504 0.09305677 0.01997304
-0.042268723 -0.29265386 0.16522542 -0.013262093 0.13097957 -0.21731661 -0.1639498 -0.31569725
2.9448826 0.32650408 0.26906922 0.33706686 0.30306527 -0.20607731 0.30368313 -0.13107648
5.3349543 0.23911723 -0.09295595 0.07112265 -0.16290422 -0.13236885 0.25034896 -0.1042617
0.073951975 0.31581655 0.0030354857 0.34497926 0.15792307 0.2066916 0.037298977 -0.1279532
6.070446 0.22538796 0.21232083 0.25227848 0.2434875 0.36758462 0.059713304 -0.26099437
-0.7664307
00000000: a068 123d c50a adbe 10f7 783d 75e4 b93e
00000010: 58d4 14bd 14b5 a4bd 8c94 be3d 809e a33c
00000020: f821 2dbd bad6 95be da30 293e 4049 59bc
00000030: 821f 063e 3f88 5ebe 75e2 27be 12a3 a1be
00000040: f578 3c40 8b2b a73e 71c3 893e 0794 ac3e
00000050: 5f2b 9b3e ee05 53be 5b7c 9b3e ea38 06be
00000060: f2b7 aa40 26db 743e b05f bebd c0a8 913d
00000070: 5dd0 26be b38b 07be bd2d 803e 2887 d5bd
00000080: 2274 973d b5b2 a13e 00ef 463b 1fa1 b03e
00000090: 96b6 213e f6a6 533e d0c6 183d 2a06 03be
000000a0: 1841 c240 1acc 663e a26a 593e a52a 813e
000000b0: ca54 793e 0d34 bc3e f095 743d 0ea1 85be
000000c0: cd34 44bf

gamma_x_l.bias f4 [7]
-0.32958114 -0.118094206 5.0310483 1.0856684 -0.30178326 2.11437 -0.13142234
00000000: dcbe a8be 60db f1bd 59fe a040 2ff7 8a3f
00000010: 5683 9abe d751 0740 9493 06be

gamma_h_l.weight f4 [64, 7]
0.097312 -0.32092664 -0.5744435 -0.6381547 -0.038572874 0.52718073 0.31918466 0.2806318
-0.19536537 0.59758294 -0.07925571 0.200367 -0.32731527 0.428556 0.29265016 -0.4565489
-0.47635382 -0.3873477 -0.4702047 -0.27831894 0.34290233 0.5207142 -0.113487035 0.64169395
0.285104 0.7010323 0.6285662 0.6693611 0.6018067 0.79981923 -1.86662 0.82012784
0.2834377 1.0273279 -0.119921096 -0.17060931 -0.37309378 0.119203635 0.086060144 -0.006225808
-0.35316542 -0.10890054 0.5209862 -0.3530317 -0.31985667 0.4598566 0.055530306 -0.078202784
1.0752432 -0.34397972 -0.16717564 -1.1853781 -0.92194885 -0.29299188 -0.26034504 1.1427166
-0.43042338 0.1686239 -0.15757245 -0.14873192 -0.29639223 -0.32764193 -0.57576394 0.82685804
0.012302284 -0.77479696 -0.31451 -0.006565792 0.5747142 0.40015203 -0.21986537 0.32511887
-0.09484731 0.09724165 0.539315 0.9231961 0.46682617 0.47936204 0.4327697 0.3286558
0.3280364 0.20448875 -1.0940001 0.0050014476 0.15500224 -0.46689326 1.3620691 0.13385573
0.3014084 0.7340253 0.5432652 -0.00018557906 -0.095365524 -0.058770657 -0.06596589 -0.31750318
0.18740317 -0.20182227 -0.03517553 -0.28108925 -0.38019365 -0.1206399 -0.4272856 0.0027390514
0.21261728 0.5054634 0.44331828 0.6071835 0.19231687 -0.20224127 0.5756381 0.73883283
-0.21173231 0.061050624 -0.2861073 0.11841965 0.15734264 0.02005449 -0.05468151 0.14674824
-0.47930032 -0.27037767 -0.39149147 0.22105002 -0.05506765 -0.40411863 -0.4005853 -0.019921593
0.13523452 -0.15441665 -0.25529587 0.07497161 -0.17856398 0.3211376 -0.22852221 0.39076832
0.37398338 0.30577454 -0.09883878 0.098203965 0.49633807 0.85947734 -0.7155601 0.40003783
0.63763064 1.0613265 -0.13742575 -0.49697256 0.098505765 0.98132384 0.4297323 0.3026023
-0.12240966 1.4336126 -0.33018053 -0.019732356 -0.23064163 0.26783392 -0.37333956 -0.35043982
-0.03734553 0.07770079 -0.38754505 -0.02176324 0.046427205 0.16992672 0.06434337 -0.1520079
-0.15867653 -0.03895569 -0.3440466 -0.0356462 0.07375106 -0.32555732 0.09802839 -0.3959378
0.20936562 0.08359748 0.21695034 -0.22157167 -0.13394758 -0.39184204 0.26202953 0.48097622
0.47530442 -0.30958402 0.5395722 0.37819847 -0.47781548 0.23373418 -0.9487998 -0.1825103
-0.10818413 6.1329316e-05 1.0459076 0.66612923 0.40100703 -0.47875318 1.1922259 0.49527577
0.1514164 0.40553614 -0.1863537 -0.24375454 -0.029776692 -0.08249977 0.08854279 -0.14775096
-0.18071187 -0.040360272 -1.2981759 0.87879527 0.3684287 0.13834554 0.066181585 0.6017396
0.9232493 0.4544437 0.5454657 -0.9971783 0.66456455 0.17318247 0.23626491 -0.5371073
0.069531955 -0.24838892 0.51242816 0.19758259 -0.14788075 0.34234744 0.74542284 1.1721463
0.20838869 -0.57845676 -1.4476284 -0.69881845 0.6523382 0.43025964 -0.049438935 0.16960369
0.10756542 -0.2269118 -0.27107129 -0.3014373 -0.189883 -0.019827012 -0.063966975 0.029032214
-0.3183125 0.02986235 0.11678895 0.06802024 -0.010545909 -0.37001595 0.068659574 -0.37636065
00000000: 844b c73d 7f50 a4be bb0e 13bf 1b5e 23bf
00000010: 97fe 1dbd 51f5 063f 2c6c a33e f9ae 8f3e
00000020: dc0d 48be 32fb 183f d150 a2bd 022d 4d3e
00000030: de95 a7be b16b db3e 3ed6 953e c7c0 e9be
00000040: a6e4 f3be 7052 c6be acbe f0be d27f 8ebe
00000050: e590 af3e 874d 053f e46b e8bd 0e46 243f
00000060: 27f9 913e da76 333f b7e9 203f 405b 2b3f
00000070: 0110 1a3f f4c0 4c3f 67ed eebf e6f3 513f
00000080: bf1e 913e 7b7f 833f 3199 f5bd 35b4 2ebe
00000090: 2606 bfbe 0921 f43d 4d40 b03d dd01 ccbb
000000a0: 19d2 b4be 3f07 dfbd 5a5f 053f 92c0 b4be
000000b0: 41c4 a3be 5372 eb3e bf73 633d c828 a0bd
000000c0: 92a1 893f 1c1e b0be 1730 2bbe 78ba 97bf
000000d0: d704 6cbf 0803 96be f24b 85be 8a44 923f
000000e0: 7460 dcbe beab 2c3e ac5a 21be 2e4d 18be
000000f0: b9c0 97be afc0 a7be 4465 13bf f8ac 533f
00000100: 858f 493c 1859 46bf 7407 a1be db25 d7bb
00000110: 7820 133f bae0 cc3e 6324 61be fb75 a63e
00000120: 4e3f c2bd a126 c73d 8c10 0a3f 9456 6c3f
00000130: d703 ef3e f16e f53e fd93 dd3e 9345 a83e
00000140: 63f4 a73e 8065 513e 3208 8cbf 2fe3 a33b
00000150: e8b8 1e3e a20c efbe 4858 ae3f 7a11 093e
00000160: 3452 9a3e 15e9 3b3f 6e13 0b3f 0098 42b9
00000170: 004f c3bd 80b9 70bd 2019 87bd c78f a2be
00000180: 9ee6 3f3e 7faa 4ebe 3714 10bd eeea 8fbe
00000190: bea8 c2be 0d12 f7bd 2ec5 dabe a881 333b
000001a0: 58b8 593e 0d66 013f 9dfa e23e 6170 1b3f
000001b0: b7ee 443e 5618 4fbe 055d 133f 2624 3d3f
000001c0: 5bd0 58be 3810 7a3d a87c 92be 0086 f23d
000001d0: 6e1e 213e 5049 a43c b8f9 5fbd 2c45 163e
000001e0: da66 f5be f16e 8abe 9271 c8be f05a 623e
000001f0: 9e8e 61bd a3e8 cebe 8419 cdbe 9c32 a3bc
00000200: eb7a 0a3e 661f 1ebe 24b6 82be b78a 993d
00000210: 7ad9 36be 266c a43e ba01 6abe c912 c83e
00000220: c07a bf3e 7b8e 9c3e fc6b cabd 291f c93d
00000230: 0620 fe3e b506 5c3f f22e 37bf c2d1 cc3e
00000240: c33b 233f 8cd9 873f 56b9 0cbe 3073 febe
00000250: 64bd c93d 0a38 7b3f df05 dc3e b0ee 9a3e
00000260: eab1 fabd 9e80 b73f 6c0d a9be c0a5 a1bc
00000270: 522d 6cbe 8721 893e 5d26 bfbe d96c b3be
00000280: a0f7 18bd 9721 9f3d 4e6c c6be d348 b2bc
00000290: 742a 3e3d 4501 2e3e 75c6 833d f5a7 1bbe
000002a0: 1a7c 22be 0090 1fbd e026 b0be c001 12bd
000002b0: cc0a 973d 73af a6be 1cc3 c83d 5cb8 cabe
000002c0: f163 563e 2835 ab3d 3b28 5e3e afe3 62be
000002d0: 8e29 09be 859f c8be bc28 863e 8442 f63e
000002e0: 1a5b f33e cc81 9ebe 6721 0a3f 3ba3 c13e
000002f0: 3ba4 f4be 0358 6f3e 8be4 72bf fbe3 3abe
00000300: a48f ddbd ed9d 8038 4de0 853f 7287 2a3f
00000310: cb50 cd3e 231f f5be dc9a 983f c994 fd3e
00000320: e70c 1b3e 6fa2 cf3e 81d3 3ebe ca9a 79be
00000330: 40ee f3bc a4f5 a8bd ec55 b53d 074c 17be
00000340: 880c 39be d050 25bd a12a a6bf baf8 603f
00000350: b0a2 bc3e 74aa 0d3e 368a 873d 9b0b 1a3f
00000360: 115a 6c3f d8ac e83e a4a3 0b3f 1447 7fbf
00000370: e720 2a3f bf56 313e 6eef 713e dd7f 09bf
00000380: c566 8e3d aa59 7ebe 7e2e 033f 1753 4a3e
00000390: 0d6e 17be 2a48 af3e 08d4 3e3f e408 963f
000003a0: d863 553e be15 14bf e34b b9bf c4e5 32bf
000003b0: a3ff 263f fe4a dc3e 7b80 4abd 97ac 2d3e
000003c0: 424b dc3d 915b 68be dbc9 8abe fd55 9abe
000003d0: b070 42be 426c a2bc 1e01 83bd f7d4 ed3c
000003e0: dbf9 a2be e3a1 f43c 0c2f ef3d 324e 8b3d
000003f0: c0c8 2cbc bb72 bdbe 649d 8c3d 58b2 c0be

gamma_h_l.bias f4 [64]
-0.7201113 0.2215415 -0.64484584 0.04373186 0.27354115 -0.3993583 -0.3321873 -0.41414222
0.203164 -0.020048331 0.7659278 0.42361012 0.12100756 0.17470118 0.15834436 -0.112746574
-0.1105279 0.16478509 -0.43058997 -0.16537616 0.19171989 0.29716572 0.27604255 -0.39384505
-0.1507425 -0.05723194 0.25870574 -0.5279838 -0.42918986 0.19474092 0.32915792 0.3368396
-0.21690294 -0.39506805 -0.12742747 -0.2839135 -0.13358471 0.23183599 0.43830633 -0.087593004
-0.3577301 -0.19048981 -0.1786941 0.027261347 -0.27448592 -0.38144156 -0.4466453 0.53088564
0.7522144 0.025451196 0.11298799 0.014127104 0.20345506 0.64414304 0.34837863 0.23395778
-0.3614291 0.28523758 0.16684434 0.8288762 -0.34045604 0.16764858 0.21833491 0.37079254
00000000: 3759 38bf c6db 623e 9e14 25bf 2e20 333d
00000010: 960d 8c3e b178 ccbe 7414 aabe 730a d4be
00000020: 390a 503e 663c a4bc d813 443f 6de3 d83e
00000030: d0d2 f73d dee4 323e 0625 223e ade7 e6bd
00000040: 745c e2bd 6cbd 283e 4a76 dcbe 5e58 29be
00000050: 3852 443e 1b26 983e 7355 8d3e 0fa6 c9be
00000060: 3e5c 1abe 0a6c 6abd 1475 843e f229 07bf
00000070: c6be dbbe 2a6a 473e 6387 a83e 3d76 ac3e
00000080: ce1b 5ebe 5c46 cabe 597c 02be 1c5d 91be
00000090: 6eca 08be 6a66 6d3e b069 e03e f663 b3bd
000000a0: 6628 b7be c30f 43be 96fb 36be 3053 df3c
000000b0: 6b89 8cbe 4f4c c3be b1ae e4be 1fe8 073f
000000c0: 1f91 403f 077f d03c 3f66 e73d 5e75 673c
000000d0: 8656 503e 8fe6 243f af5e b23e a192 6f3e
000000e0: 3c0d b9be a90a 923e 3ed9 2a3e 3b31 543f
000000f0: 4150 aebe 12ac 2b3e 3093 5f3e 85d8 bd3e

encoder_lstm.weight_ih_l0 f4 [256, 7]
0.39242515 0.43209872 -2.8106823 -2.8627741 1.6845978 -0.6425856 -0.09886184 -2.6409426
0.18974327 1.2780459 -0.30114684 2.1243358 -0.102961294 2.3390784 0.028249744 -0.13088359
-0.9217075 -0.28448638 -1.1115179 0.4279925 -1.0368001 -1.5782379 -1.0812941 -1.3058212
-0.3098574 -0.17215765 0.36559397 -1.0966058 0.7666139 0.53904873 -1.6573836 -3.1172922
0.548013 -0.010628633 1.9730945 -0.1595303 1.4226229 0.16917641 0.31476778 1.4856622
0.15899985 -0.44381046 -1.5254849 -0.60194194 0.06663569 0.5226525 -1.529631 -1.3059264
-1.560303 -2.4628046 -0.32641223 0.0690411 -2.1911418 -1.060325 0.17022455 1.0156951
-1.0265876 -0.5621715 -1.8152721 -1.1569847 -2.157001 1.5410002 1.2826363 -4.3098254
1.4367607 -2.0927768 0.48034495 -2.413402 0.22944361 -2.3561685 -0.77246153 -1.0424893
-2.1732903 -1.8245775 -0.33217832 -0.6873195 -0.9960588 -1.2717309 -1.6303619 -0.3986488
-0.25479785 0.15884241 0.006270651 -0.9464106 -2.756085 0.4802004 1.9618157 -1.055883
0.04448119 -0.111382246 -0.045114618 1.9672757 -2.0849595 1.7680334 0.38619295 -2.9063842
1.1585017 -0.8708807 -1.6815886 -0.5441832 0.18064316 -1.6711162 -0.48491704 -1.0267162
-0.99172723 -0.5916058 -0.71583414 -2.4377565 -0.684281 -0.6265433 -2.1255498 -0.5887227
-2.8586912 -0.89559746 0.07818868 3.6492958 -0.4360658 1.1970842 -1.8629637 1.4146795
0.715556 -0.3915412 6.4210668 0.030951746 -0.09835556 0.57326674 0.20779881 1.046034
0.42947215 0.41662386 0.24445944 0.6620374 1.3960267 -1.2440276 -0.30619133 0.2737746
-1.2163115 0.55081457 -2.037775 0.44128317 -0.56011426 -0.6262121 -0.33559346 -0.21089442
-1.1461723 0.51734024 -2.405 -0.39630377 -0.8130265 1.1750202 -0.8420462 -0.51930594
0.91622233 -0.076089785 1.1748078 1.6661671 0.69303936 0.80728406 2.7459893 0.14023912
0.98474234 -2.7974508 -0.075456955 -1.006927 -3.8923554 -0.5621868 -1.0541632 -3.7026994
0.36997688 -1.1618276 0.38844165 -4.6736655 1.8020929 -0.29956868 4.51652 0.57512635
0.28667536 -3.1865892 0.019896949 -1.3423086 1.1473639 1.4151452 -0.8869317 -2.3293998
-2.662447 1.4408543 0.04860154 -1.0578656 -2.0802662 -0.44172737 0.422727 0.44814086
-0.83297974 -0.4594872 -0.06057205 0.24508256 -1.5756266 -0.76642764 -0.3464839 -0.8547857
-1.1304574 -1.2941334 0.5225424 -1.9006908 -0.19999191 0.5053191 -0.24929644 -0.28337985
-1.4082989 -1.8051581 -2.3727646 -0.020828411 0.43475717 0.0023646634 -0.726168 0.06676326
-1.387264 -0.97475576 -0.7308636 -1.7938124 0.69490707 -0.81667626 -1.0645984 -1.9605627
1.3353207 -0.09225988 -0.25798222 -1.5029342 -0.27071518 0.50177604 0.023775427 1.0915508
0.4897113 -0.9819437 -1.1984285 1.294314 0.32908612 -0.44797096 -0.27193323 -0.03590793
0.18033627 -0.5547395 -1.9561912 -0.38390183 1.414737 1.2722939 -0.60126185 -2.4845905
-0.6164734 -1.3351648 0.12887356 -0.18904108 2.2591538 -0.6917721 -1.7482234 1.8725419
00000000: f3eb c83e 0b3c dd3e 38e2 33c0 b137 37c0
00000010: e7a0 d73f 7d80 24bf 1478 cabd 3405 29c0
00000020: 0f4c 423e 0297 a33f eb2f 9abe 1ef5 0740
00000030: 5fdd d2bd 76b3 1540 026c e73c 5906 06be
00000040: 06f5 6bbf 33a8 91be 3846 8ebf d521 db3e
00000050: deb5 84bf b303 cabf d867 8abf 2625 a7bf
00000060: a1a5 9ebe 184a 30be 222f bb3e 945d 8cbf
00000070: cf40 443f 19ff 093f 2525 d4bf b781 47c0
00000080: 944a 0c3f b823 2ebc 5c8e fc3f e95b 23be
00000090: 8218 b63f 953c 2d3e 3e29 a13e 2e2a be3f
000000a0: dbd0 223e 203b e3be 1743 c3bf de18 1abf
000000b0: 4b78 883d 8ecc 053f f3ca c3bf 9928 a7bf
000000c0: 02b8 c7bf 979e 1dc0 811f a7be 6c65 8d3d
000000d0: ab3b 0cc0 bbb8 87bf 584f 2e3e 4c02 823f
000000e0: 3967 83bf 79ea 0fbf d65a e8bf 1318 94bf
000000f0: 4e0c 0ac0 7f3f c53f 6d2d a43f 17ea 89c0
00000100: c6e7 b73f 0ef0 05c0 c6ef f53e 2e75 1ac0
00000110: 44f3 6a3e 77cb 16c0 0ac0 45bf 4a70 85bf
00000120: 3017 0bc0 c18b e9bf 4713 aabe 2cf4 2fbf
00000130: b6fd 7ebf 14c8 a2bf b3af d0bf b21b ccbe
00000140: dd74 82be 96a7 223e 087a cd3b f747 72bf
00000150: b263 30c0 d4dc f53e c71c fb3f 2d27 87bf
00000160: e931 363d 601c e4bd 1bca 38bd b1cf fb3f
00000170: fa6f 05c0 eb4e e23f 15bb c53e 3302 3ac0
00000180: c949 943f 0af2 5ebf 4c3e d7bf 974f 0bbf
00000190: 85fa 383e 23e7 d5bf 0c47 f8be 706b 83bf
000001a0: d6e1 7dbf 7a73 17bf e840 37bf 3404 1cc0
000001b0: 0a2d 2fbf 2465 20bf 0209 08c0 88b6 16bf
000001c0: ccf4 36c0 e045 65bf 6321 a03d 108e 6940
000001d0: 0444 dfbe 0e3a 993f 9875 eebf 3814 b53f
000001e0: ae2e 373f 1778 c8be 6179 cd40 848e fd3c
000001f0: a46e c9bd 9cc1 123f 36c9 543e 71e4 853f
00000200: c6e3 db3e b94f d53e 9353 7a3e 487b 293f
00000210: 01b1 b23f 4c3c 9fbf 1cc5 9cbe 2f2c 8c3e
00000220: 18b0 9bbf 2f02 0d3f e86a 02c0 deef e13e
00000230: a663 0fbf 704f 20bf e8d2 abbe b5f4 57be
00000240: c6b5 92bf 6970 043f 85eb 19c0 54e8 cabe
00000250: 8122 50bf 1067 963f 5790 57bf 3cf1 04bf
00000260: 8c8d 6a3f f6d4 9bbd 1a60 963f f744 d53f
00000270: 076b 313f 2baa 4e3f 4abe 2f40 d89a 0f3e
00000280: 1318 7c3f 6f09 33c0 2d89 9abd fce2 80bf
00000290: 5a1c 79c0 79eb 0fbf d2ee 86bf 07f9 6cc0
000002a0: 9c6d bd3e c4b6 94bf d3e1 c63e ab8e 95c0
000002b0: fbaa e63f 1161 99be 5587 9040 7b3b 133f
000002c0: 1dc7 923e 14f1 4bc0 edfe a23c c5d0 abbf
000002d0: d2dc 923f 7a23 b53f f50d 63bf e314 15c0
000002e0: 8865 2ac0 ea6d b83f 6912 473d 2468 87bf
000002f0: 1523 05c0 172a e2be ac6f d83e b872 e53e
00000300: 293e 55bf e841 ebbe 661a 78bd ecf6 7a3e
00000310: 22ae c9bf 9a34 44bf 5666 b1be 3cd3 5abf
00000320: d4b2 90bf 2aa6 a5bf 57c5 053f d649 f3bf
00000330: aeca 4cbe 985c 013f 9147 7fbe 2a17 91be
00000340: 2343 b4bf 6c0f e7bf 60db 17c0 58a0 aabc
00000350: 7e98 de3e 78f8 1a3b 25e6 39bf 2dbb 883d
00000360: de91 b1bf 9889 79bf e019 3bbf a59b e5bf
00000370: 6ee5 313f b211 51bf c344 88bf b8f3 fabf
00000380: caeb aa3f bff2 bcbd 3f16 84be 2660 c0bf
00000390: 2e9b 8abe 6574 003f afc4 c23c f0b7 8b3f
000003a0: 71bb fa3e aa60 7bbf 1b66 99bf 15ac a53f
000003b0: fa7d a83e 735c e5be d53a 8bbe 3214 13bd
000003c0: 12aa 383e 6803 0ebf 7964 fabf c88e c4be
000003d0: 1a16 b53f 87da a23f 4cec 19bf 8803 1fc0
000003e0: 33d1 1dbf aee6 aabf 6ef7 033e fc93 41be
000003f0: fa95 1040 fa17 31bf c9c5 dfbf 74af ef3f

encoder_lstm.weight_hh_l0 f4 [256, 64]
-0.7831644 0.7790426 -0.3875066 -0.5017342 0.5800302 0.3152861 0.8068172 -0.020878935
-0.4118918 0.69389784 0.18518536 0.56123656 -0.38418427 0.41334367 0.042168543 0.6696402
0.48521802 -0.21088654 0.15396088 -0.25653324 -1.3383683 -0.99824977 -0.36564505 -0.26184773
-1.4692688 0.116004504 -0.45535436 -1.0368588 0.5191479 -0.114643976 -0.17865989 -0.45770684
1.3950554 -0.6067339 -0.58542514 -1.2830266 0.52965194 -1.274773 0.7290489 -1.7007984
-0.3819796 -2.3859937 0.014827529 0.76796925 0.9625587 -0.24697806 -0.28101444 -0.39397442
0.6373844 -0.39437932 -0.21683984 0.13153088 -0.09412022 0.2609652 0.27668998 0.17999443
-0.1356736 0.2949437 -0.23794794 0.26504892 -0.38712856 -0.1057862 -0.13261114 1.6285003
-0.50356156 0.6125724 -0.053832 -0.7195071 1.0346979 0.08862486 -0.86661 -1.0894747
0.7237396 -1.5438365 0.20337218 -0.6409443 0.33970582 -0.24394226 0.1362243 -0.92975974
-1.2751151 -0.41816112 -0.4196558 0.7691405 0.21012445 1.1502725 -0.74497324 -0.848551
-0.8412155 -0.64413595 0.3786489 0.36835447 -0.7415062 -1.1507773 -1.6227791 0.28236493
-1.014289 0.040503744 -0.8382652 0.89010113 -0.35992873 0.29251555 -0.94019127 -0.8848379
-1.8132939 -0.64138746 -0.42972174 -1.9226379 -1.0601366 -1.2466273 -0.017625129 -0.07352083
-0.3643152 -2.078914 -0.76079744 -1.0500258 1.1472144 1.5386058 1.6515532 -1.1892111
-0.9711135 -0.58840996 -0.09665004 -0.45411316 0.117434084 -0.90751135 1.7499099 0.11079037
-0.2807163 0.50420845 -0.23322585 -0.18588561 0.38683793 0.8187853 -0.49543887 -0.077996016
0.5884833 0.34577194 0.40411025 0.6100628 -0.20561917 -0.8717303 0.055021524 0.35530266
0.4609923 0.23579589 -0.5452588 -0.4706512 0.123878255 0.6459021 -0.85134 0.16506831
-0.2422355 0.74949044 -0.66647214 1.2877114 0.12280958 0.44283795 0.0034192428 -0.49286416
-0.61959577 0.98132265 -0.18987809 0.12936743 -0.4306949 0.37614724 -0.5279625 0.4519329
0.5010529 -0.5956489 -1.0969452 -0.32377663 -0.9415441 -0.5542916 -0.5165412 -0.21429542
-0.58086926 0.87916595 0.29600844 -0.37238592 0.3302758 0.5071002 0.11630901 0.44072747
-0.92852634 0.35522902 0.7650184 -0.23486896 -1.6384016 1.1474931 -0.047147147 0.51164365
-0.2460218 -0.4501816 -0.78342503 -0.126271 0.22155252 0.5920283 -0.46835396 0.9639098
-0.53128153 -0.05876923 0.29705724 0.19643787 -0.4557582 -0.5945327 0.5228704 -0.20882317
-0.14079544 0.2595855 -0.51573014 0.28609204 -0.40599796 -0.5212426 -0.80476564 0.8832274
0.44945985 0.50135654 -0.29164135 -0.72082955 -0.58442074 0.94117385 -0.046127092 -0.069856584
0.7643142 1.0627834 0.45641604 0.2932758 -0.0947517 -0.29274246 -0.32810122 0.07231806
0.25671247 -0.50558776 -1.2189649 0.2988539 -0.612372 -0.34567645 -0.43336016 0.24775124
0.26975885 0.04610192 0.9312339 0.02841664 -0.58196187 0.9795089 0.65591896 -0.16893575
-0.31737646 1.3125142 0.45554033 -0.03931379 -1.0857967 0.78753185 -0.46968153 -0.36884415
00000000: 767d 48bf 566f 473f 4467 c6be a771 00bf
00000010: dc7c 143f 2e6d a13e 928b 4e3f 4d0a abbc
00000020: 7be3 d2be 4aa3 313f 3ba1 3d3e 33ad 0f3f
00000030: cdb3 c4be c8a1 d33e ecb8 2c3d 8a6d 2b3f
00000040: 7f6e f83e a4f2 57be eca7 1d3e 5358 83be
00000050: a74f abbf 4c8d 7fbf d435 bbbe e810 86be
00000060: 0011 bcbf c593 ed3d 3524 e9be cab7 84bf
00000070: e0e6 043f 76ca eabd 9ef2 36be 8d58 eabe
00000080: 2d91 b23f ea52 1bbf 6cde 15bf 373a a4bf
00000090: 4597 073f c32b a3bf f3a2 3a3f c3b3 d9bf
000000a0: d592 c3be 1fb4 18c0 2aef 723c a299 443f
000000b0: 3f6a 763f d1e7 7cbe 20e1 8fbe 04b7 c9be
000000c0: a02b 233f 16ec c9be 430b 5ebe 08b0 063e
000000d0: 1ac2 c0bd 3b9d 853e 4faa 8d3e 7650 383e
000000e0: 05ee 0abe dc02 973e a0a8 73be 7eb4 873e
000000f0: b735 c6be 6fa6 d8bd 37cb 07be b372 d03f
00000100: 69e9 00bf 8bd1 1c3f f17e 5cbd 9e31 38bf
00000110: fb70 843f f380 b53d 27da 5dbf e873 8bbf
00000120: 0047 393f 6f9c c5bf cc40 503e ed14 24bf
00000130: eced ad3e 00cc 79be 627e 0b3e bc04 6ebf
00000140: f936 a3bf 3719 d6be 20dd d6be 64e6 443f
00000150: dd2a 573e 213c 933f 91b6 3ebf a33a 59bf
00000160: e659 57bf 18e6 24bf 45de c13e f598 bc3e
00000170: 5ad3 3dbf ac4c 93bf 3ab7 cfbf 2392 903e
00000180: 39d4 81bf 41e7 253d 8c98 56bf abdd 633f
00000190: 9448 b8be 99c4 953e 60b0 70bf bd84 62bf
000001a0: 041a e8bf f831 24bf 7d04 dcbe 0019 f6bf
000001b0: 8eb2 87bf 7c91 9fbf 9362 90bc 1792 96bd
000001c0: 8687 babe ed0c 05c0 9fc3 42bf 3f67 86bf
000001d0: ecd7 923f 09f1 c43f 1866 d33f 1238 98bf
000001e0: e59a 78bf 09a2 16bf 75f0 c5bd 8581 e8be
000001f0: 4881 f03d aa52 68bf 0cfd df3f 10e6 e23d
00000200: 0cba 8fbe ce13 013f c2d2 6ebe cc58 3ebe
00000210: 9f0f c63e ea9b 513f 2aaa fdbe 60bc 9fbd
00000220: d7a6 163f 0509 b13e 8ae7 ce3e 132d 1c3f
00000230: d58d 52be b829 5fbf 405e 613d 3bea b53e
00000240: 2f07 ec3e 7a74 713e 1596 0bbf 32f9 f0be
00000250: e2b3 fd3d d759 253f 6bf1 59bf ab07 293e
00000260: 950c 78be 9bde 3f3f eb9d 2abf bad3 a43f
00000270: 9783 fb3d a8bb e23e 6015 603b b158 fcbe
00000280: d49d 1ebf f637 7b3f 676f 42be e578 043e
00000290: 0b84 dcbe 5f96 c03e 8d28 07bf c063 e73e
000002a0: 0145 003f 727c 18bf b368 8cbf 0dc6 a5be
000002b0: 0909 71bf 0ee6 0dbf 0b3c 04bf 4270 5bbe
000002c0: d9b3 14bf 0511 613f 6b8e 973e 5ea9 bebe
000002d0: e919 a93e 52d1 013f 6b33 ee3d 08a7 e13e
000002e0: e7b3 6dbf 94e0 b53e 3fd8 433f 7d81 70be
000002f0: 25b7 d1bf 0ee1 923f 5e1d 41bd 14fb 023f
00000300: 24ed 7bbe 347e e6be 8b8e 48bf 2f4d 01be
00000310: aade 623e 2b8f 173f 17cc efbe cbc2 763f
00000320: 1102 08bf 01b8 70bd e317 983e 0227 493e
00000330: 2459 e9be 4c33 18bf d6da 053f bed5 55be
00000340: ae2c 10be 64e8 843e e406 04bf a87a 923e
00000350: f7de cfbe 2870 05bf 1f05 4ebf 311b 623f
00000360: 9a1f e63e e758 003f 0452 95be 4988 38bf
00000370: 999c 15bf c5f0 703f c3ef 3cbd f810 8fbd
00000380: 18aa 433f 4909 883f 5daf e93e 3f28 963e
00000390: 2e0d c2bd 57e2 95be e2fc a7be 7e1b 943d
000003a0: d16f 833e 336e 01bf 0b07 9cbf 6103 993e
000003b0: 69c4 1cbf 81fc b0be 62e1 ddbe 80b2 7d3e
000003c0: d51d 8a3e 5ed5 3c3d 5865 6e3f 03ca e83c
000003d0: 74fb 14bf 18c1 7a3f 4eea 273f 7efd 2cbe
000003e0: 2b7f a2be 7700 a83f 953c e93e 7f07 21bd
000003f0: 63fb 8abf b09b 493f 197a f0be 24d9 bcbe

encoder_lstm.bias_ih_l0 f4 [256]
0.23513283 0.1182035 -0.60754246 -0.74615455 -0.18160935 -0.47063074 -0.16515192 -0.5493824
-0.40160787 0.652136 -0.23857892 -0.69490546 -0.61292535 -0.68844825 -0.6998766 -0.6502052
-0.6285388 -0.94717884 -0.74747926 0.042983264 -0.47125283 -0.59945774 -0.12003805 -0.45488957
0.34411687 0.29795262 -0.2818024 -0.23274183 -0.52949333 -0.5190873 -0.12593593 -0.27021867
-0.27477247 -0.6366344 -0.4790289 -0.3763404 -0.14084424 -0.15277281 -0.3428774 -0.24550104
0.20090196 0.006134851 -0.3622354 -0.19238754 -0.3564691 -0.39333573 -0.670099 -0.49846974
-0.25688228 0.04320006 -0.47363955 -0.35582137 -0.25172526 0.22847731 0.12167794 -0.6557122
-0.4394321 -0.7580203 0.10977098 -0.80173135 -0.16731085 -0.15172705 0.019849546 -0.54990727
-0.4171848 -0.5804281 -0.6383781 -0.6471974 -0.5978938 -0.7721477 -0.7024451 -0.3716091
-0.0089925 -0.49734256 -0.43807378 -0.6754367 0.4375115 -0.551905 -0.54086864 -0.51490134
-0.29680565 -0.47961086 -0.31615022 -0.24802357 -0.2083827 -0.39028156 0.20247285 -0.26076472
0.008122228 -0.3280688 -1.3508581 -0.52116936 -0.22230585 0.58291125 0.8237921 -0.15954013
-0.5154834 -0.19650318 -0.8472027 -0.66258574 -0.70105606 -0.2794974 0.4070828 -0.27137005
-0.73431593 -0.4308769 0.19046418 0.13112661 0.32069486 -0.123148255 -0.6115131 -0.39741144
-0.26590496 0.24087538 0.2771321 -0.70533085 -0.1171629 0.13913324 -0.39638582 -0.44388923
-0.4564741 -0.6102995 -0.119073376 -0.2461534 -0.054198645 0.051305883 -0.548351 -0.35515535
0.32443255 0.12769212 -0.01514409 -0.084239244 0.04161922 0.13208374 0.2606007 -0.07665348
0.22319214 0.12298923 -0.1959483 0.030920452 0.023744395 0.2780476 0.041188862 0.012796793
-0.5762162 -0.24629794 0.13516895 -0.22829299 0.1784086 0.37646285 0.0852486 -0.21774516
0.0538716 -0.13762407 0.31824464 0.32104734 0.15045273 -0.20014895 -0.17939879 0.29776472
-0.47011057 -0.26521724 -0.20678475 -0.20890556 0.28523833 0.12279742 -0.100494035 -0.22145608
-0.29274142 0.12254312 0.2621125 -0.16588889 0.011988403 0.14719673 0.47647175 -0.119135216
0.36159945 -0.3334084 -0.11174036 -0.34575364 0.3320096 -0.09539353 -0.05379915 -0.0059288866
0.054852936 -0.12921745 -0.35912645 0.109986864 0.17464288 -0.56916654 0.24993435 0.05124037
0.37096363 -0.034896996 -0.5697379 -0.7650821 -0.17744729 -0.5095947 -0.0752533 -0.39245385
-0.6213166 0.5931834 -0.36992222 -0.61702025 0.39995998 -0.8657905 -0.79732466 -0.637386
-0.5808405 -0.7305387 -0.54903644 -0.13408734 -0.15390724 -0.43249202 -0.082273 -0.44143242
0.6050605 0.05309841 -0.2338773 -0.27900672 -0.5221387 -0.5119399 -0.22854456 -0.19919002
-0.08750698 -0.55713105 -0.45970958 -0.40614557 -0.1415849 -0.1756352 -0.34511095 -0.12430274
0.59936976 -0.062330652 -0.25122532 -0.16488667 -0.36302486 -0.3142301 -0.535786 -0.39587614
-0.31192422 -0.20458402 -0.3408531 -0.34100333 -0.36661395 0.03692204 -0.09795558 -0.54075533
-0.52915376 -0.76237166 -0.11426451 -0.6660557 -0.010310142 -0.45721108 0.04740295 -0.37408412
00000000: a9c6 703e ad14 f23d e787 1bbf fc03 3fbf
00000010: cdf7 39be 83f6 f0be 961d 29be 53a4 0cbf
00000020: 8c9f cdbe 63f2 263f 084e 74be 53e5 31bf
00000030: ade8 1cbf 253e 30bf 1d2b 33bf d973 26bf
00000040: ebe7 20bf 507a 72bf cd5a 3fbf 380f 303d
00000050: 0d48 f1be 1076 19bf 82d6 f5bd 49e7 e8be
00000060: 1630 b03e 3f8d 983e 6748 90be e053 6ebe
00000070: e08c 07bf e8e2 04bf 59f5 00be 1a5a 8abe
00000080: faae 8cbe 79fa 22bf 4743 f5be b0af c0be
00000090: 7939 10be 7a70 1cbe a08d afbe a064 7bbe
000000a0: 3eb9 4d3e dc06 c93b eb76 b9be 3d01 45be
000000b0: 1e83 b6be 4d63 c9be 9c8b 2bbf 6d37 ffbe
000000c0: 1386 83be 8cf2 303d e280 f2be 382e b6be
000000d0: 22e2 80be f5f5 693e 4932 f93d c1dc 27bf
000000e0: 3ffd e0be 9e0d 42bf 9ccf e03d 443e 4dbf
000000f0: 8953 2bbe 565e 1bbe 849b a23c b9c6 0cbf
00000100: 3f99 d5be f096 14bf bf6c 23bf bbae 25bf
00000110: 910f 19bf 79ab 45bf 71d3 33bf 8c43 bebe
00000120: 4755 13bc afa3 febe 354b e0be 6be9 2cbf
00000130: 8201 e03e a549 0dbf 5e76 0abf 93d0 03bf
00000140: e9f6 97be 8e8f f5be 71de a1be e4f9 7dbe
00000150: 4662 55be fcd2 c7be 0b55 4f3e f482 85be
00000160: 1813 053c a2f8 a7be ebe8 acbf 5b6b 05bf
00000170: 25a4 63be ac39 153f 0ae4 523f 7d5e 23be
00000180: b8f6 03bf 2138 49be 47e2 58bf 389f 29bf
00000190: 6978 33bf 491a 8fbe 286d d03e 04f1 8abe
000001a0: 21fc 3bbf e69b dcbe 0b09 433e 0e46 063e
000001b0: 1e32 a43e 2735 fcbd 1f8c 1cbf 8379 cbbe
000001c0: b224 88be 09a8 763e 42e4 8d3e 9090 34bf
000001d0: 1af3 efbd f278 0e3e 15f3 cabe 7345 e3be
000001e0: f9b6 e9be 973c 1cbf bedc f3bd a30f 7cbe
000001f0: 66ff 5dbd 1e26 523d bb60 0cbf ecd6 b5be
00000200: 061c a63e b9c1 023e eb1e 78bc a085 acbd
00000210: ea78 2a3d f640 073e 746d 853e 80fc 9cbd
00000220: 7b8c 643e c7e1 fb3d aca6 48be e34c fd3c
00000230: 9b83 c23c 415c 8e3e a7b5 283d a4a9 513c
00000240: e882 13bf 8735 7cbe bb69 0a3e a3c5 69be
00000250: beb0 363e bdbf c03e d196 ae3d 96f8 5ebe
00000260: 78a8 5c3d 53ed 0cbe f6f0 a23e 5160 a43e
00000270: 4810 1a3e d9f3 4cbe 51b4 37be 9e74 983e
00000280: 55b2 f0be 8eca 87be 62bf 53be 57eb 55be
00000290: c20a 923e 377d fb3d d1cf cdbd 62c5 62be
000002a0: 34e2 95be e3f7 fa3d 9c33 863e c7de 29be
000002b0: 026b 443c bdba 163e 1bf4 f33e 2afd f3bd
000002c0: 9023 b93e 81b4 aabe 21d8 e4bd 9f06 b1be
000002d0: 2afd a93e af5d c3bd 7f5c 5cbd 1b47 c2bb
000002e0: 79ad 603d 9451 04be 6cdf b7be cb40 e13d
000002f0: 95d5 323e e6b4 11bf caee 7f3e 6ce1 513d
00000300: f2ee bd3e 27f0 0ebd 58da 11bf 6cdc 43bf
00000310: beb4 35be cc74 02bf 671e 9abd b6ef c8be
00000320: 9b0e 1fbf deda 173f 7266 bdbe 0af5 1dbf
00000330: 8ec7 cc3e 72a4 5dbf 781d 4cbf bb2b 23bf
00000340: f7b1 14bf 9604 3bbf a78d 0cbf 314e 09be
00000350: dc99 1dbe 986f ddbe bf7e a8bd 6e03 e2be
00000360: 3fe5 1a3f b87d 593d 887d 6fbe f8d9 8ebe
00000370: e2aa 05bf 7e0e 03bf 9607 6abe 78f8 4bbe
00000380: dc36 b3bd 24a0 0ebf 0e5f ebbe 50f2 cfbe
00000390: a2fb 10be b7d9 33be 62b2 b0be 6f92 febd
000003a0: 4c70 193f 6d4e 7fbd 9ba0 80be 0dd8 28be
000003b0: 65de b9be c5e2 a0be 4529 09bf 47b0 cabe
000003c0: 88b4 9fbe 797e 51be 4c84 aebe fd97 aebe
000003d0: d3b4 bbbe 913b 173d ef9c c8bd f16e 0abf
000003e0: 9f76 07bf ca2a 43bf 8303 eabd a082 2abf
000003f0: dfeb 28bc 9217 eabe 9829 423d f487 bfbe

encoder_lstm.bias_hh_l0 f4 [256]
0.2945961 0.13303839 -0.5132413 -0.5892926 -0.28018972 -0.4121165 -0.16464892 -0.3477528
-0.45783934 0.46055174 -0.41120583 -0.58758307 -0.72878206 -0.77224576 -0.62756044 -0.49490038
-0.51200104 -0.9852635 -0.82956505 -0.11915732 -0.2724187 -0.4520059 -0.22954775 -0.42568678
0.508746 0.3589472 -0.16215147 -0.15275674 -0.646796 -0.59627247 -0.17180063 -0.16121376
-0.2375254 -0.6887116 -0.40530488 -0.23373379 -0.27798444 -0.07933138 -0.16680753 -0.17456077
0.1957381 -0.047696695 -0.25802362 -0.24144775 -0.39579567 -0.17478706 -0.57081735 -0.3016648
-0.25420102 0.016331185 -0.5491863 -0.24812399 -0.38834342 0.28166714 0.105184115 -0.49661547
-0.48222363 -0.65041 0.22156933 -0.7413342 -0.10236008 -0.2130278 0.120761685 -0.5295699
-0.3763525 -0.6159107 -0.5017284 -0.73967224 -0.5270566 -0.9145347 -0.7928524 -0.29713812
0.03203221 -0.34474158 -0.32548735 -0.6582205 0.6208018 -0.56437486 -0.5557704 -0.43932068
-0.19831695 -0.47997147 -0.4566383 -0.3498643 -0.052353434 -0.4224451 0.2632895 -0.14639519
-0.04170326 -0.20215395 -1.182308 -0.6205536 -0.23615704 0.6068935 0.67877793 -0.21031998
-0.41581556 -0.18838271 -0.70932233 -0.73504144 -0.8252059 -0.25473943 0.24677692 -0.47915933
-0.530977 -0.43500644 0.022953253 0.030487992 0.24580549 -0.14367293 -0.44320297 -0.36029872
-0.18869865 0.22854386 0.33781752 -0.6695772 -0.11944395 0.27313793 -0.47175583 -0.6333227
-0.3722549 -0.61414665 0.053859383 -0.23325092 -0.036211707 0.051935837 -0.5997434 -0.26376012
0.29738346 0.014195482 0.051318374 0.09813883 0.083140686 0.10518935 0.054042336 -0.15284607
0.18663748 0.1993881 -0.17161198 0.08219155 0.057911567 0.3026201 -0.15120342 0.06773703
-0.44684938 -0.2208349 0.16182463 -0.28254846 0.3052711 0.4342785 0.19539928 -0.3258303
0.19591309 -0.11307275 0.28749576 0.28192016 0.11358197 -0.21083316 -0.055670716 0.22233748
-0.35937086 -0.2982726 -0.149817 -0.1537977 0.0965862 0.21871518 -0.15499978 -0.24769099
-0.08531364 0.04545409 0.2887825 -0.10536083 0.060862403 -0.017547341 0.49863043 -0.29943448
0.22201797 -0.15333043 -0.2641093 -0.26131195 0.17292993 -0.02790756 -0.2900349 -0.20798221
-0.108640015 -0.21552703 -0.32249424 0.038117837 0.4099796 -0.44171965 0.25357482 0.09572413
0.370512 -0.027729891 -0.6258746 -0.7795432 0.036796216 -0.6184736 -0.18032083 -0.42974722
-0.4274214 0.6817438 -0.22330506 -0.64203435 0.33563036 -0.6664938 -0.5845708 -0.65674424
-0.65820795 -0.8224623 -0.5607625 -0.041634392 -0.25947934 -0.40050185 -0.08055135 -0.39911333
0.70130134 0.09576779 -0.14743945 -0.3716945 -0.6081026 -0.7114887 -0.4013053 -0.06644758
-0.2534368 -0.7611361 -0.41639978 -0.36800534 -0.20373555 -0.3055545 -0.22472799 -0.0732101
0.44483554 -0.01719959 -0.37498444 -0.2500759 -0.48662665 -0.32556212 -0.72459495 -0.35563
-0.31708008 -0.05319901 -0.31329134 -0.22981986 -0.30069062 -0.027514227 0.0070606763 -0.5110335
-0.40950543 -0.6021317 -0.14162852 -0.6840941 -0.038509775 -0.27889243 0.12681079 -0.47170895
00000000: 4dd5 963e 373b 083e c863 03bf e1db 16bf
00000010: 0775 8fbe ef00 d3be ba99 28be a80c b2be
00000020: eb69 eabe 70cd eb3e 9289 d2be d86b 16bf
00000030: 7691 3abf e6b1 45bf cda7 20bf 9563 fdbe
00000040: 8012 03bf 3b3a 7cbf 605e 54bf c108 f4bd
00000050: 777a 8bbe 516d e7be 910e 6bbe 9ef3 d9be
00000060: 2e3d 023f edc7 b73e 090b 26be 436c 1cbe
00000070: 6c94 25bf 50a5 18bf 81ec 2fbe 3815 25be
00000080: dc39 73be 674f 30bf 1f84 cfbe e957 6fbe
00000090: fa53 8ebe 7e78 a2bd 98cf 2abe 0fc0 32be
000000a0: 926f 483e 9c5d 43bd ac1b 84be 143e 77be
000000b0: bba5 cabe 61fb 32be 1621 12bf cf73 9abe
000000c0: a326 82be fac8 853c 7997 0cbf 3714 7ebe
000000d0: f3d4 c6be ad36 903e c56a d73d 6244 febe
000000e0: 04e6 f6be 4581 26bf 12e3 623e 14c8 3dbf
000000f0: 29a2 d1bd f623 5abe e751 f73d e591 07bf
00000100: 46b1 c0be 53ac 1dbf 4671 00bf 295b 3dbf
00000110: 2eed 06bf f21e 6abf 60f8 4abf 7d22 98be
00000120: 3534 033d f881 b0be 47a6 a6be 2481 28bf
00000130: deec 1e3f df7a 10bf f846 0ebf a4ee e0be
00000140: 9913 4bbe d2be f5be 7fcc e9be 6a21 b3be
00000150: 8e70 56bd b94a d8be e2cd 863e 9fe8 15be
00000160: 0ad1 2abd 7201 4fbe de55 97bf 9adc 1ebf
00000170: 27d3 71be 5f5d 1b3f 64c4 2d3f 1f5e 57be
00000180: c7e5 d4be 66e7 40be 2696 35bf ad2b 3cbf
00000190: b240 53bf 356d 82be 17b3 7c3e 5f54 f5be
000001a0: 1cee 07bf 2ab9 debe 7608 bc3c f4c1 f93c
000001b0: 6fb4 7b3e ff1e 13be 80eb e2be 1379 b8be
000001c0: 383a 41be 6707 6a3e 6bf6 ac3e 6969 2bbf
000001d0: 089f f4bd bcd8 8b3e fb89 f1be 7021 22bf
000001e0: 3298 bebe b738 1dbf a89b 5c3d 54d9 6ebe
000001f0: ba52 14bd acba 543d c988 19bf 910b 87be
00000200: a542 983e 2b94 683c 3733 523d 03fd c83d
00000210: aa45 aa3d 846d d73d 7f5b 5d3d ae83 1cbe
00000220: e51d 3f3e 652c 4c3e 0dbb 2fbe 0b54 a83d
00000230: ae34 6d3d 06f1 9a3e 12d5 1abe b6b9 8a3d
00000240: 71c9 e4be 8b22 62be 5bb5 253e 31aa 90be
00000250: 7e4c 9c3e c059 de3e c016 483e 3bd3 a6be
00000260: 719d 483e b092 e7bd a532 933e d757 903e
00000270: aa9d e83d a6e4 57be fa06 64bd 70ac 633e
00000280: 75ff b7be 30b7 98be a169 19be 257d 1dbe
00000290: fcce c53d dff6 5f3e 43b8 1ebe b5a2 7dbe
000002a0: ebb8 aebd 112e 3a3d 4ddb 933e 6bc7 d7bd
000002b0: db4a 793d 71bf 8fbc 7d4c ff3e 7a4f 99be
000002c0: ae58 633e a702 1dbe 5639 87be aeca 85be
000002d0: 8b14 313e 659e e4bc 747f 94be 4af9 54be
000002e0: a87e debd 1eb3 5cbe f71d a5be 7321 1c3d
000002f0: d9e8 d13e 1429 e2be 8fd4 813e 030b c43d
00000300: c0b3 bd3e cc29 e3bc 5139 20bf 2590 47bf
00000310: a1b7 163d 4954 1ebf 06a6 38be d407 dcbe
00000320: fad6 dabe c386 2e3f 15aa 64be 5d5c 24bf
00000330: bed7 ab3e 569f 2abf 6fa6 15bf 6420 28bf
00000340: 5180 28bf e48c 52bf 228e 0fbf d388 2abd
00000350: 7ada 84be 940e cdbe 1bf8 a4bd 9558 ccbe
00000360: 7c88 333f e721 c43d 5efa 16be be4e bebe
00000370: 9dac 1bbf 2024 36bf e377 cdbe ab15 88bd
00000380: 78c2 81be d1d9 42bf 5a32 d5be 326b bcbe
00000390: 0da0 50be a471 9cbe 181f 66be 2def 95bd
000003a0: 7cc1 e33e 28e6 8cbc f6fd bfbe f309 80be
000003b0: 2127 f9be 14b0 a6be 0e7f 39bf 2315 b6be
000003c0: 5258 a2be 35e7 59bd b967 a0be e655 6bbe
000003d0: 1ff4 99be 8465 e1bc 3f5d e73b 17d3 02bf
000003e0: b2aa d1be 4e25 1abf 1107 11be ca20 2fbf
000003f0: 6dbc 1dbd fdca 8ebe b0da 013e d683 f1be

encoder_attn.weight f4 [1, 148]
-0.008264225 -0.055129293 -0.06835706 0.045261562 0.08424414 -0.0052194847 0.06198059 -0.066491194
0.03030636 -0.0010449566 -0.029037228 -0.06407931 0.04176286 -0.03648685 -0.06291354 0.06133871
-0.060213443 -0.007913889 -0.024485622 0.05960285 -0.030657744 -0.072473824 -0.047801122 -0.012775484
0.068774395 0.009734517 -0.07125902 0.014815481 0.046493705 0.053429786 -0.029104244 -0.03574725
0.08062761 -0.051885337 -0.016890086 -0.056196257 -0.07582951 -0.07736371 -0.018374989 -0.033593602
-0.02578192 -0.06197507 -0.0058209044 0.0072714314 -0.05386594 -0.038263373 -0.04607932 0.04939434
0.071682945 -0.03707928 0.015471733 0.028416935 -0.07954486 -0.009243878 0.03129773 -0.0822158
0.0009767752 -0.00024253422 -0.07650975 -0.06669082 0.04768969 -0.07084457 0.07650775 -0.033443555
0.0754676 -0.06847648 -0.032453172 0.03443659 -0.009812529 -0.033182837 -0.0057938164 0.06450842
-0.021432204 0.018231748 -0.060377035 0.058500625 0.05014749 0.02874861 0.07516488 0.028121008
-0.032195006 0.03569271 -0.04057294 0.017980983 0.022301173 0.0054596304 0.054469153 -0.052658845
-0.04153722 -0.02375397 -0.07343767 -0.081897706 0.040596597 0.06418074 -0.081208006 0.04075422
-0.050404016 -0.07556844 -0.043589644 0.0813014 0.05194264 0.0074171005 -0.0071448153 -0.039881054
-0.016312674 -0.0053977245 -0.053093914 0.051198002 0.00673358 0.044885345 -0.06896662 -0.0291245
-0.012213 0.05599257 -0.033915937 0.07618858 -0.07115702 -0.05711438 -0.045480035 0.034608725
0.052907098 0.00870548 -0.040515278 -0.062070135 0.0265993 -0.06984059 0.038262747 -0.051035944
-0.7248744 0.18731555 0.5469521 -1.0046887 0.8540586 1.3744628 0.27069625 0.89353186
2.9234183 0.373731 -1.5661412 0.27603713 -2.2094321 -0.19781363 -1.1190039 0.9181833
-1.4886848 0.37060612 -0.23476025 -0.75054145
00000000: ac66 07bc 41cf 61bd c9fe 8bbd 3064 393d
00000010: 3188 ac3d 3608 abbb 5cdf 7d3d 892c 88bd
00000020: 0b45 f83c edf6 88ba 7bdf edbc 033c 83bd
00000030: 880f 2b3d 3c73 15bd d0d8 80bd 4d3e 7b3d
00000040: 5fa2 76bd 42a9 01bc 1296 c8bc 1e22 743d
00000050: f325 fbbc 286d 94bd 1ccb 43bd 4350 51bc
00000060: 97d9 8c3d 867d 1f3c 40f0 91bd a2bc 723c
00000070: 2f70 3e3d 31d9 5a3d 066c eebc b56b 12bd
00000080: 1720 a53d b885 54bd 145d 8abc 0c2e 66bd
00000090: 814c 9bbd dd70 9ebd 2587 96bc 7299 09bd
000000a0: 9b34 d3bc 92d9 7dbd 49bd bebb 3045 ee3b
000000b0: 88a2 5cbd 0eba 1cbd abbd 3cbd b851 4a3d
000000c0: 82ce 923d 71e0 17bd 277d 7d3c a2ca e83c
000000d0: 6ae8 a2bd a273 17bc 0c32 003d c260 a8bd
000000e0: 2307 803a c950 7eb9 25b1 9cbd 3295 88bd
000000f0: 4456 433d f516 91bd 18b0 9c3d 1cfc 08bd
00000100: c28e 9a3d 663d 8cbd 9eed 04bd 620d 0d3d
00000110: bbc4 20bc baea 07bd 0eda bdbb fe1c 843d
00000120: 9792 afbc bf5a 953c e94d 77bd 5a9e 6f3d
00000130: 7467 4d3d 3482 eb3c 0bf0 993d 075e e63c
00000140: e9de 03bd 8532 123d d02f 26bd db4c 933c
00000150: f3b0 b63c b3e6 b23b 0c1b 5f3d cdb0 57bd
00000160: ef22 2abd b097 c2bc 7d66 96bd fcb9 a7bd
00000170: 9e48 263d 3171 833d 6250 a6bd e6ed 263d
00000180: 7174 4ebd a0c3 9abd 0e8b 32bd 5981 a63d
00000190: cec1 543d 260b f33b 0e1f eabb 515a 23bd
000001a0: 28a2 85bc 65df b0bb 0179 59bd ffb4 513d
000001b0: 5da5 dc3b b2d9 373d 5f3e 8dbd 8196 eebc
000001c0: 0919 48bc 7758 653d 70eb 0abd c208 9c3d
000001d0: c6ba 91bd c5f0 69bd 4649 3abd e1c1 0d3d
000001e0: 1db5 583d 6ea1 0e3c 59f3 25bd 413d 7ebd
000001f0: c6e6 d93c 9508 8fbd 66b9 1c3d 110b 51bd
00000200: 5e91 39bf a6cf 3f3e 0e05 0c3f a499 80bf
00000210: 96a3 5a3f 66ee af3f b398 8a3e 81be 643f
00000220: 4919 3b40 ab59 bf3e 5177 c8bf bd54 8d3e
00000230: 5667 0dc0 a88f 4abe 853b 8fbf 100e 6b3f
00000240: 398d bebf 16c0 bd3e fe64 70be 7c23 40bf

exp_avg f4 [7, 7]
0.0 0.0 0.0 0.0 0.0 0.0 0.0 0.0
0.0 0.0 0.0 0.0 0.0 0.0 0.0 0.0
8.0869267e-10 0.0 0.0 0.0 0.0 0.0 0.0 0.0
1.707955e-09 0.0 0.0 0.0 0.0 0.0 0.0 0.0
6e-45 0.0 0.0 0.0 0.0 0.0 0.0 0.0
-2.5556126e-09 0.0 0.0 0.0 0.0 0.0 0.0 0.0
6e-45
00000000: 0000 0000 0000 0000 0000 0000 0000 0000
00000010: 0000 0000 0000 0000 0000 0000 0000 0000
00000020: 0000 0000 0000 0000 0000 0000 0000 0000
00000030: 0000 0000 0000 0000 0000 0000 0000 0000
00000040: b04a 5e30 0000 0000 0000 0000 0000 0000
00000050: 0000 0000 0000 0000 0000 0000 0000 0000
00000060: 53bd ea30 0000 0000 0000 0000 0000 0000
00000070: 0000 0000 0000 0000 0000 0000 0000 0000
00000080: 0400 0000 0000 0000 0000 0000 0000 0000
00000090: 0000 0000 0000 0000 0000 0000 0000 0000
000000a0: d09e 2fb1 0000 0000 0000 0000 0000 0000
000000b0: 0000 0000 0000 0000 0000 0000 0000 0000
000000c0: 0400 0000

exp_avg_sq f4 [7, 7]
0.0 0.0 0.0 0.0 0.0 0.0 0.0 0.0
0.0 0.0 0.0 0.0 0.0 0.0 0.0 0.0
3.4178806e-16 0.0 0.0 0.0 0.0 0.0 0.0 0.0
6.688933e-17 0.0 0.0 0.0 0.0 0.0 0.0 0.0
3.1362e-24 0.0 0.0 0.0 0.0 0.0 0.0 0.0
2.7923288e-16 0.0 0.0 0.0 0.0 0.0 0.0 0.0
1.2494438e-19
00000000: 0000 0000 0000 0000 0000 0000 0000 0000
00000010: 0000 0000 0000 0000 0000 0000 0000 0000
00000020: 0000 0000 0000 0000 0000 0000 0000 0000
00000030: 0000 0000 0000 0000 0000 0000 0000 0000
00000040: 0407 c525 0000 0000 0000 0000 0000 0000
00000050: 0000 0000 0000 0000 0000 0000 0000 0000
00000060: 7e3c 9a24 0000 0000 0000 0000 0000 0000
00000070: 0000 0000 0000 0000 0000 0000 0000 0000
00000080: d7a6 7218 0000 0000 0000 0000 0000 0000
00000090: 0000 0000 0000 0000 0000 0000 0000 0000
000000a0: 80f7 a025 0000 0000 0000 0000 0000 0000
000000b0: 0000 0000 0000 0000 0000 0000 0000 0000
000000c0: 1f82 1320

exp_avg f4 [7]
0.0 0.0 -2.6892844e-08 4.696777e-08 6e-45 -3.0399164e-07 6e-45
00000000: 0000 0000 0000 0000 fd01 e7b2 9cb9 4933
00000010: 0400 0000 4b34 a3b4 0400 0000

exp_avg_sq f4 [7]
0.0 0.0 3.3708293e-14 2.7164016e-13 3.4846414e-25 3.0905577e-11 4.765515e-19
00000000: 0000 0000 0000 0000 04cf 1729 79eb 982a
00000010: 59b0 d716 96ec 072e 37a7 0c21

exp_avg f4 [64, 7]
6e-45 6e-45 6e-45 6e-45 6e-45 6e-45 6e-45 -1.8290135e-05
-3.3920027e-05 -1.837559e-05 9.337166e-06 -8.057606e-06 -1.1496279e-05 -1.8334571e-05 6e-45 6e-45
6e-45 6e-45 6e-45 6e-45 6e-45 3.743522e-08 3.808251e-08 4.2597705e-08
3.66002e-08 3.8345966e-08 3.7459213e-08 4.176378e-08 -1.4812681e-05 -7.679786e-06 -3.866091e-06 -1.162302e-05
-7.580885e-06 -4.7087033e-06 -1.2486662e-05 6e-45 6e-45 6e-45 6e-45 6e-45
6e-45 6e-45 0.000108914726 9.373459e-05 0.00014222234 8.539837e-05 8.710094e-05 9.229106e-05
8.676057e-05 2.5879374e-09 2.5879374e-09 2.5879374e-09 2.5879374e-09 2.5879374e-09 2.5879374e-09 2.020492e-08
6e-45 6e-45 6e-45 6e-45 6e-45 6e-45 6e-45 -0.00021428114
-0.00021057998 -0.00023454538 -0.00027927756 -0.00023370354 -0.00022991213 -0.00027815808 1.486631e-06 8.6555957e-07
-2.4699838e-07 1.0246561e-06 8.5258847e-07 8.8587836e-07 9.675645e-07 2.030878e-06 2.2826248e-06 2.7123697e-06
2.2078143e-06 2.291973e-06 2.8914046e-06 2.7210451e-06 -1.7261698e-05 -1.3257301e-05 -1.5729262e-05 -1.4564556e-05
-1.4757061e-05 -1.0274561e-05 -1.908741e-05 0.0 0.0 0.0 0.0 0.0
0.0 0.0 6e-45 6e-45 6e-45 6e-45 6e-45 6e-45
6e-45 -1.08334e-06 -7.377235e-07 -5.3504056e-07 -6.2441734e-07 -7.178844e-07 -5.89735e-07 -6.6281757e-07
0.0 0.0 0.0 0.0 0.0 0.0 0.0 6e-45
6e-45 6e-45 6e-45 6e-45 6e-45 6e-45 6e-45 6e-45
6e-45 6e-45 6e-45 6e-45 6e-45 0.00010964362 7.134396e-05 7.5653035e-05
7.4578005e-05 6.9961134e-05 7.569916e-05 6.451205e-05 -3.8026324e-06 -4.2063816e-06 -1.1218936e-05 -4.1510402e-06
-4.203208e-06 -4.2005254e-06 -4.468746e-06 8.140318e-06 3.4246866e-06 3.3300914e-06 3.507984e-06 3.453188e-06
3.5583469e-06 3.466874e-06 0.0 0.0 0.0 0.0 0.0 0.0
0.0 6e-45 6e-45 6e-45 6e-45 6e-45 6e-45 6e-45
0.0 0.0 0.0 0.0 0.0 0.0 0.0 6e-45
6e-45 6e-45 6e-45 6e-45 6e-45 6e-45 -9.896401e-06 -4.8528805e-06
-6.9846487e-06 -1.6716103e-05 -4.231916e-06 -5.714863e-06 -2.0735182e-05 -1.920286e-05 3.18006e-05 1.9039304e-05
3.9470735e-05 3.2770837e-05 2.7066808e-05 1.8438639e-05 1.0626636e-06 3.908535e-06 3.8663743e-06 4.3203954e-06
3.8625058e-06 4.218709e-06 1.5895127e-06 0.0 0.0 0.0 0.0 0.0
0.0 0.0 -5.241431e-05 -8.816803e-06 3.6978912e-05 -4.1297375e-05 -5.1988176e-05 -1.3382888e-05
-4.230689e-05 -9.661671e-05 -8.639648e-05 -9.752946e-05 -9.4223404e-05 -8.960584e-05 -7.823718e-05 -8.124295e-05
-6.671712e-05 -3.923499e-05 -4.5306762e-05 -3.7512873e-05 -4.132184e-05 -3.5791865e-05 -4.4868335e-05 1.1196272e-05
1.0352251e-06 1.9464012e-06 1.024478e-05 2.9518844e-06 1.2312049e-06 6.0948582e-06 6e-45 6e-45
6e-45 6e-45 6e-45 6e-45 6e-45 6e-45 6e-45 6e-45
6e-45 6e-45 6e-45 6e-45 0.0 0.0 0.0 0.0
00000000: 0400 0000 0400 0000 0400 0000 0400 0000
00000010: 0400 0000 0400 0000 0400 0000 c46d 99b7
00000020: 5a45 0eb8 4725 9ab7 d3a6 1c37 272f 07b7
00000030: 24e0 40b7 31cd 99b7 0400 0000 0400 0000
00000040: 0400 0000 0400 0000 0400 0000 0400 0000
00000050: 0400 0000 76c8 2033 2a90 2333 acf4 3633
00000060: 5832 1d33 d6b1 2433 d7e2 2033 c35f 3333
00000070: fb83 78b7 6ed8 00b7 78b9 81b6 7e00 43b7
00000080: 4e5f feb6 74ff 9db6 ce7d 51b7 0400 0000
00000090: 0400 0000 0400 0000 0400 0000 0400 0000
000000a0: 0400 0000 0400 0000 2669 e438 6093 c438
000000b0: 8521 1539 e717 b338 f6a9 b638 638c c138
000000c0: 3af3 b538 7ad7 3131 7ad7 3131 7ad7 3131
000000d0: 7ad7 3131 7ad7 3131 7ad7 3131 178f ad32
000000e0: 0400 0000 0400 0000 0400 0000 0400 0000
000000f0: 0400 0000 0400 0000 0400 0000 a8b0 60b9
00000100: 22cf 5cb9 4cf0 75b9 006c 92b9 510e 75b9
00000110: 9114 71b9 bfd5 91b9 4188 c735 cd58 6835
00000120: 339b 84b4 ea86 8935 6fdd 6435 19cd 6d35
00000130: 43dd 8135 384a 0836 322f 1936 2806 3636
00000140: f629 1436 cccf 1936 f409 4236 339b 3636
00000150: 37cd 90b7 ad6b 5eb7 55f2 83b7 4b5a 74b7
00000160: 1895 77b7 e760 2cb7 e71d a0b7 0000 0000
00000170: 0000 0000 0000 0000 0000 0000 0000 0000
00000180: 0000 0000 0000 0000 0400 0000 0400 0000
00000190: 0400 0000 0400 0000 0400 0000 0400 0000
000001a0: 0400 0000 4767 91b5 f907 46b5 b59f 0fb5
000001b0: a29d 27b5 a4b4 40b5 484e 1eb5 7aec 31b5
000001c0: 0000 0000 0000 0000 0000 0000 0000 0000
000001d0: 0000 0000 0000 0000 0000 0000 0400 0000
000001e0: 0400 0000 0400 0000 0400 0000 0400 0000
000001f0: 0400 0000 0400 0000 0400 0000 0400 0000
00000200: 0400 0000 0400 0000 0400 0000 0400 0000
00000210: 0400 0000 78f0 e538 7f9e 9538 eaa7 9e38
00000220: c366 9c38 19b8 9238 adc0 9e38 a54a 8738
00000230: ba30 7fb6 8b24 8db6 f738 3cb7 2a49 8bb6
00000240: 4809 8db6 3df2 8cb6 3cf2 95b6 6692 0837
00000250: abd3 6536 897a 5f36 b56a 6b36 51bd 6736
00000260: efcb 6e36 71a8 6836 0000 0000 0000 0000
00000270: 0000 0000 0000 0000 0000 0000 0000 0000
00000280: 0000 0000 0400 0000 0400 0000 0400 0000
00000290: 0400 0000 0400 0000 0400 0000 0400 0000
000002a0: 0000 0000 0000 0000 0000 0000 0000 0000
000002b0: 0000 0000 0000 0000 0000 0000 0400 0000
000002c0: 0400 0000 0400 0000 0400 0000 0400 0000
000002d0: 0400 0000 0400 0000 b808 26b7 edd5 a2b6
000002e0: ad5d eab6 8f39 8cb7 e2ff 8db6 4dc2 bfb6
000002f0: 77f0 adb7 d415 a1b7 a261 0538 98b6 9f37
00000300: 618d 2538 6b73 0938 870d e337 adac 9a37
00000310: d8a0 8e35 0f26 8336 e7bb 8136 eaf7 9036
00000320: ac9a 8136 6f8e 8d36 3e57 d535 0000 0000
00000330: 0000 0000 0000 0000 0000 0000 0000 0000
00000340: 0000 0000 0000 0000 70d7 5bb8 e1eb 13b7
00000350: ce19 1b38 b836 2db8 e10d 5ab8 1187 60b7
00000360: ad72 31b8 b49e cab8 c22f b5b8 bb88 ccb8
00000370: ce99 c5b8 c5ea bbb8 4413 a4b8 fa60 aab8
00000380: 7bea 8bb8 4090 24b8 c407 3eb8 2457 1db8
00000390: fd50 2db8 391f 16b8 0231 3cb8 9fd7 3b37
000003a0: 10f2 8a35 eb9e 0236 ffe0 2b37 fd18 4636
000003b0: e13f a535 6f82 cc36 0400 0000 0400 0000
000003c0: 0400 0000 0400 0000 0400 0000 0400 0000
000003d0: 0400 0000 0400 0000 0400 0000 0400 0000
000003e0: 0400 0000 0400 0000 0400 0000 0400 0000
000003f0: 0000 0000 0000 0000 0000 0000 0000 0000
