weights_new/EncoderEpochnew250_20_8.pt (torch_old, 862530 bytes, 27 tensors)

gamma_x_l.weight f4 [7, 7]
-0.20205508 0.19068584 0.02106741 -0.038919717 -0.22292808 -0.0013388991 0.21893325 -0.0027338564
-0.29574615 0.16426346 0.11532754 -0.16114669 0.13705614 -0.05817437 0.29154953 -0.3355149
-0.27505836 0.2595609 -0.30407602 0.19664088 0.34972838 -0.36173123 -0.12326151 -0.1223039
1.031588 -0.3153847 0.31091508 0.0933314 0.32846227 -0.19911318 -0.21522106 -0.28330186
0.6756064 -0.17985894 0.24225476 0.20821378 0.052850306 -0.023675054 -0.27229017 -0.3211742
1.2766623 0.241407 -0.3341366 0.01298359 -0.26424113 -0.039945185 0.14252803 -0.28740025
-0.25979272
00000000: 87e7 4ebe 2643 433e 9095 ac3c 486a 1fbd
00000010: 4247 64be 007e afba 0a30 603e 802a 33bb
00000020: 0a6c 97be ae34 283e d830 ec3d a303 25be
00000030: 7258 0c3e 4048 6ebd fb45 953e 9cc8 abbe
00000040: 73d4 8cbe 2be5 843e daaf 9bbe 3a5c 493e
00000050: 990f b33e d634 b9be 8870 fcbd 787a fabd
00000060: 130b 843f 1a7a a1be 4330 9f3e 8824 bf3d
00000070: 352c a83e 53e4 4bbe e962 5cbe f10c 91be
00000080: 8bf4 2c3f f12c 38be a211 783e fe35 553e
00000090: 9079 583d 30f2 c1bc 9e69 8bbe f270 a4be
000000a0: ac69 a33f 6633 773e f413 abbe 20b9 543c
000000b0: 9d4a 87be 909d 23bd def2 113e 2026 93be
000000c0: 8d03 85be

gamma_x_l.bias f4 [7]
-0.33260167 0.26310056 -0.06095448 0.57444346 0.43216833 0.8914486 -0.042686105
00000000: c44a aabe 1eb5 863e 68ab 79bd ba0e 133f
00000010: 2b45 dd3e fa35 643f a0d7 2ebd

gamma_h_l.weight f4 [128, 7]
0.32184467 0.27313706 0.15061802 0.14153057 -0.28645447 0.36503986 0.14063999 0.35910675
0.32259637 0.28791577 0.36569208 -0.17937815 0.28730047 -0.3621438 -0.21085806 -0.33944058
-0.12726152 -0.17292468 -0.08215812 -0.016971886 -0.23614638 -0.23964864 -0.3696871 -0.111361444
-0.3716774 0.33082327 -0.3465049 -0.059527874 0.36144897 -0.3529792 0.33179757 -0.27525598
0.086806454 0.34355244 0.29865006 0.06997961 0.073456064 0.10837718 -0.043660432 0.22859791
0.2879021 -0.27652526 -0.47890198 -0.032469112 -0.03832026 0.12712632 0.19709809 0.26567346
0.16897948 -0.0050942563 0.20169784 -0.28876042 -0.35870162 0.3299297 -0.30897534 -0.3105809
-0.26972875 -0.18878104 -0.09908644 0.1367499 -0.33695373 0.31032705 -0.31613663 0.08938629
0.097759314 0.041275423 -0.24958551 0.06060627 0.004485859 0.24877086 -0.071152955 -0.31588215
-0.3706113 -0.35440838 -0.098915875 0.12610355 -0.13938151 0.10450932 0.10014742 -0.013406733
-0.25033015 -0.42250124 0.38578948 0.02691245 -0.33332497 -0.06873417 -0.122816 -0.2953766
0.2652925 -0.25396323 0.14531192 -0.30380088 -0.14084843 -0.22208859 -0.086971074 -0.24412185
0.21830174 -0.109535754 0.55211127 0.39317787 -0.16645944 0.39228737 -0.22185618 -0.16047615
-0.2512999 0.43531618 -0.17708895 0.21914761 -0.11150021 -0.080488905 -0.25791505 -0.14924027
-0.14114015 -0.10023405 0.18132941 -0.28972855 0.20821173 0.06882893 0.2720439 0.50097126
-0.172346 0.36168993 -0.18094322 0.13945714 -0.10773455 -0.22269961 0.24683921 -0.21525978
0.06559994 0.0008733957 0.13451932 0.2610381 0.3103371 0.27889714 0.089897 -0.03355573
-0.24333997 -0.15663432 0.0549999 -0.1556309 0.37433594 -0.071707405 0.35119727 0.036460422
-0.041259006 -0.16432123 0.24577351 0.16316752 0.089315325 0.07338622 -0.34565705 0.031205328
0.43102983 -0.2499171 0.2583207 0.04227651 0.08090051 0.089909814 0.15861571 -0.034448285
0.18424599 -0.25159895 0.37327206 -0.019639773 0.3769184 -0.16306789 0.3100843 0.28873911
0.0026224377 0.120194495 -0.20156822 0.21215641 -0.17035246 0.39412436 0.32553995 -0.013871012
-0.22282654 -0.15865237 0.6046239 0.3655628 0.08383407 0.052483607 -0.16357514 -0.20134711
-0.18210393 -0.024412826 -0.15755166 0.12980121 -0.020276543 -0.04645806 -0.31367525 -0.15648627
0.35244513 0.35968226 0.35259837 -0.40901858 -0.3254692 0.047079206 -0.18491346 0.0659394
-0.0077182055 -0.3756382 -0.15561149 -0.15305427 0.40517223 -0.31256208 0.4192752 0.038663547
0.42385274 -0.36743054 0.16248155 -0.3255983 -0.37144494 -0.20640539 0.10846546 0.1721837
0.023317862 -0.31589386 -0.08410167 -0.05953042 0.1065756 -0.23852193 0.2307162 0.0053025405
0.03326207 0.3314342 -0.33564448 -0.122973636 0.14772269 -0.017838057 -0.17348035 -0.38973454
0.03399248 -0.20584688 0.3138292 0.33591422 -0.18887115 0.3302688 0.5000182 -0.23244663
0.038002335 0.088229895 0.041560974 -0.37968028 0.18440695 0.14094387 0.40646148 0.23625964
-0.050291546 0.35043904 0.23355426 -0.42063436 0.19018716 -0.37959474 -0.19752291 -0.39212877
00000000: d3c8 a43e 9fd8 8b3e 9c3b 1a3e 64ed 103e
00000010: 29aa 92be 81e6 ba3e ee03 103e d7dc b73e
00000020: 5a2b a53e b269 933e fe3b bb3e e8ae 37be
00000030: 0c19 933e ea6a b9be 2deb 57be 28cb adbe
00000040: d850 02be 2b13 31be 8442 a8bd a008 8bbc
00000050: 5bd0 71be 7466 75be a147 bdbe 7811 e4bd
00000060: 804c bebe ab61 a93e 1769 b1be 80d3 73bd
00000070: d70f b93e b1b9 b4be 5fe1 a93e 5aee 8cbe
00000080: 95c7 b13d 1be6 af3e a9e8 983e 7851 8f3d
00000090: 2270 963d dbf4 dd3d 48d5 32bd 9215 6a3e
000000a0: e767 933e b894 8dbe a432 f5be 55fe 04bd
000000b0: b4f5 1cbd 672d 023e 15d4 493e 5a06 883e
000000c0: f508 2d3e b8ed a6bb e189 4e3e 68d8 93be
000000d0: bda7 b7be 8cec a83e 0432 9ebe 7604 9fbe
000000e0: e319 8abe d14f 41be d5ed cabd 2a08 0c3e
000000f0: 3385 acbe 30e3 9e3e a9dc a1be 2910 b73d
00000100: 0936 c83d 6b10 293d 5893 7fbe 483e 783d
00000110: 1dfe 923b cabd 7e3e a4b8 91bd 4ebb a1be
00000120: c4c0 bdbe 0475 b5be 6894 cabd 4a21 013e
00000130: 07ba 0ebe fb08 d63d 171a cd3d eaa7 5bbc
00000140: 462b 80be 1552 d8be 3386 c53e 8077 dc3c
00000150: 92a9 aabe 80c4 8cbd f486 fbbd 9a3b 97be
00000160: 6bd4 873e 7807 82be a6cc 143e ca8b 9bbe
00000170: 923a 10be 316b 63be e41d b2bd 14fb 79be
00000180: 7e8a 5f3e 4854 e0bd 2a57 0d3f 9c4e c93e
00000190: 5874 2abe e4d9 c83e 442e 63be dc53 24be
000001a0: 61aa 80be c3e1 de3e ce56 35be 3b68 603e
000001b0: 395a e4bd 5ed7 a4bd 710d 84be 71d2 18be
000001c0: 0b87 10be 8247 cdbd 6bae 393e 4d57 94be
000001d0: 7535 553e 2ff6 8c3d 5749 8b3e a73f 003f
000001e0: 787b 30be 6c2f b93e 2e49 39be dacd 0e3e
000001f0: efa3 dcbd 5e0b 64be 6bc3 7c3e 0f6d 5cbe
00000200: 4359 863d 98f4 643a 6fbf 093e c9a6 853e
00000210: 81e4 9e3e 9bcb 8e3e eb1b b83d bc71 09bd
00000220: 1d2e 79be bf64 20be 9347 613d b55d 1fbe
00000230: f6a8 bf3e 55db 92bd 21d0 b33e 8657 153d
00000240: 34ff 28bd d343 28be 0dac 7b3e 6315 273e
00000250: f4ea b63d 844b 963d f6f9 b0be 51a2 ff3c
00000260: f1af dc3e 45ea 7fbe 9c42 843e 222a 2d3d
00000270: 2baf a53d a322 b83d 286c 223e a519 0dbd
00000280: fbaa 3c3e 94d1 80be 841d bf3e 97e3 a0bc
00000290: 73fb c03e 45fb 26be 5fc3 9e3e 9dd5 933e
000002a0: 34dd 2b3b 8828 f63d e667 4ebe 883f 593e
000002b0: e070 2ebe abca c93e 2cad a63e 3e43 63bc
000002c0: a42c 64be c475 22be a2c8 1a3f 0c2b bb3e
000002d0: 32b1 ab3d 0df9 563d 3e80 27be f02d 4ebe
000002e0: 7479 3abe 68fd c7bc 3955 21be 9cea 043e
000002f0: fe1a a6bc cf4a 3ebd 0b9a a0be f03d 20be
00000300: b073 b43e 4628 b83e c687 b43e e26a d1be
00000310: e6a3 a6be 20d6 403d f459 3dbe 3c0b 873d
00000320: 00e9 fcbb a653 c0be 9e58 1fbe 42ba 1cbe
00000330: bc72 cf3e 2308 a0be 3dab d63e ab5d 1e3d
00000340: 3a03 d93e db1f bcbe 9061 263e d2b4 a6be
00000350: 082e bebe ef5b 53be 2423 de3d ed50 303e
00000360: 1a05 bf3c d7bc a1be 7f3d acbd 2bd6 73bd
00000370: 4f44 da3d 183f 74be de40 6c3e efc0 ad3b
00000380: cf3d 083d beb1 a93e 98d9 abbe 9ad9 fbbd
00000390: 9e44 173e 1e21 92bc d5a4 31be 498b c7be
000003a0: b33b 0b3d 86c9 52be 39ae a03e f3fc ab3e
000003b0: 7067 41be fe18 a93e 3101 003f 7d06 6ebe
000003c0: 56a8 1b3d e0b1 b43d d73b 2a3d 7465 c2be
000003d0: 2dd5 3c3e 9753 103e b81b d03e 0cee 713e
000003e0: 82fe 4dbd bf6c b33e d928 6f3e 635d d7be
000003f0: 6cc0 423e 3e5a c2be 7243 4abe 1ac5 c8be

gamma_h_l.bias f4 [128]
-0.16760863 0.29145968 -0.25551245 -0.036551803 0.043840997 0.050654296 -0.06147 0.3063259
0.10936939 0.34208277 -0.22812644 -0.3163634 0.0779849 0.26886973 -0.027284816 0.1426407
0.23295425 -0.18200529 -0.34708512 0.4062197 0.15112779 -0.28109756 0.06222259 -0.18477483
-0.079322435 -0.2361056 0.33497354 0.32452607 0.3399506 0.15013832 -0.43639445 0.31051287
0.45674536 0.21635309 -0.32971087 -0.121403605 -0.28950843 0.36572897 0.10029439 -0.0483646
0.08156536 -0.041279357 -0.2623354 -0.052621573 -0.025328953 0.03196863 0.015143008 -0.14678985
0.12475176 0.23885609 0.2518276 -0.34950987 -0.35660246 0.23583129 0.025302565 -0.082251824
-0.06405333 0.22330256 0.34366027 0.27918676 0.06806532 -0.03764035 0.46807906 -0.14216934
-0.31149328 0.15839133 0.1285886 -0.040123235 0.23510264 -0.2648084 -0.10213888 -0.21257304
-0.2790553 -0.08916814 0.33773935 0.21765174 0.019173382 -0.02205065 -0.19152504 -0.02476948
-0.12838289 -0.302659 0.17598958 0.3755708 -0.17731006 -0.20556346 -0.06422399 0.12608592
-0.2693274 0.0832883 0.36323184 -0.22846365 0.0995571 -0.22096747 -0.3962589 0.14258847
0.12893829 -0.30558163 0.24510947 -0.033806592 0.18770833 -0.41574305 -0.054542232 -0.23767452
0.2598066 -0.1470228 0.01708595 0.28075364 -0.31188318 -0.21697411 0.022400815 -0.31081933
0.02105004 0.30005518 -0.123226464 0.13844596 0.113576666 0.15370388 -0.0582991 -0.019031541
0.103616625 -0.36532953 -0.055053376 -0.042327225 -0.40530646 0.43025824 0.24610005 -0.36385447
00000000: 99a1 2bbe 343a 953e 87d2 82be 58b7 15bd
00000010: 9e92 333d e17a 4f3d f7c7 7bbd c0d6 9c3e
00000020: 0ffd df3d 7925 af3e fa99 69be 62fa a1be
00000030: 8cb6 9f3d 4ba9 893e 6884 dfbc 6710 123e
00000040: 8f8b 6e3e 985f 3abe 24b5 b1be 07fc cf3e
00000050: 3ec1 1a3e 05ec 8fbe 1ddd 7e3d 9d35 3dbe
00000060: cd73 a2bd abc5 71be a781 ab3e 4828 a63e
00000070: 010e ae3e dcbd 193e 186f dfbe 8bfb 9e3e
00000080: 87da e93e aa8b 5d3e ddcf a8be 74a2 f8bd
00000090: 733a 94be d440 bb3e 2567 cd3d f519 46bd
000000a0: bd0b a73d 8b14 29bd d350 86be b889 57bd
000000b0: aa7e cfbc 8af1 023d 611a 783c 1450 16be
000000c0: da7d ff3d b196 743e 8cef 803e f5f2 b2be
000000d0: 9994 b6be c27d 713e 5347 cf3c a573 a8bd
000000e0: 642e 83bd 6da9 643e 3df4 af3e 91f1 8e3e
000000f0: d565 8b3d c52c 1abd 0fa8 ef3e d794 11be
00000100: 0c7c 9fbe 5631 223e bbac 033e 4358 24bd
00000110: bfbe 703e f794 87be 302e d1bd bfac 59be
00000120: 56e0 8ebe c99d b6bd 2cec ac3e 19e0 5e3e
00000130: 7f11 9d3c 91a3 b4bc 241f 44be 5de9 cabc
00000140: ce76 03be 1ff6 9abe 9d36 343e d14a c03e
00000150: c590 35be 3a7f 52be de87 83bd ab1c 013e
00000160: 48e5 89be 0e93 aa3d 86f9 b93e 60f2 69be
00000170: 98e4 cb3d 4c45 62be 72e2 cabe b602 123e
00000180: 6608 043e 3275 9cbe fafd 7a3e c878 0abd
00000190: 9d36 403e 46dc d4be ad67 5fbd f360 73be
000001a0: 5f05 853e 258d 16be d6f7 8b3c f1be 8f3e
000001b0: 27af 9fbe 762e 5ebe ea81 b73c b623 9fbe
000001c0: 2271 ac3c d5a0 993e 285e fcbd c7c4 0d3e
000001d0: e29a e83d 8d64 1d3e 09cb 6ebd 09e8 9bbc
000001e0: f434 d43d 790c bbbe a67f 61bd 505f 2dbd
000001f0: 5484 cfbe cf4a dc3e a701 7c3e 224b babe

encoder_lstm.weight_ih_l0 f4 [512, 7]
-0.054128245 -0.0771804 -0.08649865 0.2698461 -0.07139613 -0.044236593 -0.32459936 0.19336653
-0.1022641 -0.023839768 -0.26708406 0.09136115 -0.06384143 0.060047142 -0.02711373 -0.068166144
-0.055563826 0.46172452 -0.097547896 -0.21144271 0.1121355 -0.35212344 0.10298806 -0.078731984
0.5627308 0.0150960805 -0.5028817 -0.12962344 0.008943276 0.12609123 0.27213877 0.0344926
0.35060096 -0.2477806 0.2619365 0.023475707 0.020737814 0.11516772 -0.14853662 0.049326777
-0.08480229 0.13928811 -0.016593572 0.09630211 0.117812835 0.4419203 0.17675817 -0.023217045
0.047374837 0.026146116 -0.04360161 0.004398312 -0.0748083 -0.05153569 0.108029105 0.03806259
-0.03821461 -0.015417554 -0.03622827 0.43230683 0.028006105 0.041264445 0.103611186 -0.050419707
-0.0861423 -0.06471452 -0.09179466 -0.05650944 0.017189195 0.1830505 -0.18690234 0.04581772
0.15413423 0.14040528 0.12255694 -0.3661051 0.11497299 0.2970974 0.13198292 0.4717694
0.14913289 0.4571636 0.17524268 0.612987 0.011790038 0.08913302 0.24234422 0.5609789
0.13867092 0.032870762 -0.09294812 -0.1764597 -0.0018727164 0.040880524 0.029484792 -0.098052874
-0.05338168 0.06239233 0.031170283 0.09565204 0.212538 0.43870863 0.15997636 -0.20560351
0.2854526 -0.17819083 -0.11732728 0.02074227 -0.13264136 0.07618244 -0.3270134 -0.09750249
-0.2177439 -0.11610296 -0.029285172 -0.45023054 0.045175754 -0.27235427 0.14838298 -0.18107344
0.024337083 0.22950278 0.38783437 0.23972186 -0.07428086 0.031626116 0.121928774 0.031825613
0.15310755 0.02673938 0.06907258 0.033195626 0.10388332 0.054687794 -0.010414498 0.052254155
0.103950135 0.19426115 -0.052412372 0.14585905 0.13307425 0.08728709 0.12256036 -0.31130373
0.25961193 -0.023424715 0.16009967 -0.056947578 -0.08599542 -0.053937986 0.48077238 -0.034550592
-0.28075644 0.026013153 -0.12811875 -0.025719514 -0.023742326 0.21809334 -0.025994567 -0.34284422
-0.09308311 0.21331017 0.02940234 0.026476488 0.40035164 0.094478756 -0.07751218 0.16029875
0.15124168 0.036507897 0.0057285638 -0.08183554 0.21833947 0.03400979 -0.0017310681 -0.32620868
-0.045684654 0.005775736 0.26046273 -0.10703868 -0.3451056 0.046795666 -0.052946325 0.22392575
0.23807092 0.6333496 0.1368245 -0.19911139 0.007265069 -0.12046527 0.05573177 0.028499687
-0.39253187 0.11475607 0.30978423 -0.2849267 0.11254623 0.14217702 0.26799944 0.31664634
0.1541892 0.008907719 0.29006442 0.18920194 0.12753302 0.078436784 0.32334328 0.08704565
0.30010048 -0.043168597 -0.07741994 0.11493801 0.19043548 -0.37149522 0.1610029 -0.082407385
0.04416556 0.12702356 -0.043105938 0.19249865 0.08180857 0.18028823 -0.06926423 -0.10821078
-0.37161905 -0.018267047 -0.056168616 0.04171723 -0.012046373 -0.17442992 -0.09340525 -0.17092857
0.05149814 -0.013297145 0.5224882 0.12514468 -0.34347132 -0.13374594 0.17981207 0.5249502
-0.163634 0.32027364 0.2157906 0.43021426 0.36487493 -0.16016145 0.104953066 0.10101181
0.26068115 0.21191019 -0.117225364 -0.18186839 -0.123854674 0.10548767 -0.011122272 -0.29321304
00000000: 94b5 5dbd c210 9ebd 3426 b1bd 4529 8a3e
00000010: 2238 92bd 6e31 35bd e331 a6be e001 463e
00000020: d76f d1bd 9e4b c3bc 3ebf 88be 8e1b bb3d
00000030: 4cbf 82bd fef3 753d 9d1d debc b19a 8bbd
00000040: e596 63bd 2867 ec3e 31c7 c7bd 7084 58be
00000050: 4ca7 e53d 8649 b4be 67eb d23d 3c3e a1bd
00000060: 200f 103f 8d55 773c dbbc 00bf 02bc 04be
00000070: d186 123c 0f1e 013e c655 8b3e 1d48 0d3d
00000080: f881 b33e 33ba 7dbe 8a1c 863e 2050 c03c
00000090: 59e2 a93c 0edd eb3d fc19 18be e00a 4a3d
000000a0: d3ac adbd 8ba1 0e3e 3eef 87bc 0a3a c53d
000000b0: db47 f13d 6143 e23e 1800 353e ac31 bebc
000000c0: 1e0c 423d 6130 d63c 9a97 32bd b71f 903b
000000d0: 1835 99bd 1617 53bd 5d3e dd3d 85e7 1b3d
000000e0: ec86 1cbd e999 7cbc 1864 14bd 5257 dd3e
000000f0: 0f6d e53c e804 293d 1a32 d43d e584 4ebd
00000100: 606b b0bd 0c89 84bd d7fe bbbd 7176 67bd
00000110: 5bd0 8c3c 9771 3b3e 5463 3fbe 5dab 3b3d
00000120: 5dd5 1d3e 67c6 0f3e 22ff fa3d 2172 bbbe
00000130: f576 eb3d 271d 983e 8826 073e c28b f13e
00000140: 4bb6 183e 5911 ea3e d172 333e b7ec 1c3f
00000150: 012b 413c 5f8b b63d 1529 783e 509c 0f3f
00000160: c0ff 0d3e 7ea3 063d 955b bebd dab1 34be
00000170: ef75 f5ba 5672 273d 178a f13c f2cf c8bd
00000180: c0a6 5abd 1a8f 7f3d d258 ff3c 37e5 c33d
00000190: 90a3 593e 6b9e e03e d8d0 233e ba89 52be
000001a0: d826 923e a877 36be 4949 f0bd b1eb a93c
000001b0: 23d3 07be 8a05 9c3d 4d6e a7be 63af c7bd
000001c0: 42f8 5ebe 64c7 edbd 75e7 efbc 9e84 e6be
000001d0: 360a 393d 0572 8bbe b5f1 173e 516b 39be
000001e0: 905e c73c c702 6b3e 3a92 c63e a679 753e
000001f0: 9020 98bd 638a 013d cbb5 f93d 935b 023d
00000200: 3ac8 1c3e 8b0c db3c ed75 8d3d 23f8 073d
00000210: c7c0 d43d 4f00 603d 92a1 2abc 7408 563d
00000220: cfe3 d43d 65ec 463e 5bae 56bd 135c 153e
00000230: 9e44 083e 93c3 b23d ed00 fb3d 3463 9fbe
00000240: dbeb 843e 30e5 bfbc 2bf1 233e dd41 69bd
00000250: 5e1e b0bd 14ee 5cbd cc27 f63e ec84 0dbd
00000260: 4fbf 8fbe 8919 d53c 9031 03be bbb1 d2bc
00000270: 447f c2bc dc53 5f3e 8ff2 d4bc 4789 afbe
00000280: 5ca2 bebd fb6d 5a3e 2ddd f03c 38e5 d83c
00000290: e4fa cc3e 147e c13d b5be 9ebd 5b25 243e
000002a0: 19df 1a3e 4e89 153d adb6 bb3b 6499 a7bd
000002b0: 6294 5f3e d94d 0b3d 02e5 e2ba d304 a7be
000002c0: d51f 3bbd 6342 bd3b 5f5b 853e 1837 dbbd
000002d0: aeb1 b0be d0ac 3f3d 3fde 58bd cb4c 653e
000002e0: ddc8 733e 3323 223f b91b 0c3e dbe3 4bbe
000002f0: d10f ee3b 7fb6 f6bd ff46 643d 2d78 e93c
00000300: f0f9 c8be 3b05 eb3d 0a9c 9e3e eae1 91be
00000310: a37e e63d da96 113e 3937 893e 781f a23e
00000320: c6e3 1d3e aef1 113c 5383 943e 27be 413e
00000330: 0498 023e 77a3 a03d 408d a53e fd44 b23d
00000340: c5a6 993e 8ed1 30bd 588e 9ebd 9f64 eb3d
00000350: 8501 433e 9f34 bebe f2dd 243e 34c5 a8bd
00000360: f2e6 343d 7712 023e da8f 30bd 5e1e 453e
00000370: 408b a73d 7a9d 383e 68da 8dbd 9d9d ddbd
00000380: da44 bebe c6a4 95bc 1011 66bd b0df 2a3d
00000390: 275e 45bc c29d 32be 404b bfbd e607 2fbe
000003a0: b7ef 523d 45dc 59bc c9c1 053f ed25 003e
000003b0: 79db afbe b2f4 08be a820 383e 2363 063f
000003c0: ac8f 27be e8fa a33e 36f8 5c3e 0b45 dc3e
000003d0: e3d0 ba3e 5d01 24be a2f1 d63d 48df ce3d
000003e0: 0078 853e fcfe 583e da13 f0bd b53b 3abe
000003f0: 85a7 fdbd eb09 d83d 313a 36bc 0520 96be

encoder_lstm.weight_hh_l0 f4 [512, 128]
-0.06863696 0.07170586 -0.28834385 -0.14338979 0.047268104 -0.12647718 0.05140787 0.3095618
-0.0058883284 0.14786303 -0.054425113 0.19763961 -0.077810384 -0.13997036 -0.0766699 -0.091635056
-0.046978198 0.12784971 -0.019956622 -0.17735079 -0.12203473 -0.06548164 0.044880386 0.037831396
-0.057087045 0.01564089 -0.03467444 0.28071764 0.0075172028 0.063331485 -0.0906167 0.019992774
0.0646453 0.08905827 -0.091546796 -0.10832561 0.2985164 -0.12729661 -0.14095826 0.10871044
0.08733469 0.076261126 -0.04199848 0.07765241 0.21961364 0.17664433 0.11520773 -0.0033531194
0.04338539 0.027069494 0.06382347 0.046247043 0.26275373 0.008560209 0.15303211 0.15988521
0.15064952 -0.06315392 0.07310918 -0.0033974107 -0.36538073 -0.11047284 0.08588691 -0.05510499
0.023750912 0.06968519 -0.003504218 -0.101755224 -0.25699002 0.07963901 0.2146329 0.08147107
0.025474975 -0.07310101 -0.09630102 -0.00029187472 -0.020769387 -0.01621611 -0.114403196 -0.019055713
0.047849298 -0.15261169 0.0036718803 -0.12504916 -0.002943209 0.38260052 0.25328097 0.005779769
-0.112183325 0.003697929 -0.0015631927 -0.07669561 -0.0016048524 -0.12070065 -0.13327286 0.047629476
-0.10756688 0.021948569 -0.16057594 0.16507395 0.12597266 -0.05406511 0.047652997 -0.002949493
0.010131873 0.044738553 0.014307011 0.047261495 0.039579615 -0.2093411 0.13162744 -0.28958303
0.1465097 -0.070422485 0.08282799 0.014836656 0.16191284 -0.08368354 0.07862012 -0.2781247
-0.08191138 0.04961329 0.026271602 0.22170007 -0.044959556 0.08785034 -0.028977325 -0.1754861
-0.0023144374 0.02597055 0.02282924 0.16340132 -0.024257177 0.13678594 0.09301939 -0.14288945
0.11107533 -0.03694492 0.10031521 -0.14645174 -0.020284818 0.034628436 0.16820332 0.015003561
-0.08250118 -0.09818066 0.06768382 0.1593968 0.08858142 -0.026331736 0.080456965 -0.12866901
0.10583617 0.013018129 0.32963037 -0.19080895 0.04646796 -0.09646076 0.052453484 0.10766061
-0.033300158 0.045944124 -0.011635305 -0.01938908 -0.071209125 0.06811343 0.034984604 0.04073138
-0.0742533 -0.109305814 0.011566715 0.01207265 -0.1361944 0.0057789176 0.113734506 0.08080449
-0.15311009 -0.08122485 -0.08768983 -0.038648475 -0.04739384 -0.06816094 -0.19859861 -0.11373596
-0.0068917708 0.041889798 0.12220329 -0.0681121 0.19480503 0.026542692 0.053312235 -0.017946413
-0.22718926 -0.0600133 -0.1156125 -0.019620506 0.06158017 -0.15071577 -0.031708434 0.052052613
0.0593432 -0.006178488 0.0718336 -0.015101629 0.10111092 -0.07765511 0.08451856 -0.022421425
0.031195637 -0.02409311 -0.020828564 0.1736622 0.0143021 -0.22829333 -0.16487585 -0.005572179
-0.12317759 -0.14754505 0.027656289 0.19689736 -0.10710163 0.015686452 0.016317176 -0.04159898
0.24484204 -0.10142255 0.14909399 -0.14435145 -0.04872748 0.0034935642 -0.023714926 -0.09379904
0.14371334 -0.059422437 -0.07516287 0.03445064 0.26100093 0.07551162 -0.24932759 0.0916182
-0.16926563 0.06024517 -0.23495632 -0.05117643 -0.06492821 -0.02136284 0.03161557 0.09566505
0.018244902 -0.020542344 0.012102714 -0.083218955 0.04042264 0.007415817 -0.1522864 0.11642271
00000000: 8991 8cbd 86da 923d cea1 93be c6d4 12be
00000010: 339c 413d 3c83 01be 0f91 523d e27e 9e3e
00000020: e1f2 c0bb 6869 173e deec 5ebd 0a62 4a3e
00000030: 0d5b 9fbd 6454 0fbe 1c05 9dbd 29ab bbbd
00000040: 366c 40bd 09eb 023e 127c a3bc 729b 35be
00000050: 58ed f9bd 3d1b 86bd 7fd4 373d 18f5 1a3d
00000060: 1bd4 69bd 5321 803c c906 0ebd 39ba 8f3e
00000070: de52 f63b f0b3 813d 4095 b9bd e3c7 a33c
00000080: c164 843d 2f64 b63d e37c bbbd d1d9 ddbd
00000090: 24d7 983e 0b5a 02be 5d57 10be 94a3 de3d
000000a0: 88dc b23d cb2e 9c3d 9906 2cbd 3a08 9f3d
000000b0: 66e2 603e 40e2 343e 08f2 eb3d 02c0 5bbb
000000c0: e1b4 313d d8c0 dd3c e1b5 823d 8a6d 3d3d
000000d0: a887 863e 1e40 0c3c 73b4 1c3e f3b8 233e
000000e0: de43 1a3e d856 81bd 44ba 953d 18a7 5ebb
000000f0: 2f13 bbbe 963f e2bd 7ae5 af3d c5b5 61bd
00000100: 4691 c23c 1cb7 8e3d 06a7 65bb 0b65 d0bd
00000110: 3294 83be c719 a33d bac8 5b3e 4eda a63d
00000120: e5b0 d03c fbb5 95bd 7839 c5bd c306 99b9
00000130: 9024 aabc a6d7 84bc 394c eabd ba1a 9cbc
00000140: a0fd 433d 3d46 1cbe eea3 703b e30c 00be
00000150: dae2 40bb 37e4 c33e 0bae 813e 3764 bd3b
00000160: 5fc0 e5bd f458 723b 0be4 ccba 9712 9dbd
00000170: e959 d2ba e731 f7bd ae78 08be 2017 433d
00000180: 064c dcbd 7ccd b33c 056e 24be 2509 293e
00000190: fafe 003e 6073 5dbd ca2f 433d 484c 41bb
000001a0: 2800 263c c63f 373d f467 6a3c 4595 413d
000001b0: 3c1e 223d 835d 56be 58c9 063e 3a44 94be
000001c0: a406 163e aa39 90bd b9a1 a93d 7215 733c
000001d0: 7bcc 253e 4762 abbd 9603 a13d 5c66 8ebe
000001e0: 27c1 a7bd 4e37 4b3d 8b37 d73c 5805 633e
000001f0: 8327 38bd e1ea b33d db61 edbc a1b2 33be
00000200: d1ad 17bb 31c0 d43c 6304 bb3c ad52 273e
00000210: fdb6 c6bc 9d11 0c3e f380 be3d 9d51 12be
00000220: 767b e33d 8e53 17bd 1072 cd3d 72f7 15be
00000230: 592c a6bc 8cd6 0d3d 7e3d 2c3e 7fd1 753c
00000240: 61f6 a8bd f112 c9bd d19d 8a3d ea38 233e
00000250: 2d6a b53d a7b5 d7bc 9fc6 a43d cfc1 03be
00000260: a2c0 d83d fe49 553c 50c5 a83e 6c63 43be
00000270: 3055 3e3d 388d c5bd 77d9 563d 2a7d dc3d
00000280: bf65 08bd e82f 3c3d 02a2 3ebc d9d5 9ebc
00000290: 17d6 91bd 0e7f 8b3d 044c 0f3d f3d5 263d
000002a0: 1d12 98bd badb dfbd 5282 3d3c 5dcc 453c
000002b0: 8b76 0bbe 135d bd3b a3ed e83d d37c a53d
000002c0: e4c8 1cbe 3759 a6bd ba96 b3bd dd4d 1ebd
000002d0: 0b20 42bd f797 8bbd 6f5d 4bbe 66ee e8bd
000002e0: 5dd4 e1bb a394 2b3d b845 fa3d 5b7e 8bbd
000002f0: f87a 473e 0f70 d93c ee5d 5a3d 5b04 93bc
00000300: 4da4 68be 82d0 75bd 3fc6 ecbd 2fbb a0bc
00000310: 7d3b 7c3d 3c55 1abe b4e0 01bd 1f35 553d
00000320: db11 733d ea74 cabb 7f1d 933d d36c 77bc
00000330: 3e13 cf3d a409 9fbd 1118 ad3d 23ad b7bc
00000340: fe8d ff3c ea5e c5bc aaa0 aabc 81d4 313e
00000350: 5b53 6a3c bac5 69be 37d5 28be d396 b6bb
00000360: 8844 fcbd 0d16 17be 718f e23c 769f 493e
00000370: 1958 dbbd e080 803c 99ab 853c b163 2abd
00000380: dfb7 7a3e a0b6 cfbd 18ac 183e ded0 13be
00000390: 7796 47bd 48f4 643b ce45 c2bc b619 c0bd
000003a0: 9729 133e f164 73bd feee 99bd 1d1c 0d3d
000003b0: eaa1 853e d6a5 9a3d bb4f 7fbe 53a2 bb3d
000003c0: f853 2dbe a4c3 763d 6498 70be 609e 51bd
000003d0: 15f9 84bd 1f01 afbc 547f 013d 0aec c33d
000003e0: 5576 953c 6b48 a8bc 764a 463c b36e aabd
000003f0: 3692 253d 6200 f33b f7f0 1bbe 086f ee3d

encoder_lstm.bias_ih_l0 f4 [512]
0.055094514 -0.073209986 0.08994769 0.08239044 0.02442199 0.08638059 0.16092348 0.09989396
0.15307412 0.049555115 0.07919533 0.27610502 0.0855056 -0.02665859 0.11070924 0.13429797
0.03412294 0.24394067 -0.07127613 0.05256474 -0.057476394 -0.052286264 0.08183615 0.0845036
-0.04749973 -0.022544688 0.10437448 0.13726373 -0.100007586 0.036626104 0.03384415 0.1158709
0.069343336 -0.033070017 0.48095924 0.13706346 0.19450378 0.30354303 0.039754573 0.051628675
0.0017789907 0.072362654 0.00612639 -0.04733488 0.02224109 0.026691627 0.5887824 -0.011925577
-0.093775354 0.19792561 -0.030590383 -0.0003805354 0.009263878 -0.060629502 0.24915689 0.26098028
0.24907047 -0.05623196 -0.06960648 -0.06190466 0.38818327 0.30926216 -0.06614874 0.036989693
0.09787512 -0.107512765 0.24516997 -0.031487375 -0.019121218 -0.04004127 -0.00615972 -0.08210229
-0.0698458 0.040378314 0.026922219 0.010842485 0.3910075 0.07553014 0.21240325 -0.08541816
0.03880104 0.09830086 -0.058516856 0.09432835 0.038677555 0.04391315 0.1679978 -0.030078452
0.2494621 0.02780738 -0.013316988 0.10220582 0.07815056 -0.007009131 0.089237966 -0.07747706
0.23803711 0.4498913 0.1426785 0.2417579 0.10010661 -0.041879658 -0.02163321 0.41648343
-0.091955036 0.18786964 0.15272659 -0.06552604 0.32551235 -0.06261339 0.35566026 0.008164277
0.21195416 -0.0042317766 0.24817382 -0.0110503845 0.12687212 0.018723112 0.2265475 0.05044293
-0.06826347 0.01693353 -0.06858489 -0.02226226 -0.02595321 -0.02201652 -0.06407069 0.22267021
0.0043129963 0.038665913 -0.08911742 -0.07024237 -0.038064748 -0.03639189 -0.12894832 -0.0017299075
0.06494552 -0.07838255 -0.08182024 -0.015935466 0.046915825 -0.12028558 0.104048535 0.14581409
0.0048218165 -0.031760253 -0.061867658 -0.040839456 0.047196496 0.0092186835 -0.006259509 0.07125813
-0.055055648 0.0006950917 -0.097899854 -0.026217833 0.0005337565 -0.037794374 -0.103050195 0.25464463
-0.10322236 -0.12116462 -0.13093412 0.049742453 -0.030973366 -0.028062308 0.01410484 -0.110775165
0.07829822 -0.17867853 0.057213668 -0.125735 -0.027575405 -0.081282586 -0.16856264 -0.07540008
-0.041294537 -0.07840179 -0.022558019 0.048426066 -0.025006043 -0.11577968 -0.054448776 -0.13057888
-0.03541218 -0.013429883 -0.08294261 -0.100438625 -0.2127913 -0.15631922 -0.061653137 0.004475079
0.11269741 0.033002086 -0.0011237026 -0.06863706 -0.010335805 -0.10476056 -0.028990578 -0.07410655
-0.03788473 0.07763497 -0.014038285 -0.13724694 -0.053065352 0.01794369 0.08986691 -0.0020963962
0.0966992 -0.08946948 0.057073798 -0.049755055 -0.04049168 0.048012305 -0.1489063 -0.12913951
-0.13103108 0.0032634553 -0.04979421 -0.026832463 -0.028051363 -0.031912193 0.119785056 -0.033303086
-0.04638714 0.08147568 0.0077557615 -0.11788157 -0.023388593 0.033109214 -0.0072323657 -0.026339043
0.02336749 -0.20370032 -0.074644275 -0.0731507 -0.02887213 -0.0673749 0.0002804578 -0.06509109
-0.04488975 -0.12542596 -0.049963124 -0.11186172 -0.029428802 0.009228532 -0.13006017 0.072284654
0.053127922 -0.03124824 -0.004194859 -0.11005451 0.05536924 -0.11073352 0.071810536 -0.050496887
00000000: c9aa 613d 1eef 95bd 7f36 b83d 52bc a83d
00000010: a010 c83c 4fe8 b03d 20c9 243e 3495 cc3d
00000020: 76bf 1c3e 4efa 4a3d 2931 a23d a35d 8d3e
00000030: 8f1d af3d 1e63 dabc 87bb e23d 6885 093e
00000040: 7fc4 0b3d 95cb 793e 38f9 91bd 204e 573d
00000050: 5e6c 6bbd 1f2a 56bd b699 a73d 3910 ad3d
00000060: 148f 42bd a3af b8bc 4ac2 d53d dd8e 0c3e
00000070: c7d0 ccbd 4105 163d 2aa0 0a3d b94d ed3d
00000080: e103 8e3d 6d74 07bd 4a40 f63e 5d5a 0c3e
00000090: 002c 473e fe69 9b3e b1d5 223d 9778 533d
000000a0: 062d e93a df32 943d e2bf c83b 38e2 41bd
000000b0: f232 b63c 66a8 da3c 72ba 163f 7f63 43bc
000000c0: 4b0d c0bd 03ad 4a3e af98 fabc 9982 c7b9
000000d0: 85c7 173c a456 78bd fc22 7f3e 359f 853e
000000e0: 540c 7f3e 7c53 66bd d88d 8ebd be8f 7dbd
000000f0: f5bf c63e 9c57 9e3e fe78 87bd 8182 173d
00000100: c072 c83d a72f dcbd d60d 7b3e e8f8 00bd
00000110: 1aa4 9cbc 5102 24bd 7ad7 c9bb 3f25 a8bd
00000120: 510b 8fbd bb63 253d fc8b dc3c aea4 313c
00000130: 2332 c83e 8caf 9a3d 3d80 593e b7ef aebd
00000140: d7ed 1e3d f651 c93d 5faf 6fbd 392f c13d
00000150: 5b6c 1e3d 46de 333d 9e07 2c3e 1667 f6bc
00000160: fe72 7f3e 4dcc e33c 7f2f 5abc 4951 d13d
00000170: 670d a03d daac e5bb 65c2 b63d 4bac 9ebd
00000180: 00c0 733e 2758 e63e 501a 123e 628f 773e
00000190: b204 cd3d 018a 2bbd 2138 b1bc 513d d53e
000001a0: ec52 bcbd e660 403e 5c64 1c3e 8432 86bd
000001b0: 8ea9 a63e 733b 80bd 1a19 b63e 76c3 053c
000001c0: 830a 593e b7aa 8abb 4721 7e3e ac0c 35bc
000001d0: c4ea 013e 3661 993c 11fc 673e 3f9d 4e3d
000001e0: b8cd 8bbd 30b8 8a3c 3c76 8cbd 585f b6bc
000001f0: d49b d4bc fd5b b4bc 7e37 83bd a903 643e
00000200: 0954 8d3b 2660 1e3d 3283 b6bd 3bdb 8fbd
00000210: c8e9 1bbd aa0f 15bd 070b 04be 10be e2ba
00000220: 2802 853d 0887 a0bd 5f91 a7bd 188b 82bc
00000230: cf2a 403d 4958 f6bd 6617 d53d 4a50 153e
00000240: 5400 9e3b 0a17 02bd f168 7dbd 4647 27bd
00000250: 1d51 413d f609 173c 911c cdbb c8ef 913d
00000260: 0882 61bd d036 363a b87f c8bd c8c6 d6bc
00000270: cbeb 0b3a 46ce 1abd fb0b d3bd c860 823e
00000280: 3f66 d3bd 2825 f8bd 9813 06be bebe 4b3d
00000290: dbbb fdbc ede2 e5bc fd17 673c 17de e2bd
000002a0: d15a a03d 81f7 36be e158 6a3d adc0 00be
000002b0: d1e5 e1bc 7c77 a6bd af9b 2cbe 5b6b 9abd
000002c0: 7624 29bd 1e91 a0bd 98cb b8bc 695a 463d
000002d0: 79d9 ccbc e61d edbd ae05 5fbd 78b6 05be
000002e0: 5d0c 11bd 0309 5cbc d1dd a9bd c4b2 cdbd
000002f0: f6e5 59be 2512 20be 0088 7cbd afa3 923b
00000300: e6cd e63d 322d 073d 3449 93ba 9691 8cbd
00000310: 8257 29bc b48c d6bd a67d edbc 2dc5 97bd
00000320: 052d 1bbd 15ff 9e3d d600 66bc 768a 0cbe
00000330: 0e5b 59bd a5fe 923c 240c b83d b163 09bb
00000340: 3b0a c63d c63b b7bd 37c6 693d f5cb 4bbd
00000350: 9bda 25bd 8da8 443d e57a 18be 263d 04be
00000360: 032d 06be b2df 553b 03f5 4bbd c1cf dbbc
00000370: f9cb e5bc 5cb6 02bd de51 f53d d168 08bd
00000380: 7100 3ebd b9dc a63d 0b24 fe3b e46b f1bd
00000390: 6f99 bfbc 879d 073d 7bfd ecbb fac4 d7bc
000003a0: 2e6d bf3c d196 50be 19df 98bd 09d0 95bd
000003b0: 3f85 ecbc dafb 89bd 690a 9339 7a4e 85bd
000003c0: 51de 37bd aa6f 00be 22a6 4cbd c217 e5bd
000003d0: ac14 f1bc 4533 173c 7e2e 05be fa09 943d
000003e0: aa9c 593d 4ffc ffbc 0775 89bb 4264 e1bd
000003f0: dbca 623d 41c8 e2bd 6711 933d d3d5 4ebd

encoder_lstm.bias_hh_l0 f4 [512]
-0.015731562 -0.005487274 -0.013988281 0.050883353 0.12605585 0.033191014 0.22679779 -0.034398995
0.16563411 -0.07785993 -0.06746768 0.22464621 -0.019983813 -0.022427484 0.15281947 0.052297886
-0.10047248 0.25529337 0.031034334 -0.09194696 -0.045117185 -0.03400344 0.031077303 -0.05337343
-0.059202954 -0.007881404 0.18364528 0.23224942 0.010062244 -0.047440592 0.074844316 0.13498178
0.08495099 0.044125944 0.40913334 0.14574084 0.14531505 0.3823704 0.11899289 0.069198355
-0.040562198 0.06471673 -0.02045147 0.025088616 -0.06484279 -0.06944245 0.46021226 -0.0075446256
0.027367182 0.25481865 0.06395646 -0.017803289 -0.007128027 -0.03661266 0.27601513 0.23330192
0.2020195 -0.024204267 -0.009319726 -0.07994797 0.2625549 0.2656034 -0.009111494 -0.009400076
0.12395684 0.0172117 0.22149535 -0.021364816 0.017135972 0.07574906 0.092364326 -0.020926861
0.10171421 0.042447872 -0.024452316 0.1028256 0.26122782 -0.0011845502 0.23299581 0.07658818
-0.028815491 0.102443285 -0.09152312 0.045757197 0.04386495 0.13082148 0.12518488 -0.10788341
0.14541972 0.08521764 0.08609409 0.03898985 0.15123385 -0.0077596703 -0.024842517 -0.02827796
0.17910308 0.37670207 0.14315711 0.098612405 0.130781 0.020503115 0.043537155 0.31181666
-0.04418172 0.1869727 0.08467265 0.013836782 0.26396716 -0.0056027374 0.4372923 0.033761535
0.27390835 0.033158176 0.3795215 -0.06430688 -0.005951734 -0.05291599 0.16694227 0.01636402
-0.07748054 0.025816873 -0.050799686 0.1159209 0.019473093 -0.023927154 0.0743696 0.25593168
-0.10019098 0.016052615 -0.0016616362 -0.008788664 -0.0899423 -0.05220655 -0.032581914 -0.07771792
0.035425864 -0.04858447 -0.06639516 -0.06887044 -0.07274729 -0.011835595 0.08894911 0.10476423
0.018496336 -0.1511306 -0.0070053367 0.017102415 -0.004622115 -0.009178275 -0.038835347 0.041939132
-0.059636153 -0.0121060815 -0.03444648 -0.030227887 -0.060753327 0.0979674 -0.0011042715 0.17698878
-0.03419193 -0.09198806 -0.068544745 0.07398447 -0.08345854 0.053153288 -0.05890666 -0.030401565
0.061886583 -0.16954663 -0.05275163 -0.048449766 -0.12894747 -0.13314675 -0.15872608 -0.045034964
-0.095976636 0.02428709 -0.040351912 -0.017867176 -0.028079722 -0.03160145 -0.025380852 -0.08280829
-0.17410912 -0.013196041 -0.07720743 0.003334361 -0.09262715 -0.097563736 -0.023399437 -0.07325137
0.098695464 0.037292924 -0.06297958 -0.09018882 -0.0116026765 0.011975236 -0.06580312 -0.017451763
0.08801811 -0.023180751 -0.11156074 -0.06305668 0.078131 -0.06907795 0.07940344 -0.049841743
0.08890607 -0.08239071 -0.10904305 -0.09118664 0.012566599 0.060310483 -0.085193664 0.030123414
-0.08356091 -0.014338338 -0.07859131 -0.08109889 0.016709946 0.0025274293 0.11806228 -0.09086702
-0.05164704 -0.025659302 -0.045538448 -0.015914906 0.05193926 0.0025719109 0.016412046 -0.15378328
-0.07487314 -0.15828858 0.04127668 -0.0054706004 -0.114862636 -0.117502645 -0.06347267 0.018193914
-0.039601937 -0.04370141 -0.04827145 -0.083714835 0.028386744 -0.10199211 -0.048167583 -0.08844282
-0.013385439 0.09383807 -0.054418057 -0.02095534 -0.059954144 0.052456044 0.05364227 -0.017783826
00000000: 7adf 80bc 97ce b3bb 1a2f 65bc 106b 503d
00000010: c914 013e 4df3 073d ae3d 683e f6e5 0cbd
00000020: fd9b 293e 0775 9fbd 7f2c 8abd a809 663e
00000030: 18b5 a3bc d8b9 b7bc b57c 1c3e 4f36 563d
00000040: 84c4 cdbd d0b5 823e b73b fe3c b04e bcbd
00000050: cccc 38bd 3147 0bbd d495 fe3c 199e 5abd
00000060: cc7e 72bd 0121 01bc 820d 3c3e cbd2 6d3e
00000070: 1cdc 243c 1151 42bd fa47 993d aa38 0a3e
00000080: c9fa ad3d 68bd 343d ed79 d13e 163d 153e
00000090: 78cd 143e 0ec6 c33e 8bb2 f33d deb7 8d3d
000000a0: 8c24 26bd 348a 843d d789 a7bc a486 cd3c
000000b0: 4ccc 84bd d837 8ebd f1a0 eb3e e838 f7bb
000000c0: 2431 e03c 9777 823e 9bfb 823d 34d8 91bc
000000d0: 3992 e9bb 28f7 15bd db51 8d3e b3e6 6e3e
000000e0: 33de 4e3e 0748 c6bc c4b1 18bc c3bb a3bd
000000f0: 996d 863e 2bfd 873e 6048 15bc c702 1abc
00000100: 15dd fd3d 8dff 8c3c adcf 623e 4405 afbc
00000110: bd60 8c3c 5322 9b3d 8229 bd3d cf6e abbc
00000120: 8a4f d03d d2dd 2d3d 3950 c8bc 3a96 d23d
00000130: a7bf 853e e942 9bba 7496 6e3e 44da 9c3d
00000140: 770e ecbc c9cd d13d 7970 bbbd e66b 3b3d
00000150: bcab 333d 11f6 053e 7730 003e faf1 dcbd
00000160: e8e8 143e 9686 ae3d 1952 b03d d2b3 1f3d
00000170: 0cdd 1a3e d544 febb 8982 cbbc 2ea7 e7bc
00000180: cc66 373e 18df c03e c797 123e 4df5 c93d
00000190: 74eb 053e 26f6 a73c 0454 323d 6fa6 9f3e
000001a0: e4f7 34bd c575 3f3e db68 ad3d acb3 623c
000001b0: b426 873e 2b97 b7bb c7e4 df3e 8949 0a3d
000001c0: b73d 8c3e ded0 073d a450 c23e 53b3 83bd
000001d0: c306 c3bb 70be 58bd eaf2 2a3e d60d 863c
000001e0: 1eae 9ebd e87d d33c 5513 50bd f067 ed3d
000001f0: 0986 9f3c e102 c4bc 174f 983d 7a09 833e
00000200: ee30 cdbd c680 833c 42cb d9ba 54fe 0fbc
00000210: ab33 b8bd 89d6 55bd 9d74 05bd 932a 9fbd
00000220: b61a 113d 8200 47bd 30fa 87bd f20b 8dbd
00000230: 88fc 94bd 15ea 41bc f32a b63d a18e d63d
00000240: a185 973c fbc1 1abe 068d e5bb 5d1a 8c3c
00000250: 1c75 97bb 7a60 16bc d011 1fbd 5ec8 2b3d
00000260: 0a45 74bd 9658 46bc c117 0dbd 79a0 f7bc
00000270: 7bd8 78bd 22a3 c83d 34bd 90ba 8c3c 353e
00000280: d60c 0cbd 3c64 bcbd 3061 8cbd 2b85 973d
00000290: 50ec aabd 43b7 593d 1c48 71bd b40c f9bc
000002a0: c97c 7d3d a29d 2dbe 1812 58bd 4373 46bd
000002b0: ce0a 04be 9f57 08be 1789 22be 9576 38bd
000002c0: 668f c4bd b8f5 c63c 0c48 25bd 2f5e 92bc
000002d0: 7207 e6bc 8670 01bd 81eb cfbc 6597 a9bd
000002e0: a949 32be 3534 58bc ee1e 9ebd 4b85 5a3b
000002f0: 4eb3 bdbd 7fcf c7bd 2db0 bfbc d004 96bd
00000300: d920 ca3d 77c0 183d 70fb 80bd ebb4 b8bd
00000310: 2719 3ebc c833 443c c9c3 86bd 00f7 8ebc
00000320: d742 b43d 8fe5 bdbc f579 e4bd dc23 81bd
00000330: 2503 a03d be78 8dbd 459e a23d db26 4cbd
00000340: 6314 b63d 76bc a8bd f651 dfbd 10c0 babd
00000350: 23e4 4d3c 2008 773d 047a aebd 61c5 f63c
00000360: fb21 abbd 59eb 6abc 7bf4 a0bd 2d17 a6bd
00000370: 4ce3 883c 3aa3 253b a3ca f13d 7d18 babd
00000380: d98b 53bd 7533 d2bc 8686 3abd fa5f 82bc
00000390: 43be 543d 818d 283b 8e72 863c 5d79 1dbe
000003a0: 1757 99bd 6716 22be bc11 293d b942 b3bb
000003b0: 1a3d ebbd 3aa5 f0bd f6fd 81bd 670b 953c
000003c0: a435 22bd 4000 33bd 49b8 45bd af72 abbd
000003d0: 518b e83c 3de1 d0bd 5f4b 45bd 8221 b5bd
000003e0: 9a4e 5bbc 2d2e c03d 78e5 5ebd 88aa abbc
000003f0: 7a92 75bd 26dc 563d ffb7 5b3d 63af 91bc

encoder_attn.weight f4 [1, 276]
-0.0043002027 -0.037375607 0.003440952 -0.01111286 0.043313704 0.003100261 -0.030252254 -0.053605992
0.04938124 -0.035443608 -0.033386216 0.00963343 -0.029691262 0.02003673 -0.0021926528 -0.058487844
0.050795194 -0.012029279 0.038049467 -0.057284165 -0.021856027 0.039051328 0.04490167 -0.031309467
-0.043619595 0.0069280327 0.0036910546 -0.032216344 -0.0051596565 0.051157586 -0.001361551 0.03734873
0.04491141 0.025340563 0.045322496 -7.348989e-05 -0.04585708 0.04623966 0.019045768 0.04810481
-0.019209683 -0.05222139 -0.020336661 0.028471919 0.059290975 -0.03125523 0.045787696 -0.03750507
0.04746718 0.03569896 -0.015359764 -0.006426217 0.050498404 0.0144281285 -0.026981039 -0.010647228
0.010315912 -0.01909805 0.04163627 0.055069577 0.022270849 -0.0057535437 -0.041184068 0.0033959048
-0.008439437 0.022727115 -0.029002095 0.02205554 0.037319943 -0.050204445 -1.95235e-05 0.00075402734
-0.021205613 -0.018190783 0.059454665 0.006994928 -0.023191085 -0.017575182 0.05128857 0.00010755949
-0.019391721 0.009684508 -0.042648286 -0.05301939 -0.019413233 0.049917858 -0.054993123 0.0072518033
-0.03755516 -0.044146698 0.009013339 -0.040740155 -0.024438363 0.046448622 -0.0063318866 -0.047239777
-0.005014047 0.04868638 -0.029849553 -0.019279981 -0.046310306 -0.049816176 -0.04470816 -0.040863447
-0.041789815 0.001490685 0.018106617 0.03356908 0.03867371 0.0028272157 0.0128492545 -0.04533132
0.025200855 -0.02687997 -0.041858476 0.037013993 -0.0134082 0.053009503 0.0068678865 -0.04212351
-0.032999337 -0.019370181 -0.027397774 -0.052698318 0.030763011 -0.004309352 0.014570044 0.0016038544
-0.033868972 0.014090601 0.06010164 -0.0063492516 0.028738616 -0.013062728 0.021531083 -0.014181831
-0.019998483 -0.060130194 -0.0033721537 0.05088891 -0.031518076 -0.028825799 -0.026340375 0.0076201633
0.012166009 0.015327766 -0.006450947 0.045517184 0.015518236 -0.010949792 -0.014055672 0.0051589115
-0.011365391 -0.011862325 0.056901637 0.016926618 -0.0020191523 0.0324147 0.04496442 -0.0024723634
-0.005614391 -0.03353025 -0.01590599 0.038100075 -0.055995677 0.029279076 0.03903195 -0.056217432
0.036398236 -0.015075722 0.045088068 -0.0372036 -0.017643876 -0.010945539 -0.047590617 0.057389326
0.008126318 0.043652724 0.04294086 0.02346635 0.04723974 -0.0029813664 -0.05952284 -0.013521847
-0.011597565 0.018039007 0.0074174865 0.041312482 -0.045059312 -0.05891639 0.033596892 -0.045505706
0.028134944 -3.5426878e-05 -0.02224691 0.030857664 0.043957002 -0.01255677 0.053234868 -0.01357851
0.04243292 -0.05025594 0.039739754 0.052705858 0.012707136 -0.036249723 -0.05860933 0.057154365
0.056482624 -0.02201037 0.021708151 -0.010462135 0.040672924 0.039782863 0.051751368 0.05580489
0.043194167 0.0061791227 -0.009257499 -0.057711042 -0.005407292 0.039334983 -0.04135274 -0.01007028
-0.036338244 0.04039473 -0.0155511815 0.01566792 -0.02234288 -0.0013556426 -0.04399797 -0.032998484
-0.054166704 0.04804576 0.0122532835 -0.0034886063 0.014640934 -0.034422033 0.0104815345 -0.042029686
0.008689498 0.016272932 0.02819351 -0.02230082 0.02023004 0.027939241 0.0442994 -0.003697693
-0.046922337 0.016504409 -0.027165558 -0.020832265 -0.011482252 -0.013062736 0.038898114 -0.027220275
00000000: b7e8 8cbb 2a17 19bd 9881 613b b712 36bc
00000010: b669 313d c02d 4b3b 93d3 f7bc f591 5bbd
00000020: fc43 4a3d 512d 11bd fcbf 08bd 89d5 1d3c
00000030: 173b f3bc 1224 a43c 9cb2 0fbb f390 6fbd
00000040: 9f0e 503d 7416 45bc c2d9 1b3d cda2 6abd
00000050: 690b b3bc 49f4 1f3d d0ea 373d 5b3e 00bd
00000060: 76aa 32bd 8d04 e33b 9fe5 713b 49f5 03bd
00000070: 5612 a9bb 9e8a 513d 1276 b2ba fbfa 183d
00000080: 07f5 373d 0397 cf3c 15a4 393d 961e 9ab8
00000090: a2d4 3bbd cc65 3d3d df05 9c3c 8d09 453d
000000a0: a05d 9dbc 19e6 55bd 1299 a6bc f13d e93c
000000b0: 18db 723d 7c05 00bd e18b 3b3d eb9e 19bd
000000c0: f26c 423d 1339 123d 85a7 7bbc 0493 d2bb
000000d0: 6ad7 4e3d f563 6c3c 5707 ddbc b671 2ebc
000000e0: 1204 293c 8473 9cbc cb8a 2a3d a390 613d
000000f0: 5b71 b63c 3988 bcbb a0b0 28bd d48d 5e3b
00000100: 9045 0abc 372e ba3c cd95 edbc d2ad b43c
00000110: ccdc 183d 2da3 4dbd 66c6 a3b7 eba9 453a
00000120: 65b7 adbc d604 95bc bc86 733d b535 e53b
00000130: 3bfb bdbc d4f9 8fbc f713 523d 9091 e138
00000140: 63db 9ebc c5ab 1e3c f8af 2ebd dc2a 59bd
00000150: 8008 9fbc ab76 4c3d 7840 61bd 89a0 ed3b
00000160: 70d3 19bd 2bd3 34bd afac 133c 26df 26bd
00000170: f632 c8bc e940 3e3d b77b cfbb 7f7e 41bd
00000180: e04c a4bb 5f6b 473d 0d87 f4bc 0df1 9dbc
00000190: e0af 3dbd 0c0c 4cbd e71f 37bd 6e60 27bd
000001a0: cc2b 2bbd 1763 c33a 5454 943c bb7f 093d
000001b0: 5368 1e3d cf48 393b ae85 523c 56ad 39bd
000001c0: 0672 ce3c 6233 dcbc cb73 2bbd fc9b 173d
000001d0: 11ae 5bbc 7e20 593d 020c e13b b489 2cbd
000001e0: 502a 07bd 37ae 9ebc 4c71 e0bc 31da 57bd
000001f0: b602 fc3c 7735 8dbb 32b7 6e3c 6c38 d23a
00000200: 31ba 0abd 44dc 663c 232d 763d 620d d0bb
00000210: 3f6d eb3c 0d05 56bc f461 b03c e95a 68bc
00000220: dcd3 a3bc 144b 76bd 5aff 5cbb e470 503d
00000230: 1919 01bd 1524 ecbc c5c7 d7bc 90b2 f93b
00000240: f153 473c 4f21 7b3c 7762 d3bb 3a70 3a3d
00000250: 3340 7e3c c266 33bc c349 66bc 160c a93b
00000260: e835 3abc 325a 42bc b111 693d b1a9 8a3c
00000270: c153 04bb 47c5 043d 9d2c 383d 6007 22bb
00000280: edf8 b7bb 0457 09bd 474d 82bc d30e 1c3d
00000290: b95b 65bd acda ef3c f7df 1f3d 4044 66bd
000002a0: 5116 153d 2900 77bc 44ae 383d cd62 18bd
000002b0: e489 90bc eb54 33bc 61ee 42bd 1211 6b3d
000002c0: 4024 053c 33cd 323d c1e2 2f3d 813c c03c
000002d0: 757e 413d 0763 43bb 39ce 73bd bd8a 5dbc
000002e0: b703 3ebc 8ac6 933c 630e f33b 4737 293d
000002f0: 1d90 38bd 5052 71bd e59c 093d 3164 3abd
00000300: 417b e63c 5297 14b8 273f b6bc 36c9 fc3c
00000310: 420c 343d e9ba 4dbc ce0c 5a3d 6678 5ebc
00000320: 24ce 2d3d 2cd9 4dbd 27c6 223d 19e2 573d
00000330: 9731 503c 977a 14bd 5610 70bd b21a 6a3d
00000340: 535a 673d 174f b4bc 4bd5 b13c 6069 2bbc
00000350: a798 263d 5bf3 223d 3ef9 533d ab93 643d
00000360: 5eec 303d 3d7a ca3b c4ac 17bc 6a62 6cbd
00000370: a72f b1bb b81d 213d 7e61 29bd d1fd 24bc
00000380: 69d7 14bd f274 253d 62ca 7ebc 025a 803c
00000390: 6a08 b7bc d1af b1ba 3737 34bd 6b29 07bd
000003a0: e8dd 5dbd a1cb 443d ffc1 483c 1aa1 64bb
000003b0: 87e0 6f3c 1efe 0cbd beba 2b3c 5227 2cbd
000003c0: 655e 0e3c d04e 853c 13f6 e63c 36b0 b6bc
000003d0: 78b9 a53c d6e0 e43c 4a73 353d ff54 72bb
000003e0: a331 40bd 4134 873c 4e8a debc 6da8 aabc
000003f0: 0e20 3cbc 1605 56bc a153 1f3d 0efd debc

exp_avg f4 [7, 7]
0.0 0.0 0.0 0.0 0.0 0.0 0.0 0.0
1.1844834e-28 0.0 0.0 0.0 0.0 0.0 0.0 0.0
0.0 0.0 0.0 0.0 0.0 0.0 0.0 0.0
-1.6963883e-08 0.0 0.0 0.0 0.0 0.0 0.0 0.0
-9.362875e-09 0.0 0.0 0.0 0.0 0.0 0.0 0.0
-6.978596e-07 0.0 0.0 0.0 0.0 0.0 0.0 0.0
0.0
00000000: 0000 0000 0000 0000 0000 0000 0000 0000
00000010: 0000 0000 0000 0000 0000 0000 0000 0000
00000020: af26 1611 0000 0000 0000 0000 0000 0000
00000030: 0000 0000 0000 0000 0000 0000 0000 0000
00000040: 0000 0000 0000 0000 0000 0000 0000 0000
00000050: 0000 0000 0000 0000 0000 0000 0000 0000
00000060: f9b7 91b2 0000 0000 0000 0000 0000 0000
00000070: 0000 0000 0000 0000 0000 0000 0000 0000
00000080: 5cda 20b2 0000 0000 0000 0000 0000 0000
00000090: 0000 0000 0000 0000 0000 0000 0000 0000
000000a0: 8c54 3bb5 0000 0000 0000 0000 0000 0000
000000b0: 0000 0000 0000 0000 0000 0000 0000 0000
000000c0: 0000 0000

exp_avg_sq f4 [7, 7]
0.0 0.0 0.0 0.0 0.0 0.0 0.0 0.0
9.48524e-16 0.0 0.0 0.0 0.0 0.0 0.0 0.0
0.0 0.0 0.0 0.0 0.0 0.0 0.0 0.0
9.7554055e-15 0.0 0.0 0.0 0.0 0.0 0.0 0.0
5.658371e-13 0.0 0.0 0.0 0.0 0.0 0.0 0.0
1.0412916e-11 0.0 0.0 0.0 0.0 0.0 0.0 0.0
0.0
00000000: 0000 0000 0000 0000 0000 0000 0000 0000
00000010: 0000 0000 0000 0000 0000 0000 0000 0000
00000020: 5cb2 8826 0000 0000 0000 0000 0000 0000
00000030: 0000 0000 0000 0000 0000 0000 0000 0000
00000040: 0000 0000 0000 0000 0000 0000 0000 0000
00000050: 0000 0000 0000 0000 0000 0000 0000 0000
00000060: debc 2f28 0000 0000 0000 0000 0000 0000
00000070: 0000 0000 0000 0000 0000 0000 0000 0000
00000080: dc44 1f2b 0000 0000 0000 0000 0000 0000
00000090: 0000 0000 0000 0000 0000 0000 0000 0000
000000a0: 9b2f 372d 0000 0000 0000 0000 0000 0000
000000b0: 0000 0000 0000 0000 0000 0000 0000 0000
000000c0: 0000 0000

exp_avg f4 [7]
0.0 1.2547635e-09 0.0 -1.4528363e-08 -2.9353705e-08 -6.5910757e-07 0.0
00000000: 0000 0000 1174 ac30 0000 0000 6b98 79b2
00000010: 7b25 fcb2 87ed 30b5 0000 0000

exp_avg_sq f4 [7]
0.0 2.9185e-15 0.0 9.5132346e-15 3.5651188e-13 1.0358266e-11 0.0
00000000: 0000 0000 d34c 5227 0000 0000 0d60 2b28
00000010: c7b2 c82a 7c39 362d 0000 0000
