weights_new/EncoderEpochnew225_20_8.pt (torch_old, 862537 bytes, 27 tensors)

gamma_x_l.weight f4 [7, 7]
0	0x8000083a	-2.951e-42
1	0x80000d20	-4.708e-42
2	0x00000c26	4.358e-42
3	0x000011f1	6.436e-42
4	0x80000b54	-4.064e-42
5	0x00000b28	4.002e-42
6	0x0000095d	3.359e-42
7	0x80000984	-3.414e-42
8	0x0000299e	1.493e-41
9	0x80005ce0	-3.3317e-41
10	0x80000466	-1.578e-42
11	0x80000038	-7.8e-44
12	0x00000bbe	4.212e-42
13	0x80001633	-7.964e-42
14	0x80001a23	-9.376e-42
15	0x8000089e	-3.091e-42
16	0x00001188	6.289e-42
17	0x00002a80	1.5246e-41
18	0x80001303	-6.82e-42
19	0x8000138e	-7.015e-42
20	0x80003ccb	-2.1808e-41
21	0x000010c2	6.012e-42
22	0x800028d6	-1.4649e-41
23	0x00000848	2.971e-42
24	0x00001506	7.542e-42
25	0x000002a3	9.46e-43
26	0x000043cb	2.432e-41
27	0x00000e67	5.167e-42
28	0x80000f92	-5.586e-42
29	0x80000c34	-4.378e-42
30	0x80000515	-1.823e-42
31	0x8000136b	-6.966e-42
32	0x000013df	7.128e-42
33	0x800014f2	-7.514e-42
34	0x00001366	6.959e-42
35	0x0000048a	1.628e-42
36	0x00002d51	1.6256e-41
37	0x00004b0c	2.6922e-41
38	0x80000971	-3.387e-42
39	0x800003de	-1.387e-42
40	0x00002816	1.438e-41
41	0x80001394	-7.023e-42
42	0x00001562	7.671e-42
43	0x8000191e	-9.01e-42
44	0x00008e1d	5.098e-41
45	0x800017ff	-8.608e-42
46	0x00000f48	5.482e-42
47	0x0000062f	2.218e-42
48	0x80000349	-1.178e-42

gamma_x_l.bias f4 [7]
0	0x00001e1c	1.0801e-41
1	0x80000b2b	-4.006e-42
2	0x000020e9	1.1806e-41
3	0x80001db8	-1.0661e-41
4	0x00002027	1.1534e-41
5	0x80001350	-6.928e-42
6	0x80000c72	-4.465e-42

gamma_h_l.weight f4 [128, 7]
0	0x00002aec	1.5397e-41
1	0x00001d93	1.0609e-41
2	0x00000b7d	4.121e-42
3	0x80000cb4	-4.557e-42
4	0x80000289	-9.1e-43
5	0x80001256	-6.578e-42
6	0x80002d3a	-1.6224e-41
7	0x000083ef	4.7329e-41
8	0x00002184	1.2023e-41
9	0x00000d53	4.78e-42
10	0x800018c4	-8.884e-42
11	0x000021b5	1.2092e-41
12	0x800018cd	-8.897e-42
13	0x0000013f	4.47e-43
14	0x00000b0e	3.966e-42
15	0x800005b1	-2.042e-42
16	0x00001386	7.004e-42
17	0x800026cf	-1.3922e-41
18	0x80000837	-2.947e-42
19	0x80000a6e	-3.741e-42
20	0x00002e60	1.6636e-41
21	0x000006d1	2.445e-42
22	0x80000bbe	-4.212e-42
23	0x00000fed	5.713e-42
24	0x800080c5	-4.6194e-41
25	0x8000162f	-7.958e-42
26	0x8000107e	-5.916e-42
27	0x80001ee6	-1.1084e-41
28	0x0000153e	7.62e-42
29	0x000028e9	1.4676e-41
30	0x80003b77	-2.1332e-41
31	0x800015be	-7.8e-42
32	0x000000da	3.05e-43
33	0x00001103	6.103e-42
34	0x8000271c	-1.403e-41
35	0x0000312f	1.7644e-41
36	0x000010ae	5.984e-42
37	0x00002a9c	1.5285e-41
38	0x00000431	1.504e-42
39	0x80000198	-5.72e-43
40	0x0000082f	2.936e-42
41	0x0000084b	2.975e-42
42	0x80001b99	-9.9e-42
43	0x8000084e	-2.979e-42
44	0x800003b1	-1.324e-42
45	0x0000160f	7.913e-42
46	0x00002440	1.3004e-41
47	0x00000ed1	5.315e-42
48	0x00001898	8.823e-42
49	0x80000114	-3.87e-43
50	0x00000834	2.943e-42
51	0x0000074e	2.62e-42
52	0x00000074	1.63e-43
53	0x00000afa	3.938e-42
54	0x00000668	2.298e-42
55	0x800025d8	-1.3576e-41
56	0x80000d81	-4.844e-42
57	0x8000165a	-8.018e-42
58	0x0000064f	2.263e-42
59	0x00001a88	9.518e-42
60	0x800021e9	-1.2165e-41
61	0x00002259	1.2322e-41
62	0x0000196c	9.12e-42
63	0x80001efc	-1.1115e-41
64	0x80000271	-8.76e-43
65	0x8000056d	-1.946e-42
66	0x000015a3	7.762e-42
67	0x800007e9	-2.838e-42
68	0x80001851	-8.723e-42
69	0x00002cb9	1.6043e-41
70	0x00000699	2.367e-42
71	0x000001d0	6.5e-43
72	0x80001721	-8.297e-42
73	0x000016d9	8.196e-42
74	0x80002a47	-1.5166e-41
75	0x00001830	8.677e-42
76	0x000012ab	6.697e-42
77	0x80001d89	-1.0595e-41
78	0x00002698	1.3845e-41
79	0x000014d4	7.472e-42
80	0x000016b9	8.151e-42
81	0x800003f9	-1.425e-42
82	0x80001670	-8.049e-42
83	0x80000525	-1.846e-42
84	0x00002c83	1.5968e-41
85	0x80000116	-3.9e-43
86	0x00001613	7.919e-42
87	0x80001742	-8.343e-42
88	0x800021a9	-1.2075e-41
89	0x000007ed	2.843e-42
90	0x800008d4	-3.167e-42
91	0x0000162b	7.952e-42
92	0x000027a9	1.4227e-41
93	0x8000027d	-8.93e-43
94	0x0000119e	6.32e-42
95	0x00001703	8.255e-42
96	0x00000697	2.364e-42
97	0x00001588	7.724e-42
98	0x00002e6f	1.6657e-41
99	0x000013f7	7.162e-42
100	0x0000145a	7.301e-42
101	0x8000023c	-8.02e-43
102	0x80001230	-6.524e-42
103	0x80002423	-1.2963e-41
104	0x800008c8	-3.15e-42
105	0x800004d5	-1.733e-42
106	0x800004e8	-1.76e-42
107	0x00001672	8.052e-42
108	0x800018e3	-8.928e-42
109	0x8000105f	-5.873e-42
110	0x00000224	7.68e-43
111	0x80000e18	-5.056e-42
112	0x0000102b	5.8e-42
113	0x80000479	-1.604e-42
114	0x8000059a	-2.01e-42
115	0x80001ac5	-9.603e-42
116	0x00001106	6.107e-42
117	0x00001f61	1.1257e-41
118	0x00000564	1.934e-42
119	0x00001174	6.261e-42
120	0x00004323	2.4084e-41
121	0x000006ec	2.483e-42
122	0x0000253e	1.336e-41
123	0x0000030d	1.094e-42
124	0x80000340	-1.166e-42
125	0x80001ac0	-9.596e-42
126	0x800042de	-2.3987e-41
127	0x8000001a	-3.6e-44
128	0x80001061	-5.876e-42
129	0x00009342	5.2826e-41
130	0x00000f56	5.501e-42
131	0x8000001c	-3.9e-44
132	0x00006536	3.6308e-41
133	0x80001128	-6.155e-42
134	0x80001619	-7.927e-42
135	0x800012a3	-6.686e-42
136	0x80001463	-7.313e-42
137	0x000001a6	5.91e-43
138	0x00000730	2.578e-42
139	0x00000476	1.6e-42
140	0x80002023	-1.1528e-41
141	0x8000048e	-1.634e-42
142	0x00001233	6.529e-42
143	0x00001a46	9.425e-42
144	0x8000c88c	-7.1943e-41
145	0x80001a72	-9.487e-42
146	0x21c743d6	1.3502721e-18
147	0x00000d95	4.872e-42
148	0x00001790	8.453e-42
149	0x8000149d	-7.395e-42
150	0x80000c37	-4.382e-42
151	0x800047d6	-2.577e-41
152	0x800030c3	-1.7492e-41
153	0x000076f6	4.2675e-41
154	0x00002198	1.2051e-41
155	0x80000caf	-4.55e-42
156	0x800017bc	-8.514e-42
157	0x00000c72	4.465e-42
158	0x800029ab	-1.4948e-41
159	0x0000066e	2.307e-42
160	0x80006072	-3.4598e-41
161	0x800014fb	-7.526e-42
162	0x00000ddd	4.973e-42
163	0x000004de	1.746e-42
164	0x000013d0	7.107e-42
165	0x800029e7	-1.5032e-41
166	0x0000076b	2.661e-42
167	0x00001786	8.439e-42
168	0x800020ea	-1.1807e-41
169	0x800038d9	-2.0393e-41
170	0x800017f9	-8.6e-42
171	0x8000360b	-1.9387e-41
172	0x00000e86	5.21e-42
173	0x00000acd	3.875e-42
174	0x800007bc	-2.775e-42
175	0x80000928	-3.285e-42
176	0x000013df	7.128e-42
177	0x00001018	5.773e-42
178	0x80000e45	-5.119e-42
179	0x80000b02	-3.949e-42
180	0x8000060b	-2.168e-42
181	0x800012ec	-6.788e-42
182	0x800013ed	-7.148e-42
183	0x00002c05	1.5791e-41
184	0x80001f01	-1.1122e-41
185	0x80000f57	-5.503e-42
186	0x800008ff	-3.227e-42
187	0x00002586	1.3461e-41
188	0x00000008	1.1e-44
189	0x800016d7	-8.193e-42
190	0x80000e0a	-5.036e-42
191	0x80001191	-6.302e-42
192	0x00000607	2.162e-42
193	0x80000bac	-4.187e-42
194	0x0000132a	6.875e-42
195	0x00000727	2.566e-42
196	0x000015e3	7.851e-42
197	0x800019c2	-9.24e-42
198	0x0000018e	5.58e-43
199	0x0000158c	7.73e-42
200	0x000031a0	1.7802e-41
201	0x80000e50	-5.134e-42
202	0x80000424	-1.485e-42
203	0x000007ed	2.843e-42
204	0x000017d9	8.555e-42
205	0x00001011	5.764e-42
206	0x00001b75	9.85e-42
207	0x00000e13	5.049e-42
208	0x00001425	7.226e-42
209	0x8000079a	-2.727e-42
210	0x00001816	8.64e-42
211	0x0000087b	3.042e-42
212	0x800019aa	-9.207e-42
213	0x00000525	1.846e-42
214	0x000001a9	5.96e-43
215	0x00000875	3.034e-42
216	0x800047e7	-2.5794e-41
217	0x8000015b	-4.86e-43
218	0x800014ed	-7.507e-42
219	0x80003bac	-2.1406e-41
220	0x00001922	9.016e-42
221	0x800041b1	-2.3566e-41
222	0x0000114b	6.204e-42
223	0x800011c5	-6.375e-42
224	0x0000172a	8.31e-42
225	0x000012b5	6.711e-42
226	0x80000900	-3.229e-42
227	0x0000063e	2.239e-42
228	0x000013a9	7.053e-42
229	0x80000fc7	-5.66e-42
230	0x80000d15	-4.693e-42
231	0x00004033	2.303e-41
232	0x00000c26	4.358e-42
233	0x80000846	-2.968e-42
234	0x000014ac	7.416e-42
235	0x800050ea	-2.9026e-41
236	0x000099aa	5.5124e-41
237	0x00000910	3.251e-42
238	0x800008ce	-3.159e-42
239	0x0000160d	7.91e-42
240	0x00001add	9.637e-42
241	0x80004fec	-2.867e-41
242	0x800016a0	-8.116e-42
243	0x00000eb9	5.281e-42
244	0x8000559a	-3.0708e-41
245	0x00000aa7	3.821e-42
246	0x000014ea	7.503e-42
247	0x80001529	-7.591e-42
248	0x00002748	1.4091e-41
249	0x00001227	6.512e-42
250	0x80003d8f	-2.2083e-41
251	0x80002f93	-1.7066e-41
252	0x00001a24	9.377e-42
253	0x80000ac1	-3.858e-42
254	0x000026d1	1.3925e-41
255	0x00000b09	3.959e-42

gamma_h_l.bias f4 [128]
0	0x000006e1	2.468e-42
1	0x80000b86	-4.134e-42
2	0x000009d8	3.531e-42
3	0x80008f7c	-5.1472e-41
4	0x800010c9	-6.021e-42
5	0x80000e34	-5.095e-42
6	0x00000f80	5.56e-42
7	0x000017db	8.558e-42
8	0x8000169e	-8.114e-42
9	0x80000f8c	-5.577e-42
10	0x80000e4f	-5.133e-42
11	0x80000488	-1.626e-42
12	0x80000acd	-3.875e-42
13	0x80000d06	-4.672e-42
14	0x0000101a	5.776e-42
15	0x8000081e	-2.912e-42
16	0x80001220	-6.502e-42
17	0x8000007d	-1.75e-43
18	0x00000ff2	5.72e-42
19	0x0000194f	9.079e-42
20	0x000017c2	8.523e-42
21	0x80002b51	-1.5539e-41
22	0x00002ea1	1.6727e-41
23	0x80004477	-2.456e-41
24	0x80000328	-1.132e-42
25	0x00002278	1.2365e-41
26	0x80000fcc	-5.667e-42
27	0x0000089a	3.086e-42
28	0x00000924	3.279e-42
29	0x80001919	-9.003e-42
30	0x00001757	8.373e-42
31	0x80000f07	-5.391e-42
32	0x00001e1c	1.0801e-41
33	0x00000165	5e-43
34	0x00000374	1.239e-42
35	0x00000982	3.411e-42
36	0x80001480	-7.354e-42
37	0x00001814	8.638e-42
38	0x8000143f	-7.263e-42
39	0x00001444	7.27e-42
40	0x00000d45	4.76e-42
41	0x800008c9	-3.152e-42
42	0x80002dd1	-1.6436e-41
43	0x00002bde	1.5737e-41
44	0x00001835	8.684e-42
45	0x80001535	-7.608e-42
46	0x8000018e	-5.58e-43
47	0x00000aa0	3.812e-42
48	0x80001780	-8.43e-42
49	0x80001455	-7.294e-42
50	0x80000264	-8.58e-43
51	0x800017a1	-8.476e-42
52	0x80001375	-6.98e-42
53	0x00001c2c	1.0106e-41
54	0x80002aea	-1.5395e-41
55	0x800011b9	-6.358e-42
56	0x80001110	-6.121e-42
57	0x80001710	-8.273e-42
58	0x00000d17	4.696e-42
59	0x80003105	-1.7585e-41
60	0x8000276c	-1.4142e-41
61	0x800011bf	-6.366e-42
62	0x00000924	3.279e-42
63	0x000004dc	1.743e-42
64	0x8000067b	-2.325e-42
65	0x80001162	-6.236e-42
66	0x00000424	1.485e-42
67	0x800027eb	-1.432e-41
68	0x80001968	-9.114e-42
69	0x000014e7	7.498e-42
70	0x00000dc3	4.937e-42
71	0x80000365	-1.218e-42
72	0x800014ac	-7.416e-42
73	0x80001920	-9.013e-42
74	0x80001704	-8.256e-42
75	0x8000128e	-6.656e-42
76	0x000069b0	3.7914e-41
77	0x000003ce	1.365e-42
78	0x00000197	5.7e-43
79	0x8000028c	-9.14e-43
80	0x800006b8	-2.41e-42
81	0x80001f11	-1.1145e-41
82	0x80000a4c	-3.694e-42
83	0x80000431	-1.504e-42
84	0x8000004a	-1.04e-43
85	0x80001413	-7.201e-42
86	0x0000001d	4e-44
87	0x80000d0a	-4.678e-42
88	0x000006c6	2.43e-42
89	0x00002495	1.3123e-41
90	0x00001484	7.36e-42
91	0x80001667	-8.036e-42
92	0x0000055a	1.92e-42
93	0x00000b4f	4.057e-42
94	0x800001d7	-6.6e-43
95	0x00000347	1.176e-42
96	0x800008ab	-3.11e-42
97	0x800017d6	-8.551e-42
98	0x0000240b	1.293e-41
99	0x0000062f	2.218e-42
100	0x00000ca2	4.532e-42
101	0x00001886	8.797e-42
102	0x800010a7	-5.974e-42
103	0x8000066b	-2.302e-42
104	0x8000198b	-9.163e-42
105	0x800018e3	-8.928e-42
106	0x00001b4d	9.794e-42
107	0x80000ee5	-5.343e-42
108	0x000011fe	6.454e-42
109	0x8000046a	-1.583e-42
110	0x00000645	2.249e-42
111	0x00001a38	9.406e-42
112	0x8000794a	-4.351e-41
113	0x800005fb	-2.145e-42
114	0x00000f04	5.387e-42
115	0x00001c8c	1.024e-41
116	0x000012fd	6.812e-42
117	0x00000d51	4.777e-42
118	0x80000cdc	-4.613e-42
119	0x800014e6	-7.497e-42
120	0x00003356	1.8416e-41
121	0x00000eed	5.354e-42
122	0x8000146e	-7.329e-42
123	0x0000176e	8.405e-42
124	0x80002796	-1.4201e-41
125	0x000007b8	2.769e-42
126	0x00001464	7.315e-42
127	0x80000875	-3.034e-42

encoder_lstm.weight_ih_l0 f4 [512, 7]
0	0x80000af7	-3.933e-42
1	0x80005e11	-3.3745e-41
2	0x00006a0b	3.8041e-41
3	0x0000347c	1.8828e-41
4	0x80000ede	-5.333e-42
5	0x8000a5d6	-5.9491e-41
6	0x800033da	-1.8601e-41
7	0x00002d92	1.6348e-41
8	0x00003c85	2.171e-41
9	0x80000f77	-5.548e-42
10	0x0000365e	1.9503e-41
11	0x80005f9e	-3.4301e-41
12	0x800033b8	-1.8553e-41
13	0x80002352	-1.267e-41
14	0x806ea84a	-1.0162275e-38
15	0x00c9b0de	1.8522383e-38
16	0x801d8786	-2.711846e-39
17	0x00396c30	5.273434e-39
18	0x81778c9e	-4.5467623e-38
19	0x00484443	6.636643e-39
20	0x80402add	-5.892848e-39
21	0x80001dce	-1.0692e-41
22	0x00001a05	9.334e-42
23	0x800071ec	-4.0867e-41
24	0x00004013	2.2985e-41
25	0x80003bd7	-2.1466e-41
26	0x00001e6c	1.0913e-41
27	0x80001421	-7.221e-42
28	0x8000ebea	-8.463e-41
29	0x8000105e	-5.871e-42
30	0x800043e5	-2.4356e-41
31	0x000033df	1.8608e-41
32	0x00006302	3.5517e-41
33	0x000018ef	8.944e-42
34	0x800011c2	-6.37e-42
35	0x8000348e	-1.8853e-41
36	0x00002e9d	1.6722e-41
37	0x00000147	4.58e-43
38	0x80000aa9	-3.824e-42
39	0x00001e4b	1.0867e-41
40	0x000020a1	1.1705e-41
41	0x800000d6	-3e-43
42	0x8000218a	-1.2032e-41
43	0x80001826	-8.663e-42
44	0x000020dc	1.1788e-41
45	0x00003897	2.03e-41
46	0x0000546a	3.0282e-41
47	0x800012ce	-6.746e-42
48	0x0000b688	6.548e-41
49	0x00018fe0	1.43448e-40
50	0x8228fb98	-1.2414895e-37
51	0x00694a48	9.669374e-39
52	0x001db25a	2.72721e-39
53	0x808f9e3b	-1.3189238e-38
54	0x0158e08b	3.9834036e-38
55	0x81399359	-3.408485e-38
56	0x80001243	-6.551e-42
57	0x80003510	-1.9035e-41
58	0x800033f4	-1.8637e-41
59	0x0000816e	4.643e-41
60	0x00002a3f	1.5155e-41
61	0x0000679d	3.717e-41
62	0x80003cbb	-2.1786e-41
63	0x00001558	7.657e-42
64	0x80001d02	-1.0406e-41
65	0x000005ad	2.036e-42
66	0x80001c71	-1.0203e-41
67	0x80002cf1	-1.6122e-41
68	0x000044b1	2.4642e-41
69	0x8000d414	-7.6079e-41
70	0x80000bf4	-4.288e-42
71	0x80005076	-2.8864e-41
72	0x000095a9	5.3688e-41
73	0x000037ea	2.0058e-41
74	0x80006033	-3.451e-41
75	0x00003781	1.9911e-41
76	0x800015e9	-7.86e-42
77	0x80007e04	-4.5206e-41
78	0x00002fca	1.7143e-41
79	0x00000ac9	3.869e-42
80	0x98ecb3d7	-6.1186162e-24
81	0x000005d6	2.094e-42
82	0x80006aca	-3.8309e-41
83	0x80011929	-1.00861e-40
84	0x8000a372	-5.8633e-41
85	0x80004b1a	-2.6941e-41
86	0x00004381	2.4216e-41
87	0x80000b90	-4.148e-42
88	0x80000264	-8.58e-43
89	0x00001a45	9.424e-42
90	0x8000314e	-1.7687e-41
91	0x8058e3e6	-8.163278e-39
92	0x019a346d	5.6645893e-38
93	0x01301035	3.2337723e-38
94	0x0011eeab	1.646821e-39
95	0x00660d17	9.371916e-39
96	0x011a5c73	2.8351662e-38
97	0x80983ec3	-1.398151e-38
98	0x00001d86	1.0591e-41
99	0x00004429	2.4451e-41
100	0x00005705	3.1217e-41
101	0x000031b2	1.7827e-41
102	0x00004c61	2.74e-41
103	0x000002ac	9.58e-43
104	0x80002dce	-1.6432e-41
105	0x800034ea	-1.8982e-41
106	0x800036da	-1.9677e-41
107	0x000067f8	3.7297e-41
108	0x00002c33	1.5856e-41
109	0x80000add	-3.897e-42
110	0x00001976	9.134e-42
111	0x80000d4f	-4.774e-42
112	0x00002f33	1.6932e-41
113	0x80009082	-5.184e-41
114	0x80000777	-2.678e-42
115	0x800025ee	-1.3607e-41
116	0x000001e0	6.73e-43
117	0x80000c00	-4.305e-42
118	0x0000110c	6.115e-42
119	0x00002f9e	1.7082e-41
120	0x00001bc1	9.956e-42
121	0x8000085c	-2.999e-42
122	0x80000a8a	-3.781e-42
123	0x80002e9c	-1.672e-41
124	0x000058a4	3.1798e-41
125	0x00003455	1.8773e-41
126	0x8a8a34c0	-1.3308759e-32
127	0x0bf16fbb	9.2997937e-32
128	0x8c59bbcc	-1.6773585e-31
129	0x0b3f9b27	3.6901986e-32
130	0x8c0f296c	-1.1028784e-31
131	0x8c985028	-2.346755e-31
132	0x8baabfdc	-6.5770296e-32
133	0x800040ee	-2.3292e-41
134	0x800030d1	-1.7512e-41
135	0x000046ef	2.5446e-41
136	0x0000253e	1.336e-41
137	0x80000d09	-4.676e-42
138	0x00002cd4	1.6081e-41
139	0x800036c2	-1.9643e-41
140	0x8b040d05	-2.543207e-32
141	0x8dec2de1	-1.4555668e-30
142	0x0c2b95e8	1.3218472e-31
143	0x890c7f8c	-1.691186e-33
144	0x0ab5645b	1.7467416e-32
145	0x0c29c2bf	1.3077891e-31
146	0x0b85fda7	5.161139e-32
147	0x0e09bf0e	1.6978543e-30
148	0x926a29f6	-7.38891e-28
149	0x10d31735	8.326058e-29
150	0x0f7eb96f	1.255888e-29
151	0x1107bbd0	1.0707496e-28
152	0x114dd7b6	1.623812e-28
153	0x91f556a4	-3.870758e-28
154	0x80000f93	-5.587e-42
155	0x00002415	1.2944e-41
156	0x00000938	3.307e-42
157	0x80002fed	-1.7193e-41
158	0x800012ed	-6.789e-42
159	0x80001baf	-9.931e-42
160	0x00004908	2.6199e-41
161	0x8000344b	-1.8759e-41
162	0x00000041	9.1e-44
163	0x80000ab2	-3.837e-42
164	0x8000796a	-4.3555e-41
165	0x80002251	-1.231e-41
166	0x00001a12	9.352e-42
167	0x00002597	1.3485e-41
168	0x80001e24	-1.0812e-41
169	0x800029fa	-1.5058e-41
170	0x80003c91	-2.1727e-41
171	0x80000a27	-3.642e-42
172	0x80007360	-4.1389e-41
173	0x00003f5f	2.2733e-41
174	0x00009bf8	5.5951e-41
175	0x0befe011	9.239659e-32
176	0x0000abea	6.1671e-41
177	0x00007a5a	4.3891e-41
178	0x00004ab5	2.68e-41
179	0x00001b6a	9.834e-42
180	0x00003638	1.945e-41
181	0x8000644e	-3.5983e-41
182	0x8000335b	-1.8423e-41
183	0x80001e15	-1.0791e-41
184	0x00000c21	4.351e-42
185	0x8000729f	-4.1118e-41
186	0x0000252c	1.3335e-41
187	0x80000934	-3.301e-42
188	0x800000c0	-2.69e-43
189	0x80007390	-4.1456e-41
190	0x000036f7	1.9718e-41
191	0x80000ff1	-5.719e-42
192	0x80001bfb	-1.0038e-41
193	0x00000fca	5.664e-42
194	0x00001c58	1.0168e-41
195	0x80000ea4	-5.252e-42
196	0x00001800	8.61e-42
197	0x8000448c	-2.459e-41
198	0x80003516	-1.9044e-41
199	0x00003a25	2.0858e-41
200	0x80003334	-1.8368e-41
201	0x000037fe	2.0086e-41
202	0x00000542	1.886e-42
203	0x000d92a6	1.246469e-39
204	0x0000267c	1.3806e-41
205	0x00004750	2.5582e-41
206	0x80001cf1	-1.0382e-41
207	0x80001c5b	-1.0172e-41
208	0x00003251	1.805e-41
209	0x80002336	-1.2631e-41
210	0x8000394a	-2.0551e-41
211	0x00003ee2	2.2558e-41
212	0x00001a10	9.35e-42
213	0x80001f66	-1.1264e-41
214	0x00006834	3.7381e-41
215	0x80007b46	-4.4222e-41
216	0x00001c3c	1.0129e-41
217	0x87d816f5	-3.251356e-34
218	0x8b0c3038	-2.6999295e-32
219	0x8a86ce55	-1.2981344e-32
220	0x07af327b	2.6360743e-34
221	0x8a5ae521	-1.05394126e-32
222	0x09ffdd0e	6.1596896e-33
223	0x8afaba5e	-2.4144228e-32
224	0x80007a5a	-4.3891e-41
225	0x00001007	5.75e-42
226	0x00004bb0	2.7152e-41
227	0x0000163e	7.979e-42
228	0x8000ab45	-6.144e-41
229	0x80008592	-4.7916e-41
230	0x16f34dc8	3.9307854e-25
231	0x00000756	2.632e-42
232	0x8000ac92	-6.1907e-41
233	0x00008e34	5.1013e-41
234	0x000048a4	2.6059e-41
235	0x800067ff	-3.7307e-41
236	0x80001d07	-1.0413e-41
237	0x000051dc	2.9366e-41
238	0x00003259	1.8061e-41
239	0x00000f3d	5.466e-42
240	0x0000373b	1.9813e-41
241	0x00000ba6	4.179e-42
242	0x800110c8	-9.7855e-41
243	0x0000254f	1.3384e-41
244	0x8000201e	-1.1521e-41
245	0x089a064c	9.270018e-34
246	0x09c51fc0	4.7455882e-33
247	0x8925d3ec	-1.9960798e-33
248	0x86c4779a	-7.3902744e-35
249	0x89b0f5d5	-4.2601638e-33
250	0x89b55431	-4.365334e-33
251	0x898606ba	-3.2265652e-33
252	0x00002543	1.3367e-41
253	0x00003478	1.8822e-41
254	0x00008455	4.7472e-41
255	0x800033b7	-1.8552e-41

encoder_lstm.weight_hh_l0 f4 [512, 128]
0	0x8000087f	-3.048e-42
1	0x000008cf	3.16e-42
2	0x00001d31	1.0472e-41
3	0x00001cd8	1.0347e-41
4	0x000036a4	1.9601e-41
5	0x80002833	-1.4421e-41
6	0x00009975	5.505e-41
7	0x00005e1d	3.3761e-41
8	0x8000eae4	-8.4263e-41
9	0x85f707e3	-2.3230665e-35
10	0x00000f03	5.385e-42
11	0x80000381	-1.257e-42
12	0x80002c15	-1.5814e-41
13	0x80000b30	-4.013e-42
14	0x0001ca7e	1.64476e-40
15	0x8000359e	-1.9234e-41
16	0x80001edc	-1.107e-41
17	0x80001dd4	-1.07e-41
18	0x800032ce	-1.8225e-41
19	0x80002312	-1.2581e-41
20	0x80002ade	-1.5378e-41
21	0x80000d57	-4.785e-42
22	0x0000729d	4.1115e-41
23	0x000022e1	1.2512e-41
24	0x800000bd	-2.65e-43
25	0x00003ec6	2.2519e-41
26	0x00002347	1.2655e-41
27	0x80004a4d	-2.6654e-41
28	0x80001e09	-1.0775e-41
29	0x800043b7	-2.4292e-41
30	0x80005b7d	-3.282e-41
31	0x8000392e	-2.0512e-41
32	0x000011c3	6.372e-42
33	0x00002790	1.4192e-41
34	0x80072a57	-6.58037e-40
35	0x00002f00	1.686e-41
36	0x80009832	-5.4597e-41
37	0x8000603f	-3.4527e-41
38	0x800007b2	-2.76e-42
39	0x00002d7a	1.6314e-41
40	0x000036a0	1.9596e-41
41	0x80002401	-1.2916e-41
42	0x8000b938	-6.6444e-41
43	0x0000041a	1.471e-42
44	0x000002aa	9.56e-43
45	0x0000087a	3.041e-42
46	0x000070a6	4.041e-41
47	0x800019f6	-9.313e-42
48	0x000047be	2.5736e-41
49	0x8000327c	-1.811e-41
50	0x00001d7a	1.0574e-41
51	0x000011e3	6.417e-42
52	0x80000ffa	-5.731e-42
53	0x8000335b	-1.8423e-41
54	0x80005f42	-3.4172e-41
55	0x80001573	-7.695e-42
56	0x80005981	-3.2108e-41
57	0x8000296e	-1.4862e-41
58	0x0000032b	1.136e-42
59	0x800022d3	-1.2493e-41
60	0x80007aaf	-4.401e-41
61	0x80008d72	-5.0741e-41
62	0x80002850	-1.4461e-41
63	0x00004958	2.6311e-41
64	0x00006fda	4.0125e-41
65	0x80004d72	-2.7782e-41
66	0x00006968	3.7813e-41
67	0x00000899	3.084e-42
68	0x000035e2	1.933e-41
69	0x0000017f	5.37e-43
70	0x000027b3	1.4241e-41
71	0x0000afef	6.3113e-41
72	0x8000195c	-9.097e-42
73	0x00001f80	1.13e-41
74	0x800008e6	-3.192e-42
75	0x80000606	-2.161e-42
76	0x8000088d	-3.067e-42
77	0x00002593	1.3479e-41
78	0x80001c93	-1.025e-41
79	0x80000014	-2.8e-44
80	0x80003a63	-2.0945e-41
81	0x000040fe	2.3315e-41
82	0x00001b70	9.843e-42
83	0x2839ae7e	1.03074e-14
84	0x00002237	1.2274e-41
85	0x00002193	1.2044e-41
86	0x00000844	2.965e-42
87	0x00001bcb	9.97e-42
88	0x80003a4b	-2.0912e-41
89	0x8000074a	-2.615e-42
90	0x80001f01	-1.1122e-41
91	0x80002633	-1.3703e-41
92	0x00001d4f	1.0514e-41
93	0x00002a09	1.508e-41
94	0x00002a50	1.5179e-41
95	0x000047b2	2.572e-41
96	0x00004eb9	2.824e-41
97	0x80001a04	-9.333e-42
98	0x80000e6c	-5.174e-42
99	0x80001889	-8.802e-42
100	0x80002999	-1.4922e-41
101	0x80000dd2	-4.958e-42
102	0x800041de	-2.3629e-41
103	0x0000007e	1.77e-43
104	0x80008152	-4.6391e-41
105	0x000032ce	1.8225e-41
106	0x00006667	3.6735e-41
107	0x00002328	1.2612e-41
108	0x800014da	-7.48e-42
109	0x8000221d	-1.2238e-41
110	0x80000174	-5.21e-43
111	0x80000417	-1.467e-42
112	0x80002ff3	-1.7201e-41
113	0x80000711	-2.535e-42
114	0x80000bfe	-4.302e-42
115	0x800022a1	-1.2423e-41
116	0x000032b6	1.8192e-41
117	0x00007844	4.3143e-41
118	0x8000a92c	-6.0687e-41
119	0x00001871	8.768e-42
120	0x800027a1	-1.4216e-41
121	0x80005bcc	-3.293e-41
122	0x307390ba	8.8608554e-10
123	0x80002648	-1.3733e-41
124	0x80003727	-1.9785e-41
125	0xaa5f13db	-1.9813268e-13
126	0x00002993	1.4914e-41
127	0x8000187f	-8.788e-42
128	0x000047fb	2.5822e-41
129	0x000032d6	1.8236e-41
130	0x000018a4	8.84e-42
131	0x00008d1b	5.0619e-41
132	0x00002cbf	1.6052e-41
133	0x8000222f	-1.2263e-41
134	0x0000330b	1.8311e-41
135	0x800028e8	-1.4674e-41
136	0x80005dbe	-3.3628e-41
137	0x80007eee	-4.5534e-41
138	0x80002f51	-1.6974e-41
139	0x0000919f	5.2239e-41
140	0x80001bf5	-1.0029e-41
141	0x8000129a	-6.673e-42
142	0x000024f2	1.3253e-41
143	0x8000293c	-1.4792e-41
144	0x270f67d6	1.9901526e-15
145	0x800039bd	-2.0713e-41
146	0x00009d68	5.6467e-41
147	0x8000468b	-2.5306e-41
148	0x0000385c	2.0218e-41
149	0x80004a44	-2.6641e-41
150	0x00002065	1.1621e-41
151	0x00001234	6.53e-42
152	0x000001cd	6.46e-43
153	0x00005b14	3.2673e-41
154	0x000005ed	2.126e-42
155	0x000012ca	6.74e-42
156	0x00001567	7.678e-42
157	0x00004dcf	2.7912e-41
158	0x80000b1b	-3.984e-42
159	0x00004dfd	2.7977e-41
160	0x00004570	2.491e-41
161	0x000080ed	4.625e-41
162	0x00004053	2.3075e-41
163	0x80003153	-1.7694e-41
164	0x00004faf	2.8585e-41
165	0x000027ba	1.4251e-41
166	0x8000157a	-7.704e-42
167	0x80003f7a	-2.2771e-41
168	0x00001ba6	9.918e-42
169	0x80001aef	-9.662e-42
170	0x00001871	8.768e-42
171	0x80001878	-8.778e-42
172	0x00006479	3.6043e-41
173	0x0000042b	1.495e-42
174	0x00002247	1.2296e-41
175	0x00000ec7	5.301e-42
176	0x800045ca	-2.5036e-41
177	0x800071b0	-4.0783e-41
178	0x80005e59	-3.3846e-41
179	0x00003958	2.0571e-41
180	0x0000108b	5.934e-42
181	0x80002812	-1.4375e-41
182	0x000014a7	7.409e-42
183	0x80002d28	-1.6199e-41
184	0x00000b05	3.953e-42
185	0x8000050a	-1.808e-42
186	0x000033da	1.8601e-41
187	0x80003d45	-2.198e-41
188	0x00003308	1.8307e-41
189	0x00002efe	1.6858e-41
190	0x00010445	9.3367e-41
191	0x00001d54	1.0521e-41
192	0x000040df	2.3271e-41
193	0x80000f15	-5.41e-42
194	0x00000425	1.487e-42
195	0x00001bc7	9.965e-42
196	0x000064dd	3.6183e-41
197	0x00001859	8.734e-42
198	0x80004cbd	-2.7529e-41
199	0x00000c20	4.35e-42
200	0x80001023	-5.789e-42
201	0x80001350	-6.928e-42
202	0x80001c8f	-1.0245e-41
203	0x80001d5e	-1.0535e-41
204	0x00003712	1.9756e-41
205	0x00002964	1.4848e-41
206	0x800022b4	-1.2449e-41
207	0x8000399b	-2.0665e-41
208	0x8000362d	-1.9435e-41
209	0x80002ab2	-1.5316e-41
210	0x80000bfa	-4.296e-42
211	0x80001b2d	-9.749e-42
212	0x0000421d	2.3717e-41
213	0x0000a841	6.0358e-41
214	0x00007c39	4.4563e-41
215	0x00003726	1.9784e-41
216	0x80002763	-1.4129e-41
217	0x00000989	3.42e-42
218	0x80002e2f	-1.6568e-41
219	0x8000449b	-2.4611e-41
220	0x8000b832	-6.6077e-41
221	0x00001a76	9.492e-42
222	0x00003300	1.8295e-41
223	0x8000202a	-1.1538e-41
224	0x80006835	-3.7382e-41
225	0x00007b16	4.4155e-41
226	0x8000210b	-1.1854e-41
227	0x00003a3a	2.0888e-41
228	0x0000084d	2.978e-42
229	0x00004c5c	2.7393e-41
230	0x00006319	3.555e-41
231	0x00003096	1.743e-41
232	0x80002891	-1.4552e-41
233	0x00003661	1.9507e-41
234	0x00000f8f	5.581e-42
235	0x80000fc0	-5.65e-42
236	0x80001677	-8.059e-42
237	0x80000930	-3.296e-42
238	0x00005a04	3.2292e-41
239	0x000029ae	1.4952e-41
240	0x00003894	2.0296e-41
241	0x0000136d	6.969e-42
242	0x80001bef	-1.002e-41
243	0x000002c6	9.95e-43
244	0x00000faa	5.619e-42
245	0x80004226	-2.373e-41
246	0x00001d4a	1.0507e-41
247	0x80001cb1	-1.0293e-41
248	0xa9466c95	-4.405901e-14
249	0x0000339c	1.8514e-41
250	0x80002710	-1.4013e-41
251	0x000033d8	1.8598e-41
252	0x80000d95	-4.872e-42
253	0x80004e19	-2.8016e-41
254	0x80005f45	-3.4176e-41
255	0x8000a806	-6.0275e-41

encoder_lstm.bias_ih_l0 f4 [512]
0	0x800023e3	-1.2874e-41
1	0x800017bb	-8.513e-42
2	0x829b33f6	-2.2805027e-37
3	0x80002066	-1.1622e-41
4	0x80001323	-6.865e-42
5	0x80000dcf	-4.954e-42
6	0x8000206c	-1.1631e-41
7	0x82062109	-9.854246e-38
8	0x0000093e	3.315e-42
9	0x00002dc1	1.6413e-41
10	0x80001dab	-1.0643e-41
11	0x00000994	3.436e-42
12	0x8000368e	-1.957e-41
13	0x01b80e62	6.7611563e-38
14	0x80001e02	-1.0765e-41
15	0x00000e21	5.068e-42
16	0x8000235c	-1.2685e-41
17	0x80002ac2	-1.5339e-41
18	0x0cdb4a76	3.3787107e-31
19	0x80002d46	-1.6241e-41
20	0x0cbbbdee	2.8926222e-31
21	0x92a390dd	-1.0322458e-27
22	0x800017ec	-8.582e-42
23	0x80002e16	-1.6533e-41
24	0x800015f8	-7.881e-42
25	0x80002a6c	-1.5218e-41
26	0x00002a39	1.5147e-41
27	0x80000fcb	-5.665e-42
28	0x80000a94	-3.795e-42
29	0x80001139	-6.178e-42
30	0x00001d1e	1.0445e-41
31	0x8bd1ac77	-8.076337e-32
32	0x000040e0	2.3273e-41
33	0x000023d3	1.2851e-41
34	0x00002a99	1.5281e-41
35	0x8b450a02	-3.794835e-32
36	0x00003b26	2.1218e-41
37	0x800009dc	-3.537e-42
38	0x80000831	-2.939e-42
39	0x80001a85	-9.513e-42
40	0x0721c3be	1.2169817e-34
41	0x8000221c	-1.2236e-41
42	0x8efe1e22	-6.264485e-30
43	0x00002b70	1.5582e-41
44	0x000005fc	2.147e-42
45	0x80001385	-7.002e-42
46	0x00002bbe	1.5692e-41
47	0x80001dff	-1.076e-41
48	0x800029e0	-1.5022e-41
49	0x800021e3	-1.2156e-41
50	0x801e9cd4	-2.811324e-39
51	0x00001902	8.971e-42
52	0x80065726	-5.82276e-40
53	0x000028f2	1.4688e-41
54	0x000020f2	1.1819e-41
55	0x0d4baded	6.276356e-31
56	0x800f8f81	-1.429012e-39
57	0x00001a6a	9.476e-42
58	0x00001b7e	9.862e-42
59	0x80002a0a	-1.5081e-41
60	0x800016eb	-8.221e-42
61	0x80003ae5	-2.1127e-41
62	0x00002c84	1.5969e-41
63	0x80001727	-8.305e-42
64	0x80001343	-6.91e-42
65	0x000000ad	2.42e-43
66	0x03275356	4.9172554e-37
67	0x000033be	1.8562e-41
68	0x80000279	-8.87e-43
69	0x00000f86	5.569e-42
70	0x80001df9	-1.0752e-41
71	0x80002771	-1.4149e-41
72	0x8e766af6	-3.037334e-30
73	0x80001976	-9.134e-42
74	0x800015a8	-7.769e-42
75	0x80001d0d	-1.0421e-41
76	0x80002339	-1.2636e-41
77	0x000018ab	8.849e-42
78	0x8ee12160	-5.549892e-30
79	0x800028b0	-1.4596e-41
80	0x80003228	-1.7993e-41
81	0x8000438a	-2.4228e-41
82	0x8002c4d4	-2.5428e-40
83	0x0000393a	2.0529e-41
84	0x00002553	1.339e-41
85	0x8000047c	-1.609e-42
86	0x000024c9	1.3196e-41
87	0x80002174	-1.2001e-41
88	0x8000152e	-7.598e-42
89	0x95958988	-6.0397607e-26
90	0x000009e8	3.554e-42
91	0x80002847	-1.4449e-41
92	0x00002b3d	1.5511e-41
93	0x80002f18	-1.6894e-41
94	0x94dd1450	-2.2323309e-26
95	0x000058fa	3.1919e-41
96	0x80004462	-2.4531e-41
97	0x0000080c	2.887e-42
98	0x8001f525	-1.79777e-40
99	0x8000224e	-1.2306e-41
100	0x00004196	2.3528e-41
101	0x000018ae	8.853e-42
102	0x80002763	-1.4129e-41
103	0x00000672	2.312e-42
104	0x00001f7b	1.1293e-41
105	0x800008d1	-3.163e-42
106	0x00003bf2	2.1504e-41
107	0x00002d22	1.619e-41
108	0x800027c0	-1.426e-41
109	0x800001c6	-6.36e-43
110	0x00000007	1e-44
111	0x000005af	2.039e-42
112	0x000024f5	1.3258e-41
113	0x000006a5	2.384e-42
114	0x800002a4	-9.47e-43
115	0x000005bf	2.061e-42
116	0x81bb95f1	-6.8908106e-38
117	0x80002a3d	-1.5152e-41
118	0x00001440	7.264e-42
119	0x840c8205	-1.6516623e-36
120	0x800016aa	-8.13e-42
121	0x8000183c	-8.694e-42
122	0x00003125	1.763e-41
123	0x80002413	-1.2941e-41
124	0x80000646	-2.25e-42
125	0x0000070c	2.528e-42
126	0x80000618	-2.186e-42
127	0x8000a275	-5.8279e-41
128	0x8000489c	-2.6047e-41
129	0x800003d9	-1.38e-42
130	0x01f620bb	9.0413094e-38
131	0x80001ab4	-9.579e-42
132	0x80002c7b	-1.5957e-41
133	0x80001aa8	-9.562e-42
134	0x80002b72	-1.5585e-41
135	0x82fcfe77	-3.7174128e-37
136	0x80001af3	-9.668e-42
137	0x80001a7f	-9.505e-42
138	0x000008e6	3.192e-42
139	0x00001c89	1.0236e-41
140	0x00001ec6	1.104e-41
141	0x02b0bc37	2.5968906e-37
142	0x00001da5	1.0634e-41
143	0x80001c6e	-1.0199e-41
144	0x800033a3	-1.8524e-41
145	0x800007d1	-2.804e-42
146	0x8b940de0	-5.7028403e-32
147	0x00004b5d	2.7035e-41
148	0x8e1acfde	-1.908205e-30
149	0x92dd7974	-1.3977001e-27
150	0x80002c1a	-1.582e-41
151	0x80001a25	-9.379e-42
152	0x0000194f	9.079e-42
153	0x00002e04	1.6507e-41
154	0x8000181c	-8.649e-42
155	0x00004126	2.3371e-41
156	0x00000b3a	4.027e-42
157	0x00000794	2.719e-42
158	0x00001710	8.273e-42
159	0x8a157c70	-7.197493e-33
160	0x00000d65	4.805e-42
161	0x800029cb	-1.4992e-41
162	0x800039b7	-2.0704e-41
163	0x89b6366a	-4.3866077e-33
164	0x00001da4	1.0633e-41
165	0x000016e3	8.21e-42
166	0x80001c4f	-1.0155e-41
167	0x00001f54	1.1238e-41
168	0x86cba225	-7.6598363e-35
169	0x8000184d	-8.717e-42
170	0x9014d98e	-2.9355452e-29
171	0x8000238c	-1.2752e-41
172	0x0000226e	1.2351e-41
173	0x00000920	3.273e-42
174	0x80002e3e	-1.6589e-41
175	0x80000930	-3.296e-42
176	0x8000274c	-1.4097e-41
177	0x800029b4	-1.496e-41
178	0x80771a0c	-1.0937768e-38
179	0x00000361	1.212e-42
180	0x80017dfd	-1.37032e-40
181	0x00002015	1.1509e-41
182	0x80001ed1	-1.1055e-41
183	0x8c826a8f	-2.0093804e-31
184	0x80001aae	-9.571e-42
185	0x80001982	-9.15e-42
186	0x80000fbb	-5.643e-42
187	0x0000292f	1.4774e-41
188	0x80001f32	-1.1191e-41
189	0x80004118	-2.3351e-41
190	0x80002593	-1.3479e-41
191	0x00001864	8.75e-42
192	0x8000181c	-8.649e-42
193	0x800011c4	-6.373e-42
194	0x8098235f	-1.3971684e-38
195	0x000004aa	1.673e-42
196	0x80001d89	-1.0595e-41
197	0x0000690d	3.7685e-41
198	0x00000336	1.152e-42
199	0x000025ce	1.3562e-41
200	0x0cb02e65	2.7145016e-31
201	0x80000eab	-5.262e-42
202	0x000005a2	2.02e-42
203	0x000045af	2.4998e-41
204	0x80002411	-1.2938e-41
205	0x00001c01	1.0046e-41
206	0x8ea8d2a2	-4.161803e-30
207	0x80002b91	-1.5629e-41
208	0x80002ef5	-1.6845e-41
209	0x00004be7	2.7229e-41
210	0x800183ab	-1.39069e-40
211	0x80001921	-9.015e-42
212	0x0000395e	2.058e-41
213	0x0000270c	1.4007e-41
214	0x80002dbe	-1.6409e-41
215	0x00000c5a	4.431e-42
216	0x80000b3c	-4.03e-42
217	0x95349461	-3.646776e-26
218	0x000000da	3.05e-43
219	0x00001ec1	1.1032e-41
220	0x00003c1e	2.1566e-41
221	0x0000094b	3.334e-42
222	0x96434fa4	-1.5777105e-25
223	0x00002f18	1.6894e-41
224	0x80004bcb	-2.719e-41
225	0x00002232	1.2267e-41
226	0x0000147f	7.353e-42
227	0x800034fc	-1.9007e-41
228	0x800009c1	-3.499e-42
229	0x80000e5c	-5.151e-42
230	0x00003a0e	2.0826e-41
231	0x0000373c	1.9814e-41
232	0x00002661	1.3768e-41
233	0x80001db8	-1.0661e-41
234	0x00001ea0	1.0986e-41
235	0x80002556	-1.3394e-41
236	0x800026ba	-1.3892e-41
237	0x0000221c	1.2236e-41
238	0x00001994	9.176e-42
239	0x000015a6	7.766e-42
240	0x80001e2f	-1.0828e-41
241	0x80003fc5	-2.2876e-41
242	0x800019cb	-9.253e-42
243	0x80002104	-1.1844e-41
244	0x8065cf5f	-9.349776e-39
245	0x800026d1	-1.3925e-41
246	0x8000292f	-1.4774e-41
247	0x81519580	-3.8494498e-38
248	0x80003e54	-2.2359e-41
249	0x00000a21	3.634e-42
250	0x000038ac	2.033e-41
251	0x800021bb	-1.21e-41
252	0x00000788	2.702e-42
253	0x80004a86	-2.6734e-41
254	0x80001d68	-1.0549e-41
255	0x80011e81	-1.02778e-40

encoder_lstm.bias_hh_l0 f4 [512]
0	0x800002e1	-1.033e-42
1	0x80000c70	-4.462e-42
2	0x82a5843c	-2.432047e-37
3	0x8000186c	-8.761e-42
4	0x80002b91	-1.5629e-41
5	0x000014a9	7.411e-42
6	0x00000519	1.829e-42
7	0x812751f6	-3.073186e-38
8	0x00001bfe	1.0042e-41
9	0x000026f1	1.397e-41
10	0x00001417	7.207e-42
11	0x000017c0	8.52e-42
12	0x00000b8a	4.14e-42
13	0x01f9583b	9.159476e-38
14	0x80000c33	-4.376e-42
15	0x0000053a	1.875e-42
16	0x000033d8	1.8598e-41
17	0x800017da	-8.556e-42
18	0x0cfb6c49	3.8737845e-31
19	0x00004468	2.454e-41
20	0x8e1c3083	-1.9251842e-30
21	0x92a16fdd	-1.0188105e-27
22	0x00002dcd	1.643e-41
23	0x00001d8d	1.0601e-41
24	0x800016c7	-8.171e-42
25	0x80000b70	-4.103e-42
26	0x80001661	-8.028e-42
27	0x8000321a	-1.7973e-41
28	0x80001aa3	-9.555e-42
29	0x00000006	8e-45
30	0x80001677	-8.059e-42
31	0x8c0a4b20	-1.065374e-31
32	0x0000302e	1.7284e-41
33	0x800019c7	-9.247e-42
34	0x80001857	-8.731e-42
35	0x8b3c715b	-3.6292762e-32
36	0x800008a1	-3.095e-42
37	0x00002696	1.3842e-41
38	0x80000ec6	-5.3e-42
39	0x0000244b	1.302e-41
40	0x85b19c62	-1.6702446e-35
41	0x00002a53	1.5183e-41
42	0x8e41509f	-2.3827904e-30
43	0x80003099	-1.7434e-41
44	0x8000092e	-3.293e-42
45	0x80000cef	-4.64e-42
46	0x000032df	1.8249e-41
47	0x00001a59	9.452e-42
48	0x00000185	5.45e-43
49	0x0000160b	7.908e-42
50	0x8041b181	-6.032984e-39
51	0x000045b7	2.5009e-41
52	0x80053dae	-4.81304e-40
53	0x000016bf	8.16e-42
54	0x00000e3f	5.11e-42
55	0x0d12342a	4.5052514e-31
56	0x800f9d58	-1.433977e-39
57	0x000011df	6.411e-42
58	0x00001572	7.693e-42
59	0x000006c3	2.426e-42
60	0x800012bc	-6.72e-42
61	0x00002411	1.2938e-41
62	0x000006f1	2.49e-42
63	0x000004b4	1.687e-42
64	0x80001f4b	-1.1226e-41
65	0x80000ae8	-3.912e-42
66	0x0366773c	6.77278e-37
67	0x800033b8	-1.8553e-41
68	0x80001b07	-9.696e-42
69	0x0000243d	1.3e-41
70	0x80001b12	-9.711e-42
71	0x8000264c	-1.3738e-41
72	0x8e9a3536	-3.801517e-30
73	0x00000a9c	3.806e-42
74	0x000017d2	8.545e-42
75	0x80004de1	-2.7938e-41
76	0x00000dc1	4.934e-42
77	0x800020da	-1.1785e-41
78	0x8ee5838d	-5.6579537e-30
79	0x0000119f	6.321e-42
80	0x0000432e	2.41e-41
81	0x0000103f	5.828e-42
82	0x80031937	-2.84552e-40
83	0x8000055b	-1.921e-42
84	0x8000070b	-2.527e-42
85	0x800043d6	-2.4335e-41
86	0x00001cae	1.0288e-41
87	0x800012ff	-6.815e-42
88	0x0000d000	7.4616e-41
89	0x165c29cb	1.7784646e-25
90	0x00003ed8	2.2544e-41
91	0x80001aa7	-9.561e-42
92	0x00002d3f	1.6231e-41
93	0x0000470b	2.5485e-41
94	0x94e7f5b2	-2.3421949e-26
95	0x000008db	3.177e-42
96	0x00001d67	1.0548e-41
97	0x80000521	-1.84e-42
98	0x8001cff4	-1.66435e-40
99	0x800020ee	-1.1813e-41
100	0x80006b0b	-3.84e-41
101	0x80000130	-4.26e-43
102	0x00001f0f	1.1142e-41
103	0x8000207a	-1.165e-41
104	0x00002494	1.3122e-41
105	0x80003864	-2.0229e-41
106	0x800006bb	-2.414e-42
107	0x800007c1	-2.782e-42
108	0x80002c0e	-1.5804e-41
109	0x000023bd	1.282e-41
110	0x80002181	-1.2019e-41
111	0x000023c5	1.2832e-41
112	0x80002fc3	-1.7134e-41
113	0x8000a76b	-6.0058e-41
114	0x800002af	-9.63e-43
115	0x0000120f	6.478e-42
116	0x00886e1d	1.2529129e-38
117	0x80002b17	-1.5458e-41
118	0x8000059f	-2.016e-42
119	0x83ce36b5	-1.2120152e-36
120	0x00003ea2	2.2468e-41
121	0x000005ec	2.124e-42
122	0x00001900	8.968e-42
123	0x800025dc	-1.3581e-41
124	0x80002507	-1.3283e-41
125	0x00002fdd	1.717e-41
126	0x80001a8a	-9.52e-42
127	0x80018e67	-1.4292e-40
128	0x80002a44	-1.5162e-41
129	0x8000121f	-6.5e-42
130	0x0235bd14	1.3352043e-37
131	0x000001b7	6.15e-43
132	0x800031a4	-1.7808e-41
133	0x80000a8f	-3.788e-42
134	0x00001487	7.364e-42
135	0x82efa7a3	-3.5214112e-37
136	0x00000afd	3.942e-42
137	0x8000248d	-1.3112e-41
138	0x00002266	1.234e-41
139	0x000013e9	7.142e-42
140	0x000009cd	3.516e-42
141	0x01eb3c45	8.641185e-38
142	0x80002ac9	-1.5348e-41
143	0x80001b33	-9.757e-42
144	0x00002acc	1.5353e-41
145	0x80003edc	-2.255e-41
146	0x8c0315bd	-1.0098415e-31
147	0x80000f7e	-5.558e-42
148	0x8dcaeeb8	-1.2506681e-30
149	0x92c7820d	-1.2590726e-27
150	0x800049ee	-2.6521e-41
151	0x80001e54	-1.088e-41
152	0x80000b68	-4.092e-42
153	0x800013db	-7.123e-42
154	0x80001c4c	-1.0151e-41
155	0x000027f8	1.4338e-41
156	0x00001097	5.951e-42
157	0x80000c23	-4.354e-42
158	0x8000032d	-1.139e-42
159	0x8a9fc0e4	-1.53837e-32
160	0x000022fb	1.2549e-41
161	0x0000254d	1.3381e-41
162	0x00001ee3	1.108e-41
163	0x89c4f8ef	-4.741938e-33
164	0x800045df	-2.5065e-41
165	0x800014e8	-7.5e-42
166	0x80000a18	-3.621e-42
167	0x800014a8	-7.41e-42
168	0x063a11a5	3.4995675e-35
169	0x800007d9	-2.815e-42
170	0x904a1052	-3.9850048e-29
171	0x80002e46	-1.66e-41
172	0x00001b85	9.872e-42
173	0x000015a0	7.758e-42
174	0x00001934	9.041e-42
175	0x80001ce8	-1.037e-41
176	0x000017c2	8.523e-42
177	0x000019a2	9.195e-42
178	0x8075417c	-1.0768244e-38
179	0x80004d33	-2.7694e-41
180	0x80022eee	-2.00506e-40
181	0x00001279	6.627e-42
182	0x00000ffa	5.731e-42
183	0x8bf19761	-9.3057593e-32
184	0x80014292	-1.15716e-40
185	0x800000e5	-3.21e-43
186	0x80000ef6	-5.367e-42
187	0x80001c71	-1.0203e-41
188	0x00002ad0	1.5358e-41
189	0x000030b9	1.7478e-41
190	0x00000fed	5.713e-42
191	0x80000e7c	-5.196e-42
192	0x000038b0	2.0336e-41
193	0x800012cb	-6.742e-42
194	0x0382aec9	7.680842e-37
195	0x80004774	-2.5633e-41
196	0x00001e0c	1.0779e-41
197	0x00002cf8	1.6132e-41
198	0x00000317	1.108e-42
199	0x000011a3	6.327e-42
200	0x0ccdd55e	3.1713667e-31
201	0x800010bd	-6.005e-42
202	0x00001d7e	1.058e-41
203	0x80001227	-6.512e-42
204	0x80002449	-1.3017e-41
205	0x800015a7	-7.767e-42
206	0x8d20a55a	-4.950284e-31
207	0x00003177	1.7745e-41
208	0x80004766	-2.5613e-41
209	0x80003c92	-2.1729e-41
210	0x8001c6e5	-1.63185e-40
211	0x80002440	-1.3004e-41
212	0x80000b11	-3.97e-42
213	0x00002709	1.4003e-41
214	0x80000c06	-4.313e-42
215	0x800001ef	-6.94e-43
216	0x80000211	-7.41e-43
217	0x16822671	2.1026893e-25
218	0x80004e27	-2.8036e-41
219	0x80000dd8	-4.966e-42
220	0x800031af	-1.7823e-41
221	0x000028c4	1.4624e-41
222	0x962950f7	-1.3677259e-25
223	0x000054d6	3.0433e-41
224	0x000029e2	1.5025e-41
225	0x8000116b	-6.248e-42
226	0x0000037c	1.25e-42
227	0x00001af3	9.668e-42
228	0x00001c10	1.0067e-41
229	0x8000228b	-1.2392e-41
230	0x00001962	9.106e-42
231	0x00002656	1.3752e-41
232	0x00000f94	5.588e-42
233	0x00001b30	9.753e-42
234	0x00004056	2.308e-41
235	0x80002a13	-1.5093e-41
236	0x80002369	-1.2703e-41
237	0x800014c7	-7.454e-42
238	0x000019f3	9.309e-42
239	0x8000199c	-9.187e-42
240	0x00003759	1.9855e-41
241	0x0000951d	5.3492e-41
242	0x00001761	8.387e-42
243	0x80001ded	-1.0735e-41
244	0x81b407d4	-6.613279e-38
245	0x00002630	1.3699e-41
246	0x800008dd	-3.18e-42
247	0x01bec91f	7.008357e-38
248	0x80004b6a	-2.7053e-41
249	0x80002174	-1.2001e-41
250	0x0000229e	1.2418e-41
251	0x800035cb	-1.9297e-41
252	0x80002088	-1.167e-41
253	0x80003cb0	-2.177e-41
254	0x800007d6	-2.811e-42
255	0x800160ff	-1.26631e-40

encoder_attn.weight f4 [1, 276]
0	0x800018b8	-8.867e-42
1	0x80005f6c	-3.4231e-41
2	0x80008aae	-4.9749e-41
3	0x00004a37	2.6623e-41
4	0x0000272d	1.4054e-41
5	0x9cc92206	-1.3309859e-21
6	0x0b89b5cf	5.3044036e-32
7	0x000067a4	3.7179e-41
8	0x80004f0b	-2.8355e-41
9	0x000045fa	2.5103e-41
10	0x00000c49	4.407e-42
11	0x00002f69	1.7008e-41
12	0x00010a4d	9.5531e-41
13	0x00006134	3.487e-41
14	0x94ba9560	-1.8840118e-26
15	0x00001939	9.048e-42
16	0x00004932	2.6258e-41
17	0x00001ce4	1.0364e-41
18	0x00001bed	1.0018e-41
19	0x800031a7	-1.7812e-41
20	0x00006eb6	3.9716e-41
21	0x80019650	-1.45757e-40
22	0x00002758	1.4114e-41
23	0xa18f916d	-9.728551e-19
24	0x80002aea	-1.5395e-41
25	0x800033b7	-1.8552e-41
26	0x2689743d	9.537791e-16
27	0x22d21947	5.6947377e-18
28	0x8000142f	-7.24e-42
29	0x800046cc	-2.5397e-41
30	0x000050d1	2.8991e-41
31	0x8000380b	-2.0104e-41
32	0x00004990	2.6389e-41
33	0x000057ba	3.147e-41
34	0x00001f26	1.1174e-41
35	0x80000cf8	-4.652e-42
36	0x80002bbe	-1.5692e-41
37	0xb3320a2b	-4.1453102e-08
38	0x000057be	3.1476e-41
39	0x8000195f	-9.101e-42
40	0x00003d1f	2.1926e-41
41	0x8000242f	-1.298e-41
42	0x0000453e	2.484e-41
43	0x8982fbe4	-3.153324e-33
44	0x0000269b	1.3849e-41
45	0x000024fe	1.327e-41
46	0x00006c9b	3.896e-41
47	0x80000a03	-3.592e-42
48	0x0000438d	2.4233e-41
49	0x800049fc	-2.654e-41
50	0x80004c80	-2.7443e-41
51	0x80002479	-1.3084e-41
52	0x00002ec3	1.6775e-41
53	0x00005435	3.0208e-41
54	0x800054a8	-3.0369e-41
55	0xa25f4306	-3.0257617e-18
56	0x800000e4	-3.2e-43
57	0x80001d15	-1.0433e-41
58	0x000060c5	3.4714e-41
59	0x00005c77	3.317e-41
60	0x80003bd1	-2.1458e-41
61	0x80005501	-3.0494e-41
62	0x8000a2a8	-5.835e-41
63	0x80003639	-1.9451e-41
64	0x80006ee2	-3.9777e-41
65	0x9f4c821a	-4.3306298e-20
66	0x80004348	-2.4136e-41
67	0x00002590	1.3475e-41
68	0x80003436	-1.873e-41
69	0x000070b5	4.0432e-41
70	0x80007b60	-4.4259e-41
71	0x80005724	-3.126e-41
72	0x80001e35	-1.0836e-41
73	0x800014a4	-7.404e-42
74	0x8000e8b7	-8.3482e-41
75	0x000078b9	4.3307e-41
76	0x800017b9	-8.51e-42
77	0x8000924c	-5.2481e-41
78	0x00003356	1.8416e-41
79	0x80003f2c	-2.2662e-41
80	0x80013d2a	-1.13777e-40
81	0x000081cd	4.6564e-41
82	0x0000277d	1.4166e-41
83	0x0000662e	3.6655e-41
84	0x00001294	6.665e-42
85	0x80001b6e	-9.84e-42
86	0x00001e30	1.0829e-41
87	0x80005db6	-3.3617e-41
88	0x80001a7f	-9.505e-42
89	0x0000cd5a	7.3666e-41
90	0x80003bf0	-2.1502e-41
91	0x0000171a	8.287e-42
92	0x80001ae1	-9.642e-42
93	0x000054a9	3.037e-41
94	0x0000aab5	6.1238e-41
95	0x000057f3	3.155e-41
96	0x9c235a42	-5.404883e-22
97	0x00003c59	2.1649e-41
98	0x80003bde	-2.1476e-41
99	0x80005d93	-3.3568e-41
100	0x00006a86	3.8213e-41
101	0x80006a0b	-3.8041e-41
102	0x000074b0	4.186e-41
103	0x8000de3a	-7.972e-41
104	0x80001e83	-1.0946e-41
105	0x0000304b	1.7324e-41
106	0x00003705	1.9737e-41
107	0x8000346a	-1.8803e-41
108	0x8000573b	-3.1292e-41
109	0x80001c4b	-1.015e-41
110	0x80004418	-2.4427e-41
111	0x00001964	9.108e-42
112	0x80003cff	-2.1881e-41
113	0x80004b5b	-2.7032e-41
114	0x00002fe0	1.7174e-41
115	0x00002aba	1.5327e-41
116	0x8000a3fc	-5.8827e-41
117	0x80004e19	-2.8016e-41
118	0x00001297	6.669e-42
119	0x800061af	-3.5042e-41
120	0x80004a5c	-2.6675e-41
121	0x00002715	1.402e-41
122	0x0000299e	1.493e-41
123	0x00009818	5.4561e-41
124	0x07760470	1.8508287e-34
125	0x80003e81	-2.2422e-41
126	0x80007925	-4.3458e-41
127	0x8001366d	-1.1136e-40
128	0x00004044	2.3054e-41
129	0x80004778	-2.5638e-41
130	0x00000e8b	5.217e-42
131	0x00005a18	3.232e-41
132	0x0000a936	6.0701e-41
133	0x00001d6c	1.0555e-41
134	0x0a11dd3c	7.0231056e-33
135	0x00001fc5	1.1397e-41
136	0x00003c61	2.166e-41
137	0x8001cf74	-1.66256e-40
138	0x00004aaa	2.6784e-41
139	0x0000071c	2.55e-42
140	0x80004580	-2.4932e-41
141	0xb37fc231	-5.954843e-08
142	0x80004eac	-2.8222e-41
143	0x00003db1	2.2131e-41
144	0x000062df	3.5468e-41
145	0x80006ee4	-3.978e-41
146	0x80004dee	-2.7956e-41
147	0x00002ebc	1.6765e-41
148	0x9ec0d8d5	-2.041847e-20
149	0x00010cd1	9.6433e-41
150	0x800024a5	-1.3146e-41
151	0x00002433	1.2986e-41
152	0x0000178d	8.448e-42
153	0x8000305d	-1.735e-41
154	0x80001007	-5.75e-42
155	0x00007686	4.2518e-41
156	0x347f06ca	2.3751195e-07
157	0x80000e69	-5.17e-42
158	0x00004a45	2.6643e-41
159	0x80005600	-3.0851e-41
160	0x800002c7	-9.96e-43
161	0x00002c64	1.5924e-41
162	0x80004e3c	-2.8065e-41
163	0x800015a0	-7.758e-42
164	0x00002e21	1.6548e-41
165	0x800046f4	-2.5453e-41
166	0x00004370	2.4192e-41
167	0x000056b6	3.1106e-41
168	0x00002c63	1.5923e-41
169	0x800046b9	-2.537e-41
170	0x0001cb51	1.64772e-40
171	0x000042b9	2.3936e-41
172	0x00004f3f	2.8428e-41
173	0x0000038b	1.271e-42
174	0x80000852	-2.985e-42
175	0x000015f2	7.872e-42
176	0x0000ad14	6.2089e-41
177	0x80002d07	-1.6153e-41
178	0x00004605	2.5118e-41
179	0x00005cdc	3.3312e-41
180	0x00000bd6	4.246e-42
181	0x800014fc	-7.528e-42
182	0x000004f1	1.773e-42
183	0x800069f5	-3.801e-41
184	0x80001853	-8.726e-42
185	0x80003d9e	-2.2104e-41
186	0x00002501	1.3275e-41
187	0x80001a69	-9.474e-42
188	0xa002e649	-1.1087623e-19
189	0x000013de	7.127e-42
190	0x80000a94	-3.795e-42
191	0x81408399	-3.5359247e-38
192	0x00003945	2.0544e-41
193	0x8000005e	-1.32e-43
194	0x00006af7	3.8372e-41
195	0x00003184	1.7763e-41
196	0x800071b2	-4.0786e-41
197	0x8000385c	-2.0218e-41
198	0x80004ef9	-2.833e-41
199	0x80001a58	-9.45e-42
200	0x000025e7	1.3597e-41
201	0x8000a1dd	-5.8066e-41
202	0x0000184e	8.719e-42
203	0x800000f1	-3.38e-43
204	0x80002730	-1.4058e-41
205	0x00004c11	2.7287e-41
206	0x8000bf99	-6.8732e-41
207	0x00004dbf	2.789e-41
208	0x8000091e	-3.27e-42
209	0x0000067e	2.329e-42
210	0x000066cc	3.6877e-41
211	0x8000112e	-6.163e-42
212	0x00000064	1.4e-43
213	0x80009b91	-5.5807e-41
214	0x00007329	4.1312e-41
215	0x0000446f	2.455e-41
216	0x00005a45	3.2383e-41
217	0x00001583	7.717e-42
218	0xa11fd500	-5.41532e-19
219	0x80005ba5	-3.2876e-41
220	0x80001f87	-1.131e-41
221	0x800013d0	-7.107e-42
222	0x000522b2	4.71624e-40
223	0x80000bf8	-4.294e-42
224	0x00003ab1	2.1055e-41
225	0x800027df	-1.4303e-41
226	0x00003b88	2.1356e-41
227	0x00002ebc	1.6765e-41
228	0x000068dc	3.7616e-41
229	0x00000eb7	5.279e-42
230	0x800106ff	-9.4345e-41
231	0x00006c54	3.8861e-41
232	0x00000e2d	5.085e-42
233	0x80000f1c	-5.42e-42
234	0x80004b63	-2.7044e-41
235	0x800025f8	-1.362e-41
236	0x0000122a	6.516e-42
237	0x80002c72	-1.5944e-41
238	0x00002417	1.2947e-41
239	0x00001ae2	9.644e-42
240	0x0000021f	7.61e-43
241	0x80001998	-9.181e-42
242	0x80003583	-1.9196e-41
243	0x80002f01	-1.6862e-41
244	0x0000553e	3.0579e-41
245	0x80006205	-3.5163e-41
246	0x00002954	1.4826e-41
247	0x00002585	1.346e-41
248	0x80008f1b	-5.1337e-41
249	0x80004dd1	-2.7915e-41
250	0x80001732	-8.321e-42
251	0x800011a1	-6.324e-42
252	0x00006375	3.5678e-41
253	0x0000666d	3.6743e-41
254	0x80006bd1	-3.8677e-41
255	0x80005cc8	-3.3284e-41

exp_avg f4 [7, 7]
0	0x00000001	1e-45
1	0x00000004	6e-45
2	0x00000003	4e-45
3	0x80000003	-4e-45
4	0x00000004	6e-45
5	0x80000003	-4e-45
6	0x80000004	-6e-45
7	0x80000004	-6e-45
8	0x00000000	0.0
9	0x00000001	1e-45
10	0x80000004	-6e-45
11	0x00000004	6e-45
12	0x00000003	4e-45
13	0x00000003	4e-45
14	0x00000002	3e-45
15	0x80000003	-4e-45
16	0x00000004	6e-45
17	0x00000000	0.0
18	0x80000003	-4e-45
19	0x80000003	-4e-45
20	0x00000001	1e-45
21	0x00000004	6e-45
22	0x80000000	-0.0
23	0x80000004	-6e-45
24	0x00000004	6e-45
25	0x80000004	-6e-45
26	0x80000001	-1e-45
27	0x00000004	6e-45
28	0x00000004	6e-45
29	0x00000004	6e-45
30	0x00000004	6e-45
31	0x80000002	-3e-45
32	0x00000001	1e-45
33	0x80000001	-1e-45
34	0x00000003	4e-45
35	0x80000004	-6e-45
36	0x80000001	-1e-45
37	0x80000003	-4e-45
38	0x80000004	-6e-45
39	0x80000004	-6e-45
40	0x80000002	-3e-45
41	0x80000002	-3e-45
42	0x00000002	3e-45
43	0x80000001	-1e-45
44	0x80000003	-4e-45
45	0x00000001	1e-45
46	0x80000003	-4e-45
47	0x00000003	4e-45
48	0x00000003	4e-45

exp_avg_sq f4 [7, 7]
0	0x2f001e53	1.1652306e-10
1	0x2f013455	1.1751074e-10
2	0x2dbf231b	2.1729776e-11
3	0x2cbbc090	5.3362384e-12
4	0x2e9c5efc	7.110931e-11
5	0x2e7a98d0	5.6979144e-11
6	0x2e82644f	5.929534e-11
7	0x2e79cead	5.679961e-11
8	0x2d2b652e	9.742691e-12
9	0x2909e877	3.0621742e-14
10	0x2e4dbc5b	4.6778897e-11
11	0x2cdb0c51	6.2257218e-12
12	0x2ef17131	1.0979518e-10
13	0x2e70feb3	5.47959e-11
14	0x2e0751f0	3.076822e-11
15	0x2ed2917d	9.575538e-11
16	0x2f413ae2	1.7574167e-10
17	0x2bf0cbc8	1.7109586e-12
18	0x2e81c41f	5.901079e-11
19	0x2e171406	3.435121e-11
20	0x2c24a7f9	2.3399045e-12
21	0x2df58665	2.7912958e-11
22	0x2cf28c81	6.8936527e-12
23	0x2ec3733c	8.888043e-11
24	0x2a13c8cb	1.3125887e-13
25	0x2c956e75	4.247098e-12
26	0x2b4c3cb8	7.2559623e-13
27	0x2f3a4e08	1.6944324e-10
28	0x2e119f54	3.3110695e-11
29	0x2f646244	2.077139e-10
30	0x2d80da52	1.4648869e-11
31	0x2dd3bed3	2.4072666e-11
32	0x2db38db5	2.0412875e-11
33	0x2ec0f0ec	8.7739455e-11
34	0x2f83f0bb	2.399981e-10
35	0x2ea3d4ed	7.450205e-11
36	0x2cf0e28c	6.846362e-12
37	0x2b2c0654	6.111546e-13
38	0x2e8b1056	6.32389e-11
39	0x2edd35fe	1.00595074e-10
40	0x2ad77017	3.826945e-13
41	0x2f3713a1	1.6650727e-10
42	0x2f23b8f6	1.4890475e-10
43	0x2d8d004a	1.6029972e-11
44	0x28b4b1e5	2.0061164e-14
45	0x2e7b7a7b	5.7179577e-11
46	0x2f407352	1.7503268e-10
47	0x2dfc98a9	2.8716878e-11
48	0x2ee6b90d	1.0492061e-10

exp_avg f4 [7]
0	0x80000004	-6e-45
1	0x80000004	-6e-45
2	0x80000000	-0.0
3	0x00000004	6e-45
4	0x80000000	-0.0
5	0x00000000	0.0
6	0x00000002	3e-45

exp_avg_sq f4 [7]
0	0x2cbb853d	5.329652e-12
1	0x2dc9f694	2.2960557e-11
2	0x29e44365	1.0136925e-13
3	0x2c57ca12	3.066551e-12
4	0x2d796896	1.4177234e-11
5	0x2e863967	6.103811e-11
6	0x2f803020	2.331726e-10
