weights_new/EncoderEpochnew0_20_8.pt (torch_old, 237343 bytes, 27 tensors)

gamma_x_l.weight f4 [7, 7]
00000000: a068 123d c50a adbe 10f7 783d 75e4 b93e
00000010: 58d4 14bd 14b5 a4bd 8c94 be3d 809e a33c
00000020: f821 2dbd bad6 95be da30 293e 4049 59bc
00000030: 821f 063e 3f88 5ebe 75e2 27be 12a3 a1be
00000040: 276c 9e3e 8b2b a73e 71c3 893e 0794 ac3e
00000050: 5f2b 9b3e ee05 53be 5b7c 9b3e ea38 06be
00000060: d814 623e 26db 743e b05f bebd c0a8 913d
00000070: 5dd0 26be b38b 07be bd2d 803e 2887 d5bd
00000080: c01f 033e b5b2 a13e 00ef 463b 1fa1 b03e
00000090: 96b6 213e f6a6 533e d0c6 183d 2a06 03be
000000a0: 39cc a23e 1acc 663e a26a 593e a52a 813e
000000b0: ca54 793e 0d34 bc3e f095 743d 0ea1 85be
000000c0: 2680 5a3a
0.03574431 -0.3379728 0.060782492 0.3630711 -0.03633532 -0.080423504 0.09305677 0.01997304
-0.042268723 -0.29265386 0.16522542 -0.013262093 0.13097957 -0.21731661 -0.1639498 -0.31569725
0.3094189 0.32650408 0.26906922 0.33706686 0.30306527 -0.20607731 0.30368313 -0.13107648
0.22078264 0.23911723 -0.09295595 0.07112265 -0.16290422 -0.13236885 0.25034896 -0.1042617
0.1280508 0.31581655 0.0030354857 0.34497926 0.15792307 0.2066916 0.037298977 -0.1279532
0.31796435 0.22538796 0.21232083 0.25227848 0.2434875 0.36758462 0.059713304 -0.26099437
0.00083351356

gamma_x_l.bias f4 [7]
00000000: dcbe a8be 60db f1bd 3414 f93d e02d 603e
00000010: ee9c 8dbe 0a03 5d3d 6df7 823e
-0.32958114 -0.118094206 0.121620566 0.218925 -0.2765879 0.053957976 0.25579396

gamma_h_l.weight f4 [64, 7]
00000000: 9cfd 163e 5fac 773a 0a6b cdbd cda6 4ebe
00000010: ad53 ce3e c0d9 da3e e785 943e 2a68 693e
00000020: 9611 efbd 545e 083e 85d0 de3d 7a86 0a3e
00000030: 608f 72be d780 953d 584e 263e 0c7e 2bbe
00000040: 68c9 c5bd 583d 4bbd 6e52 37bd 422b 003e
00000050: 7328 ab3e 40b6 3b3e e595 b5be df15 073e
00000060: 5243 00be 2dbb a73e 287f 563e 4871 aabd
00000070: 279c 643e 555e 403e e327 10be 79a3 43be
00000080: 1a0d 6bbe 5112 c13e 49c4 a4be d4d2 dcbd
00000090: c6e0 9ebe 9621 773e f46a 183e fbaa 673d
000000a0: b9ac 94be 4de3 3cbd 113c a83e 8742 35bd
000000b0: 1792 b3bc 0bf8 363e f774 95bc 9f91 fbbd
000000c0: 749a 903e 9e15 5d3d d9c2 c4bd c300 b53c
000000d0: aeb3 4cbe a96d 45be 34c7 3dbe 0ab9 b13e
000000e0: c83f 81be 76a6 923e c5f3 e3bd 7ef7 383c
000000f0: 4c67 07be 7137 ffbd 721b b3be 4545 b83e
00000100: 8e0f 143e 16ab 2fbe b256 35bd 1b0b 053e
00000110: dc60 683e 8098 c53d a36d edbd 334b 25bd
00000120: 7757 99be bd34 90be 570d 653e 115b db3e
00000130: a32c 87ba 039f bd3e 7a8c af3e 3a46 543d
00000140: 922f 513e 56d0 293e 0e4a 9abe 1bc3 81be
00000150: f51c 90be a2fb 83be 754b 803e 9a51 b5be
00000160: cd07 07be 213c 5e3e 1ebd d5bd 0098 42b9
00000170: 004f c3bd 80b9 70bd 2019 87bd c78f a2be
00000180: 9ee6 3f3e 7faa 4ebe 174f 2ebe 7b08 a0bd
00000190: b29e 02be b729 323e 2a33 73be 750f 4d3e
000001a0: c85b 643e ad99 87bd a96c 2f3e dd65 cd3e
000001b0: e5eb 413e 32c9 84be 7040 12bd 4926 d53e
000001c0: 5bd0 58be 3810 7a3d a87c 92be 0086 f23d
000001d0: 6e1e 213e 5049 a43c b8f9 5fbd 48a9 a63e
000001e0: 86d3 bfbe 260d 2fbe 2b90 95be 2567 a63e
000001f0: c89f 403d 1eff a0be 458f 96be 6a2d b53d
00000200: 5cd3 8f3e cfac 43bd f14a 18be 5a53 3f3e
00000210: 496c 92bd b6b7 183e c18b 03be b8dc 0b3e
00000220: 7f20 7f3e 7092 a63e 5aa8 2dbd 4739 c4bc
00000230: 3479 09be 75fb 603e 14b9 11bb cbb1 d3bd
00000240: 6a65 983e 154f 983e fa6f 3ebd 3288 83bd
00000250: 450b 23be a772 f13d 379f fabd bda1 91bd
00000260: 9b94 a2be f093 883e 6c0d a9be c0a5 a1bc
00000270: 522d 6cbe 8721 893e 5d26 bfbe d96c b3be
00000280: a0f7 18bd c664 783e 4865 a9be 35d0 fc3c
00000290: bfe6 103e 59aa 6f3e a287 fa3d cd5c 6dbd
000002a0: 1a7c 22be 0090 1fbd e026 b0be c001 12bd
000002b0: cc0a 973d 73af a6be 1cc3 c83d 3236 c3be
000002c0: ee55 643e e739 da3d b023 6d3e 4fe4 53be
000002d0: 7646 f5bd d41f c1be 0aad 553e 9a10 8d3e
000002e0: 629d 6f3d fbec a0be 1fd6 a03e 6b4f cfbd
000002f0: 58bb e1bd 233d 9c3d 3b15 f5bc 9341 7c3e
00000300: 2d5b 1cbd e184 b33e 9279 2f3e 6091 c73e
00000310: ede3 b63e 831e 7cbe fc53 b33e 56ff ae3e
00000320: 8e69 543e d955 1e3e acd6 313e ca9a 79be
00000330: 40ee f3bc a4f5 a8bd ec55 b53d 074c 17be
00000340: 880c 39be d050 25bd 6f12 57be 40b0 623e
00000350: f53c a53e 9db1 ccbd 2e2a 04be c545 15bd
00000360: 70f7 983c c39f 6e3e 3d94 603e e7d4 0dbd
00000370: e6f1 21bb b8a9 06be df2e 39bd 223c b3be
00000380: 5cfb 263c 5e49 44bd bd87 ce3e 114e 5b3e
00000390: da32 363e ab9d af3e b9ef a03e 64da d43e
000003a0: 7f61 9b3e b528 f1bd e8fb 64bd e35c abbe
000003b0: 4a1b bdbd 12e1 d43e ffe0 87bc 5bc4 493e
000003c0: bca2 333e 2027 46be 3b5f 73be b9c9 89be
000003d0: 3f3c 20be d37a 91bc 4ecd 78bd d0bb 253d
000003e0: 4353 a1be e285 073d 6cd1 f03d 8e8a 8f3d
000003f0: c0c8 2cbc bb72 bdbe 649d 8c3d 58b2 c0be
0.14745182 0.00094479875 -0.10030182 -0.20180817 0.40298215 0.42744255 0.2900841 0.22793642
-0.11673276 0.13317233 0.10879616 0.13527861 -0.23687506 0.07299965 0.16240823 -0.16747302
-0.09657556 -0.04961905 -0.044756345 0.12516502 0.33429298 0.18331242 -0.35465923 0.13191937
-0.1252568 0.3275999 0.20946944 -0.08322388 0.22325192 0.18785985 -0.14077716 -0.19105329
-0.22954217 0.37709287 -0.32181004 -0.107824 -0.31030864 0.24133906 0.1488455 0.056559544
-0.29038027 -0.04611521 0.32858327 -0.0442529 -0.021920247 0.17868058 -0.01824425 -0.122836344
0.28242838 0.053975694 -0.09607477 0.02209509 -0.19990417 -0.19280113 -0.18533021 0.34711486
-0.25243974 0.28642625 -0.1113048 0.0112894755 -0.13222998 -0.124617465 -0.34981877 0.35990348
0.14459059 -0.17155108 -0.044272132 0.12992518 0.22693199 0.09648228 -0.11593177 -0.04035492
-0.29949543 -0.28165236 0.2236837 0.42842916 -0.0010312985 0.3703538 0.34286863 0.051824786
0.20428303 0.1658338 -0.30134624 -0.25344166 -0.28147092 -0.25777918 0.2505757 -0.3541382
-0.1318657 0.21702625 -0.10436462 -0.00018557906 -0.095365524 -0.058770657 -0.06596589 -0.31750318
0.18740317 -0.20182227 -0.17022358 -0.078141175 -0.1275585 0.17398725 -0.23749986 0.20025428
0.22300637 -0.06621108 0.17131294 0.40116778 0.18937643 -0.2593475 -0.035705984 0.41630772
-0.21173231 0.061050624 -0.2861073 0.11841965 0.15734264 0.02005449 -0.05468151 0.32551026
-0.37466067 -0.1709486 -0.29211554 0.32500568 0.04702738 -0.3144464 -0.2940618 0.08846553
0.28090942 -0.047772225 -0.14872338 0.1868414 -0.0714956 0.1491383 -0.1284628 0.13658416
0.2491474 0.32533598 -0.04239688 -0.023953093 -0.13425142 0.21970923 -0.002223556 -0.10336646
0.29764873 0.29747835 -0.046493508 -0.064224616 -0.15922268 0.11789446 -0.12237399 -0.07110927
-0.31754002 0.26675367 -0.33018053 -0.019732356 -0.23064163 0.26783392 -0.37333956 -0.35043982
-0.03734553 0.24257192 -0.33085084 0.030861 0.14150523 0.23404826 0.12232901 -0.05794983
-0.15867653 -0.03895569 -0.3440466 -0.0356462 0.07375106 -0.32555732 0.09802839 -0.38127285
0.22298405 0.10655575 0.23158145 -0.20692562 -0.1197633 -0.37719595 0.2086679 0.27551728
0.0584997 -0.31430802 0.3141336 -0.1012257 -0.11022061 0.076288484 -0.02991735 0.2463439
-0.03817289 0.35062316 0.17136219 0.389781 0.3572077 -0.24621014 0.35025012 0.3417918
0.20743391 0.15462436 0.17367047 -0.24375454 -0.029776692 -0.08249977 0.08854279 -0.14775096
-0.18071187 -0.040360272 -0.21003126 0.22137547 0.3227307 -0.099948145 -0.12906715 -0.03644349
0.018672675 0.23303132 0.21931548 -0.034626868 -0.0024710833 -0.1315068 -0.045210715 -0.35006815
0.010191765 -0.04792153 0.40337935 0.21416499 0.17792836 0.3429998 0.31432894 0.4157287
0.3034782 -0.117753424 -0.0559043 -0.33469304 -0.092337206 0.41577965 -0.016586779 0.1970381
0.17542547 -0.19350863 -0.23766796 -0.26911715 -0.15647982 -0.017758762 -0.06074267 0.040462315
-0.31508836 0.033086665 0.11758694 0.07008849 -0.010545909 -0.37001595 0.068659574 -0.37636065

gamma_h_l.bias f4 [64]
00000000: 9d46 8cbe e2ac 3c3e f62f 80be 26ed aabe
00000010: 4078 5abe 5153 acbe 423e b3be 1b49 a0be
00000020: c9cf b93e d4b7 103e 56db d83e 7730 c83e
00000030: 8d53 76be dee4 323e 4e9f b93e fa89 11be
00000040: 745c e2bd 2e1a 893e 98e5 a5be ef45 0ebe
00000050: 02be f3bd 2d4c b0bd 7355 8d3e 6990 acbe
00000060: 3e5c 1abe 816e 2ebd 1b76 c637 e52e 5ebd
00000070: 2eba 96be 2a6a 473e 2563 f83d 852b b33d
00000080: f52f 153e 2003 70bd c88f c0bd 84b6 8fbe
00000090: 6eca 08be 6666 e53d 18a1 9f3e ccd2 2dbd
000000a0: e2ef aebe da18 733c b0ef 4e3c 807f 083e
000000b0: a158 46bd 8fcd 7b3c 36df 9e3d d63b 71bc
000000c0: 11e1 bc3d e629 28be 39a1 c53e d861 cd3d
000000d0: 8656 503e 4e47 bb3e af5e b23e 13e6 853d
000000e0: 4268 793e 6f01 993e 1cd9 0b3e 88bc b33e
000000f0: fa14 a2be 12ac 2b3e 67d3 633e c7d5 c23e
-0.27397624 0.18425325 -0.2503659 -0.33384055 -0.21334934 -0.33657315 -0.35008436 -0.31305775
0.3629134 0.14132625 0.4235484 0.39099476 -0.2405531 0.17470118 0.36254352 -0.1421279
-0.1105279 0.26777786 -0.3240173 -0.13893865 -0.119014755 -0.086082794 0.27604255 -0.33703926
-0.1507425 -0.042585853 2.3658436e-05 -0.05424394 -0.2943892 0.19474092 0.12128285 0.08748535
0.14569075 -0.05859673 -0.09402424 -0.28068936 -0.13358471 0.112011716 0.31177592 -0.04243736
-0.3416739 0.014837468 0.012630388 0.13329887 -0.048424367 0.015368833 0.07757418 -0.014723739
0.092226155 -0.16422233 0.38599566 0.10028428 0.20345506 0.3657784 0.34837863 0.06538024
0.24356177 0.29883906 0.1365704 0.35104775 -0.3165663 0.16764858 0.22248612 0.38053724

encoder_lstm.weight_ih_l0 f4 [256, 7]
00000000: ae73 9f3d 9dd7 eb3c 07ac 913c 8493 c6bd
00000010: 5490 833c 29ed 00be 4434 abbd 683b 9d3d
00000020: 0dfb ecbd c166 e5bd ff33 b4bd d430 95bd
00000030: 8b9d 0dbd aada 3fbe 3588 6f3d 1150 cebd
00000040: 53bc 96bd bec1 423c b625 6cbd 4134 c8bd
00000050: 6cc6 953b 7b00 e6bd 1f40 813d 5d1f 0bbe
00000060: dd9b 70bd 1144 89bd cafe b13b b72e 81bd
00000070: 6eaa eabc 4142 b3bd 8d5b 03bc 205e 6fba
00000080: d171 93bd 26b5 823d ffc2 44bd 8982 ffbc
00000090: 4c7e 3ebe 0548 043d 89ae 41bd 5be9 813c
000000a0: 5316 05be 4265 08bd 9e9d 2e3d 6be2 12be
000000b0: 95dc 423b 5805 a5bd 498e 13be c648 25bd
000000c0: ec63 c53c 65b2 a33d d0ca 97bd 8885 f0bc
000000d0: 0565 e0bd 5a17 10be 5b63 c93c 1cd3 dc3c
000000e0: 8b88 acbd 5037 2fbd 4a91 f4bc 0062 96bd
000000f0: a1bc 03be 367e 75bd 3f0c 573c 2e5a e93c
00000100: 9648 e9bd b4cf 16be 790f ca3d ffd5 2ebe
00000110: cc74 50bc 0e51 603c 82aa 07bd 84a4 77bd
00000120: 3946 97bd 6c76 eebc fa11 813d 193d 883d
00000130: 5085 153d 8c22 cdbd 755c ffbd 976a 60bd
00000140: b5fe 913c e445 44bd 9068 1ebc 988f e93c
00000150: 4345 07be 1592 a2bd b6c3 a33d 530d b23d
00000160: 4d36 943c e017 023d 3870 98bd 298b 08be
00000170: cbca dbbc b32a 10be 4a9d 8b3d 4f5b 6d3d
00000180: 5f42 e4bd 52ac a4bd 8565 ffbd a03f 76bd
00000190: 3dc9 ddbd 794b 083d 2347 13be d4f2 0d3d
000001a0: ecf8 cabd f09a 1c3d c9b6 3e3c cf44 0bbe
000001b0: dbda 02be 8637 fbbd f892 e4bc 5888 46bc
000001c0: a4b5 833c bf16 17be 8a06 83bd 91d2 613b
000001d0: cfd3 113d ab16 10bb 34ef e53c 8339 cbba
000001e0: 944b eabd 97ec 633d 9865 02bd 44bb d4bd
000001f0: 56d4 05be 3de6 d1bc 28b8 143d f28a 893d
00000200: e354 8abd 83a6 67bd 4fa4 d8bd 7d84 71bd
00000210: 856f 183d 8257 b13d ee7f abbc 5f15 10be
00000220: 4076 3abd a958 5abd f569 fabd 7ea6 54bd
00000230: 1217 22be c3c0 aabd 994c acbd 1362 36bd
00000240: 6951 18be 98e2 933c a1b6 d5bd 3a45 943c
00000250: e5fe 0dbd 1f52 8cbd c4a1 fe3c e4af cfbc
00000260: 76eb 29be a324 03bd f777 f4bd 95f4 d43c
00000270: 2c70 3bbe 7814 a83c 78f5 a6bd ed1d 363d
00000280: cad0 aebb dd2a 7fbd 5ef8 c0bd ed41 143c
00000290: 7132 0dbd 7bfb cdba a575 d3bb 9882 e6bc
000002a0: 2f26 64bd d9e5 f3bd c10b bcbd 4cb9 38bc
000002b0: b798 2dbd e9a2 25be 47a8 1bbe 32eb 15be
000002c0: 8468 38be cb3f 8dbd b0bb 03be 7c85 af3c
000002d0: 81bb 5abb c2bf 94bd 0b72 bebd 9318 b1bd
000002e0: 1d4d c4bd 2d65 12be 969a 86bd 5600 20be
000002f0: 0b5a 1fbe 2c27 83bd 7a8c 07be 0c4d 283d
00000300: e76e 663d 5052 43bd 5e14 89bc 5e33 11be
00000310: d3ef 7a3d 2a95 e5bc 85db 12be 3206 b1bc
00000320: 391a 0abe 38de 38be c01a 6cbd 23d6 1ebd
00000330: cbdf 2f3d 74c3 a3bd e599 043d dfc3 11be
00000340: f2c8 283d 4b38 f3bd c6f1 d1bc 0549 a8bd
00000350: 3b74 083d 8572 1a3d 9b05 1ebe 2703 3b3d
00000360: c6fd 953d fcc5 a63d f0e0 11be bbd2 8e3d
00000370: 4654 e8bd cc49 873d 794f 92bd 334f 743d
00000380: 711a 393d e5d3 f3bd dbfd 52bb 14c4 e4bc
00000390: 6124 40be 1600 17be 9f89 073d 6b24 40bd
000003a0: 3fe5 313d 076c 2dbe 4c1e ac3d dee2 2f3d
000003b0: cefe 3cbd bcfd b9bd 7e0b 96bd 7436 493d
000003c0: 7ce0 0dbd cae9 bdbd 4485 913d ae0d 193d
000003d0: 3578 d3bd 0f90 67bc 1d7c c2bd f0e8 c7bd
000003e0: 1405 84bc 9d85 03be e52d af3d e3fb 2cbc
000003f0: 19d0 5abd 29ae d3bd ba77 cebd 3339 97bd
0.07785736 0.028789336 0.017782224 -0.09696105 0.016060032 -0.1259047 -0.08359578 0.076773465
-0.11571322 -0.112012394 -0.0879898 -0.07284704 -0.034574073 -0.18735757 0.058479507 -0.10073865
-0.07360139 0.011887012 -0.05765315 -0.09775592 0.004570773 -0.112305604 0.06311058 -0.13586183
-0.058742393 -0.06702436 0.0054319846 -0.06307738 -0.02864572 -0.08752871 -0.008017433 -0.0009131152
-0.07199443 0.063822076 -0.048037525 -0.031190174 -0.18602866 0.032295246 -0.04728559 0.015858343
-0.12996797 -0.033299692 0.042630784 -0.14344184 0.0029733528 -0.0805766 -0.14409746 -0.040352605
0.024095498 0.079930104 -0.0741173 -0.029360548 -0.10956768 -0.14071408 0.02458351 0.026956134
-0.08424481 -0.04277736 -0.029854435 -0.07342911 -0.12864925 -0.059934817 0.013125478 0.028485384
-0.11390798 -0.1472767 0.098662324 -0.1707382 -0.012723159 0.0136912 -0.033121593 -0.06045963
-0.07386441 -0.029109202 0.06302257 0.066522785 0.03650409 -0.10016355 -0.12468807 -0.054789152
0.01782165 -0.047918215 -0.009668484 0.028510854 -0.13210015 -0.07938019 0.07996313 0.08693948
0.018092299 0.03176105 -0.07443279 -0.13334335 -0.026830098 -0.14078788 0.0681711 0.057948407
-0.11145472 -0.0804068 -0.12470535 -0.06011927 -0.10829399 0.0332751 -0.14382605 0.034655407
-0.09910759 0.038233697 0.011640259 -0.13600467 -0.12778799 -0.1226645 -0.027902111 -0.012117468
0.016077824 -0.1475477 -0.063977316 0.0034457783 0.035602387 -0.0021986167 0.028068163 -0.0015504811
-0.11440197 0.05564555 -0.03183517 -0.103872806 -0.13069281 -0.025622481 0.036308438 0.06715955
-0.06754472 -0.056555282 -0.105782144 -0.05896424 0.03721573 0.08659269 -0.020935025 -0.14070652
-0.04552293 -0.05330721 -0.12227241 -0.05191659 -0.15829113 -0.08337548 -0.08413047 -0.044527125
-0.14874806 0.018052384 -0.10435224 0.018099416 -0.034666914 -0.06851601 0.031082995 -0.025352426
-0.16593727 -0.03201736 -0.11936944 0.025995532 -0.18304509 0.020517573 -0.08152288 0.044462133
-0.005334948 -0.062296737 -0.09422372 0.009048921 -0.034471933 -0.0015715206 -0.0064532333 -0.028138444
-0.055700477 -0.11909074 -0.091819294 -0.011274647 -0.04238197 -0.16175427 -0.15200911 -0.14640501
-0.1800862 -0.06896933 -0.12864566 0.021425955 -0.0033375921 -0.072631374 -0.09299096 -0.08647265
-0.09585021 -0.14296408 -0.06572454 -0.15625128 -0.15561692 -0.06403956 -0.13237181 0.041089103
0.05625811 -0.04768592 -0.016733345 -0.14179751 0.06126387 -0.028025229 -0.14341553 -0.0216094
-0.13486566 -0.1805352 -0.0576427 -0.038778435 0.042938035 -0.07996264 0.032373328 -0.14234875
0.04120726 -0.118759714 -0.025627982 -0.08217052 0.03331397 0.03770687 -0.15431826 0.045657303
0.07323794 0.08143231 -0.14245963 0.069737874 -0.11344199 0.066058725 -0.071440645 0.059645843
0.045191232 -0.1190565 -0.0032194767 -0.027925529 -0.18763877 -0.14746127 0.03309023 -0.04690973
0.043431517 -0.1693574 0.08404216 0.042940967 -0.04614144 -0.09081599 -0.07326411 0.049124196
-0.034637913 -0.09273107 0.071054965 0.03736656 -0.10325662 -0.014133467 -0.09496329 -0.09761226
-0.016115703 -0.12843938 0.085536756 -0.010558101 -0.053421114 -0.10335953 -0.1008143 -0.07383957

encoder_lstm.weight_hh_l0 f4 [256, 64]
00000000: 9e94 37be 2f98 263c 433a a7bb f792 103c
00000010: da02 92bd 9547 cb3d 1095 c53c b88e 1f3d
00000020: 5aaa b0bd c993 ab3c 00d3 a83d 773c 863b
00000030: cda9 c5bd 1030 1cbe d069 06be 37d5 9d3c
00000040: 7f4f 183d b25a cb3d 20fc c9bd a275 87bd
00000050: bc15 22bc f3bc 343e e7e4 84bd 0cef e23c
00000060: b41e 2a3d f259 88bd 1832 1cbe 21a2 29be
00000070: ad39 263d cc53 4fbd 4795 713c b161 053d
00000080: 10e1 363e 1ad1 19be a96b 5fbd 36e5 07be
00000090: a55a ec3d 1ee1 05be 5a7e 193e 2124 a93d
000000a0: da4f 9cbc 70ba 0b3d 83b2 fdbd f628 2bbd
000000b0: 0d8a 333d 497e a2bd 23c6 8dbd fbcd 653d
000000c0: dcc1 aa3c d611 99bd 5a00 553d 84df 33bc
000000d0: bb06 acbd 72b3 06bc d02a 6bbd 2781 2b3e
000000e0: 3649 cdbd ffdf 3b3d 804f 713d 3486 8f3d
000000f0: 9700 79bd aac3 edbc eb1e 4e3d 8149 a53d
00000100: 46af 0cbe 4575 81bd ffa3 ba3d abfe a7bd
00000110: d605 b43c 0b1f 103e b223 f4bd ef4d 193d
00000120: a3f1 2ebb 3dae 193e ba43 193e 78bc 7fbd
00000130: 522d 11be 9a9f 6d3d a125 c1bd 3d6e 3fbe
00000140: 444e d43b 430d d13d caee 73bd 141f 2f3e
00000150: 6889 c6bd 217b 353c 66d8 18be 9eb2 0f3e
00000160: c406 bd3d afe0 f6bc 9426 bc3c 39c8 b1bd
00000170: e600 fabd ebc1 21bd 550a f6bc a4d3 65bd
00000180: c64e 18bd f2a3 67bd 91b9 513a 0f22 e8bd
00000190: d7f0 b23d 6409 bc3c c0e4 c13d 8b21 823d
000001a0: 6c50 d0bc b19d c63b b152 2cbe 6131 2bbe
000001b0: 0732 30bd e792 a03d 4c5a ebbd 383c 253e
000001c0: 1e53 f23d ffff 8bbd 9b29 8c3d b7bc 30be
000001d0: 6a5d 06be dd31 1a3d f730 a53d ff81 23bd
000001e0: 407f a0bd 5d4b ab3d b667 2f3d 01a1 e23d
000001f0: dcf5 a8bd 1281 abbd 5351 71bd 15d1 873d
00000200: 8397 d83d 41de 30bd 90c9 3c3c 7c6c e63c
00000210: c45e 813d 0d79 8dbd 3951 1dbc 2036 a43c
00000220: 88c8 f13c 317f 8a3d 37cc 873d a830 183c
00000230: da36 00bd d28f b03d 763a 5f3b f089 c53c
00000240: 0b00 d5bc 5a12 083e fc0b 50bd cd4d 4f3c
00000250: 68bf 3ebd 9024 8bbd e05a 0f3c 87c1 24bd
00000260: d8de b4bd 2d7d 2f3d 7621 ddbd 5c88 233d
00000270: 1168 05bc bbd3 5abc 2ded 173e 9520 3bbd
00000280: 9e2e 9ebd b5d9 b7bd 8993 96bd b030 9a3a
00000290: eeba d43d 6986 89bd 4e97 033c 890d 8e3d
000002a0: 7943 1e3d b2ff d5bd 4cc5 953d ed0f e23c
000002b0: e244 afbd bb02 14be f765 5bbd ce7f f43d
000002c0: 62d5 6bbd ee99 a53d 5d52 c13c abc0 d4bd
000002d0: 7dcd a53c 2995 fbbd 65ea 053d 7170 ac3d
000002e0: 5e4d d6bd fa04 e7bc 9c51 063e b1d7 523d
000002f0: 63e6 2dbe cd75 a1bd fa95 ae3d d15c a83d
00000300: 94a2 863d a4b5 76bd d787 833d 4602 a23c
00000310: 665e ca3b ce17 5a3d 9c5c a0bc 19cc 133e
00000320: fca2 14be fe0b 283b c354 da3d f41b 013e
00000330: 8eff 5b3d 8d10 603d b63d 00be 3077 223d
00000340: f46a 25be 03e3 1d3c d352 8c3c 032b e1bc
00000350: cd14 65bb ceb6 3e3c acfd fabd 5cae 2c3d
00000360: da6c 2f3c 7b9e 4cbd eef9 62bd 0d10 a8bd
00000370: 5e92 afbc 1bdf ad3d 25cc 9e3d a6a8 18bd
00000380: 8b3d 0a3d 7da0 a0bc 84c0 9abd 76d3 f5ba
00000390: f980 503d d33b 1b3d ec07 cc3d 73b8 14bd
000003a0: 6a14 1dbd 4ea8 eabc 9902 46bc 63df 7d3d
000003b0: df56 b53c a296 313d 6ffc 73bd 73d2 9e3d
000003c0: 858b 9c3d 835d 8fbd b448 463d 683d fabd
000003d0: ca31 a4bd f2f2 a03d d673 4abd 381a cb3d
000003e0: 3932 08be f3e3 763d 472e 683d 40e4 45bd
000003f0: ba45 103d e079 e9bc c4ce 04be 2cd7 dc3c
-0.17927787 0.010168119 -0.005103381 0.008824102 -0.0712945 0.099257626 0.02411893 0.038954467
-0.08626242 0.020944493 0.0824337 0.0040965634 -0.096515276 -0.1525271 -0.13126302 0.019266708
0.03718519 0.09929408 -0.09862542 -0.066142336 -0.009892877 0.17650203 -0.06488972 0.027701877
0.041533187 -0.06657781 -0.15253484 -0.16565754 0.040582348 -0.050617024 0.014745063 0.03256387
0.17859292 -0.15021172 -0.054546032 -0.13271031 0.115407266 -0.13074157 0.14989606 0.08258844
-0.019081045 0.034113348 -0.12387564 -0.04178711 0.043832827 -0.07934243 -0.06922557 0.05610464
0.020844392 -0.07474105 0.05200229 -0.010978583 -0.08399721 -0.008221494 -0.057413876 0.16748486
-0.100237295 0.045867916 0.058913708 0.07008019 -0.06079158 -0.029023964 0.050322454 0.080706604
-0.13738737 -0.063211955 0.09113311 -0.08202871 0.021975439 0.14074342 -0.11920871 0.03742784
-0.002669432 0.15007873 0.14967242 -0.062435597 -0.14177445 0.058013536 -0.09431005 -0.18694396
0.0064790566 0.102076076 -0.0595539 0.17101699 -0.09694177 0.0110767195 -0.149263 0.14032981
0.09229806 -0.030136434 0.022967614 -0.086807676 -0.122072026 -0.039491575 -0.030034224 -0.05611004
-0.0371845 -0.056552835 0.0008000369 -0.11334621 0.08737343 0.022953697 0.09467459 0.06354054
-0.025428973 0.0060612787 -0.1682842 -0.16718055 -0.04301646 0.078405194 -0.11491832 0.16136253
0.118322596 -0.06835937 0.06843873 -0.17259489 -0.13121572 0.03764521 0.0806598 -0.039918896
-0.07836771 0.08363984 0.042823516 0.11065865 -0.08250019 -0.083742276 -0.058915447 0.06631676
0.105757736 -0.043180708 0.011522666 0.028127901 0.06316903 -0.06907854 -0.0096018845 0.02004534
0.029514566 0.06762541 0.06630748 0.009288944 -0.03130231 0.086211815 0.0034061945 0.024113625
-0.026000997 0.1328825 -0.05079268 0.0126528265 -0.046569258 -0.06794083 0.008749694 -0.040223625
-0.088315666 0.042843986 -0.10797398 0.039924964 -0.008142487 -0.013356145 0.14836569 -0.04568537
-0.07723735 -0.08977071 -0.07352359 0.0011763778 0.103872165 -0.0671509 0.008031679 0.069361754
0.038638566 -0.10449161 0.07313022 0.027595485 -0.0855806 -0.14454167 -0.053564038 0.11938439
-0.057576545 0.080860004 0.023598844 -0.10388311 0.020239586 -0.122843094 0.03269424 0.08419884
-0.10463975 -0.028200615 0.13117069 0.05147523 -0.16982417 -0.07883797 0.085246995 0.08220828
0.06573978 -0.06023182 0.06422394 0.019776475 0.006175804 0.05324536 -0.01957541 0.14433326
-0.14515299 0.0025641914 0.10660698 0.1260832 0.053710513 0.054703284 -0.12523541 0.039664447
-0.1615408 0.009636643 0.017129337 -0.02748633 -0.0034955025 0.011640264 -0.12255415 0.04215847
0.010707105 -0.049955826 -0.055414133 -0.082061864 -0.021432098 0.084898196 0.07753781 -0.03727021
0.0337501 -0.019607777 -0.07556251 -0.0018755037 0.050904248 0.03789885 0.099624485 -0.036308717
-0.038349546 -0.028644707 -0.01208558 0.061980616 0.02213615 0.043356545 -0.05956691 0.07754984
0.07643799 -0.07000258 0.04840918 -0.122187436 -0.08017309 0.07858838 -0.049426876 0.0991711
-0.13300408 0.060275983 0.05668476 -0.04831338 0.035222746 -0.028500497 -0.129695 0.02695807

encoder_lstm.bias_ih_l0 f4 [256]
00000000: cc9a 95bd 7011 50bb 35fa 8abc 1250 0bbe
00000010: e826 82bc d81e 50bd 5635 4d3d 929a e1bd
00000020: 6682 0c3c f119 e03c 5cf7 873d 7938 26be
00000030: 58ca c9bc 3ac4 f23b 484d c5bd 7d76 20be
00000040: c23e 03be a876 5e3c c7c2 50bd 7d87 943d
00000050: ed33 21be da77 27be 5b90 4bbc a2fa 03be
00000060: 2025 1fbe 44de f6bb d166 d8bd f6f0 69bd
00000070: 2c41 bd3b 5b8a 0dbd 6626 8c3d 54b1 14be
00000080: e9db 14be 001f 5fbd 3413 cbbd e95f 70bd
00000090: cc8f 123c 7192 c8bb 3ecd 02be 54ac 1bbe
000000a0: bf45 45bb 88b6 18bd 822b a7bd d348 8c3d
000000b0: deee c23c d90e 18be 4a3b c0bd 7754 edbd
000000c0: be80 2abc 2664 8f3d d070 00bd c88a b7bd
000000d0: 4f98 4cbd 8a81 dbbc ef7f cbbd 7921 9abd
000000e0: 733d 97bb d40d 0ebe 4c56 27bd 942d 13bd
000000f0: 2ef0 32be d65f 1cbd 50b0 99bc b0fc b0bd
00000100: 4fbc 96bd e03f 043c 168c f2bd ec07 9c3d
00000110: fe6b ccbc 352e 09bd 0c20 d1bc 71cf 82bc
00000120: ac93 9abd bab9 f5bd 2d6b 21bd 47cc 6b3c
00000130: 6b67 eebd 97d1 e7bd 7cc4 c5bd f779 46bc
00000140: 1953 b8bd 76a3 e73b 75f5 d33d 63f4 a9bc
00000150: 0f6a a4bd ded2 d7bd eea4 66bd 8160 5dbd
00000160: f67e 23be 9c1e 24be 85ec 2cbe bdcd 973c
00000170: 613b 35be a7ff e6bd fd31 9cbb 7c04 433d
00000180: 9ee9 59bd a3ee b2bd c608 fabd 87ad 94bb
00000190: b9b2 843d ecb4 6e3d 1d64 82bc a756 d43c
000001a0: 66ac 27be 03a1 2dbe d51c bc3d 2cc2 513d
000001b0: 178f aa3d 1fbf 1dbd 455f 17be ab48 8e3c
000001c0: 973b d6bc ed25 09be 61da 06be 15a0 5cbd
000001d0: 324d 3ebe dd42 11be 1510 abbd c4f4 8e3d
000001e0: 2036 cabc 9729 45bd 62e5 04be 0546 05bc
000001f0: 7875 003b 455f 36bd 6af5 a73c 1414 00be
00000200: d26d d93c 866c 933d 0c22 51bd d21c 57bd
00000210: dab0 f43b 8887 373c 3d66 b53d 2229 753c
00000220: 93a6 023d 6608 1cbd 3a27 8fbd 34ac 1abd
00000230: afe1 27bd 697c 2f3d d034 863d 0076 033c
00000240: 891e f9bc d0a3 f5bc 16f9 2cbc 5f03 55bc
00000250: 43b9 1ebd 8aa0 95bc 0a6f 25bd 5838 f73c
00000260: 3dea 4abd 6537 ae3b 5d65 823d d56c 7d3d
00000270: 8612 843c 010a 86bd a8be 1dbd f6f1 afbb
00000280: 65e6 45bd 6551 0c3d 958e 3dbd b045 44bd
00000290: 4e68 be3d 15f3 89bd 822d 323c eabb 1e3d
000002a0: 9f0a a8bd a0bf a23b c6db 3d3d b11a f5bc
000002b0: 827c 6ebc c19e 6e3d 3db1 853d 8d18 e33d
000002c0: 865f c53d cdb6 c5bd c37b b13d d2af 7ebd
000002d0: 9e76 9b3d 4c15 3abb 357a c43d 7fe5 f93d
000002e0: 443a 353d b2a2 2d3c 5064 d7bd ba10 3a3d
000002f0: 337e fbbd fa81 81bd 26f9 92bb 8353 b2bd
00000300: 4ffc 693d 2b64 08bd 75bf f03c c95b 03be
00000310: 6ddf 0cbe 3dab a4bd 69f6 773d e89d 90bd
00000320: e9a5 21be d98a a6bc a81b debd 14e8 63bd
00000330: 0c58 9dbd d7ed 0dbe 610d 40be 0cf6 13be
00000340: 618f 97bd 901f 633c 1333 8c3d a9c5 89bd
00000350: 4970 553d 935d c9bc f594 85bc e343 99bd
00000360: c1ba 17be 0bd7 13be c042 55bd 981a cbbc
00000370: 04c1 363d ddd2 423d 557f 9c3d b89d cabd
00000380: aa27 293d c1b7 713c b8fb 6dbd ea6a 37bd
00000390: 0eed 053d bdcd eb3c 437b 03be 7e0e 14be
000003a0: a0b0 fe3c fdc9 0ebd fe61 be3d bb78 243d
000003b0: d389 843d 7ed2 2fbd b523 a53d 691b 24bc
000003c0: 45f2 1bbd 9d8b d5bd 710f 4f3d 4dc5 96bd
000003d0: 05d6 97bd 2505 37bd db6e 49be 7014 263d
000003e0: 7aa9 e5bd 984e 09be ada3 b9bd 4be1 52bd
000003f0: 2756 783d 3207 04be aa9d 143c 0f75 bb3d
-0.07304916 -0.0031748675 -0.016965011 -0.13604763 -0.015887693 -0.050810665 0.050099693 -0.1101581
0.008576011 0.02735612 0.06638977 -0.1623248 -0.024632618 0.007408646 -0.09633881 -0.156702
-0.12816909 0.013578095 -0.050967004 0.07252405 -0.15742464 -0.16354313 -0.012424554 -0.12888578
-0.15541506 -0.0075338203 -0.10566486 -0.057114564 0.0057755914 -0.034555774 0.068432614 -0.1452077
-0.14537014 -0.054472923 -0.09915772 -0.058685217 0.008945417 -0.006120973 -0.12773606 -0.15202457
-0.0030101386 -0.03728345 -0.08162595 0.068498276 0.023795541 -0.14849414 -0.093863085 -0.11588376
-0.010406671 0.07001524 -0.031357586 -0.08962017 -0.04994994 -0.026795167 -0.09936511 -0.07525916
-0.0046154796 -0.13872463 -0.040853783 -0.03593214 -0.17474434 -0.038177334 -0.01876083 -0.08641946
-0.07360136 0.00807187 -0.118431255 0.076186985 -0.024953838 -0.033491332 -0.025527976 -0.015968056
-0.075476974 -0.11998315 -0.03940885 0.014391965 -0.11640819 -0.11319273 -0.09656617 -0.01211404
-0.090002246 0.0070690466 0.103495516 -0.020746415 -0.080280416 -0.105382666 -0.056309633 -0.05404711
-0.159664 -0.16027302 -0.168871 0.01853072 -0.17698433 -0.112792306 -0.0047667013 0.0476117
-0.05320131 -0.087369226 -0.12208705 -0.0045372876 0.06479401 0.05827801 -0.015916878 0.025920225
-0.16374359 -0.16955952 0.09185187 0.051210567 0.083280735 -0.038512345 -0.14782436 0.017368635
-0.026151462 -0.13393374 -0.13169242 -0.053863604 -0.18584135 -0.14185663 -0.08352677 0.06980279
-0.024684012 -0.048135366 -0.12978128 -0.00813437 0.0019601267 -0.04452445 0.020502765 -0.12507659
0.026541624 0.071984336 -0.05105786 -0.05251772 0.0074673714 0.011201747 0.08857391 0.01496342
0.03189714 -0.038093947 -0.06989904 -0.037761882 -0.040986713 0.042843256 0.06553042 0.008023739
-0.030410068 -0.029985338 -0.010557434 -0.013001292 -0.038750898 -0.018265028 -0.0403891 0.030178234
-0.049539793 0.005316662 0.0636699 0.06187137 0.016122114 -0.06544877 -0.038511902 -0.00536942
-0.048315424 0.03425731 -0.046278555 -0.04791802 0.09297238 -0.06735817 0.010875108 0.038753428
-0.08205151 0.004966691 0.04635217 -0.029919954 -0.014556052 0.05825687 0.06527946 0.11088667
0.0963736 -0.09654007 0.08666184 -0.062179394 0.07590984 -0.0028394042 0.09593622 0.12201976
0.04424502 0.010597872 -0.1051718 0.045426108 -0.1227993 -0.06323619 -0.004485267 -0.08707335
0.057125386 -0.033298653 0.029388169 -0.12827982 -0.13757105 -0.080404736 0.06053773 -0.07061368
-0.15785946 -0.02032988 -0.10845119 -0.05564125 -0.07682809 -0.1386026 -0.18755104 -0.14449328
-0.07400394 0.013862506 0.06845679 -0.06727154 0.052109037 -0.024580752 -0.01630638 -0.074836515
-0.14817335 -0.14437501 -0.05206561 -0.024792954 0.044617668 0.047564376 0.07641474 -0.09893364
0.041297592 0.014753283 -0.058101386 -0.044779696 0.032696776 0.028784627 -0.1283999 -0.14458653
0.03109008 -0.0348606 0.09296034 0.0401542 0.064716004 -0.04292535 0.08063451 -0.010016301
-0.038072843 -0.1042702 0.050551835 -0.07361851 -0.07413868 -0.04468264 -0.19671194 0.040546834
-0.11213966 -0.13408887 -0.09064422 -0.051484387 0.060629036 -0.1289337 0.009070793 0.091531865

encoder_lstm.bias_hh_l0 f4 [256]
00000000: 9d96 5ebc 5a0c 3f3c 2b61 9e3d 8d81 aa3c
00000010: a76e eabd 9f71 fc3b c644 4f3d c454 bb3d
00000020: c332 43bd cc2b 28be ee92 d9bd 9d49 61bd
00000030: cadc 0fbe e470 9cbd 7ac5 c4bc d37c b7ba
00000040: f092 3ebc 74c0 c8bc f63e 08be 228a b7bd
00000050: 609e 293d 65ce 83bc 5ab8 f9bd ce26 ccbd
00000060: 42fa 163c 46f9 5a3d fe1d 653c dd58 bb3c
00000070: 3468 e4bd cad8 e4bd d4df b83c f34a 14bd
00000080: 536f ddbd 5836 dabd 8b5a d0bc 45de ab3d
00000090: 6545 03be 21e0 893d 78fa 453d 5a0e a6bd
000000a0: 44eb 05bc bc9a babd bf05 b93c 983c 9f3c
000000b0: 7675 7ebc f577 8f3d 2f88 b13b afb9 a53d
000000c0: 7a26 fdbb 1cba 303d ffef dabd 4e12 943c
000000d0: be0b 3fbe 5e38 d83c 3147 edbd 0bb3 ab3d
000000e0: bf2d 42bd 47e2 febc f74a 913d 736a c83c
000000f0: cfdb e0bd 51bb cbbd df3e a83d 0e56 87bd
00000100: ea38 06bd 6f8d e0bc 1a40 953c 336f 85bc
00000110: 19f0 3b3d 4f19 34be da6f edbd daa0 6f3d
00000120: cf1d 0dbd 2d9d 053d afde 953d 8077 013d
00000130: dffa 883d baad 00be 4e49 e4bd 5afa 813d
00000140: 6100 0b3c 96d2 db3b 3a86 17bd 9e0e fbbd
00000150: f821 9b3d 02d9 0cbe 91b3 933b 6f15 773d
00000160: 8784 56be c0b9 0cbd 0e6b a8b9 4996 a5bd
00000170: 4a6a 43be ede1 b5bd 1e60 19be b8a9 4fbb
00000180: 4254 3e3d 134d a2bd 5f61 813c c7ad 9dbd
00000190: d91e 73bd f60e aa3d 1474 34be d63b 3abe
000001a0: ea2d 223d 92db 31be 59f3 9abd 4f75 4abd
000001b0: fd81 093c fbd0 71bd b4d1 a73c 7128 5f3d
000001c0: e71e 513d 8dc6 15be 4c6c 91bd 2159 94bc
000001d0: 21a3 40be 4b9f 00bc b7b5 22be 1200 f5bd
000001e0: 76dc 733d b3eb 54bd 26c0 303d ef3e 9c3b
000001f0: 9b67 a33c adca 33bd 2c0d fdbc ebf4 09bd
00000200: f1bc 04ba 1e08 2abd e963 7c3c 0bfa 043e
00000210: cda8 483d 6b8d 80bc b1a1 f1bd bdcb 7abd
00000220: 3d9d 98bb bee6 1c3d 6b9e 3abd 3a54 5d3c
00000230: 1575 dfbb 6c11 8a3d 40e8 01be 42f3 803d
00000240: faa9 ca3d 893d 94bb 25e2 833c f7be 89bd
00000250: bb73 b43d d2ff 213d d7de 8e3d 838d 9fbd
00000260: 6171 bd3d 5fae f43c cad8 063d 5351 ba3c
00000270: 30f9 a9bc dbeb 9bbd 8085 ae3d 0f79 a5bd
00000280: d8af 7f3d ee80 9d3a 5423 2f3c b295 eb3b
00000290: a2f4 c3bd 50f5 e93c bcb6 32bd 9017 4d3c
000002a0: 5162 003e ecb4 93bd 7b8c 953d 53bc fa3c
000002b0: c390 0c3d 5316 dabd e012 b33d 0328 8ebd
000002c0: cdfc 30bd 6b17 ab3d c590 86bd 4460 b63c
000002d0: cd55 aabd 3365 843d 2bab 0fbe b5e8 a3bd
000002e0: 1e38 f4bd 7e0e 9bbd 745e 8cbd 06a0 d8bc
000002f0: 4b7a e63d 7a82 833d 4d8d 5dba c672 2ebd
00000300: cb22 683d f711 d6bc ad1e dbbc a82a 12be
00000310: 0e06 9d3d 81d3 41be c164 36bd 43fe dcbd
00000320: ea9c 133d 92bc 8b3d 8a53 1c3d aa2e a5bd
00000330: 9a8b 10be 9a99 783d 1b76 ce3c fac8 27be
00000340: 2301 1bbe 94de 9fbd c75e 683d b748 ce3c
00000350: 5cfc 5abd eac8 f23b ecf4 6ebc 7e31 05bd
00000360: d4b6 54bd ee4a d0bd c2c9 0c3d c099 f0bd
00000370: ad5a 29bd eca1 1bbe 0f51 c5bd 7a7c 0a3d
00000380: 773f ffbd 8bcb 41be 0f59 72bc da8b d9bb
00000390: 1c48 f1bc 531f cfbd a156 03bc ba79 bfbd
000003a0: 46d0 fcbd 5c46 283c 154d fcbc 6177 38bd
000003b0: 6f32 71bd 263d 5ebd 478b ddbd 63a2 f73c
000003c0: 2910 31bd f6fa 403d 0ffa 9f3d 98de 193d
000003d0: a99e 06bc f379 dfbd 66cb bbbd fee8 8f3d
000003e0: 8016 f63b 413c d63c 23ae f1bd ed61 8ebd
000003f0: 7dd4 043d 5947 4a3d ea34 b53d 41b0 c7bb
-0.013585714 0.01166066 0.07733377 0.020813728 -0.114468865 0.0077039744 0.050602697 0.09147027
-0.047655832 -0.16422957 -0.10623728 -0.055001844 -0.14049068 -0.0763872 -0.024019945 -0.0013998993
-0.011631712 -0.024505831 -0.13305268 -0.089618936 0.041410804 -0.016089628 -0.121933654 -0.09968339
0.00921494 0.053460382 0.0139842015 0.022869522 -0.11152688 -0.11174162 0.022567667 -0.03620429
-0.10812249 -0.106548965 -0.0254338 0.08392004 -0.1281944 0.06732202 0.04833457 -0.08108206
-0.0081737675 -0.091115445 0.022585748 0.019438073 -0.015530935 0.07005302 0.0054178457 0.08092057
-0.007725534 0.043146238 -0.10690307 0.018075135 -0.18656823 0.026394065 -0.11585844 0.08383759
-0.047406908 -0.031113757 0.070943765 0.024464821 -0.10979425 -0.09947837 0.08215117 -0.066082105
-0.03276912 -0.02741119 0.018219043 -0.016288375 0.04588327 -0.1758778 -0.115935996 0.05850301
-0.034452256 0.032620598 0.07317864 0.031608105 0.06688475 -0.12566271 -0.11146794 0.06346579
0.008483977 0.0067084534 -0.036993243 -0.122586474 0.075748384 -0.13754657 0.00450749 0.060323175
-0.20948993 -0.034356833 -0.0003212322 -0.08085305 -0.19083515 -0.088809825 -0.14978072 -0.0031686854
0.046467073 -0.07924857 0.0157935 -0.07699161 -0.05935559 0.08303635 -0.17622405 -0.18186888
0.03959457 -0.17368916 -0.07565946 -0.04942828 0.008392808 -0.05903719 0.020485736 0.054481927
0.05105486 -0.14626522 -0.07100734 -0.018108906 -0.18812229 -0.007850478 -0.15889631 -0.11962904
0.05953642 -0.051982593 0.043151997 0.0047682445 0.019946864 -0.04389446 -0.03089007 -0.033680838
-0.0005063555 -0.041511647 0.01540468 0.12986009 0.048989106 -0.015692433 -0.11798418 -0.061229456
-0.004657416 0.03830599 -0.045561235 0.013508851 -0.006819377 0.06741604 -0.12686253 0.06296398
0.09895702 -0.004523937 0.016099045 -0.06725877 0.08811136 0.03955061 0.06976097 -0.07790663
0.09250141 0.029868303 0.03292159 0.022743857 -0.020748705 -0.07613345 0.08521557 -0.08079731
0.062423557 0.0012016573 0.010689575 0.007189476 -0.095681444 0.028559357 -0.0436313 0.012517825
0.12537505 -0.072122425 0.07302185 0.030607378 0.034317743 -0.10648789 0.087438345 -0.069412254
-0.04320984 0.08354076 -0.06570581 0.0222627 -0.083171465 0.06464615 -0.14030139 -0.0800337
-0.11924766 -0.075711235 -0.06853953 -0.026443493 0.11253794 0.06421371 -0.00084515364 -0.042589925
0.056673806 -0.026131613 -0.026748026 -0.14274085 0.076671705 -0.18928339 -0.04452968 -0.10790684
0.036038317 0.06823076 0.038165607 -0.08065541 -0.14115754 0.06069336 0.025202801 -0.1638526
-0.15137152 -0.07806125 0.05673101 0.025181158 -0.053463325 0.0074092047 -0.014584761 -0.032517903
-0.05193217 -0.10170542 0.0343721 -0.117480755 -0.04134624 -0.15198487 -0.09634601 0.033810116
-0.12463277 -0.18925302 -0.014791741 -0.006638986 -0.02945333 -0.101133965 -0.008016259 -0.093493894
-0.123444125 0.010270681 -0.030798474 -0.045035724 -0.058885988 -0.054257534 -0.10817581 0.0302288
-0.043228302 0.047114335 0.07811367 0.037565798 -0.0082165385 -0.10911932 -0.091696545 0.070268616
0.0075100064 0.026151778 -0.11800792 -0.069522716 0.032429207 0.04938445 0.08847983 -0.006094009

encoder_attn.weight f4 [1, 148]
00000000: db9f 00bc aa99 5dbd 466a 87bd 5b7c 393d
00000010: 5811 a73d 53e2 41bb 69c5 813d 6a3c 8abd
00000020: 4ed3 003d 991c aaba 97ee edbc b1ac 82bd
00000030: a882 2e3d a458 14bd 1d4a 82bd fd41 7c3d
00000040: ac6a 75bd 4460 f1bb efb1 ccbc 4972 743d
00000050: a21c fbbc daaf 92bd 4212 41bd 899f 50bc
00000060: 9955 953d a480 d93b 4c7d 92bd a004 7b3c
00000070: c2a9 413d 300b 5b3d 0af8 e0bc fc5e 13bd
00000080: dd1d a53d 6414 58bd 9a18 96bc 00b3 6bbd
00000090: b7bf 9bbd 74ed 9dbd 724d 8abc 5bb3 19bd
000000a0: d5d7 9ebc a5b1 8fbd 0340 51bb af73 ce3b
000000b0: 007b 4dbd 938a 1abd 86dc 3cbd 17ad 483d
000000c0: 79e4 923d a482 20bd 093a 4b3c f0eb e43c
000000d0: 1d65 a2bd 9a65 4bbc b82f bb3c 5e4d a8bd
000000e0: daf0 b43a be06 013a a283 a5bd 5827 88bd
000000f0: be38 413d 40da 92bd 7ce1 9a3d 417d 08bd
00000100: 7b35 9a3d 6ecc 5dbd e452 dabc 1fa7 1c3d
00000110: 5876 abbc e80c edbc d715 b03a 5515 813d
00000120: 065b 90bc a5de 7e3c c5d7 7abd a3e8 843d
00000130: f7d5 903d 9289 033d 97cf 8b3d 920c 103d
00000140: 8371 02bd a2f5 153d ce7e 1ebd 8d8b 973c
00000150: 7ec2 de3c 29b1 3b3c 5ec3 633d 2be0 62bd
00000160: 9f8a 0cbd e3cf 05bd ed17 99bd 2a92 8fbd
00000170: ec02 333d 4251 7f3d bf13 97bd ee4d 313d
00000180: eb7e 6dbd 2ebb a4bd f167 42bd 0a4c 9d3d
00000190: 949c 573d d61f 833c 9167 b5b9 a855 48bd
000001a0: f68c 36bc dea1 88bc 396e 44bd d1ff 483d
000001b0: 3613 6a3c 06ce 4a3d 96c5 90bd 4b55 e6bc
000001c0: ddfb 46bc e222 3a3d dbba 0ebd 7d2f 8d3d
000001d0: be23 8fbd cfe7 92bd 2a0f 77bd 522f 283d
000001e0: 1902 5e3d 25ff 283c 07d0 42bd 2af7 60bd
000001f0: d9fa ec3c 247c 92bd dcd2 123d 2f7c 2cbd
00000200: f629 d63c ee0e 10bc 66e1 1bbd 08e4 dabc
00000210: 5d1e 323d dab8 8cbd 4601 c33b 51ce ee3c
00000220: fdfe 9fbd d631 9e3a 3851 b4bc a8be 00bd
00000230: 2cbd 79bd 94a7 013c e7ee 623d c0ed 8ebd
00000240: 4d13 e7bd ed36 ccbd 11bb e7bd 5723 e2bd
-0.0078506125 -0.054101624 -0.06612067 0.04528461 0.08157605 -0.0029584363 0.06336481 -0.06749804
0.031451516 -0.0012978493 -0.029044433 -0.063805945 0.042605072 -0.036217347 -0.06361792 0.06158637
-0.059916183 -0.007366212 -0.02498719 0.059679303 -0.030653302 -0.07162447 -0.047136553 -0.012733349
0.07291717 0.0066376496 -0.07152805 0.015320927 0.047281034 0.053477466 -0.027462024 -0.035979256
0.080623366 -0.05275382 -0.018322278 -0.057543755 -0.07604926 -0.07711306 -0.016882632 -0.037524562
-0.019390026 -0.07016305 -0.0031929023 0.0063004117 -0.05016613 -0.03772981 -0.046108745 0.048993196
0.07172484 -0.03918709 0.012403973 0.027944535 -0.07929442 -0.01241436 0.022849903 -0.082178816
0.001380469 0.0004921964 -0.080817476 -0.06648129 0.047173254 -0.07170534 0.07562539 -0.033322576
0.07529732 -0.054150037 -0.026650853 0.038245317 -0.020930454 -0.028936818 0.0013434243 0.06302897
-0.017621528 0.015556012 -0.06124093 0.064896844 0.070720606 0.03211362 0.06826704 0.035168238
-0.031846534 0.036611207 -0.03869515 0.01849916 0.02719235 0.0114558125 0.05560624 -0.055389564
-0.034311887 -0.03266896 -0.074752666 -0.070103005 0.04370396 0.062333353 -0.07376813 0.04328721
-0.057982367 -0.08043514 -0.047462407 0.07680519 0.05263956 0.016006391 -0.00034600173 -0.048909813
-0.011142006 -0.016678747 -0.04795668 0.04907209 0.014286807 0.049512886 -0.070689365 -0.028116843
-0.01214501 0.045443423 -0.034846168 0.06893823 -0.06989239 -0.0717312 -0.060317196 0.041060753
0.05420122 0.010314737 -0.04756167 -0.054923214 0.028928207 -0.07152584 0.035845622 -0.04211062
0.026143055 -0.008792622 -0.038056754 -0.026720062 0.043485988 -0.06871195 0.0059510795 0.029151114
-0.07812307 0.0012069296 -0.022011384 -0.031431824 -0.060971424 0.007913489 0.055403616 -0.06978941
-0.11282978 -0.09971414 -0.11314977 -0.11041897

exp_avg f4 [7, 7]
00000000: 0000 0000 0000 0000 0000 0000 0000 0000
00000010: 0000 0000 0000 0000 0000 0000 0000 0000
00000020: 0000 0000 0000 0000 0000 0000 0000 0000
00000030: 0000 0000 0000 0000 0000 0000 0000 0000
00000040: b832 47b0 0000 0000 0000 0000 0000 0000
00000050: 0000 0000 0000 0000 0000 0000 0000 0000
00000060: 2196 582e 0000 0000 0000 0000 0000 0000
00000070: 0000 0000 0000 0000 0000 0000 0000 0000
00000080: ae3e 38af 0000 0000 0000 0000 0000 0000
00000090: 0000 0000 0000 0000 0000 0000 0000 0000
000000a0: 0585 6b31 0000 0000 0000 0000 0000 0000
000000b0: 0000 0000 0000 0000 0000 0000 0000 0000
000000c0: ec79 ad2f
0.0 0.0 0.0 0.0 0.0 0.0 0.0 0.0
0.0 0.0 0.0 0.0 0.0 0.0 0.0 0.0
-7.2467854e-10 0.0 0.0 0.0 0.0 0.0 0.0 0.0
4.9246055e-11 0.0 0.0 0.0 0.0 0.0 0.0 0.0
-1.6756971e-10 0.0 0.0 0.0 0.0 0.0 0.0 0.0
3.4272614e-09 0.0 0.0 0.0 0.0 0.0 0.0 0.0
3.1555147e-10

exp_avg_sq f4 [7, 7]
00000000: 0000 0000 0000 0000 0000 0000 0000 0000
00000010: 0000 0000 0000 0000 0000 0000 0000 0000
00000020: 0000 0000 0000 0000 0000 0000 0000 0000
00000030: 0000 0000 0000 0000 0000 0000 0000 0000
00000040: a2f3 2920 0000 0000 0000 0000 0000 0000
00000050: 0000 0000 0000 0000 0000 0000 0000 0000
00000060: 14bb 391c 0000 0000 0000 0000 0000 0000
00000070: 0000 0000 0000 0000 0000 0000 0000 0000
00000080: 55c0 671e 0000 0000 0000 0000 0000 0000
00000090: 0000 0000 0000 0000 0000 0000 0000 0000
000000a0: 0763 7d22 0000 0000 0000 0000 0000 0000
000000b0: 0000 0000 0000 0000 0000 0000 0000 0000
000000c0: 2b60 7e20
0.0 0.0 0.0 0.0 0.0 0.0 0.0 0.0
0.0 0.0 0.0 0.0 0.0 0.0 0.0 0.0
1.4395468e-19 0.0 0.0 0.0 0.0 0.0 0.0 0.0
6.145316e-22 0.0 0.0 0.0 0.0 0.0 0.0 0.0
1.22688115e-20 0.0 0.0 0.0 0.0 0.0 0.0 0.0
3.4340318e-18 0.0 0.0 0.0 0.0 0.0 0.0 0.0
2.1546456e-19

exp_avg f4 [7]
00000000: 0000 0000 0000 0000 d214 adae 7984 7bac
00000010: eba8 75ae 5d2a e731 e3d7 a6ae
0.0 0.0 -7.8708276e-11 -3.5742782e-12 -5.585658e-11 6.727801e-09 -7.587155e-11

exp_avg_sq f4 [7]
00000000: 0000 0000 0000 0000 b92a de1f 337a 151d
00000010: 4b00 ce1c 80c4 6a23 cf9f e71e
0.0 0.0 9.4091336e-20 1.9783161e-21 1.3632012e-21 1.2726776e-17 2.4524172e-20

exp_avg f4 [64, 7]
00000000: 317a a3b6 8ab8 91b6 7384 9bb6 db01 96b6
00000010: 99bb 8eb6 36eb 90b6 68dd 95b6 dcac 4ab6
00000020: c276 1ab6 8308 45b6 04fa 23b6 057b 1bb6
00000030: 6091 1ab6 bf9d 2cb6 0725 9db5 eed7 5cb5
00000040: b6e2 5cb5 673c 82b5 c0cb 63b5 f984 46b5
00000050: 955b c3b5 d2f2 0db5 18f3 8135 b5fc 15b4
00000060: 2b34 7b35 2dcf 8035 dcc0 6635 4fad 4235
00000070: 8e8f 49b4 4272 9d32 6fe2 a032 2713 1a33
00000080: 7ccf b532 a7bf 43b2 8ac3 df32 44e6 4ab1
00000090: 44e6 4ab1 549d 81b2 44e6 4ab1 44e6 4ab1
000000a0: 44e6 4ab1 44e6 4ab1 3bff 4235 81f6 3435
000000b0: b0fd 4935 1ee8 3135 758e 2c35 8884 3935
000000c0: f42f 3435 6768 3ab3 28bc acb2 e843 dbb2
000000d0: 28bc acb2 28bc acb2 28bc acb2 8a1c 92b3
000000e0: c10a 56b2 7af2 5eb3 c10a 56b2 c10a 56b2
000000f0: c10a 56b2 a36c cab2 c10a 56b2 825f 18b6
00000100: 0c68 15b6 1c54 2fb6 9b35 16b6 0da1 15b6
00000110: 90bf 17b6 055a 1cb6 cd8a a5b6 bdb3 a6b6
00000120: a520 a3b6 7aea a2b6 4cfe a2b6 fc3d abb6
00000130: 4767 a7b6 07f0 1cb7 1131 11b7 d965 1fb7
00000140: 2941 14b7 44d7 0fb7 59c7 12b7 8126 19b7
00000150: 9ef6 6e31 9ef6 6e31 9b08 9432 9ef6 6e31
00000160: 9ef6 6e31 9ef6 6e31 9ef6 6e31 0000 0000
00000170: 0000 0000 0000 0000 0000 0000 0000 0000
00000180: 0000 0000 0000 0000 bd8e 9336 2845 7536
00000190: ab31 8736 a0c5 7236 ac8f 6936 f04d 7236
000001a0: 9b12 7b36 e8f8 52b7 d6d7 46b7 11c2 51b7
000001b0: 3012 4ab7 adb6 44b7 3449 47b7 b684 4db7
000001c0: 0000 0000 0000 0000 0000 0000 0000 0000
000001d0: 0000 0000 0000 0000 0000 0000 469c a634
000001e0: ef02 c933 a7bb 0034 68f8 c233 36e1 b833
000001f0: f559 0634 e2bd 0934 072e ed33 83c3 0534
00000200: 8175 6334 cef9 ee33 8c02 ee33 924b 1834
00000210: 5c82 ee33 2dc4 91b7 d76a 81b7 6d1c 8eb7
00000220: 4253 86b7 0f01 82b7 da29 83b7 1d4f 88b7
00000230: 10bb 1436 3ee6 f035 c329 fc35 fd88 0036
00000240: 172b f035 ec07 f335 52dd 0036 71b8 4bb3
00000250: 1116 0cb3 c46f 2cb4 1116 0cb3 1116 0cb3
00000260: 1116 0cb3 4f73 94b3 0000 0000 0000 0000
00000270: 0000 0000 0000 0000 0000 0000 0000 0000
00000280: 0000 0000 35dd df35 246a ca35 d979 d435
00000290: 2412 d135 9098 c935 8cea cd35 b8a6 d635
000002a0: 0000 0000 0000 0000 0000 0000 0000 0000
000002b0: 0000 0000 0000 0000 0000 0000 f46d a133
000002c0: 18c7 b933 a08d 1e34 f75f d933 6399 a033
000002d0: e7f3 9f33 6399 a033 6463 c8b6 2007 7bb6
000002e0: 2645 78b6 d1e0 6ab6 1a2a 65b6 7709 6ab6
000002f0: a1cd 75b6 c2f1 03b7 48a5 e9b6 40f7 f4b6
00000300: 5a93 f0b6 e20e e6b6 7cfc e9b6 c8c2 eeb6
00000310: 80a0 90b5 98f6 85b5 de6e 86b5 fb7d 84b5
00000320: 7142 80b5 9db6 83b5 f94f 85b5 0000 0000
00000330: 0000 0000 0000 0000 0000 0000 0000 0000
00000340: 0000 0000 0000 0000 1e40 3eb5 2a92 4bb5
00000350: f62f bcb5 3c7c 42b5 b463 43b5 6db5 41b5
00000360: 8f01 49b5 41c5 aa34 33aa b534 279c 8334
00000370: 6b80 8f34 3a3c 8b34 6a2c 9534 df38 b234
00000380: 2bea 47b6 11b0 2bb6 8176 30b6 ede8 2db6
00000390: c7ca 27b6 8198 2ab6 f0a0 2fb6 b678 36b7
000003a0: 2106 2fb7 3c90 33b7 774e 30b7 3dea 2db7
000003b0: 1b94 30b7 cf24 35b7 b523 2334 37d7 6f34
000003c0: e5e0 e934 f90d 1d34 f90d 1d34 7a7b 2934
000003d0: f90d 1d34 d0eb db30 0296 3131 8498 aa32
000003e0: 0296 3131 0296 3131 3d57 2930 d0eb db30
000003f0: 0000 0000 0000 0000 0000 0000 0000 0000
-4.8720035e-06 -4.34282e-06 -4.634779e-06 -4.4705644e-06 -4.253769e-06 -4.3189166e-06 -4.466321e-06 -3.0200963e-06
-2.3016914e-06 -2.9360242e-06 -2.443442e-06 -2.3168407e-06 -2.3032408e-06 -2.5721818e-06 -1.1708188e-06 -8.2270606e-07
-8.2286294e-07 -9.703334e-07 -8.4860585e-07 -7.395425e-07 -1.4555286e-06 -5.2879943e-07 9.681999e-07 -1.396864e-07
9.35807e-07 9.597039e-07 8.5962324e-07 7.252283e-07 -1.8771809e-07 1.8329164e-08 1.8729422e-08 3.5873338e-08
2.1165526e-08 -1.1394071e-08 2.6049538e-08 -2.952576e-09 -2.952576e-09 -1.5089121e-08 -2.952576e-09 -2.952576e-09
-2.952576e-09 -2.952576e-09 7.264204e-07 6.7413936e-07 7.52475e-07 6.6275413e-07 6.4282295e-07 6.911073e-07
6.7125006e-07 -4.3401453e-08 -2.0108999e-08 -2.5525836e-08 -2.0108999e-08 -2.0108999e-08 -2.0108999e-08 -6.803846e-08
-1.2458885e-08 -5.1908934e-08 -1.2458885e-08 -1.2458885e-08 -1.2458885e-08 -2.3565297e-08 -1.2458885e-08 -2.2705358e-06
-2.2263293e-06 -2.612599e-06 -2.2382944e-06 -2.2296474e-06 -2.2612257e-06 -2.329821e-06 -4.9335417e-06 -4.96811e-06
-4.861579e-06 -4.855273e-06 -4.8575803e-06 -5.103413e-06 -4.989011e-06 -9.35421e-06 -8.654098e-06 -9.500852e-06
-8.836659e-06 -8.573585e-06 -8.748692e-06 -9.1284755e-06 3.4773744e-09 3.4773744e-09 1.7233381e-08 3.4773744e-09
3.4773744e-09 3.4773744e-09 3.4773744e-09 0.0 0.0 0.0 0.0 0.0
0.0 0.0 4.3975583e-06 3.65481e-06 4.0290956e-06 3.6175843e-06 3.4803334e-06 3.6106176e-06
3.7412744e-06 -1.2574928e-05 -1.1851973e-05 -1.2502555e-05 -1.2044373e-05 -1.1725043e-05 -1.1878368e-05 -1.2249851e-05
0.0 0.0 0.0 0.0 0.0 0.0 0.0 3.1033613e-07
9.3603255e-08 1.1989196e-07 9.079014e-08 8.609133e-08 1.2512449e-07 1.2828198e-07 1.1044545e-07 1.2457717e-07
2.118377e-07 1.1128178e-07 1.1083202e-07 1.4183595e-07 1.1106451e-07 -1.7376698e-05 -1.542775e-05 -1.6940956e-05
-1.6012815e-05 -1.54977e-05 -1.5635906e-05 -1.6249303e-05 2.2162603e-06 1.7948403e-06 1.8787617e-06 1.9153224e-06
1.7893934e-06 1.8107216e-06 1.9202312e-06 -4.743237e-08 -3.261636e-08 -1.6059408e-07 -3.261636e-08 -3.261636e-08
-3.261636e-08 -6.9127616e-08 0.0 0.0 0.0 0.0 0.0 0.0
0.0 1.6679174e-06 1.5081064e-06 1.5830693e-06 1.5576993e-06 1.5020069e-06 1.5341952e-06 1.5992764e-06
0.0 0.0 0.0 0.0 0.0 0.0 0.0 7.517147e-08
8.650949e-08 1.476642e-07 1.0122306e-07 7.4784815e-08 7.44838e-08 7.4784815e-08 -5.972035e-06 -3.7406062e-06
-3.699513e-06 -3.4999578e-06 -3.4148165e-06 -3.4874226e-06 -3.6627537e-06 -7.864497e-06 -6.9631824e-06 -7.3005504e-06
-7.1697114e-06 -6.8562667e-06 -6.973334e-06 -7.1156283e-06 -1.0775548e-06 -9.98104e-07 -1.0016045e-06 -9.871432e-07
-9.55608e-07 -9.813408e-07 -9.932547e-07 0.0 0.0 0.0 0.0 0.0
0.0 0.0 -7.087382e-07 -7.583609e-07 -1.402105e-06 -7.2451417e-07 -7.278825e-07 -7.216211e-07
-7.4880603e-07 3.180849e-07 3.3837713e-07 2.4514267e-07 2.6729262e-07 2.5934588e-07 2.7785728e-07 3.3196463e-07
-2.9789614e-06 -2.558347e-06 -2.6295022e-06 -2.591459e-06 -2.5002971e-06 -2.5420743e-06 -2.617071e-06 -1.0876151e-05
-1.043224e-05 -1.0702814e-05 -1.05086865e-05 -1.0366141e-05 -1.0524901e-05 -1.0797011e-05 1.5193548e-07 2.2336904e-07
4.3563264e-07 1.4626848e-07 1.4626848e-07 1.5784272e-07 1.4626848e-07 1.6001369e-09 2.584216e-09 1.985996e-08
2.584216e-09 2.584216e-09 6.1605815e-10 1.6001369e-09 0.0 0.0 0.0 0.0
