weights_new/EncoderEpochnew600_20_8.pt (torch_old, 862771 bytes, 27 tensors)

gamma_x_l.weight f4 [7, 7]
-0.039892763 0.14432094 0.07977557 -0.25175205 -0.13336398 0.13961712 -0.22666718 -0.24948199
-0.08287284 0.36402407 0.088453144 0.046605438 0.022559136 0.20876214 -0.124607 -0.14942226
0.90078217 0.22080973 0.15617463 -0.35443836 -0.3667789 -0.11095989 0.053911358 -0.25310898
-0.028527629 -0.061774224 -0.23537783 -0.16485004 0.15559915 0.3551909 -0.22006892 -0.3320074
0.77029794 -0.30322516 -0.08737016 0.09958705 -0.3506619 -0.18608345 0.3296379 -0.0339849
1.3624462 -0.18828435 -0.14964867 0.034010768 0.35427395 0.31372026 0.3499038 -0.13423471
1.304879
00000000: 9866 23bd dec8 133e 6061 a33d a5e5 80be
00000010: 9190 08be caf7 0e3e 711b 68be 3578 7fbe
00000020: 3cb9 a9bd 5d61 ba3e ec26 b53d 58e5 3e3d
00000030: f0cd b83c bec5 553e f431 ffbd 2602 19be
00000040: a999 663f f21b 623e 3eec 1f3e f278 b5be
00000050: 72ca bbbe f03e e3bd 28d2 5c3d 8097 81be
00000060: c6b2 e9bc f806 7dbd e306 71be 73ce 28be
00000070: 6255 1f3e 95db b53e bf59 61be e0fc a9be
00000080: 3f32 453f 5440 9bbe 20ef b2bd 4cf4 cb3d
00000090: f589 b3be a98c 3ebe 4dc6 a83e c033 0bbd
000000a0: a364 ae3f 9dcd 40be 803d 19be e04e 0b3d
000000b0: 6563 b53e f19f a03e 9726 b33e d374 09be
000000c0: 4606 a73f

gamma_x_l.bias f4 [7]
-0.13782641 0.91351753 1.0952331 0.63336056 0.75671333 1.1012946 1.5422193
00000000: 5e22 0dbe 49dc 693f 9930 8c3f eb23 223f
00000010: f7b7 413f 39f7 8c3f 7167 c53f

gamma_h_l.weight f4 [128, 7]
0.27150503 0.16935965 -0.15403149 0.03310581 -0.25577366 0.06706407 0.35911557 -0.28499556
-0.34896648 -0.08390373 -0.2307424 -0.33120847 -0.2205525 -0.04412213 -0.25539073 -0.067078225
0.3849757 -0.101186834 -0.07347937 0.2760143 -0.25308007 -0.07595176 -0.23187816 -0.36552793
0.3970147 0.38675135 -0.10280774 0.025931457 0.17205927 0.28852174 0.33029893 -0.2306522
-0.1461702 -0.41979975 0.16526966 -0.3271824 -0.2652776 0.21621972 -0.12326799 -0.2055307
-0.12630594 0.69359595 0.255945 0.08376082 -0.10731677 -0.42257363 -0.3811985 0.5073896
0.4189287 -0.039429814 -0.28243366 -0.056892008 0.11116269 -0.14690916 0.017807782 -0.19919798
-0.044859618 -0.2052622 -0.36349484 0.06874947 0.037658345 0.274086 0.34667546 -0.26767945
0.1582562 0.545279 -0.033480942 -0.0019849236 0.11247939 0.59727883 -0.29436287 -0.18497899
0.16364025 0.47979486 -0.049565885 -0.149404 0.34958312 -0.040173024 -0.24488501 -0.3448336
-0.24710673 -0.37002558 -0.15381967 0.2637619 -0.30595368 -0.07366192 -0.011398256 -0.109416395
0.0185996 -0.23352952 -0.29002222 -0.29890335 0.20676287 -0.13458039 -0.32936013 0.05535906
0.26209158 0.4696865 -0.36898288 0.23595098 -0.17119242 0.20599326 -0.15196824 -0.37484226
-0.05948499 0.2644006 0.35049123 0.30634594 0.34470877 -0.12455045 0.01595029 -0.4009677
-0.27421358 0.10943593 0.44735894 0.32348517 0.27338386 0.23864566 0.012892629 0.17927217
0.2525491 -0.07559487 -0.03789501 -0.11376176 -0.274608 0.25634965 0.48730445 0.08276218
-0.35973483 -0.051032603 -0.34636962 -0.44091117 0.103809 0.44088224 0.33407933 -0.12462396
0.10598656 -0.2830941 -0.21116632 0.42273968 -0.18071645 -0.2781885 0.46337095 0.27490667
0.06827927 0.24626987 -0.3206547 0.3064453 0.23385575 -0.15472163 -0.033346437 0.21677344
-0.03475659 0.21609037 -0.3170401 -0.21879557 -0.30794543 0.21958731 0.46588698 -0.2602313
0.3947922 0.18340114 -0.3197533 0.2635547 0.3529427 0.011504525 0.028886322 -0.25224513
-0.3461468 0.03991592 -0.23268686 -0.0819208 0.21012416 -0.31670353 -0.30562067 -0.23215762
-0.12890036 0.49234208 -0.14425091 0.2771259 -0.38769984 0.27775574 -0.04692864 0.27209845
0.25720662 0.4727175 0.055621795 -0.36703736 -0.094875775 0.2434347 -0.14431334 0.39007837
-0.12129779 -0.23343518 -0.18722901 0.37385693 -0.3496586 -0.31954193 -0.2501548 0.1474323
-0.05921933 -0.04471895 0.17369637 -0.22596084 -0.19522518 0.33654583 -0.15830588 -0.24800642
0.26792234 -0.20249249 0.26710585 -0.21914707 0.3118918 -0.084336095 -0.38962024 -0.15960705
0.36293742 0.36174193 -0.16671902 0.34891322 -0.32276303 -0.075171545 -0.21544704 0.26961803
0.16019182 -0.30690992 0.11104493 0.39327592 0.049365867 -0.039034795 0.29636484 0.10902485
0.31461632 -0.18283612 -0.06815917 -0.27029994 0.31279868 0.20255046 -0.049493708 -0.3715272
-0.38181147 0.15957017 -0.24761344 -0.04692307 0.11328695 -0.236148 -0.14344072 -0.097854644
-0.14989567 -0.29084128 0.21537045 0.101091444 -0.053521134 0.08872119 0.43795702 0.4978677
00000000: b502 8b3e 9e6c 2d3e 6eba 1dbe f599 073d
00000010: c4f4 82be e358 893d ffdd b73e f0ea 91be
00000020: bcab b2be b8d5 abbd bc47 6cbe 2894 a9be
00000030: 84d8 61be 68b9 34bd 93c2 82be 4f60 89bd
00000040: 891b c53e 0b3b cfbd 5a7c 96bd bf51 8d3e
00000050: b693 81be 998c 9bbd 7871 6dbe 7a26 bbbe
00000060: 8345 cb3e 4604 c63e dd8c d2bd 356e d43c
00000070: 4e30 303e 1fb9 933e f11c a93e 1730 6cbe
00000080: a4ad 15be feef d6be 733c 293e 7484 a7be
00000090: 77d2 87be b468 5d3e ee73 fcbd a476 52be
000000a0: 5856 01be 818f 313f 390b 833e cb8a ab3d
000000b0: e5c8 dbbd 925b d8be 732c c3be 49e4 013f
000000c0: d37d d63e 2881 21bd 259b 90be 9807 69bd
000000d0: 44a9 e33d 5b6f 16be a0e1 913c 8efa 4bbe
000000e0: b8be 37bd 4130 52be ff1b babe 86cc 8c3d
000000f0: a33f 1a3d 0055 8c3e 727f b13e 480d 89be
00000100: ea0d 223e 6897 0b3f 5023 09bd 7e15 02bb
00000110: 985b e63d 44e7 183f bbb6 96be 226b 3dbe
00000120: 4f91 273e aca7 f53e 9905 4bbd 5dfd 18be
00000130: 8ffc b23e 788c 24bd 23c3 7abe 088e b0be
00000140: 8c09 7dbe fe73 bdbe e782 1dbe cd0b 873e
00000150: f6a5 9cbe 10dc 96bd c0bf 3abc b415 e0bd
00000160: 305e 983c 5d22 6fbe cb7d 94be dc09 99be
00000170: a5b9 533e 71cf 09be e4a1 a8be 2fc0 623d
00000180: de30 863e c07a f03e 53eb bcbe 229d 713e
00000190: 114d 2fbe e6ef 523e 909d 1bbe 53eb bfbe
000001a0: 88a6 73bd 845f 873e 9673 b33e 60d9 9c3e
000001b0: ab7d b03e 4e14 ffbd 2faa 823c a34b cdbe
000001c0: b965 8cbe f21f e03d 3b0c e53e d99f a53e
000001d0: f8f8 8b3e 875f 743e 9b3b 533c 2093 373e
000001e0: 1e4e 813e 7cd1 9abd cc37 1bbd edfb e8bd
000001f0: 6b99 8cbe 4340 833e f87f f93e 387f a93d
00000200: 2a2f b8be 9007 51bd 5c57 b1be 1cbf e1be
00000210: d099 d43d 51bb e13e 720c ab3e d93a ffbd
00000220: 7b0f d93d b6f1 90be fc3b 58be 5671 d83e
00000230: bc0d 39be b96e 8ebe f53e ed3e 91c0 8c3e
00000240: 00d6 8b3d 2b2e 7c3e da2c a4be 66e6 9c3e
00000250: e277 6f3e 596f 1ebe 4696 08bd dbf9 5d3e
00000260: ed5c 0ebd cb46 5d3e 1453 a2be f20b 60be
00000270: 06ab 9dbe 7fdb 603e bd88 ee3e 093d 85be
00000280: 3422 ca3e 82cd 3b3e b4b6 a3be a4f0 863e
00000290: e8b4 b43e 7a7d 3c3c 02a3 ec3c 4626 81be
000002a0: 273a b1be e07e 233d 7745 6ebe 18c6 a7bd
000002b0: ca2a 573e f726 a2be 507a 9cbe baba 6dbe
000002c0: 75fe 03be 4314 fc3e 83b6 13be 72e3 8d3e
000002d0: 9880 c6be 0036 8e3e 3f38 40bd 7d50 8b3e
000002e0: 96b0 833e 0708 f23e aed3 633d 52ec bbbe
000002f0: 3b4e c2bd f246 793e e0c6 13be 5ab8 c73e
00000300: fa6a f8bd a209 6fbe f6b8 3fbe 2d6a bf3e
00000310: 7406 b3be 009b a3be 4a14 80be 7ef8 163e
00000320: f88f 72bd 382b 37bd 76dd 313e 4762 67be
00000330: 1ce9 47be bc4f ac3e f01a 22be 65f5 7dbe
00000340: 1e2d 893e 315a 4fbe 19c2 883e 1768 60be
00000350: 48b0 9f3e 67b8 acbd 4e7c c7be 0870 23be
00000360: efd2 b93e 3d36 b93e 64b8 2abe c1a4 b23e
00000370: 3241 a5be 8af3 99bd 269e 5cbe 600b 8a3e
00000380: 5309 243e 4c23 9dbe 866b e33d 765b c93e
00000390: dd33 4a3d f3e2 1fbd 22bd 973e 6c48 df3d
000003a0: 6415 a13e 6439 3bbe 0997 8bbd c164 8abe
000003b0: 2627 a03e 6369 4f3e eab9 4abd d038 bebe
000003c0: cb7c c3be 5d66 233e 618e 7dbe 6832 40bd
000003d0: fd02 e83d c8d0 71be 20e2 12be 0468 c8bd
000003e0: 407e 19be 26e9 94be 128a 5c3e 0809 cf3d
000003f0: fa38 5bbd 75b3 b53d e73b e03e 84e8 fe3e

gamma_h_l.bias f4 [128]
0.3707088 -0.14055073 0.082388684 0.17229241 -0.21411194 0.24558812 0.07428077 0.25129274
0.20933169 0.27472785 0.3016282 -0.05509433 0.116297394 0.2361017 0.12109622 -0.36235967
-0.37644994 0.18548341 0.37394193 0.15238589 -0.29866612 -0.24904567 0.41952947 0.05992327
0.29190347 -0.17664245 0.12270853 -0.091425434 -0.33568117 0.11936607 -0.0018509845 -0.218396
0.16755424 -0.3099699 0.118959755 -0.37217525 0.11198108 0.09860263 0.20336357 -0.0054478347
-0.31325036 -0.11961133 0.053515337 -0.028772548 0.29605672 -0.2816336 0.3506733 0.085187465
0.092794076 -0.13432583 0.01696534 0.1631678 0.0037738383 0.34816375 0.23577206 0.13327894
0.07416607 -0.029056877 0.4285546 -0.1448876 0.057458013 0.41060153 0.07212876 0.18420309
0.2394246 -0.08081236 -0.033965897 0.25951156 -0.05462681 -0.21913375 -0.016555578 0.1733344
-0.3963939 -0.036596004 0.2505442 -0.14733955 0.03472744 -0.057602897 -0.24511117 -0.2971807
-0.12608133 0.20408796 0.020504601 -0.405746 0.1331781 -0.055688288 -0.24837647 -0.36653864
-0.2634211 -0.06580426 0.37827608 -0.18589035 -0.027218666 -0.24109423 0.1510194 -0.059008423
-0.13236733 -0.098639846 0.31382093 0.059244223 0.30057892 0.20633511 -0.10626954 0.30844846
-0.23393731 0.20062163 0.11795945 -0.21009557 -0.3284703 0.18234523 -0.011572545 0.28539294
0.18722308 -0.11262065 0.37415084 -0.26218835 0.1326539 -0.31130376 0.20934026 -0.24246702
0.035333797 -0.32480797 0.06291456 0.12098804 -0.06687275 -0.025630862 0.3917736 0.3243634
00000000: 8bcd bd3e 88ec 0fbe 66bb a83d 6c6d 303e
00000010: 2940 5bbe 747b 7b3e 8420 983d 71a9 803e
00000020: 0c5b 563e 21a9 8c3e 036f 9a3e 98aa 61bd
00000030: 542d ee3d a5c4 713e 4c01 f83d 3587 b9be
00000040: 0cbe c0be 5def 3d3e 5175 bf3e 0c0b 1c3e
00000050: c4ea 98be d405 7fbe 91cc d63e 1a72 753d
00000060: 5f74 953e c2e1 34be 9c4e fb3d 423d bbbd
00000070: 67de abbe 3376 f43d bc9c f2ba 33a3 5fbe
00000080: 5793 2b3e 60b4 9ebe 2ca1 f33d c18d bebe
00000090: 5656 e53d 2df0 c93d 8a3e 503e c083 b2bb
000000a0: 5a62 a0be c9f6 f4bd e632 5b3d 68b4 ebbc
000000b0: bf94 973e 4732 90be 738b b33e c476 ae3d
000000c0: d20a be3d b68c 09be e6fa 8a3c 7615 273e
000000d0: 8052 773b 8542 b23e 3b6e 713e 467a 083e
000000e0: 61e4 973d b008 eebc 826b db3e 6a5d 14be
000000f0: 1859 6b3d 5d3a d23e 3eb8 933d bc9f 3c3e
00000100: b92b 753e f380 a5bd d31f 0bbd b3de 843e
00000110: 5dc0 5fbd 9964 60be 909f 87bc 937e 313e
00000120: 24f4 cabe b1e5 15bd 5447 803e 2ee0 16be
00000130: 5c3e 0e3d 04f1 6bbd 6cfe 7abe 1228 98be
00000140: 771b 01be 6ffc 503e 44f9 a73c f1bd cfbe
00000150: d75f 083e 6719 64bd 6756 7ebe f4aa bbbe
00000160: 21df 86be 62c4 86bd 67ad c13e 0a5a 3ebe
00000170: aef9 debc 68e1 76be d4a4 1a3e d1b2 71bd
00000180: 4d8b 07be b003 cabd 23ad a03e 12aa 723d
00000190: 7be5 993e 8349 533e d8a3 d9bd f5ec 9d3e
000001a0: 438d 6fbe c26f 4d3e b994 f13d 4b23 57be
000001b0: 422d a8be b5b8 3a3e c69a 3dbc 061f 923e
000001c0: 68b7 3f3e a8a5 e6bd b390 bf3e 8d3d 86be
000001d0: 6dd6 073e 3563 9fbe 4b5d 563e 4649 78be
000001e0: 2cba 103d 3b4d a6be 59d9 803d 94c8 f73d
000001f0: 95f4 88bd d0f7 d1bc 8d96 c83e f612 a63e

encoder_lstm.weight_ih_l0 f4 [512, 7]
-0.46627215 0.14854902 0.101547934 -0.47434825 -0.06993377 0.11679546 -0.7036424 -0.16194549
0.1422949 0.08532122 0.23717327 0.27460667 -0.13595077 0.1840354 -0.118037514 -0.11866779
-0.008751785 0.14290026 -0.20070824 -0.16234088 0.2932353 0.71524924 0.011110168 0.15966964
0.048965942 -0.0011720712 0.015788667 0.33482704 0.0007113188 0.1768524 -0.12669912 0.48718363
0.04988816 0.11621178 -0.07708147 -0.03629361 0.041419636 0.06657811 -0.0011662095 0.07064264
0.056073647 0.106148764 -0.77641124 0.17351651 0.23791982 -0.6115637 0.29329246 0.06535857
0.01567842 -0.5190119 0.11530646 -0.30517986 0.1353628 -0.08421033 -0.07666523 -0.107602336
-0.19638881 0.12920588 -0.07926636 0.32892 -0.20166038 -0.061102033 -0.22683078 -0.26036477
-0.02247077 0.09111245 -0.33171788 0.09769231 0.051588446 0.08467571 0.53089064 -0.10785984
-0.06071739 0.14670523 0.0030233725 -0.21474546 0.5807803 -0.07633943 -0.024634274 -0.3341572
-0.47449017 -0.052522674 0.16300637 -0.4133215 -0.060086314 0.038399365 -0.15954508 0.17924634
-0.11553018 0.16257581 -0.07054674 -1.0030924 0.06379689 0.42204177 -0.43169034 0.16336977
0.3360148 -0.093945846 0.09826949 0.010478718 0.12053457 0.57982814 -0.16189733 -0.3654304
0.12868449 -0.76223356 0.08174427 -0.3390165 -0.3231149 -0.05739613 -0.071132526 -0.5527205
-0.5304446 0.1360086 -0.121520385 0.1467189 0.027552491 -0.11546716 0.07296295 -0.16674887
0.0778331 -0.21225716 -0.36015433 0.18911459 -0.06170174 0.096072525 -0.25808412 -0.07141324
-0.3009812 -0.068232335 -0.29178417 -0.21358572 0.40747505 -0.11319579 -0.0092873275 0.041216977
-0.42388186 -0.02053677 0.019394392 -0.0701077 0.19096945 0.26482767 0.56829524 0.5820069
0.2149985 0.17568584 0.12632857 -0.2562894 -0.04371157 0.06073436 -0.3583708 -0.10727072
-0.025070433 0.0042748507 -0.024146307 0.124958925 0.24645264 0.04419871 0.32626995 -0.1732446
0.47722 -0.27502564 0.07230352 0.060427915 -0.26276457 0.13444576 0.15400673 -0.3065221
-0.16118802 0.021064948 -0.17182748 -0.0074369754 0.14914994 -0.11038185 -0.52153754 -0.009612817
-0.15011041 0.15512143 -0.95658135 -0.15138105 0.2620683 0.004776854 0.2585954 -0.13994208
-0.15039048 0.34872928 -0.20136112 -0.10050284 0.18508281 -0.021384666 0.086309955 0.07092633
-0.33878824 0.14356814 -0.20226479 0.12092463 -0.36126196 0.56093305 -0.31200355 0.017397437
0.14481391 -0.14653854 0.21880603 -0.018976208 0.58157784 0.56440866 -0.01712138 0.38499796
0.063317806 1.1968321 -0.40704066 0.1379496 -0.07883818 -0.039196774 0.09051146 -0.041985713
-0.09852889 0.34596133 0.03945233 -0.28878534 0.33938766 -0.2787119 -0.19777898 -0.03591568
0.51557964 -0.11672809 -0.3791211 0.3582291 -0.33606523 -0.05610009 0.15463175 -0.055669904
0.23186475 0.22252955 0.30191833 0.19291094 -0.0054389406 0.38391632 -0.31590402 0.14970265
-0.14947334 0.45437947 0.05389564 -0.011059856 -0.14940946 0.2900558 0.5412355 -0.1566675
-0.5780849 0.39565432 0.31342342 0.56508464 -0.18982041 -0.05612311 0.08161818 -0.15293193
00000000: 39bb eebe 3c1d 183e 5df8 cf3d c6dd f2be
00000010: 7039 8fbd 7532 ef3d e921 34bf 0ad5 25be
00000020: c1b5 113e e4bc ae3d 8ddd 723e 3f99 8c3e
00000030: ae36 0bbe c773 3c3e a7bd f1bd 1908 f3bd
00000040: a663 0fbc 7254 123e 7686 4dbe b03c 26be
00000050: f022 963e 931a 373f 6c07 363c 7080 233e
00000060: 8390 483d 2fa0 99ba 3c57 813c 736e ab3e
00000070: cc77 3a3a cc18 353e 6abd 01be 2270 f93e
00000080: 8757 4c3d 7100 ee3d e4dc 9dbd 9ca8 14bd
00000090: a3a7 293d 1b5a 883d 7fdb 98ba 17ad 903d
000000a0: 7bad 653d 8664 d93d e3c2 46bf 50ae 313e
000000b0: 41a1 733e 708f 1cbf 6e2a 963e b7da 853d
000000c0: 0870 803c f7dd 04bf cb25 ec3d 8940 9cbe
000000d0: 8c9c 0a3e 7776 acbd a902 9dbd 9d5e dcbd
000000e0: 261a 49be 8c4e 043e 6756 a2bd 3468 a83e
000000f0: 0f80 4ebe 2046 7abd 5446 68be 884e 85be
00000100: 9f14 b8bc 2a99 ba3d edd6 a9be e812 c83d
00000110: 684e 533d 756a ad3d 73e8 073f 9fe5 dcbd
00000120: ccb2 78bd e539 163e c623 463b 3ce6 5bbe
00000130: 05ae 143f d957 9cbd d1cd c9bc a716 abbe
00000140: 60f0 f2be 0422 57bd 24eb 263e e09e d3be
00000150: 111d 76bd a748 1d3d c95f 23be 5a8c 373e
00000160: 169b ecbd 467a 263e cf7a 90bd 5565 80bf
00000170: f2a7 823d dc15 d83e 8406 ddbe 684a 273e
00000180: 220a ac3e ae66 c0bd 8441 c93d eeae 2b3c
00000190: d4da f63d 9e6f 143f 6ac8 25be b219 bbbe
000001a0: dec5 033e bd21 43bf 8a69 a73d 9293 adbe
000001b0: 516f a5be 3418 6bbd eead 91bd 177f 0dbf
000001c0: 38cb 07bf d745 0b3e aedf f8bd 7b3d 163e
000001d0: c3b5 e13c 0c7a ecbd 996d 953d 37c0 2abe
000001e0: f666 9f3d f159 59be 2666 b8be 41a7 413e
000001f0: f7ba 7cbd acc1 c43d 9a23 84be 1b41 92bd
00000200: 351a 9abe 65bd 8bbd bc64 95be 37b6 5abe
00000210: 92a0 d03e 32d3 e7bd e029 18bc 22d3 283d
00000220: 0b07 d9be ba3c a8bc fde0 9e3c a094 8fbd
00000230: 7f8d 433e 7e97 873e cc7b 113f 67fe 143f
00000240: 9128 5c3e fde6 333e 475c 013e 5d38 83be
00000250: e70a 33bd 98c4 783d 617c b7be c0b0 dbbd
00000260: 8260 cdbc 0c14 8c3b 7ace c5bc 77ea ff3d
00000270: 155e 7c3e b509 353d db0c a73e 0867 31be
00000280: 2e56 f43e 29d0 8cbe de13 943d 4383 773d
00000290: 1489 86be 26ac 093e f1b3 1d3e 77f0 9cbe
000002a0: 790e 25be 6690 ac3c 8bf3 2fbe dfb1 f3bb
000002b0: c3ba 183e e10f e2bd 7c83 05bf 147f 1dbc
000002c0: 8bb6 19be 27d8 1e3e 84e2 74bf a203 1bbe
000002d0: d12d 863e 2887 9c3b 9e66 843e fa4c 0fbe
000002e0: f6ff 19be a58c b23e 9c31 4ebe 6fd4 cdbd
000002f0: 5986 3d3e e52e afbc 46c3 b03d d341 913d
00000300: a775 adbe 8703 133e 801e 4fbe 55a7 f73d
00000310: 54f7 b8be 4f99 0f3f eebe 9fbe 1285 8e3c
00000320: 194a 143e 330e 16be b00e 603e fe73 9bbc
00000330: 49e2 143f 167d 103f 2342 8cbc 741e c53e
00000340: c4ac 813d cb31 993f a267 d0be a942 0d3e
00000350: e975 a1bd cc8c 20bd 135e b93d 36f9 2bbd
00000360: 84c9 c9bd d821 b13e c498 213d acdb 93be
00000370: 38c4 ad3e 53b3 8ebe 9386 4abe 521c 13bd
00000380: 07fd 033f 230f efbd 291c c2be ce69 b73e
00000390: be10 acbe 35c9 65bd c957 1e3e 2006 64bd
000003a0: f46d 6d3e c9de 633e 0a95 9a3e 728a 453e
000003b0: 2439 b2bb ae90 c43e 2cbe a1be a74b 193e
000003c0: 8a0f 19be 6da4 e83e adc1 5c3d 6634 35bc
000003d0: cbfe 18be 3282 943e 698e 0a3f 726d 20be
000003e0: 5ffd 13bf 3493 ca3e 0979 a03e 63a9 103f
000003f0: 4860 42be 59e1 65bd 6f27 a73d 309a 1cbe

encoder_lstm.weight_hh_l0 f4 [512, 128]
-0.050086826 -0.2871039 -0.03174382 0.011280225 0.2622195 0.01735505 -0.022180302 -0.08638502
-0.053466573 0.01860928 0.09972355 0.12916368 -0.009845055 -0.084657066 0.008567826 -0.22706214
-0.09903151 -0.080757104 -0.11645757 -0.014366012 0.09719356 -0.04578717 0.0014314491 -0.09671083
0.23966362 -0.22966151 0.08618834 0.113652885 0.008032255 -0.1673884 0.3113371 0.17623581
0.017766012 -0.19701774 0.18902011 0.2596572 -0.109584406 0.098745 -0.025748782 -0.031001076
0.008146183 -0.15169837 0.12212207 -0.044729214 0.06059976 0.07009382 0.060157675 0.08346627
-0.22830841 0.020815663 0.024919927 -0.0138514405 -0.038921967 -0.08483256 -0.019915402 0.040699765
-0.13536042 0.107493214 0.079900526 -0.09744735 -0.43835142 0.15792733 -0.3167386 -0.12436135
-0.21293618 -0.09099082 -0.16534366 -0.015010136 -0.112394676 -0.16918942 -0.0312744 -0.12820315
-0.1366643 -0.047923293 0.3245729 0.05045989 -0.12232434 0.04684634 0.16505432 -0.13199663
-0.1515171 0.05004563 0.03338744 -0.011669273 -0.050552305 -0.11145527 -0.026213843 -0.14924902
-0.15107882 0.038564604 -0.06093797 -0.118782416 0.082142845 0.048804827 -0.09841387 -0.12003737
0.1402571 0.18305303 -0.20128413 -0.002833745 -0.0049482863 -0.009222662 -0.060420245 0.080566235
0.115063034 -0.03455807 0.24251102 -0.060984712 -0.23206255 -0.043877464 0.1367468 0.07638322
0.0318993 -0.19290036 0.15028791 0.014820975 -0.01292699 -0.055389315 0.18451734 -0.08478795
-0.0041818703 -0.03331895 -0.34955615 0.078547485 -0.01626785 -0.007886631 0.16959149 0.07567043
0.04307162 0.11340298 -0.16519542 -0.07722655 0.15911043 0.07703029 -0.009854994 0.095885396
0.038616735 0.08850416 0.293136 0.0765069 -0.09019753 0.15484226 0.14008161 -0.14031965
0.098981805 0.074949175 0.15653996 0.0036953865 0.28698364 -0.0026139172 -0.25989053 -0.02412158
0.0007145594 0.1264977 0.1444286 0.06559432 0.012807944 -0.022128249 0.024129989 -0.04341566
0.02067204 0.051953215 -0.06931721 0.05340791 -0.27241388 0.15495664 0.18408778 0.11628292
0.030684765 0.0001528384 -0.011559203 0.12819241 -0.036371134 -0.11672003 -0.050535567 0.022455378
0.04994456 -0.00086260965 -0.16636492 0.16764441 0.18634112 0.008258147 0.06422217 0.21384129
0.0011265635 -0.11359275 0.12525257 0.06339966 -0.15750243 0.017769074 0.0682236 0.0113549335
-0.0496125 -0.027376173 0.055586614 0.1171151 0.1000626 0.21292321 0.25478834 -0.037268918
0.11894892 -0.22860067 -0.19687152 -0.11495655 0.00055985135 -0.02423045 0.10152553 -0.05192742
0.08663488 -0.09224197 0.08085138 0.055310514 -0.078408055 0.06094355 0.0020152787 0.2784311
-0.15174267 -0.1305602 0.063345775 0.12933815 -0.04889003 0.15067893 0.29264328 0.15069433
0.038182 0.30742395 0.15549685 0.06937982 -0.14335033 0.1179529 0.0061780955 -0.11868831
-0.0036875594 -0.20543586 0.05091065 -0.060408045 0.07742968 -0.014592965 -0.22965445 0.057079524
0.060070716 -0.19120516 0.07185922 -0.09325843 -0.0053780517 0.03334548 0.026966792 0.011235842
0.024966815 -0.12997657 0.23638524 -0.0027972027 0.37483767 -0.03499969 0.16637225 -0.1029979
00000000: d827 4dbd 48ff 92be cf05 02bd b1d0 383c
00000010: a241 863e 2e2c 8e3c 77b3 b5bc a1ea b0bd
00000020: c4ff 5abd 7d72 983c dc3b cc3d 7c43 043e
00000030: 274d 21bc af60 adbd 1160 0c3c fa82 68be
00000040: 08d1 cabd fb63 a5bd 4e81 eebd 6c5f 6bbc
00000050: 6b0d c73d 548b 3bbd 769f bb3a 5410 c6bd
00000060: 616a 753e 632c 6bbe 8383 b03d d8c2 e83d
00000070: b899 033c dd67 2bbe 9467 9f3e 2977 343e
00000080: 078a 913c 05bf 49be 7d8e 413e caf1 843e
00000090: ca6d e0bd d23a ca3d 1cef d2bc f8f5 fdbc
000000a0: 9177 053c d156 1bbe 231b fa3d fb35 37bd
000000b0: 7437 783d 598d 8f3d e567 763d 5df0 aa3d
000000c0: aec9 69be 9c85 aa3c e024 cc3c 27f1 62bc
000000d0: a46c 1fbd b1bc adbd a025 a3bc ccb4 263d
000000e0: ec9b 0abe 6725 dc3d e3a2 a33d 7a92 c7bd
000000f0: 996f e0be b4b7 213e 902b a2be 2ab1 febd
00000100: f10b 5abe 6559 babd d94f 29be 13ed 75bc
00000110: 2e2f e6bd fe3f 2dbe 9619 00bd b047 03be
00000120: baf1 0bbe 374b 44bd 6b2e a63e 08af 4e3d
00000130: 2f85 fabd f3e1 3f3d 0004 293e 202a 07be
00000140: 4c27 1bbe a6fc 4c3d 45c1 083d 7a30 3fbc
00000150: ef0f 4fbd a942 e4bd 6abe d6bc bcd4 18be
00000160: 68b4 1abe ebf5 1d3d 189a 79bd 3244 f3bd
00000170: 823a a83d 92e7 473d 368d c9bd 27d6 f5bd
00000180: 8f9f 0f3e 4172 3b3e 6d1d 4ebe 5ab6 39bb
00000190: 3c25 a2bb a61a 17bc 387b 77bd e9ff a43d
000001a0: 2ba6 eb3d c38c 0dbd cf54 783e 1bcb 79bd
000001b0: cea1 6dbe dbb8 33bd 5a07 0c3e ce6e 9c3d
000001c0: d7a8 023d ac87 45be 13e5 193e add3 723c
000001d0: bacb 53bc e8df 62bd 1df2 3c3e 4ea5 adbd
000001e0: 1208 89bb 7479 08bd 06f9 b2be 81dd a03d
000001f0: 2744 85bc ee36 01bc 64a9 2d3e 19f9 9a3d
00000200: de6b 303d d23f e83d fd28 29be f428 9ebd
00000210: d8ed 223e 0fc2 9d3d d776 21bc 905f c43d
00000220: 952c 1e3d ab41 b53d ec15 963e a6af 9c3d
00000230: 7cb9 b8bd f88e 1e3e 8e71 0f3e f4af 0fbe
00000240: f9b6 ca3d f47e 993d 034c 203e 4c2e 723b
00000250: 85ef 923e 414e 2bbb 5f10 85be 9f9a c5bc
00000260: 4551 3b3a 9d88 013e 17e5 133e 5156 863d
00000270: 69d8 513c 4d46 b5bc 41ac c53c 9ed4 31bd
00000280: 6958 a93c e5cc 543d 2ef6 8dbd 41c2 5a3d
00000290: d579 8bbe f4ac 1e3e 8281 3c3e bd25 ee3d
000002a0: 9e5e fb3c 3f43 2039 d062 3dbc df44 033e
000002b0: e6f9 14bd e90a efbd 62fe 4ebd 57f4 b73c
000002c0: ab92 4c3d c120 62ba 915b 2abe faaa 2b3e
000002d0: 35d0 3e3e 2e4d 073c ea86 833d 36f9 5a3e
000002e0: 33a9 933a 51a3 e8bd 3642 003e aed7 813d
000002f0: 5148 21be 7390 913c d1b8 8b3d 0b0a 3a3c
00000300: 7a36 4bbd ff43 e0bc caae 633d 0bda ef3d
00000310: 9fed cc3d 8b08 5a3e 9e73 823e 4ba7 18bd
00000320: 7e9b f33d 4b16 6abe b098 49be 576e ebbd
00000330: fdc2 123a f07e c6bc 9eec cf3d d9b1 54bd
00000340: a16d b13d 5ce9 bcbd 6995 a53d 478d 623d
00000350: 6794 a0bd f29f 793d c412 043b 858e 8e3e
00000360: 6e62 1bbe 93b1 05be 6ebb 813d 3871 043e
00000370: e940 48bd 944b 1a3e 57d5 953e 9d4f 1a3e
00000380: bb64 1c3d ac66 9d3e 913a 1f3e 0217 8e3d
00000390: 6eca 12be 4a91 f13d 9f71 ca3b db12 f3bd
000003a0: fbaa 71bb c75d 52be b087 503d 6d6e 77bd
000003b0: 7493 9e3d 5517 6fbc 892a 6bbe 38cc 693d
000003c0: b60c 763d 49cb 43be ed2a 933d 47fe bebd
000003d0: 5e3a b0bb 4595 083d 76e9 dc3c 8916 383c
000003e0: 3587 cc3c 9418 05be f90e 723e 4651 37bb
000003f0: b9ea bf3e d65b 0fbd 7d5d 2a3e 90f0 d2bd

encoder_lstm.bias_ih_l0 f4 [512]
0.10637068 0.03544959 0.031481083 0.072160624 0.12819195 -0.062342227 0.06496436 -0.07072862
-0.037283856 -0.038835824 0.05404009 0.047132798 0.06520418 0.0755784 0.1014338 0.14882147
0.07382228 0.0056334133 0.06726669 -0.06312216 0.061234854 -0.07592998 0.08064023 0.19098435
0.0035406118 0.21642889 0.07030705 -0.07272732 0.21885361 0.31269777 0.08876882 0.10507057
-0.063516624 0.09566745 -0.020244407 0.2585542 0.061045937 0.01054891 0.17536476 -0.037823837
0.012760282 0.0447572 -0.030171813 0.07672227 0.071461275 0.19998795 0.13545886 0.22151166
0.04696074 -0.047709286 0.21342924 -0.001582222 0.24429266 0.071582876 0.11747734 0.119645044
0.09845316 0.034451287 0.021085668 -0.075137354 0.32857677 -0.04091758 0.13352087 0.3110892
0.14028989 0.18000434 0.032727957 0.006757965 0.19249895 0.39597604 0.17957242 0.19594745
0.13331462 0.050337277 0.20154391 -0.09397476 0.3935179 0.012835366 0.0648551 0.028841058
0.06394858 0.036796797 0.0052590603 0.04533113 -0.10859025 -0.12765624 -0.007043941 0.21891949
0.01490837 0.021491779 -0.035060544 0.23904718 0.08961204 0.15529488 0.11542889 0.27706194
0.5379875 0.13067226 0.061892644 0.10849834 -0.022908585 -0.014088531 0.1636354 0.14864257
0.038285844 0.11124816 0.043548305 0.17117429 0.12604146 -0.08377877 0.13220087 -0.034768045
0.10286065 -0.0030302785 0.13095203 -0.143645 0.10158446 0.19518107 0.20545205 -0.08376538
-0.09047367 -0.07057822 0.15755455 0.08066255 0.15896347 -0.041795228 -0.07230011 0.3892411
-0.038609754 0.020214047 0.06733145 -0.08404317 0.13321294 0.013662812 -0.05810988 -0.08585295
0.08305778 0.051866304 -0.0245615 0.07683514 0.04092927 -0.06783046 0.06953223 0.03534397
-0.07575889 -0.014882154 -0.074534126 -0.07035311 -0.017396728 0.020549549 0.021811515 0.042105276
-0.08074637 0.1726513 0.04706342 0.0045959633 -0.0042448873 -0.03795701 0.046221312 0.002153231
-0.115830235 -0.0131790945 -0.12197704 -0.030026041 -0.088676676 -0.02215401 -0.121139474 0.11302415
-0.11100968 0.057357796 -0.07377152 0.093813755 0.1330486 0.0751145 -0.015121002 -0.035497013
0.07627084 -0.030995231 -0.0380164 -0.040950146 0.120716214 0.010262453 -0.07745463 0.2022133
0.034870323 -0.024339397 -0.033769485 -0.08202994 -0.14368185 0.011900042 0.13331841 0.1675663
-0.030244488 -0.09193894 0.030689463 -0.02674124 -0.049275514 -0.20273724 0.15933764 0.049948603
0.10591683 -0.007079675 0.036196716 -0.09021625 -0.029540384 -0.021748079 0.13591836 -0.097893886
0.09973213 -0.054961957 -0.13085355 0.048728224 -0.0640458 -0.05197175 0.04060903 -0.1512139
0.013192829 0.08576828 -0.02545173 -0.00082105247 0.0150743015 0.04337689 -0.12866068 0.037797123
-0.032718964 -0.055751827 0.08390188 -0.07545566 -0.061587114 -0.08024615 -0.036584098 0.018950636
-0.06957948 0.023821853 0.056605276 0.18520379 0.018813295 -0.07221501 0.009961995 0.044309337
0.10979605 0.11332833 -0.009123691 0.0037934976 0.009758588 -0.044995278 0.18784551 0.016374849
-0.10220712 0.028986953 0.06711981 -0.05096093 0.01254255 -0.07882702 -0.16106126 -0.12554786
00000000: dfd8 d93d 9733 113d 4ff2 003d f3c8 933d
00000010: c044 033e 905a 7fbd 090c 853d 2bda 90bd
00000020: f5b6 18bd 5012 1fbd 2459 5d3d 520e 413d
00000030: c589 853d d9c8 9a3d 86bc cf3d a864 183e
00000040: 2330 973d 7f98 b83b 1ec3 893d 3146 81bd
00000050: 66d1 7a3d 2d81 9bbd b426 a53d 6791 433e
00000060: 9c09 683b 899f 5d3e 25fd 8f3d 10f2 94bd
00000070: 291b 603e ec19 a03e 6dcc b53d 3d2f d73d
00000080: 0115 82bd 4ced c33d 99d7 a5bc 3761 843e
00000090: 4e0b 7a3d 56d5 2c3c d292 333e 2bed 1abd
000000a0: 8010 513c 5353 373d e12a f7bc 9120 9d3d
000000b0: 4a5a 923d a4c9 4c3e bab5 0a3e f4d3 623e
000000c0: e859 403d d06a 43bd 328d 5a3e 8f62 cfba
000000d0: db27 7a3e 0b9a 923d f697 f03d 7608 f53d
000000e0: cfa1 c93d cb1c 0d3d dabb ac3c 9de1 99bd
000000f0: 373b a83e 3199 27bd b2b9 083e 1547 9f3e
00000100: 27a8 0f3e 0f53 383e c00d 063d eb71 dd3b
00000110: 721e 453e 5fbd ca3e d5e1 373e 73a6 483e
00000120: a183 083e 762e 4e3d 8761 4e3e d775 c0bd
00000130: 2e7b c93e 6d4b 523c c0d2 843d 1544 ec3c
00000140: 79f7 823d 3db8 163d 3254 ac3b 23ad 393d
00000150: 9164 debd 51b8 02be dcd0 e6bb 6e2c 603e
00000160: 3c42 743c 870f b03c a59b 0fbd c9c8 743e
00000170: 8486 b73d 9f05 1f3e fb65 ec3d 10db 8d3e
00000180: 8cb9 093f f3ce 053e 2483 7d3d 6134 de3d
00000190: c9aa bbbc 95d3 66bc 0a90 273e c235 183e
000001a0: 9ed1 1c3d 13d6 e33d b55f 323d 5048 2f3e
000001b0: 0311 013e 3494 abbd aa5f 073e f068 0ebd
000001c0: 9ba8 d23d a397 46bb 4a18 063e ad17 13be
000001d0: 830b d03d 8cdd 473e 0662 523e 2f8d abbd
000001e0: 424a b9bd 508b 90bd fb55 213e 6832 a53d
000001f0: 52c7 223e 7931 2bbd 1412 94bd 9c4a c73e
00000200: 4325 1ebd ee97 a53c 12e5 893d d31e acbd
00000210: f968 083e fdd9 5f3c a004 6ebd acd3 afbd
00000220: 331a aa3d c371 543d 3335 c9bc be5b 9d3d
00000230: 73a5 273d b2ea 8abd ea66 8e3d d7c4 103d
00000240: 7a27 9bbd 47d4 73bc 59a5 98bd 4b15 90bd
00000250: 9583 8ebc 8757 a83c 10ae b23c 9576 2c3d
00000260: 5a5e a5bd 81cb 303e 93c5 403d bc99 963b
00000270: b218 8bbb cf78 1bbd 8f52 3d3d 391d 0d3b
00000280: 6738 edbd 21ed 57bc 19cf f9bd 2cf9 f5bc
00000290: 1e9c b5bd 547c b5bc f917 f8bd 3579 e73d
000002a0: 0b59 e3bd 02f0 6a3d 8615 97bd 6d21 c03d
000002b0: e43d 083e a2d5 993d 14be 77bc 5165 11bd
000002c0: e333 9c3d b6e9 fdbc 16b7 1bbd 57bb 27bd
000002d0: 103a f73d d923 283c 88a0 9ebd 0111 4f3e
000002e0: 2fd4 0e3d 6a63 c7bc df51 0abd 50ff a7bd
000002f0: 5621 13be 65f8 423c 9f84 083e 8096 2b3e
00000300: 4ac3 f7bc 7c4a bcbd 7868 fb3c 7210 dbbc
00000310: 1fd5 49bd 5a9a 4fbe 6829 233e e896 4c3d
00000320: ecea d83d 9efc e7bb 0243 143d 4cc3 b8bd
00000330: adfe f1bc 0729 b2bc 2f2e 0b3e 977c c8bd
00000340: 5c40 cc3d ca1f 61bd 79fe 05be 3f97 473d
00000350: 722a 83bd 54e0 54bd a755 263d d1d7 1abe
00000360: bc26 583c 48a7 af3d 2580 d0bc e63b 57ba
00000370: 34fa 763c f7ab 313d a0bf 03be 28d1 1a3d
00000380: 5204 06bd 075c 64bd c0d4 ab3d 7f88 9abd
00000390: c542 7cbd 1858 a4bd 35d9 15bd 5d3e 9b3c
000003a0: b07f 8ebd 0c26 c33c efda 673d 10a6 3d3e
000003b0: 571e 9a3c 77e5 93bd a337 233c b57d 353d
000003c0: c0dc e03d af18 e83d 897b 15bc 549c 783b
000003d0: 7ce2 1f3c f84c 38bd 935a 403e 8c24 863c
000003e0: f751 d1bd 0c76 ed3c 1c76 893d 68bc 50bd
000003f0: 457f 4d3c 1070 a1bd 3eed 24be 9e8f 00be

encoder_lstm.bias_hh_l0 f4 [512]
0.022205193 0.01933692 0.15619549 0.06366002 0.28697756 -0.06730045 -0.015245506 -0.11791601
0.01492146 0.036562473 -0.048878968 -0.0058607887 -0.024450155 0.05296767 0.024637619 0.11671206
0.195638 -0.061084192 0.047387596 -0.11204394 0.053413246 -0.00191008 0.1342668 0.17156786
-0.045466274 0.13094865 -0.028369239 -0.04829825 0.21595888 0.31662127 0.016982766 0.104285166
-0.026945332 0.040961243 0.0051530907 0.3373929 0.035525385 -0.06350757 0.09784133 -0.03657477
0.030705025 0.11101467 -0.09801052 0.14040725 0.09239104 0.22543591 0.06587709 0.11104243
0.05812799 0.00076754973 0.23089267 0.060710944 0.15863152 0.02160742 0.04213006 0.1990771
0.10995479 -0.017216077 0.060247328 0.08893408 0.3861127 0.061315916 0.16778082 0.30356354
0.067140035 0.041320533 -0.08399777 -0.03795555 0.10996369 0.536563 0.19465175 0.29601493
0.062977955 0.057098158 0.053170387 -0.036649905 0.34747624 0.13936412 0.0026326645 -0.081485614
0.0034066625 -0.02691746 -0.03553925 0.06529681 0.007001473 -0.08153823 -0.016623294 0.23951893
0.042681895 0.04730737 -0.021288797 0.07277376 -0.017648324 0.07963308 0.115096785 0.25555292
0.55331814 0.20346889 0.012972648 0.20793425 0.06275102 -0.054447643 0.21105832 0.0559991
0.02547588 0.22681972 0.15182464 0.24253243 0.05076404 -0.08350733 0.01731701 0.06830833
0.105947845 0.060226664 0.08175652 -0.16040516 0.023362575 0.122207515 0.32004392 -0.030194571
0.029070761 0.011272081 0.055996735 -0.010033718 0.23057084 -0.044299603 0.023790197 0.2992041
-0.06715769 -0.039287742 0.010616255 0.026178338 0.13432722 -0.11507294 0.025415273 0.009759044
0.023886297 0.08940309 0.09871842 0.0076159886 0.105407275 -0.011319649 0.09739118 0.082876615
-0.05732936 -0.022383071 -0.06699115 -0.072684266 0.09131224 -0.015685467 0.0031107734 0.13802579
-0.043760218 0.14840691 -0.08955973 -0.052207474 -0.11428748 -0.114840455 -0.07100282 -0.05366181
0.03581309 0.054485783 -0.14018856 -0.046719264 -0.048899673 -0.054476533 -0.13990642 0.103455216
0.04525775 -0.044628438 0.058759414 0.043204132 0.14295441 0.0064141024 -0.031352904 0.042725768
-0.07090405 0.013493746 -0.095327236 -0.010411629 -0.018017031 -0.035642684 -0.033960458 0.09629542
-0.03964874 -0.055770934 -0.024892671 0.013781031 -0.18559709 -0.09925433 0.0488598 0.20152296
-0.015870085 0.0013349511 -0.08784096 -0.033745196 0.020243522 -0.16974947 0.096522406 -0.07043518
0.11133378 0.099673636 0.03626551 -0.107048705 -0.06822362 0.11401315 0.0044093765 0.009711509
0.09704818 0.06118626 -0.1064217 0.069398694 -0.0021038032 0.043798886 0.016239425 -0.26418453
0.060817838 -0.027463412 -0.037368692 -0.026678566 0.0007402024 -0.0051865513 -0.06662317 0.09899501
-0.10227292 -0.0832475 -0.05913651 -0.03281076 0.0664654 -0.042928983 0.03749385 -0.069675446
-0.08840891 0.07410122 0.010045652 0.24119197 -0.029314877 -0.034481958 -0.031097412 0.0630836
0.10348056 -0.04468886 -0.027087212 -0.11350463 0.112951115 0.11852066 0.07699435 -0.029347995
0.009420371 -0.095890634 0.024190959 -0.08942708 -0.0261543 -0.10636452 -0.12371937 -0.23069756
00000000: aae7 b53c 7668 9e3c b6f1 1f3e 2f60 823d
00000010: b9ee 923e d1d4 89bd 49c8 79bc f37d f1bd
00000020: 2479 743c 88c2 153d 5035 48bd dc0b c0bb
00000030: b14b c8bc a1f4 583d d5d4 c93c bc06 ef3d
00000040: 5455 483e 6b33 7abd 7f19 423d 4b77 e5bd
00000050: d9c7 5a3d a65b faba 3c7d 093e 7caf 2f3e
00000060: d83a 3abd 6717 063e 9b66 e8bc 63d4 45bd
00000070: 5324 5d3e 2f1c a23e 711f 8b3c 7693 d53d
00000080: 75bc dcbc fac6 273d 42db a83b c3be ac3e
00000090: 1183 113d 4210 82bd 0961 c83d 6dcf 15bd
000000a0: 1b89 fb3c a95b e33d bdb9 c8bd ebc6 0f3e
000000b0: 8337 bd3d acd8 663e 91ea 863d 376a e33d
000000c0: 9e17 6e3d 6435 493a 216f 6c3e 0aac 783d
000000d0: 4d70 223e 0b02 b13c 9290 2c3d deda 4b3e
000000e0: fa2f e13d bb08 8dbc e7c5 763d 1223 b63d
000000f0: 90b0 c53e 6626 7b3d bcce 2b3e ae6c 9b3e
00000100: b780 893d b83f 293d 0607 acbd 4777 1bbd
00000110: a534 e13d 315c 093f ca52 473e 458f 973e
00000120: 96fa 803d c2df 693d 31c9 593d 361e 16bd
00000130: 68e8 b13e 78b5 0e3e c888 2c3b eee1 a6bd
00000140: 5042 5f3b 0182 dcbc 9b91 11bd 55ba 853d
00000150: 9d6c e53b 84fd a6bd 932d 88bc 7344 753e
00000160: 36d3 2e3d 5fc5 413d d865 aebc 690a 953d
00000170: 3893 90bc ab16 a33d ddb7 eb3d d5d7 823e
00000180: 42a6 0d3f 265a 503e 3b8b 543c b7ec 543e
00000190: 9b83 803d 7e04 5fbd ac1f 583e 505f 653d
000001a0: cbb2 d03c 6e43 683e eb77 1b3e 6c5a 783e
000001b0: f4ed 4f3d e405 abbd 67dc 8d3c 3de5 8b3d
000001c0: 2ffb d83d 3cb0 763d f66f a73d 4041 24be
000001d0: df62 bf3c ef47 fa3d ccdc a33e 9b5a f7bc
000001e0: ce25 ee3c 89ae 383c d55c 653d 7764 24bc
000001f0: c31a 6c3e 8073 35bd a9e3 c23c 4831 993e
00000200: f989 89bd 2fec 20bd cdef 2d3c f473 d63c
00000210: 138d 093e 5dab ebbd b133 d03c 66e4 1f3c
00000220: 32ad c33c f818 b73d e22c ca3d 8b8f f93b
00000230: c5df d73d 0d76 39bc 0775 c73d 37bb a93d
00000240: 31d2 6abd b45c b7bc a832 89bd 7ddb 94bd
00000250: e901 bb3d cf7e 80bc 1ede 4b3b a256 0d3e
00000260: ea3d 33bd fbf7 173e 176b b7bd 81d7 55bd
00000270: 8e0f eabd 7931 ebbd ed69 91bd 7ccc 5bbd
00000280: bfb0 123d 7c2c 5f3d 978d 0fbe b35c 3fbd
00000290: 064b 48bd c922 5fbd a143 0fbe 54e0 d33d
000002a0: 3160 393d 4fcc 36bd b6ad 703d d1f6 303d
000002b0: a462 123e 642d d23b e76b 00bd 3701 2f3d
000002c0: 2436 91bd df14 5d3c ed3a c3bd 8a95 2abc
000002d0: 7498 93bc 10fe 11bd 1f1a 0bbd 8836 c53d
000002e0: b866 22bd 1070 64bd b7eb cbbc d5c9 613c
000002f0: 2a0d 3ebe db45 cbbd 3721 483d 095c 4e3e
00000300: fb01 82bc 87f9 ae3a f6e5 b3bd 6738 0abd
00000310: bed5 a53c ced2 2dbe 8aad c53d 5240 90bd
00000320: f702 e43d b121 cc3d 258b 143d 5a3c dbbd
00000330: d3b8 8bbd ba7f e93d 887c 903b 051d 1f3c
00000340: 32c1 c63d 729e 7a3d 9ff3 d9bd e720 8e3d
00000350: f6df 09bb 7666 333d 8b08 853c 3243 87be
00000360: 201c 793d f3fa e0bc ea0f 19bd 028d dabc
00000370: 240a 423a f2f3 a9bb bb71 88bd e5bd ca3d
00000380: 7774 d1bd aa7d aabd 2039 72bd 9364 06bd
00000390: 031f 883d 4dd6 2fbd 2793 193d 00b2 8ebd
000003a0: bb0f b5bd 61c2 973d 8596 243c 07fb 763e
000003b0: c125 f0bc f43c 0dbd 00c0 febc f931 813d
000003c0: 9eed d33d ab0b 37bd 00e6 ddbc 1e75 e8bd
000003d0: ea52 e73d f6ba f23d 37af 9d3d 356b f0bc
000003e0: e657 1a3c 4f62 c4bd 1e2c c63c 8b25 b7bd
000003f0: 8b41 d6bc a4d5 d9bd 9560 fdbd fb3b 6cbe

encoder_attn.weight f4 [1, 296]
-0.029703608 0.047360484 -0.038838938 -0.02885202 0.013398589 0.042670004 0.013032937 -0.025542451
0.04198252 0.037128635 -0.013064034 0.044212773 -0.026900688 0.051094286 0.025895426 0.025649639
0.024371775 -0.008784927 -0.041605756 -0.016957408 -0.047854386 -0.050703637 -0.00885473 0.031427372
-0.0046147774 0.026166009 0.04671008 0.021754732 -0.030445382 0.05806621 0.034644783 -0.0008999553
0.03737865 0.038101763 -0.0028900765 -0.014352724 0.0075649093 -0.05762883 -0.05283255 0.010810545
-0.024107257 0.0069059758 -0.04782837 0.024823297 0.042338323 -0.040769808 -0.0019970017 -0.029525058
0.0016997441 0.02925083 0.053841814 -0.02601211 0.0033716767 -0.024371456 -0.02888384 0.035128172
-0.021287696 -0.05714467 -0.057842493 -0.03544264 0.052021958 0.034351923 0.019764204 0.04027414
-0.03129379 0.03637458 0.03249495 -0.05039781 0.017525742 0.04090145 0.016246375 0.04789259
-0.027820304 -0.014187302 0.037915997 0.012118372 0.05622565 0.034573052 0.047577847 0.033112507
0.04545502 -0.00094819156 -0.0037892929 -0.02918913 0.012201695 0.051548783 -0.03042441 0.014335847
-0.017459614 0.0056777527 0.017423797 -0.029983131 0.05056385 0.052669212 -0.0122972205 -0.034420114
-0.027780356 0.017565843 -0.03772545 0.057391874 -0.05781558 -0.015006912 0.0216001 -0.04035574
-0.054294527 0.032636836 0.046333555 -0.034492668 0.017346779 0.001045033 -0.015542221 0.03963058
0.025081772 0.015558073 -0.031339623 0.052990895 -0.029288061 0.049850058 -0.05471038 -0.023577295
0.006153959 -0.0475801 -0.050588336 -0.05701776 0.02655784 0.045901824 -0.0075091864 0.008714977
-0.03354722 -0.039474618 0.019412827 0.041722987 -0.047841664 -0.028586702 0.03327832 -0.025678415
-0.018258775 0.015338599 -0.056907378 0.012269591 0.05534536 -0.048940573 -0.014451921 -0.024211211
-0.048382975 -0.007950724 -0.016107706 0.051765148 0.03946933 0.04410881 0.0041911877 0.02595362
0.04517167 -0.043923385 -0.0013833034 -0.0135983 0.055273656 -0.020337941 -0.0051161544 -0.031557016
-0.016463134 -0.044322748 -0.0362864 -0.05148975 0.039294332 0.046883035 -0.036220595 -0.020861339
0.042998336 -0.023400556 -0.007853382 -0.019579297 0.026022265 0.052912842 -0.021831147 0.0041932664
-0.0026024873 0.024352163 -0.0495616 -0.0031763373 -0.03364994 -0.031949952 0.0063978117 0.041618347
0.026185395 -0.033759706 0.0005648088 0.052754145 -0.023665462 -0.03712894 0.05204015 0.007388373
0.012875116 -0.0056631123 -0.013538804 -0.04172345 0.012537642 -0.039597146 0.056401495 -0.0055368217
0.012231333 0.041212525 0.015593165 -0.040802248 0.018599201 0.0055052643 -0.036485787 0.044975992
-0.020899057 -0.023825057 -0.04841486 -0.027976463 -0.009416227 -0.031032737 0.018927412 0.0037730166
-0.00019533967 -0.021830728 -0.0114988 -0.025414431 -0.032441072 0.007532471 0.05662687 0.023442522
0.027653378 -0.011564839 -0.0374614 0.041457236 0.036117148 0.04220689 0.037599217 -0.0071975435
-0.019687029 -0.01242428 0.015080427 0.015680656 0.013330594 -0.016963808 0.046168454 -0.028941857
-0.056104846 0.013429241 -0.0443508 -0.057430543 0.035617236 0.029768039 -0.021301495 -0.016292399
0.01740304 -0.02807816 -0.03598867 0.021901162 0.029350674 -0.033213332 0.023184642 0.034968007
00000000: fb54 f3bc 11fd 413d 9415 1fbd 125b ecbc
00000010: c185 5b3c bec6 2e3d 1a88 553c 673e d1bc
00000020: ddf5 2b3d 3214 183d 880a 56bc 7418 353d
00000030: d55e dcbc 3e48 513d a522 d43c 311f d23c
00000040: 51a7 c73c a8ee 0fbc cc6a 2abd 43ea 8abc
00000050: f602 44bd 9eae 4fbd 6e13 11bc fdb9 003d
00000060: 8f37 97bb 195a d63c 1253 3f3d fb36 b23c
00000070: 9868 f9bc d6d6 6d3d b0e7 0d3d faea 6bba
00000080: 5b1a 193d 9810 1c3d 7067 3dbb b027 6bbc
00000090: 0fe3 f73b 350c 6cbd f266 58bd b61e 313c
000000a0: 957c c5bc 864b e23b aee7 43bd 3a5a cb3c
000000b0: f36a 2d3d 3efe 26bd 21e0 02bb 89de f1bc
000000c0: f3c9 de3a 709f ef3c 3c89 5c3d 5917 d5bc
000000d0: 59f7 5c3b a6a6 c7bc ce9d ecbc 8fe2 0f3d
000000e0: 8963 aebc 8810 6abd 40ec 6cbd 4d2c 11bd
000000f0: fa14 553d 9ab4 0c3d 8ae8 a13c 7ff6 243d
00000100: eb2d 00bd 83fd 143d 6d19 053d ef6d 4ebd
00000110: 2592 8f3c 4788 273d 1e17 853c 052b 443d
00000120: 68e7 e3bc dc71 68bc ce4d 1b3d 238c 463c
00000130: de4c 663d 799c 0d3d fde0 423d fba0 073d
00000140: 0b2f 3a3d 0f90 78ba c955 78bb 0b1e efbc
00000150: 9ee9 473c d124 533d 9d3c f9bc e7e0 6a3c
00000160: 7707 8fbc 710c ba3b 5abc 8e3c 2f9f f5bc
00000170: 0a1c 4f3d acbb 573d 487a 49bc 1bfc 0cbd
00000180: a193 e3bc 3ee6 8f3c 0086 1abd be13 6b3d
00000190: 08d0 6cbd 8ddf 75bc b1f2 b03c 0f4c 25bd
000001a0: f063 5ebd 34ae 053d 41c8 3d3d 2f48 0dbd
000001b0: d51a 8e3c 7df9 883a cda4 7ebc ad53 223d
000001c0: 4a78 cd3c 4ae7 7e3c fa5d 00bd fb0c 593d
000001d0: 84ed efbc 932f 4c3d fe17 60bd 2c25 c1bc
000001e0: 26a7 c93b 5ae3 42bd b735 4fbd 748b 69bd
000001f0: d48f d93c 8d03 3c3d 9f0f f6bb 43c9 0e3c
00000200: cf68 09bd 23b0 21bd a607 9f3c b9e5 2a3d
00000210: 9ff5 43bd a92e eabc d94e 083d 8a5b d2bc
00000220: 6d93 95bc bf4e 7b3c b617 69bd 6506 493c
00000230: d1b1 623d e975 48bd c0c7 6cbc 9756 c6bc
00000240: 3a2d 46bd c143 02bc 4ff4 83bc b107 543d
00000250: 98aa 213d 71ab 343d 3b56 893b b09c d43c
00000260: ee05 393d 02e9 33bd f64f b5ba 67cb 5ebc
00000270: a166 623d c19b a6bc 6aa5 a7bb ee41 01bd
00000280: b2dd 86bc c58b 35bd 0ca1 14bd ebe6 52bd
00000290: 18f3 203d 6d08 403d 0c5c 14bd 66e5 aabc
000002a0: 061f 303d 86b2 bfbc 79ab 00bc c364 a0bc
000002b0: a52c d53c 23bb 583d 3cd7 b2bc ab67 893b
000002c0: 7e8e 2abb 307e c73c 1b01 4bbd 192a 50bb
000002d0: 85d4 09bd f4dd 02bd bca4 d13b 0078 2a3d
000002e0: c182 d63c 9e47 0abd ad0f 143a bb14 583d
000002f0: 12de c1bc 8414 18bd 0d28 553d 2a1a f23b
00000300: 27f2 523c a191 b9bb dcd1 5dbc 35e6 2abd
00000310: af6a 4d3c 9e30 22bd 4105 673d 3a6e b5bb
00000320: ee65 483c 77ce 283d 797a 7f3c 4220 27bd
00000330: 5a5d 983c 8165 b43b 1f72 15bd bf38 383d
00000340: 8034 abbc c42c c3bc a94e 46bd e52e e5bc
00000350: 8546 1abc 5e38 febc a90d 9b3c b744 773b
00000360: 18d4 4cb9 5bd6 b2bc 7665 3cbc ed31 d0bc
00000370: eee0 04bd f2d2 f63b 94f1 673d 880a c03c
00000380: 5689 e23c 737a 3dbc 2071 19bd 10cf 293d
00000390: 93ef 133d 22e1 2c3d a301 1a3d 5fd9 ebbb
000003a0: b146 a1bc 358f 4bbc e513 773c b874 803c
000003b0: 9068 5a3c aff7 8abc 221b 3d3d 7917 edbc
000003c0: 32ce 65bd 5206 5c3c 2fa9 35bd 4a3c 6bbd
000003d0: 61e3 113d 1adc f33c 7980 aebc a377 85bc
000003e0: d290 8e3c 2b04 e6bc db68 13bd 116a b33c
000003f0: d370 f03c b40a 08bd b8ed bd3c 9d3a 0f3d

exp_avg f4 [7, 7]
0.0 0.0 0.0 0.0 0.0 0.0 0.0 0.0
-5.899066e-07 0.0 0.0 0.0 0.0 0.0 0.0 0.0
-2.4612854e-07 0.0 0.0 0.0 0.0 0.0 0.0 0.0
-8.046727e-08 0.0 0.0 0.0 0.0 0.0 0.0 0.0
1.2578634e-07 0.0 0.0 0.0 0.0 0.0 0.0 0.0
-4.5796267e-07 0.0 0.0 0.0 0.0 0.0 0.0 0.0
-4.902271e-08
00000000: 0000 0000 0000 0000 0000 0000 0000 0000
00000010: 0000 0000 0000 0000 0000 0000 0000 0000
00000020: 135a 1eb5 0000 0000 0000 0000 0000 0000
00000030: 0000 0000 0000 0000 0000 0000 0000 0000
00000040: a623 84b4 0000 0000 0000 0000 0000 0000
00000050: 0000 0000 0000 0000 0000 0000 0000 0000
00000060: 59cd acb3 0000 0000 0000 0000 0000 0000
00000070: 0000 0000 0000 0000 0000 0000 0000 0000
00000080: e30f 0734 0000 0000 0000 0000 0000 0000
00000090: 0000 0000 0000 0000 0000 0000 0000 0000
000000a0: e9dd f5b4 0000 0000 0000 0000 0000 0000
000000b0: 0000 0000 0000 0000 0000 0000 0000 0000
000000c0: 0a8d 52b3

exp_avg_sq f4 [7, 7]
0.0 0.0 0.0 0.0 0.0 0.0 0.0 0.0
3.7654935e-11 0.0 0.0 0.0 0.0 0.0 0.0 0.0
3.9820827e-13 0.0 0.0 0.0 0.0 0.0 0.0 0.0
1.9348279e-13 0.0 0.0 0.0 0.0 0.0 0.0 0.0
1.13459365e-13 0.0 0.0 0.0 0.0 0.0 0.0 0.0
5.6537344e-12 0.0 0.0 0.0 0.0 0.0 0.0 0.0
4.760628e-13
00000000: 0000 0000 0000 0000 0000 0000 0000 0000
00000010: 0000 0000 0000 0000 0000 0000 0000 0000
00000020: b09b 252e 0000 0000 0000 0000 0000 0000
00000030: 0000 0000 0000 0000 0000 0000 0000 0000
00000040: dc2b e02a 0000 0000 0000 0000 0000 0000
00000050: 0000 0000 0000 0000 0000 0000 0000 0000
00000060: 9ed7 592a 0000 0000 0000 0000 0000 0000
00000070: 0000 0000 0000 0000 0000 0000 0000 0000
00000080: df7c ff29 0000 0000 0000 0000 0000 0000
00000090: 0000 0000 0000 0000 0000 0000 0000 0000
000000a0: 50ec c62c 0000 0000 0000 0000 0000 0000
000000b0: 0000 0000 0000 0000 0000 0000 0000 0000
000000c0: f1ff 052b

exp_avg f4 [7]
0.0 -5.4682283e-07 -1.958453e-07 -6.125962e-09 6.1106846e-08 -4.573577e-07 -6.974594e-08
00000000: 0000 0000 61c9 12b5 8c49 52b4 887c d2b1
00000010: d839 8333 c38a f5b4 3cc7 95b3

exp_avg_sq f4 [7]
0.0 1.0571936e-11 3.7649587e-13 1.1829678e-13 9.784558e-14 5.6511996e-12 4.738412e-13
00000000: 0000 0000 c4fb 392d c6f2 d32a ba30 052a
00000010: 2354 dc29 7bd5 c62c db5f 052b

exp_avg f4 [128, 7]
1.7339704e-05 2.7692295e-07 -9.758595e-06 -4.0746886e-06 -6.0780513e-07 2.6412683e-06 -5.9505683e-06 0.0
0.0 0.0 0.0 0.0 0.0 0.0 3.2689854e-06 -6.13322e-05
1.8684372e-05 -1.593329e-06 -1.0593256e-05 -5.1545732e-05 -2.2826936e-05 -5.24193e-05 -0.00011609531 -0.0001156808
-0.00012940768 -0.00011498557 -0.00010489292 -0.00017540457 -0.00028906408 -3.026384e-05 -0.0001542782 -7.0676826e-05
-6.454182e-05 -0.000102171354 -6.774749e-05 -2.5953022e-05 -4.5680245e-05 -5.453103e-05 -1.9814916e-05 -2.607345e-05
-4.4631543e-05 -1.648693e-05 -9.941409e-05 0.00020700709 -0.00013667825 -3.3003194e-05 -5.2892233e-06 0.00023075652
-7.293338e-05 0.0 0.0 0.0 0.0 0.0 0.0 0.0
7.2360584e-05 -1.2305575e-05 -5.149895e-05 -3.4598488e-05 -5.3177908e-05 1.9658357e-08 -3.3780045e-05 9.193448e-05
3.181683e-05 8.1687635e-05 1.6036052e-05 3.301468e-05 7.703717e-05 -2.355883e-06 5.8931604e-05 -5.167381e-06
5.17349e-05 1.4987515e-06 1.4424278e-05 2.6202224e-05 -1.2074598e-05 0.0 0.0 0.0
0.0 0.0 0.0 0.0 0.0 0.0 0.0 0.0
0.0 0.0 0.0 0.0004701799 0.0003203028 -0.0002503158 0.000431877 0.00039354543
0.0004290123 0.0004027051 0.0 0.0 0.0 0.0 0.0 0.0
0.0 0.0002615058 0.00020186651 0.0002143912 0.00021950976 0.00020442432 0.00024673739 0.00021628154
-5.5464316e-05 -4.293524e-05 -4.4891658e-05 -2.88533e-05 -3.3628276e-05 -3.061791e-05 -3.1617183e-05 2.8260385e-05
1.855898e-05 -5.9477843e-06 3.391128e-06 9.763997e-06 2.422282e-05 5.8789624e-06 2.8832534e-05 1.1733641e-05
5.5192468e-06 8.874841e-06 1.0339829e-05 1.3768936e-05 4.8472834e-06 7.0713366e-05 6.363806e-05 9.264417e-05
6.0353297e-05 6.573126e-05 7.532512e-05 5.5249726e-05 -0.00011496525 -0.00010549856 -0.00016322201 -9.3139286e-05
-0.00010549856 -0.00015364653 -9.5709984e-05 4.097609e-05 4.2079228e-05 4.812639e-05 3.1445452e-05 3.7427617e-05
3.2533953e-05 3.6184898e-05 -0.0001286484 -6.2720326e-05 -3.5981146e-05 -7.051803e-05 -6.6540066e-05 -3.03716e-05
-8.805882e-05 0.0004325675 0.00027143303 0.00032074976 0.0002819085 0.0002524543 0.00027071344 0.00050223223
0.0 0.0 0.0 0.0 0.0 0.0 0.0 8.429277e-05
4.4720582e-05 1.7180828e-05 4.779387e-05 5.0445797e-05 4.773303e-05 0.00011775828 0.00020147844 -2.1595406e-05
3.0798452e-05 -1.6973085e-05 -1.2211988e-05 4.2533484e-06 -3.0252224e-05 9.960325e-05 9.448366e-05 0.00011050899
7.192063e-05 8.9459005e-05 0.000115596544 6.744906e-05 0.0 0.0 0.0 0.0
0.0 0.0 0.0 9.766863e-05 0.00010364304 0.00013270012 0.00010364304 0.00010364304
0.00012007159 9.766863e-05 0.00021851854 0.00032994678 0.00032833937 0.0003388266 0.00032848676 0.00029848993
0.00034647304 5.0620797e-06 1.2821342e-05 2.1375452e-05 5.24514e-06 7.430378e-06 1.8113766e-05 4.374037e-06
3.88741e-05 4.687228e-05 4.3262684e-05 5.1705363e-05 5.172911e-05 4.744368e-05 5.4979228e-05 5.3477583e-05
0.00013793712 0.00011967975 0.00010260749 0.000104241924 0.00011179963 0.000101764286 6e-45 6e-45
6e-45 6e-45 6e-45 6e-45 6e-45 0.0 0.0 0.0
0.0 0.0 0.0 0.0 0.00022803679 5.842278e-06 0.00010448145 -2.0981211e-05
00000000: bb74 9137 00ac 9434 d9b8 23b7 4fb9 88b6
00000010: 0d28 23b5 a540 3136 feaa c7b6 0000 0000
00000020: 0000 0000 0000 0000 0000 0000 0000 0000
00000030: 0000 0000 0000 0000 be60 5b36 799f 80b8
00000040: 62bc 9c37 5eda d5b5 b0b9 31b7 cf32 58b8
00000050: 797c bfb7 cbdc 5bb8 3278 f3b8 a899 f2b8
00000060: 9cb1 07b9 6824 f1b8 f5f9 dbb8 ceec 37b9
00000070: 868d 97b9 1adf fdb7 bdc5 21b9 5538 94b8
00000080: a05a 87b8 d444 d6b8 a813 8eb8 b1b5 d9b7
00000090: ca98 3fb8 3fb8 64b8 3538 a6b7 4fb8 dab7
000000a0: c132 3bb8 6a4d 8ab7 887c d0b8 0b10 5939
000000b0: 4a51 0fb9 e96c 0ab8 157a b1b6 3bf7 7139
000000c0: cff3 98b8 0000 0000 0000 0000 0000 0000
000000d0: 0000 0000 0000 0000 0000 0000 0000 0000
000000e0: 4bc0 9738 0b74 4eb7 9400 58b8 d81d 11b8
000000f0: 580b 5fb8 2fdd a832 0caf 0db8 f3cc c038
00000100: 1073 0538 b74f ab38 2985 8637 3e79 0a38
00000110: 048f a138 c319 1eb6 542d 7738 7763 adb6
00000120: edfd 5838 b628 c935 cdff 7137 d9cc db37
00000130: 0194 4ab7 0000 0000 0000 0000 0000 0000
00000140: 0000 0000 0000 0000 0000 0000 0000 0000
00000150: 0000 0000 0000 0000 0000 0000 0000 0000
00000160: 0000 0000 0000 0000 0000 0000 7a82 f639
00000170: 50ee a739 d13c 83b9 8d6d e239 c654 ce39
00000180: 0eed e039 2a22 d339 0000 0000 0000 0000
00000190: 0000 0000 0000 0000 0000 0000 0000 0000
000001a0: 0000 0000 b71a 8939 21ac 5339 33ce 6039
000001b0: 342c 6639 bc5a 5639 885c 8139 a2c9 6239
000001c0: 5ba2 68b8 5d15 34b8 0d4a 3cb8 fd09 f2b7
000001d0: 160c 0db8 bb6b 00b8 b19c 04b8 b710 ed37
000001e0: 1baf 9b37 1493 c7b6 2393 6336 0cd0 2337
000001f0: 1c32 cb37 e743 c536 65dd f137 9bdb 4437
00000200: f831 b936 27e5 1437 3a79 2d37 2101 6737
00000210: d9a5 a236 f34b 9438 6c75 8538 f649 c238
00000220: dc23 7d38 34d9 8938 def7 9d38 f1bb 6738
00000230: 8019 f1b8 1c3f ddb8 9326 2bb9 c653 c3b8
00000240: 1c3f ddb8 2d1c 21b9 e8b7 c8b8 bedd 2b38
00000250: 3a7e 3038 51db 4938 4ce4 0338 99fb 1c38
00000260: 1175 0838 3dc5 1738 cbe5 06b9 b888 83b8
00000270: 76ea 16b8 14e3 93b8 6d8b 8bb8 84c6 feb7
00000280: 38ac b8b8 3aca e239 204f 8e39 4e2a a839
00000290: 1ecd 9339 d85b 8439 8bee 8d39 3ca8 033a
000002a0: 0000 0000 0000 0000 0000 0000 0000 0000
000002b0: 0000 0000 0000 0000 0000 0000 56c6 b038
000002c0: 5c92 3b38 8c1f 9037 4776 4838 c395 5338
000002d0: f334 4838 fff4 f638 f543 5339 c827 b5b7
000002e0: 962d 0138 6c61 8eb7 17e2 4cb7 fcb7 8e36
000002f0: 28c6 fdb7 16e2 d038 8725 c638 10c1 e738
00000300: 18d4 9638 f09b bb38 6c6c f238 7073 8d38
00000310: 0000 0000 0000 0000 0000 0000 0000 0000
00000320: 0000 0000 0000 0000 0000 0000 72d3 cc38
00000330: ef5a d938 6b25 0b39 ef5a d938 ef5a d938
00000340: f2ce fb38 72d3 cc38 2022 6539 b5fc ac39
00000350: f724 ac39 89a4 b139 bf38 ac39 a47e 9c39
00000360: d3a6 b539 efda a936 3f1b 5737 6f4f b337
00000370: 69ff af36 7652 f936 04f3 9737 b1c4 9236
00000380: bf0c 2338 ba98 4438 f474 3538 36de 5838
00000390: b5f7 5838 43fe 4638 7f99 6638 1e4d 6038
000003a0: 37a3 1039 94fc fa38 fa2e d738 759c da38
000003b0: f875 ea38 496a d538 0400 0000 0400 0000
000003c0: 0400 0000 0400 0000 0400 0000 0400 0000
000003d0: 0400 0000 0000 0000 0000 0000 0000 0000
000003e0: 0000 0000 0000 0000 0000 0000 0000 0000
000003f0: 291d 6f39 c908 c436 0d1d db38 cf00 b0b7
