weights_new/EncoderEpochnew50_17_8.pt (torch_old, 237353 bytes, 27 tensors)

gamma_x_l.weight f4 [7, 7]
00000000: 2cdc 7b3e 7015 36be 1248 463e e6e8 2d3e
00000010: 2091 88bd 5cb0 c83d 7016 ab3c 4ca9 95bd
00000020: 8d71 81be ee95 8abe 647d fd3d ee8d 393e
00000030: 29f1 b33e 54a5 b7be 943b 87be 40c0 08bd
00000040: 40df 283e 40af cbbd f7e2 b3be 2ac4 583e
00000050: c4c3 8fbd a484 53be 364f 793e a5bd b23e
00000060: a5fb f63e ad03 66be e0e8 3cbc 5121 c03e
00000070: e6ba 593e ca99 473e 00e4 b9bc 94a0 c6bd
00000080: ce41 853e 8de5 98be 5664 723e b0de 70bd
00000090: 0ebe 763e 20c3 f83c 243e bebe c8c7 94be
000000a0: 5c6b c1be 2f5c a63e f8fc c63d 913c 07be
000000b0: 2b04 9dbe 000d 813c 684c 0cbd 06ce 533e
000000c0: 1176 0c3e
0.24595708 -0.17781615 0.1936343 0.16983375 -0.066683054 0.09799263 0.020884722 -0.073076814
-0.25281945 -0.27067512 0.12377432 0.18120548 0.35144928 -0.35868323 -0.26412642 -0.03338647
0.16491413 -0.09945536 -0.35134098 0.2116858 -0.07019761 -0.20656067 0.24346623 0.34910312
0.48238865 -0.2246234 -0.011530131 0.37525418 0.21262702 0.1949226 -0.022691727 -0.096985966
0.26026767 -0.29862633 0.23671088 -0.05880612 0.24095938 0.03036648 -0.37156785 -0.2905867
-0.3777722 0.32492206 0.09716219 -0.13206698 -0.30667242 0.01575327 -0.034252554 0.2068406
0.13716914

gamma_x_l.bias f4 [7]
00000000: 4f04 82be 5656 92be 3eca 9abb 6af6 d43d
00000010: d495 2d3e 4ee1 0c3e 9801 7dbd
-0.25393912 -0.28581494 -0.004723816 0.10398562 0.16951686 0.13757822 -0.061769098

gamma_h_l.weight f4 [64, 7]
00000000: 7c33 50be 6220 a93e 0c79 ae3e ded4 5abd
00000010: 2bc6 6abe dc1d 03bd 0870 9ebe d022 41bd
00000020: 084e 2b3d 9057 e0bd cd30 813e ec07 963d
00000030: 00c4 993d 80fa a4be 6b34 3f3b 2474 a6be
00000040: b52b 883e 4d75 5abe 1a24 72be 6df4 a93e
00000050: 84cf 9a3e 23df b13e 1d6e b03d bc0b 73be
00000060: 6784 93be 51e8 49bd a6cc acbe a58f 3c3d
00000070: 021d 443d 20e3 83bd b3ee 97bd e870 833e
00000080: 9a19 aebe ef2b a2be 1e11 b9bc 9399 693e
00000090: ad4e 8abe 52b5 2ebe 6f04 86be c735 233d
000000a0: 843f ac3e 41e4 a7be d17b 75be f1a8 c33e
000000b0: d967 9abe bb15 a83e 578d 64be 882e 273e
000000c0: d7d4 04bd bf91 94be 2049 943d e37a 063e
000000d0: 85ce 8a3e d300 1e3e 174c a5be 15e2 363e
000000e0: 630f 81be a6ca 8bbe b5c4 c4bb 8d9a 1dbd
000000f0: 40d3 db3d 6231 1e3e 9b30 b83e 3360 c53e
00000100: cebb 9e3b e565 ba3e 8b42 213e a284 9aba
00000110: d88d 87be 6ed9 c93d 4256 58bd 3dd3 0abe
00000120: dc36 4fbe 4496 eb3c 5e3e 6f3e 1771 44be
00000130: 5f87 0cbe 14fc c23e f509 3cbd 7a72 8ebe
00000140: 5d9e 383e 49ba 6d3e 1255 cb3d 247e 5abe
00000150: 4afd 233e 091c 83be c4df 303e dbb5 4d3d
00000160: f5bb ac3e 6dc1 2d3e e4bc 8f3e 8a46 7b3e
00000170: 6bd8 413e c877 3a3e 677a 033e c25c 6bbe
00000180: 081e b83e 61ff a0be c0fe 7fbd 0463 953d
00000190: 8c85 c7bd 3950 31be 5424 0fbe 000a 6a3b
000001a0: 502d 78bd 19f6 593e 16f1 003e e700 b1bd
000001b0: 5374 8dbe a215 d4bd e9af a33e da21 663e
000001c0: 7c12 c5bd f0d3 9ebc 2c5d 5abe aada 38be
000001d0: 0501 48be a265 763e a02c a9be 5159 26be
000001e0: fe9b 823e 7575 953e 50b3 7e3e 00d2 ac3e
000001f0: bbb8 bf3d fcae 793d e1a7 983e c4fe 0dbd
00000200: d963 093e c81b 023e 1289 7bbe 8f11 71bd
00000210: 3c6a c33e a790 993e b8e4 803b 0e63 8c3e
00000220: ec18 8e3e 1786 a6be bf8a e03d 2d55 403e
00000230: af6d 6abe 646b 053e a2c8 a23e 7083 573d
00000240: 92bb 91be 7efb aabe 7446 5b3e c4cc 753e
00000250: 4a39 8b3e d26f 88be 2099 893e ba21 b5be
00000260: eb96 023e 39b9 51be f300 0b3e 0b8f c73e
00000270: 2e76 74be c1f2 a63e 3bba 713e de09 8fbe
00000280: 6250 b7be edb4 313e 09f8 a9bd 37cb bc3d
00000290: 9583 813d a73c 633e b1a5 84be 7242 95bd
000002a0: ed03 dc3e c331 5e3e cc7b 083d 4373 53be
000002b0: e1ab 643d 633e 8f3e 7ee6 ac3e da5a 0cbd
000002c0: 9262 bfbd 9af6 e83d 2934 04be 67ed c53d
000002d0: 81f9 8b3d d485 b23e 420e b53e 42a0 a03e
000002e0: 089d a0be 5403 4bbe 9110 94bd bd88 5a3e
000002f0: 6cec 023e 74cf f13d 6eaf 51be bf53 a83e
00000300: b142 76be 1214 783e 36c1 fbbc 58e8 5d3e
00000310: 4cd9 a1be c5df 6abe fc57 b4bd d06d 90bc
00000320: 0e08 4bbe 311d bbbe d893 c1bd c072 8abb
00000330: 7c3c cc3d 55a2 09be b565 a4be 08fa 44bd
00000340: 82e7 7cbe 50e6 573d f22a 5c3d 271f b7be
00000350: 93bb a93e fad7 6bbe 95f7 8dbe 9933 633e
00000360: 3b28 083e 61a9 a2bd 42c5 2a3d 31be 623a
00000370: 500b b23e 1a9b a83e c7b4 bc3e 875f fabd
00000380: 0b0a cb3e ae69 91be 6df7 1a3e 39cc 8d3e
00000390: c9d9 a73d 56f2 973e 5bd0 4cbe 4987 b03e
000003a0: ace7 6bbe 01b6 bfbd 346f 31be cdd2 033e
000003b0: 663e 96be 4062 76be ad35 d7bc ebdf bc3d
000003c0: 1321 8d3e 05b8 ecbc fd07 dd3d b0a2 95be
000003d0: 82ff cdbc fc1f 72ba 5212 8b3e 8325 bb3e
000003e0: b177 633e 2f30 6dbe b679 b7bd 95f5 5dbd
000003f0: 7771 933d cf52 c73e 2d3f fc3d d3db 6d3e
-0.2033214 0.3303252 0.34076726 -0.053425662 -0.22927158 -0.032010898 -0.30944848 -0.04715234
0.041822463 -0.10954201 0.25232545 0.0732573 0.07508087 -0.32222366 0.002917553 -0.32510483
0.26595846 -0.21333809 -0.23646584 0.33194295 0.30236447 0.34740552 0.086147524 -0.23734945
-0.28811952 -0.04929382 -0.33749884 0.046035428 0.047879227 -0.06439805 -0.07418575 0.25672078
-0.34003907 -0.31674144 -0.02259117 0.2281249 -0.2701315 -0.17061356 -0.26175258 0.039846208
0.3364221 -0.3279133 -0.23973013 0.3821483 -0.30157354 0.3282908 -0.22319542 0.16326344
-0.032429542 -0.29017445 0.0724051 0.13132815 0.27110687 0.15430002 -0.32284614 0.17859681
-0.25207052 -0.27303046 -0.0060048946 -0.03847747 0.10733652 0.15448526 0.35974583 0.38549957
0.0048441654 0.36405864 0.1574804 -0.0011788795 -0.26475406 0.098559245 -0.052816637 -0.13557144
-0.20235771 0.028758176 0.23363635 -0.19183765 -0.13723515 0.38082945 -0.045907933 -0.27821714
0.18029161 0.23215593 0.09928335 -0.21337181 0.16014591 -0.25607327 0.1727286 0.05022226
0.3373715 0.16968317 0.280738 0.24538627 0.18930213 0.18209755 0.12839662 -0.22984603
0.35960412 -0.3144484 -0.062498808 0.07294276 -0.09742269 -0.17315759 -0.13978702 0.0035711527
-0.06059009 0.21285285 0.12591967 -0.0864275 -0.2762781 -0.10355689 0.31970146 0.22473851
-0.09622666 -0.019388169 -0.21324605 -0.18052164 -0.19531639 0.24062207 -0.3304186 -0.16245009
0.25509638 0.29191175 0.2487309 0.33753967 0.093614064 0.060957894 0.2981558 -0.03466679
0.13416995 0.1270591 -0.24564007 -0.058854636 0.38166988 0.29993173 0.0039335154 0.27419323
0.2775339 -0.32524177 0.10963964 0.18782492 -0.22893403 0.13029248 0.31793696 0.052615583
-0.28463417 -0.33394998 0.21413594 0.24003893 0.27192146 -0.26647812 0.26874638 -0.35377294
0.12752883 -0.20480813 0.13574581 0.3897632 -0.23873207 0.32607082 0.23606198 -0.27937216
-0.35803515 0.17354174 -0.08299262 0.09218448 0.063239254 0.22191106 -0.25907663 -0.07288064
0.42971745 0.2169867 0.033321187 -0.20649438 0.05582798 0.27977285 0.33769602 -0.03426633
-0.09344973 0.113751605 -0.12910523 0.096644215 0.068346985 0.34867728 0.3536244 0.31372267
-0.31369805 -0.19825488 -0.07229722 0.21341224 0.127855 0.11807147 -0.20477077 0.32876393
-0.24048878 0.24226406 -0.030731779 0.21670663 -0.31611097 -0.22936924 -0.08805844 -0.017630488
-0.19827291 -0.3654571 -0.09452027 -0.004225105 0.09972474 -0.13440831 -0.32108846 -0.04809001
-0.24697688 0.052709877 0.053751893 -0.35765955 0.3315092 -0.23031607 -0.27727953 0.22187652
0.13296597 -0.07942463 0.041692026 0.00086495565 0.34774256 0.32930833 0.36856672 -0.12225252
0.396561 -0.2840094 0.15133448 0.27694872 0.08195836 0.29677075 -0.20001356 0.34478214
-0.23037595 -0.09360886 -0.17327577 0.12873383 -0.2934448 -0.24060917 -0.026270712 0.092223965
0.27564296 -0.028896341 0.10792539 -0.29225683 -0.02514625 -0.00092363334 0.27162415 0.36552057
0.22213627 -0.23162912 -0.089587614 -0.054189283 0.07199376 0.38930365 0.12316737 0.23228388

gamma_h_l.bias f4 [64]
00000000: ae68 8b3d ca7a b8be f1f5 8e3e 2976 b6be
00000010: 9861 b8be d510 8cbe f170 d73c 3ae6 853d
00000020: 0f92 74bd 72b0 9dbe 6199 2b3e 886d 273e
00000030: 1b62 3fbe 913f d3bd e999 26be 701d bd3e
00000040: 9cf1 7d3e 6d49 9ebe 6dae 4f3e a5a0 97be
00000050: a43f c53e 790a 663e 23fc 77be e92a 0fbe
00000060: 1914 9dbe 1d11 82be 77ec 0fbe ca4a a8bd
00000070: 1d85 9b3e 2fb3 bf3e f6aa fb3d 4c35 993e
00000080: 1f08 48be 8031 b8be ae98 65bc aa76 9bbe
00000090: 4124 9f3e defa 563e 0ac8 cf3e cfd9 12bd
000000a0: df52 133e 14f1 5b3e c2b7 22bd c4a5 a83d
000000b0: 8f7b a23e 40ce 8cbe 43d9 ae3e cfb7 cbbd
000000c0: 5569 4cbe a3b2 393d 78c4 89be 8cad c0bc
000000d0: cf38 0f3e 88f7 ad3e 0f41 6c3d 60e9 8b3e
000000e0: 4764 b9bd 511d 4bbe b5b6 18be 40fd a63e
000000f0: 4de0 8fbe 8fee 88bd 18e0 bf3e d147 583e
0.068070754 -0.3603118 0.27922013 -0.35637024 -0.36011958 -0.27356592 0.026298972 0.06538053
-0.059709605 -0.3079868 0.16757728 0.16350377 -0.18689768 -0.10314859 -0.1626965 0.36936522
0.24799198 -0.30915394 0.20281382 -0.2961475 0.38525116 0.22464933 -0.24217276 -0.13981213
-0.30679396 -0.2540368 -0.14055048 -0.0821739 0.30374995 0.37441394 0.122884676 0.29923475
-0.19534348 -0.35975266 -0.014013452 -0.3036397 0.31082347 0.20994136 0.40582305 -0.03585225
0.14387082 0.21478683 -0.039726026 0.08234742 0.31734893 -0.27501106 0.34150133 -0.09947168
-0.19962056 0.045336377 -0.26907706 -0.023520254 0.13986515 0.33977914 0.057679232 0.27326488
-0.090523295 -0.19835402 -0.14913447 0.3261509 -0.28100815 -0.066861264 0.37475657 0.21121146

encoder_lstm.weight_ih_l0 f4 [256, 7]
00000000: b7db ff3c 4db1 333d 7ba9 d9bd 9a32 dabd
00000010: d1b3 733d c849 463d 6b9d 313c 45e7 f83d
00000020: fb0e eabd 97e6 59bb 3bf1 13bd cf77 bb3d
00000030: 71e8 753d 01c1 6bbc ddf1 883d 5755 aabd
00000040: 02a7 f9bd 2c5e 873d 3a01 c73c c3ac afbd
00000050: 78ea 503d ead6 863d 1429 3f3d fa12 d2bd
00000060: 166d 01bd f167 86bd 54cc acbd 33f5 423d
00000070: 6358 b63d 878c a8bd f6d0 cc3a 47b2 9cbc
00000080: 9bfd 0abe 7f24 d53d 1983 b4bd 7482 8d3d
00000090: 9b48 1cbd 7386 e43c 4dc1 8f3d 76fc a43d
000000a0: 0dac a2bd 964d b3bd ed5b a53c 146f 55bd
000000b0: e899 c7bc 56f8 1c3d d2b9 133d ae3b 1dbd
000000c0: 9cf7 a6bd 5966 2dbd 195f 8a3d 7bb8 873d
000000d0: 4981 683d e653 27bd 3389 6dbc c9bd cb3d
000000e0: 19e8 593e 630d 773e 92be 5f3e 27eb 06bd
000000f0: c055 183e d254 a93e fce4 353e df4c 023e
00000100: 1543 103d 895b 59bd f2a1 77be 6a16 563e
00000110: f91a 633e e633 9f3b 72fe 6d3d 8b03 aabd
00000120: a9b8 debc 1aaf c5bd 0da0 d03b a502 c8bd
00000130: 110d d5bd 3817 073e c7c2 f63d 978b 08bd
00000140: 8a0b 85bc 4e06 2e3e 9905 033e 177b 423d
00000150: 547a c5bd 19bc 98bd 5a2c 0ebe e262 4b3e
00000160: 28fd b9bd 1c69 26bc 6169 a3bd 9a4e 4e3e
00000170: 4fce aa3c 3034 413c c2fc b63e 0bfe 3a3e
00000180: 617b 043e 00b1 e23b a14f d63d 0058 1b3d
00000190: d280 c0bd 25f6 063e 8498 1a3d bcb6 febd
000001a0: 181c 923d a8db 703c e01c 60bd 460d a0bd
000001b0: 5af7 31bd ade8 143d 3cf8 313e 106e 283e
000001c0: b255 473e 3cea 913d 3c27 213e f60f 83be
000001d0: d8b2 0d3e 7a04 653e 48f0 fb3d 66a6 9c3d
000001e0: 3297 023e c697 e9bd 1a22 e9bd 9f0b 6e3d
000001f0: 2d00 49bd 5a8d 1f3e 12c6 b6bd 2cea 15bd
00000200: cf4d 993d 02b5 9e3d 8bce 87bd a59c edbc
00000210: 0589 dc3d 2262 4b3e 808c 233c 749b fc3d
00000220: cbc8 ebbd 7608 243d bf7b 6d3e 2e93 d23c
00000230: 8f57 8bbc 7c89 17bc aea5 0b3e e6c5 db3c
00000240: 8bf4 e6bc 9a50 8bbd 55cb 77bd 82e6 cb3d
00000250: a67b 6dbd 38eb 88bd 5c3f 56bd 99b2 473c
00000260: 972a c8bb 3457 3a3e 0474 d43c 6312 dcbd
00000270: dec1 7b3b 8079 473e 9962 48be efef 4cbe
00000280: 15d7 36be 2224 03be d273 fbbb f261 31bb
00000290: 0bbd 4c3d 7016 59bd e860 32bd cb55 e5bd
000002a0: b0eb 993e 85ce b63d d8b4 073e 884f 44be
000002b0: a3f3 f43d 0f22 f73d a056 943d bddd 323e
000002c0: 9d27 5d3d 36f1 e03d 9ff3 61bd aa91 983d
000002d0: b675 5a3e 20c1 b8bb 287f 0dbd e212 8e3d
000002e0: 5965 0fbe d2f1 223e b8c5 d0bd 6e91 26be
000002f0: b17b 0fbd fb09 013e 96df 3f3d 1a31 013e
00000300: f0aa 06be bf81 e13c 1355 b03b 839c 083e
00000310: 183d 9ebd 1ac9 8dbd 0dba 68bd 6d96 983d
00000320: 6b29 e83d ed6e 7bbc 95c5 073d 3e78 c63d
00000330: 53fe f43d a27d b73c 8cc5 cc3b 4164 c53d
00000340: 8de8 9a3d f0cc a73d b155 433e 97a8 d03d
00000350: 0c22 b9bc 7e86 c3bd 7d1b 1e3e fea6 e83d
00000360: f1d0 d73d c3bc d43d 2a71 07bc dd3e 84bd
00000370: 5048 45be c0df 6fbc 65d4 193e 8b13 853c
00000380: 58d3 debc fde7 dc3d 3c8c 0439 ef52 b4bd
00000390: 9a01 063d 0dd2 a7bc db66 fc3d 28bd e23b
000003a0: 1f1c f3bc a515 cfbd 3f75 a03c fa5f 97bd
000003b0: 621c e4bd 2cf6 233d 719b b33d c97e 27bd
000003c0: 2d7b db3d 5be4 51be 3540 003e beb1 76bd
000003d0: f501 1a3e d67b 7e3c 4bc2 e13d 1b42 c23d
000003e0: 5129 cebd 5a52 e53c d550 88bd 815f 0dbe
000003f0: 4587 8e3e 8dce 54bd 6d6f 973d 7425 6abe
0.031232698 0.04387026 -0.10628029 -0.10654183 0.05949766 0.048410207 0.010840754 0.12153486
-0.114286385 -0.0033249015 -0.036118727 0.09153711 0.060036127 -0.014389277 0.06686757 -0.083170585
-0.12190057 0.06609759 0.024292577 -0.085778736 0.051004857 0.0658396 0.046670035 -0.10257526
-0.031598173 -0.06562794 -0.0843741 0.04759712 0.08903577 -0.082299285 0.001562624 -0.019127978
-0.13573305 0.10407352 -0.088140674 0.069096476 -0.03815518 0.027896142 0.07019291 0.080559656
-0.07942972 -0.08755033 0.020185435 -0.052107885 -0.02436538 0.03832277 0.036065884 -0.038386993
-0.081526965 -0.042333934 0.0675642 0.06626984 0.05676392 -0.040851496 -0.014498043 0.09948308
0.21279944 0.241262 0.2185004 -0.032939103 0.14876461 0.33072525 0.17763132 0.12724636
0.035220224 -0.05306581 -0.24182871 0.20906988 0.22178258 0.0048584817 0.058103986 -0.08301457
-0.027187662 -0.096525386 0.006366736 -0.097661294 -0.10402883 0.13192451 0.120488696 -0.03333625
-0.016240854 0.16994593 0.12795104 0.04748067 -0.09642473 -0.07457752 -0.13884106 0.1986194
-0.09081489 -0.010156896 -0.07979084 0.20147172 0.020850329 0.011792228 0.35739714 0.18260972
0.1293769 0.0069180727 0.10464407 0.03792572 -0.093995705 0.13179834 0.037743106 -0.124371976
0.07134265 0.014700808 -0.054715037 -0.07815032 -0.043448783 0.03635471 0.1737985 0.16448236
0.19466284 0.07124755 0.15737623 -0.25598115 0.13837755 0.22364989 0.123016894 0.076489255
0.12752989 -0.114059016 -0.113834575 0.05811655 -0.049072433 0.15581265 -0.08924498 -0.036600277
0.07485544 0.07749368 -0.06631192 -0.029005358 0.10768322 0.19861653 0.009982228 0.12334338
-0.115129076 0.04004713 0.23191737 0.025704946 -0.017009525 -0.009249087 0.1363742 0.026827764
-0.028192779 -0.06802483 -0.060496647 0.09956075 -0.05797925 -0.066854894 -0.052306518 0.012188577
-0.0061085927 0.18197328 0.025934227 -0.107456945 0.0038415114 0.19479942 -0.19568862 -0.20013402
-0.17855485 -0.12806752 -0.007673719 -0.0027066437 0.049984973 -0.052999914 -0.04354945 -0.11198004
0.30062628 0.08926109 0.1325258 -0.19170964 0.119605325 0.12067043 0.07243085 0.17467399
0.053992856 0.10983507 -0.055163976 0.07449658 0.21333966 -0.0056382567 -0.034545094 0.06937195
-0.14003505 0.1591256 -0.10193962 -0.16266415 -0.03503007 0.12601463 0.046844088 0.12616387
-0.13151145 0.027527688 0.0053812354 0.13340954 -0.077264965 -0.06923123 -0.056818057 0.074505664
0.11336025 -0.015346271 0.033147413 0.09690903 0.11962571 0.022398774 0.0062491354 0.096382625
0.07563887 0.081933856 0.19075657 0.10188406 -0.022599243 -0.09547137 0.15440173 0.11359976
0.10537899 0.10387566 -0.0082667265 -0.06457303 -0.19265866 -0.0146407485 0.15022428 0.01624467
-0.027200386 0.10786436 0.00012640742 -0.08804881 0.03271637 -0.020485902 0.123243056 0.006919522
-0.029676495 -0.1011155 0.019587157 -0.07391353 -0.11138226 0.04002969 0.087698825 -0.040892396
0.10716853 -0.20497267 0.12524493 -0.060228102 0.15039809 0.0155324545 0.110233866 0.09485265
-0.10066474 0.02799337 -0.066560425 -0.13805963 0.27837577 -0.051954795 0.073943 -0.2286585

encoder_lstm.weight_hh_l0 f4 [256, 64]
00000000: b84b 90bd 7531 2c3d 91c8 6b3c 32a1 ec3d
00000010: f899 fa3a 2a8c 303d ff3c b9bd 7bba 2c3d
00000020: 742e b3bc a958 94bc 5aca e43d 02f2 9f3d
00000030: d1b4 ec3d 2db3 ce3d 4970 62bd 3584 943c
00000040: 347e 8abd ffb8 f8bc f35a 1ebd 0fff acbd
00000050: 7d9b 37bd f240 5c3d c662 983d 4bec 833d
00000060: af41 b8bb d559 ce3c 1b4b 27bd a222 02be
00000070: 3ce3 043e aede 74bd 83c4 b33d d8fe 643d
00000080: 2461 e63d bab9 163d 47f6 83bd f007 6ebb
00000090: bfe0 fc3d 4724 103d 8f0a d1bd e9ec 943d
000000a0: e2d9 953d c58c c4ba 3a95 633c 0177 35bd
000000b0: b1f7 b53d b3e0 72bd 41aa 79bd b63a 08bd
000000c0: 6791 96bd 7f37 93ba 6d2a c5bd 6ecb 8dbd
000000d0: 169c ac3d 21a6 d2bb 21ae 823d 787d d23d
000000e0: 934c d73d cccd e8bd ef58 6eba fc5b 033e
000000f0: 89be ec3d c89f e63d fc23 f0bd 755f c43d
00000100: 5147 e53d 7b79 a7bd debf f0bd 9ae8 2c3c
00000110: 7baa 35bd 5c59 0a3e 54b3 c93d 6768 3dbd
00000120: 4bbf 33bd 4079 a9bd c619 8c3c 5adc 023e
00000130: 97a1 8c3d 7f2a f9bd 9f0c 90bd ea2a efbd
00000140: 4203 853d 52b7 98bd d1fb f6bc 6990 4dbd
00000150: 428c bbbd b7cf 273d b038 b9bd a476 c8bc
00000160: 74b9 5d3d 9ddb a23c 6e8a 16bd b0f1 96bc
00000170: 40df 98bd 8ad0 c53c 1e1d 2e3d d7be 9cbd
00000180: ebd0 b3bc f465 9c3d c25c be3c 578d 053d
00000190: 4128 95bc d17f 0b3c 3a79 ffbd 186a a1bd
000001a0: f49e 6ebc 0976 b13d aaa5 afbd 6982 a63d
000001b0: b316 2ebd c4f9 613d a688 8d3d 2fe1 cf3d
000001c0: fbe9 a8bd 3249 de3d b781 3dbd be5a 0e3d
000001d0: cd77 0abe cbbb afbd f6c7 aa3d 51dd ef3c
000001e0: 11ea 973d 12ff 0fbd 33a4 063e 2cce 3bbd
000001f0: 55c3 7f3d be30 9bbd df15 b7bb 5ac4 253d
00000200: d9ac b13d 7a10 d53d ec2c 02be b049 873d
00000210: 5e96 653c 6dbf f23b 9c84 84bd 4782 523d
00000220: e55f 1c3e fbf7 173d 9089 9dbd 28ea 69bd
00000230: 7683 16bc 2e6f c13d ef49 ee3c 3772 25bd
00000240: 8b31 a2bd 310f dbbd 6231 e73b 02cb be3d
00000250: cc6d 0b3d a453 253c 0220 fa3d 8432 3dbd
00000260: b963 97bc 1eac 48bd c31f 3bbc 71fe a03d
00000270: 7c8c b4ba 4bd5 bebc 4b8e 363c 7669 98bd
00000280: d36b aabd 0454 9c3c a06a d3bd 5c9a 5d3c
00000290: f398 ecbd 7f3e b0bd 4a70 8c3c 6581 033e
000002a0: 1a93 293e 3b2e 963d 8d0a 6a3d d4a8 b8bd
000002b0: ba24 d6bd 7eaf ed3d 3ad8 de3d 52db e0bc
000002c0: dfe9 2d3d 9ff3 d9bd e015 eebd 19ff 53bd
000002d0: d3ba 15bc 7266 be3b 2517 d6bd 87b0 0abe
000002e0: 6b3d f33d 4314 703d 7b63 743c 3993 1dbd
000002f0: ef85 903d c302 87bd ed04 d5bd 3516 33bd
00000300: 7dd6 cb3d cc17 5bbd db6b 123d 26af 81bd
00000310: 7baa a33d 8d64 823c 6afd fabc 46de 3d3d
00000320: 839f a6bd 9af5 f13b c8be 463d ec3b b9bd
00000330: 5ecf 0b3e bc63 73bd deda 973c 3ba8 503d
00000340: 2ec5 4dbd 7450 003e ad1f 793c e1d9 d6bd
00000350: 968b a5bd 751b debb 6825 ef3d 1aa1 66bd
00000360: b836 af3d 23b9 523c b6df c83d bea7 d73c
00000370: 02d2 89bd 6fd7 873d 5091 213d 8a1d 82bd
00000380: 7fba 0dbe ec50 583d a298 b83d c92f 99bd
00000390: 852a 41bc 0067 f53d bf8e a8bd 6960 373d
000003a0: 6ecb 0b3d fdf0 10be c63a 42bd f687 adbd
000003b0: 2a2d ba3d 652c 0b3d c9f5 913d c60f fe3d
000003c0: 76cf 713d a974 e73c 6205 aebd d6df d83d
000003d0: 6f68 32bd 56a1 5a3d 1494 efbb e6e7 8d3d
000003e0: 2821 a8bc 6fa5 f13c 5806 93bd 3413 94bd
000003f0: 886d 7f3d 641a bc3d 07af a23d c78c a23d
-0.07045692 0.042039353 0.0143910805 0.11554183 0.0019119373 0.04310242 -0.09044837 0.04217003
-0.021872737 -0.018108683 0.11171408 0.07809831 0.115579255 0.10092769 -0.055282865 0.018129447
-0.067623526 -0.03036165 -0.038660955 -0.08447086 -0.04482602 0.053772874 0.074407145 0.06441554
-0.0056230645 0.02518932 -0.04084311 -0.12708524 0.12977308 -0.059782676 0.08777716 0.0559071
0.11248997 0.036798216 -0.06443458 -0.003632065 0.123475544 0.035190847 -0.10207092 0.072717495
0.073169485 -0.0014995566 0.013890559 -0.044302944 0.08885134 -0.05929632 -0.060953382 -0.033259116
-0.07351952 -0.0011231749 -0.09627233 -0.06923567 0.084282085 -0.0064284955 0.06380869 0.102778375
0.10512652 -0.11367378 -0.00090922316 0.12828058 0.11559779 0.112609446 -0.117256135 0.095885195
0.11195243 -0.081774674 -0.11755346 0.010553503 -0.044352036 0.1351065 0.09848657 -0.046242144
-0.043883603 -0.0827508 0.017102133 0.1277937 0.06866758 -0.121663086 -0.07033657 -0.11678107
0.06494762 -0.074568406 -0.030149372 -0.05018655 -0.091576114 0.040969577 -0.090440154 -0.024470635
0.05413194 0.01988011 -0.03675311 -0.018425792 -0.074644566 0.02414729 0.042508237 -0.07653587
-0.021950206 0.076366335 0.02323759 0.032605495 -0.018207671 0.0085143605 -0.12474294 -0.07881564
-0.014564265 0.086650915 -0.0857652 0.081303425 -0.042502116 0.055169836 0.06910829 0.10150372
-0.08247753 0.10853805 -0.046266284 0.034754507 -0.13522263 -0.085807405 0.08338921 0.029280337
0.074176915 -0.035155363 0.13148575 -0.045850918 0.062442143 -0.07577656 -0.005587324 0.04047046
0.08675546 0.10403533 -0.12712449 0.06605852 0.014012901 0.0074080736 -0.06470606 0.051393773
0.15270956 0.037101727 -0.076922536 -0.057108074 -0.009186616 0.09445034 0.029087989 -0.040392127
-0.07919606 -0.10696257 0.0070554474 0.093160644 0.034040257 0.010090742 0.12213136 -0.046190754
-0.018480169 -0.04899227 -0.011421147 0.07861031 -0.0013774778 -0.023295065 0.011142324 -0.0744199
-0.08321347 0.01908303 -0.103230715 0.013525572 -0.1155261 -0.0860567 0.017143387 0.12842329
0.16560021 0.073330365 0.05713897 -0.090165764 -0.10456224 0.11605738 0.10881086 -0.02744833
0.042459365 -0.1064217 -0.11625266 -0.051756952 -0.009138781 0.0058105523 -0.10453633 -0.13543902
0.11876949 0.058613073 0.014916296 -0.03847048 0.07056796 -0.06592324 -0.1040133 -0.04372235
0.0995302 -0.05348949 0.03574739 -0.06332235 0.07991501 0.015917087 -0.030638415 0.046354555
-0.08135893 0.0073840143 0.048521787 -0.09044632 0.13653323 -0.059421286 0.018536981 0.050941687
-0.050236873 0.1253069 0.015205306 -0.10490776 -0.080832645 -0.0067781755 0.116770566 -0.056305982
0.08555359 0.012861523 0.098082945 0.026325103 -0.06729509 0.066328876 0.03944522 -0.063532904
-0.13840674 0.052811548 0.090134874 -0.074798174 -0.011789923 0.11982536 -0.08230352 0.04476968
0.034129553 -0.1415443 -0.047419332 -0.08473198 0.090906456 0.033977885 0.07126958 0.12405352
0.05903574 0.02825387 -0.084971204 0.10589568 -0.043556627 0.05337652 -0.0073113535 0.06928997
-0.020523623 0.02949783 -0.07178944 -0.07230225 0.062360317 0.09184721 0.0794354 0.079370074

encoder_lstm.bias_ih_l0 f4 [256]
00000000: 1ceb 023e bd12 8dbd 23f9 90bc 63ec adbd
00000010: ede6 d23a 87f7 d7b9 43b9 cdbd 032d 74bc
00000020: 02aa 8e3d 3e40 80bc 167c d73b 7d18 a2bb
00000030: e4ae 1b3d 2d75 d03d 2e60 bdbd 2055 c0bd
00000040: 2254 df3b 815a cf3d 9813 c43d 849e 14be
00000050: 9564 fbbc 9a4c 073e 3d50 c93d 463f e83d
00000060: 8e2f e33d b3ef 083d 0f1d 89bc 68b2 a93c
00000070: ffb7 ad3c 619b 90bc 307c 14bd a497 84bd
00000080: a105 823c 6803 17be d170 b8bd 9880 50bd
00000090: 813d 6f3c e041 ae3d 9843 053e ddc7 76b9
000000a0: dd0f c0bd d910 a9bd 2573 9e3c 3c58 14bd
000000b0: dab0 02bd b65b aabc 9f13 853c bfac 2d3d
000000c0: 5d35 87bd 5b59 6fbd d404 d6bd 3983 f6bd
000000d0: c6a9 fdbd 4a3b 463b 446d efbd 6c0d ad3b
000000e0: 7dfe 76bd a8f8 003d 80aa c7bd 28cb a9bd
000000f0: 9976 033d f1b3 0a3d 6cab cc3d 755e 373d
00000100: b81f 98bd 57d2 4cbd 42d3 ebbd ea0c b3bd
00000110: 5fb0 3a3d 91cd 55bd 75f3 bd3c b80d 5bbd
00000120: afec dcbd f5dd de3d 9abb 1fbd 4d9b ba3c
00000130: f27e b6bd 1881 65bd fa51 c9bd 3d40 c6bd
00000140: 340b 63bd 212f ae3d 1c42 ef3b 5c1c 7bbc
00000150: 4f98 aabd 1ac8 babc c15e f0bd 600e f9bd
00000160: bfb7 e83d 3920 9dbc 6e5c 673d 9a46 e53c
00000170: 80c8 133d 8069 7c3c 21b6 15bd fceb a0bb
00000180: 47a9 9bbd b6bc 25be 9689 5f3d 4f8a 44bd
00000190: 0bcf b3bd 2c95 2abd 9d0b 86bd a1a7 3ebc
000001a0: 4c9c e0bd de97 8d3d 697f cd3d 06b5 9d3c
000001b0: da41 a13d 0dd2 d5bc 5685 2a3c 4d42 6abc
000001c0: b780 d53d 9e2b 87bd b453 a7bd 9cae ec3b
000001d0: fb80 5f3d bab4 e73d 7874 de3d b7a5 753a
000001e0: 0a08 6fbd 7385 e63d c1b2 e53c d865 793d
000001f0: 9ced b43d ff9f f3bd cb36 fa3c 1f8f 853d
00000200: fc13 debd d912 0f3d 7e14 bc3d db95 c0bd
00000210: 1303 df3d 0305 25bc b2ba 333d 546b e1bc
00000220: cc72 57bd a8ca 6cbc 9ad3 163d 45b1 cf3a
00000230: 2111 b4bd 8f02 c0bd bfa0 99bb 1144 583c
00000240: d017 ac3c b2db b3bd b76f d4bd 93c6 35bd
00000250: fd86 633c 8ef7 933d d214 dd3c 0000 f9bc
00000260: 1a8d 083d 3b2e 32bc bc09 8a3d 13a2 a3bd
00000270: 8673 50bd 7eba 983d 3552 e9bb e197 9a3d
00000280: 1033 923d 4361 e1bb 88f3 6d3d 7f6d 18bd
00000290: 4f36 fd3c c31a c9bd 8e29 073e 32b8 ba3c
000002a0: 92a0 29bd b463 013e c438 ddbd 343d a83d
000002b0: abfc 833d 8797 0cbd 3422 f13c 66b4 d1bd
000002c0: d6f1 65bd db3a 44bd afe1 8b3d 6f08 b93c
000002d0: e63e 9abd 48b8 c5bd 30bc c6bd ec18 873d
000002e0: 2470 65bc 44a3 33bd 3c5e 9cbd 2c5e 6dbd
000002f0: b3d5 9b3d fd66 c8bd 6541 a8bd 5c08 27bd
00000300: c9f6 12bc 29fc cabb 1708 53bd 209a 0d3d
00000310: 9d55 123c 6fe8 fd3b fb61 5a3c d650 013d
00000320: 4ba3 f4bb ac33 983c 6cea 15be 0684 c4bb
00000330: 67cc 46ba 153a 753c 65ac ffbc ab2a 5b3d
00000340: 352f 363d 0081 a73d d877 f53c 2cb0 9f39
00000350: 4f19 d93b e570 58bb f487 8c3d 10dd ff3d
00000360: 722f 4cbd 8ca3 343d e0e1 7c3d e510 43bc
00000370: 8250 aabc 4bf1 163d 8b18 f3bd f67b 4e3d
00000380: 286a 063d 46a3 41bd 456e 2fbd 0440 e43d
00000390: 02df cb3d 2d9b 13bd b59e d0bd f013 69bd
000003a0: f9df ca3d 9b34 513d 4aba c2bd 83bc 79bd
000003b0: 1b00 30bd 915b 4e3d 84b9 353c e93f bebc
000003c0: ca48 8bbd 55ca 85bd 49c3 303d d9e8 bf3d
000003d0: 4a6e b1bc b109 953d 76ab e63c 7a2e bd3d
000003e0: 7caa 22bd 5a1c a83c efb1 00bd 5565 b43c
000003f0: 217e 6d3c db9f 9bbd 7bcd c03d a132 c23d
0.12785 -0.0688834 -0.017696923 -0.08492353 0.001609055 -0.00041192418 -0.100451015 -0.01490331
0.0696602 -0.015655633 0.0065760715 -0.004946767 0.038008586 0.101785995 -0.092468604 -0.09391236
0.0068154493 0.10124684 0.0957405 -0.14513594 -0.03068761 0.13212815 0.09829757 0.113401935
0.11093055 0.03343172 -0.016737489 0.020714954 0.0212059 -0.017652215 -0.036251247 -0.06474236
0.015871825 -0.14747393 -0.09005893 -0.050903887 0.014602066 0.085086584 0.13014066 -0.00023534843
-0.09378026 -0.082551666 0.019342015 -0.03621696 -0.03190694 -0.020795684 0.016244708 0.04240107
-0.06601975 -0.058434825 -0.1045014 -0.120367475 -0.12385897 0.0030247741 -0.11690763 0.005281141
-0.060301293 0.031487137 -0.09749317 -0.08290702 0.032095525 0.03386301 0.09993634 0.044767816
-0.07427925 -0.050005283 -0.115149036 -0.087426975 0.045578357 -0.052197997 0.023187378 -0.05347988
-0.10787331 0.10882179 -0.03899727 0.022779131 -0.08910932 -0.056031317 -0.09830089 -0.09680221
-0.055430606 0.08505083 0.007301582 -0.015326586 -0.08329832 -0.022800494 -0.11736823 -0.12160945
0.11363172 -0.019180404 0.056484632 0.027987767 0.036079884 0.015406013 -0.036550645 -0.004910944
-0.076006465 -0.16185269 0.05457457 -0.047983464 -0.08779725 -0.041646168 -0.06545184 -0.0116366455
-0.10967311 0.06913732 0.10034067 0.019251358 0.07873888 -0.026101137 0.010407766 -0.014298034
0.10424941 -0.06600116 -0.08170262 0.0072229635 0.054566365 0.11313768 0.108620584 0.0009370702
-0.058357276 0.11255922 0.028039338 0.06088814 0.08834383 -0.11895751 0.030543705 0.06521439
-0.108436555 0.034930084 0.09183596 -0.09403583 0.10889258 -0.010071996 0.04387922 -0.027516998
-0.052599713 -0.014452614 0.036822893 0.0015845677 -0.087923296 -0.09375488 -0.004688352 0.013199822
0.021007448 -0.08782138 -0.103728704 -0.04437883 0.013887164 0.07224952 0.026987467 -0.030395508
0.03333769 -0.01087528 0.06740138 -0.079898976 -0.05089142 0.074574456 -0.0071203955 0.075485
0.07138646 -0.0068780496 0.058093578 -0.0372138 0.030909685 -0.098195575 0.13199446 0.02279291
-0.041412897 0.1263569 -0.10801843 0.082147986 0.06444677 -0.034324195 0.029435255 -0.102394864
-0.056138836 -0.04790769 0.06830155 0.02258703 -0.07531528 -0.096542895 -0.09703863 0.0659655
-0.014003787 -0.043856874 -0.07635161 -0.057951137 0.07609119 -0.097852685 -0.08215598 -0.040779456
-0.008969971 -0.0061946106 -0.051521387 0.034570813 0.008931545 0.0077486555 0.013329024 0.03157123
-0.007465755 0.018579327 -0.14640206 -0.0059971837 -0.0007583559 0.014967461 -0.031210134 0.05350749
0.044478614 0.08178902 0.029964373 0.00030458102 0.0066253315 -0.0033026275 0.068618685 0.12493336
-0.049849935 0.044101283 0.06173885 -0.011905883 -0.020790342 0.03685121 -0.118699156 0.050411187
0.032816082 -0.04727485 -0.04282977 0.111450225 0.09954645 -0.03603666 -0.10186521 -0.05690378
0.09906001 0.05107556 -0.09508188 -0.060970794 -0.04296885 0.050380293 0.011091594 -0.023223834
-0.06800993 -0.065327324 0.04315499 0.09370584 -0.021659035 0.07277239 0.02815793 0.0923738
-0.039713368 0.020521332 -0.03141969 0.022020975 0.0144954035 -0.075988494 0.09414192 0.09482313

encoder_lstm.bias_hh_l0 f4 [256]
00000000: d14f d7bd fbd7 0ebe 3ad4 d7bd 63cd edbd
00000010: 6fbe 063d 8f89 03be 90a9 81bd 2f51 0bbe
00000020: 59fe be3d a9b0 2abc 256e ebbd 5251 a83d
00000030: 4465 873c 7fba 1f3e a49f f53c 00f6 ae3d
00000040: ebb0 ccbd a06e 533d e239 e3bd d080 5abd
00000050: d309 993c bd52 9e3d 0717 c53d 21ed 34bc
00000060: 7795 2cbc ebca 95bd 6d45 f1bd 1efb 31bb
00000070: 654f 423c 538a b93d 89e7 2cbd b3e2 0c3c
00000080: a159 7b3d 7051 52bc b519 b6bd bbf6 a83d
00000090: 36aa d9bc 19ae 883d 9bdd a03c beac 6dbd
000000a0: 24db a63d 9c24 2a3d bf82 503c 2df7 c63c
000000b0: 2e01 283e 147a 72bd 7a4b f9bd 8955 63bd
000000c0: 6b37 a93d 11ff 82bd 1c85 bc3c 331e 08be
000000d0: d264 7b3d 82aa b1ba 70d1 c93c c993 8cbd
000000e0: 4727 9e3d 560d aabd 6870 813d 60c8 edbd
000000f0: 8c65 a8bd 8ec4 923d beda 313d 882e 073e
00000100: 9eb6 ca3d 45f7 97bc ba26 c3bd ec71 d63c
00000110: b1a8 b33d 95a1 d8bc 1a0f 033d 847a 2b3d
00000120: a786 d6bc dd9a 8cbd 65a3 983d 6d7d a93c
00000130: 86a0 563d 6edd 60bd ffa0 a2bd f917 0dbc
00000140: 4024 993b 8660 12bd a63c 9a3d 5eb5 fbbc
00000150: 9bbf c83d d578 56bd 4b5c 69bd dc24 bfbd
00000160: 41e1 743d ed2a c33d 66f4 1dbd 75a4 893d
00000170: 3003 d53d a7fa debc 997c 723d b414 133d
00000180: d8d5 74bc 85b0 65bd a186 473d 8c8e 8f3d
00000190: cd9c 523d 7a56 4e39 4c0c f23c 668b 523d
000001a0: b7d3 8f3d 3e9b 0fbd 17e6 5c3c f763 c33c
000001b0: b3ec 24bd 6b75 abbd 4b1b 023d fefe b73d
000001c0: e7e7 cabd 98f5 fabd 5d7e 87bd 0e27 94bc
000001d0: adc9 24bd 1a9c c3bd 8efc 8239 85fe 623d
000001e0: 1c15 7b3d 32ee 153a ab9b ba3d 0932 c5bd
000001f0: 2efc e3bd c351 5ebc 4391 6ebd e62e c8bc
00000200: 45c3 923c 61c3 94bd f119 2f3d ff4d d13d
00000210: 9fb4 763d 44f2 75bc 4691 65bd 7d8b 89bc
00000220: d654 dc3c 3452 ed3d eab4 b43d f78d 10bd
00000230: 6c68 7f3d c9af b13d 88f1 63bd 95db 9f3d
00000240: f35f a73d afd5 693d 7434 a63d 2fb0 1a3c
00000250: 5855 8cbd a790 e9bc 6ab2 bebd dd03 4a3d
00000260: ce16 cabd d670 bfbd 39ca 2d3d be74 80bb
00000270: 0619 c83d e265 b1bd 94d0 c03d 99e3 c33d
00000280: 9606 243d 2313 a0bd 8271 e63d 2b69 d33c
00000290: 9125 ac3d 67d5 cb3d 53f7 9dbd f0ea fabc
000002a0: f119 a03c f1da 193c 7a3f 9b3d 86c1 98bd
000002b0: a65a 80bd 9b45 9b3d 8772 d5bd 56d0 a8bd
000002c0: 8f0c 123d a8b2 afbd 9155 88bd 990f 4c3d
000002d0: babf 8d3d 9e06 9fbd dad8 c73d e08b e73d
000002e0: 4532 3dbd f329 913d c836 803c 95ff ca3d
000002f0: 42aa 4d3c 94de 0c3d a22f c0bb a01e 273d
00000300: c92c 6b3d a940 6b3d fbcd d3bc 765b cabd
00000310: 146f b13d 3f57 993d 2a33 5cbd 0840 bd3d
00000320: 5bf6 df3d 6c3f f7bd 0fc0 3bbd d066 ad3d
00000330: 87e2 57ba f35a 573e 1922 4e3d 0e25 89bc
00000340: 9752 dabd fb26 e53c 7026 87bd 0bef a53d
00000350: e206 1cbc bca2 403d d0c5 ccbd d030 c83d
00000360: 3705 b9bd 511d 2f3c acdd 78bd d626 b93d
00000370: c11c bc3c 7686 6f3d 1f6d 11bb f0b7 45bc
00000380: f44a aa3d 985c 613d 3954 f7bd 4cb3 c53d
00000390: 5462 aebd 06a8 dbbd d85f e83c 09d0 03be
000003a0: d86c c2bb fb04 b9bd dd2e 3ebd a809 2cbd
000003b0: 8f76 9a3c 81f9 fabc 817b 16bd a6a8 a13d
000003c0: b86b aabc ab2d 2abd 5a6d a03d 5114 40bd
000003d0: 4f8f 733d 0e78 86bd d775 e23d 7076 2c3d
000003e0: 5270 58bd 4aa8 bd3d 40e5 873d 4ef7 e73c
000003f0: 107b 8dbc 3516 0bbe d70d 9ebd 5f01 823d
-0.10513271 -0.13949578 -0.10538526 -0.1161144 0.032896455 -0.12845443 -0.063311696 -0.13605188
0.09325857 -0.010418096 -0.11495618 0.082186356 0.01652778 0.15598486 0.02998335 0.085430145
-0.09994682 0.051619172 -0.11095025 -0.0533455 0.018681442 0.07730625 0.09623533 -0.011042864
-0.010533682 -0.07314094 -0.1178082 -0.0027157734 0.011859749 0.090595864 -0.042212997 0.008598971
0.061364774 -0.012836799 -0.08891622 0.08250185 -0.02657042 0.066738315 0.01963692 -0.058026068
0.081472665 0.04153882 0.012726485 0.024287784 0.164067 -0.059198454 -0.12172599 -0.055501495
0.08262523 -0.06396306 0.02301269 -0.1329277 0.061375447 -0.0013554844 0.024636 -0.06864125
0.07722335 -0.08303325 0.06320268 -0.11610484 -0.082224935 0.07166396 0.0434215 0.13201344
0.09898113 -0.018550524 -0.09528871 0.026177369 0.0877241 -0.026444236 0.031996824 0.041864887
-0.026187254 -0.06865475 0.0745304 0.02068969 0.05239918 -0.05489867 -0.07940864 -0.008611673
0.004673511 -0.035736583 0.07531099 -0.030726131 0.09802171 -0.05236133 -0.056972783 -0.09333202
0.05978513 0.09529672 -0.038563155 0.06720821 0.104009986 -0.02721913 0.059200857 0.035908416
-0.014943562 -0.056076545 0.048712377 0.070096105 0.051419068 0.00019677906 0.02954688 0.051402472
0.07022803 -0.03506016 0.013482592 0.023851378 -0.040264796 -0.08372005 0.03176431 0.08984183
-0.09907513 -0.122538745 -0.06615899 -0.018085029 -0.040231396 -0.095512584 0.000249837 0.05541851
0.06129943 0.0005719393 0.091117226 -0.09628684 -0.11132084 -0.013569298 -0.058244 -0.024436425
0.017915377 -0.07263828 0.04274935 0.10219955 0.060230847 -0.015011374 -0.056046747 -0.016790146
0.026895922 0.115879446 0.08823569 -0.03529164 0.062355444 0.086761065 -0.055650264 0.07805554
0.08172598 0.05708855 0.081154734 0.0094414195 -0.068522155 -0.028511358 -0.093113735 0.04932009
-0.09867631 -0.093476936 0.042429183 -0.0039201668 0.09770398 -0.08662011 0.09414783 0.09564895
0.040045343 -0.0781615 0.11252119 0.025806984 0.08405603 0.09952813 -0.07713189 -0.030629605
0.01954362 0.009390579 0.075804666 -0.07458787 -0.0626729 0.075816356 -0.10422235 -0.08242862
0.035656508 -0.08578998 -0.066569455 0.049819563 0.069213346 -0.07764934 0.09758158 0.11305976
-0.04619052 0.07088079 0.015651122 0.0991203 0.0125528 0.034391955 -0.0058650533 0.04080069
0.057415757 0.05743471 -0.025855055 -0.09880726 0.086637646 0.07487344 -0.05375973 0.092407286
0.109356605 -0.12072644 -0.04583746 0.084668756 -0.00082353543 0.21030788 0.050325487 -0.016741302
-0.10660284 0.027972689 -0.06599128 0.081022345 -0.009523125 0.047030196 -0.09998667 0.09774935
-0.09034198 0.010688142 -0.060758278 0.090406105 0.02296293 0.05847784 -0.0022190285 -0.01206778
0.083150774 0.055019945 -0.12076611 0.09653339 -0.08514848 -0.10725407 0.028366014 -0.12872328
-0.0059333853 -0.09034153 -0.04643141 -0.042001396 0.018855361 -0.03063655 -0.036738876 0.07893495
-0.020803317 -0.04154746 0.07833357 -0.046894375 0.05946284 -0.06565867 0.110576324 0.04210514
-0.052841492 0.09260614 0.06635523 0.028316166 -0.017270595 -0.1358269 -0.077174835 0.06347918

encoder_attn.weight f4 [1, 148]
00000000: 7efc 1bbd 6b3a 0d3d c9cf bc3c f490 21bb
00000010: ab2c 84bd 38a1 3a3d 6261 0c3c bafc 803d
00000020: 163e 7bbd e450 16bc 4ad1 2b3d a27c 98bb
00000030: 7d8c a53d 2f6d db3c 8d12 a63d 0598 a63d
00000040: 454f 76bd 8ddf 0b3d fd91 a7bd 3d9e 8c3d
00000050: a3ee 98bd cdb0 29bc cc9f d4bc f4bf f0bc
00000060: a2f7 0cbb e183 6abd 49d5 a9bc ddc8 a13d
00000070: 648b 99bd 9cb3 4fbd 4f80 323d a4b2 80bd
00000080: b4e0 50bd 561b 5b3d 2146 a5bc 3fe6 45bb
00000090: c229 333b 5a85 1bba 95ab 8e3d 9305 b3bc
000000a0: f22c a63b 0bf5 f6bb 61ac bb3b b7e6 27bd
000000b0: abbc 9ebd bdf2 93bd 7733 9c3d a24f 93bd
000000c0: 40a5 92bd c480 313d 65b2 92bd 6ec1 76bd
000000d0: 6703 0cbd 9628 4d3c ac3b 303d 3c93 e5bc
000000e0: d18f cbbc 722b 6cbc e918 6ebc 4312 dbbc
000000f0: 03cc 203d 876b 78bd ceb2 a43d 49a2 99bd
00000100: 185a ef3c 4d93 7f3d 0cac a03b efac 39bd
00000110: c202 5b3d f986 893d 08bf 673d 68f6 1ebd
00000120: ec51 81bd 4f46 bd3c 37c5 153d 1f32 53bb
00000130: d155 26bd 6072 ddbb 9877 09bc a437 fab9
00000140: 2400 43bd c7f4 91bb ef66 793d 0cc9 c63c
00000150: 403a 37bd c13b 19bc 4ae6 5bbc 76ad aebc
00000160: 15c3 3bbd 5e80 68bd b633 a43c 6806 87bd
00000170: a6c0 153d 4246 ce3c 57bc 8e3d 6099 9cbc
00000180: 2a7e 8fbd 111a 57bd 0395 8d3c 0f7d 7abd
00000190: 78d6 f23c 98f7 98bd 9ff5 883d dd78 993b
000001a0: f8be a23d 1b28 dfbc da3e 4a3c 062d b6bc
000001b0: 9492 123c 1717 193d 31c8 a13d 7ada 483b
000001c0: 0080 88bb 2085 203d 244b a8bc a3eb a4bc
000001d0: 1e25 1dbd e83b 85bd 00e7 05bd 7e91 943d
000001e0: 2414 6c3d 8a59 c63b 7464 9cbd f70a 60bd
000001f0: 6573 343d c43a 9d3c f660 9ebd 25a4 a63d
00000200: 277a 813d f87d 213e c8fb 2f3d 3de0 bd3d
00000210: 16db 273e 2ded 803e 3eb3 193e 8d1b 8c3e
00000220: ddc7 f03e a736 0a3f 3846 6b3e 7d3d 923e
00000230: 384b 7ebc d693 1a3d ea32 0d3e 52ac 763d
00000240: 9874 ff3c fcd8 4cbd 119a 79be b087 0cbf
-0.038082592 0.03447954 0.023048298 -0.002465305 -0.06453832 0.045563906 0.00856814 0.06298204
-0.061338507 -0.009174559 0.04194764 -0.0046535293 0.08083437 0.026785461 0.08109007 0.08134464
-0.06013419 0.03414874 -0.08182142 0.06866119 -0.07467391 -0.010357094 -0.025955103 -0.029388405
-0.0021509905 -0.057254676 -0.020731585 0.0789964 -0.0749729 -0.0507084 0.043579396 -0.06284073
-0.050995544 0.053492866 -0.020175042 -0.0030197052 0.0027338122 -0.00059326517 0.069663204 -0.021853244
0.005071276 -0.0075365356 0.0057273363 -0.04099151 -0.07750829 -0.07224033 0.07627004 -0.07192923
-0.07160425 0.04333569 -0.07162932 -0.060243063 -0.034182932 0.0125218835 0.043025658 -0.028024308
-0.02484885 -0.014414655 -0.014532306 -0.026742106 0.03925706 -0.06064942 0.08041917 -0.075016566
0.029217765 0.062396336 0.004903322 -0.045330938 0.053469427 0.06715197 0.056578666 -0.03880921
-0.063144535 0.023104815 0.03656503 -0.003222592 -0.040609185 -0.0067580193 -0.00839033 -0.0004772517
-0.047607556 -0.0044542286 0.06088918 0.024265788 -0.044733286 -0.009352625 -0.013421604 -0.021322947
-0.04584034 -0.056763045 0.020044189 -0.06593019 0.036560677 0.025179986 0.06969517 -0.019116104
-0.07006486 -0.052515093 0.017282968 -0.06115442 0.029643282 -0.074691 0.066874735 0.0046835975
0.07946581 -0.027240803 0.012344087 -0.022238266 0.00894608 0.037375536 0.078995116 0.00306478
-0.0041656494 0.039189458 -0.020543642 -0.020131892 -0.038365476 -0.06505567 -0.032691002 0.07254313
0.057636395 0.0060531544 -0.076363474 -0.054697957 0.04405536 0.01919306 -0.077333376 0.08136777
0.06322127 0.1577071 0.042964727 0.09271286 0.16392168 0.2518095 0.15009782 0.2736477
0.47027484 0.5398964 0.22976005 0.28562537 -0.015520863 0.037738644 0.13788953 0.06022293
0.031183526 -0.05001162 -0.24375178 -0.5489454

exp_avg f4 [7, 7]
00000000: 20cb 9231 0000 0000 0000 0000 0000 0000
00000010: 0000 0000 0000 0000 0000 0000 0000 0000
00000020: 0000 0000 0000 0000 0000 0000 0000 0000
00000030: 0000 0000 0000 0000 0000 0000 0000 0000
00000040: b93e 1cb3 0000 0000 0000 0000 0000 0000
00000050: 0000 0000 0000 0000 0000 0000 0000 0000
00000060: d81f c0b1 0000 0000 0000 0000 0000 0000
00000070: 0000 0000 0000 0000 0000 0000 0000 0000
00000080: f58a 8fb2 0000 0000 0000 0000 0000 0000
00000090: 0000 0000 0000 0000 0000 0000 0000 0000
000000a0: 0000 0000 0000 0000 0000 0000 0000 0000
000000b0: 0000 0000 0000 0000 0000 0000 0000 0000
000000c0: bef0 c934
4.272252e-09 0.0 0.0 0.0 0.0 0.0 0.0 0.0
0.0 0.0 0.0 0.0 0.0 0.0 0.0 0.0
-3.6378626e-08 0.0 0.0 0.0 0.0 0.0 0.0 0.0
-5.5915557e-09 0.0 0.0 0.0 0.0 0.0 0.0 0.0
-1.6710581e-08 0.0 0.0 0.0 0.0 0.0 0.0 0.0
0.0 0.0 0.0 0.0 0.0 0.0 0.0 0.0
3.761433e-07

exp_avg_sq f4 [7, 7]
00000000: c2a9 0927 0000 0000 0000 0000 0000 0000
00000010: 0000 0000 0000 0000 0000 0000 0000 0000
00000020: 0000 0000 0000 0000 0000 0000 0000 0000
00000030: 0000 0000 0000 0000 0000 0000 0000 0000
00000040: d105 f829 0000 0000 0000 0000 0000 0000
00000050: 0000 0000 0000 0000 0000 0000 0000 0000
00000060: 3958 2026 0000 0000 0000 0000 0000 0000
00000070: 0000 0000 0000 0000 0000 0000 0000 0000
00000080: 11fe ce26 0000 0000 0000 0000 0000 0000
00000090: 0000 0000 0000 0000 0000 0000 0000 0000
000000a0: 0000 0000 0000 0000 0000 0000 0000 0000
000000b0: 0000 0000 0000 0000 0000 0000 0000 0000
000000c0: 8410 202a
1.9104595e-15 0.0 0.0 0.0 0.0 0.0 0.0 0.0
0.0 0.0 0.0 0.0 0.0 0.0 0.0 0.0
1.10144214e-13 0.0 0.0 0.0 0.0 0.0 0.0 0.0
5.5630715e-16 0.0 0.0 0.0 0.0 0.0 0.0 0.0
1.4362986e-15 0.0 0.0 0.0 0.0 0.0 0.0 0.0
0.0 0.0 0.0 0.0 0.0 0.0 0.0 0.0
1.4216585e-13

exp_avg f4 [7]
00000000: 0c1f f530 0000 0000 ba6a 9732 5dca 71b1
00000010: 2e0f 9f31 8616 1a33 ae35 b433
1.783492e-09 0.0 1.7627247e-08 -3.5185146e-09 4.6292348e-09 3.5876404e-08 8.3916674e-08

exp_avg_sq f4 [7]
00000000: f0ca 2826 0000 0000 b2b2 a129 1ed3 8926
00000010: abfb 8d26 2b5e 2628 2814 7729
5.856174e-16 0.0 7.180835e-14 9.563508e-16 9.852055e-16 9.2352705e-15 5.48625e-14

exp_avg f4 [64, 7]
00000000: c314 0436 4ce5 65b4 a26e 3336 2ba6 ca35
00000010: f71b b635 a69d 0535 f71b b635 0000 0000
00000020: 0000 0000 0000 0000 0000 0000 0000 0000
00000030: 0000 0000 0000 0000 3a8f 5db5 cf0e 3eb5
00000040: dc76 3fb5 45fc 41b5 39cb 3db5 0b9c 44b5
00000050: 5140 37b5 c14a 16b2 09b8 b9b0 3aa3 20b1
00000060: 3758 d7b0 8c55 16b1 8c55 16b1 ddf0 14b1
00000070: 4830 300a 9130 3009 9130 3009 4830 300a
00000080: 9130 3009 9130 3009 4830 300a 5cab 4232
00000090: f46e 4631 f46e 4631 f46e 4631 f46e 4631
000000a0: 9a11 ab31 f46e 4631 604a 34b4 3f7b 53b4
000000b0: fef8 38b4 9040 47b4 2c69 37b4 f953 41b4
000000c0: d370 6633 a0df 3db3 ea17 93b4 f2b3 d0b3
000000d0: a30a 11b4 0c35 bab3 431d 52b4 3423 d733
000000e0: 3737 2437 4f9e 1637 7754 1737 880e 1637
000000f0: 297f 1237 9a78 1937 0fd7 dc36 fa41 0bb5
00000100: e035 d1b4 3aaa 38b5 5439 12b5 ff84 11b5
00000110: add0 12b5 d3f7 15b5 5a02 0000 9500 0000
00000120: 9500 0000 5a02 0000 5a02 0000 9500 0000
00000130: 5a02 0000 656d d9b3 222d 92b3 28b8 9eb4
00000140: cac1 32b4 c1ca 2fb4 433f 0db4 8fa2 8ab4
00000150: 8dc7 5634 b111 1834 7aae 4534 1d9e 3f34
00000160: c3ce 4f34 478f 3b34 6e6d 5f34 4c1c 78b5
00000170: 158c 56b5 352a 59b5 20f9 56b5 21ec 54b5
00000180: c79c 54b5 18ce 3bb5 0000 0000 0000 0000
00000190: 0000 0000 0000 0000 0000 0000 0000 0000
000001a0: 0000 0000 8301 1b35 c3e7 2835 d91e b735
000001b0: eac7 d734 5b9b d734 15c9 0535 cb2b 9533
000001c0: 2ba4 1e32 89a3 1e33 2ba4 1e32 2ba4 1e32
000001d0: 2ba4 1e32 fba3 1e33 2ba4 1e32 3855 d6b5
000001e0: 2405 b0b5 3f3a 82b5 bb2c 94b5 c817 93b5
000001f0: 6aad 9bb5 bdc5 efb4 e637 1e34 a19f fa33
00000200: 9ef9 3a34 f67a d733 44fd e033 5590 f333
00000210: bfd3 9133 bbe7 c8b4 b642 c4b4 afcb c0b4
00000220: 9ac8 b5b4 da4d b4b4 04dc c6b4 ba0d 51b4
00000230: de2c b132 743f 6f33 8229 a8b4 7f24 83b4
00000240: dbb2 75b4 0980 92b3 b51f 48b5 7317 88b6
00000250: 6590 77b6 4cca 04b6 e951 52b6 42bc 4ab6
00000260: 6920 6cb6 4de8 2bb6 e908 01b6 d4ba 1db6
00000270: 6672 c1b5 4fd3 9bb5 e65c abb5 282b edb5
00000280: ddbe 8cb5 203e 8ab5 1541 60b5 bc4e 01b6
00000290: b4a5 45b5 dc56 36b5 14a5 5eb5 46e7 c2b5
000002a0: 7f5a a233 4ccc cf33 7267 37b4 4118 a0b1
000002b0: e61b 962f 7d4b d432 57c0 e5b3 941b 2a37
000002c0: 6af3 1337 8f88 ff36 bb3f d936 8319 e136
000002d0: b52b 0737 02da 9236 cc3b f9b5 bd30 feb5
000002e0: 0087 c5b5 e6ee ceb5 c126 cdb5 b2a2 e8b5
000002f0: 188e 35b5 0448 5636 0be5 5d36 53bf 0c36
00000300: 2dbb 2836 d5aa 2136 f51e 4436 170d 9335
00000310: 0000 0000 0000 0000 0000 0000 0000 0000
00000320: 0000 0000 0000 0000 0000 0000 0000 0000
00000330: 0000 0000 0000 0000 0000 0000 0000 0000
00000340: 0000 0000 0000 0000 ec26 7836 87f9 2f36
00000350: c0a8 0b36 e5df 2c36 87f9 2f36 d870 2c36
00000360: d4fd ae35 d0b4 0c35 bbad b134 c523 5a35
00000370: 59e4 9233 1202 bb33 cfee 0e34 7b7c 75b5
00000380: b790 feb5 e40d e0b5 3725 b1b5 d942 ddb5
00000390: d336 d3b5 829b dbb5 6f23 95b5 fea7 6cb4
000003a0: b17d 7cb3 6e8c 7ab3 c9ca 6cb3 6e8c 7ab3
000003b0: 6e8c 7ab3 6e8c 7ab3 3fcc c6b6 a3c1 a1b6
000003c0: 722d 90b6 ff84 95b6 1ff2 8ab6 0a88 92b6
000003d0: 2e58 87b5 451a f2b2 4db7 d9b2 c675 feb2
000003e0: 9cf3 e3b2 e37b deb2 d72c dfb2 1ce1 8932
000003f0: 4b29 9833 066b 4c33 c435 0fb3 3e2b 4832
1.9681618e-06 -2.1410705e-07 2.6737475e-06 1.5098534e-06 1.3568196e-06 4.977577e-07 1.3568196e-06 0.0
0.0 0.0 0.0 0.0 0.0 0.0 -8.253734e-07 -7.0802065e-07
-7.132601e-07 -7.2265203e-07 -7.0703715e-07 -7.324276e-07 -6.8266405e-07 -8.748146e-09 -1.3512828e-09 -2.3375848e-09
-1.5668381e-09 -2.18765e-09 -2.18765e-09 -2.167375e-09 8.4831724e-33 2.1208065e-33 2.1208065e-33 8.4831724e-33
2.1208065e-33 2.1208065e-33 8.4831724e-33 1.1331249e-08 2.8875862e-09 2.8875862e-09 2.8875862e-09 2.8875862e-09
4.978756e-09 2.8875862e-09 -1.6790864e-07 -1.9695743e-07 -1.7226918e-07 -1.8556807e-07 -1.7081464e-07 -1.8005075e-07
5.365366e-08 -4.4208377e-08 -2.7398283e-07 -9.7184866e-08 -1.3508047e-07 -8.670949e-08 -1.956842e-07 1.0018121e-07
9.788017e-06 8.977556e-06 9.019967e-06 8.94408e-06 8.731885e-06 9.14759e-06 6.581547e-06 -5.1877544e-07
-3.8968483e-07 -6.8793054e-07 -5.447266e-07 -5.4210244e-07 -5.46929e-07 -5.5867457e-07 8.44e-43 2.09e-43
2.09e-43 8.44e-43 8.44e-43 2.09e-43 8.44e-43 -1.0124749e-07 -6.8068644e-08 -2.9563785e-07
-1.6648042e-07 -1.6371906e-07 -1.3154663e-07 -2.582278e-07 2.0002899e-07 1.4162539e-07 1.8410529e-07 1.7845782e-07
1.9353597e-07 1.7467856e-07 2.0808304e-07 -9.2428377e-07 -7.992506e-07 -8.090022e-07 -8.0083737e-07 -7.9319767e-07
-7.9204295e-07 -6.9962834e-07 0.0 0.0 0.0 0.0 0.0 0.0
0.0 5.77442e-07 6.2922135e-07 1.364354e-06 4.0192327e-07 4.0159907e-07 4.9838974e-07 6.946319e-08
9.234138e-09 3.6935976e-08 9.234138e-09 9.234138e-09 9.234138e-09 3.693638e-08 9.234138e-09 -1.5969044e-06
-1.3114518e-06 -9.702707e-07 -1.1039878e-06 -1.0959275e-06 -1.159887e-06 -4.4661093e-07 1.4735232e-07 1.16705685e-07
1.741341e-07 1.0034084e-07 1.04768816e-07 1.1341823e-07 6.790605e-08 -3.742151e-07 -3.6556384e-07 -3.5910986e-07
-3.3859834e-07 -3.3584257e-07 -3.7040456e-07 -1.9469636e-07 2.0625915e-08 5.5704234e-08 -3.132264e-07 -2.4427206e-07
-2.288247e-07 -6.821944e-08 -7.4551946e-07 -4.0558457e-06 -3.6889917e-06 -1.9787285e-06 -3.1340116e-06 -3.0209926e-06
-3.5185606e-06 -2.5616202e-06 -1.9227684e-06 -2.3503571e-06 -1.4412915e-06 -1.1609899e-06 -1.276753e-06 -1.7670436e-06
-1.0486361e-06 -1.0299882e-06 -8.354121e-07 -1.9268327e-06 -7.362935e-07 -6.792668e-07 -8.2941665e-07 -1.4521436e-06
7.560174e-08 9.67635e-08 -1.7080836e-07 -4.6593702e-09 2.7304664e-10 2.4714376e-08 -1.069863e-07 1.0139211e-05
8.818557e-06 7.6154897e-06 6.474523e-06 6.7084925e-06 8.056803e-06 4.3765185e-06 -1.8569349e-06 -1.8938659e-06
-1.4716934e-06 -1.5417725e-06 -1.5284969e-06 -1.7332698e-06 -6.763453e-07 3.1930404e-06 3.3064887e-06 2.097299e-06
2.5142901e-06 2.4090307e-06 2.9224295e-06 1.0956163e-06 0.0 0.0 0.0 0.0
0.0 0.0 0.0 0.0 0.0 0.0 0.0 0.0
0.0 0.0 3.6977535e-06 2.6222276e-06 2.081084e-06 2.576032e-06 2.6222276e-06 2.569568e-06
1.3037884e-06 5.241718e-07 3.3095225e-07 8.126338e-07 6.840191e-08 8.708243e-08 1.3311659e-07 -9.1450755e-07
-1.8966592e-06 -1.6693343e-06 -1.3198359e-06 -1.6485238e-06 -1.5736681e-06 -1.636203e-06 -1.1111678e-06 -2.2040328e-07
-5.8787638e-08 -5.833538e-08 -5.5132464e-08 -5.833538e-08 -5.833538e-08 -5.833538e-08 -5.924637e-06 -4.820716e-06
-4.296825e-06 -4.456029e-06 -4.140907e-06 -4.366976e-06 -1.0083947e-06 -2.8184454e-08 -2.534548e-08 -2.9623049e-08
-2.6537059e-08 -2.5900539e-08 -2.5981008e-08 1.6051267e-08 7.085563e-08 4.759479e-08 -3.334368e-08 1.1651364e-08
