weights_new/EncoderEpochnew500_20_8.pt (torch_old, 862531 bytes, 27 tensors)

gamma_x_l.weight f4 [7, 7]
000000 87 e7 4e be 26 43 43 3e 90 95 ac 3c 48 6a 1f bd
       -0.20205508 0.19068584 0.02106741 -0.038919717
000010 42 47 64 be 00 7e af ba 0a 30 60 3e 80 2a 33 bb
       -0.22292808 -0.0013388991 0.21893325 -0.0027338564
000020 0a 6c 97 be ae 34 28 3e d8 30 ec 3d a3 03 25 be
       -0.29574615 0.16426346 0.11532754 -0.16114669
000030 72 58 0c 3e 40 48 6e bd fb 45 95 3e 9c c8 ab be
       0.13705614 -0.05817437 0.29154953 -0.3355149
000040 73 d4 8c be 2b e5 84 3e da af 9b be 3a 5c 49 3e
       -0.27505836 0.2595609 -0.30407602 0.19664088
000050 99 0f b3 3e d6 34 b9 be 88 70 fc bd 78 7a fa bd
       0.34972838 -0.36173123 -0.12326151 -0.1223039
000060 e4 b0 bc 3f 1a 7a a1 be 43 30 9f 3e 88 24 bf 3d
       1.4741483 -0.3153847 0.31091508 0.0933314
000070 35 2c a8 3e 53 e4 4b be e9 62 5c be f1 0c 91 be
       0.32846227 -0.19911318 -0.21522106 -0.28330186
000080 30 16 2c 3f f1 2c 38 be a2 11 78 3e fe 35 55 3e
       0.67221355 -0.17985894 0.24225476 0.20821378
000090 90 79 58 3d 30 f2 c1 bc 9e 69 8b be f2 70 a4 be
       0.052850306 -0.023675054 -0.27229017 -0.3211742
0000a0 22 4c ac 3f 66 33 77 3e f4 13 ab be 20 b9 54 3c
       1.3460734 0.241407 -0.3341366 0.01298359
0000b0 9d 4a 87 be 90 9d 23 bd de f2 11 3e 20 26 93 be
       -0.26424113 -0.039945185 0.14252803 -0.28740025
0000c0 8d 03 85 be
       -0.25979272

gamma_x_l.bias f4 [7]
000000 c4 4a aa be db 99 08 3e 68 ab 79 bd de f8 5b 3f
       -0.33260167 0.13339941 -0.06095448 0.85926616
000010 03 d6 14 3f e3 4a 6d 3f a0 d7 2e bd
       0.58139056 0.92692393 -0.042686105

gamma_h_l.weight f4 [128, 7]
000000 6b 6d 9b 3e f1 a0 72 3e 7a 24 15 3e 0e 57 d4 3d
       0.30356917 0.23694207 0.14564696 0.10368167
000010 a1 59 a6 be 0b 72 b3 3e 7e 51 f1 3d 72 a5 a4 3e
       -0.32490256 0.35047945 0.117831215 0.32157475
000020 91 5e a5 3e 94 0c a1 3e 52 95 c0 3e 59 87 35 be
       0.3229871 0.3145491 0.37613922 -0.17727412
000030 19 05 93 3e 35 73 c6 be 2d eb 57 be 28 cb ad be
       0.28714827 -0.3875977 -0.21085806 -0.33944058
000040 d8 50 02 be 2b 13 31 be 84 42 a8 bd a0 08 8b bc
       -0.12726152 -0.17292468 -0.08215812 -0.016971886
000050 5b d0 71 be 74 66 75 be a1 47 bd be 78 11 e4 bd
       -0.23614638 -0.23964864 -0.3696871 -0.111361444
000060 80 4c be be ab 61 a9 3e 17 69 b1 be 80 d3 73 bd
       -0.3716774 0.33082327 -0.3465049 -0.059527874
000070 cf d6 ac 3e 93 15 db be 1a 5a 80 3e b7 1f bd be
       0.33757636 -0.42789897 0.25068742 -0.3693826
000080 91 dd 8b 3c ac 1e 95 3e c4 f8 89 3e 6c 4f 54 3d
       0.017073425 0.29124963 0.26947606 0.051833555
000090 06 55 5d 3d a5 fd de 3d 47 17 5c bd ad 69 61 3e
       0.054036163 0.108882226 -0.053733137 0.22012968
0000a0 ab f3 8c 3e 7d 82 b4 be ea 1e f5 be ae e6 86 bb
       0.27529654 -0.35255805 -0.47875148 -0.0041168546
0000b0 a7 37 54 bd 8a dd 3f 3e 79 1c 56 3e 63 a6 84 3e
       -0.051810887 0.18736854 0.20909299 0.25908193
0000c0 02 6e 16 3e b8 ed a6 bb e1 89 4e 3e 68 d8 93 be
       0.14690402 -0.0050942563 0.20169784 -0.28876042
0000d0 bd a7 b7 be 8c ec a8 3e 04 32 9e be 76 04 9f be
       -0.35870162 0.3299297 -0.30897534 -0.3105809
0000e0 e3 19 8a be d1 4f 41 be d5 ed ca bd 2a 08 0c 3e
       -0.26972875 -0.18878104 -0.09908644 0.1367499
0000f0 33 85 ac be 30 e3 9e 3e a9 dc a1 be c1 40 0d 3d
       -0.33695373 0.31032705 -0.31613663 0.034485582
000100 6f 4e 05 3d 55 e6 0f bd 75 a3 a2 be 02 33 80 3c
       0.032545503 -0.03513177 -0.31765333 0.015649322
000110 ed dc 22 bd 06 60 5b 3e a4 b8 91 bd 4e bb a1 be
       -0.039761472 0.21423349 -0.071152955 -0.31588215
000120 c4 c0 bd be 04 75 b5 be 68 94 ca bd 4a 21 01 3e
       -0.3706113 -0.35440838 -0.098915875 0.12610355
000130 07 ba 0e be 7c 65 0f 3e 9c 68 b9 3d f2 59 72 bc
       -0.13938151 0.14003557 0.09053156 -0.014791952
000140 a7 ad 8f be 85 24 e7 be d5 f7 d0 3e c6 67 6e 3d
       -0.28062174 -0.4514505 0.4081408 0.058204435
000150 92 a9 aa be 80 c4 8c bd f4 86 fb bd 9a 3b 97 be
       -0.33332497 -0.06873417 -0.122816 -0.2953766
000160 6b d4 87 3e 78 07 82 be a6 cc 14 3e ca 8b 9b be
       0.2652925 -0.25396323 0.14531192 -0.30380088
000170 92 3a 10 be 31 6b 63 be e4 1d b2 bd 14 fb 79 be
       -0.14084843 -0.22208859 -0.086971074 -0.24412185
000180 7e 8a 5f 3e 48 54 e0 bd 4f 27 0d 3f ff 16 ce 3e
       0.21830174 -0.109535754 0.55138105 0.4025192
000190 ce 42 1c be 80 4b cd 3e bc 7c 68 be 1f 5f 50 be
       -0.15259859 0.40096664 -0.22703832 -0.20348786
0001a0 3b 11 5c be 4c 67 aa 3e f0 c6 60 be a6 08 7b 3e
       -0.21490948 0.33281934 -0.21950889 0.24515018
0001b0 91 c7 31 be 85 d5 fa bd fd 91 9f be 42 09 32 be
       -0.17361285 -0.12247757 -0.31166068 -0.17386344
0001c0 67 9f 0c be 0b 9d 08 be ef 68 5d 3e 34 45 9c be
       -0.13732682 -0.13341157 0.2162206 -0.30521548
0001d0 21 75 5f 3e 2d 5a 90 3d d4 10 8f 3e 6d c0 03 3f
       0.21822025 0.0704845 0.27942526 0.51465493
0001e0 fc a5 48 be 10 7c af 3e 0a a8 37 be e5 81 df 3d
       -0.19594568 0.3427434 -0.17935196 0.10913447
0001f0 35 05 fa bd 0c 30 6a be 1f 85 6f 3e 14 d4 6e be
       -0.122080244 -0.22869891 0.23390625 -0.23323089
000200 26 48 98 3d 0a 5a 6b bd 8f 53 f2 3d 22 ab 86 3e
       0.07435636 -0.057458915 0.11832344 0.2630244
000210 d1 83 a0 3e b8 65 89 3e 4e 5b 84 3d 14 85 f1 3b
       0.31350568 0.26835418 0.064627275 0.0073706005
000220 b2 c0 85 be 49 bd 2e be 51 b7 22 3c 4a 1a 31 be
       -0.26123577 -0.17064394 0.009931401 -0.17295185
000230 a9 19 c0 3e 44 40 e8 bd 69 c8 be 3e 02 ff 88 bb
       0.37519577 -0.11340383 0.37262276 -0.00418079
000240 17 e1 98 bd 15 c5 42 be 87 eb 72 3e 4a 62 56 3e
       -0.074648075 -0.19020493 0.23722659 0.20935932
000250 22 2f d0 3d 98 ac bb 3d f8 25 b1 be b9 66 1f 3d
       0.1016524 0.09163779 -0.3459928 0.038916323
000260 d5 cc f2 3e a2 df 93 be c2 c3 88 3e 33 18 0c 3d
       0.474219 -0.28881556 0.2671185 0.034202766
000270 6e bd 50 3d 84 7b c1 3d 4a 5c 08 3e fd 1c b5 bc
       0.050961904 0.09447387 0.13316455 -0.02210855
000280 79 a1 5a 3e 2e 82 6e be 19 1e cc 3e 23 f8 1f bd
       0.2135066 -0.23291847 0.39866713 -0.039055
000290 03 c6 cf 3e f5 f6 39 be e3 d6 b2 3e 20 31 94 3e
       0.40580758 -0.18160613 0.3492957 0.2894373
0002a0 4c ba 1c bc 83 65 e7 3d 13 21 72 be 20 52 40 3e
       -0.009565901 0.11298659 -0.2364543 0.18781328
0002b0 bc 76 39 be cb 37 c2 3e c9 67 a1 3e 98 7d e0 bc
       -0.181117 0.37933192 0.31524494 -0.027403638
0002c0 ef 20 64 be a7 1d 48 be 99 60 1b 3f 84 e6 bd 3e
       -0.22278188 -0.19542561 0.6069427 0.37089932
0002d0 c4 4b a9 3d 22 b5 98 3d 3e 80 27 be f0 2d 4e be
       0.08266404 0.07456423 -0.16357514 -0.20134711
0002e0 74 79 3a be 68 fd c7 bc 39 55 21 be 9c ea 04 3e
       -0.18210393 -0.024412826 -0.15755166 0.12980121
0002f0 fe 1a a6 bc 13 5a a2 bc f0 93 bb be 06 61 01 be
       -0.020276543 -0.019818341 -0.36636305 -0.12634668
000300 5c af ac 3e 20 07 b3 3e 37 95 af 3e 13 49 ed be
       0.3372754 0.34966373 0.3429353 -0.46344814
000310 e6 a3 a6 be 20 d6 40 3d f4 59 3d be 3c 0b 87 3d
       -0.3254692 0.047079206 -0.18491346 0.0659394
000320 00 e9 fc bb a6 53 c0 be 9e 58 1f be f6 c5 49 be
       -0.0077182055 -0.3756382 -0.15561149 -0.19704422
000330 4b 59 d8 3e 30 8a 9b be 0c 3a e6 3e 23 68 33 3d
       0.42255625 -0.30378866 0.4496616 0.043800484
000340 77 82 d3 3e 0e a1 bb be 33 c2 0e 3e ce 99 ae be
       0.41310474 -0.36646312 0.13941269 -0.3410172
000350 76 0f c6 be 49 65 61 be 63 d7 c1 3d 26 20 22 3e
       -0.3868367 -0.22011293 0.0946491 0.15832576
000360 b8 27 2a 3c c0 41 ad be f0 70 da bd df d1 c0 bd
       0.010385446 -0.33839226 -0.10666072 -0.0941503
000370 2a ec 02 3e 84 74 88 be 20 76 0e 3e 11 08 d1 bc
       0.12785402 -0.26651394 0.13912249 -0.025516542
000380 d6 ef b9 bc 95 6c b1 3e 9a 06 ad be fe d2 0a be
       -0.02269737 0.34653154 -0.337941 -0.1355705
000390 4c 9a 24 3e 70 d2 21 ba 37 81 79 be 94 18 cc be
       0.16074485 -0.000617302 -0.24365698 -0.39862502
0003a0 ae 40 ab 3c 5a dc 7b be bd b9 a3 3e a1 7f ae 3e
       0.020904865 -0.24595776 0.31977645 0.34081748
0003b0 9d cc 1a be 36 5f b3 3e 91 c4 0d 3f bf 28 5f be
       -0.15117116 0.35033578 0.5537806 -0.21792887
0003c0 ae a3 f4 3b b9 1e ff 3d ae af 82 3d 5d cf db be
       0.007465801 0.12457032 0.063811645 -0.42931643
0003d0 e2 61 4f 3e 9d 3d db 3d 0b f1 c8 3e be 11 8b 3e
       0.20252183 0.10705111 0.392464 0.27161974
0003e0 39 af 93 bc 43 9b be 3e 99 36 76 3e 50 bf f3 be
       -0.018027889 0.3722783 0.24044265 -0.47606897
0003f0 6c c0 42 3e 3e 5a c2 be 72 43 4a be 1a c5 c8 be
       0.19018716 -0.37959474 -0.19752291 -0.39212877

gamma_h_l.bias f4 [128]
000000 07 00 55 be 48 65 97 3e 87 d2 82 be 58 b7 15 bd
       -0.20800792 0.2956946 -0.25551245 -0.036551803
000010 01 2b ed bc 75 73 25 3d 6a 3d 51 bd c0 d6 9c 3e
       -0.02895117 0.04039331 -0.05108396 0.3063259
000020 0f fd df 3d d1 62 96 3e fa 99 69 be d2 cc b0 be
       0.10936939 0.29372266 -0.22812644 -0.34531265
000030 8c b6 9f 3d 4b a9 89 3e 0d 8e fc bc e0 00 d1 3d
       0.0779849 0.26886973 -0.030829454 0.10205245
000040 91 7a 6b 3e 0c a1 50 be fb b9 b7 be 6d 9f c8 3e
       0.22995974 -0.20373935 -0.3588408 0.39184132
000050 b7 2c fd 3d 2d e1 8c be 51 0c 1e 3d 6c ab 4d be
       0.12362044 -0.27515545 0.038585965 -0.20084924
000060 10 3e b4 bd c0 87 6e be a7 81 ab 3e 94 84 a4 3e
       -0.088009 -0.23293972 0.33497354 0.321324
000070 01 0e ae 3e cd 7c 21 3e ce 55 e7 be a0 a6 90 3e
       0.3399506 0.15770264 -0.4518265 0.28252125
000080 5a f1 ef 3e e2 8b 5f 3e 75 47 9f be e8 56 fc bd
       0.46863824 0.21830705 -0.31109205 -0.123212636
000090 73 3a 94 be 06 b7 bb 3e 3c 35 58 3e f2 b9 df bd
       -0.28950843 0.36663073 0.21114057 -0.10924138
0000a0 10 3b a6 3d 17 f7 8d bd 68 0f 88 be b8 89 57 bd
       0.08116734 -0.06931894 -0.26574254 -0.052621573
0000b0 38 60 9b bd a6 7e bb 3a 3b 74 73 bc 14 50 16 be
       -0.07586712 0.0014304712 -0.0148592545 -0.14678985
0000c0 39 3c db 3d 81 40 79 3e 68 e7 78 3e 50 2a b2 be
       0.10704846 0.24341013 0.24307024 -0.34797907
0000d0 c3 18 bc be 32 8f 40 3e bd 1a c8 3c 41 7d be bd
       -0.36737642 0.18804625 0.024426812 -0.09301234
0000e0 21 a6 4f bd 67 51 4f 3e a1 04 a1 3e 40 f3 82 3e
       -0.050695542 0.20245896 0.31448844 0.2557621
0000f0 d5 65 8b 3d 8d f1 63 bd b4 09 df 3e 3d 28 32 be
       0.06806532 -0.055650283 0.4356209 -0.17398162
000100 fc f5 92 be d9 d3 07 3e 9e 16 16 3e a6 5a 71 bd
       -0.28703296 0.13264407 0.14657065 -0.05892434
000110 bf be 70 3e f9 35 84 be 30 2e d1 bd 84 e7 50 be
       0.23510264 -0.25822428 -0.10213888 -0.20400816
000120 56 e0 8e be 19 98 0f be 49 a9 97 3e 70 43 5f 3e
       -0.2790553 -0.14022864 0.29621342 0.21803069
000130 77 37 64 3d bc fc 13 bc 64 90 5a be 76 e2 2f bd
       0.055716958 -0.009032425 -0.21344143 -0.04294058
000140 d9 54 0a be 4c f7 a5 be e3 89 01 3e 3b d6 c6 3e
       -0.1350893 -0.32415235 0.12650256 0.3883532
000150 41 eb 50 be 11 ef 28 be 8f 29 4e bd 64 94 c2 3d
       -0.20402242 -0.16497447 -0.050332602 0.095009595
000160 48 e5 89 be 33 a4 93 3d 5d 4c ba 3e b0 04 65 be
       -0.2693274 0.07209053 0.36386386 -0.2236507
000170 ee 1d d4 3d 8f c8 53 be c4 93 c9 be f5 13 c5 3d
       0.10357271 -0.20681976 -0.3937055 0.09622947
000180 99 a6 ef 3d 1a 75 a1 be fa 40 74 3e c8 78 0a bd
       0.11701698 -0.31534654 0.23852912 -0.033806592
000190 e3 6b 39 3e 9c ac c7 be 9c 08 6d bd 43 78 90 be
       0.18107562 -0.38998878 -0.05786954 -0.28216752
0001a0 13 33 6c 3e 64 e7 24 be 15 33 07 3d 47 84 92 3e
       0.23066358 -0.16103894 0.0330077 0.28616545
0001b0 89 ca a5 be 76 2e 5e be eb 4c 93 3c 90 03 bb be
       -0.32381085 -0.21697411 0.017981013 -0.36526155
0001c0 96 cd fd 3c d5 a0 99 3e a2 06 10 be a9 3e f8 3d
       0.03098182 0.30005518 -0.1406503 0.121213265
0001d0 c6 8c 24 3e 3a 14 34 3e 15 c8 59 bd 2d cb a4 bc
       0.16069326 0.17585841 -0.05316933 -0.020116413
0001e0 e4 1c d1 3d 79 0c bb be 7b ae 32 bd 50 5f 2d bd
       0.102105886 -0.36532953 -0.04362343 -0.042327225
0001f0 0c f3 d2 be 50 08 e5 3e 71 81 92 3e 22 4b ba be
       -0.41201055 0.44732904 0.2861438 -0.36385447

encoder_lstm.weight_ih_l0 f4 [512, 7]
000000 89 ca 15 be 55 f1 9e bb a6 23 d1 3c 3b 34 e1 3e
       -0.14628042 -0.0048505464 0.025529694 0.4398516
000010 98 12 c2 bb 0e ab 79 bc 37 b7 d2 be 9e da 62 3e
       -0.0059226267 -0.0152385365 -0.41155407 0.22153708
000020 33 a6 8f bd 63 37 d9 bd cc bd a6 be a0 9d 33 3e
       -0.07014122 -0.10606267 -0.3256668 0.17540598
000030 86 75 6f 3c be 1a 84 3d 72 0e 1c bd 15 93 f7 bd
       0.014615422 0.06450413 -0.038099714 -0.120886005
000040 32 71 49 bc d7 69 47 3f 55 9a 8d bd 4c 2c 52 be
       -0.012295054 0.77895874 -0.06914202 -0.2052471
000050 90 47 a6 3d 58 3e a6 be e5 52 7e 3e d6 56 9b bd
       0.08119118 -0.3246944 0.24836309 -0.07584922
000060 c9 32 50 3f 27 f5 b2 3d bf 23 e2 be 11 73 63 bd
       0.8132749 0.08738165 -0.44167897 -0.055529658
000070 60 fa c4 3c b5 fc 7c 3e 4e 67 dc 3e 5f b6 8a 3d
       0.02404517 0.24705775 0.43047565 0.06773066
000080 22 90 cb 3e e2 50 4e be 16 b1 c1 3e f6 f5 af 3d
       0.39758402 -0.20148042 0.37830418 0.08591835
000090 a7 85 d2 3d f4 17 ff 3c 37 c3 8f be 2c aa d7 3d
       0.102793984 0.031139351 -0.28078625 0.105305046
0000a0 6e af a9 3c f7 18 12 3e 1e fa c4 3d d5 69 f4 3d
       0.020713534 0.14267336 0.096180186 0.11934248
0000b0 5d bb 93 3e 07 09 0b 3f 05 50 31 3e 4f 4f b9 bc
       0.28853884 0.5431065 0.17315681 -0.022620825
0000c0 61 0e 3d 3e 45 fb 38 3e 4c 1f 37 3c bd 7d 0f 3d
       0.18462516 0.18064602 0.011176895 0.035032023
0000d0 5c b4 16 be be 9a b1 bc 53 0c c4 3e 74 5e 8b 3e
       -0.14717239 -0.021680232 0.38290653 0.272205
0000e0 20 3b 0b be a5 bf c4 3c 6a 16 5d 3d fc fd 0a 3f
       -0.13596773 0.024017164 0.053976454 0.542938
0000f0 c1 b9 39 bc af cd ce 3d 5e 75 ae 3d 0c ab 1c 3c
       -0.011335791 0.10097825 0.0851848 0.009562265
000100 d7 36 61 bc db ac aa 3d 32 96 f9 bd 8b 23 6b 3c
       -0.013745985 0.08333751 -0.121868506 0.014351736
000110 70 90 18 3e 3d 8d 5d 3e 35 fc 88 be 80 55 63 3d
       0.14898849 0.2163591 -0.2675492 0.05550146
000120 a4 00 99 3e ed 51 df 3c b6 58 51 3e 4c 98 1a bf
       0.298833 0.027260745 0.20443997 -0.60388637
000130 fe 25 db 3c b8 18 32 3e c9 aa 9c 3d 0d a6 09 3f
       0.026751515 0.17392242 0.07649762 0.53769
000140 3e 5f 18 3f 38 4b f8 3e a6 ad b1 3d cb c8 2e 3f
       0.5952033 0.48494887 0.08675699 0.68275136
000150 c8 f0 82 3e 0b 54 8d 3e 4f 35 07 3f 07 a0 d2 3e
       0.25574327 0.27603182 0.5281572 0.41137716
000160 b6 3e 78 3e 30 b1 88 3e 53 c9 64 3e 22 5c c7 bd
       0.24242672 0.26697683 0.22342424 -0.0973437
000170 97 79 9e 3d d0 1c e7 3d cc bf 6d be f4 64 a9 bc
       0.07738035 0.112847924 -0.23217696 -0.020678021
000180 14 d9 5f 3d 6c bf ec 3d bb ea 80 bd fb 0f 41 3c
       0.05465038 0.11559948 -0.06294771 0.011783595
000190 60 08 af 3e 1f 03 40 3f 84 bc 31 3e 2d 67 95 be
       0.34186077 0.7500476 0.17357069 -0.2918028
0001a0 8d 23 df 3e 00 48 a1 be da 97 53 be 5e f7 2f bd
       0.4358181 -0.31500244 -0.20663396 -0.042960517
0001b0 5d 96 4f bd 45 e7 af 3d 6a 81 d1 be 36 14 35 be
       -0.050680507 0.08589033 -0.40919048 -0.17683491
0001c0 b5 34 c1 be 08 59 0a be 5b fd 5f bc 17 b1 1e bf
       -0.37735525 -0.13510525 -0.0136712445 -0.6198897
0001d0 ac 2a ad 3d e9 cc a2 be 09 35 54 3e 86 70 45 bd
       0.08455405 -0.3179696 0.20723356 -0.048203014
0001e0 25 ce ac 3d 41 c8 5d 3e 3a 51 8c 3e db 92 83 3e
       0.084377564 0.21658422 0.2740572 0.2569798
0001f0 d3 37 51 bd 12 f0 80 3c 1e 65 88 3e 84 5e f4 3d
       -0.05107863 0.015739474 0.26639646 0.1193209
000200 2a ff 3f 3e e3 94 85 3c fb 71 9b 3c ff 49 58 3c
       0.18749681 0.016306346 0.018975249 0.013201236
000210 b7 d2 9a 3d 0e 32 94 3c ca bf 2d bd a9 5d f4 3b
       0.07559722 0.018090274 -0.042419232 0.007457454
000220 d8 99 be 3e 00 0e 28 3e 78 96 22 be a7 93 24 3d
       0.37226748 0.1641159 -0.15877712 0.040179875
000230 bb 49 9d 3e c0 79 2e 3e 31 83 2e 3e 13 32 c5 be
       0.30720314 0.17038631 0.17042233 -0.38514766
000240 0d 1b 9d 3e 93 94 08 bd 4b 66 3d 3e 16 96 5d bc
       0.306847 -0.033344816 0.18496053 -0.013524553
000250 34 21 b1 bd 1e f4 45 be c4 fa 28 3f 78 21 09 bd
       -0.08648911 -0.19331405 0.6600764 -0.033479184
000260 2b d5 09 be 41 25 51 3e 35 28 25 be 6c dd 99 bd
       -0.13460223 0.20424367 -0.16128619 -0.07512936
000270 a7 e2 81 bd 05 32 2d 3d ef 29 bf bc 28 99 de be
       -0.06342059 0.04228403 -0.023335425 -0.43476224
000280 f1 e4 b5 bd 4e 09 69 3e 41 aa f1 3b 95 f7 2a bd
       -0.08881558 0.22757456 0.007375032 -0.04174002
000290 d6 28 62 3e 48 cc 06 3e 2a fe 14 be 77 ba 33 3e
       0.2208589 0.13163865 -0.14550081 0.175516
0002a0 c5 ca 21 3e 67 a3 21 3d f0 4b a0 bd 17 5b d9 bd
       0.15800007 0.039462473 -0.07826984 -0.10613077
0002b0 d0 0d 57 3e 83 f6 a8 bc be d6 99 bc cd 68 83 be
       0.21001363 -0.020625358 -0.018779155 -0.25665894
0002c0 b0 a3 a8 bd 50 93 a2 3c 9f 36 99 3e ab 58 14 bd
       -0.08234346 0.019845635 0.29924485 -0.036217373
0002d0 56 c0 d5 be f4 d6 81 3d 51 8e f3 bd dc 3d 62 3e
       -0.41748303 0.06339827 -0.11892379 0.2209391
0002e0 ed 36 a6 3e 93 3d 75 3f 48 ed 08 3e a1 fe 20 be
       0.3246378 0.9579708 0.13371766 -0.15722133
0002f0 d0 b2 24 3e 02 40 92 bd d1 a2 0b 3e d2 d1 b8 3e
       0.16083837 -0.07141115 0.13636328 0.3609758
000300 1c b0 95 bf e6 95 55 3e c0 49 00 3f 69 ec 24 be
       -1.1694369 0.20857963 0.50112534 -0.16105808
000310 b6 f9 be 3e 18 0a 8a 3e 83 b5 9e 3e 17 4a 20 3f
       0.3729989 0.26960826 0.30997857 0.6261305
000320 ac 5c 67 3e 95 cf 30 3e c4 53 98 3e 79 13 26 3d
       0.22593945 0.17266686 0.29751408 0.040545914
000330 32 ca a9 3d 58 c3 24 bd df d7 91 3e 78 c2 a5 3d
       0.08290519 -0.040225357 0.2848501 0.080937326
000340 8d a5 91 3e 52 36 c1 3c e2 7a 79 bd d8 f9 ce 3d
       0.28446618 0.023585472 -0.060908206 0.10106248
000350 62 8d d0 3e 37 e4 10 bf 15 ff c9 3e bd fd 95 bd
       0.40732867 -0.5659823 0.39452425 -0.07323787
000360 e6 69 94 3e 1b b4 34 3e da df 20 3c 52 14 93 3e
       0.28987044 0.1764683 0.009818995 0.2872644
000370 cd 21 55 bc 64 51 48 3e 2b e8 f8 bc ac a7 b5 bd
       -0.013008547 0.19562298 -0.030384144 -0.088698715
000380 c2 af 25 bf ba c3 a8 3c c3 69 4f be d4 df 81 bd
       -0.6472131 0.020601142 -0.20255189 -0.0634152
000390 6f e7 7d 3d 2d 4a 1d be 0d 10 1d be 66 63 2a be
       0.06198829 -0.15360327 -0.15338154 -0.1663948
0003a0 ca d7 54 3c c0 31 e8 bc ef 3d 1f 3f 04 9c 94 3e
       0.012990901 -0.028344035 0.6220388 0.2902528
0003b0 f7 b5 f2 be d7 2a 7d ba 51 96 7a 3e 83 f0 f0 3e
       -0.47404453 -0.0009657568 0.24471404 0.47058496
0003c0 09 28 96 be c0 5c 52 3e 76 51 1b 3e 8f 7b 06 3f
       -0.2932742 0.20543194 0.15167794 0.52532285
0003d0 69 97 07 3f 7e 32 d1 be e2 e0 0f 3e 1d 85 91 3d
       0.5296541 -0.40858835 0.1405063 0.071054675
0003e0 4e 0f 93 3e db 7b 7a 3e 0f 3c 6c be fc cd 55 be
       0.28722614 0.2446131 -0.23069786 -0.20879358
0003f0 d4 cc 93 3c 2f b0 7b 3e 59 b0 84 3e cc d7 29 bf
       0.018042006 0.24578927 0.25915793 -0.66344905

encoder_lstm.weight_hh_l0 f4 [512, 128]
000000 c7 78 8f bd b1 9d d5 3d 4b a9 b8 be c3 9b 18 be
       -0.07005458 0.10430468 -0.3606666 -0.14903168
000010 25 82 5b 3d 9b a4 76 be a7 45 1a 3d 65 fe d0 3e
       0.053590912 -0.2408623 0.037664082 0.40819088
000020 03 66 2f bc 33 b3 7d 3e 61 d5 e1 bd 70 d2 55 3e
       -0.010705474 0.2477539 -0.11027027 0.20881057
000030 ce 34 6f bd 33 1b 48 be d6 de 28 bd df 29 cb bd
       -0.058399968 -0.19541626 -0.041228138 -0.09920096
000040 59 c5 2a bd 9a d3 13 3e a9 3f 87 bd 8f b5 7e be
       -0.04169211 0.14436188 -0.06603939 -0.24873947
000050 79 3d 2b be c3 b4 49 bd d7 6f 19 3c a4 ee 8d 3d
       -0.16722669 -0.049244653 0.009365044 0.06930283
000060 40 30 ab bd 32 b3 8b 3c a6 82 d0 bd 38 ef bb 3e
       -0.08358812 0.01705322 -0.10181169 0.36705947
000070 de 4a 78 bc 4a 6a bc 3d ba 59 13 be 6a 56 85 bc
       -0.0151545685 0.091999605 -0.14389697 -0.016276557
000080 71 e0 4f 3d ef 47 d2 3d 8f ce d6 bd a8 cc 19 be
       0.050751153 0.102676265 -0.10488617 -0.15019476
000090 36 75 98 3e 0b cf 13 be fe 3a 28 be 09 60 18 3e
       0.29776925 -0.1443445 -0.16428754 0.14880385
0000a0 90 8c a9 3d 22 6c fe 3d 4b 26 a2 bd e1 5d 87 3d
       0.08278763 0.124229684 -0.0791746 0.06609703
0000b0 82 a9 87 3e 99 1e 59 3e 04 ac c5 3d 40 8d 83 bd
       0.26496512 0.21203078 0.0965195 -0.06423426
0000c0 3a 57 94 3d 42 3e 21 3d 68 f4 24 3e 05 7e 86 3d
       0.072432 0.039366014 0.16108859 0.06567005
0000d0 ca bc a0 3e 5b 13 9c 3d f3 92 26 3e e8 5f 57 3e
       0.31394035 0.07620879 0.16266994 0.21032679
0000e0 bf 9f 15 3e 58 9e 91 bd 8e e7 99 3d b0 4e 5c bd
       0.1461172 -0.0711028 0.07514869 -0.05378598
0000f0 84 f3 dd be 47 cc 0a be 13 72 96 3d 47 5f 87 bd
       -0.4334985 -0.13554488 0.07345977 -0.066099696
000100 37 1b 9c 3d cd 11 d9 3d 5f d3 05 bb ab c1 d9 bd
       0.07622378 0.10599098 -0.0020420176 -0.10632642
000110 fe a2 9c be 5c c3 c7 3d b0 02 60 3e a6 8f 99 3d
       -0.30593103 0.09754059 0.21876025 0.07498102
000120 57 9b 36 3d 9b f3 6e bd d3 e1 fc bd 19 71 c8 3c
       0.044581737 -0.05833779 -0.1234776 0.024467992
000130 6f 93 63 bd 88 76 83 3c 17 aa e3 bd 82 d4 0c bd
       -0.055560526 0.016047731 -0.111164264 -0.03438235
000140 94 0b 59 3d b2 57 2b be af f0 48 3c 39 3d f8 bd
       0.052989557 -0.16732672 0.012264415 -0.12121052
000150 fd 4c 4c 3d cb de fb 3e aa 2e 9c 3e bd ee 70 bd
       0.04987811 0.49193415 0.30504352 -0.05882143
000160 0f 21 e8 bd e0 2f eb bc ba 16 3d 3b 48 ae 19 be
       -0.113344304 -0.028709352 0.0028852657 -0.1500789
000170 c3 1f 84 bb d3 99 0c be 89 96 14 be d9 f0 9b 3d
       -0.0040321066 -0.13730554 -0.1451055 0.076142974
000180 63 29 1d be 40 2e f6 3c 5b 55 7b be 28 65 59 3e
       -0.15347819 0.03005135 -0.2454428 0.21229994
000190 2d e6 10 3e b5 bf 98 bc fb f2 a9 3d 4d f2 ce 3c
       0.14150305 -0.0186461 0.08298298 0.025262022
0001a0 29 f4 25 bd a5 af ba 3c b7 67 26 3d 9b 85 ad 3c
       -0.040516052 0.022788832 0.040626254 0.021181872
0001b0 09 46 1e 3d 6b 56 71 be a0 24 0f 3e 23 a4 9e be
       0.03864101 -0.23568122 0.13978815 -0.309846
0001c0 ed 78 2c 3e 94 3b 2d be 6d 7c c3 3d b3 54 1e 3d
       0.16843005 -0.16917259 0.09545217 0.038654994
0001d0 17 b2 6a 3e ce bd 8a bd f2 18 8d 3d f2 47 ac be
       0.22919498 -0.067744836 0.068895236 -0.3364864
0001e0 90 db e3 bd e0 c4 e6 3d c8 56 c4 bd 5e 42 8c 3e
       -0.111258626 0.1126802 -0.09586865 0.27394384
0001f0 93 f7 9e bd 3b b2 e2 3d d6 fd 4f bd fc 09 49 be
       -0.07762065 0.11069151 -0.050779186 -0.19632715
000200 11 56 5e 3d a3 d0 91 3c e2 35 2d 3d ce 37 18 3e
       0.054281298 0.017799681 0.042287715 0.14865038
000210 90 70 50 bd 63 b9 92 3e e4 98 ff 3d bb 03 b9 be
       -0.050888598 0.28657064 0.124803334 -0.3613566
000220 a7 cd dd 3c 9a 13 81 bd 0a 01 2d 3e 8d 0a f6 bd
       0.027075602 -0.06302567 0.16894928 -0.12013731
000230 8d c9 97 bd 74 36 a6 3d a9 47 1b 3e 8f ad 89 3c
       -0.0741149 0.08115855 0.15164055 0.016806392
000240 e3 89 bf bd 64 b9 cc bd 00 9d b8 3d 7b d4 50 3e
       -0.09352472 -0.09996298 0.090143204 0.20393555
000250 5b 70 db 3d 6d e7 76 bd a0 92 f3 3d f1 3e 0e be
       0.107147895 -0.0602793 0.11893201 -0.13891198
000260 d5 ac dc 3d 7f 92 71 3b bd 6c a9 3e 83 30 98 be
       0.107751526 0.0036861 0.33090773 -0.29724512
000270 32 3c db 3d 2a df 0f be fb 1b f7 3c dd e1 3c 3e
       0.10704841 -0.14049974 0.03016471 0.18445535
000280 0f 7c c5 bc 7e 80 a1 3d 1b b3 8a bd c5 8f 4f 3c
       -0.024107007 0.07885836 -0.06772443 0.012668555
000290 c9 92 a8 bd f9 ec 9c 3d e0 f4 c2 bd 9e a6 39 3d
       -0.08231122 0.076623864 -0.095193624 0.045324914
0002a0 81 58 c9 bd 5c b6 2a be 89 d2 5d 3c 78 2c d9 ba
       -0.09831334 -0.16671127 0.013538965 -0.0016569039
0002b0 ee e2 51 be e2 de 24 bd 1b 22 8c 3d 00 8f fe 3c
       -0.20496723 -0.04025162 0.068424426 0.031074047
0002c0 91 7a 35 be 14 54 b6 bd 30 ea fe bd cc 1b ed bc
       -0.17722537 -0.089027554 -0.124470115 -0.028943919
0002d0 0b 5f de bd 24 86 27 be 54 47 23 be 2a 65 22 be
       -0.10857972 -0.16359764 -0.15945178 -0.15858904
0002e0 c9 5a 91 3c 24 17 6e 3d b5 77 08 3e 84 bb eb bd
       0.017743485 0.058127537 0.13326915 -0.11510375
0002f0 9c ff 61 3e 6d 09 e1 bc 76 fa 27 3d 17 84 d3 ba
       0.22070163 -0.027470315 0.041010343 -0.0016137388
000300 a1 b9 89 be 88 ee cc bd c0 f8 de bd 5a 0f 25 bc
       -0.26899436 -0.10006434 -0.10887289 -0.010074461
000310 78 d7 0c 3e 97 d7 1d be 75 57 ce 3a f5 05 7e 3d
       0.1375407 -0.15414272 0.0015742617 0.0620174
000320 b5 1c 29 bd 23 9f 6b bc 53 ad bd 3d eb 62 0c bd
       -0.041287143 -0.014381203 0.092615746 -0.034274023
000330 ec 4d 85 3d 26 22 ab bd 58 d0 9b 3d 50 55 86 bc
       0.06509003 -0.08356123 0.07608098 -0.016398102
000340 8e 1a 0d 3d 45 de 58 bd 56 22 e9 bc 69 b8 09 3e
       0.034449153 -0.052946348 -0.028458755 0.13449253
000350 6a 73 d5 bb d5 08 ae be 43 fb 57 be 6f 64 b9 3c
       -0.0065140026 -0.33991113 -0.21091942 0.022630898
000360 37 78 0e bb 8b 7b 2d be 5b 00 47 3c 7d 73 97 3e
       -0.0021739134 -0.16941659 0.012146081 0.29580298
000370 8b 66 df bd 53 16 06 3d 6a 00 45 3d 9a aa a6 bd
       -0.109082304 0.032736134 0.048096098 -0.081380084
000380 29 88 a0 3e b2 dc b5 bd b4 fa 5d 3e 4a 47 03 be
       0.31353882 -0.08879985 0.21677667 -0.12820163
000390 95 ef 29 bc 9d de 19 bd 47 3b 8f bd 94 18 a0 bd
       -0.010372062 -0.037565816 -0.06993728 -0.07817188
0003a0 90 1e 54 3e af 54 95 bc 88 2e 8f bd e1 78 18 3d
       0.20714784 -0.018228857 -0.06991297 0.037224654
0003b0 aa 13 79 3e 49 03 cb 3d ff fc 29 be 32 1e dd 3d
       0.24323907 0.09912736 -0.16600417 0.10796775
0003c0 30 7d 68 be 80 95 f1 3d 63 9b 66 be 6c 38 95 3c
       -0.22704005 0.11796093 -0.22520213 0.01821538
0003d0 51 63 56 be 74 9f fc bc 05 f3 a7 3d 1e e5 19 3e
       -0.20936324 -0.030837752 0.08200649 0.15028808
0003e0 b2 e5 b9 3c b9 30 08 be f6 63 3d 3d fd 66 06 be
       0.022692535 -0.13299836 0.04623791 -0.13125224
0003f0 4a f0 66 3d 65 cc ca 3c 83 98 45 be 40 dc 03 3d
       0.0563815 0.024755666 -0.1929646 0.03219247

encoder_lstm.bias_ih_l0 f4 [512]
000000 ff 11 8c 3d c6 81 a7 bd 61 fe c3 3d ac ac 22 3e
       0.0683937 -0.08179049 0.09570003 0.15886182
000010 4a c1 ca 3d a8 9b 04 3e 2d ff 37 3e cd c9 4d 3e
       0.09900148 0.12950003 0.17968436 0.20096512
000020 ba dc 46 3e ff fe d4 3d 88 99 02 3e d1 44 95 3e
       0.19420138 0.10400199 0.1275388 0.29154065
000030 33 3a 07 3e 1d ad 83 bb 36 a4 ee 3d 73 c5 f2 3d
       0.13205795 -0.0040184394 0.116524145 0.11854067
000040 82 78 01 3d 31 39 7a 3e 96 00 42 bd 78 27 b9 3d
       0.031609066 0.2443588 -0.04736384 0.09040731
000050 87 84 47 bd db 75 f5 bc 37 a2 d5 3d 26 aa d7 3d
       -0.048710372 -0.029963424 0.10431331 0.105305
000060 af a5 5c bd 06 cc bf bc 81 fa 0e 3e fa 88 38 3e
       -0.053868946 -0.023412716 0.13962747 0.18021002
000070 25 96 05 3d d2 47 77 3d d0 4b 90 3d b1 f6 1d 3e
       0.032613892 0.060371228 0.0704571 0.15426137
000080 b4 d4 ce 3d 19 6e c9 3c a2 fb 00 3f 2e c6 23 3e
       0.10099164 0.024588631 0.5038396 0.15993568
000090 c7 2b 88 3e 6c 46 aa 3e fc 0f 01 3e 82 c5 e9 3d
       0.265959 0.33256853 0.12603754 0.11414625
0000a0 28 ef 43 3c 21 10 e1 3d 85 57 23 3b 55 37 21 3d
       0.011958875 0.109894045 0.0024923992 0.03935941
0000b0 93 83 65 3d ac e9 c8 3d 81 24 1c 3f 71 40 73 3d
       0.056033682 0.098101944 0.609932 0.059387628
0000c0 82 dd d2 bd 0f e9 61 3e ae c3 bf 3c e4 94 0f 3b
       -0.102961555 0.22061561 0.023408737 0.0021908814
0000d0 6c 3b 85 3c 1c 42 5c bc a8 69 84 3e 99 70 97 3e
       0.016263686 -0.013443496 0.2586186 0.29578093
0000e0 b8 47 84 3e b9 54 a7 bb f2 db 81 bd 6a 88 bf bc
       0.25835967 -0.0051065353 -0.06340779 -0.023380477
0000f0 4c 4a ce 3e 6f d0 93 3e 56 3a 82 bd 18 e8 57 3d
       0.4029106 0.2886996 -0.06358783 0.052711576
000100 c2 e1 d2 3d 38 51 a1 bd c3 93 85 3e da 4a f0 bc
       0.10296966 -0.07876819 0.26089296 -0.029332567
000110 52 fc b9 bb 25 be b8 bc 00 cd c6 3c 63 5f 9e bd
       -0.005675831 -0.022551605 0.024267673 -0.07733037
000120 30 48 f6 3a d7 0a 24 3d 34 1a 8e 3d 32 bc d7 3c
       0.0018789824 0.0400494 0.069385916 0.026334856
000130 64 cc d3 3e 44 5c 85 3d 74 fb 55 3e 57 22 a7 bd
       0.41366875 0.06511739 0.20896703 -0.08160847
000140 77 1a 91 3d fd 75 02 3e 8b ef bf bc 1b b7 0d 3e
       0.07085126 0.12740321 -0.023429653 0.1383938
000150 de 97 85 3d 18 49 c0 3d 59 6d 7d 3e 87 80 03 bd
       0.06523107 0.093889415 0.24748744 -0.032104995
000160 ed dc 89 3e 82 01 01 3d e1 c3 63 3b 62 0a fd 3d
       0.26926365 0.03149558 0.0034754204 0.12355496
000170 b7 79 ae 3d 6b 30 7a 3c e9 8e d3 3d ef 6e 15 bd
       0.08519309 0.015270333 0.10329992 -0.036482748
000180 66 6b 8d 3e cf 4f e3 3e 04 fe 2e 3e 5e 4b 9d 3e
       0.27621 0.44396827 0.17089087 0.30721563
000190 98 94 2b 3e 24 f9 8c bc 71 b5 22 ba 15 7e dd 3e
       0.16755903 -0.017208643 -0.00062068464 0.43260255
0001a0 0d 60 80 bd fa 4a 83 3e 6c 14 3f 3e 1c a0 5e bd
       -0.0626832 0.2564314 0.18660134 -0.05435191
0001b0 56 b4 bf 3e c9 1b a8 bc d3 68 b4 3e 17 e1 b7 3c
       0.37442273 -0.020521061 0.35236225 0.022446198
0001c0 f6 30 62 3e 7a 72 83 3c 5c fe 82 3e ba 04 ab 3d
       0.2208899 0.016045798 0.25584686 0.08350511
0001d0 aa 47 4f 3e 2b 7c cc 3c 07 c1 6c 3e 24 9d a6 3d
       0.20242181 0.024961552 0.23120509 0.08135441
0001e0 2f bf 89 bd f1 5a 90 3c 82 d7 ff bc ec c4 28 39
       -0.067259185 0.01762149 -0.031230692 0.00016095088
0001f0 b2 12 12 bd b5 27 94 bc ce be d2 bc c7 12 7e 3e
       -0.03566236 -0.01808534 -0.025725748 0.2481185
000200 bc 79 10 3c 97 9f 87 3c b5 87 a5 bd 67 7f 3e bd
       0.008818086 0.01655559 -0.08082525 -0.04650822
000210 1a f5 1f bd 2b ca a4 bd 50 81 f3 bd 1d 7b 75 bb
       -0.039052106 -0.08046373 -0.11889899 -0.0037457414
000220 6e b7 c4 3d 38 41 f5 bd 13 e8 65 bd 86 64 20 bc
       0.09605299 -0.1197533 -0.056129526 -0.009789592
000230 a9 97 76 3c eb 43 0c be 17 6b d8 3d 52 ac 0e 3e
       0.015050807 -0.13697784 0.10567301 0.13932922
000240 8f f1 07 bc 30 01 2e bd e1 45 9a bd 1d 14 c1 bc
       -0.008297338 -0.0424816 -0.075328596 -0.023569161
000250 ef ea c9 3c 22 3e f8 3c 93 13 a1 bc 6e a0 b9 3d
       0.024648158 0.030303065 -0.019662654 0.09063803
000260 ed f9 85 bd 87 dd 36 bc 15 ec 87 bd c8 42 41 3c
       -0.0654181 -0.011161215 -0.06636826 0.011795707
000270 01 01 1f 3d ab f0 34 bd 26 fa c4 bd 6a ef 8c 3e
       0.038819317 -0.04417483 -0.096180245 0.27526408
000280 7b 28 ca bd 7a 60 f9 bd ab 9d fc bd c4 5d cd 3d
       -0.09871002 -0.121766046 -0.1233476 0.1002765
000290 b5 65 3a bd f7 6a 80 ba 13 bf 3a bd bf 11 bf bd
       -0.04550715 -0.0009797503 -0.04559238 -0.09329557
0002a0 9a 43 b2 3d f1 db 64 be 2e 83 46 3d 35 8c 48 be
       0.087043 -0.22349526 0.048464946 -0.19584735
0002b0 38 a2 0d bd 7d 06 e2 bd 3d 57 28 be bf 3b b3 bd
       -0.034578532 -0.11036394 -0.16439529 -0.0875163
0002c0 12 96 6b bd ba b9 ab bd 66 45 19 bd 59 5e 35 3d
       -0.057516165 -0.08385034 -0.0374197 0.04427943
0002d0 78 5a 7c bd d3 87 0a be 7c e1 59 bd 4f 82 10 be
       -0.061609715 -0.13528375 -0.053193554 -0.14112209
0002e0 93 5f b8 bc 7a 06 5f 3c a0 2a ab bd 92 cf 9e bd
       -0.02250651 0.013612384 -0.083577394 -0.07754435
0002f0 e7 c5 60 be 0e 5d 29 be 8a a3 90 bd c3 4d 93 bc
       -0.21950494 -0.16539404 -0.070624426 -0.017981416
000300 79 35 ff 3d 4c 12 8b bc dc db 69 bc f1 fb 8f bd
       0.12461371 -0.016976498 -0.01427361 -0.07030476
000310 17 1b 4f bd 7f dd cd bd 55 93 24 bb b1 03 a5 bd
       -0.050562944 -0.10052013 -0.002511223 -0.08057345
000320 4a 6a b2 3c 42 67 85 3d 2a 14 d1 bb 12 d5 fd bd
       0.021779198 0.065138355 -0.0063805776 -0.123941556
000330 13 e3 40 bd eb 4f 23 3c b5 41 8f 3d 96 69 04 bc
       -0.047091555 0.009967784 0.069949545 -0.008081814
000340 1a d7 a7 3d d5 4f d6 bd ec 5b 47 3d 5e a0 f6 ba
       0.08195324 -0.104644455 0.048671648 -0.0018816104
000350 a0 87 49 bd 16 d8 17 3d bc fe 10 be 91 84 01 be
       -0.049201608 0.03707131 -0.14159673 -0.12648226
000360 bb cb d9 bd 99 0d 13 bb 6e cd 94 bd ef 46 0b bc
       -0.10634562 -0.0022438525 -0.07265745 -0.008500799
000370 5a bb 36 bd ab 3e f5 bc 5f c2 06 3e 5a 5b b8 bb
       -0.044612266 -0.029937109 0.13160084 -0.0056261243
000380 bc 8c 19 bd 3e cc 84 3d c1 7d db 3c 40 d6 6f bd
       -0.03748773 0.064842686 0.026793363 -0.058553934
000390 8a 2f 93 3c f7 fc f1 3c bd 25 1a bc 57 1d 35 bc
       0.017967004 0.029539568 -0.009408412 -0.011054358
0003a0 97 0b 7b 3c b4 27 6b be 15 0a 06 bd 80 15 89 bd
       0.015322587 -0.22964364 -0.03272446 -0.06693554
0003b0 da 54 8c bc ae b6 8a bd c0 f7 6e 3c 8d c3 2c bd
       -0.017130304 -0.06773125 0.014585435 -0.04217868
0003c0 f2 c4 56 bd 37 60 19 be a9 fd 0e bd 2a 93 c1 bd
       -0.052433915 -0.1497811 -0.034909878 -0.094518974
0003d0 a0 7b ab 3b 5c 2b ae 3b 91 b7 1c be 49 4e a2 3d
       0.005233243 0.0053152274 -0.153044 0.07925088
0003e0 65 70 5e 3d 68 df 9e bc ae 90 81 bc 03 0d ca bd
       0.054306407 -0.019393638 -0.015816059 -0.09865763
0003f0 90 33 2d 3d 4a 07 f3 bd 6c a2 ea 3d 77 74 f9 bc
       0.042285502 -0.11866625 0.11456761 -0.030451043

encoder_lstm.bias_hh_l0 f4 [512]
000000 02 62 1f bb 32 7d 66 bc 32 f0 06 bc 29 69 02 3e
       -0.0024319892 -0.014067935 -0.008235978 0.12735428
000010 69 73 4d 3e 98 48 9c 3d bb 73 7b 3e 58 8b 88 3d
       0.20063557 0.07631034 0.24555866 0.06667203
000020 41 b9 53 3e 92 cc bf bc a5 aa 9c bc e5 d7 75 3e
       0.20676138 -0.023412976 -0.019124338 0.24008138
000030 9f a5 d9 3c 12 02 5f 39 20 71 22 3e 67 ab 15 3d
       0.026568232 0.00021267709 0.15863466 0.036540415
000040 9f ea d2 bd ab ec 82 3e b2 0f 61 3d 44 9c 5d bd
       -0.10298657 0.25571188 0.05494661 -0.054104105
000050 e3 e4 14 bd 35 60 3f bc c0 5b 5b 3d 55 6a 05 bd
       -0.036351096 -0.011680652 0.053554296 -0.03257211
000060 be 4a 86 bd d1 59 0f bc dd 26 60 3e 6e e6 8c 3e
       -0.06557225 -0.008749441 0.21889825 0.27519554
000070 ac 1b 12 3e 44 1d c2 bc 90 43 e4 3d 7f 88 31 3e
       0.14268368 -0.023695596 0.11145699 0.17337225
000080 9c cb ee 3d 72 74 d0 3d e6 30 dd 3e e7 a8 2c 3e
       0.11659929 0.1017846 0.4320137 0.16861306
000090 12 f9 5d 3e 7c a2 d2 3e e3 33 52 3e 8f e0 06 3e
       0.21677044 0.4113959 0.20527606 0.131716
0000a0 65 e4 f8 bc 76 67 d1 3d d4 4e c5 bc 7b ee e4 3d
       -0.030382344 0.10224812 -0.02408544 0.11178299
0000b0 fa 5c fe bc ac f7 00 3b ef 74 f6 3e 21 99 82 3d
       -0.031050194 0.0019678874 0.48136088 0.06376863
0000c0 70 f0 94 3c b0 15 8e 3e a3 92 f1 3d 11 8f 79 bc
       0.018181056 0.2775092 0.11795547 -0.015231864
0000d0 b9 6d 06 b9 d1 3b 2d 3c 12 2a 92 3e a9 44 89 3e
       -0.0001282011 0.010573343 0.28547722 0.26810196
0000e0 6f 61 58 3e 94 89 dc 3c 79 8a 4c bb 0f ac 29 bd
       0.21130918 0.026921071 -0.0031210466 -0.041423853
0000f0 f0 f7 8d 3e e7 eb 7a 3e 7e a7 d6 bb 84 25 cf 3b
       0.27728224 0.24504052 -0.0065507283 0.006321611
000100 12 26 04 3e a0 3c 3c 3d 78 e9 72 3e 2c 5e 9d bc
       0.12905148 0.045956254 0.23721874 -0.019209944
000110 cb 85 fa 3c 13 f4 be 3d 39 7a fb 3d f7 56 84 bc
       0.030581376 0.09323897 0.122791715 -0.01615475
000120 f7 99 31 3e ee 84 2c 3d 9d 8c 93 3c bd 50 f2 3d
       0.17343889 0.04211896 0.018011386 0.11831806
000130 e8 59 91 3e db 02 3e bc ab 11 6b 3e a4 a7 a4 3d
       0.28388906 -0.0115973605 0.22955959 0.080397874
000140 52 fb 53 3b eb b3 06 3e 80 29 67 bd d5 f4 b7 3d
       0.0032345844 0.13154571 -0.05643606 0.08982245
000150 8b 37 90 3d 09 23 39 3e 32 96 51 3e 58 18 e1 bd
       0.07041844 0.18079771 0.20467451 -0.10990971
000160 bd 2f 29 3e 4c 14 b6 3d 30 b6 d2 3d ef 25 77 3d
       0.16522117 0.0889059 0.10288656 0.06033891
000170 41 13 22 3e 6d e4 6d 3c 8c a0 30 bc cb 57 50 3c
       0.15827657 0.014519793 -0.010780465 0.012716244
000180 4d 7d 5e 3e c0 d6 bd 3e 7b 7b 2f 3e 0e 02 28 3e
       0.21727486 0.37077904 0.17136948 0.16407034
000190 b8 fd 4a 3e 88 08 39 3d 99 32 84 3d 33 e7 a7 3e
       0.19823349 0.04517415 0.06454963 0.32793579
0001a0 6f 48 74 bc 6a d5 82 3e f1 c8 f2 3d ac e3 cc 3c
       -0.014909848 0.25553447 0.11854733 0.025010906
0001b0 7c 31 a0 3e 1c 76 15 3d 80 34 de 3e 37 c9 44 3d
       0.31287754 0.03648959 0.4339943 0.048043456
0001c0 e1 d0 90 3e 63 df 5a 3d 61 3e c6 3e f2 cb f7 3c
       0.28284362 0.053435694 0.38719466 0.030248616
0001d0 64 89 8e 3d ef 30 3f bd e0 b7 2f 3e ec a3 41 3d
       0.06959799 -0.046677526 0.17159986 0.04727547
0001e0 95 9f 9c bd b0 20 d9 3c 40 4b 5c bc f9 a9 0d 3e
       -0.07647625 0.026504844 -0.013445675 0.1383437
0001f0 63 f9 1f 3c 99 ce a3 bc d2 d6 e6 3d e4 10 90 3e
       0.009764048 -0.019995974 0.112714425 0.28137887
000200 f8 f6 c3 bd 7c 7f c6 bb fc 43 d9 3b d9 dd 74 3c
       -0.0956859 -0.006057678 0.006630419 0.014945471
000210 64 39 ba bd 9b 2d c5 bd 51 96 b8 bc 94 4b a3 bd
       -0.09092978 -0.09627839 -0.022532614 -0.079734
000220 9e 42 88 3d 73 3a b8 bd c1 b9 26 bd ca 75 80 bd
       0.06653331 -0.08995523 -0.040704492 -0.062724665
000230 19 3f d6 bd 0a b4 e9 bc a4 7e b9 3d 78 46 c9 3d
       -0.10461254 -0.028528232 0.09057358 0.09827894
000240 2b 33 b0 3b 8f bc 25 be c0 a8 a7 bc 5f ca 0c 3d
       0.0053771934 -0.1618521 -0.020466208 0.034372684
000250 9c 94 de bc 96 11 43 3c 0a f8 55 bd 85 29 7b 3d
       -0.027170472 0.011906048 -0.0522385 0.061318893
000260 81 5b 8f bd b0 4c c4 bc 1b 06 3f bb c9 1e ff 3b
       -0.06999875 -0.023962349 -0.0029147926 0.0077856523
000270 47 0e b8 bc d7 91 bb 3d ac ec bc 3b 1b 5a 4a 3e
       -0.022467745 0.09158676 0.005765518 0.19760935
000280 9e 22 f3 bc 8d 9f bd bd ee ae 79 bd 89 03 ff 3d
       -0.029679593 -0.092589475 -0.06095784 0.12451846
000290 27 b0 c8 bd af 52 a4 3d ab e6 f2 bd 27 b7 53 bc
       -0.097992234 0.08023583 -0.11860403 -0.012922085
0002a0 2f a7 90 3d 12 82 5b be cb e7 7b bd df d0 f2 bd
       0.07063138 -0.21436337 -0.061500352 -0.11856245
0002b0 90 36 0b be 33 1f 26 be a5 44 1e be 3a 17 6a bd
       -0.13595033 -0.16222839 -0.15455873 -0.057151057
0002c0 39 c8 e5 bd 8a 53 9a 3c aa 27 62 bd 59 56 b4 bc
       -0.1121983 0.018838663 -0.055213608 -0.02201383
0002d0 c2 78 84 bd 2d 54 51 bd 2c a3 c5 bc c3 2e bf bd
       -0.06468345 -0.051105667 -0.024125658 -0.09335091
0002e0 95 12 25 be 46 db 62 3c bd 6b 9f bd 0e dd d6 3c
       -0.1612037 0.013846224 -0.07784221 0.026228454
0002f0 25 73 cb bd 56 65 da bd 44 97 04 bd 76 02 c4 bd
       -0.099340715 -0.106638595 -0.03237082 -0.09570782
000300 6d 88 e2 3d 61 d7 4f bc c8 e9 9b bd 46 1f bc bd
       0.110611774 -0.012685628 -0.076129496 -0.091856524
000310 81 4b 54 bd 50 d6 84 3c e0 11 21 bd 61 f1 c3 bc
       -0.05182982 0.016215473 -0.039323688 -0.02391881
000320 ec 39 17 3e 62 22 12 bd 2d cb d4 bd ca c7 4b bd
       0.14768189 -0.03567732 -0.10390315 -0.04975108
000330 38 3f ac 3d 7a ce 9d bd da a7 73 3d f5 aa 64 bd
       0.084104955 -0.07705398 0.059486248 -0.0558271
000340 42 e1 97 3d 85 d0 c7 bd ff 86 f0 bd 0c 69 31 bd
       0.074160114 -0.09756569 -0.117444985 -0.04331307
000350 b4 c0 7c 3b a9 37 4a 3d 95 81 9f bd 8a 44 06 3d
       0.0038567008 0.049369488 -0.07788388 0.032780208
000360 e0 27 71 bd 57 93 a2 bc 79 c7 cf bd 1a 8c 80 bd
       -0.05887592 -0.019845648 -0.10145468 -0.06276722
000370 e4 50 1c 39 2a 8a 93 3b c3 fe 04 3e db 69 81 bd
       0.00014907453 0.0045025544 0.12987809 -0.063190185
000380 24 18 2f bd e7 3a 2d bd 4f 18 d9 bc 97 d1 31 3d
       -0.04274763 -0.0422925 -0.026500849 0.04341277
000390 6d 11 bf 3d 75 c8 82 ba 26 3e 69 3c ad d2 0d be
       0.093294956 -0.0009977954 0.014236009 -0.13849898
0003a0 dc d0 a9 bd 4a a7 3c be f8 62 aa 3d d8 22 43 3a
       -0.0829179 -0.1842319 0.08319658 0.0007443852
0003b0 e5 30 d3 bd 0e 60 f1 bd 20 64 49 bd 13 5f 28 3d
       -0.1031206 -0.11785899 -0.049167752 0.041106295
0003c0 45 1c 41 bd ff 60 8b bd d0 0f 08 bd 02 ee 87 bd
       -0.0471461 -0.0680561 -0.033218205 -0.06637193
0003d0 b8 1f 81 3d e7 e4 d8 bd b5 b7 91 bd 33 dd a6 bd
       0.06304878 -0.10590535 -0.071151175 -0.08147659
0003e0 3b 00 48 bc 6a 75 d8 3d 8a 3f 87 bd 81 9a 1c bc
       -0.012207086 0.1056927 -0.06603916 -0.009558321
0003f0 ec 94 95 bd 21 5e 36 3d 0a 6d c5 3d 52 40 14 3b
       -0.07303795 0.044523362 0.09639938 0.0022621346

encoder_attn.weight f4 [1, 276]
000000 f8 40 8e bb 8d 18 19 bd 30 8f 60 3b 1d 0f 36 bc
       -0.004341241 -0.03737693 0.0034265034 -0.011112002
000010 a5 5f 31 3d 43 74 4a 3b a9 91 f8 bc fe 70 5b bd
       0.043304104 0.0030892051 -0.030342894 -0.053574555
000020 9e 2b 4a 3d 2d 20 11 bd 56 bc 08 bd c3 5b 1c 3c
       0.049358003 -0.035431076 -0.033382736 0.009543362
000030 c5 11 f3 bc 64 04 a4 3c 1a 06 11 bb 56 c7 6f bd
       -0.02967156 0.020021625 -0.002212888 -0.05853971
000040 96 cb 4f 3d 2b 85 46 bc 2e df 1b 3d a2 a4 6a bd
       0.050731264 -0.012116711 0.038054638 -0.057285912
000050 45 fd b2 bc 4f e3 1f 3d 57 f3 37 3d d2 d1 00 bd
       -0.021849284 0.039035138 0.0449098 -0.0314501
000060 23 a1 32 bd 52 cb e1 3b ee 62 73 3b 90 c8 03 bd
       -0.043610703 0.0068906927 0.0037137824 -0.032173693
000070 c1 d0 a8 bb 1a 62 51 3d 0c 29 b4 ba c5 e3 18 3d
       -0.0051518385 0.051118948 -0.0013745143 0.037326593
000080 dd 43 38 3d b2 d8 cf 3c 71 5a 39 3d 30 72 1c b9
       0.044986594 0.025371883 0.045252267 -0.00014919857
000090 ff b7 3b bd b2 ba 3d 3d 15 34 9c 3c 6b 10 45 3d
       -0.04582977 0.046320625 0.019067803 0.04811136
0000a0 38 bc 9d bc b3 f3 55 bd df 5b a6 bc e4 46 e9 3c
       -0.019254789 -0.052234363 -0.02030748 0.028476186
0000b0 df ee 72 3d b8 15 00 bd 1b 51 3b 3d 72 93 19 bd
       0.059309836 -0.031270713 0.045731645 -0.03749413
0000c0 93 67 42 3d 1a 33 12 3d e8 fa 7b bc 49 16 d3 bb
       0.047462057 0.035693265 -0.015379645 -0.0064418656
0000d0 06 e5 4e 3d d5 69 6c 3c 8c cb dc bc 07 aa 2c bc
       0.050511383 0.014429529 -0.026952527 -0.010538585
0000e0 3c 38 29 3c 31 26 9c bc da c1 2a 3d 8a 8b 61 3d
       0.010328349 -0.01906118 0.041688778 0.055064715
0000f0 aa 25 b6 3c db 29 bb bb 9f a9 28 bd b0 47 5d 3b
       0.022234756 -0.0057117767 -0.04117739 0.0033764653
000100 4e 41 0b bc f6 35 ba 3c 73 22 ee bc 08 8c b4 3c
       -0.008499457 0.022730809 -0.029069161 0.022039428
000110 0a d9 18 3d 0f a4 4d bd 05 90 81 b7 9c 63 4e 3a
       0.03731636 -0.050205287 -1.5445063e-05 0.00078731193
000120 ea 97 ad bc 75 97 95 bc 76 71 73 3d db 6c e3 3b
       -0.021190602 -0.018260697 0.059434377 0.006940467
000130 74 fa bd bc 4e 3d 90 bc bc cc 51 3d f4 82 1e 39
       -0.023190714 -0.017607357 0.05122064 0.00015116838
000140 4a c8 9e bc 19 e5 1e 3c 53 7c 2e bd 8b 41 59 bd
       -0.019382615 0.009698176 -0.042599034 -0.053041022
000150 ec 12 9f bc e0 7f 4c 3d ce 8e 61 bd a9 aa ed 3b
       -0.019418202 0.04992664 -0.05506783 0.0072530103
000160 04 de 19 bd d9 a6 34 bd 6d 51 13 3c 24 17 27 bd
       -0.037565246 -0.04410443 0.008991581 -0.040793553
000170 8e 0b c8 bc 1b 1a 3e 3d bb 9b d0 bb 58 96 41 bd
       -0.024419572 0.046411615 -0.006366221 -0.04726252
000180 75 26 a3 bb e7 95 47 3d 04 e3 f4 bc 97 bc 9d bc
       -0.0049789497 0.048726942 -0.029893406 -0.019254966
000190 a3 be 3d bd 4c 31 4c bd 13 2e 37 bd 9c 81 27 bd
       -0.046324383 -0.0498517 -0.044721674 -0.04089509
0001a0 de 39 2b bd 43 a5 ca 3a 23 d1 93 3c 23 d2 09 3d
       -0.041803233 0.0015460629 0.01804406 0.033647668
0001b0 9f 68 1e 3d 46 ee 38 3b 13 23 53 3c 9e b3 39 bd
       0.038673993 0.0028218194 0.01288678 -0.045337312
0001c0 46 c5 ce 3c 26 47 dc bc 57 8f 2b bd 1c 99 17 3d
       0.025240552 -0.026889395 -0.041884746 0.03701125
0001d0 e2 ce 5b bc 3d e3 58 3d 01 e8 e2 3b ff 78 2c bd
       -0.013416024 0.052951086 0.0069246297 -0.04210758
0001e0 49 05 07 bd e4 87 9e bc 2d 74 e0 bc 0d c7 57 bd
       -0.032964025 -0.019351907 -0.027399147 -0.052680064
0001f0 13 e3 fc 3c 85 7d 8b bb ba 9a 6c 3c 9d a6 d0 3a
       0.030869996 -0.0042569065 0.014441187 0.0015918795
000200 bf 5c 0b bd 2c b8 66 3c 4d 18 76 3d 2f bf cf bb
       -0.034023996 0.014081996 0.06008177 -0.0063399295
000210 06 50 eb 3c f3 3d 56 bc 15 e2 ae 3c af ac 67 bc
       0.028724682 -0.013076293 0.021348039 -0.014140292
000220 85 3d a4 bc e1 33 76 bd 5e e7 5a bb 42 18 50 3d
       -0.020048866 -0.06010807 -0.0033402066 0.050804384
000230 d4 de 00 bd 2d 66 ec bc df 1d d8 bc 40 56 f5 3b
       -0.031462505 -0.028857315 -0.026381431 0.0074870884
000240 47 d8 44 3c 34 61 79 3c e2 f5 d2 bb 1a 65 3a 3d
       0.012014455 0.015220929 -0.006438003 0.045506574
000250 fe a1 7e 3c e5 58 34 bc 84 5c 65 bc e5 57 96 3b
       0.015541552 -0.011007522 -0.013999108 0.0045881146
000260 e2 ec 38 bc a2 5c 44 bc 17 3f 69 3d e9 47 8b 3c
       -0.011286946 -0.011984976 0.056944933 0.017002063
000270 77 1a 03 bb b1 7a 04 3d 82 f3 37 3d 3e 7f 24 bb
       -0.0020004788 0.03234357 0.04490996 -0.0025100256
000280 01 29 b2 bb 3f dd 08 bd 00 6f 83 bc 3b 33 1b 3d
       -0.005437017 -0.03341412 -0.01604414 0.037890654
000290 53 2b 65 bd 8e 38 f1 3c 60 0a 20 3d c2 32 66 bd
       -0.05594952 0.029445913 0.039072394 -0.05620075
0002a0 ee 8b 14 3d 31 3f 77 bc 9b 22 39 3d 66 5e 18 bd
       0.03626626 -0.01509075 0.045199018 -0.0371994
0002b0 d4 d3 8f bc 22 13 34 bc 1e 3f 43 bd bd 2a 6b 3d
       -0.017557062 -0.01099089 -0.047667615 0.057413805
0002c0 86 9c 04 3c 14 ab 32 3d d7 ae 2f 3d de 75 bf 3c
       0.008093959 0.043620184 0.04289135 0.023371633
0002d0 ee 90 41 3d a1 67 43 bb 84 e9 72 bd f0 78 5b bc
       0.047257356 -0.0029816406 -0.05930473 -0.013395533
0002e0 6d d0 3d bc 62 3b 95 3c 01 ef fb 3b bf 2a 29 3d
       -0.011585337 0.018216792 0.0076884036 0.04130053
0002f0 21 bb 38 bd 62 27 71 bd 2c 2a 0a 3d 7e 98 3a bd
       -0.045100335 -0.05887545 0.033731624 -0.045555584
000300 f5 ed e5 3c 0e 4b a3 b7 f6 08 b8 bc 59 ee fb 3c
       0.028067568 -1.9466064e-05 -0.02246521 0.030753301
000310 b3 06 34 3d c4 8a 4e bc 25 0e 5a 3d f5 44 5c bc
       0.0439517 -0.0126063265 0.053236146 -0.013444175
000320 1a f5 2d 3d 0c b3 4e bd 24 90 22 3d 45 20 57 3d
       0.042470075 -0.05046372 0.039688244 0.05252101
000330 79 05 50 3c 67 fb 14 bd 46 b9 70 bd a7 bc 6a 3d
       0.012696617 -0.03637257 -0.05877044 0.05730882
000340 57 8a 67 3d 21 dd b3 bc 54 d6 b2 3c 0c df 2c bc
       0.056528416 -0.021956028 0.021830715 -0.010551225
000350 69 64 26 3d 6e fb 22 3d c0 5b 53 3d bc 8e 64 3d
       0.040623102 0.039790563 0.05160117 0.055800185
000360 c5 d8 30 3d 67 90 ce 3b f1 bf 19 bc 04 e5 6c bd
       0.043175478 0.006303835 -0.009384141 -0.057835594
000370 a6 fd ae bb fe c9 20 3d 24 95 29 bd 1c e6 25 bc
       -0.005340296 0.039255135 -0.041401997 -0.010125663
000380 c6 a4 14 bd be b6 25 3d ac 72 80 bc 89 a1 80 3c
       -0.036289953 0.04045748 -0.01567968 0.015702026
000390 37 2f b7 bc a2 7e ba ba a8 5a 34 bd a5 81 07 bd
       -0.022361381 -0.0014228413 -0.04403177 -0.033082623
0003a0 28 fd 5d bd 6a 19 45 3d 6a fd 46 3c 61 e0 52 bb
       -0.054196507 0.04811994 0.01214538 -0.0032177197
0003b0 f5 be 6f 3c 64 09 0d bd e6 ac 2c 3c 67 36 2c bd
       0.01463293 -0.034432784 0.010539269 -0.04204407
0003c0 ac 46 10 3c 73 23 85 3c dc 0d e7 3c 10 c8 b6 bc
       0.008805912 0.016252255 0.02820485 -0.022312194
0003d0 6b c4 a5 3c 14 85 e3 3c 2b da 35 3d a2 45 70 bb
       0.020235261 0.027773418 0.044397514 -0.0036662598
0003e0 ce 93 3f bd 1a 67 87 3c 6f 80 de bc 1b 40 aa bc
       -0.046771817 0.016528655 -0.027160851 -0.020782521
0003f0 29 ee 39 bc 68 c3 53 bc 59 38 1e 3d 09 2b df bc
       -0.011348286 -0.012925006 0.038627956 -0.0272422

exp_avg f4 [7, 7]
000000 00 00 00 00 00 00 00 00 00 00 00 00 00 00 00 00
       0.0 0.0 0.0 0.0
000010 00 00 00 00 00 00 00 00 00 00 00 00 00 00 00 00
       0.0 0.0 0.0 0.0
000020 04 00 00 00 00 00 00 00 00 00 00 00 00 00 00 00
       6e-45 0.0 0.0 0.0
000030 00 00 00 00 00 00 00 00 00 00 00 00 00 00 00 00
       0.0 0.0 0.0 0.0
000040 00 00 00 00 00 00 00 00 00 00 00 00 00 00 00 00
       0.0 0.0 0.0 0.0
000050 00 00 00 00 00 00 00 00 00 00 00 00 00 00 00 00
       0.0 0.0 0.0 0.0
000060 09 e9 1d b2 00 00 00 00 00 00 00 00 00 00 00 00
       -9.191589e-09 0.0 0.0 0.0
000070 00 00 00 00 00 00 00 00 00 00 00 00 00 00 00 00
       0.0 0.0 0.0 0.0
000080 c0 9b d5 33 00 00 00 00 00 00 00 00 00 00 00 00
       9.946916e-08 0.0 0.0 0.0
000090 00 00 00 00 00 00 00 00 00 00 00 00 00 00 00 00
       0.0 0.0 0.0 0.0
0000a0 05 0f 7e 34 00 00 00 00 00 00 00 00 00 00 00 00
       2.3661057e-07 0.0 0.0 0.0
0000b0 00 00 00 00 00 00 00 00 00 00 00 00 00 00 00 00
       0.0 0.0 0.0 0.0
0000c0 00 00 00 00
       0.0

exp_avg_sq f4 [7, 7]
000000 00 00 00 00 00 00 00 00 00 00 00 00 00 00 00 00
       0.0 0.0 0.0 0.0
000010 00 00 00 00 00 00 00 00 00 00 00 00 00 00 00 00
       0.0 0.0 0.0 0.0
000020 ff 5e cd 23 00 00 00 00 00 00 00 00 00 00 00 00
       2.2266377e-17 0.0 0.0 0.0
000030 00 00 00 00 00 00 00 00 00 00 00 00 00 00 00 00
       0.0 0.0 0.0 0.0
000040 00 00 00 00 00 00 00 00 00 00 00 00 00 00 00 00
       0.0 0.0 0.0 0.0
000050 00 00 00 00 00 00 00 00 00 00 00 00 00 00 00 00
       0.0 0.0 0.0 0.0
000060 9c e2 0b 27 00 00 00 00 00 00 00 00 00 00 00 00
       1.941297e-15 0.0 0.0 0.0
000070 00 00 00 00 00 00 00 00 00 00 00 00 00 00 00 00
       0.0 0.0 0.0 0.0
000080 26 40 0e 2b 00 00 00 00 00 00 00 00 00 00 00 00
       5.053756e-13 0.0 0.0 0.0
000090 00 00 00 00 00 00 00 00 00 00 00 00 00 00 00 00
       0.0 0.0 0.0 0.0
0000a0 47 dc 45 2c 00 00 00 00 00 00 00 00 00 00 00 00
       2.8117662e-12 0.0 0.0 0.0
0000b0 00 00 00 00 00 00 00 00 00 00 00 00 00 00 00 00
       0.0 0.0 0.0 0.0
0000c0 00 00 00 00
       0.0

exp_avg f4 [7]
000000 00 00 00 00 fa 11 89 31 00 00 00 00 72 b6 a8 b0
       0.0 3.9892685e-09 0.0 -1.2275463e-09
000010 b1 16 2c 32 bb d2 b1 34 00 00 00 00
       1.0016877e-08 3.3122146e-07 0.0

exp_avg_sq f4 [7]
000000 00 00 00 00 a9 fa 5a 27 00 00 00 00 65 ec 02 27
       0.0 3.038946e-15 0.0 1.8169274e-15
000010 80 c0 b9 2a 49 a7 45 2c 00 00 00 00
       3.2996175e-13 2.8088246e-12 0.0
