weights_new/EncoderEpochnew0_17_8.pt (torch_old, 862520 bytes, 27 tensors)

gamma_x_l.weight f4 [7, 7]
000000 82 48 8d be e6 aa b9 be 8a 14 bf be 93 57 b0 3e
       -0.27594382 -0.36263198 -0.37320358 0.34441814
000010 cc 26 93 be a0 c3 8e bd 7c a6 f0 3d 90 1e a3 3c
       -0.28740537 -0.06970906 0.117505044 0.019912034
000020 2f 3e fa bd 00 44 43 3a ec e1 ba be 80 16 90 3c
       -0.12218892 0.00074487925 -0.3650049 0.017588854
000030 81 12 83 3e 35 b2 9f be d2 f4 36 3e b3 06 97 be
       0.25600055 -0.3119065 0.17866829 -0.294973
000040 c3 42 9a bd 00 a1 8e 3a 8e 4b 64 3e fa b5 18 3e
       -0.07532265 0.0010881722 0.22294447 0.14913169
000050 6f 29 8d 3e b8 43 bf bd c5 40 20 be 30 9e 2d be
       0.27570674 -0.09339088 -0.15649708 -0.16954875
000060 cf 76 87 3e b8 43 f5 3d a8 6e 89 be 12 3f 16 be
       0.2645783 0.11975807 -0.26842237 -0.14672497
000070 be 7d 80 be a4 1b fa 3d 4e 0d 54 3e 81 bd 68 be
       -0.25095934 0.12212303 0.207082 -0.2272854
000080 1f 01 4b bc ba 65 36 3e bc cb 37 be 61 11 97 3e
       -0.012390404 0.17812243 -0.17948812 0.29505447
000090 f9 3f 8c 3e 98 c8 f0 3d 00 e1 fe ba c0 be e0 bd
       0.27392557 0.1175701 -0.0019445717 -0.10973883
0000a0 c0 75 f1 3b 20 99 5c be 6c 46 77 be 3c fb e7 bd
       0.007368773 -0.21542788 -0.24147958 -0.11327216
0000b0 c5 1a bb be d0 51 b9 3d 08 73 c4 bd a8 50 68 3d
       -0.3654386 0.090488076 -0.09592253 0.056717545
0000c0 00 f3 d3 3c
       0.025872707

gamma_x_l.bias f4 [7]
000000 ad 49 8b be b7 e1 2a 3e 4a 61 1c 3e 65 ab 55 bc
       -0.27204648 0.16687666 0.15271488 -0.013041352
000010 6e 5d 7f 3e 08 9e 11 bd d0 13 f9 bd
       0.24937984 -0.0355511 -0.12161982

gamma_h_l.weight f4 [128, 7]
000000 09 30 a8 3d 2a c6 0d be ec e1 e7 bc a3 2a d4 3d
       0.08212287 -0.13845125 -0.02830597 0.10359695
000010 45 99 bd bc 4d ee 8b 3c cb 7f 70 be d2 20 61 3e
       -0.023144374 0.017081404 -0.23486249 0.21985176
000020 46 f6 9a be 25 56 a1 3d a9 0e b9 be 48 30 72 3e
       -0.30266017 0.07877759 -0.36143997 0.2365123
000030 24 01 09 be 42 ac b9 be 18 ed 43 be 72 03 c9 3e
       -0.13379341 -0.36264235 -0.19133413 0.3926044
000040 9a 63 06 be d2 5f 9e 3e c1 d3 32 3e b2 e3 97 3d
       -0.13123932 0.3093248 0.1746359 0.07416476
000050 0b 42 d8 3e 3d 9d 21 be e0 04 fa bd 91 20 88 bd
       0.42237887 -0.15782638 -0.12207961 -0.066468365
000060 be db 6c 3e a3 0a 91 bd 73 94 88 3e ad 81 e1 be
       0.231307 -0.07082107 0.26675758 -0.44044247
000070 38 3b 8c 3e 5e 71 3a 3e 7f e2 ce 3d 36 c8 87 3e
       0.2738893 0.18207309 0.101017945 0.26519936
000080 8e 78 0e 3c 9f e4 36 be 5a 17 f6 bd 45 7e 8b be
       0.008695735 -0.1786065 -0.12016173 -0.27244774
000090 79 21 95 3c 31 fe 50 be 9d ed a9 3e df 53 83 3e
       0.018204438 -0.20409466 0.33189097 0.25649926
0000a0 eb ec 2b 3d 0b 84 56 3e d8 36 c0 be 99 71 12 be
       0.04197399 0.20948808 -0.37541842 -0.14301147
0000b0 18 51 10 bd 3e 9f a4 3e e5 0e 00 3e e1 7d 80 3a
       -0.035233587 0.32152742 0.12505682 0.000980314
0000c0 70 81 25 bd 67 a0 d7 bd c4 e8 88 3e c0 d7 12 bd
       -0.040406644 -0.10528641 0.26740086 -0.035850286
0000d0 91 a8 21 3e 60 ac 10 be 6a 37 95 3e 54 70 04 3e
       0.15786959 -0.14128256 0.2914384 0.12933475
0000e0 17 ef c2 3e 42 52 8e be 73 a7 ae 3e 5e 24 78 be
       0.38073036 -0.27797133 0.3411213 -0.24232623
0000f0 01 f3 cc 3e 9f 96 83 3d cc 44 3f 3e f9 35 30 3e
       0.40029147 0.06425213 0.18678588 0.17208089
000100 3f d8 7a 3c a6 ac b9 3e 3c 8d a0 3e 55 2c 9b 3d
       0.015310346 0.36264533 0.31357753 0.07576815
000110 b8 91 1b 3e cd cc 33 be 12 d8 64 be 28 10 96 3c
       0.15192306 -0.17558594 -0.2234805 0.01831825
000120 3d 8b 90 be 90 8b a0 3e d8 41 d5 be f7 26 64 3e
       -0.2823123 0.31356478 -0.41651797 0.22280489
000130 f8 e0 09 3e 80 bf 14 be d9 4c 69 be 59 7e 6a 3e
       0.13464725 -0.14526176 -0.22783221 0.2289976
000140 64 72 10 be b2 90 e9 bc d7 2f 5a be 9f 9a 8a be
       -0.14106137 -0.028511379 -0.21307312 -0.27071092
000150 40 b7 27 3d 28 40 b6 3d 01 bf b8 be 17 0a aa 3e
       0.040946245 0.088989556 -0.36083224 0.33210823
000160 92 3d f5 bb 65 15 73 3e d3 48 61 3e 09 94 89 3e
       -0.0074841464 0.2373863 0.22000436 0.26870754
000170 b8 1e 8c be b6 c7 f8 3d 73 1e 67 bc b0 85 17 3e
       -0.27367187 0.12147467 -0.014106381 0.14797091
000180 d7 98 77 be 9f 59 ed 3d 40 68 f7 bb c0 46 72 bd
       -0.24179398 0.115893595 -0.0075502694 -0.059149504
000190 9f 79 3d be c4 e2 a4 be 2b 19 12 be 8e 92 24 be
       -0.18503426 -0.32204258 -0.14267413 -0.16071531
0001a0 49 ca 7c be 79 40 80 3e 22 66 da 3d 75 96 9f bd
       -0.2468654 0.2504919 0.106640115 -0.07792369
0001b0 30 18 df be cf d8 74 3e 3a ac 84 be 34 e8 1b 3e
       -0.4357314 0.23910831 -0.25912648 0.15225297
0001c0 47 e5 14 3d 91 5c 67 be c8 ab 7a 3e 23 bb fc 3c
       0.03635147 -0.22593905 0.24479592 0.030850952
0001d0 20 c4 81 3d 91 c7 2c 3e 93 35 9c 3e b6 8b 1c 3e
       0.06336236 0.16873004 0.30509624 0.1528767
0001e0 d9 85 e5 3d 99 3c 98 be 3c a9 88 3e e5 69 81 be
       0.1120717 -0.29733732 0.26691616 -0.25276104
0001f0 45 6f 2a 3e 48 9e 89 3e 80 85 0c be fe 13 11 3e
       0.16644008 0.26878572 -0.13722801 0.14167783
000200 8e a6 5d 3e 95 c4 8a 3d 62 03 8a be 8b 2f 88 3e
       0.21645567 0.06775776 -0.26955706 0.26598772
000210 18 ac 55 3e c4 a7 de bd 57 ab 90 be 40 2e 1a 3c
       0.2086643 -0.108718425 -0.28255722 0.009410441
000220 ff 60 4d be a0 0f 8a 3c 7c 9f f2 bd 94 00 f7 bd
       -0.20056532 0.016853154 -0.118468255 -0.12060657
000230 f7 27 04 3e 11 12 06 bd 25 59 f5 bd 60 8d bd 3e
       0.1290587 -0.032732073 -0.119798936 0.37021923
000240 8a 9f 64 3e a0 60 6e 3e b3 dc 06 3e 7f 37 43 3e
       0.22326484 0.23279047 0.13170128 0.19064139
000250 1d 18 6d 3d 1e 15 b8 3d b7 7d b3 3e 4d 56 d1 3c
       0.057884324 0.08988403 0.3505685 0.025553847
000260 ba bf be 3d ba d6 1d be f6 f0 da 3d 8e a8 b1 3d
       0.09313913 -0.15413943 0.10690491 0.086747274
000270 27 1b 96 bd d9 3c 20 3d 01 b3 9b 3d 3a fb 77 bd
       -0.07329398 0.03912053 0.07602502 -0.060542323
000280 6d 73 8e 3e d2 9f c6 3d 0d 74 c6 3e 9f b0 57 be
       0.27822438 0.09698452 0.38760415 -0.2106347
000290 1c 9d 66 3e 25 6f 93 3e 8f 88 af be 3c 03 35 3e
       0.2252087 0.28795734 -0.34283873 0.17677015
0002a0 ad ef 77 3e ed 79 51 3e 40 ba 95 3d 62 f1 1e 3d
       0.24212523 0.20456667 0.07310915 0.03880442
0002b0 10 69 8b 3e 7f b3 2e be 3c 93 60 be f0 51 98 be
       0.27228594 -0.1706066 -0.21931165 -0.29750013
0002c0 96 74 2c 3e 8b c7 2c 3e 6d 74 35 be 86 24 a4 3d
       0.16841349 0.16872995 -0.17720194 0.08014779
0002d0 24 0b 95 bd f5 ab 54 bd 59 b3 ab 3e 5f ad f8 bd
       -0.072775155 -0.051921804 0.3353527 -0.12142443
0002e0 12 50 4f bd d7 08 2f be fd e0 9c 3e f0 61 67 3e
       -0.05061347 -0.17093216 0.30640402 0.22595954
0002f0 c1 11 d9 3e f0 cc d3 bd c3 a1 90 bc cf 38 8c be
       0.42396358 -0.10341823 -0.017655259 -0.27387092
000300 60 ec b5 be 49 aa 1e bd 84 1d 85 3e d9 f3 35 be
       -0.35531902 -0.038736615 0.2599908 -0.17768802
000310 ca 63 af be f6 1f fc bd a7 e9 1e 3e 6d ad 4b 3e
       -0.3425582 -0.123107836 0.15518819 0.19890375
000320 b0 14 01 be 7f 89 08 3d a2 cd bc bd 8a 31 98 3e
       -0.12605548 0.03333425 -0.09218909 0.29725295
000330 d3 bf c4 3e 87 52 86 3e a3 65 66 3e c7 fb ba bd
       0.384276 0.26234838 0.22499709 -0.09130054
000340 f0 ff c4 3e 77 51 3c bd a6 3d 09 be 1c 3f 95 be
       0.38476515 -0.04597613 -0.13402423 -0.2914971
000350 4f 2c 49 3d 53 b4 c0 3e 20 bb a9 3e 48 67 d9 bd
       0.04911452 0.37637576 0.33150578 -0.106154025
000360 02 b0 9b bd 77 8d 5e be 05 9e 83 be 58 d1 2a bd
       -0.0760193 -0.21733652 -0.25706497 -0.041703552
000370 41 09 9b 3e 12 ec 88 be f1 fd 29 be e0 41 36 3d
       0.30280498 -0.26742607 -0.16600777 0.044496417
000380 b9 46 2f be 95 d9 9d be dc 32 85 3e 99 41 1d be
       -0.17116822 -0.30830064 0.26015365 -0.15357055
000390 4e 0d 69 3e 02 a0 ad 3c 4b fd 42 be d3 83 43 be
       0.22758982 0.021194462 -0.19041936 -0.19093256
0003a0 2e a1 a3 3e d4 e8 20 3c 44 76 e6 3d 09 4a ae be
       0.31958908 0.009821136 0.11253026 -0.3404086
0003b0 60 87 ca be ec 82 2c 3e 89 f7 f9 3d 04 f0 9b be
       -0.39556408 0.16846818 0.12205417 -0.30456555
0003c0 54 b7 6c 3d a0 24 83 3d 2d c6 51 bc 68 37 2a 3e
       0.057792023 0.0640347 -0.012803596 0.16622698
0003d0 e4 ba ca 3e d8 e9 ab be bc 56 df 3d 60 51 f7 bd
       0.3959571 -0.33576846 0.10905215 -0.12076068
0003e0 7a 64 8c be b2 3d be be 2d 25 ae be 52 7c ad be
       -0.27420408 -0.37156445 -0.34012738 -0.3388391
0003f0 b0 14 e0 3d 60 53 12 3e 64 5c 08 3e 69 f9 69 be
       0.10941446 0.14289618 0.13316494 -0.22849049

gamma_h_l.bias f4 [128]
000000 e5 d4 92 3e 91 5e ad bd 29 d5 d2 ba c8 2f 72 bc
       0.2867805 -0.08465303 -0.0016085255 -0.0147819
000010 40 b0 09 bd 7d 93 39 3d 37 22 73 bd ba f4 70 3e
       -0.03361535 0.04530667 -0.0593588 0.23530856
000020 94 df a3 3e 8b 1e 73 3e b8 0e 90 3d 0a 57 ae be
       0.32006514 0.2374212 0.070340574 -0.3405078
000030 87 bf 74 be 95 69 32 be 20 78 17 3c a4 df c6 bd
       -0.23901187 -0.17423089 0.009244949 -0.09710625
000040 48 0f c1 3e 76 1b 81 be 3c 7d 47 bd bc f0 c0 bd
       0.3770697 -0.25216264 -0.048703417 -0.094209164
000050 72 8c a0 3e 1d c1 0a 3e 02 8c 58 3e bf d9 17 bd
       0.3135715 0.1355023 0.21147159 -0.037072893
000060 05 30 49 be 3c c9 8a be 2e 3e 1a 3e fc 8c d8 3d
       -0.19647224 -0.27106655 0.15062782 0.10573766
000070 07 2e 6e be 74 79 3a bd 4b 84 9e 3e 4b 09 95 be
       -0.23259746 -0.045525983 0.30960307 -0.29108652
000080 8a d7 99 3e 81 e2 fb 3c 97 6b ca 3d 36 4b 0e be
       0.30047256 0.030747654 0.098838024 -0.13895878
000090 ec 74 af 3e 6b 8f 36 3d 53 39 24 be c5 1f 28 be
       0.34268892 0.044570368 -0.16037492 -0.16418369
0000a0 31 87 32 3e 8c 59 ba bd a9 d8 af bd 24 58 9a be
       0.17434384 -0.09099111 -0.085862465 -0.3014537
0000b0 98 e3 eb 3d 0d 87 a2 be ba 08 3f 3e 45 09 e1 3e
       0.115180194 -0.3174366 0.18655673 0.43952385
0000c0 43 d9 b1 bd fd f2 51 3d 46 70 b0 be 2c 94 d5 be
       -0.086840175 0.051257122 -0.34460658 -0.4171461
0000d0 67 0f 94 be c2 3b a5 be ad 5d 60 be af 65 67 be
       -0.28918 -0.32272154 -0.21910734 -0.22597383
0000e0 61 2d b1 be ef 26 cc 3d 26 5f b1 be cd 04 80 be
       -0.34604934 0.099683635 -0.34642905 -0.25003663
0000f0 07 70 b5 3e 50 8c b3 be 37 d4 85 be ce 35 99 bd
       0.35437033 -0.35067987 -0.2613847 -0.074809656
000100 50 76 94 3e f2 46 af be 60 23 08 3e d0 dc 2b 3d
       0.28996515 -0.34233814 0.13294744 0.04195863
000110 14 fa c8 bc b4 b0 40 be ee 60 90 be 16 05 04 be
       -0.024533309 -0.18817407 -0.2819895 -0.12892565
000120 1d a8 06 3e 87 d3 b2 be c7 6c f4 bd ae 7f 2e be
       0.13150068 -0.34927008 -0.1193481 -0.17040893
000130 72 c5 64 3e 3c b5 8e be 46 7e af 3e 3c cd 5f be
       0.22340944 -0.27872646 0.34276026 -0.21855634
000140 5d 5b d7 3c 8b 72 2e 3e 1e e1 00 3e 56 9b 8a bd
       0.026288683 0.17035882 0.12585875 -0.06767909
000150 d1 d1 94 3e e9 4d 48 3e 6e 71 d2 bd 1d 65 3f 3e
       0.29066327 0.1956097 -0.10275541 0.18690915
000160 04 2d be bd fc 95 63 3d 9d a0 b7 3e 77 2e 2e be
       -0.0928593 0.055562958 0.35864726 -0.17009912
000170 b2 12 53 be bf 76 92 3e ef e0 97 be ab fb 91 be
       -0.206126 0.2860622 -0.29663798 -0.2851232
000180 ec c8 d8 3e 7a fc 15 be 3b 1a a0 3e d3 ae be be
       0.4234079 -0.14647093 0.31270012 -0.37242755
000190 74 91 8f be aa 51 1b 3e f6 a1 6f be 1c 08 78 be
       -0.2804066 0.15167871 -0.23401627 -0.24221843
0001a0 76 d2 b1 be f9 51 91 bd 21 12 19 3e 8b a4 8c 3e
       -0.3473088 -0.07095713 0.14948322 0.27469286
0001b0 e8 bb d3 3d c6 75 96 3e 06 b0 b6 be eb 20 6d 3d
       0.10338575 0.2938673 -0.3568117 0.05789272
0001c0 2f 0a 84 3d 60 6a 87 bd b8 4f d6 3d 84 69 d7 3d
       0.06447255 -0.06612086 0.10464424 0.105181724
0001d0 e7 1c 26 3e b6 f5 64 be 25 d5 d4 bd 20 91 8c bd
       0.16221963 -0.22359356 -0.103922166 -0.06863618
0001e0 89 78 24 be 70 b8 79 be 56 a9 40 bd 15 cc 14 be
       -0.16061606 -0.24386764 -0.04703649 -0.14530976
0001f0 22 2f 0d be 93 92 64 3e 53 82 35 3d 57 d6 a3 be
       -0.13787511 0.22321539 0.04431374 -0.31999466

encoder_lstm.weight_ih_l0 f4 [512, 7]
000000 db 55 47 3b f7 35 62 3d 62 41 a8 bd 41 ca 73 3c
       0.0030416164 0.055227246 -0.08215596 0.014879764
000010 78 00 7d 3d cf ce ad bd 05 3e 00 3d 52 72 79 bd
       0.061768025 -0.08486711 0.031309146 -0.06090004
000020 33 c1 1c bd 82 99 68 bd 4d b3 fe bb 10 56 e0 3c
       -0.038270187 -0.05678702 -0.007772839 0.027384788
000030 6f da c6 bd 64 13 db bd 13 89 05 3b af b1 c2 3c
       -0.09709632 -0.10697058 0.0020375892 0.023766367
000040 d9 05 a4 bc 74 ad 8f bd 8b 72 19 bd 25 2b a1 bd
       -0.02002232 -0.070155054 -0.037462752 -0.07869557
000050 ec 0f 1c bd b8 9c 38 3c c9 2e e7 bd 77 7b 8e bc
       -0.03810112 0.011267833 -0.112882204 -0.017392857
000060 93 26 5e 3d d7 e3 f3 bd 18 5e 30 bd 26 e7 f6 bc
       0.054236006 -0.119086914 -0.043058485 -0.030139517
000070 90 54 a0 3d cb 3a 2f 3d 2e ee 12 bd 9a 5c 66 3d
       0.07828629 0.04278068 -0.035871677 0.056240655
000080 0e c2 9a bc 0f 77 63 bd c8 27 57 bd 50 17 02 3d
       -0.01889136 -0.055533465 -0.052528173 0.031760514
000090 7e b9 c1 bd af 4b a2 bd 46 8e d0 bd 5c b3 3a bd
       -0.09459208 -0.07924592 -0.101833865 -0.045581207
0000a0 09 1b d9 bd 52 c8 84 bd 2e 55 13 3d 50 15 c3 bd
       -0.1060086 -0.064835206 0.035969906 -0.095255494
0000b0 9d 37 b6 bd 9f 04 23 bd 94 2e e7 bd 68 0e d1 bd
       -0.08897326 -0.03979933 -0.11288181 -0.10207826
0000c0 69 43 0c bd 05 21 d7 bd 04 e4 d0 bd 97 b6 a3 bd
       -0.034243975 -0.10504345 -0.101997405 -0.079938106
0000d0 d6 b5 45 bd f1 15 69 bd f0 61 87 bd f5 57 1d 3d
       -0.048269115 -0.05690569 -0.06610477 0.03841396
0000e0 2e fd 76 bd 2d f0 ba bc bd 78 11 bd cf ba 2f 3d
       -0.060300045 -0.022819603 -0.035515536 0.042902764
0000f0 20 b1 96 bd 8a a2 d7 bd 9a a0 9d bc c0 2a d1 3b
       -0.07358003 -0.10529049 -0.01924162 0.00638327
000100 2d c5 a0 bd e0 bc a1 bd 7a e2 77 bd 29 72 19 bd
       -0.07850108 -0.07897353 -0.06051872 -0.037462387
000110 3b 16 88 3d b6 b9 98 bd f9 51 d7 bd 41 53 7c bd
       0.06644865 -0.074572966 -0.10513682 -0.061602835
000120 2b 15 16 be c4 37 20 3c 59 18 be bd 92 43 d2 bd
       -0.14656512 0.009778921 -0.09281988 -0.10266794
000130 bb e1 c9 3c 26 53 74 3c 3d 9b 6f bd cb b5 dc bd
       0.02464377 0.014912402 -0.058497656 -0.10776862
000140 33 0d 28 bb 5b 3b 2f 3c b7 c0 20 bc f6 9c 37 3d
       -0.0025642633 0.010695304 -0.009811572 0.044827424
000150 de bf 45 bd 5b 40 1a bd 55 9d b4 3d 3e e1 4f 3c
       -0.048278682 -0.03765903 0.08819071 0.012687979
000160 4d 7d 3a bd 68 e8 95 3c ab e1 0b bb 8c 8b 87 bd
       -0.045529652 0.018299296 -0.0021344225 -0.06618413
000170 cf 5c fc ba 66 5c 85 bc 9a 2f c1 3c 66 7a c8 bd
       -0.0019253733 -0.01627941 0.023582269 -0.09788971
000180 97 8a 58 bd 63 eb ce bd 18 1c a4 3d af 85 2a 3d
       -0.052866545 -0.1010349 0.08013171 0.041631397
000190 b7 b5 63 bd 5b b6 83 bc 59 46 0b bc b7 03 53 bb
       -0.05559322 -0.016078165 -0.008500659 -0.003219826
0001a0 c8 1e a4 3d 7a d5 2c bd b4 99 91 bc c0 5e 31 3d
       0.080136836 -0.042195775 -0.017773487 0.04330325
0001b0 6e 8f f1 bd c4 39 ed bd 4f f4 81 bd e6 70 a4 bd
       -0.11794935 -0.115832835 -0.06345426 -0.08029346
0001c0 a4 0c 79 3c e2 3f f5 3c d7 39 8e bd 07 07 33 3d
       0.015200768 0.029937688 -0.06944626 0.043707874
0001d0 19 ac 86 bd 41 56 36 bd a8 a1 89 bd 4b 02 62 3c
       -0.06575794 -0.044515852 -0.067202866 0.013794492
0001e0 4d c3 41 3d c3 3d 53 bc 83 68 99 bc f4 94 e9 bd
       0.047305394 -0.012893143 -0.018726593 -0.11405364
0001f0 a8 64 43 bd 46 ce 6d bd fe 87 10 be 5b dc cd bd
       -0.047703415 -0.058058046 -0.14114377 -0.10051795
000200 02 09 50 bd 58 7e d1 bd 16 e7 f4 bc e4 96 cc bc
       -0.05078984 -0.10229176 -0.029895347 -0.024974294
000210 bc c8 dc bc ca 41 1b 3d 05 82 d4 bd 7d 89 1a bd
       -0.026951186 0.03790454 -0.10376362 -0.037728775
000220 30 e9 ad 3c 10 3d 0c be 45 d7 b6 bd 1f 6b f3 bd
       0.021229357 -0.13695168 -0.08927778 -0.11885666
000230 56 aa e7 bd 36 5d c1 bd 45 3b a7 bc 6a 3d 00 bd
       -0.11311786 -0.09441607 -0.020414004 -0.03130857
000240 f2 03 3f bd 0d 7a 85 bd 50 d8 50 bd 3f ba 04 3d
       -0.046634622 -0.0651742 -0.05098754 0.03240418
000250 2a 4d fe 3b 17 57 ce 3c 92 f0 24 3d 32 e0 1b bd
       0.0077606635 0.025188012 0.04026849 -0.038055606
000260 cc 3c d9 bd 38 2c be bc 87 67 ea bd eb 8f 40 bd
       -0.10607299 -0.023214445 -0.114455275 -0.04701225
000270 8b 49 f9 bd 97 aa 94 3d ca 9c a0 bd e2 8e c9 bd
       -0.1217223 0.072591 -0.07842405 -0.09841706
000280 02 58 be bd 8a 9e 56 3b e7 c1 f6 bd 35 69 44 3d
       -0.0929413 0.0032748305 -0.12048703 0.047951896
000290 6c 10 09 bd 32 2c b8 bc fc 5e 21 bd 9a 39 90 bd
       -0.033462927 -0.022482011 -0.039397225 -0.070422366
0002a0 57 36 c6 bc be 92 02 3c a3 c4 fc bd 50 28 3a bc
       -0.024195833 0.007969556 -0.12342193 -0.01136215
0002b0 41 4c ac bd 40 13 c0 bd 6c 7d d1 3c 62 30 bb bc
       -0.08412982 -0.09378672 0.025572501 -0.02285022
0002c0 34 ad 07 bd fc b7 dd 3c 86 2b e3 bd 78 49 ff bd
       -0.033124164 0.02706527 -0.11092286 -0.12465185
0002d0 42 fb b1 bd e1 bd 04 bd 55 fe 56 3d 74 e4 08 be
       -0.08690502 -0.032407645 0.052488644 -0.13368398
0002e0 85 7d 05 be 42 2b 50 3d 53 b6 91 bd 75 aa da bd
       -0.13036163 0.050822504 -0.07114854 -0.10677043
0002f0 c7 df 0f 3b 3a 65 e6 3c 7d 1e 11 3d 75 1c 13 bd
       0.002195345 0.02812444 0.035429467 -0.03591581
000300 49 21 3c 3d ea ab a2 bd f2 34 1f bd 76 b7 b1 bd
       0.04593018 -0.07942946 -0.038868852 -0.086775705
000310 81 80 e2 bd 72 ee b3 bd 42 33 63 bb 39 dc 42 bd
       -0.110596664 -0.08785714 -0.0034668003 -0.047573302
000320 b5 e0 a7 bd 0f db 84 3c c6 cf 94 bc 32 bc ed bd
       -0.08197156 0.016217737 -0.01816548 -0.11608161
000330 6e 3d 3e bd aa 63 7b bd 98 4c e2 bc 70 08 69 3c
       -0.046445303 -0.061374344 -0.027624413 0.014223203
000340 f0 53 97 bd 8f bf c7 bd 31 25 e0 3c bf 19 0a be
       -0.07389057 -0.09753334 0.027361484 -0.13486384
000350 93 2f fa bc 3e f9 8d bd ea b7 bd 3c 9c 2c 09 be
       -0.030540263 -0.06932305 0.023158986 -0.13395923
000360 ae 8c 14 be 60 fc b8 bd 22 5c bc bc 29 00 a1 3b
       -0.1450679 -0.09032512 -0.022993151 0.004913349
000370 79 b6 50 3d b8 6b 5e bd 31 6a 02 be 60 82 85 3c
       0.05095527 -0.054301947 -0.12735821 0.01629752
000380 de 9c ab bd 79 c2 15 3d 4e e2 84 bd 45 38 ee bd
       -0.083795294 0.036562417 -0.06488477 -0.11631826
000390 a5 31 ad bc ff 22 3f bd ec c6 b2 3b 41 c2 65 3d
       -0.021141836 -0.046664234 0.0054558422 0.056093458
0003a0 91 38 82 bd 16 7b bc 3d 96 94 2d 3b 51 b7 a9 3c
       -0.063584454 0.09203164 0.002648627 0.020717295
0003b0 1b 05 8c bd 26 8e 93 bb c8 5a 4b bd fe a5 be 3b
       -0.06836911 -0.0045030294 -0.049647123 0.0058181277
0003c0 17 ed 22 3d 78 62 cc bd af 66 8f bd 9a 2c ea 3c
       0.039776888 -0.09979719 -0.07002007 0.02858572
0003d0 e5 e5 b8 bd 93 31 97 bd fe cf d6 3c 04 1f c6 bd
       -0.09028224 -0.073825024 0.026222225 -0.096738845
0003e0 d4 4c 08 3d db ba d9 bd e1 b6 90 bc 29 a8 ad bc
       0.033276394 -0.10631343 -0.017665328 -0.02119835
0003f0 98 a9 dc bd 47 3d bc bd 82 de df bd 3c 27 24 bd
       -0.10774535 -0.09191375 -0.10931112 -0.04007648

encoder_lstm.weight_hh_l0 f4 [512, 128]
000000 88 89 7f 3d 23 79 8e bd 70 25 a2 bd 62 de 6f 3d
       0.06238702 -0.06956699 -0.07917297 0.05856169
000010 6c 53 8e ba 6c 84 50 3d f4 95 89 3c 2b 62 78 3b
       -0.0010858602 0.050907537 0.016795136 0.003790031
000020 da d9 5e 3d 9b 86 3a 3c 9e 84 37 bd 16 12 93 3d
       0.05440698 0.0113846315 -0.044804208 0.07181184
000030 61 4d 9d 3d 49 2b 3b bd 98 04 f3 3c aa 95 20 3b
       0.076807745 -0.045695577 0.029665276 0.002450327
000040 d6 ae 5f 3d 42 f0 a9 bd 8d db d8 3c 07 09 87 3d
       0.054610096 -0.08297779 0.026471877 0.06593519
000050 c2 2c 4f bd 48 e5 34 3d 9b df cd bc 39 78 fb 3b
       -0.050579794 0.044163972 -0.025131037 0.0076742438
000060 59 32 84 bd 8f 5c e1 3c d7 59 8f 3d b8 b9 27 3c
       -0.064549156 0.027509956 0.069995575 0.01023715
000070 a4 85 67 bd cd 47 cf 3c 2c b3 7c 3d 2d 60 ce bc
       -0.056523934 0.025302792 0.06169431 -0.025192345
000080 47 f2 d8 bc 9e 59 5c bd 15 29 49 3d 5c 42 7d 3d
       -0.026482714 -0.053796403 0.049111445 0.061830863
000090 48 4c 49 3d 6f 34 81 3d 59 ca dc bc 90 0f 79 3d
       0.049145013 0.06308829 -0.026951956 0.060805857
0000a0 15 5c 6b 3d f8 bd cd bd 24 b4 55 bd b1 16 1c bd
       0.057460863 -0.10045999 -0.05217375 -0.038107578
0000b0 26 7d 0c bd 8f c7 59 3d cb 7e bd bb 09 f2 b1 3c
       -0.03429904 0.05316883 -0.005782937 0.021721857
0000c0 22 0b a6 39 9f 09 8f bd cf 1b 20 3d 12 b4 9c bc
       0.00031670282 -0.06984257 0.03908902 -0.019128833
0000d0 c6 d9 27 3d b7 48 a0 bc 66 fc e2 3d e3 d9 50 3d
       0.04097917 -0.019565923 0.110832974 0.050989043
0000e0 fb 98 93 3d 22 10 9b 3d 7b 16 a3 3d 74 dc 73 3c
       0.07206913 0.075714365 0.07963272 0.014884103
0000f0 c3 54 a6 3d d8 a3 22 3b a1 6e 67 3d 3b 71 3b bd
       0.08121636 0.0024816897 0.05650199 -0.045762282
000100 e2 7d 02 be 97 7f 84 bd eb b9 9c bc b0 8e b5 3d
       -0.12743333 -0.06469648 -0.019131621 0.08865106
000110 8d 80 8b 3d f4 89 ee bd 27 f0 1c 3d aa cc ba bd
       0.068116285 -0.11647406 0.038314965 -0.09121068
000120 13 6d 80 3d 53 ca 57 3c 18 ac 4a bd 50 e4 c8 3c
       0.06270804 0.013170796 -0.049480528 0.02452293
000130 88 df 89 bd 62 13 3e 3c 97 02 00 3e 1d b1 09 3c
       -0.06732088 0.011601301 0.12500988 0.0084040435
000140 0e 24 ad 3c fd 7f 05 3d 20 f7 bb 3d af 85 db bc
       0.021135356 0.032592762 0.09177995 -0.026797144
000150 09 12 c9 bd cd 2d 45 3d 29 92 cf b9 8a 18 df 3c
       -0.09817893 0.048139382 -0.00039591015 0.02723338
000160 74 ff 8b bd 53 3f f3 bd a7 0c 5e bd 82 97 73 3c
       -0.06835833 -0.118773125 -0.054211285 0.014867665
000170 fe ce 8e 3d c3 f7 bb bd 93 cb ad 3d 32 5f 56 bd
       0.069730744 -0.09178116 0.08486094 -0.05233688
000180 b6 3a 94 bd 56 c0 2a 3c 2b e2 9a bc 0e 0d 73 3d
       -0.07237761 0.010421833 -0.018906673 0.05933862
000190 4c 72 0c bd c5 5e a9 3a 23 c1 00 3e 44 42 82 bd
       -0.03428869 0.001292192 0.12573676 -0.063602954
0001a0 3d 3b 4b 3c 73 ea 5d bb 44 4c b7 3d 67 a1 f9 3c
       0.01240426 -0.0033861666 0.089500934 0.03047247
0001b0 5f 56 9c bc 1c a5 f1 bb 26 37 e7 3c 38 f6 b0 3d
       -0.019084154 -0.007374419 0.028224539 0.086407125
0001c0 dd 35 86 bb 83 7a 09 3d a9 f2 23 bb 80 de 6c 3d
       -0.0040957765 0.033564102 -0.0025016463 0.05782938
0001d0 43 39 c7 3c 37 f9 55 3d 1e 03 15 3c 96 ad 3d 3d
       0.024319297 0.052239623 0.0090949815 0.046308123
0001e0 85 88 eb ba 8a a2 a6 bd 3e 9d ab 3d fa d9 ff bb
       -0.0017969763 -0.081364706 0.08379601 -0.0078079673
0001f0 43 82 9e 3d 24 ab 54 bd 22 15 aa bd fe ee 08 bd
       0.07739689 -0.051921025 -0.08304812 -0.033431046
000200 81 a1 f1 3c 7f 52 c8 bc 08 5a 65 3d d6 a8 e7 bc
       0.029495956 -0.0244534 0.055994064 -0.02827875
000210 dc c1 b0 3b 67 7e fd bd c9 20 5e 3d 07 71 fd 3c
       0.0053942036 -0.12377625 0.054230485 0.030937685
000220 9c 1c 4a 3a e4 5a 16 3e 51 df 80 3d d2 ff 19 3d
       0.00077099516 0.1468311 0.06292594 0.037597485
000230 22 c0 c2 3d 99 25 d3 3d 3c e8 a5 3b 07 df 99 bd
       0.09509303 0.103099056 0.005063085 -0.07513242
000240 da 4c ff 3d 56 46 04 3e b7 b2 55 3d 21 75 63 bb
       0.1246583 0.12917456 0.05217239 -0.0034707265
000250 e0 a8 b3 bd 12 8f 46 3a 54 f5 d0 3c a8 ed f4 bb
       -0.08772445 0.000757442 0.025507607 -0.00747462
000260 2a a9 14 3d ee 7e 4d 3d 9d e9 40 bd 1b 34 ec bd
       0.03629414 0.050169878 -0.04709779 -0.11533376
000270 ae d2 a6 3d f5 1c 05 3d 58 1d a1 bc f4 bf 8c 3d
       0.08145653 0.03249832 -0.019667313 0.0687255
000280 07 9b 6b 3d 2c 07 25 3d 68 21 be 3c 28 4e 48 3c
       0.057520892 0.040290043 0.023209289 0.012225665
000290 83 2f dd bd 3b d4 f1 3b 16 c8 20 bd f2 da 05 3c
       -0.10800078 0.007380036 -0.039253317 0.008169876
0002a0 06 ea 2f 3c 97 e9 4e bd 02 52 f4 bc 67 1e 6d bd
       0.010736948 -0.050515737 -0.02982426 -0.057890322
0002b0 79 0e b1 3d a2 ad d7 bc 83 24 e0 bd 8e db fa 3c
       0.086453386 -0.026327912 -0.10944464 0.03062227
0002c0 c1 83 1b bc ac 54 0d bd 9e d6 10 3e 49 62 e3 bc
       -0.009491862 -0.034504578 0.1414437 -0.027756827
0002d0 d6 5e ea 3d eb d3 37 bd 77 ef 3f bd 4e 0e b8 3b
       0.1144387 -0.044879835 -0.04685923 0.0056169396
0002e0 1c ff 7f 3c f5 63 6f bd 44 16 05 be 83 5b b5 bc
       0.015624788 -0.058444936 -0.12996775 -0.022138363
0002f0 0c 6c 55 3d ea 66 1d bd d5 60 e5 3d 9c 2b 7d bb
       0.052104995 -0.038428225 0.1120011 -0.003863073
000300 53 76 65 3d 4c 35 b4 bb 42 4b ee bc f3 56 9d bd
       0.056021046 -0.0054995175 -0.02908862 -0.076826
000310 94 17 99 bd 90 4f 98 bc cd ba 95 bd 5f b8 4d bd
       -0.074752 -0.018592626 -0.0731102 -0.050224658
000320 b3 ef b0 3c 71 e5 de 3d e8 92 9e 3d 1e 66 ba 3d
       0.021598672 0.10883606 0.07742864 0.091015086
000330 a5 d3 05 be 3a cb 0f 3c 11 3c c1 3c c0 c8 e6 bb
       -0.13069017 0.00877648 0.023588212 -0.0070429742
000340 06 1a 9c bc 98 4f ed 3b 26 88 23 3d 07 db 4f 3d
       -0.019055378 0.0072421543 0.039924763 0.05074599
000350 5f 25 f5 3d 48 a0 80 bd 82 a4 e9 b9 3f 66 03 3d
       0.119700186 -0.06280571 -0.0004456379 0.03207993
000360 df 33 e7 bc 42 53 ff bc 71 7a a0 3d d0 11 b1 3d
       -0.028222976 -0.03116763 0.07835854 0.086459756
000370 37 0c 55 bd e2 7c c4 3d d9 da bf bb f4 19 06 be
       -0.052013602 0.09594132 -0.005854946 -0.13095838
000380 98 f6 91 bc 48 15 29 bd 31 5b de 3c 73 37 d4 bd
       -0.01781778 -0.04128006 0.027143093 -0.103621386
000390 d5 58 18 3d 95 93 01 3e e3 a6 2e bd 63 5e 6e bd
       0.03719409 0.12653954 -0.042639624 -0.058195483
0003a0 0c a4 80 bd 72 08 9d 3c 1b c9 18 3d 89 a7 ba 3d
       -0.062812895 0.019169066 0.037301164 0.09113986
0003b0 2b 34 43 3c 22 25 29 3c cc 56 b6 3d 37 0f 0b 3d
       0.011914293 0.010323795 0.08903274 0.033950057
0003c0 9d e6 c3 bc be e3 d8 3d d7 d6 93 bd d6 a7 b7 bd
       -0.023913676 0.105903134 -0.07218712 -0.08967559
0003d0 fe d3 37 3b 85 20 24 bd 1b f4 b1 3d fb ec 82 bd
       0.0028049941 -0.040070076 0.086891375 -0.06392857
0003e0 59 6e 7b bb 96 7b 85 bc ef 63 86 3d ae 06 7f bd
       -0.0038365333 -0.016294282 0.065620296 -0.06226223
0003f0 6f fc 11 ba 2d fa 06 3d d1 85 17 3d 58 16 6f bb
       -0.00055689266 0.03295343 0.03699285 -0.0036481824

encoder_lstm.bias_ih_l0 f4 [512]
000000 a8 3e a1 bd 0d 23 36 3d b8 da b8 bc ad 77 d8 bd
       -0.07873279 0.04446702 -0.02256523 -0.10569701
000010 76 5a 38 bd 2f 2b 9d bd 66 27 37 3d a0 f6 bd bc
       -0.045008145 -0.07674252 0.044715308 -0.023188889
000020 e9 b1 9c 3c 71 78 59 3d 3d 07 1c be b7 35 9d bd
       0.019127803 0.053093378 -0.15237136 -0.07676261
000030 e9 5c 8b bd 76 4d eb bd 34 30 2b 3d e2 eb 91 3c
       -0.068048306 -0.11489384 0.041794017 0.017812673
000040 2b b1 79 bd aa 18 e7 bc 3d e7 f3 bd 2e da 0e be
       -0.060959976 -0.028210003 -0.119093396 -0.13950416
000050 bd 7f 41 bd 9f 27 96 bb d0 dd 1c be 79 4c 75 bd
       -0.04724096 -0.00458236 -0.1531899 -0.059887383
000060 56 93 60 bd b7 ed db bd 87 a7 95 bd 07 e3 95 bd
       -0.05482801 -0.107387 -0.07307344 -0.07318693
000070 0b ce f6 bd ab ba 5a bd c5 ee 09 bd 62 34 58 bd
       -0.12051018 -0.053400677 -0.033674974 -0.05278433
000080 e8 36 b1 bd 67 3b c2 bc 30 3e b6 bd 4a 12 d3 bd
       -0.08653051 -0.023709966 -0.0889858 -0.10306223
000090 cd 30 48 bd 29 67 37 bd e6 e6 b1 3c 8f ab 84 3c
       -0.048874665 -0.044776116 0.021716546 0.016195087
0000a0 7b e0 a5 bd 3a c7 ff bd dd aa 02 be 14 bf b9 3c
       -0.08099457 -0.12489171 -0.12760492 0.022674121
0000b0 01 da da 3b 3f a8 ef bd e1 d9 d5 3b d7 77 57 bd
       0.00667882 -0.11702012 0.0065262173 -0.052604523
0000c0 a7 77 eb 3b 20 f0 21 3c 67 5f 2b 3c 1f 87 91 bd
       0.0071858945 0.00988391 0.010459757 -0.071058504
0000d0 a7 ec de bd 5c 46 9c bd e9 cc 97 bd c3 f5 84 3c
       -0.108849816 -0.076306075 -0.074121304 0.01623047
0000e0 64 7f 87 3d 82 10 01 3d 32 55 13 be 47 a6 e0 bc
       0.06616095 0.031509884 -0.14387968 -0.027423037
0000f0 e3 1e 6a 3d 27 99 f3 bd af 2c 25 bd 4c 4a 9c 3c
       0.057158362 -0.11894446 -0.040325817 0.019078396
000100 7d ee 23 bc 2a 2c 83 bd 68 2a 78 bc 17 e8 8a bd
       -0.0100055905 -0.06404908 -0.015146829 -0.06782549
000110 2b de 9a bd 4b 41 56 bd b8 8c 49 bd d9 bf 92 bd
       -0.075619064 -0.052308362 -0.049206465 -0.07165498
000120 cc c6 0f 3d 85 4a a1 bd 49 be f2 bd fc 24 45 bd
       0.035101697 -0.078755416 -0.118527 -0.048130974
000130 37 d1 57 bd 79 12 a2 3c be f2 b3 bd 9f ee bb bd
       -0.052689757 0.0197842 -0.08786534 -0.09176373
000140 a0 20 86 3b 18 36 d3 bd c1 02 a5 3d 07 96 9b bb
       0.0040932447 -0.10313052 0.08057166 -0.0047481093
000150 2c 30 79 bc 7f f2 73 bd 7b 6b 7e bc a0 97 8e bd
       -0.015209239 -0.059557434 -0.015528555 -0.06962514
000160 4c a3 00 be 46 a2 94 bd 1e 18 15 bd 1d 2a 9f bd
       -0.12562293 -0.07257514 -0.036399953 -0.07771704
000170 92 e2 1a bd c7 b7 0a 3c 73 f3 b1 3c 49 33 f6 bd
       -0.03781373 0.0084666675 0.021722531 -0.120215006
000180 f3 92 f5 bd fc 4b b1 bd 14 ae 40 bd be 28 9b bd
       -0.11990919 -0.08657071 -0.047041014 -0.0757613
000190 91 92 16 39 8e 14 bf bb 12 04 9a bd 3c 90 73 3c
       0.00014359715 -0.0058313077 -0.075203076 0.014865931
0001a0 7b e9 07 3d 48 e1 55 bd 34 a9 18 bd c9 51 25 bd
       0.03318165 -0.052216798 -0.03727074 -0.0403612
0001b0 17 2b 2e 3d 42 66 53 3d 0b 7f c8 bc c5 0e dc bd
       0.042521562 0.051611193 -0.024474641 -0.107450046
0001c0 72 58 97 bc be 6d 02 be cd fa c3 3c fe d6 52 3c
       -0.018474791 -0.12737176 0.023923302 0.012868641
0001d0 ab f8 30 3d f1 a0 61 3d 17 e5 be 3d 42 51 ef bd
       0.0432059 0.055085126 0.09321039 -0.116854206
0001e0 38 82 d9 bd d8 57 6a 3d 52 1f 49 3d 96 43 ac bd
       -0.106205404 0.05721268 0.049102135 -0.084113285
0001f0 49 88 d2 bd 92 20 0a 3d de a2 c5 bd 52 d5 84 bc
       -0.102799006 0.033722468 -0.09650205 -0.016215
000200 49 2e 19 bd de a3 14 bd 63 30 ee bd ed f2 de bd
       -0.037397657 -0.03628909 -0.11630323 -0.10886178
000210 66 d5 99 bb 0b 5f 62 bd c5 49 d9 bd 96 ee 16 3d
       -0.0046946285 -0.05526642 -0.106097735 0.036848627
000220 56 e4 9f bd 6f ec 15 bd fb a0 3a bc 18 52 2f 3d
       -0.078072235 -0.036602434 -0.01139092 0.0428029
000230 4b 21 83 bd e4 98 5b bd 3a 3a ac bc fa ee 56 bb
       -0.064028345 -0.053612605 -0.021023858 -0.003279625
000240 2a e2 d8 bd ac 30 6c bd 3b a1 7e bb 66 f9 a3 bd
       -0.10590012 -0.057663605 -0.0038853425 -0.08006553
000250 8e 2b dc bd 2f 46 70 3b 96 5c 08 3c ab d2 fe bd
       -0.10750495 0.0036662926 0.008322855 -0.124425255
000260 c9 1c 96 bd 95 a6 ec bd ae b0 54 bd dc 0c f1 bd
       -0.07329709 -0.115552105 -0.051926307 -0.11770031
000270 e1 24 53 bd ba 2a 07 bd 90 f2 a0 bd 06 aa 14 be
       -0.051548842 -0.03299973 -0.07858765 -0.14517984
000280 54 a8 3b bd 06 81 69 bd 26 7f 38 bd dc 4b 05 3c
       -0.045814827 -0.057007812 -0.045043133 0.008135762
000290 c9 b8 c0 bd cd 53 07 be 8b b3 5e 3c f3 b6 09 be
       -0.09410245 -0.13215561 0.013592611 -0.13448696
0002a0 fd d3 9e 3d 22 73 b6 bd 57 f6 90 3c 11 06 47 3c
       0.07755277 -0.089086786 0.017695589 0.012147442
0002b0 51 41 7f 3d 60 e1 99 bd 42 7a 07 bc 3b 87 90 bd
       0.06231815 -0.0751369 -0.008268895 -0.07057043
0002c0 f4 4e a3 bd 1f 64 33 3d 9c 6a 8e bd 28 d5 77 3d
       -0.079740435 0.043796655 -0.06953928 0.060506016
0002d0 1e b6 c9 3c 71 3f eb bc 63 78 c9 bd 36 88 85 bb
       0.024622973 -0.028716775 -0.09837415 -0.0040750755
0002e0 06 7f 48 3d 71 68 c0 bd a0 7f 77 bd 6b de 09 bd
       0.048949264 -0.093949206 -0.060424447 -0.03365938
0002f0 fe 35 2f 3c 51 1c ec bd ce 94 c5 bd a3 5f 35 3c
       0.010694025 -0.115288384 -0.09647523 0.011070165
000300 14 84 70 bd d6 07 05 be c5 c3 dd 3c f6 32 73 bd
       -0.05871971 -0.1299127 0.02707089 -0.059374772
000310 71 c3 9e bc 60 d7 e9 ba 3f f6 de bd 76 40 99 bd
       -0.019380303 -0.0017840676 -0.108868115 -0.07482998
000320 66 a9 8f bd 24 1a 4b 3c 66 a7 22 bd e3 18 b2 bd
       -0.07014732 0.012396369 -0.039710425 -0.08696153
000330 7f c8 ae bc 1e d2 e5 bc c5 ef 5c 3b fa 14 8f bd
       -0.021335838 -0.028054293 0.003371225 -0.06986423
000340 f0 9c 77 bd ec 96 ce bc 00 1a 22 3d c4 2b 1b bc
       -0.0604524 -0.02521845 0.039575577 -0.009470884
000350 1b 4a 9d bd 84 ae a8 bd 72 1a 2c bd be 22 b8 bd
       -0.0768015 -0.08236411 -0.042017408 -0.089910015
000360 db ae d0 bd f5 63 5a bc 23 00 c4 bc 27 d0 e2 bd
       -0.10189601 -0.013329496 -0.023925846 -0.11074858
000370 b4 c6 c4 3c 3e 80 60 bd 49 90 71 bd 69 e2 58 3c
       0.02402053 -0.0548098 -0.05897549 0.013237574
000380 69 a0 f1 bd a9 21 be 3c 50 05 39 3d 37 a3 25 3d
       -0.11798174 0.02320941 0.045171082 0.040438857
000390 a0 e4 ec bd 7b e5 f4 bd 14 92 19 3d 87 05 ef bd
       -0.11567044 -0.119578324 0.037492827 -0.11670976
0003a0 1f 27 24 bd aa 43 3d 3d 8e 8c af 3d d2 25 b2 bd
       -0.04007637 0.046207108 0.085717306 -0.0869862
0003b0 ba 03 08 3d 18 a7 81 3c fd 9a e8 bd 81 51 d8 bd
       0.03320668 0.015826747 -0.11357687 -0.10562421
0003c0 63 b4 c7 bd 8d b5 30 3c 5d 00 93 bd ba 4a e4 bc
       -0.09751203 0.010785473 -0.07177804 -0.027867664
0003d0 c3 90 b6 bd 62 a0 79 3c 11 f3 5b 3d cc be 1d bd
       -0.0891433 0.015235992 0.053698603 -0.038512036
0003e0 55 41 c2 bd e8 68 f4 bc bb e4 19 3d 9c 2a 62 bd
       -0.09485117 -0.02983518 0.03757165 -0.055216417
0003f0 3f ac 1d be fa 79 c9 bd 57 02 f6 bd fc b8 f0 bb
       -0.15397738 -0.09837718 -0.12012165 -0.0073462706

encoder_lstm.bias_hh_l0 f4 [512]
000000 02 a7 33 bd 77 89 55 bd 34 63 99 bc 4f 2a 80 bd
       -0.043860443 -0.05213305 -0.018724062 -0.0625807
000010 11 99 27 3c 47 58 10 3d c0 95 88 3c 1d dc 8f bc
       0.010229365 0.035240438 0.016672969 -0.017561013
000020 6a 01 af bd 69 a5 e3 3b 67 3b 1c bd f8 4a 49 bd
       -0.085451916 0.0069472087 -0.038142588 -0.04914376
000030 33 7b 43 3d f7 ac bf bd 7c 60 95 3d 6c 16 f4 bd
       0.047724914 -0.09359162 0.072937936 -0.11918339
000040 b6 90 f0 3c 8d a9 a1 bc 15 6b c3 bd fe f3 99 bd
       0.029365879 -0.019734168 -0.09541909 -0.07517241
000050 8f aa d2 bb fb 66 d3 bd 63 5a 7e bd ab f7 3a bd
       -0.0064290236 -0.10322376 -0.06209792 -0.04564635
000060 26 a5 bb bd 33 22 42 bd 9b 31 37 bc 03 c6 f4 bc
       -0.09162359 -0.047395896 -0.01118126 -0.029879576
000070 28 a7 ec bd 33 9d af b9 ab a1 b3 bd 72 12 b1 bd
       -0.1155532 -0.00033495724 -0.0877107 -0.08646096
000080 55 e1 8f bc 04 6e 91 bd f5 a7 78 bd 8e 93 de bd
       -0.017563501 -0.07101062 -0.06070705 -0.108679876
000090 85 fb 32 3c c1 fe 48 bd 4c ff 49 bd 94 72 45 3d
       0.010924225 -0.049071077 -0.049315736 0.048204973
0000a0 f0 a4 e5 bc 49 95 f5 bd a7 97 0c bd 57 5b 4e 3d
       -0.02803275 -0.119913645 -0.034324314 0.050380077
0000b0 f0 60 bb bd 76 25 93 bd 90 dc 58 3d cf 70 72 bd
       -0.09149349 -0.071848795 0.05294472 -0.059189614
0000c0 83 8d 41 bd 0d 3f 86 bc a5 eb 34 3d 47 1b 9d bd
       -0.047254097 -0.016387487 0.04417004 -0.07671218
0000d0 fc 80 b2 bd d1 cd ee bd 65 79 c9 bc 94 7c cd bd
       -0.08716008 -0.1166035 -0.024594018 -0.10033527
0000e0 d5 ec d4 bc 5f 45 fc bd e8 27 6e bc 5e ab 8c bd
       -0.025991837 -0.12317919 -0.014535882 -0.06868623
0000f0 72 d6 92 3d d6 c4 eb bd 8e 83 8c bd 17 87 14 be
       0.071698084 -0.11512153 -0.068610296 -0.14504658
000100 29 e2 08 bd c2 8c 9f 3c 22 26 f6 3b b0 6e 0b be
       -0.033418808 0.019476298 0.00751187 -0.13616443
000110 9e 48 f5 bd 30 b8 01 be 32 3b 8a 3c 97 64 87 bd
       -0.11976741 -0.12667918 0.01687393 -0.06610983
000120 ca 69 b8 bd f5 ac b0 bd 6b 45 97 bd 35 d1 8a 3c
       -0.09004553 -0.08626739 -0.07386287 0.01694546
000130 f2 1b 40 3d 56 e8 77 3d a0 57 96 39 49 8b 08 bd
       0.04690165 0.060524307 0.00028675515 -0.033335958
000140 13 6b 91 bd fb ce e7 bd ce 61 04 3b 0f 86 34 3c
       -0.07100501 -0.11318775 0.0020199898 0.01101829
000150 c4 4c 63 3c cd 7e 66 bd 67 d9 02 bd 86 b4 89 bd
       0.013873283 -0.05627327 -0.031945612 -0.06723885
000160 ce cd 9f bd 0a d8 79 bd 47 47 32 3c 63 4c 23 3d
       -0.07802926 -0.060997047 0.010881252 0.03986777
000170 b9 3b a0 bc 76 be 22 bd cf 1b 5c 3d 73 af 13 bd
       -0.019559728 -0.03973242 0.053737458 -0.036055993
000180 7e 71 74 bd 3b 2b 4b bd 51 df 32 bd 6c e5 fc bc
       -0.059678547 -0.049601775 -0.043670002 -0.030871116
000190 7e 1d 0f bd b8 5b 48 bc fb 07 cd bd 4e 43 54 3c
       -0.034940235 -0.012228899 -0.10011288 0.0129555
0001a0 be 46 8f bd 2c 3e 97 3d 8f d0 80 bd be d3 e5 bd
       -0.06995915 0.07384905 -0.062897794 -0.11222027
0001b0 16 eb 8c bd 5b 79 a9 bd 75 d4 2b bd 9a 4c 30 bd
       -0.068807766 -0.082751 -0.04195066 -0.043041803
0001c0 1e 58 79 3c 52 5d be bc dc d4 04 be da d7 9f 3c
       0.015218763 -0.023237858 -0.12971824 0.019512106
0001d0 e6 d3 82 bd 9a 08 69 bd 58 39 ad bc da 62 a1 bd
       -0.06388073 -0.05689297 -0.021145508 -0.078801826
0001e0 c6 80 a0 3b 25 9a 31 3d 02 ac 08 bc 46 5e ff bd
       0.0048981635 0.043359894 -0.008341791 -0.12469153
0001f0 38 c8 9c bc 66 e8 d8 bc 1a 5c e1 bc 67 01 3e 3c
       -0.01913844 -0.026478004 -0.027509738 0.011597014
000200 a5 4b 3c bd 3d d0 cf bc e2 a6 f6 3c d8 b1 c4 bd
       -0.045970578 -0.02536785 0.030108873 -0.096042335
000210 b6 78 09 3c 50 e3 9c bd e4 a2 c9 bd 57 1f 5d 3b
       0.008390596 -0.07660544 -0.09845522 0.0033740604
000220 62 df e4 3c 0c df b3 3c 46 ef a3 bc c5 90 8f bd
       0.027938548 0.021956943 -0.020011555 -0.070100345
000230 27 a5 a8 3d 76 64 d4 bd be a8 06 bd 3a 42 3f bd
       0.08234625 -0.10370724 -0.03287577 -0.046694018
000240 10 b9 c8 bd f2 6d 37 bd 61 83 ff bd 05 c4 af bc
       -0.09800923 -0.044782586 -0.124762304 -0.021455774
000250 52 16 ef bd 5c 45 fb bd 24 ef 4c bd f5 a2 59 3a
       -0.11674179 -0.122690886 -0.05003275 0.00083021756
000260 ca 71 86 bd 4b 92 8b bd 8a bc 35 bd 4e 37 fc 3b
       -0.06564672 -0.068150125 -0.044369258 0.0076970225
000270 78 2e 06 be 9c 53 10 3d 73 66 2b bb fa 12 da bd
       -0.13103664 0.035235986 -0.0026153594 -0.10648151
000280 32 57 27 bc 86 fa 4c bb 50 61 ad bd c4 a1 3b 3d
       -0.01021366 -0.0031277253 -0.084658265 0.04580857
000290 60 59 cd bd 9e 3d 64 3c 9a b3 51 bd 64 00 74 bd
       -0.100268126 0.013930706 -0.051196672 -0.059570685
0002a0 08 c4 7e bd 91 e8 f7 bd 52 ba 2f bd 6b 52 c0 bd
       -0.06219867 -0.121049054 -0.0429023 -0.0939072
0002b0 5a 3a 2f bd 9b 13 62 bd 67 e6 84 bd 27 0b 71 bd
       -0.042780258 -0.05519448 -0.06489258 -0.058848526
0002c0 f2 85 79 bb 1c eb ee bd 13 72 b0 bc 73 df 09 3d
       -0.0038074222 -0.11665937 -0.02153877 0.033660363
0002d0 24 e7 40 bd 0b cb a6 bc cd 2a d3 bc 5a 34 d6 ba
       -0.047095433 -0.02036049 -0.025777245 -0.0016342506
0002e0 7c 13 e7 bc 06 d7 d4 3c 12 d4 22 be 95 84 4c 3d
       -0.028207533 0.025981437 -0.15901211 0.049931128
0002f0 67 5b 43 3d 7a 82 5e 3c 31 3e 55 bd 62 7b 3f bd
       0.04769459 0.013580913 -0.052061263 -0.046748526
000300 97 46 51 bd bf e6 cb bd d9 37 28 bd cf d3 af bc
       -0.05109271 -0.09956121 -0.041068885 -0.021463303
000310 c2 12 e3 bd d9 45 f9 bd f2 48 33 3c fd 50 e3 bc
       -0.11087562 -0.121715255 0.0109426845 -0.02774858
000320 37 a6 74 3d a1 2e 08 bd 83 3f c5 bc 9a 39 6e bd
       0.059728827 -0.033247594 -0.024078136 -0.058160402
000330 21 14 18 3d cf 0e 18 bd 7d 4a 24 bd d2 f5 cd 3c
       0.03712857 -0.037123498 -0.0401101 0.02514163
000340 0c 41 b3 ba 2f f6 d1 bd b7 6b 5c 3c 86 52 1d be
       -0.0013676002 -0.10252034 0.013453416 -0.15363511
000350 fe ba 5a 3d 83 1e da bd f7 1c a6 3b 46 47 37 bd
       0.053400986 -0.10650351 0.005069371 -0.044745706
000360 51 ec 06 be 3a 0c 75 bd 66 90 64 3d 19 16 53 bc
       -0.13176085 -0.059826113 0.05580177 -0.012883686
000370 05 42 bd bd 89 1a 55 3d a8 33 a6 3c 21 26 fe bd
       -0.09241108 0.05202726 0.020288303 -0.12409616
000380 f3 50 5b bc a3 3a 06 3b 31 ff ab bd 4c c3 e3 bd
       -0.013385999 0.0020481728 -0.08398283 -0.11121234
000390 b7 26 b9 bd 12 d0 8a bd ac 6d 17 3d e9 a7 c2 bd
       -0.090405874 -0.067779675 0.036969826 -0.095046826
0003a0 b3 fd 29 3d 4d fd a0 bd ea ac 26 3d a4 e2 a1 bd
       0.041501712 -0.07860813 0.040692247 -0.079045564
0003b0 72 79 a3 bd 80 e6 7c 3c 87 19 c0 bd e6 49 29 bc
       -0.07982148 0.015435815 -0.09379869 -0.01033256
0003c0 ce 3e eb bd 54 1a eb bd 4d 17 07 bd d4 76 98 bd
       -0.114865884 -0.11479631 -0.032981206 -0.0744454
0003d0 11 09 b3 bd 96 5d 3a bc 0a 23 90 bc c6 c2 d3 bd
       -0.08741964 -0.011374852 -0.017594833 -0.103398845
0003e0 99 a9 87 bd 85 5b 88 3c c7 76 3e 3d 64 b2 bc bd
       -0.06624145 0.016645202 0.046499994 -0.09213713
0003f0 db 9f 8d bd c8 ed 44 bd 44 95 02 be ba f5 d1 bd
       -0.06915256 -0.04807833 -0.12752253 -0.10251947

encoder_attn.weight f4 [1, 276]
000000 2c 66 08 bd 81 c8 1e bd 08 40 96 bc ac a9 57 bb
       -0.033300564 -0.038765434 -0.01834108 -0.0032907529
000010 12 5f 57 3d 65 29 01 3d f4 69 50 3d 22 28 ec 3b
       0.0525809 0.031533618 0.050882295 0.0072069326
000020 7d ff 63 3c 58 76 d5 bc 64 09 9e 3c c9 db 0d 3d
       0.013915894 -0.026057407 0.019291587 0.03463343
000030 f4 e4 a1 3c f2 2d 35 3d 25 fb 2c 3d bc 0f a6 b9
       0.019762494 0.04423327 0.042231698 -0.0003167371
000040 70 af b5 3b ac 97 19 3d 28 6c 55 bd 8e 70 25 3d
       0.0055445954 0.03749816 -0.0521051 0.040390544
000050 24 3b 16 bd f1 9a e9 3c f0 07 67 bd 4e 1d ba bc
       -0.036677495 0.028516265 -0.056404054 -0.022719052
000060 9d d8 10 bd 52 d4 0d bd ac 92 c3 bc c3 1d 4a bd
       -0.03536283 -0.034626313 -0.02387365 -0.04934479
000070 fc fd 47 3d cf 88 64 bd 10 5f 4c 3d 7c ec 5a bc
       0.048826203 -0.055794533 0.049895346 -0.013362046
000080 da 7f 53 3d f7 07 36 bd f2 ed 79 3c 93 c8 34 bd
       0.0516356 -0.04444119 0.0152544845 -0.044136595
000090 26 cc 36 3d 66 9f 21 3d 7a 85 93 bb f4 c1 5d 3d
       0.044628285 0.039458655 -0.0045019956 0.054140046
0000a0 aa 60 65 3d a6 fb 72 bd 5b bf 24 bd 82 75 54 bd
       0.05600039 -0.059322022 -0.040221553 -0.051869877
0000b0 81 ff 03 3d df 89 61 3d ec 9a 6b bd d4 ce d2 bc
       0.03222609 0.055063125 -0.057520792 -0.025733389
0000c0 cb 3d 0c bd e3 ef 14 bd 11 44 44 3c 87 91 19 3c
       -0.034238618 -0.036361586 0.011979119 0.009373075
0000d0 56 84 6e bd e1 8a 6d bd ce 40 2e 3c 0c 07 19 3c
       -0.058231674 -0.057993773 0.010635568 0.009340059
0000e0 18 8b b4 3c 68 20 3c bd 88 1a 71 3c c1 96 64 3d
       0.022038981 -0.045929343 0.014715798 0.055807833
0000f0 53 c7 a0 bc e1 fe 10 bd 3e 82 1d bd e8 dd c8 3c
       -0.019626295 -0.03539932 -0.038454287 0.024519876
000100 8e f9 33 bc 14 1c 07 3d 4f 11 3b 3d 74 0f b1 3c
       -0.010984791 0.03298576 0.045670804 0.021613814
000110 03 5a 75 3d b0 0e 43 3d 8a b3 70 3c 40 d6 a4 bc
       0.059900295 0.04762143 0.014691243 -0.020121694
000120 6b d4 3a 3c 9a 19 1e 3d 3d 24 db bc 5e 40 24 bc
       0.011403183 0.038598634 -0.026750678 -0.010025112
000130 51 4e f5 3c ef 3a 02 bd 48 45 b2 3c b8 0a 67 bd
       0.02994457 -0.031794485 0.021761551 -0.056406707
000140 26 76 6d bd 4f ea 97 3c 7a 5b 39 bd 05 ed 9a bb
       -0.057974003 0.018544344 -0.045253254 -0.004727962
000150 23 8f 20 3d 02 b4 40 bd 95 0c eb bc 3c ca 19 3d
       0.039199006 -0.04704667 -0.028692523 0.03754638
000160 c9 10 2b bd bc 62 c4 3c b5 4e 02 bd e7 7c ee bc
       -0.041764054 0.023972861 -0.031813342 -0.029112292
000170 2c 22 00 bc b8 fa f7 3c 99 db 9d bc b4 e7 71 3d
       -0.007820647 0.03027092 -0.019269751 0.05905886
000180 ea 8a 5c 3d 2a e9 44 bc 20 63 cb bc 23 58 70 bd
       0.053843416 -0.012018481 -0.02482754 -0.058677804
000190 e1 15 02 bd a0 fa 59 3d 02 8d 01 bd e8 6d b3 3b
       -0.031759147 0.05321753 -0.031628616 0.0054757483
0001a0 b1 fa 3f 3d d7 67 49 bd 65 e9 26 bd f1 be c6 3a
       0.046869937 -0.049171295 -0.040749926 0.0015163106
0001b0 88 ec b1 3b a4 42 2c 3d 5f 8b ed 3b 9d 90 ac bc
       0.005429808 0.04205574 0.0072492803 -0.02106505
0001c0 48 bd 6a 3d d8 42 a7 bc 0a 43 94 bc 07 67 eb bb
       0.05730942 -0.020417616 -0.018098373 -0.0071839127
0001d0 c6 2a 3b 3d 54 2e f6 3c 91 a5 41 bd 62 7c 6c 3d
       0.04569509 0.030051388 -0.047277037 0.05773581
0001e0 49 c4 17 ba 85 a6 24 bb cc 3d 6a 3d 3e af 71 bd
       -0.00057894416 -0.0025123667 0.05718784 -0.059005015
0001f0 a8 75 86 3c d4 c7 6a bd ec fb 8a bc dd a2 27 3d
       0.016413525 -0.057319477 -0.016965829 0.040926803
000200 20 1c c7 3b cd 1c 74 bd 8b 38 72 bc 2a 07 6e 3d
       0.006076351 -0.05959778 -0.014783989 0.0581123
000210 81 df e8 bb 6d 57 25 3d 61 fc 3c 3d ba 62 b7 bc
       -0.007106722 0.04036658 0.046139125 -0.022385944
000220 a7 6f 31 3c c0 81 27 3d 0f fa ff bc 20 36 ff bc
       0.010829843 0.040895224 -0.031247167 -0.031153738
000230 ef 76 5f bd 61 42 30 bd 68 d7 1b 3b 3d 0e 51 bd
       -0.054556783 -0.043032054 0.0023779515 -0.05103897
000240 34 9e 23 3d de 63 d9 3b df c0 52 bd 63 ba 74 3d
       0.039945796 0.0066342195 -0.051453467 0.059748065
000250 6e 84 4d 3d c6 95 54 3c 02 9a 2f 3d 20 47 4c 3d
       0.050175123 0.012975162 0.042871483 0.049872518
000260 cc 8b 34 3b cd 19 5e bd 5a f2 3b bd 50 5a 00 3d
       0.0027549146 -0.054223824 -0.04588542 0.03133613
000270 73 63 24 bd d5 02 a4 3c fd 62 c0 3b ee 28 38 bc
       -0.040133905 0.020020882 0.0058711753 -0.011240227
000280 38 f9 81 bc ce 08 49 3d a7 95 c5 bc cb 2e 97 bc
       -0.015865907 0.049080662 -0.024119211 -0.01845493
000290 10 30 0f 3d 8a 6d ab bc b4 c5 72 3d 09 e9 6f bd
       0.034957945 -0.020926256 0.059270576 -0.05857185
0002a0 37 fd ee 3a 13 72 ab 3c ef ff f5 bb b0 03 ee bc
       0.0018233423 0.020928418 -0.0075073163 -0.029054493
0002b0 9e 29 0f bc e8 5a 38 bd 4e a1 5e 3d 36 4c 6d bd
       -0.00873795 -0.04500857 0.05435305 -0.05793401
0002c0 fa 19 2d bd 76 b5 cd 3c 68 9a e3 bb 7a 7b e1 b9
       -0.0422611 0.025110941 -0.006945897 -0.0004300734
0002d0 80 29 4e 3d 27 f4 83 3c b8 c7 43 3d fa a0 44 bd
       0.050332546 0.016107632 0.04779789 -0.04800508
0002e0 e0 eb 6e 3d 61 7e fe 3c 34 f9 0e 3d 8e 52 0d 3d
       0.058330417 0.031066122 0.034905627 0.03450256
0002f0 37 62 08 3d b6 a6 39 bd 36 eb 3c bd d5 49 30 3d
       0.03329679 -0.045325004 -0.046122752 0.04303916
000300 cb e7 2e 3d d6 fc 61 bd 3b ce 62 bc 07 ef db bc
       0.042701524 -0.055172764 -0.0138431145 -0.026847376
000310 84 2e 2f 3d 87 e8 64 bd a6 fc 86 bc db ad f2 bc
       0.04276897 -0.055885818 -0.016477894 -0.029623916
000320 34 73 50 3d f1 83 39 3d 1c ee 5c bd 65 75 51 bd
       0.050891116 0.045291845 -0.053938016 -0.051137347
000330 cb d6 2b 3d 01 e9 a4 3c 4c b0 66 bd 03 ae b5 3b
       0.04195289 0.020130636 -0.056320474 0.0055444255
000340 23 5a aa bb 97 6b f1 b8 b3 9d 8f 3b 1d 83 fc 3c
       -0.0051987334 -0.00011511816 0.004382813 0.030824238
000350 87 63 a4 3c 35 8b 68 bc 18 f3 4e 3d c8 a0 fa bc
       0.02006699 -0.014193346 0.0505248 -0.030594245
000360 a8 1c 55 3c 31 5a cc bc 06 ed 56 3d ea fa 98 3b
       0.01300732 -0.02494535 0.052472137 0.004668583
000370 aa a9 48 3d 85 25 31 3d 2f f0 2c 3d 74 b9 46 3d
       0.04898993 0.043248672 0.042221244 0.048516706
000380 d6 f6 1a 3c ba 44 38 3d 1b 4c 1b bd c0 b8 18 3d
       0.009458264 0.044987418 -0.037914377 0.037285566
000390 55 13 1d 3c e7 42 86 3c a5 57 0a bb d6 0a 99 3c
       0.009587129 0.016389323 -0.002110937 0.018681925
0003a0 c8 6d 28 3c 7c bf 0d bd 24 23 27 bd f1 81 28 3d
       0.01028008 -0.03460644 -0.040804997 0.041139547
0003b0 41 ae 12 3d ab 8e 31 3d 58 a9 1f bd e6 2b 13 bd
       0.035810713 0.04334895 -0.03897986 -0.035930537
0003c0 63 0c 54 3d 77 21 21 3c 64 ef 99 3c ce 16 0d 3d
       0.051769625 0.009834639 0.018790908 0.034445576
0003d0 a3 25 60 bd d4 f6 75 3d fb 4c 4b bd 67 ca ef 3c
       -0.054723393 0.060049847 -0.04963396 0.029271318
0003e0 e6 49 08 3d 59 7a 2e bc fe 71 5f 3d 1e 3e 1c 3c
       0.0332736 -0.010649287 0.05455207 0.009536294
0003f0 66 02 06 bc 82 23 47 3d a4 0c 76 bd 33 8d 51 bd
       -0.008179283 0.048617847 -0.06007065 -0.05116005

exp_avg f4 [7, 7]
000000 00 00 00 00 00 00 00 00 00 00 00 00 00 00 00 00
       0.0 0.0 0.0 0.0
000010 00 00 00 00 00 00 00 00 00 00 00 00 00 00 00 00
       0.0 0.0 0.0 0.0
000020 a7 16 3f 31 00 00 00 00 00 00 00 00 00 00 00 00
       2.7807034e-09 0.0 0.0 0.0
000030 00 00 00 00 00 00 00 00 00 00 00 00 00 00 00 00
       0.0 0.0 0.0 0.0
000040 28 bf 2b 31 00 00 00 00 00 00 00 00 00 00 00 00
       2.4992435e-09 0.0 0.0 0.0
000050 00 00 00 00 00 00 00 00 00 00 00 00 00 00 00 00
       0.0 0.0 0.0 0.0
000060 f2 4a 9e af 00 00 00 00 00 00 00 00 00 00 00 00
       -2.8793284e-10 0.0 0.0 0.0
000070 00 00 00 00 00 00 00 00 00 00 00 00 00 00 00 00
       0.0 0.0 0.0 0.0
000080 fc 3b 42 30 00 00 00 00 00 00 00 00 00 00 00 00
       7.066203e-10 0.0 0.0 0.0
000090 00 00 00 00 00 00 00 00 00 00 00 00 00 00 00 00
       0.0 0.0 0.0 0.0
0000a0 00 00 00 00 00 00 00 00 00 00 00 00 00 00 00 00
       0.0 0.0 0.0 0.0
0000b0 00 00 00 00 00 00 00 00 00 00 00 00 00 00 00 00
       0.0 0.0 0.0 0.0
0000c0 00 00 00 00
       0.0

exp_avg_sq f4 [7, 7]
000000 00 00 00 00 00 00 00 00 00 00 00 00 00 00 00 00
       0.0 0.0 0.0 0.0
000010 00 00 00 00 00 00 00 00 00 00 00 00 00 00 00 00
       0.0 0.0 0.0 0.0
000020 c0 e3 73 21 00 00 00 00 00 00 00 00 00 00 00 00
       8.2633027e-19 0.0 0.0 0.0
000030 00 00 00 00 00 00 00 00 00 00 00 00 00 00 00 00
       0.0 0.0 0.0 0.0
000040 60 7c 07 22 00 00 00 00 00 00 00 00 00 00 00 00
       1.8361755e-18 0.0 0.0 0.0
000050 00 00 00 00 00 00 00 00 00 00 00 00 00 00 00 00
       0.0 0.0 0.0 0.0
000060 21 c4 a9 1e 00 00 00 00 00 00 00 00 00 00 00 00
       1.7974688e-20 0.0 0.0 0.0
000070 00 00 00 00 00 00 00 00 00 00 00 00 00 00 00 00
       0.0 0.0 0.0 0.0
000080 d8 cb 7f 20 00 00 00 00 00 00 00 00 00 00 00 00
       2.1666786e-19 0.0 0.0 0.0
000090 00 00 00 00 00 00 00 00 00 00 00 00 00 00 00 00
       0.0 0.0 0.0 0.0
0000a0 00 00 00 00 00 00 00 00 00 00 00 00 00 00 00 00
       0.0 0.0 0.0 0.0
0000b0 00 00 00 00 00 00 00 00 00 00 00 00 00 00 00 00
       0.0 0.0 0.0 0.0
0000c0 00 00 00 00
       0.0

exp_avg f4 [7]
000000 00 00 00 00 25 ed 86 31 63 9e 18 31 e0 36 88 af
       0.0 3.9268735e-09 2.2208944e-09 -2.4777247e-10
000010 68 56 c9 2f 00 00 00 00 00 00 00 00
       3.6623082e-10 0.0 0.0

exp_avg_sq f4 [7]
000000 00 00 00 00 50 1b f5 21 50 56 f7 21 6b 1e 90 1e
       0.0 1.6609075e-18 1.6760218e-18 1.5259174e-20
000010 83 24 8a 1f 00 00 00 00 00 00 00 00
       5.850568e-20 0.0 0.0
