weights_new/EncoderEpochnew525_17_8.pt (torch_old, 237354 bytes, 27 tensors)

gamma_x_l.weight f4 [7, 7]
0.74349743 -0.17781615 0.1936343 0.16983375 -0.066683054 0.09799263 0.020884722 -0.073076814
-0.25281945 -0.27067512 0.12377432 0.18120548 0.35144928 -0.35868323 -0.26412642 -0.03338647
0.26840717 -0.09945536 -0.35134098 0.2116858 -0.07019761 -0.20656067 0.24346623 0.34910312
1.0203265 -0.2246234 -0.011530131 0.37525418 0.21262702 0.1949226 -0.022691727 -0.096985966
0.21334338 -0.29862633 0.23671088 -0.05880612 0.24095938 0.03036648 -0.37156785 -0.2905867
-0.2509561 0.32492206 0.09716219 -0.13206698 -0.30667242 0.01575327 -0.034252554 0.2068406
0.021589002
00000000: d955 3e3f 7015 36be 1248 463e e6e8 2d3e
00000010: 2091 88bd 5cb0 c83d 7016 ab3c 4ca9 95bd
00000020: 8d71 81be ee95 8abe 647d fd3d ee8d 393e
00000030: 29f1 b33e 54a5 b7be 943b 87be 40c0 08bd
00000040: aa6c 893e 40af cbbd f7e2 b3be 2ac4 583e
00000050: c4c3 8fbd a484 53be 364f 793e a5bd b23e
00000060: 0f9a 823f ad03 66be e0e8 3cbc 5121 c03e
00000070: e6ba 593e ca99 473e 00e4 b9bc 94a0 c6bd
00000080: b076 5a3e 8de5 98be 5664 723e b0de 70bd
00000090: 0ebe 763e 20c3 f83c 243e bebe c8c7 94be
000000a0: 517d 80be 2f5c a63e f8fc c63d 913c 07be
000000b0: 2b04 9dbe 000d 813c 684c 0cbd 06ce 533e
000000c0: 6bdb b03c

gamma_x_l.bias f4 [7]
0.16076234 -0.28581494 0.69516164 0.47777793 -0.13682261 0.5955051 -0.09955011
00000000: e29e 243e 5656 92be 1df6 313f 4f9f f43e
00000010: 3a1b 0cbe 0673 183f eee0 cbbd

gamma_h_l.weight f4 [64, 7]
-0.30514386 0.33974156 0.4349031 -0.17945597 -0.26613277 0.12316662 -0.34908763 -0.04715234
0.041822463 -0.10954201 0.25232545 0.0732573 0.07508087 -0.32222366 -0.17916854 -0.27965418
0.29753673 -0.17659684 -0.26473212 0.4458825 0.37064126 0.34388173 0.03774167 -0.31107387
-0.32398954 -0.1419213 -0.43012652 0.018544143 0.047879227 -0.06439805 -0.07418575 0.25672078
-0.34003907 -0.31674144 -0.02259117 0.24818288 -0.34199402 -0.24274139 -0.33239 -0.03260085
0.2687469 -0.39961347 -0.30964655 0.3054468 -0.32937527 0.3305208 -0.25588474 0.36516142
-0.07313044 -0.3892412 -0.0028715 -0.002342798 0.17756444 0.074718565 -0.39920926 0.2253689
-0.2680206 -0.31394732 -0.013941455 -0.0010869924 -0.0673461 0.22504953 0.48434657 0.39428625
-0.16790885 0.552338 0.1761429 0.01978052 -0.21907158 0.2506424 -0.052816637 -0.13557144
-0.20235771 0.028758176 0.23363635 -0.19183765 -0.13723515 0.37601477 -0.06331668 -0.30688387
0.24699287 0.22467612 0.06918962 -0.16267982 0.14663154 -0.3968683 -0.12861905 0.036533516
0.28706324 -0.048390657 0.2998601 0.25985277 0.17266387 0.16548432 0.1385889 -0.20986369
0.3332594 -0.38889012 -0.062498808 0.07294276 -0.09742269 -0.17315759 -0.13978702 0.0035711527
-0.06059009 0.2465447 0.101011105 -0.21501088 -0.2220773 -0.15077625 0.25316644 0.31952068
-0.10154556 -0.034524698 -0.21862009 -0.18589568 -0.20069043 0.23075972 -0.3357927 -0.2978178
0.1663276 0.32656056 0.12975463 0.25125116 0.035375644 0.11538689 0.19050929 -0.18668127
-0.020339042 -0.05656355 -0.37527558 -0.055513047 0.37139246 0.12511788 -0.053130716 0.40494603
0.13397126 -0.49006712 0.06687839 0.1384997 -0.3015718 0.23105311 0.33153445 0.26219767
-0.2952764 -0.15263294 0.37677687 0.26177037 0.33499184 -0.22834828 0.32154486 -0.37446105
0.1965267 -0.30626234 0.1018113 0.51939327 -0.30283225 0.3810491 0.24440193 -0.21336193
-0.33512947 0.14917803 -0.19060087 0.19252618 -0.08828969 0.105750285 -0.3616903 -0.14968272
0.51416975 0.26791722 0.102662 -0.09906375 0.07265714 0.39472294 0.42939562 -0.12484977
-0.0981329 0.122095555 -0.13072354 0.05395742 0.13731755 0.38596693 0.40362802 0.30662104
-0.34336537 -0.23335941 -0.037280735 0.23226841 0.11255354 0.18304889 -0.22961035 0.34586877
-0.25563967 0.190543 -0.068422176 0.26802722 -0.31611097 -0.22936924 -0.08805844 -0.017630488
-0.19827291 -0.3654571 -0.09452027 -0.004225105 0.09972474 -0.13440831 -0.32108846 -0.04809001
-0.24697688 0.052709877 0.021223815 -0.42098284 0.32209474 -0.19092073 -0.3266944 0.34583002
0.2588852 -0.1660141 0.12661082 -0.2393432 0.5876825 0.2246076 0.31150916 -0.19199958
0.41888356 -0.22210842 0.15073629 0.33808926 0.07852937 0.36373708 -0.24816252 0.46182778
-0.1880863 0.23154658 -0.20331147 0.19116384 -0.12877597 -0.33380535 0.008619808 0.05277956
0.3934779 -0.11742169 0.05800482 -0.2556409 -0.032960918 0.09304264 0.27753004 0.44779176
0.27452907 -0.21485725 -0.09676569 -0.04354759 0.08604512 0.35341492 0.16344601 0.28877422
00000000: d13b 9cbe 9bf2 ad3e 9eab de3e 4ec3 37be
00000010: 8e42 88be c83e fc3d 9dbb b2be d022 41bd
00000020: 084e 2b3d 9057 e0bd cd30 813e ec07 963d
00000030: 00c4 993d 80fa a4be f577 37be d52e 8fbe
00000040: bc56 983e cdd5 34be f88a 87be b64a e43e
00000050: b1c4 bd3e 4411 b03e 0297 1a3d 1345 9fbe
00000060: f5e1 a5be d153 11be 8b39 dcbe e3e9 973c
00000070: 021d 443d 20e3 83bd b3ee 97bd e870 833e
00000080: 9a19 aebe ef2b a2be 1e11 b9bc a723 7e3e
00000090: d719 afbe 3391 78be 062f aabe 7888 05bd
000000a0: 3299 893e 239a ccbe fe89 9ebe 8663 9c3e
000000b0: e0a3 a8be 063a a93e 5303 83be 70f6 ba3e
000000c0: 6ac5 95bd 9f4a c7be c72f 3cbb a189 19bb
000000d0: 74d3 353e 0c06 993d 2865 ccbe 1bc7 663e
000000e0: ff39 89be b4bd a0be b36a 64bc 6a79 8eba
000000f0: c1ec 89bd 6273 663e 46fc f73e e3df c93e
00000100: 4cf0 2bbe 0666 0d3f ce5e 343e c20a a23c
00000110: 4d54 60be 3354 803e 4256 58bd 3dd3 0abe
00000120: dc36 4fbe 4496 eb3c 5e3e 6f3e 1771 44be
00000130: 5f87 0cbe 0285 c03e 2dac 81bd e21f 9dbe
00000140: b3eb 7c3e 7f11 663e 4ab3 8d3d 8a95 26be
00000150: 9426 163e 5232 cbbe b6b4 03be 2ba4 153d
00000160: f4f9 923e 4835 46bd 4387 993e 6c0b 853e
00000170: ccce 303e b974 293e 40ea 0d3e 82e6 56be
00000180: faa0 aa3e 9b1c c7be c0fe 7fbd 0463 953d
00000190: 8c85 c7bd 3950 31be 5424 0fbe 000a 6a3b
000001a0: 502d 78bd 3776 7c3e e9de ce3d d02b 5cbe
000001b0: 3b68 63be 1765 1abe 089f 813e 3798 a33e
000001c0: 1ef7 cfbd c569 0dbd f2dd 5fbe 705b 3ebe
000001d0: cb81 4dbe 474c 6c3e 05ed abbe 937b 98be
000001e0: c851 2a3e f232 a73e 66de 043e fea3 803e
000001f0: 0de6 103d f64f ec3d de14 433e 6029 3fbe
00000200: 109e a6bc 2eaf 67bd 1f24 c0be a661 63bd
00000210: 2727 be3e e71e 003e 989f 59bd 1655 cf3e
00000220: c32f 093e 14ea fabe 8af7 883d ded2 0d3e
00000230: 9e67 9abe 3099 6c3e e2be a93e c63e 863e
00000240: 782e 97be cf4b 1cbe e6e8 c03e c406 863e
00000250: 0d84 ab3e 22d4 69be 87a1 a43e 5cb9 bfbe
00000260: 4c3e 493e 6bce 9cbe 7182 d03d f5f6 043f
00000270: d40c 9bbe de18 c33e 8044 7a3e 8d7b 5abe
00000280: 1796 abbe 20c2 183e e02c 43be 9525 453e
00000290: 3ad1 b4bd 9b93 d83d 792f b9be 6d46 19be
000002a0: a1a0 033f 722c 893e 7440 d23d efe1 cabd
000002b0: 44cd 943d 2019 ca3e bed9 db3e 3cb1 ffbd
000002c0: e7f9 c8bd 3c0d fa3d 64dc 05be 7502 5d3d
000002d0: f99c 0c3e 759d c53e 55a8 ce3e 6ffd 9c3e
000002e0: 96cd afbe c5f5 6ebe afb3 18bd c5d7 6d3e
000002f0: 7882 e63d 2b71 3b3e fa1e 6bbe b615 b13e
00000300: 34e3 82be b41d 433e ed20 8cbd dd3a 893e
00000310: 4cd9 a1be c5df 6abe fc57 b4bd d06d 90bc
00000320: 0e08 4bbe 311d bbbe d893 c1bd c072 8abb
00000330: 7c3c cc3d 55a2 09be b565 a4be 08fa 44bd
00000340: 82e7 7cbe 50e6 573d 91dd ad3c 108b d7be
00000350: 9ae9 a43e b980 43be 7d44 a7be a210 b13e
00000360: 9a8c 843e 9aff 29be 44a6 013e 6216 75be
00000370: 5c72 163f 89ff 653e 217e 9f3e 8a9b 44be
00000380: e877 d63e 6470 63be 9d5a 1a3e 091a ad3e
00000390: 02d4 a03d bf3b ba3e 511e 7ebe b174 ec3e
000003a0: b299 40be 8c1a 6d3e e230 50be 74c0 433e
000003b0: d9dd 03be 89e8 aabe 183a 0d3c 612f 583d
000003c0: ef75 c93e c87a f0bd 7696 6d3d 5de3 82be
000003d0: 0702 07bd 248d be3d 6b18 8e3e f644 e53e
000003e0: 138f 8c3e 8a03 5cbe 172d c6bd f55e 32bd
000003f0: 6d38 b03d cdf2 b43e 645e 273e 37da 933e

gamma_h_l.bias f4 [64]
0.031209094 -0.3603118 0.31878006 -0.44899788 -0.36011958 -0.34601292 -0.0063902405 -0.008880033
-0.10613005 -0.30741465 0.16757728 0.14011468 -0.32240823 -0.07990517 -0.1626965 0.30596232
0.24261793 -0.41252476 0.09641682 -0.4070694 0.4316066 0.2422392 -0.21894753 -0.24776056
-0.27503082 -0.26097947 -0.12718287 -0.12639475 0.30374995 0.37441394 0.08033381 0.18977438
-0.19985797 -0.29042605 -0.051968876 -0.32051656 0.21948475 0.1924359 0.39276424 -0.11170212
0.13286826 -0.014415145 -0.1471406 0.08234742 0.31734893 -0.24824356 0.3290222 -0.055034902
-0.19962056 0.15402447 -0.26907706 0.03516465 0.051396657 0.3521212 0.07939081 0.22611159
-0.090523295 -0.276819 -0.14706424 0.30317473 -0.25594613 -0.17027342 0.32750684 0.15346636
00000000: 37aa ff3c ca7a b8be 2437 a33e 0de3 e5be
00000010: 9861 b8be 9b28 b1be 3965 d1bb 8f7d 11bc
00000020: b65a d9bd 7465 9dbe 6199 2b3e 397a 0f3e
00000030: b112 a5be 52a5 a3bd e999 26be 18a7 9c3e
00000040: d670 783e 7236 d3be 2f76 c53d 676b d0be
00000050: 8afb dc3e 8e0d 783e c833 60be f2b4 7dbe
00000060: d7d0 8cbe 1a9f 85be 3a3c 02be a06d 01be
00000070: 1d85 9b3e 2fb3 bf3e 0d86 a43d 3754 423e
00000080: 91a7 4cbe b9b2 94be 51dd 54bd bf1a a4be
00000090: 9cc0 603e eb0d 453e 6518 c93e 15c4 e4bd
000000a0: 9e0e 083e 802d 6cbc 07ac 16be c4a5 a83d
000000b0: 8f7b a23e 8f33 7ebe 9975 a83e 476c 61bd
000000c0: 5569 4cbe 97b8 1d3e 78c4 89be cf08 103d
000000d0: 4d85 523d 3b49 b43e a697 a23d cc89 673e
000000e0: 4764 b9bd 38bb 8dbe 0298 16be b839 9b3e
000000f0: 5f0b 83be 285c 2ebe faae a73e 4926 1d3e

encoder_lstm.weight_ih_l0 f4 [256, 7]
0.27952638 0.08722893 -0.2754227 -0.061788358 0.113430604 0.0068089026 0.19535814 0.33047324
-0.1559598 0.15238191 -0.5252248 0.3319493 0.2944319 0.03480288 -0.15411998 -0.01918701
-0.20817646 0.25338066 -0.080556355 -0.32535368 0.19818543 0.04356183 0.19600828 -0.13671026
0.23176146 -0.14840394 -0.34881577 0.11750545 -0.19945648 -0.09354693 -0.14026634 -0.45323586
-0.34838745 -0.17330003 -0.038693607 0.0832555 0.1053072 0.2779488 0.31097606 0.28975326
-0.32170042 0.054988272 0.18265802 0.17316402 0.10355245 0.34531423 0.11086805 -0.2026096
0.37586218 0.24770887 0.32983047 0.25637695 0.04068374 0.17329097 0.18477829 -0.09442145
0.5581659 0.59977096 0.7612461 0.8048952 0.7750583 0.40704468 0.49363592 0.2542436
-0.0111657195 -0.03000099 -0.13539396 0.30890206 0.28859305 0.03077366 -0.07602372 0.07639481
0.31968537 0.44146344 0.43900314 -0.052471552 -0.037432577 0.24222134 0.12827758 0.0049402146
-0.15629213 0.27729884 0.07872153 0.20449108 0.35689268 0.40100813 -0.03627691 0.34262425
0.29004964 0.25607905 0.25552434 0.29743108 0.040175796 -0.32012108 0.6568093 0.2110528
0.25363025 0.202941 0.31674278 0.29691303 0.21714611 0.6088511 0.43495703 0.1539407
0.28572026 0.02168542 0.098606646 -0.14008887 -0.11234834 -0.1875141 0.115310624 0.30735043
0.42569035 0.022862744 0.09416618 -0.09745886 0.27154616 0.28312865 0.07653356 0.028146649
0.21285796 -0.19713426 -0.47471958 -0.06853099 -0.3792713 0.5716204 0.38529158 0.39575055
0.43108937 -0.48920548 0.30355945 0.06930897 1.1915538 0.2225215 -0.03351758 0.20979713
-0.14942908 0.2853608 0.074842736 0.109216906 -0.2273848 0.0151697025 0.19088356 0.2536918
-0.15228453 -0.24518004 0.14485945 0.41657987 -0.08761527 -0.08185567 -0.089099504 0.1516857
0.07338582 0.3296922 -0.22306645 -0.07760062 -0.1314896 0.21867129 -0.38319585 -0.36289594
0.10466599 0.43502128 0.9141943 0.72895277 0.32174462 0.7260638 0.5251795 0.41488355
0.5197281 0.049047574 0.14608356 0.057744365 0.27249336 0.27624846 -0.045122176 0.40730143
0.082290694 0.16069037 0.6044382 0.25896943 0.04843299 0.17502871 -0.4346754 0.05709126
-0.180509 -0.07028213 -0.22531763 -0.31776202 -0.12901816 0.17698003 0.05979452 0.31252375
-0.4380774 0.23090367 0.020727044 0.14038302 0.006154368 -0.01083954 0.0697142 -0.122706346
0.35708788 0.07811235 -0.004204797 0.05511668 0.1408834 0.007759098 -0.31476244 0.23108354
0.011377431 0.09912948 0.33415738 0.06557456 0.112579785 -0.068373576 0.37970027 0.01432419
0.060528167 0.3259781 -0.054570343 -0.058659893 -0.42233235 0.10411298 0.22589265 0.0627087
-0.012896076 0.25142968 0.027890218 -0.019993773 -0.055904344 -0.20398846 0.6696146 0.39659837
-0.0055072643 1.1569601 -0.6222946 0.8617722 -0.08617194 0.8205561 0.22340699 -0.055212617
-0.11588807 -0.22610182 0.18690419 -0.32152322 0.32373592 0.12165801 0.10125114 0.48356813
-0.6506186 0.22645591 -0.113099344 -0.25254086 0.37688327 -0.09003816 0.03632673 -0.38108775
00000000: 151e 8f3e 15a5 b23d 3404 8dbe ca15 7dbd
00000010: 4e4e e83d 371d df3b f70b 483e ca33 a93e
00000020: edb3 1fbe 010a 1c3e 2275 06bf 42f5 a93e
00000030: c7bf 963e 778d 0e3d a1d1 1dbe 142e 9dbc
00000040: 362c 55be 1cbb 813e bbfa a4bd c294 a6be
00000050: 1ff1 4a3e e46d 323d 65b6 483e c6fd 0bbe
00000060: e052 6d3e 34f7 17be fb97 b2be b3a6 f03d
00000070: 523e 4cbe 8895 bfbd fba1 0fbe 880e e8be
00000080: d75f b2be 9075 31be 307d 1ebd dc81 aa3d
00000090: 4dab d73d 4e4f 8e3e 4138 9f3e 8a5a 943e
000000a0: ebb5 a4be 623b 613d b40a 3b3e e951 313e
000000b0: 4f13 d43d 07cd b03e ca0e e33d e478 4fbe
000000c0: 0271 c03e 65a7 7d3e 8adf a83e d743 833e
000000d0: fea3 263d 3073 313e 8536 3d3e 0860 c1bd
000000e0: f6e3 0e3f 978a 193f 06e1 423f 9d0d 4e3f
000000f0: 396a 463f 2968 d03e d9bd fc3e 382c 823e
00000100: 6cf0 36bc a3c4 f5bc b7a4 0abe 6928 9e3e
00000110: 78c2 933e 0b19 fc3c 53b2 9bbd e274 9c3d
00000120: cdad a33e 7f07 e23e 05c5 e03e 69ec 56bd
00000130: e752 19bd df08 783e 335b 033e 86e1 a13b
00000140: 0b0b 20be 1dfa 8d3e c138 a13d 1c66 513e
00000150: a3ba b63e f050 cd3e 1997 14bd 726c af3e
00000160: 6381 943e cb1c 833e 16d4 823e e348 983e
00000170: 608f 243d e9e6 a3be a724 283f 3a1e 583e
00000180: d3db 813e c4cf 4f3e 1c2c a23e fc04 983e
00000190: 8d5b 5e3e aadd 1b3f b0b2 de3e a2a2 1d3e
000001a0: ed49 923e 9fa5 b13c 48f2 c93d 7573 0fbe
000001b0: e316 e6bd b203 40be fa27 ec3d 095d 9d3e
000001c0: 16f4 d93e a64a bb3c 33da c03d 8398 c7bd
000001d0: 1908 8b3e 3df6 903e a1bd 9c3d cd93 e63c
000001e0: 70f7 593e 90dd 49be 720e f3be fa59 8cbd
000001f0: d92f c2be b755 123f f044 c53e d19f ca3e
00000200: bfb7 dc3e 2479 fabe 256c 9b3e dcf1 8d3d
00000210: d684 983f addc 633e bb49 09bd 0fd5 563e
00000220: f003 19be d01a 923e 2647 993d 1dad df3d
00000230: 90d7 68be 588a 783c fb76 433e e4e3 813e
00000240: 7af0 1bbe 7a10 7bbe 0956 143e f549 d53e
00000250: a26f b3bd f2a3 a7bd cd79 b6bd 7f53 1b3e
00000260: 4e4b 963d 6bcd a83e 886b 64be 13ed 9ebd
00000270: 36a5 06be 5eeb 5f3e 3f32 c4be 7fcd b9be
00000280: 1f5b d63d 1cbb de3e a308 6a3f a69c 3a3f
00000290: b6bb a43e 51df 393f 2a72 063f 9e6b d43e
000002a0: e70c 053f 1ce6 483d ee96 153e 5b85 6c3d
000002b0: 4084 8b3e 7070 8d3e 08d2 38bd d089 d03e
000002c0: 0688 a83d 048c 243e 76bc 1a3f a497 843e
000002d0: ac61 463d ba3a 333e c68d debe 86d8 693d
000002e0: 5ad7 38be 14f0 8fbd aab9 66be b4b1 a2be
000002f0: 561d 04be 413a 353e 19eb 743d 1d03 a03e
00000300: ae4b e0be 0372 6c3e c3cb a93c 91c0 0f3e
00000310: 95aa c93b 5398 31bc 52c6 8e3d 774d fbbd
00000320: 39d4 b63e 5ef9 9f3d 65c8 89bb 07c2 613d
00000330: bd43 103e 0840 fe3b 8b28 a1be 2aa1 6c3e
00000340: 6868 3a3c 6604 cb3d ad16 ab3e f44b 863d
00000350: 3b90 e63d 7207 8cbd 1368 c23e 02b0 6a3c
00000360: 62ec 773d 9ae6 a63e 2785 5fbd 5b45 70bd
00000370: f23b d8be 3039 d53d 6750 673e 6b6d 803d
00000380: 104a 53bc 64bb 803e 077a e43c fbc9 a3bc
00000390: f4fb 64bd 5ae2 50be dd6b 2b3f f10e cb3e
000003a0: 4876 b4bb 4517 943f b34e 1fbf 1a9d 5c3f
000003b0: ea7a b0bd f70f 523f cdc4 643e a026 62bd
000003c0: b956 edbd 3c87 67be d063 3f3e b19e a4be
000003d0: b7c0 a53e d627 f93d c25c cf3d 3e96 f73e
000003e0: f18e 26bf 0fe4 673e a1a0 e7bd 094d 81be
000003f0: d8f6 c03e ed65 b8bd 56cb 143d ef1d c3be

encoder_lstm.weight_hh_l0 f4 [256, 64]
-0.09022946 -0.05641621 -0.0074643875 0.052312043 0.017664352 -0.08169576 -0.13519226 0.09377531
-0.015586332 -0.023158917 0.07548924 0.06564195 -0.119387984 0.17065562 -0.08884212 0.026448132
-0.046419036 0.026099725 0.02153036 -0.1315533 -0.027966123 0.13898091 0.032639828 -0.3576104
-0.04180355 0.03488724 0.0024521565 -0.1432506 0.22721504 -0.08151004 0.06893926 0.11571516
0.1750118 0.112563364 -0.06363131 0.08753621 0.13883644 -0.078827955 -0.035044577 -0.09736853
0.00901001 -0.020095117 0.024580488 -0.2648363 0.42971516 -0.03885883 -0.11417196 -0.036326773
-0.1576536 -0.020596107 0.22982942 -0.027645163 -0.10780212 -0.081432015 0.039520957 0.12779565
0.07283636 0.020212665 0.012834778 0.09278857 0.17043628 0.13943577 -0.17649195 -0.024022976
0.043580905 -0.03123582 -0.10209677 0.3693343 0.07291637 0.45245814 0.3054156 -0.31183267
0.15276748 -0.06032052 0.025193544 0.009283371 -0.11043629 -0.21974267 -0.23247898 -0.011621609
0.11541282 -0.2126633 0.03891268 -0.03926135 -0.17888455 0.10045578 -0.21083598 -0.46561056
0.14502537 -0.03658923 0.023382002 0.034986507 -0.23396449 0.102936774 -0.013447187 0.120370604
0.07182473 0.12467096 0.098883934 -0.024145795 -0.0538435 0.11132162 -0.009793271 0.070882946
0.014332478 0.18948382 -0.18329827 0.18800092 -0.20223984 0.19234245 -0.058583986 0.08161615
0.033553883 0.08636737 -0.030502478 0.027130313 -0.17799887 -0.20252566 -0.022305133 0.14870563
0.07952182 -0.31604803 0.13341907 -0.11157573 0.09147202 -0.27287155 -0.20294952 -0.16337143
0.08885455 0.020553768 -0.12701543 0.0017559526 -0.00021949717 -0.0044957055 -0.15779345 0.13560459
0.19741946 0.04434257 -0.118111335 -0.048719525 -0.18299083 0.14030425 0.05616171 -0.10524937
-0.047429718 -0.08957475 0.068993695 0.034961283 0.04932859 0.033548046 0.1676624 0.018068317
-0.037490286 -0.048002873 -0.026227802 0.083509654 0.06331402 -0.033751104 0.024699626 -0.04613001
-0.07528256 0.10636993 -0.10166013 0.033752248 -0.12262886 -0.14287499 0.10747348 0.22614142
0.13383402 0.033706333 0.11547223 -0.12695459 -0.06331126 0.11336332 0.083163336 -0.015377887
0.042600464 -0.12912314 -0.1849034 -0.00038335062 0.058527716 -0.012918358 -0.12180838 -0.12694192
0.12830383 0.2443754 -0.019456334 -0.06498313 0.059930068 -0.05269421 -0.09549371 -0.042970583
0.15715909 -0.3580223 -0.1193203 0.33299398 0.28050548 0.3142551 0.5003645 -0.43163028
-0.04284893 -0.18773833 0.012655573 -0.3623593 0.023436777 0.04248627 0.020645736 0.3555971
0.04769424 0.08505373 -0.05988591 -0.14267564 0.04496332 0.15598032 -0.023900252 -0.6798278
0.18900661 0.06903221 0.25260118 -0.03972457 -0.13355279 -0.17411755 -0.111612014 0.33873066
-0.14043583 -0.26604876 0.012996054 -0.11126665 -0.023918465 0.23529077 0.2056638 0.39923912
-0.4663481 0.008038371 -0.10492878 0.33445132 -0.299213 0.2627221 -0.21566258 0.15074249
0.042101696 -0.015609116 0.09735567 0.022800742 0.12836911 -0.058734667 -0.23867373 0.26396465
-0.11514928 -0.005583652 0.11653553 -0.057620525 0.13222861 0.010088136 -0.23544014 -0.24447103
00000000: 39ca b8bd af14 67bd d297 f4bb 2745 563d
00000010: d5b4 903c 1b50 a7bd d76f 0abe 450d c03d
00000020: d15d 7fbc c5b7 bdbc 1a9a 9a3d 496f 863d
00000030: b081 f4bd 59c0 2e3e dbf2 b5bd c1a9 d83c
00000040: e321 3ebd 17cf d53c 7060 b03c e9b5 06be
00000050: 3619 e5bc 0351 0e3e 57b1 053d b618 b7be
00000060: 333a 2bbd ece5 0e3d 5cb4 203b 49b0 12be
00000070: 0fab 683e bcee a6bd 0730 8d3d 12fc ec3d
00000080: 4b36 333e 9f87 e63d 2251 82bd 2f46 b33d
00000090: 242b 0e3e 8d70 a1bd e78a 0fbd 2769 c7bd
000000a0: b99e 133c 849e a4bc 055d c93c a098 87be
000000b0: a003 dc3e 702a 1fbd fdd2 e9bd 62cb 14bd
000000c0: f26f 21be 2bb9 a8bc 6758 6b3e 1c78 e2bc
000000d0: 5cc7 dcbd d4c5 a6bd bae0 213d dddc 023e
000000e0: 3b2b 953d 0895 a53c f648 523c ef07 be3d
000000f0: d986 2e3e 40c8 0e3e 4eba 34be d5cb c4bc
00000100: e481 323d 43e2 ffbc 1d18 d1bd 6319 bd3e
00000110: 2e55 953d 98a8 e73e 6f5f 9c3e 88a8 9fbe
00000120: 146f 1c3e a612 77bd b162 ce3c 4819 183c
00000130: 6c2c e2bd 3904 61be f80e 6ebe 9068 3ebc
00000140: 8e5d ec3d 68c4 59be e762 1f3d 82d0 20bd
00000150: 832d 37be c3bb cd3d 63e5 57be 8264 eebe
00000160: 8881 143e 97de 15bd 9d8b bf3c 034e 0f3d
00000170: 6394 6fbe 84d0 d23d 9751 5cbc dd84 f63d
00000180: d818 933d 7d53 ff3d a983 ca3d 67cd c5bc
00000190: 008b 5cbd 97fc e33d f573 20bc 142b 913d
000001a0: c5d2 6a3c 0c08 423e 8bb2 3bbe 5083 403e
000001b0: f617 4fbe 6bf5 443e c3f5 6fbd 5e26 a73d
000001c0: cc6f 093d 60e1 b03d 55e0 f9bc 6440 de3c
000001d0: 5645 36be e362 4fbe 41b9 b6bc 4a46 183e
000001e0: 56dc a23d 0cd1 a1be 029f 083e d181 e4bd
000001f0: af55 bb3d d2b5 8bbe 00d2 4fbe d74a 27be
00000200: 60f9 b53d 6060 a83c 5510 02be fe27 e63a
00000210: d328 66b9 b650 93bb 9b94 21be eedb 0a3e
00000220: 5428 4a3e 8ea0 353d 5be4 f1bd 208e 47bd
00000230: f361 3bbe ebab 0f3e d209 663d fb8c d7bd
00000240: aa45 42bd f772 b7bd 914c 8d3d 9033 0f3d
00000250: c70c 4a3d ad69 093d b1af 2b3e 0204 943c
00000260: 6a8f 19bd a99e 44bd b0db d6bc 1c07 ab3d
00000270: c8aa 813d 993e 0abd df56 ca3c d2f2 3cbd
00000280: be2d 9abd 7ad8 d93d 3033 d0bd cc3f 0a3d
00000290: d724 fbbd d24d 12be 0e1b dc3d 9e91 673e
000002a0: c90b 093e a70f 0a3d b47c ec3d 6200 02be
000002b0: 55a9 81bd 072b e83d 8a51 aa3d 88f3 7bbc
000002c0: d37d 2e3d db38 04be 5157 3dbe 73fc c8b9
000002d0: c2ba 6f3d 85a7 53bc ac76 f9bd 10fd 01be
000002e0: 1462 033e 8b3d 7a3e e462 9fbc e015 85bd
000002f0: 3b79 753d e2d5 57bd 3592 c3bd ec01 30bd
00000300: 50ee 203e b34e b7be 345e f4bd 307e aa3e
00000310: 6a9e 8f3e 0be6 a03e e317 003f a5fe dcbe
00000320: 5c82 2fbd 7a3e 40be 5259 4f3c 2887 b9be
00000330: 7cfe bf3c 1506 2e3d 3f21 a93c d310 b63e
00000340: 095b 433d a630 ae3d ee4a 75bd 9019 12be
00000350: 752b 383d 4eb9 1f3e 76ca c3bc 3209 2ebf
00000360: f38a 413e c260 8d3d f154 813e 3bb6 22bd
00000370: 10c2 08be df4b 32be d794 e4bd 1b6e ad3e
00000380: 69ce 0fbe 8b37 88be 67ed 543c c5df e3bd
00000390: a8f0 c3bc 10f0 703e 8899 523e 1269 cc3e
000003a0: 2ec5 eebe 5fb3 033c e6e4 d6bd 343d ab3e
000003b0: 7232 99be 8383 863e a7d6 5cbe 3d5c 1a3e
000003c0: d472 2c3d 61bd 7fbc 6962 c73d 9fc8 ba3c
000003d0: 3173 033e c393 70bd e366 74be 6026 873e
000003e0: 63d3 ebbd 11f7 b6bb 2eaa ee3d 8003 6cbd
000003f0: f066 073e b648 253c 3817 71be 9d56 7abe

encoder_lstm.bias_ih_l0 f4 [256]
0.14760178 0.003983804 -0.0005132997 0.051522456 -0.036928635 0.20962891 0.19191144 0.28273514
0.31481758 -0.033423852 0.13511893 0.004460555 0.4228449 0.13782392 0.121692024 0.011897296
-0.021976829 0.21106495 0.6092511 -0.14150982 -0.029802892 0.1600712 0.15680397 1.0433503
0.10206009 -0.017074475 -0.027882012 0.03069669 0.15792173 -0.019603085 -0.0008654624 -0.04963315
0.08944532 0.21562126 -0.112494916 -0.04882814 0.00083174545 0.1656434 0.13152501 0.4597086
0.1281615 0.0307211 0.072901554 0.26599777 0.17110053 0.28140432 0.062679924 -0.0036269522
-0.032215867 -0.07318143 0.38501903 -0.14348398 0.30178982 0.044257868 -0.05950352 0.0031316879
-0.03701529 0.14817245 -0.0950044 -0.0048266943 0.055792388 0.38924825 0.11708856 0.35554847
-0.04737586 0.017152587 -0.114459 -0.039463613 0.002061497 0.007063095 -0.04416331 -0.071879454
0.044526573 0.06336758 -0.09191932 -0.0078645395 -0.12870228 -0.12987813 -0.250572 -0.102104135
-0.08260091 0.033954803 -0.08813922 -0.040553287 -0.095553964 0.006951279 -0.1607849 -0.17526639
0.100012206 -0.062399484 0.033626266 -0.029109864 0.11798314 -0.049600165 -0.074569784 0.00068541535
-0.007432552 -0.1125011 0.044683397 -0.10378749 -0.10331074 -0.06303923 -0.07820749 0.015021163
-0.08690906 0.09731256 0.008781406 0.15736061 0.022479568 0.056181464 0.078981236 -0.048110694
0.12413992 -0.095440306 -0.13791141 -0.031311017 -0.011409985 0.1384431 0.1560995 -0.01046477
-0.047705412 0.101571515 0.002173999 0.09143803 0.11793079 -0.21390826 0.0032096643 0.010940584
-0.12596597 0.031394117 0.112998985 -0.10684621 0.08222236 -0.016170759 0.053727318 -0.045474965
-0.030472979 -0.034620374 0.009676995 -0.0044826115 -0.118613556 -0.07757601 -0.013614827 0.02069152
0.0023633596 -0.10069947 -0.13812971 -0.04365771 -0.0010746497 0.09064378 0.011725495 -0.07814858
0.04336674 0.026256407 0.07582675 -0.0482725 -0.049253978 0.07678726 0.015144949 0.09398569
0.07299334 -0.019148601 0.034655992 -0.027488431 0.02240149 -0.09627985 0.14729129 0.034195483
-0.052348785 0.13446605 -0.12142352 0.08522692 0.085902885 0.03018529 -0.0054344474 -0.07272293
-0.05604797 -0.032805506 0.09724436 0.006717052 -0.08172578 -0.13714269 -0.13755204 0.053073373
-0.00748316 -0.05709744 -0.07018818 -0.06503592 0.07088407 -0.0969141 -0.11071098 -0.069733
0.008960328 0.06524998 -0.03648543 0.15873523 -0.03397878 0.20631965 0.2862912 0.3243801
0.19645417 0.00051125773 -0.017739354 0.0019386254 0.40787673 0.05106935 0.18634613 0.15623966
0.015198817 0.19183344 0.5564249 0.0030356837 0.0048296945 0.023248872 0.1262326 1.050364
-0.059533264 -0.012179786 0.047386758 -0.0028031645 0.117290415 0.034775924 -0.0854537 0.06457025
0.103197515 0.32042116 -0.066533946 0.112802 0.08613249 0.05271451 -0.1004114 0.43516216
0.32550907 0.16413571 -0.03780226 0.25007838 0.18185501 0.34349436 0.054367583 -0.069831446
-0.035491865 -0.08236966 0.53976923 0.07065391 0.3564208 0.111808404 0.08432661 0.08872205
-0.016347717 0.14812061 -0.0336066 0.100918494 0.039591465 0.27761534 0.10937557 0.40520003
00000000: ec24 173e 928a 823b f68e 06ba 3609 533d
00000010: 7b42 17bd f6a8 563e 6f84 443e a9c2 903e
00000020: c52f a13e 73e7 08bd 9e5c 0a3e d929 923b
00000030: 207f d83e b721 0d3e ab39 f93d e0ec 423c
00000040: c008 b4bc 6921 583e e1f7 1b3f f3e7 10be
00000050: 3225 f4bc b4e9 233e 3891 203e 818c 853f
00000060: e104 d13d c5df 8bbc d168 e4bc a077 fb3c
00000070: 3cb6 213e a696 a0bc 33e0 62ba 214c 4bbd
00000080: 1c2f b73d d2cb 5c3e bc63 e6bd 0400 48bd
00000090: 7e09 5a3a 6c9e 293e 7eae 063e ed5e eb3e
000000a0: c53c 033e d1aa fb3c 694d 953d dc30 883e
000000b0: fa34 2f3e 3a14 903e 555e 803d 29b2 6dbb
000000c0: c9f4 03bd 25e0 95bd 3721 c53e 77ed 12be
000000d0: 3284 9a3e bd47 353d f7b9 73bd 013d 4d3b
000000e0: 589d 17bd 85ba 173e ab91 c2bd 3f29 9ebb
000000f0: 8f86 643d 8c4b c73e 20cc ef3d 730a b63e
00000100: 310d 42bd 9583 8c3c 7b69 eabd 99a4 21bd
00000110: 2e1a 073b 8971 e73b 96e4 34bd 8935 93bd
00000120: 7f61 363d ddc6 813d 3240 bcbd 45da 00bc
00000130: 88ca 03be c6fe 04be f94a 80be f91b d1bd
00000140: aa2a a9bd 3114 0b3d 5682 b4bd 341b 26bd
00000150: ccb1 c3bd 8ec7 e33b cca4 24be 0879 33be
00000160: 33d3 cc3d 9a96 7fbd b2bb 093d cf77 eebc
00000170: 25a1 f13d 8b29 4bbd 0bb8 98bd 72ad 333a
00000180: c48c f3bb fa66 e6bd f005 373d 898e d4bd
00000190: 9594 d3bd b61a 81bd 402b a0bd 531b 763c
000001a0: 61fd b1bd cf4b c73d e3df 0f3c 2423 213e
000001b0: 1227 b83c 891e 663d eac0 a13d b80f 45bd
000001c0: 123d fe3d 3576 c3bd a638 0dbe fb3f 00bd
000001d0: f2f0 3abc 07c4 0d3e 8cd8 1f3e 6d74 2bbc
000001e0: c066 43bd ba04 d03d a779 0e3b dd43 bb3d
000001f0: b385 f13d c40a 5bbe 3b59 523b 2340 333c
00000200: 39fd 00be 1e97 003d 036c e73d 30d2 dabd
00000210: 3264 a83d 8a78 84bc 2d11 5c3d f543 3abd
00000220: 78a2 f9bc 18ce 0dbd 428c 1e3c dfe2 92bb
00000230: aaeb f2bd 2ce0 9ebd b910 5fbc 4381 a93c
00000240: 98e2 1a3b 863b cebd e071 0dbe 6dd2 32bd
00000250: 43db 8cba 72a3 b93d 4a1c 403c 5d0c a0bd
00000260: 53a1 313d ad17 d73c 0e4b 9b3d 63b9 45bd
00000270: 8abe 49bd a442 9d3d 8522 783c 927b c03d
00000280: 887d 953d 87dd 9cbc 71f3 0d3d 6b2f e1bc
00000290: 5483 b73c 5f2e c5bd 87d3 163e 9010 0c3d
000002a0: ae6b 56bd 78b1 093e e5ac f8bd 748b ae3d
000002b0: daed af3d 2447 f73c 7313 b2bb c2ef 94bd
000002c0: 8e92 65bd 115f 06bd 0d28 c73d b71a dc3b
000002d0: d95f a7bd 226f 0cbe 71da 0cbe 7763 593d
000002e0: 4c35 f5bb 01df 69bd d2be 8fbd 8d31 85bd
000002f0: ab2b 913d e67a c6bd 70bc e2bd 2dd0 8ebd
00000300: 57ce 123c c8a1 853d bf71 15bd 7d8b 223e
00000310: 552d 0bbd 7545 533e c394 923e 2615 a63e
00000320: 482b 493e ed05 063a 1f52 91bc 7919 fe3a
00000330: 38d5 d03e 182e 513d 85d1 3e3e 4afd 1f3e
00000340: 7504 793c fc6f 443e dd71 0e3f 52f2 463b
00000350: 6a42 9e3b 6b74 be3c 1e43 013e 5472 863f
00000360: 27d9 73bd ba8d 47bc 9e18 423d 4cb5 37bb
00000370: f535 f03d 3371 0e3d 5902 afbd 683d 843d
00000380: 3859 d33d 3e0e a43e f342 88bd bc04 e73d
00000390: 3b66 b03d 2ceb 573d 7ea4 cdbd 93cd de3e
000003a0: 20a9 a63e 3113 283e 8bd6 1abd 460a 803e
000003b0: 3338 3a3e 7ede af3e 8bb0 5e3d ca03 8fbd
000003c0: eb5f 11bd 6db1 a8bd 512e 0a3f ffb2 903d
000003d0: c97c b63e cefb e43d 6eb3 ac3d e8b3 b53d
000003e0: a6eb 85bc eeac 173e 13a7 09bd 5bae ce3d
000003f0: a92a 223d 9923 8e3e 4d00 e03d 6176 cf3e

encoder_lstm.bias_hh_l0 f4 [256]
-0.0853808 -0.066628605 -0.088201724 0.020331537 -0.005641299 0.081586875 0.22905076 0.16158602
0.33841604 -0.028186286 0.013586823 0.091593884 0.4013643 0.19202249 0.24414437 0.19124018
-0.12873894 0.16143711 0.40255824 -0.0497197 0.019566163 0.10525021 0.15474175 0.9189051
-0.019404579 -0.12364732 -0.12895294 0.0072659818 0.1485756 0.08864494 -0.006827216 0.023708073
0.1349384 0.35025698 -0.111352205 0.08457754 -0.04034076 0.14729501 0.021020833 0.40191802
0.3034139 0.15481159 0.06628615 0.32650265 0.36707538 0.24300171 -0.07529084 -0.101529546
0.11642932 -0.07870968 0.51253384 -0.15604414 0.48702446 0.03987765 0.08204005 -0.07079073
0.10050955 0.033651933 0.06569157 -0.03802443 -0.058528036 0.42704895 0.060573857 0.4427945
0.12588471 0.048607454 -0.09459867 0.074140765 0.04420725 0.03281673 -0.035353735 0.023465164
0.12621248 -0.11410896 0.021608388 -0.009953987 0.012805999 -0.12874553 -0.23167981 -0.01391383
-0.022496756 -0.08683275 -0.020129655 -0.055952996 0.08576606 -0.02260956 -0.10038964 -0.14698893
0.046166103 0.052077793 -0.061421633 0.010110487 0.18591337 -0.092225336 0.021181839 0.04150485
0.053630494 -0.006725286 0.03882133 0.01429184 0.03590541 -0.021196315 0.016791161 0.0780604
0.09299174 -0.0068848454 -0.078076884 0.16196063 -0.09652433 -0.0014375563 0.10033771 0.056029093
-0.07918515 -0.15197791 -0.12236762 -0.056619175 -0.10620777 -0.07020751 0.047729254 0.044016864
0.07195165 -0.010415723 0.065251775 -0.065736994 -0.081733875 -0.10851959 -0.08557834 -0.07871036
0.00038563248 -0.07617424 0.063912384 0.08938916 0.033560205 -0.021110129 -0.04619863 -0.03474804
0.04902255 0.09571142 0.06108993 -0.04135883 0.031665068 0.10293993 -0.06457671 0.08554714
0.06308206 0.04421035 0.046753705 0.010162385 -0.08348372 -0.010117135 -0.10837596 0.0015669598
-0.08864734 -0.05634544 0.050854184 0.027706342 0.09934131 -0.0844073 0.116412856 0.114149645
0.041652195 -0.09043201 0.08908327 0.035532348 0.07554792 0.10144385 -0.06183475 -0.019226937
0.008607891 0.01749958 0.062399544 -0.07150887 -0.04121691 0.14032586 -0.13909218 -0.052756503
0.035747383 -0.07068781 -0.037626892 0.03394958 0.06280283 -0.118249305 0.05706817 0.10016763
-0.03966982 0.057640444 0.02181434 0.092035495 0.0073455432 0.035330474 -0.034419645 0.0118470825
0.07534617 0.12887938 -0.010819081 0.025357567 0.04372744 0.2734442 0.21920243 0.38521615
0.31327626 -0.13879384 0.082825676 0.092604406 0.40781155 0.24641001 0.26788193 0.0859906
-0.13588288 0.1380168 0.4604695 0.08375331 -0.011318769 0.07358201 -0.042372797 1.0231813
-0.10002502 -0.045592926 -0.07511075 0.09950888 0.16104364 0.056402586 0.0310264 0.0020913435
0.15353233 0.42271605 -0.1444695 0.09788534 -0.09856244 -0.018502818 0.029819366 0.36334273
0.22051592 0.022718867 0.0108482875 0.26904762 0.24367939 0.2624769 0.006536982 0.032327484
0.011714657 -0.058589395 0.5749482 -0.06994632 0.43754247 -0.026622608 0.16674447 0.03845328
-0.029475976 0.22020556 0.064168096 0.10721367 0.007825503 0.21777646 -0.061941206 0.37385598
00000000: 21dc aebd 9474 88bd 1ba3 b4bd 538e a63c
00000010: a5da b8bb 0517 a73d 488c 6a3e ce76 253e
00000020: de44 ad3e ede6 e6bc 449b 5e3c 9395 bb3d
00000030: 9f7f cd3e 8ba1 443e fb00 7a3e 77d4 433e
00000040: 24d4 03be c54f 253e 1d1c ce3e e2a6 4bbd
00000050: 3849 a03c 6c8d d73d 9f74 1e3e 5d3d 6b3f
00000060: 5af6 9ebc ce3a fdbd 3d0c 04be 7917 ee3b
00000070: 3424 183e 7a8b b53d d7b6 dfbb 6f37 c23c
00000080: 4b2d 0a3e e254 b33e a00c e4bd fd36 ad3d
00000090: 5a3c 25bd 81d4 163e e233 ac3c 33c8 cd3e
000000a0: 1159 9b3e ee86 1e3e 08c1 873d 5b2b a73e
000000b0: 4ef1 bb3e 71d5 783e 1532 9abd b9ee cfbd
000000c0: 7f72 ee3d 8a32 a1bd 6b35 033f 09ca 1fbe
000000d0: 455b f93e bf56 233d 9d04 a83d bbfa 90bd
000000e0: f3d7 cd3d 9cd6 093d 4d89 863d 81bf 1bbd
000000f0: 18bb 6fbd 29a6 da3e 4b1c 783d f6b5 e23e
00000100: ece7 003e 9c18 473d f3bc c1bd 1dd7 973d
00000110: a912 353d d66a 063d 14cf 10bd 043a c03c
00000120: d83d 013e f5b1 e9bd 1304 b13c 0c16 23bc
00000130: 41d0 513c ded5 03be 793d 6dbe d5f6 63bc
00000140: 1e4b b8bc 5ed5 b1bd f2e6 a4bc f82e 65bd
00000150: 1ea6 af3d af37 b9bc 1599 cdbd 4484 16be
00000160: ab18 3d3d 864f 553d 4095 7bbd 75a6 253c
00000170: 1360 3e3e a3e0 bcbd 8985 ad3c fd00 2a3d
00000180: a6ab 5b3d ca5f dcbb 1d03 1f3d 5228 6a3c
00000190: 8d11 133d e5a3 adbc 9e8d 893c 22de 9f3d
000001a0: 7472 be3d 459a e1bb c6e6 9fbd 02d9 253e
000001b0: 8cae c5bd 636c bcba db7d cd3d c37e 653d
000001c0: d32b a2bd 19a0 1bbe e09b fabd 82e9 67bd
000001d0: 7683 d9bd f4c8 8fbd c07f 433d 074b 343d
000001e0: 635b 933d b5a6 2abc b9a2 853d 1ea1 86bd
000001f0: 1764 a7bd 853f debd b243 afbd e632 a1bd
00000200: b72e ca39 3d01 9cbd 7fe4 823d aa11 b73d
00000210: 6d76 093d 26ef acbc c63a 3dbd f653 0ebd
00000220: dfcb 483d 5904 c43d 6f39 7a3d e067 29bd
00000230: 3bb3 013d 2cd2 d23d cb40 84bd 5733 af3d
00000240: 2b31 813d e915 353d d080 3f3d 2280 263c
00000250: 83f9 aabd 57c2 25bc 37f4 ddbd 7262 cd3a
00000260: bd8c b5bd 7aca 66bd 7a4c 503d 69f8 e23c
00000270: 7573 cb3d bcdd acbd dd69 ee3d 4ac7 e93d
00000280: 7e9b 2a3d 6b34 b9bd 4a71 b63d 5e8a 113d
00000290: deb8 9a3d cbc1 cf3d 6f46 7dbd cf81 9dbc
000002a0: 1d08 0d3c 475b 8f3c aa96 7f3d 3e73 92bd
000002b0: 10d3 28bd 95b1 0f3e 2e6e 0ebe 3417 58bd
000002c0: d96b 123d c5c4 90bd a81e 1abd b70e 0b3d
000002d0: c59e 803d b12c f2bd 50c0 693d b024 cd3d
000002e0: d27c 22bd 6318 6c3d fdb3 b23c 1b7d bc3d
000002f0: e2b2 f03b b0b6 103d 9dfb 0cbd 441a 423c
00000300: 184f 9a3d f5f8 033e 8442 31bc acba cf3c
00000310: 8b1b 333d e100 8c3e 9a76 603e 0d3b c53e
00000320: bf65 a03e f91f 0ebe 82a0 a93d 61a7 bd3d
00000330: adcc d03e e852 7c3e d227 893e d71b b03d
00000340: e224 0bbe 4754 0d3e a9c2 eb3e db86 ab3d
00000350: 5c72 39bc 2ab2 963d 198f 2dbd 9bf7 823f
00000360: ebd9 ccbd a6bf 3abd aad3 99bd 50cb cb3d
00000370: a0e8 243e 6606 673d 142b fe3c ec0e 093b
00000380: 9437 1d3e 3d6e d83e d0ef 13be 1c78 c83d
00000390: 1bdb c9bd 3993 97bc be47 f43c 0f08 ba3e
000003a0: edce 613e eb1c ba3c 04bd 313c 9cc0 893e
000003b0: 1787 793e 5f63 863e 2e34 d63b d369 043d
000003c0: d5ee 3f3c 6ffb 6fbd ce2f 133f 0440 8fbd
000003d0: 9105 e03e a817 dabc 10bf 2a3e 3081 1d3d
000003e0: 9a77 f1bc 917d 613e 906a 833d d792 db3d
000003f0: 8a36 003c cb00 5f3e 10b6 7dbd 0d6a bf3e

encoder_attn.weight f4 [1, 148]
-0.038130615 0.03445873 0.02308178 -0.0024661242 -0.06453757 0.045551393 0.008577752 0.06301288
-0.061367992 -0.009162293 0.041933354 -0.004660026 0.080802664 0.026816364 0.081084535 0.081350945
-0.060141183 0.034017943 -0.081762575 0.0686388 -0.07467749 -0.010297538 -0.02596956 -0.029466683
-0.0021609582 -0.057225093 -0.020730052 0.07899756 -0.074946985 -0.0507096 0.04359621 -0.06280818
-0.05096965 0.05345706 -0.020234788 -0.0029976007 0.0027411138 -0.00060809165 0.06969264 -0.021768266
0.0050701844 -0.007493455 0.0057150032 -0.040957447 -0.07749011 -0.072212555 0.07625098 -0.07192376
-0.07162133 0.043314237 -0.07164729 -0.060240235 -0.034187477 0.012461072 0.043000795 -0.027996212
-0.024853624 -0.014416927 -0.01453655 -0.026750416 0.03926988 -0.060670197 0.08037358 -0.075031675
0.02910235 0.062368933 0.0049403463 -0.045325138 0.053516436 0.06716501 0.056601267 -0.03878506
-0.06325039 0.023117648 0.036501482 -0.0032468624 -0.0406636 -0.0067054573 -0.008412403 -0.0004262456
-0.047546647 -0.004628379 0.06092953 0.024234021 -0.04479527 -0.009386387 -0.013473672 -0.021381006
-0.045878574 -0.056668367 0.020073395 -0.06591037 0.036580056 0.025170304 0.06971147 -0.018999374
-0.07000075 -0.05250758 0.017267318 -0.06114535 0.029730063 -0.07472224 0.06704355 0.0047410843
0.07945359 -0.027150234 0.012372284 -0.02222271 0.008952922 0.037562214 0.07884043 0.0029836863
-0.004193795 0.03911809 -0.020563807 -0.020123174 -0.038358547 -0.06514932 -0.032673813 0.072513625
0.057622 0.0060469992 -0.07630552 -0.05475276 0.044054255 0.019180477 -0.07733271 0.08130802
-0.46639132 -0.1361762 -0.067665435 -0.3055609 -0.031706557 0.35158005 -0.07007174 -0.009853444
1.2479042 0.6916928 -0.27533826 0.43335015 -0.8908843 -0.3965007 -0.047140587 0.0068890713
-0.40176463 -0.6349571 0.25082684 -0.35525218
00000000: d92e 1cbd 9924 0d3d 0016 bd3c b39e 21bb
00000010: 462c 84bd 1994 3a3d b389 0c3c e60c 813d
00000020: 015d 7bbd 711d 16bc 4fc2 2b3d 22b3 98bb
00000030: de7b a53d fead db3c a60f a63d 539b a63d
00000040: 9a56 76bd 6656 0b3d 2373 a7bd 8092 8c3d
00000050: 83f0 98bd 01b7 28bc 1dbe d4bc 1d64 f1bc
00000060: dd9e 0dbb dc64 6abd 12d2 a9bc 79c9 a13d
00000070: ce7d 99bd dfb4 4fbd f191 323d 93a1 80bd
00000080: 8dc5 50bd caf5 5a3d 6dc3 a5bc 6573 44bb
00000090: 42a4 333b 5768 1fba 04bb 8e3d 5d53 b2bc
000000a0: ca23 a63b a88b f5bb ec44 bb3b ffc2 27bd
000000b0: 23b3 9ebd 2de4 93bd 7929 9c3d c44c 93bd
000000c0: 34ae 92bd 456a 313d d0bb 92bd 77be 76bd
000000d0: 2b08 0cbd 8629 4c3c 9a21 303d 5058 e5bc
000000e0: d499 cbbc f934 6cbc b62a 6ebc b023 dbbc
000000f0: 74d9 203d 5081 78bd e79a a43d 35aa 99bd
00000100: 0d68 ee3c 9176 7f3d a1e2 a13b daa6 39bd
00000110: 0d34 5b3d cf8d 893d bbd6 673d 15dd 1ebd
00000120: 6c89 81bd 3961 bd3c 9482 153d 50c9 54bb
00000130: e08e 26bd 74b9 dbbb 2dd4 09bc b779 dfb9
00000140: 46c0 42bd a8a9 97bb 3e91 793d 6d86 c63c
00000150: 3f7b 37bd 5cc9 19bc adc0 5cbc 3827 afbc
00000160: 2ceb 3bbd 171d 68bd f670 a43c 04fc 86bd
00000170: f8d4 153d f431 ce3c e3c4 8e3d 93a4 9bbc
00000180: 8e5c 8fbd 3012 57bd 3174 8d3c 8c73 7abd
00000190: 768c f33c f907 99bd 214e 893d 195b 9b3b
000001a0: 90b8 a23d 2b6a debc 1fb5 4a3c 670c b6bc
000001b0: 47af 123c d6da 193d 1777 a13d f389 433b
000001c0: 1a6c 89bb 4a3a 203d 6e75 a8bc 5bd9 a4bc
000001d0: da1d 1dbd 026d 85bd fad4 05bd 0682 943d
000001e0: 0c05 6c3d e825 c63b 1246 9cbd 6e44 60bd
000001f0: 3c72 343d 6020 9d3c 9d60 9ebd d284 a63d
00000200: d8ca eebe c671 0bbe 2d94 8abd 7a72 9cbe
00000210: bcde 01bd 4d02 b43e c681 8fbd 5770 21bc
00000220: 53bb 9f3f c812 313f 23f9 8cbe 12e0 dd3e
00000230: fe10 64bf 2402 cbbe 7d16 41bd b8bd e13b
00000240: 18b4 cdbe 8c8c 22bf 606c 803e 9de3 b5be

exp_avg f4 [7, 7]
-3.4720742e-08 0.0 0.0 0.0 0.0 0.0 0.0 0.0
0.0 0.0 0.0 0.0 0.0 0.0 0.0 0.0
5.1650153e-07 0.0 0.0 0.0 0.0 0.0 0.0 0.0
2.7349673e-08 0.0 0.0 0.0 0.0 0.0 0.0 0.0
5.1190153e-07 0.0 0.0 0.0 0.0 0.0 0.0 0.0
2.7364497e-06 0.0 0.0 0.0 0.0 0.0 0.0 0.0
6e-45
00000000: dc1f 15b3 0000 0000 0000 0000 0000 0000
00000010: 0000 0000 0000 0000 0000 0000 0000 0000
00000020: 0000 0000 0000 0000 0000 0000 0000 0000
00000030: 0000 0000 0000 0000 0000 0000 0000 0000
00000040: b7a5 0a35 0000 0000 0000 0000 0000 0000
00000050: 0000 0000 0000 0000 0000 0000 0000 0000
00000060: 91ee ea32 0000 0000 0000 0000 0000 0000
00000070: 0000 0000 0000 0000 0000 0000 0000 0000
00000080: 9b69 0935 0000 0000 0000 0000 0000 0000
00000090: 0000 0000 0000 0000 0000 0000 0000 0000
000000a0: d9a3 3736 0000 0000 0000 0000 0000 0000
000000b0: 0000 0000 0000 0000 0000 0000 0000 0000
000000c0: 0400 0000

exp_avg_sq f4 [7, 7]
3.0971064e-13 0.0 0.0 0.0 0.0 0.0 0.0 0.0
0.0 0.0 0.0 0.0 0.0 0.0 0.0 0.0
8.0066734e-12 0.0 0.0 0.0 0.0 0.0 0.0 0.0
3.9134235e-15 0.0 0.0 0.0 0.0 0.0 0.0 0.0
8.923387e-12 0.0 0.0 0.0 0.0 0.0 0.0 0.0
2.4281285e-10 0.0 0.0 0.0 0.0 0.0 0.0 0.0
4.2438804e-16
00000000: 025a ae2a 0000 0000 0000 0000 0000 0000
00000010: 0000 0000 0000 0000 0000 0000 0000 0000
00000020: 0000 0000 0000 0000 0000 0000 0000 0000
00000030: 0000 0000 0000 0000 0000 0000 0000 0000
00000040: dada 0c2d 0000 0000 0000 0000 0000 0000
00000050: 0000 0000 0000 0000 0000 0000 0000 0000
00000060: f6fe 8c27 0000 0000 0000 0000 0000 0000
00000070: 0000 0000 0000 0000 0000 0000 0000 0000
00000080: 5dfb 1c2d 0000 0000 0000 0000 0000 0000
00000090: 0000 0000 0000 0000 0000 0000 0000 0000
000000a0: df7c 852f 0000 0000 0000 0000 0000 0000
000000b0: 0000 0000 0000 0000 0000 0000 0000 0000
000000c0: 9fa4 f425

exp_avg f4 [7]
2.6052637e-08 0.0 -5.0625215e-07 2.4984756e-08 1.9955824e-07 2.003911e-06 6e-45
00000000: 5bca df32 0000 0000 62e5 07b5 0f9e d632
00000010: 2746 5634 ee7a 0636 0400 0000

exp_avg_sq f4 [7]
1.939059e-13 0.0 3.0446153e-11 6.439417e-14 2.8459932e-12 3.0025216e-10 1.2134165e-16
00000000: 9251 5a2a 0000 0000 52e7 052e b600 9129
00000010: db44 482c bc10 a52f bce5 0b25

exp_avg f4 [64, 7]
-0.00013758795 -0.00014664867 -0.0002714171 -0.00013636933 -0.00013609302 -0.00013987173 -0.00013607259 0.0
0.0 0.0 0.0 0.0 0.0 0.0 3.681033e-05 -5.351327e-07
-4.7416757e-05 -1.2400851e-05 -7.60661e-06 8.178128e-06 -3.5763755e-05 4.189987e-06 7.625497e-07 7.625497e-07
7.625497e-07 7.625497e-07 7.625497e-07 7.625497e-07 6e-45 6e-45 6e-45 6e-45
6e-45 6e-45 6e-45 2.1311491e-06 4.0304187e-07 4.0304187e-07 4.0304187e-07 4.0304187e-07
4.0304187e-07 4.0304187e-07 1.2864684e-05 2.0966747e-06 9.056089e-06 -8.933233e-07 8.2476645e-06 9.831216e-06
7.741219e-06 1.8023631e-05 1.8023631e-05 1.9352074e-05 1.8023631e-05 1.8023631e-05 1.8023631e-05 5.991272e-05
-0.0001299843 -0.000117958065 -0.00015018828 -0.0001597501 -0.00010698966 -0.0002154894 -0.00026614568 -1.7683067e-05
-1.3613265e-05 -1.5739579e-05 -1.7821689e-05 -1.450203e-05 -4.2589177e-06 -1.4015564e-05 6e-45 6e-45
6e-45 6e-45 6e-45 6e-45 6e-45 6.0059105e-05 7.055734e-05 9.449984e-05
6.6864246e-05 7.029665e-05 6.2132945e-05 8.721888e-05 3.3576616e-05 4.4543558e-05 5.0868115e-05 3.182115e-05
3.988169e-05 4.0706498e-05 6.8432295e-05 -2.6964291e-05 -2.5492469e-05 -2.1908501e-05 -2.4220817e-05 -2.924526e-05
-1.7887973e-05 -4.76442e-05 0.0 0.0 0.0 0.0 0.0 0.0
0.0 3.263031e-05 4.3115757e-05 6.6772925e-05 3.7968264e-05 4.305209e-05 4.18931e-05 3.7669146e-05
6e-45 6e-45 6e-45 6e-45 6e-45 6e-45 6e-45 8.520515e-05
-1.7204543e-06 -8.685386e-05 3.0542113e-05 3.5457833e-05 8.722214e-06 8.0871054e-05 7.443381e-05 7.1205686e-05
6.9056056e-05 7.769452e-05 7.0164744e-05 7.2555675e-05 0.00015046912 -4.8101723e-05 -3.8224814e-05 -4.2652646e-05
-4.2828524e-05 -3.474407e-05 -3.1615044e-05 -5.8199486e-05 -5.988901e-06 -1.0571779e-05 -1.5701411e-05 -2.4267205e-05
-1.2496427e-05 3.045756e-06 -2.9790717e-05 0.00017595518 0.00019323366 0.00024480897 0.00019659479 0.00019734724
0.00017513795 0.0002939716 5.813096e-06 -1.0285421e-05 -3.2012645e-06 -1.5924985e-05 -4.300938e-06 -5.6359527e-06
-7.623903e-06 -7.8909856e-05 -1.7503035e-05 -3.4706405e-05 -1.7503035e-05 -1.7503035e-05 -1.7503035e-05 -1.7503035e-05
-3.9841057e-06 -1.6929141e-06 -2.7731435e-06 -2.3593193e-06 -1.2781568e-06 1.1255299e-08 2.3976136e-07 2.6849846e-05
3.677375e-05 2.3780483e-05 2.385409e-05 2.703878e-05 3.850686e-05 1.0893966e-05 6.0813854e-05 4.6975438e-05
5.7771096e-05 5.8150203e-05 4.809391e-05 4.1951447e-05 7.603657e-05 6.1113846e-05 6.008191e-05 5.2968735e-05
6.445371e-05 5.998468e-05 5.5355693e-05 6.62726e-05 0.0 0.0 0.0 0.0
0.0 0.0 0.0 0.0 0.0 0.0 0.0 0.0
0.0 0.0 -2.993893e-05 9.714564e-06 6.009431e-06 -2.533546e-06 7.1312675e-06 1.569011e-05
-1.9158386e-05 0.00012706616 0.00014025561 0.00025311278 0.00014126766 0.00014960724 0.00012309343 0.00019892748
0.00012188686 8.6274806e-05 7.0157526e-05 9.832715e-05 0.000101722304 7.185821e-05 0.00016287966 -5.8583555e-05
-3.482811e-05 -5.5357315e-05 -2.1353091e-05 -3.320936e-05 -4.1703803e-05 -2.7837905e-05 2.969723e-05 -1.0229812e-05
-4.2939937e-05 -1.1547209e-05 -8.397029e-06 -7.921697e-06 -1.0243824e-05 2.8908065e-05 2.8526782e-05 2.424112e-05
2.198471e-05 2.3505556e-05 2.3222075e-05 2.6899294e-05 3.8084577e-06 5.900808e-06 7.153416e-06 3.9180504e-06
00000000: 7c45 10b9 b4c5 19b9 fd4c 8eb9 5dfe 0eb9
00000010: 31b4 0eb9 88aa 12b9 b5ae 0eb9 0000 0000
00000020: 0000 0000 0000 0000 0000 0000 0000 0000
00000030: 0000 0000 0000 0000 ca64 1a38 0aa6 0fb5
00000040: 5be1 46b8 400d 50b7 483c ffb6 cb34 0937
00000050: 0a01 16b8 b797 8c36 04b2 4c35 04b2 4c35
00000060: 04b2 4c35 04b2 4c35 04b2 4c35 04b2 4c35
00000070: 0400 0000 0400 0000 0400 0000 0400 0000
00000080: 0400 0000 0400 0000 0400 0000 dd04 0f36
00000090: a761 d834 a761 d834 a761 d834 a761 d834
000000a0: a761 d834 a761 d834 66d5 5737 99b4 0c36
000000b0: 9bef 1737 b6cc 6fb5 735f 0a37 c0f0 2437
000000c0: 48e0 0137 7431 9737 7431 9737 4356 a237
000000d0: 7431 9737 7431 9737 7431 9737 cb4a 7b38
000000e0: 654c 08b9 4160 f7b8 dc7b 1db9 9782 27b9
000000f0: a35f e0b8 fff4 61b9 7889 8bb9 1956 94b7
00000100: 8764 64b7 7d08 84b7 c97f 95b7 bf4d 73b7
00000110: d3e7 8eb6 6424 6bb7 0400 0000 0400 0000
00000120: 0400 0000 0400 0000 0400 0000 0400 0000
00000130: 0400 0000 f9e7 7b38 2ff8 9338 372e c638
00000140: 7839 8c38 3a6c 9338 5f4d 8238 48e9 b638
00000150: 9ed4 0c38 48d4 3a38 395b 5538 b377 0538
00000160: a346 2738 45bc 2a38 4f83 8f38 6031 e2b7
00000170: a9d8 d5b7 26c8 b7b7 cf2d cbb7 b853 f5b7
00000180: 210e 96b7 92d5 47b8 0000 0000 0000 0000
00000190: 0000 0000 0000 0000 0000 0000 0000 0000
000001a0: 0000 0000 87dc 0838 31d7 3438 7108 8c38
000001b0: 1d40 1f38 d492 3438 60b6 2f38 f0fe 1d38
000001c0: 0400 0000 0400 0000 0400 0000 0400 0000
000001d0: 0400 0000 0400 0000 0400 0000 2bb0 b238
000001e0: 5cea e6b5 5025 b6b8 581a 0038 8fb8 1438
000001f0: a055 1237 5199 a938 5919 9c38 4354 9538
00000200: 30d2 9038 eeef a238 6925 9338 0829 9838
00000210: 3fc7 1d39 d5c0 49b8 9553 20b8 eee5 32b8
00000220: c7a2 33b8 29ba 11b8 659a 04b8 391b 74b8
00000230: 45f4 c8b6 725d 31b7 86b6 83b7 6d91 cbb7
00000240: bfa7 51b7 b165 4c36 14e7 f9b7 9c80 3839
00000250: c49e 4a39 b459 8039 0325 4e39 ffee 4e39
00000260: 3ca5 3739 3320 9a39 1d0e c336 8c8f 2cb7
00000270: 4ed5 56b6 a596 85b7 c750 90b6 771c bdb6
00000280: d4d0 ffb6 687c a5b8 7bd3 92b7 b891 11b8
00000290: 7bd3 92b7 7bd3 92b7 7bd3 92b7 7bd3 92b7
000002a0: 35af 85b6 1638 e3b5 3e1a 3ab6 cc54 1eb6
000002b0: 228d abb5 545d 4132 8db8 8034 9b3b e137
000002c0: 833d 1a38 337c c737 451a c837 57d1 e237
000002d0: 6d82 2138 3ac5 3637 6112 7f38 7e07 4538
000002e0: 3e4f 7238 4ee6 7338 71b8 4938 06f5 2f38
000002f0: d375 9f38 3f2a 8038 7600 7c38 bf2a 5e38
00000300: 522b 8738 0f98 7b38 b92d 6838 d5fb 8a38
00000310: 0000 0000 0000 0000 0000 0000 0000 0000
00000320: 0000 0000 0000 0000 0000 0000 0000 0000
00000330: 0000 0000 0000 0000 0000 0000 0000 0000
00000340: 0000 0000 0000 0000 5d25 fbb7 bcfb 2237
00000350: 9fa4 c936 fd05 2ab6 1f49 ef36 419e 8337
00000360: 52b6 a0b7 103d 0539 9411 1339 39b4 8439
00000370: 4021 1439 e3df 1c39 a412 0139 3097 5039
00000380: 829d ff38 6fee b438 8921 9338 fd34 ce38
00000390: bf53 d538 95b2 9638 adca 2a39 9db7 75b8
000003a0: 6614 12b8 772f 68b8 6a1f b3b7 474a 0bb8
000003b0: 1eeb 2eb8 7285 e9b7 511e f937 b5a0 2bb7
000003c0: 681a 34b8 e3ba 41b7 f7e0 0cb7 6ee7 04b7
000003d0: e4dc 2bb7 997f f237 cc4c ef37 6959 cb37
000003e0: ce6b b837 cc2d c537 07cd c237 cba5 e137
000003f0: ce94 7f36 8eff c536 6007 f036 cc77 8336
