weights_new/EncoderEpochnew150_17_8.pt (torch_old, 862530 bytes, 27 tensors)

gamma_x_l.weight f4 [7, 7]
0	0xbec8a320	-0.39186954
1	0xbe9aee38	-0.3025987
2	0xbe3f8fd1	-0.18707205
3	0xbe4cb6f8	-0.19991672
4	0xbdb8ef0c	-0.090299696
5	0x3e1e7ea2	0.15477994
6	0xbcfa0a00	-0.030522346
7	0xbe8a5ca0	-0.27023792
8	0xbe9d981e	-0.3078012
9	0x3e81323d	0.2523364
10	0xbd1045c0	-0.03522277
11	0x3e8c6859	0.2742336
12	0x3e901bd5	0.28146234
13	0xbe6fba17	-0.23410831
14	0xbe7f479b	-0.24929659
15	0x3e2e8e3a	0.17046443
16	0xbead8a8f	-0.33894774
17	0x3b877e80	0.004134953
18	0x3dcf6088	0.10125834
19	0xbd5f0270	-0.054445684
20	0x3d1c4010	0.038147032
21	0x3d69df48	0.057097703
22	0xbe895d74	-0.26829112
23	0xb88f1000	-6.8217516e-05
24	0xbb5a6031	-0.0033321495
25	0x3ea892c1	0.32924464
26	0x3e1be616	0.1522449
27	0x3cce0830	0.025150388
28	0xbe54cd85	-0.20781524
29	0xbe2a6423	-0.16639762
30	0x3e7eee6a	0.24895635
31	0xbda80894	-0.08204761
32	0x402c2551	2.6897776
33	0xbda061e0	-0.07831168
34	0x3d3b03c8	0.045657903
35	0xbdac1930	-0.08403242
36	0x3ca36cb0	0.019949287
37	0x3e93202b	0.2873548
38	0xbea37569	-0.31925514
39	0xbeba01a7	-0.36329386
40	0x404e45fa	3.223021
41	0xbeb2e115	-0.3493735
42	0x3eb183af	0.3467078
43	0x3e9c217f	0.30494305
44	0xbeaeb008	-0.34118676
45	0xbda38a14	-0.07985321
46	0xbe02c57c	-0.12770647
47	0x3e15e1a2	0.14636853
48	0xbea4f85c	-0.32220733

gamma_x_l.bias f4 [7]
0	0xbd0dd537	-0.034627166
1	0xbe1ab719	-0.15108909
2	0xbdbda72f	-0.09260403
3	0xbe24ed27	-0.16106091
4	0x403c4faf	2.9423635
5	0x40212b87	2.5182817
6	0xbce0937e	-0.02741408

gamma_h_l.weight f4 [128, 7]
0	0xbe7aa653	-0.2447751
1	0xbe9995d2	-0.29997116
2	0x3e16f3ee	0.1474149
3	0xbeb2a3d3	-0.34890613
4	0x3e92cb1e	0.2867059
5	0xbeae885d	-0.34088412
6	0xbd94d76e	-0.072676525
7	0x3f02826f	0.50980276
8	0xbe6cfefa	-0.23144141
9	0xbe498a34	-0.19681627
10	0x3eb6cc32	0.35702664
11	0xbe41f51a	-0.18941155
12	0x3f09551a	0.5364548
13	0xbc19e2d1	-0.009392456
14	0x3cd99170	0.026558608
15	0xbcdbb700	-0.02682066
16	0xbeb7cba8	-0.35897565
17	0x3d72da70	0.05929035
18	0x3d8c9754	0.06864801
19	0xbeafa77c	-0.34307468
20	0xbc75d960	-0.0150054395
21	0x3e11aafe	0.14225385
22	0x3ec95088	0.39319253
23	0x3f43c22c	0.7646816
24	0x3d5d717c	0.054063305
25	0xbd7bf3a1	-0.06151164
26	0x3e510e55	0.20415623
27	0xbf8567cb	-1.04223
28	0x3f616dc2	0.880581
29	0x3df0e19d	0.11761782
30	0xbe980a23	-0.29695234
31	0xbec2d30a	-0.38051635
32	0x3e422231	0.18958355
33	0x3de61df7	0.11236184
34	0xbf0a811c	-0.54103255
35	0x3e4d5d22	0.20055059
36	0xbebc336f	-0.3675799
37	0xbd490656	-0.049078308
38	0xbdb30537	-0.08741229
39	0xbee38bc0	-0.44442558
40	0xbeec24c3	-0.46121797
41	0xbea77dc4	-0.3271314
42	0x3e7c7278	0.24653041
43	0xbea09e0c	-0.3137058
44	0xbf04619d	-0.51711446
45	0xbdd14ec9	-0.10220105
46	0x3c4b4f0c	0.012408983
47	0x3f4d006a	0.80078757
48	0x3e3f9b33	0.18711548
49	0x3ef6c915	0.48200288
50	0x3dd83b6a	0.10558207
51	0x3d83b7a2	0.064315096
52	0x3eaa76ba	0.33293706
53	0x3edc6a27	0.43049738
54	0x3e44e729	0.19228806
55	0x3f0825f6	0.53182924
56	0x3db42765	0.087965764
57	0x3e059fff	0.13049315
58	0x3ea52136	0.322519
59	0xbcf26e03	-0.029593473
60	0x3e56bcc1	0.20970441
61	0x3ec2889b	0.37994847
62	0x3eac17f1	0.33612016
63	0x3e8cffe3	0.27538976
64	0xbe972929	-0.2952359
65	0x3f01fe90	0.50779057
66	0xbf41206b	-0.7544009
67	0x3dae423f	0.08508729
68	0xbd912963	-0.07087972
69	0x3f2b7812	0.6698009
70	0xbdc50944	-0.09620908
71	0xbe739ddd	-0.23790689
72	0xbe9c0d8d	-0.30479088
73	0x3d80b414	0.06284347
74	0xbeb668c9	-0.3562682
75	0xbeae9037	-0.34094402
76	0xbdd19768	-0.102339566
77	0xbeff0cca	-0.49814445
78	0x3df99268	0.12186128
79	0xbe19b44c	-0.15010184
80	0x3ee6f653	0.45109805
81	0x3ec15ad3	0.37764606
82	0x3cae9ebc	0.021315925
83	0x3ebb5ec0	0.36595726
84	0x3eaa8d49	0.33310917
85	0x3dcf6098	0.10125846
86	0x3f1fe567	0.62459415
87	0x3e23c792	0.15994099
88	0x3d7fe0e0	0.062470317
89	0xbe96f87a	-0.29486448
90	0xbeab8540	-0.335001
91	0x3f233357	0.63750213
92	0xbf067e7f	-0.5253677
93	0x3f31dcf2	0.6947776
94	0xbf10f47f	-0.5662307
95	0xbdeef863	-0.1166847
96	0x3e9bb457	0.30411026
97	0x3eef397b	0.46723542
98	0x3dd5f640	0.10447359
99	0xbeab733e	-0.3348636
100	0x3b481cdb	0.0030534777
101	0xbe318c85	-0.1733876
102	0x3d5c073c	0.053717837
103	0xbe0af0cb	-0.13568418
104	0xbe8ec55b	-0.27884945
105	0xbeba2be7	-0.3636162
106	0xbd8f0656	-0.0698363
107	0x3f425310	0.75907993
108	0x3d7705b5	0.060308177
109	0xbe84a486	-0.2590677
110	0xbe33524b	-0.17511861
111	0xbd9b7894	-0.07591358
112	0xbf258441	-0.6465493
113	0x3f81e122	1.014683
114	0xbed8dde8	-0.423568
115	0xbf1cb835	-0.6121858
116	0xbebb7c93	-0.3661848
117	0x3f83522e	1.0259454
118	0xbedca33b	-0.43093285
119	0x3ef6a765	0.48174587
120	0x3f22e538	0.6363101
121	0xbf842619	-1.0324126
122	0xbe56b1a5	-0.20966204
123	0x3ea22588	0.3166926
124	0x3f27f173	0.656028
125	0x3f2a01ea	0.6640917
126	0x3e8b6a3c	0.27229488
127	0xbe81328b	-0.25233874
128	0x3f319316	0.6936506
129	0xbeb03d49	-0.34421757
130	0xbe92a21b	-0.28639302
131	0x3f0871a1	0.53298384
132	0x3d97d488	0.07413584
133	0x3ec5bf8f	0.3862271
134	0x3f1139b9	0.567287
135	0xbf7ea453	-0.9946949
136	0x3f080928	0.5313897
137	0x3e51c894	0.2048667
138	0x3f3cbae2	0.7372266
139	0xbe97a9a2	-0.29621607
140	0x3f47bc3e	0.7802161
141	0xbe4adebc	-0.19811529
142	0xbe612fa4	-0.2199083
143	0xbf413154	-0.75465894
144	0xbe9e6637	-0.3093736
145	0x3eb7c3c3	0.35891542
146	0xbf28ae64	-0.658911
147	0xbd82a51a	-0.06379147
148	0x3ee1c153	0.44092807
149	0xbf6209dd	-0.882963
150	0xbe3dc434	-0.18531877
151	0x3dbb547a	0.09146972
152	0xbe853712	-0.26018578
153	0xbe22987d	-0.15878482
154	0x3ebd322c	0.3695234
155	0xbebb97d0	-0.3663926
156	0x3e87ff20	0.26561832
157	0xbe0bea24	-0.13663536
158	0xbd18452c	-0.037175342
159	0x3dc84db0	0.09780443
160	0x3f154192	0.5830318
161	0x3f1b18e0	0.6058483
162	0x3e7fc45c	0.24977249
163	0x3e987aff	0.2978134
164	0x3da844f0	0.08216274
165	0x3ddca995	0.10774533
166	0xbe897e67	-0.2685425
167	0x3ea8fc81	0.33005145
168	0xbecce344	-0.4001714
169	0xbdc68fb1	-0.09695376
170	0x3dfeb8ee	0.12437616
171	0x3e952b83	0.2913476
172	0xbe5b73f4	-0.21430951
173	0xbde8485e	-0.11341928
174	0xbe5f3e3e	-0.21801087
175	0xbea94cf3	-0.3306652
176	0x3e0c4ac9	0.13700403
177	0xbe9df013	-0.30847225
178	0xbc9dff5e	-0.019286808
179	0x3c174c94	0.009234566
180	0xbea8eff5	-0.32995573
181	0x3ec86f2a	0.3914731
182	0xbea4b370	-0.3216815
183	0xbe2c1888	-0.16806233
184	0xbea51bdb	-0.32247815
185	0xbe1e90a1	-0.15484859
186	0xbe0ae155	-0.1356252
187	0x3d7d9cb8	0.061917037
188	0x3d4cbfd8	0.049987644
189	0xbeda1a58	-0.42598224
190	0xbed052e9	-0.40688255
191	0x3e23b6dd	0.15987726
192	0xbdd8ac51	-0.10579742
193	0xbd9289fe	-0.07155226
194	0xbe1a1869	-0.15048374
195	0xbc234acb	-0.0099665625
196	0xbe0e5950	-0.13901258
197	0xbde8c428	-0.11365539
198	0xbebc0a86	-0.3672678
199	0x3eb4a885	0.3528482
200	0xbe871148	-0.26380372
201	0xbd66cc68	-0.05634728
202	0xbdad26b0	-0.08454645
203	0x3f1b0fa4	0.6057074
204	0x3eb71ad0	0.35762644
205	0xbf3873cb	-0.72051686
206	0x3ee90ae5	0.45516124
207	0x3e8ec7af	0.27886721
208	0x3ebb9e60	0.36644268
209	0xbf4be497	-0.79645675
210	0x3f937c12	1.1522238
211	0x3f0ca167	0.5493378
212	0xbf1cd140	-0.6125679
213	0xbf017121	-0.50563246
214	0x3f5d099b	0.8634278
215	0x3e97aa44	0.2962209
216	0xbf13b640	-0.57699966
217	0xbe97cfe1	-0.29650787
218	0xbe520e5f	-0.20513295
219	0x3f1f4a50	0.62222767
220	0xbf11117b	-0.566673
221	0xbe30f01e	-0.17279097
222	0x3e528617	0.20558964
223	0xbef10193	-0.47071514
224	0xbe94c3db	-0.29055676
225	0x3e905898	0.28192592
226	0xbebca907	-0.36847708
227	0x3ed8a23a	0.4231127
228	0x3f021a41	0.5082131
229	0x3f0c082d	0.54699975
230	0x3e967f61	0.29394057
231	0xbe537657	-0.20650612
232	0xbb18622a	-0.002325187
233	0x3d49708e	0.049179606
234	0x3f138cb4	0.5763657
235	0x3ed90514	0.42386687
236	0x3e787b15	0.24265702
237	0x3e2a4872	0.16629198
238	0xbf93df43	-1.1552509
239	0x3c859a03	0.01630879
240	0xbcf61be2	-0.030042592
241	0x3f48efe2	0.7849103
242	0x3c6a0bfc	0.014285084
243	0x3f3b956d	0.7327488
244	0x3f34baec	0.7059772
245	0xbe8baf23	-0.27282056
246	0x3ec07c25	0.37594715
247	0x3ee097ce	0.43865818
248	0xbd724560	-0.059148192
249	0xbe8dc843	-0.2769185
250	0x3ea370a5	0.31921878
251	0x3ee78850	0.45221186
252	0xbefd1ad3	-0.49434528
253	0xbe7a5ba9	-0.24449028
254	0xbeedf39a	-0.46474916
255	0xbefedd89	-0.49778393

gamma_h_l.bias f4 [128]
0	0xbec0b4f9	-0.3763807
1	0x3e47769f	0.19478844
2	0xbe196fbc	-0.1498403
3	0x3ec0c8e4	0.37653267
4	0xbec79e78	-0.3898809
5	0xbe3599af	-0.17734407
6	0xbe8f6113	-0.2800375
7	0x3ca6eef5	0.020377615
8	0x3df8de8d	0.12151823
9	0xbdde9d27	-0.10869818
10	0x3d9b8af4	0.075948626
11	0x3f057cf7	0.52143806
12	0x3e590dca	0.21196666
13	0x3d2b8324	0.041873112
14	0xbe4d40e6	-0.20044288
15	0x3d798153	0.06091435
16	0xbe54805d	-0.20752092
17	0x3ee3cec4	0.44493687
18	0x3e74edb4	0.23918802
19	0x3f13ed17	0.57783645
20	0xbf1140e7	-0.5673966
21	0x3e075898	0.1321739
22	0x3e296d5a	0.1654562
23	0x3d1f245e	0.03885304
24	0xbee830a4	-0.4534961
25	0x3ea25b6e	0.3171038
26	0xbdc593a8	-0.09647304
27	0xbe9d4486	-0.30716342
28	0xbd2d6dd8	-0.042341083
29	0x3ec5b56b	0.38614973
30	0x3ec9eac8	0.39436936
31	0xbef11415	-0.47085634
32	0x3e5af94b	0.2138416
33	0x3e634f51	0.22198226
34	0xbe7237bf	-0.23654078
35	0x3e137917	0.14401661
36	0x3dcfa578	0.101389825
37	0x3e88873b	0.26665673
38	0xbec1b9b1	-0.37836984
39	0x3e019497	0.12654339
40	0x3e1d8dbb	0.15386097
41	0x3e829731	0.25505975
42	0xbe864ee9	-0.2623208
43	0xbd992ee6	-0.07479648
44	0x3db1c644	0.08680394
45	0xbdb7c592	-0.089732304
46	0x3dbf53df	0.09342169
47	0xbf0b9e85	-0.54538757
48	0xbeca85d4	-0.39555228
49	0xbca46732	-0.020068739
50	0x3c624204	0.013809685
51	0xbebd2917	-0.36945412
52	0xbcf74392	-0.030183587
53	0x3d2ec275	0.042665917
54	0x3d8979d3	0.06712689
55	0x3e7a19fc	0.24423975
56	0xbe5a6b23	-0.21329932
57	0xbeaeb322	-0.34121042
58	0x3e36905f	0.1782851
59	0xbe8c7acb	-0.27437434
60	0xbf3d349e	-0.7390841
61	0x3e16de46	0.14733228
62	0x3ef1b5d6	0.47209042
63	0xbe20f8c4	-0.15719897
64	0x3e07219a	0.13196412
65	0x3e0b0422	0.13575795
66	0xbdce3c78	-0.10070127
67	0x3ee80828	0.45318723
68	0x3eeb6948	0.4597876
69	0x3ebd9a63	0.3703185
70	0xbe933b3a	-0.28756124
71	0x3f0637a1	0.5242863
72	0x3e3f9dae	0.18712494
73	0xbe9736f7	-0.29534122
74	0xbebd81f6	-0.37013215
75	0x3dbfd0d1	0.093660004
76	0xbea5e9e4	-0.32405007
77	0x3e4f6a72	0.2025545
78	0x3efb4aa4	0.49080384
79	0x3f301b8d	0.6879204
80	0x3d5182ff	0.05115032
81	0x3ef3574b	0.47527537
82	0x3f5b0b1d	0.8556383
83	0xbed5253d	-0.41629973
84	0x3e1f74fc	0.1557197
85	0xbed46b5d	-0.41488162
86	0xbeab4560	-0.33451366
87	0x3e3cc9fb	0.18436424
88	0x3ec2462e	0.37944168
89	0x3ebf75f8	0.3739469
90	0xbf0ae873	-0.5426094
91	0x3f36a6a0	0.71348
92	0x3bf820bc	0.0075722616
93	0x3e1aed9c	0.15129703
94	0xbe574d0c	-0.21025485
95	0x3e3c7260	0.18403006
96	0x3b7ed100	0.0038881898
97	0xbe8ba172	-0.2727161
98	0x3eb07332	0.34462887
99	0xbd6d7260	-0.057970405
100	0x3bc988b1	0.006150328
101	0xbdaef49d	-0.0854275
102	0x3ef65505	0.4811174
103	0x3e356aea	0.17716566
104	0x3e581540	0.21101856
105	0xbe685d05	-0.22691734
106	0x3ef38e6d	0.475696
107	0xbec853a2	-0.39126307
108	0x3e889f7d	0.2668418
109	0xbe9fcc73	-0.3121067
110	0xbda20ac4	-0.0791221
111	0xbe28d57f	-0.16487692
112	0x3d681bd6	0.05666717
113	0xbe2792b0	-0.1636455
114	0x3e718eb2	0.2358959
115	0xbe2f9913	-0.17148237
116	0xbe4f8d4a	-0.20268741
117	0xbda3e9eb	-0.08003601
118	0x3edc5712	0.4303518
119	0xbe836b41	-0.25667766
120	0x3eb5a235	0.35475317
121	0x3e822f6c	0.25426805
122	0x3f4f38d8	0.8094611
123	0x3b9d5e0c	0.004802471
124	0x3d28bead	0.041197468
125	0xbdbcefd5	-0.09225432
126	0x3e8ad261	0.2711363
127	0x3f149c42	0.5805093

encoder_lstm.weight_ih_l0 f4 [512, 7]
0	0xbf948e40	-1.1605911
1	0xbedb0a35	-0.42781225
2	0xbe92ea8f	-0.2869458
3	0xbf0bc6d5	-0.5460027
4	0xbe8edc87	-0.27902624
5	0xbf5a3e38	-0.8525119
6	0xbf55efe1	-0.8356915
7	0xbe2493ec	-0.16072053
8	0xbe56854d	-0.20949288
9	0xbe72e702	-0.23720935
10	0xbdc5675d	-0.096388556
11	0xbe461c8f	-0.19346832
12	0xbeb2528c	-0.34828603
13	0x3e8156e6	0.2526161
14	0xbdd0711d	-0.10177825
15	0xbdf66f1a	-0.1203291
16	0xbea31ce3	-0.31857976
17	0x3f05bff8	0.52246046
18	0x3dd8cad7	0.10585564
19	0xbec7a1f0	-0.38990736
20	0xbf338ed2	-0.701398
21	0xbfc86b36	-1.5657718
22	0x3eb82646	0.359667
23	0x3e1b8612	0.15187863
24	0xbf75f50d	-0.9607704
25	0x3fc26688	1.518754
26	0x3ec023cf	0.3752732
27	0xc0456880	-3.0845032
28	0xbfcdf599	-1.6090575
29	0xbebefb7a	-0.37301236
30	0xbfd58465	-1.6681029
31	0x3e45e66d	0.19326182
32	0x3eb64b56	0.35604352
33	0x3e348649	0.1762935
34	0xc04f347e	-3.2375789
35	0xbf49d089	-0.78833824
36	0x3f378556	0.7168783
37	0xbf326f35	-0.6970094
38	0x3e18927e	0.14899632
39	0xbe7bd4b9	-0.24592866
40	0xbfb0db8f	-1.3817004
41	0x3ee9a509	0.45633724
42	0xbf4a1849	-0.78943306
43	0x3ef8afd1	0.48571637
44	0xbf8fd36f	-1.12364
45	0x3e750769	0.23928608
46	0x3e37534a	0.17902866
47	0xbf972f6e	-1.1811349
48	0x3fd97677	1.6989278
49	0xbf805b04	-1.0027776
50	0xbf0a740b	-0.5408332
51	0xbfae09a9	-1.3596698
52	0xbdf799db	-0.120898925
53	0xbf060325	-0.5234855
54	0xbf4f406a	-0.80957663
55	0xbe9318f4	-0.28729975
56	0xbf1c4deb	-0.61056393
57	0xbf1422ce	-0.5786561
58	0x3efd7ec1	0.49510768
59	0xbe109f2a	-0.14123216
60	0xbac84b65	-0.0015281258
61	0xbe976cb6	-0.29575127
62	0x3ddade95	0.106869854
63	0xbfd2a1d2	-1.6455634
64	0x3f929b41	1.145363
65	0xbf44682c	-0.76721454
66	0xbef77224	-0.4832927
67	0x3f90e3f2	1.1319563
68	0xbe51799f	-0.20456551
69	0xc042172b	-3.032664
70	0x3e08cc5f	0.13359211
71	0x3fa03bcd	1.251825
72	0xbfcbe29c	-1.5928531
73	0xbebfe424	-0.37478745
74	0x3e8684aa	0.2627309
75	0x3f0cb1d9	0.54958874
76	0xbf361e10	-0.7113962
77	0xbf9aeeff	-1.2104186
78	0xbe65a0ce	-0.22424623
79	0xbf64c516	-0.8936323
80	0xbf1cbcf1	-0.612258
81	0xbdce6405	-0.10077671
82	0xbedfaaf7	-0.43685123
83	0xbf907488	-1.1285563
84	0xbf030721	-0.5118275
85	0xbe30ce1b	-0.17266123
86	0xbe5d7b66	-0.21629104
87	0xbf827c2d	-1.0194145
88	0x3c2272ba	0.009915048
89	0xbed22523	-0.41043958
90	0x3bd26f65	0.0064219707
91	0xbe9679ab	-0.293897
92	0xbf12a272	-0.5727912
93	0x3eb90277	0.36134693
94	0xbef9c3c9	-0.48782185
95	0xbe1a9b00	-0.1509819
96	0xbea33fb5	-0.31884542
97	0xbeafc537	-0.3433015
98	0xbef451f4	-0.47718775
99	0xbfa9628c	-1.3233199
100	0xc0244f8e	-2.5673556
101	0xbef378d8	-0.47553134
102	0xbf945968	-1.1589785
103	0xbf86e044	-1.053719
104	0xbfdae859	-1.7102157
105	0xbe7f46bc	-0.24929327
106	0xbeaed634	-0.341478
107	0xbef15516	-0.47135228
108	0x3d846cf9	0.064660974
109	0x3f20f122	0.6286794
110	0xbea2a640	-0.31767464
111	0xbe25ff3b	-0.16210644
112	0x3ff0a1b5	1.8799349
113	0x3f986911	1.1907064
114	0xc054b74c	-3.3236876
115	0x3f9fa2f9	1.247161
116	0xbf9492fa	-1.1607354
117	0xbf2c9b93	-0.6742489
118	0x3e82e203	0.25563058
119	0xc054dbf0	-3.325924
120	0xbe96a165	-0.2942001
121	0xbed51d5a	-0.41623956
122	0x3e69a21c	0.22815746
123	0x3e99b644	0.3002187
124	0xbe60356a	-0.21895376
125	0xbe991125	-0.29895893
126	0xbed3caee	-0.4136576
127	0xbebff246	-0.37489527
128	0x3d8a1e18	0.06744021
129	0xbfa383e5	-1.2774626
130	0x3cf94b30	0.03043136
131	0xbea0a50e	-0.31375927
132	0xbf199056	-0.59985864
133	0x3c0bf9e5	0.008543466
134	0xbf85b52e	-1.0445917
135	0xbff95651	-1.9479467
136	0xbf431d30	-0.7621641
137	0xbf0f5546	-0.5598949
138	0xbd76ee71	-0.06028599
139	0xbf98e9e4	-1.1946378
140	0xbfedb8b5	-1.8571993
141	0x3b8372ff	0.0040115113
142	0xbf7c0669	-0.9844728
143	0xbe4a3be6	-0.19749412
144	0x3f32c9f7	0.69839424
145	0xbe136797	-0.14394985
146	0xc0083089	-2.1279624
147	0xbeff3279	-0.49843195
148	0xbf22e6d5	-0.6363347
149	0xbfc765b2	-1.557791
150	0x3efd5507	0.49478933
151	0xbf204bb8	-0.6261554
152	0xbe203158	-0.15643823
153	0xbe4c8d53	-0.19975786
154	0xbdc71839	-0.09721417
155	0xbd904c3b	-0.0704579
156	0xbc57c6f7	-0.0131699955
157	0xbe71d099	-0.2361473
158	0xbdce1de4	-0.10064295
159	0xbe6be34e	-0.23035929
160	0x3e1e6b09	0.15470518
161	0xbca2e68d	-0.019885326
162	0xbe698160	-0.22803259
163	0xbe1eb852	-0.155
164	0xbeaca060	-0.33716106
165	0xbe05546c	-0.13020486
166	0x3ebc16aa	0.3673604
167	0x3da89b36	0.08232729
168	0x3ffd90bb	1.9809793
169	0x3fd9d727	1.7018784
170	0x3ec56d10	0.3855977
171	0xbfe216cd	-1.7663208
172	0x402361dd	2.552848
173	0x3ef55487	0.47916052
174	0x3fb36427	1.4014939
175	0xbf48147e	-0.7815627
176	0xbe1f977c	-0.1558513
177	0xbeca8060	-0.39551067
178	0x3f545820	0.8294697
179	0x3e280a2d	0.16410132
180	0xbf984b2a	-1.1897938
181	0xbf8e656f	-1.1124705
182	0xbd985072	-0.07437219
183	0xbf38d15f	-0.72194475
184	0xbe6f6754	-0.2337926
185	0xbe96fbcf	-0.2948899
186	0xbeade94a	-0.33967048
187	0xbf7bc589	-0.9834829
188	0xbe90f656	-0.2831294
189	0xbe760bf0	-0.24027991
190	0x3ed67bfc	0.41891468
191	0x3d8e0b22	0.06935717
192	0xbe31d2c8	-0.17365563
193	0x3eed4ebe	0.46349138
194	0xbdbfbf7d	-0.09362695
195	0x3e78594d	0.24252816
196	0xbfc718bc	-1.5554423
197	0x3f752490	0.95758915
198	0xc0203f9e	-2.503883
199	0xbfa9b7fb	-1.3259271
200	0x400fbf43	2.2460487
201	0x3ee5d4cb	0.4488891
202	0x3f9dadf8	1.2318716
203	0x3e443e7f	0.19164465
204	0x3ed0f49d	0.40811625
205	0xbdf2d4a6	-0.11856966
206	0x400aa8da	2.166556
207	0xbea9dd5c	-0.33176696
208	0xbe2edea7	-0.17077123
209	0x3df20aaa	0.1181844
210	0xbf269bde	-0.65081584
211	0xbf2d1e7c	-0.6762464
212	0xbdf6b73e	-0.120466694
213	0x3f6d6998	0.9273925
214	0x3eafb04f	0.343142
215	0xbedd5327	-0.43227503
216	0xbdf98bd1	-0.12184871
217	0xbf88e7bb	-1.0695719
218	0x3ee4ba4f	0.44673392
219	0xbf17cf79	-0.59300953
220	0xbf1e4b94	-0.61834073
221	0x3f63e006	0.8901371
222	0xbf7b62cb	-0.9819762
223	0xbebcce6f	-0.36876246
224	0x3d441ee6	0.04788103
225	0xbebf0e52	-0.37315613
226	0xbe3f3b2f	-0.1867492
227	0xbfdee3ba	-1.7413247
228	0x3d4413c7	0.047870424
229	0xbe8e1a05	-0.27754226
230	0xbe563ef6	-0.20922455
231	0xbe6a86e8	-0.22903025
232	0xbdca156f	-0.098673694
233	0xbe29078e	-0.16506788
234	0x3f2146ed	0.6299885
235	0xbdf7fa18	-0.121082485
236	0xbe3b036d	-0.18263026
237	0xbe3153f3	-0.1731718
238	0xc024ad9b	-2.573096
239	0xbe9f58d4	-0.31122458
240	0xbd3deca4	-0.046368256
241	0xbeddd688	-0.43327737
242	0x3efa4590	0.48881197
243	0xbf91edc3	-1.1400684
244	0x3e86e076	0.26343125
245	0xbe8ccc81	-0.27499774
246	0xbde00546	-0.10938506
247	0xbdb32fdd	-0.087493636
248	0x3e8202ec	0.25392854
249	0xbd8333b8	-0.06406349
250	0xbe940a11	-0.2891393
251	0xbe1fe891	-0.15616061
252	0xbf97552d	-1.1822869
253	0x3f81ec4b	1.0150236
254	0xbf80332f	-1.001562
255	0x3fb7640f	1.432741

encoder_lstm.weight_hh_l0 f4 [512, 128]
0	0x3d4bea63	0.049784075
1	0xbedb2b94	-0.42806685
2	0xbe3aceba	-0.18242922
3	0xbde2c6fc	-0.110731095
4	0xbd5a4c74	-0.053295568
5	0x3f121f0c	0.57078624
6	0xbdcdb250	-0.10043776
7	0xbe0e1ae0	-0.1387744
8	0xbc663cb6	-0.014052561
9	0x3f977ded	1.1835304
10	0xbede5ee2	-0.43431765
11	0xbd06a65d	-0.0328735
12	0x3dda3091	0.106537946
13	0xbd17a843	-0.0370257
14	0xbdae8887	-0.08522134
15	0x3e3cdc9e	0.18443534
16	0x3e1d9361	0.15388252
17	0x3e5114bb	0.20418064
18	0xbd892d7b	-0.06698128
19	0xbe325d96	-0.17418513
20	0x3db8dc5d	0.09026406
21	0x3e02abf7	0.12760912
22	0x3e325d4c	0.17418402
23	0xbdb96a3c	-0.09053466
24	0x3d274c70	0.04084438
25	0xbf15fca8	-0.5858865
26	0x3cc24662	0.023715202
27	0x3e4f0c72	0.20219591
28	0x3cb36274	0.021897532
29	0x3e2c5adf	0.1683154
30	0x3e364571	0.17799927
31	0x3ebc6ae4	0.368003
32	0x3d183272	0.037157483
33	0x3df08cd4	0.11745611
34	0x3f151841	0.58240134
35	0x3db35ada	0.08757563
36	0xbdcc3c81	-0.09972478
37	0xbf33ef9d	-0.70287496
38	0xbd947f30	-0.072508216
39	0x3c84453f	0.0161463
40	0xba3e6697	-0.0007263212
41	0xbc595300	-0.013264418
42	0x3d6220fe	0.055207245
43	0xbb27f4c0	-0.002562806
44	0x3f1d0186	0.6133045
45	0xbd9e7ba0	-0.07738423
46	0xbdfab8f1	-0.12242306
47	0x3baefcab	0.005340179
48	0xbc68445d	-0.014176455
49	0xbc19f67d	-0.009397146
50	0x3d7b132e	0.061297588
51	0xbecbc7bf	-0.39800832
52	0x3c1d131d	0.0095870765
53	0xbe4cbdac	-0.19994229
54	0xbe0c59d9	-0.13706149
55	0xbd9f6c09	-0.07784278
56	0xbd572bbf	-0.052531954
57	0x3f8bd088	1.0923014
58	0x3db6c7e5	0.089248456
59	0x3f2c891f	0.6739673
60	0xbeb67ca9	-0.35641983
61	0x3c952f68	0.018211082
62	0x3ec47cbf	0.38376424
63	0xbeac39ce	-0.3363785
64	0xbe7d8433	-0.24757461
65	0x3df7769d	0.120831706
66	0x3db7645b	0.08954688
67	0x3e7c1f72	0.2462137
68	0x3e2d1500	0.16902542
69	0x3debbb24	0.115103036
70	0xbf3dfe86	-0.74216497
71	0x3ea0ddb7	0.31419155
72	0xbd826590	-0.06367028
73	0x3db50eb1	0.08840693
74	0x3c90059a	0.017580796
75	0x3dac4e4b	0.08413371
76	0xbdf38530	-0.11890638
77	0x3e21e922	0.1581159
78	0xbe0dfd51	-0.13866164
79	0xbde50d1b	-0.1118414
80	0x3beab1e5	0.00716232
81	0x3f0ed96e	0.5580052
82	0x3d179f8f	0.0370174
83	0xbc430c8f	-0.01190485
84	0x3e4b0c43	0.19828896
85	0xbf020e0b	-0.5080268
86	0xbe8c656a	-0.27421123
87	0xbdb3f36f	-0.08786666
88	0x3de8bc65	0.113640584
89	0x3e99741b	0.29971394
90	0x3e9480d4	0.29004538
91	0xbd735b72	-0.05941338
92	0x3f1f1697	0.62143844
93	0xbd34bcb1	-0.044125263
94	0xbe036599	-0.12831725
95	0xbdb0326b	-0.086033665
96	0x3deda0ee	0.116029605
97	0x3d8c3d41	0.06847621
98	0x3c96e891	0.018421443
99	0xbd88f3a0	-0.06687093
100	0x3e5ea87a	0.21743956
101	0xbe5cedad	-0.21575041
102	0x3e8902aa	0.26759845
103	0xbdc7202b	-0.097229324
104	0xbf036492	-0.51325333
105	0x3f636ed9	0.88841015
106	0x3f35645d	0.7085627
107	0x3d1c506c	0.038162634
108	0xbd0d7875	-0.034538705
109	0xbf123ed5	-0.57127124
110	0xbe4b3a2b	-0.19846408
111	0xbc2ff380	-0.010739207
112	0x3e8df760	0.27727795
113	0x3d908e36	0.070583746
114	0x3eaba8e7	0.335273
115	0xbdb1030d	-0.0864316
116	0xbf311d4a	-0.69185317
117	0x3f72f613	0.9490673
118	0x3ee7560a	0.4518283
119	0x3d03f729	0.032218132
120	0xbeafed27	-0.3436062
121	0x3dd652dd	0.10465024
122	0xbcb66647	-0.022265567
123	0x3e8427b9	0.25811556
124	0xbe4009d6	-0.18753752
125	0x3e14828c	0.14502925
126	0x3e23480d	0.15945454
127	0x3d420e14	0.047376707
128	0xbe0b63d5	-0.13612302
129	0xbd89fc2f	-0.06737553
130	0xbd5a1785	-0.053245086
131	0xbd2e3bac	-0.042537376
132	0x3db9c1eb	0.0907019
133	0x3d9d07b8	0.07667488
134	0x3e5ccabe	0.21561715
135	0xbd915db0	-0.070979476
136	0xbdd66ff7	-0.10470574
137	0xbcfb66a5	-0.030688593
138	0xbe12edb8	-0.14348495
139	0x3dc09ab0	0.09404504
140	0x3d036519	0.032078836
141	0xbe1ffa5f	-0.15622853
142	0xbde83b09	-0.11339385
143	0xbd0ae3bf	-0.0339086
144	0x3e2cb056	0.16864142
145	0x3d02e591	0.031957213
146	0xbe0bcab1	-0.1365154
147	0x3e951332	0.29116207
148	0xbe8c1eeb	-0.2736734
149	0xbeb7ed0e	-0.35923046
150	0x3d8d4acf	0.06899034
151	0x3d9800c7	0.07422023
152	0xbf6d983d	-0.9281042
153	0x3e3c53fa	0.1839141
154	0x3d5a3f52	0.053283043
155	0xbe44a0aa	-0.19201913
156	0xbf9e785f	-1.2380484
157	0x3d5b11d1	0.053483788
158	0xbc9d4ab4	-0.01920066
159	0xbdd21f56	-0.10259883
160	0xbbe7bd9c	-0.0070721637
161	0xbaa639df	-0.0012682042
162	0x3e006de0	0.12541914
163	0x3d837565	0.064188756
164	0xbdbb1ab3	-0.09135952
165	0x3de3469f	0.11097454
166	0x3e5a5c9a	0.21324387
167	0xbbb8d1d9	-0.00564025
168	0x3dc8cee4	0.09805086
169	0x3c8697a5	0.016429732
170	0x3d7b8cf7	0.06141373
171	0x3d8de251	0.06927932
172	0x3c7c9e60	0.015418619
173	0xbd0331c6	-0.03202989
174	0x3dd43efa	0.10363574
175	0x3e00ce09	0.12578596
176	0xbed931da	-0.42420846
177	0xbbced245	-0.006311687
178	0xbe9c6e77	-0.30553028
179	0xbe5cb1d0	-0.21552205
180	0xbe416ba6	-0.18888721
181	0x3dc8ad01	0.09798623
182	0x3ebb2ad1	0.36556104
183	0xbd0446c2	-0.032294042
184	0xbd739f72	-0.05947823
185	0xbd0936f2	-0.033499666
186	0xbd55867d	-0.05213021
187	0x3e2e4629	0.17018951
188	0xbe766b60	-0.24064398
189	0xbdba041e	-0.090828165
190	0xbe34d86a	-0.1766068
191	0xbc2b5669	-0.0104576135
192	0xbc3e6063	-0.01161966
193	0xbd94581c	-0.07243368
194	0xbd3c6d16	-0.04600247
195	0x3d30496c	0.04303877
196	0xbb59ff6d	-0.0033263818
197	0xbca21f5c	-0.019790344
198	0x3d3448bd	0.04401468
199	0xbe182099	-0.14856185
200	0x3e1d40ea	0.15356794
201	0x3da4afe3	0.0804136
202	0xbde6d300	-0.11270714
203	0x3d9e2548	0.077219546
204	0x3dfce527	0.12348395
205	0x3cba2deb	0.022726974
206	0x3e2bc95f	0.16776036
207	0xbefc4daa	-0.49278003
208	0xbda61c35	-0.08110849
209	0x3db65c03	0.089042686
210	0xbe815a76	-0.2526433
211	0x3c9e93e9	0.019357638
212	0xbdf30804	-0.11866763
213	0x3eab9b71	0.3351703
214	0x3e2b32b3	0.16718559
215	0xbd0497b3	-0.032371234
216	0xbd98846c	-0.074471325
217	0x3ce6f2b0	0.028191894
218	0xbdab3f3d	-0.08361671
219	0x3cba2fb7	0.02272783
220	0x3f0fc4de	0.5615977
221	0xbcd6d759	-0.026225733
222	0x3dc3e5ed	0.09565339
223	0xbdb8ed18	-0.09029597
224	0xbdb2e5e0	-0.087352514
225	0x3d28d063	0.041214358
226	0xbe13e298	-0.14441907
227	0x3f277b05	0.6542209
228	0x3e001b28	0.1251036
229	0xbe192245	-0.14954479
230	0xbd2f71be	-0.042833082
231	0xbe0b7be4	-0.1362148
232	0x3e0d7ca0	0.13817072
233	0xbfe74e82	-1.8070834
234	0x3dd51707	0.10404783
235	0x3df307cc	0.118667215
236	0xbcb75a30	-0.022381872
237	0x3e0d2d30	0.13786769
238	0x3dacce86	0.08437829
239	0xbd00344b	-0.03129987
240	0xbd8e3d87	-0.06945329
241	0xbc26f836	-0.010191014
242	0xbdbfa049	-0.09356744
243	0x3c53c0b9	0.012924367
244	0x3c0c0a60	0.0085473955
245	0xbdc27e6d	-0.0949677
246	0x3e2b7e6b	0.16747443
247	0x3d3402b7	0.0439479
248	0xbca7c72b	-0.020480713
249	0xbc7ddb38	-0.01549416
250	0x3e4357b6	0.19076428
251	0xbdf4187d	-0.11918733
252	0x3cd3ba7d	0.02584576
253	0x3e5a2e96	0.21306834
254	0xbe906ecb	-0.28209528
255	0x3ca0f599	0.01964836

encoder_lstm.bias_ih_l0 f4 [512]
0	0xbe848a2e	-0.25886673
1	0xbe010dc7	-0.12602912
2	0xbe525e82	-0.20543864
3	0xbe70b2e4	-0.23505741
4	0xbee33fd0	-0.44384623
5	0x3cf1a63c	0.029498212
6	0x3d13f4a9	0.036121998
7	0xbe89fd1b	-0.26950917
8	0xbe57ca96	-0.21073374
9	0xbe854792	-0.26031166
10	0xbed5baa7	-0.41743967
11	0xbdf56428	-0.11981994
12	0xbd980d8f	-0.07424461
13	0xbe0b6d8d	-0.13616009
14	0xbea6229a	-0.32448274
15	0xbe281f13	-0.16418104
16	0xbdec03e1	-0.11524177
17	0xbee7959f	-0.4523134
18	0xbe34cd61	-0.17656471
19	0xbe4ca5f5	-0.19985183
20	0xbe75c92a	-0.24002519
21	0xbe99c02e	-0.30029434
22	0xbdf47fa2	-0.119384065
23	0xbe4d0f68	-0.20025408
24	0xbdab1f2f	-0.08355557
25	0xbe96c7d5	-0.29449335
26	0xbeaeff6f	-0.34179255
27	0xbec0fb81	-0.37691882
28	0x3e806765	0.25078884
29	0xbd6ffa16	-0.05858811
30	0xbe3ce009	-0.18444838
31	0xbe9cf8fb	-0.30658707
32	0xbe55b718	-0.20870626
33	0xbe2abcc5	-0.16673572
34	0xbe80cb35	-0.25155035
35	0xbe109ea0	-0.1412301
36	0xbec43f7d	-0.38329688
37	0xbe17d6bb	-0.14828007
38	0xbeba69ab	-0.36408743
39	0xbe4954b2	-0.19661215
40	0xbead0f54	-0.33800757
41	0xbee4f81e	-0.44720548
42	0xbe2b6d24	-0.16740853
43	0xbd87f18b	-0.066378675
44	0xbe22196a	-0.15830007
45	0xbe274058	-0.16333139
46	0xbe9e792c	-0.30951822
47	0xbd7a3c0b	-0.061092418
48	0xbe68dd82	-0.22740749
49	0xbc94190d	-0.018078351
50	0x3e10458f	0.14089034
51	0xbec57ef7	-0.3857343
52	0xbf12fb2b	-0.574145
53	0xbedb4486	-0.42825717
54	0xbe12f05a	-0.143495
55	0xbe2074df	-0.15669583
56	0xbe2ff09b	-0.17181627
57	0xbe6a87ca	-0.22903362
58	0xbdb6f68a	-0.08933742
59	0xbdc3a1b2	-0.09552325
60	0x3d4b3fa6	0.049621247
61	0x3d181f54	0.03713925
62	0xbd8304a1	-0.06397367
63	0xbe1b133b	-0.15144055
64	0xbe809790	-0.25115633
65	0xbdf5c115	-0.11999718
66	0xbea022c5	-0.31276527
67	0xbdefab25	-0.11702565
68	0xbe66e3c5	-0.22547825
69	0xbce50c58	-0.027959988
70	0xbd9e10a5	-0.077180184
71	0xbe056016	-0.13024935
72	0xbeea25e1	-0.45732024
73	0xbe90c1fb	-0.28272995
74	0xbeb7c000	-0.35888672
75	0xbe0c216c	-0.13684624
76	0xbe0b613b	-0.13611309
77	0xbdc6dccd	-0.09710083
78	0xbe96cece	-0.29454654
79	0xbd8c7ed6	-0.068601295
80	0xbea558ee	-0.3229441
81	0xbef96809	-0.48712185
82	0xbdd914c5	-0.105996646
83	0xbe332b17	-0.17496906
84	0xbe303784	-0.17208678
85	0xbe9c9138	-0.30579543
86	0xbe7d1d31	-0.24718167
87	0xbdc95297	-0.09830206
88	0xbdfba3fe	-0.122871384
89	0xbe8ba3cf	-0.27273414
90	0xbe707b8f	-0.23484634
91	0xbe7a2652	-0.2442868
92	0xbe69674c	-0.22793311
93	0xbe07a072	-0.13244799
94	0xbe4887e5	-0.1958309
95	0xbeb381b6	-0.350599
96	0xbe9c38ca	-0.30512077
97	0xbe988f42	-0.29796797
98	0xbe8306bc	-0.25591075
99	0xbd9ce8b3	-0.07661571
100	0xbe95e45a	-0.2927578
101	0xbcd6f7fe	-0.026241299
102	0xbe92a232	-0.2863937
103	0xbe453176	-0.19257149
104	0xbe806fca	-0.25085288
105	0x3e693c94	0.22777015
106	0xbed4c3b3	-0.41555557
107	0xbe98bfaf	-0.29833743
108	0xbdd4e70e	-0.10395633
109	0xbbc0244c	-0.005863702
110	0xbd881767	-0.06645089
111	0xbea7616f	-0.32691523
112	0xbe76c882	-0.24099925
113	0xbdccfd0d	-0.10009203
114	0xbe88d903	-0.26728067
115	0xbf054a13	-0.52066153
116	0xbe0f1a31	-0.13974835
117	0xbc992aa1	-0.018697085
118	0xbe15c0e9	-0.1462437
119	0xbe685e69	-0.22692265
120	0xbf002c4e	-0.50067604
121	0xbeb3af3b	-0.35094628
122	0xbde1cf58	-0.11025876
123	0x3c5b2d2c	0.013377469
124	0xbd3a0c46	-0.04542186
125	0xbf04591b	-0.51698464
126	0xbe8b44a1	-0.27200797
127	0xbdd4b368	-0.103857815
128	0xbd1c54bd	-0.03816675
129	0xbd5dd355	-0.05415662
130	0xbe0623ee	-0.13099644
131	0xbf28c136	-0.65919816
132	0xbdc3ab15	-0.09554116
133	0xbed284d9	-0.4111698
134	0xbf0fe763	-0.56212443
135	0xbdcd82e5	-0.10034732
136	0xbdf123f6	-0.11774437
137	0xbe867467	-0.26260683
138	0xbf23933f	-0.63896555
139	0xbd98a3fa	-0.07453151
140	0xbda7568b	-0.08170804
141	0xbcdd1f42	-0.026992444
142	0x3edc65ff	0.43046567
143	0x3dd3e05b	0.10345527
144	0xbee05f94	-0.4382292
145	0x3e25ab1f	0.16178559
146	0x3d925337	0.07144778
147	0x3d70211d	0.05862533
148	0xbe0b16f8	-0.1358298
149	0xbe2278c1	-0.15866376
150	0xbdbe8530	-0.09302747
151	0xbe09c03b	-0.13452236
152	0xbe99355a	-0.29923517
153	0xbe025864	-0.12729031
154	0xbd9dc33b	-0.07703253
155	0xbe57f088	-0.21087849
156	0xbe1df88a	-0.15426841
157	0xbe6c66c6	-0.2308608
158	0xbcd6f7d6	-0.026241224
159	0xbdbd6870	-0.092484355
160	0xbe2aed96	-0.16692194
161	0xbde9dd39	-0.11419148
162	0x3e090776	0.13381752
163	0xbe052bbe	-0.13004968
164	0xbc4a66b3	-0.012353587
165	0xbe1149ad	-0.14188261
166	0xbe99f125	-0.3006679
167	0xbdcd3df2	-0.10021581
168	0xbd8bd3fb	-0.068275414
169	0xbe1f3a77	-0.15549646
170	0xbdce82bd	-0.1008353
171	0xbe2915d6	-0.16512236
172	0xbf124b2b	-0.5714595
173	0xbda807ce	-0.082046136
174	0xbeddd3e9	-0.43325737
175	0xbdb8786a	-0.09007342
176	0xbc908567	-0.017641736
177	0xbbe058c9	-0.0068465215
178	0xbeedd465	-0.46451107
179	0x3e39880f	0.18118308
180	0x3e2a3a18	0.16623724
181	0xbdcf7089	-0.10128886
182	0xbe5e97c7	-0.21737586
183	0xbe59e442	-0.2127848
184	0x3e90dc79	0.28293207
185	0xbe3dce63	-0.18535762
186	0xbe078cce	-0.13237306
187	0xbe4b2b1f	-0.19840668
188	0xbea4d5eb	-0.32194456
189	0xbe757e13	-0.23973875
190	0xbe4beaf8	-0.19913852
191	0xbe0d73ff	-0.1381378
192	0xbe19b202	-0.15009311
193	0xbd4b6a45	-0.049661893
194	0xbdb80d45	-0.08986906
195	0xbcfc4209	-0.030793207
196	0xbddbae17	-0.107265644
197	0xbd59726b	-0.053087633
198	0xbeb52ef8	-0.35387397
199	0xbe4766cb	-0.19472806
200	0xbd5e66c6	-0.05429723
201	0xbecc19c6	-0.39863414
202	0xbd611d6d	-0.054959703
203	0xbb903b3e	-0.0044015935
204	0xbda0352b	-0.07822641
205	0xbe91de41	-0.2848988
206	0xbe6ef436	-0.23335347
207	0xbe8425f0	-0.25810194
208	0xbe2529c9	-0.16129221
209	0x3cc0c6b6	0.023532253
210	0xbe5b2a0c	-0.21402758
211	0xbdbbe6fb	-0.091749154
212	0xbdabde5b	-0.0839202
213	0x3e4dd290	0.20099854
214	0xbdfead55	-0.12435404
215	0xbd26407e	-0.04058885
216	0xbde848f7	-0.11342042
217	0xbdfa63e9	-0.122260876
218	0xbde1a257	-0.11017292
219	0xbecfd54b	-0.40592417
220	0xbe59873b	-0.21242993
221	0xbe052c93	-0.13005285
222	0xbd64a41b	-0.055820566
223	0xbe804315	-0.2505118
224	0xbe857444	-0.26065266
225	0xbe463095	-0.1935447
226	0xbe3f3227	-0.18671475
227	0xbef3f2b1	-0.47646096
228	0xbebd58ee	-0.3698191
229	0xbdfc08a5	-0.12306336
230	0x3e4f3776	0.20236
231	0xbe1cd620	-0.15316057
232	0xbe21d8a7	-0.15805303
233	0x3d3e077b	0.046393853
234	0xbe1a64e7	-0.15077554
235	0xbf083e43	-0.53220004
236	0xbe11af63	-0.14227061
237	0xbde5f5a4	-0.11228493
238	0xbe0c5a50	-0.13706326
239	0xbe50e893	-0.2040122
240	0xbe15677e	-0.1459026
241	0xbd3bab40	-0.045817614
242	0xbe05648a	-0.13026634
243	0xbe013f78	-0.12621868
244	0xbe22fdec	-0.15917176
245	0xbd12dcdf	-0.03585517
246	0xbe60e7b3	-0.21963386
247	0xbe4b5147	-0.19855224
248	0x3eca6964	0.39533532
249	0xbe0cd108	-0.13751614
250	0xbf172e58	-0.5905509
251	0xbd8621f7	-0.06549447
252	0xbcc38b32	-0.023870084
253	0xbedbbd28	-0.42917752
254	0xbe479ce3	-0.19493441
255	0xbdd637ba	-0.10459848

encoder_lstm.bias_hh_l0 f4 [512]
0	0xbe53ffe4	-0.20703083
1	0xbe2c0eab	-0.1680247
2	0xbea686a1	-0.3252459
3	0xbe86f4c0	-0.26358604
4	0xbed90c17	-0.42392036
5	0x3dc34e45	0.09536413
6	0x3d9e3b15	0.07726113
7	0xbe8ad36b	-0.27114424
8	0xbe19be4c	-0.15013999
9	0xbe1ac475	-0.15114005
10	0xbecee027	-0.4040539
11	0xbdd009ce	-0.1015812
12	0xbe0c1af8	-0.13682163
13	0xbe40c5f5	-0.18825515
14	0xbeaaa26b	-0.3332704
15	0xbe57f232	-0.21088484
16	0xbc87bca6	-0.016569447
17	0xbec4e0bc	-0.3845271
18	0xbe1e1f94	-0.15441734
19	0xbe6825f9	-0.22670735
20	0xbe820803	-0.25396737
21	0xbedd2924	-0.4319545
22	0xbdef16b1	-0.1167425
23	0xbde762f8	-0.11298174
24	0xbdb12ac1	-0.08650733
25	0xbe595cf8	-0.21226871
26	0xbebee5c1	-0.37284663
27	0xbede5587	-0.43424627
28	0x3e6fce29	0.23418488
29	0xbd3bbec6	-0.045836233
30	0xbe89ed60	-0.26938915
31	0xbe666a15	-0.22501405
32	0xbe754f1d	-0.2395596
33	0xbe27d29c	-0.16388935
34	0xbe75193b	-0.23935406
35	0xbdd0e7d3	-0.10200467
36	0xbeb650dd	-0.3560857
37	0xbd41be11	-0.047300402
38	0xbec6b5fb	-0.38810715
39	0xbe1e341f	-0.1544957
40	0xbe31af71	-0.17352082
41	0xbef41695	-0.4767348
42	0xbe9648a1	-0.29352286
43	0xbe230594	-0.15920097
44	0xbe3cf9e0	-0.18454695
45	0xbe325e15	-0.17418702
46	0xbe69230e	-0.22767279
47	0xbdd324c2	-0.10309745
48	0xbe55ca39	-0.20877923
49	0xbd92ba08	-0.07164389
50	0x3d2ba4a9	0.04190508
51	0xbefed0d2	-0.49768692
52	0xbf102ee7	-0.5632157
53	0xbef5b3c8	-0.47988725
54	0xbe4f22ee	-0.20228168
55	0xbe18f861	-0.14938499
56	0xbd0c327a	-0.034227826
57	0xbe544124	-0.20727974
58	0xbe4bf4f4	-0.19917661
59	0xbe6957e8	-0.2278744
60	0xbaba15c5	-0.0014197162
61	0xbd3357a6	-0.04378476
62	0xbe0b1d28	-0.13585341
63	0xbe70afe2	-0.23504594
64	0xbe6a18aa	-0.22860971
65	0xbe1f4d54	-0.15556842
66	0xbeb6b789	-0.356869
67	0xbe0c45a6	-0.13698444
68	0xbe8063fe	-0.25076288
69	0xbe1616ae	-0.14657089
70	0xbe323380	-0.17402458
71	0xbddc7e84	-0.107663184
72	0xbe96f038	-0.29480147
73	0xbe9e064a	-0.30864173
74	0xbec663ec	-0.3874811
75	0xbda3443a	-0.079719976
76	0xbe3ebddf	-0.18627118
77	0xbe2e1c09	-0.17002882
78	0xbe75593b	-0.2395982
79	0xbd1d95fb	-0.03847311
80	0xbe72e77e	-0.2372112
81	0xbed793ef	-0.42105052
82	0xbe301735	-0.17196353
83	0xbdf527af	-0.1197046
84	0xbe64b391	-0.22334124
85	0xbeb936a1	-0.3617449
86	0xbe962701	-0.29326633
87	0xbd12088c	-0.035652682
88	0xbe21f4b1	-0.15815999
89	0xbe657e15	-0.22411378
90	0xbe6cc48d	-0.23121853
91	0xbdfc7997	-0.12327879
92	0xbe3437b8	-0.1759938
93	0xbd15f090	-0.03660637
94	0xbe176607	-0.14785014
95	0xbe9d1808	-0.30682397
96	0xbe8e67e4	-0.27813637
97	0xbe813bd1	-0.2524095
98	0xbe10d0b6	-0.14142117
99	0xbda1294a	-0.078692034
100	0xbe3ed6ef	-0.18636678
101	0xbe1ca60f	-0.15297721
102	0xbebe3103	-0.37146768
103	0xbe402a51	-0.18766142
104	0xbe5bcf0f	-0.21465705
105	0x3e8b2f25	0.27184406
106	0xbedc5444	-0.4303304
107	0xbecc07d2	-0.39849716
108	0xbe497814	-0.19674712
109	0xbc14ff06	-0.009094005
110	0xbe542135	-0.20715792
111	0xbe8c5bfd	-0.2741393
112	0xbe40e53b	-0.18837444
113	0xbe73ec17	-0.2382053
114	0xbe8d504d	-0.27600327
115	0xbf00f56e	-0.50374496
116	0xbe13e928	-0.14444411
117	0xbcfdc61f	-0.03097826
118	0xbe60056d	-0.2187707
119	0xbe634954	-0.22195941
120	0xbf097287	-0.5369038
121	0xbedacd3c	-0.42734706
122	0xbe63aeaf	-0.22234605
123	0xbd82d32e	-0.063879356
124	0xbda51c48	-0.08062035
125	0xbeccabc3	-0.39974794
126	0xbea15243	-0.31508073
127	0xbe083d3c	-0.13304609
128	0xbe027db2	-0.12743261
129	0xbe3e91ed	-0.18610354
130	0xbdada13b	-0.08478018
131	0xbf32787e	-0.69715106
132	0xbdc5cc7f	-0.09658145
133	0xbeb94c7c	-0.36191165
134	0xbf124e85	-0.5715106
135	0xbe17aa9d	-0.14811178
136	0xbe2860d4	-0.16443187
137	0xbe9eadbf	-0.30991933
138	0xbf212983	-0.62953967
139	0xbe51b638	-0.20479667
140	0xbd28e1a2	-0.041230805
141	0xbe125563	-0.14290385
142	0x3f0212b7	0.50809807
143	0x3df2a630	0.11848104
144	0xbed833d6	-0.42227048
145	0x3daafc2a	0.08348878
146	0x3dc78016	0.09741227
147	0x3b61996b	0.003442372
148	0xbd929fd0	-0.07159388
149	0xbe774707	-0.24148189
150	0xbe07c26e	-0.13257763
151	0xbd6c5a8d	-0.057703543
152	0xbe91a8a0	-0.28448963
153	0xbde9a336	-0.11408083
154	0xbe1dc449	-0.15406908
155	0xbe5ba25c	-0.21448654
156	0xbe334249	-0.17505755
157	0xbe658c1d	-0.2241673
158	0x3d18ea2b	0.037332695
159	0xbd9fc3be	-0.07801007
160	0xbdd20618	-0.102550685
161	0xbd1cb3f0	-0.03825754
162	0x3e23ce7a	0.15996733
163	0xbcf7b8d0	-0.030239493
164	0x3ce92b4e	0.028463032
165	0xbdbb27df	-0.09138464
166	0xbe864cda	-0.26230508
167	0xbda4a193	-0.0803863
168	0xbe1bdc0a	-0.15220657
169	0xbe432437	-0.19056784
170	0xbdbd6959	-0.09248609
171	0xbe295197	-0.1653503
172	0xbee6f1a8	-0.45106244
173	0x3c22abb4	0.0099286325
174	0xbeb15088	-0.34631753
175	0xbe146ec6	-0.14495382
176	0xbd13910f	-0.03602701
177	0xbd95bb9a	-0.07311173
178	0xbedab5df	-0.42716882
179	0x3dae0991	0.084979184
180	0x3da1a20c	0.07892236
181	0xbc351624	-0.011052642
182	0xbe2cf09d	-0.16888662
183	0xbe2247b6	-0.15847668
184	0x3eb54956	0.35407513
185	0xbd317617	-0.04332551
186	0xbe4bb483	-0.19893079
187	0xbe358602	-0.17726901
188	0xbec54355	-0.38527933
189	0xbead4f41	-0.33849528
190	0xbdc60214	-0.09668365
191	0xbe3a66ef	-0.18203329
192	0xbca12a08	-0.019673362
193	0xbd00ebf7	-0.031475034
194	0xbdaef446	-0.08542685
195	0xbe07ffe4	-0.13281208
196	0xbe5c3919	-0.21506156
197	0xbca88c70	-0.020574778
198	0xbebd4873	-0.36969337
199	0xbe81ab2c	-0.25325906
200	0xbd1ab410	-0.037769377
201	0xbedcec63	-0.431491
202	0xbd3da927	-0.046303894
203	0xbd27da26	-0.040979527
204	0xbe4c3386	-0.1994153
205	0xbe9929ef	-0.29914805
206	0xbe3d42c5	-0.18482502
207	0xbe2dd7c7	-0.16976844
208	0xbe0bc503	-0.13649373
209	0xbd8fa3ac	-0.0701364
210	0xbe82dc97	-0.25558922
211	0xba0ac75c	-0.0005293989
212	0xbe4ce315	-0.200085
213	0x3e510a73	0.20414142
214	0xbe178dbc	-0.14800161
215	0xbde9dd98	-0.11419219
216	0xbd8987ec	-0.06715378
217	0xbdef4c68	-0.11684495
218	0xbde2b057	-0.110687904
219	0xbedd4d8d	-0.4322323
220	0xbe59dde5	-0.21276052
221	0xbd2f5892	-0.042809077
222	0xbc8a4d08	-0.016882434
223	0xbe762a3b	-0.24039547
224	0xbeb6c50b	-0.35697207
225	0xbe2dbdae	-0.16966888
226	0xbe51327f	-0.20429419
227	0xbef81ae0	-0.48458004
228	0xbeb0cae8	-0.34529805
229	0xbd12b7ec	-0.035819933
230	0x3e1dac36	0.15397725
231	0xbdb45a76	-0.088063166
232	0xbd8f24de	-0.06989454
233	0xbdb3d460	-0.08780742
234	0xbb832166	-0.004001784
235	0xbf18244a	-0.5943037
236	0xbde34d31	-0.110987075
237	0xbdd57aec	-0.10423836
238	0xbe3e488f	-0.18582366
239	0xbe6a6153	-0.22888689
240	0xbdc9b5b6	-0.09849112
241	0xbd996007	-0.07489019
242	0xbe4016ad	-0.1875865
243	0xbe14869c	-0.14504474
244	0xbdbe6c5b	-0.09298011
245	0x3d1c076b	0.03809301
246	0xbe3c3ff4	-0.18383771
247	0xbe603023	-0.21893363
248	0x3f0e2050	0.55518055
249	0xbe2d98e1	-0.1695285
250	0xbf252f9c	-0.6452577
251	0xbd7b6a8d	-0.06138091
252	0xbdff8820	-0.12477136
253	0xbe9ca234	-0.305925
254	0xbddff577	-0.109354906
255	0xbd59ec8f	-0.053204115

encoder_attn.weight f4 [1, 276]
0	0xbd4ef231	-0.05052394
1	0xbd7375fa	-0.059438683
2	0xbd502882	-0.05081988
3	0xbce30690	-0.02771309
4	0x3d4d4eef	0.050124105
5	0x3d057a6b	0.03258745
6	0x3cb0943e	0.021555062
7	0xbbe5aeb4	-0.0070093516
8	0x3c506563	0.012719485
9	0x3d4c9e4b	0.049955647
10	0xbcf3c75e	-0.029758152
11	0x3bfb4210	0.0076677874
12	0xbd3f13d5	-0.046649773
13	0xbd60aac0	-0.05485034
14	0x3b488868	0.0030598883
15	0x3d1f3921	0.03887284
16	0xbc897511	-0.016779454
17	0x3c3676d2	0.011136727
18	0x3d20e536	0.039281093
19	0x3cb1cfaa	0.021705467
20	0xbcc9c983	-0.024632221
21	0xbd660872	-0.056160398
22	0xbd23d70f	-0.040000018
23	0x3d4f0537	0.050542083
24	0xbc03242c	-0.0080042295
25	0x3c031ab9	0.008001977
26	0x3d6eadfe	0.0582714
27	0x3c5bb0bf	0.013408839
28	0x3d6956ad	0.056967426
29	0x3d18cc98	0.03730449
30	0xbd266008	-0.040618926
31	0x3d0d713b	0.034531813
32	0xbd069808	-0.032859832
33	0x3d458017	0.04821786
34	0xbd161476	-0.036640607
35	0x3c2a0dfd	0.010379312
36	0x3c32a3fd	0.010903356
37	0x3d3899fc	0.045068726
38	0x3d12fa61	0.03588331
39	0x3d75ab74	0.059977964
40	0xbd264b83	-0.040599357
41	0x3c764d3e	0.015033064
42	0x3d0cea83	0.034403335
43	0xbd5bbc9c	-0.05364667
44	0x3d3df046	0.04637172
45	0xbd311a00	-0.043237686
46	0xbd23c1df	-0.03997981
47	0x3c12719d	0.00893822
48	0xbd3c4758	-0.045966476
49	0x3d676feb	0.056503218
50	0xbbe879f6	-0.007094617
51	0x3cb58f09	0.022162931
52	0x3c0bea68	0.0085397735
53	0xbd16d080	-0.036819935
54	0x3c40db5e	0.011771051
55	0xbd2afb38	-0.041743487
56	0x3d7733d4	0.06035216
57	0x3d6d3989	0.057916198
58	0xbca74f83	-0.020423656
59	0x3d5c2a95	0.053751547
60	0x3d36dd50	0.044644654
61	0x3b7e2a09	0.003878238
62	0x3c8bdc38	0.017072782
63	0x3d09c165	0.0336317
64	0x3b961a8a	0.0045808004
65	0xbd67048e	-0.056400828
66	0x3d4d3714	0.050101355
67	0xbd65ec2b	-0.05613343
68	0xbd738e38	-0.059461802
69	0x3c8b4e96	0.017005246
70	0x3d33166a	0.043722548
71	0xbd012901	-0.031533245
72	0xbced769e	-0.028987225
73	0xbd05535a	-0.032550193
74	0x3c5782b9	0.013153725
75	0x3d0ab121	0.03386033
76	0xbcfc1a68	-0.03077431
77	0xbc342cb5	-0.010996987
78	0x3cde897e	0.02716517
79	0x3d58f43e	0.052967303
80	0x3d3db6ce	0.046316914
81	0xbd1ab02a	-0.03776566
82	0xbd3d90ea	-0.04628078
83	0x3d55c30a	0.052187957
84	0x3d6e5e58	0.058195442
85	0x3d36225d	0.044466365
86	0xbc0d8169	-0.008636811
87	0xbd217a45	-0.039423246
88	0xbc7da0fd	-0.015480277
89	0xbd67033a	-0.05639956
90	0x3cfb5aba	0.03068291
91	0xbc27f381	-0.010250927
92	0x39cd1f89	0.00039124142
93	0x3d2a1705	0.04152586
94	0x3d71996e	0.058984213
95	0xbd63a8f5	-0.05558105
96	0xbc8636b6	-0.01638351
97	0x3c64c004	0.013961796
98	0xbb2fe597	-0.0026839727
99	0x3d6dfff1	0.058105413
100	0x3d6e746b	0.058216494
101	0xbc838f69	-0.016059594
102	0x3c0a57d6	0.008443793
103	0xbd35016f	-0.04419082
104	0x3b8c087a	0.0042734714
105	0x3cd369c6	0.025807273
106	0xbc87cd42	-0.016577367
107	0x3ce7eb86	0.028310549
108	0xbd547a34	-0.051874354
109	0xbc700a5d	-0.014650908
110	0xbd65da16	-0.056116186
111	0x3d61269f	0.054968473
112	0x3d384cba	0.044995047
113	0x3d29493c	0.041329607
114	0xbd4b4ffd	-0.04963683
115	0xbc8fdfda	-0.017562795
116	0xbcbf98f2	-0.02338836
117	0x3d5c5c06	0.053798698
118	0xbd0dc9af	-0.03461617
119	0x3b983397	0.004644822
120	0x3c16afd8	0.009197198
121	0x3d3acaef	0.04560369
122	0xbc016e31	-0.007899807
123	0x3c79ea7c	0.015253659
124	0xbd6fc451	-0.05853683
125	0xbb617640	-0.0034402758
126	0xbcf8015d	-0.030274088
127	0x3c42a756	0.011880716
128	0x3cc2730e	0.023736503
129	0xbd678c81	-0.05653048
130	0x3caa5383	0.020791775
131	0x3c4e0796	0.012575051
132	0x3d4c0eef	0.04981893
133	0x3cd4370e	0.025905158
134	0x3c395e6b	0.011314015
135	0x3d671f82	0.056426533
136	0x3cdb2a95	0.026753703
137	0xbcfa6ff0	-0.030570954
138	0xbca47041	-0.020073058
139	0xbd52c0cd	-0.0514534
140	0x3c75c64c	0.015000891
141	0x3d2f0f48	0.042739183
142	0x3d4bdf83	0.049773704
143	0x3c308ef0	0.010776266
144	0xbb2db425	-0.002650508
145	0x3d5a5887	0.053307083
146	0xbd0197e7	-0.031639006
147	0x3c87caca	0.01657619
148	0xbd66bbb2	-0.056331344
149	0x3d1e9006	0.03871157
150	0x3ca8bb89	0.020597236
151	0xbcdbb892	-0.026821408
152	0xbd1e6706	-0.03867247
153	0xbd1a1166	-0.03761425
154	0x3c5968b7	0.013269595
155	0xbc7982dd	-0.015228954
156	0xb94f50b3	-0.00019771121
157	0xbbb25693	-0.0054424494
158	0x3d33245d	0.04373585
159	0x3c8812c5	0.016610513
160	0x3cb50671	0.022097798
161	0x3d60fe78	0.05493018
162	0x3af24187	0.0018482663
163	0x3d176408	0.03696063
164	0x3c2daeb2	0.010600733
165	0x3d1ddda4	0.03854145
166	0xbd544f94	-0.051833704
167	0xbd54fe5a	-0.05200038
168	0x3ca072a7	0.01958592
169	0xbc9898f9	-0.01862763
170	0xbc7c88b7	-0.015413455
171	0xbd5e8489	-0.054325614
172	0xb94863c6	-0.00019110655
173	0x3c8e0738	0.017337427
174	0xba61a000	-0.00086069107
175	0xbc1a4c28	-0.009417571
176	0xbcb86fd8	-0.022514269
177	0xbbc53121	-0.0060178195
178	0x3d6f90c3	0.058487665
179	0x3cb0586f	0.021526543
180	0xb88c6c0c	-6.6958455e-05
181	0x3cae8b68	0.021306708
182	0xbd67fdac	-0.056638405
183	0xbd5c3017	-0.0537568
184	0x3d161dbe	0.036649458
185	0xbd2e3dff	-0.042539593
186	0xbc34778e	-0.011014832
187	0x3c795747	0.015218562
188	0x3d220be3	0.039562117
189	0x3b323422	0.0027191718
190	0x3d484fd0	0.04890424
191	0xbd06eb6f	-0.03293937
192	0xbc62abb0	-0.013834879
193	0x3d2891f7	0.041154828
194	0xbca4b5e5	-0.020106265
195	0x3bae0332	0.0053104395
196	0xbc00434b	-0.007828544
197	0xbd1f0351	-0.038821522
198	0xbd768437	-0.060184684
199	0x3d105141	0.03523374
200	0xbbcff1a5	-0.006345945
201	0x3d1d7651	0.038442913
202	0x3c709f77	0.014686457
203	0x3cfacda3	0.030615633
204	0x3d59f925	0.05321612
205	0xbcc0377c	-0.023463957
206	0x3c0ebf3c	0.008712586
207	0x3d543fc6	0.05181863
208	0xbcb7991b	-0.022411874
209	0xbc4a4f16	-0.012347957
210	0xbd348126	-0.044068478
211	0x3d16af5e	0.036788337
212	0xbd682c0e	-0.05668264
213	0x3cd2ecde	0.025747713
214	0x3cb6a5d8	0.022295877
215	0x3cd99969	0.02656241
216	0x3d0db6d5	0.03459819
217	0x3d724ae0	0.059153438
218	0x3d4eacac	0.05045764
219	0x3cb308ea	0.021854836
220	0x3b6465dd	0.0034850754
221	0xbceb2eaf	-0.028708784
222	0x3d2bbe91	0.041929785
223	0x3c0adee5	0.008475994
224	0x3b8aec7c	0.004239617
225	0x3c68fa95	0.0142199
226	0x3cff7035	0.031181434
227	0x3b222517	0.0024741346
228	0xbd507383	-0.05089141
229	0xbc0d23fa	-0.0086145345
230	0x3cff62ee	0.031175103
231	0x3ae68780	0.001758799
232	0xbd0d2a62	-0.034464248
233	0xbb75f26d	-0.003752853
234	0x3d3fd7d3	0.046836685
235	0x3bc9efcb	0.0061626188
236	0xbd127e32	-0.03576488
237	0x3d5b5244	0.05354525
238	0x3c0716d1	0.008245186
239	0xbb8df12e	-0.0043317294
240	0x3c9bcb60	0.019017875
241	0x3d48b313	0.048998903
242	0x3bf45adc	0.0074571203
243	0xbc6f4cd2	-0.014605718
244	0xbc6607ad	-0.014039916
245	0x3d3a3f5a	0.045470573
246	0xbc0a1147	-0.008426971
247	0x3d026d28	0.03184238
248	0xbd24cb07	-0.040232684
249	0xbd3c9460	-0.04603994
250	0x3c58abcb	0.013224552
251	0x3d3bb050	0.04582244
252	0x3cd61bfa	0.026136387
253	0x3cd90b06	0.026494514
254	0x3bbbf4a4	0.0057359505
255	0x3d3ec0cd	0.046570588

exp_avg f4 [7, 7]
0	0x00000004	6e-45
1	0x00000000	0.0
2	0x00000000	0.0
3	0x00000000	0.0
4	0x00000000	0.0
5	0x00000000	0.0
6	0x00000000	0.0
7	0x00000000	0.0
8	0x00000000	0.0
9	0x00000000	0.0
10	0x00000000	0.0
11	0x00000000	0.0
12	0x00000000	0.0
13	0x00000000	0.0
14	0x00000000	0.0
15	0x00000000	0.0
16	0x00000000	0.0
17	0x00000000	0.0
18	0x00000000	0.0
19	0x00000000	0.0
20	0x00000000	0.0
21	0x00000000	0.0
22	0x00000000	0.0
23	0x00000000	0.0
24	0x00000004	6e-45
25	0x00000000	0.0
26	0x00000000	0.0
27	0x00000000	0.0
28	0x00000000	0.0
29	0x00000000	0.0
30	0x00000000	0.0
31	0x00000000	0.0
32	0x3025758c	6.0193694e-10
33	0x00000000	0.0
34	0x00000000	0.0
35	0x00000000	0.0
36	0x00000000	0.0
37	0x00000000	0.0
38	0x00000000	0.0
39	0x00000000	0.0
40	0xb13cf37e	-2.749601e-09
41	0x00000000	0.0
42	0x00000000	0.0
43	0x00000000	0.0
44	0x00000000	0.0
45	0x00000000	0.0
46	0x00000000	0.0
47	0x00000000	0.0
48	0x00000004	6e-45

exp_avg_sq f4 [7, 7]
0	0x242f2dfd	3.798603e-17
1	0x00000000	0.0
2	0x00000000	0.0
3	0x00000000	0.0
4	0x00000000	0.0
5	0x00000000	0.0
6	0x00000000	0.0
7	0x00000000	0.0
8	0x00000000	0.0
9	0x00000000	0.0
10	0x00000000	0.0
11	0x00000000	0.0
12	0x00000000	0.0
13	0x00000000	0.0
14	0x00000000	0.0
15	0x00000000	0.0
16	0x00000000	0.0
17	0x00000000	0.0
18	0x00000000	0.0
19	0x00000000	0.0
20	0x00000000	0.0
21	0x00000000	0.0
22	0x00000000	0.0
23	0x00000000	0.0
24	0x253d6f4e	1.6430848e-16
25	0x00000000	0.0
26	0x00000000	0.0
27	0x00000000	0.0
28	0x00000000	0.0
29	0x00000000	0.0
30	0x00000000	0.0
31	0x00000000	0.0
32	0x272b80e3	2.3800887e-15
33	0x00000000	0.0
34	0x00000000	0.0
35	0x00000000	0.0
36	0x00000000	0.0
37	0x00000000	0.0
38	0x00000000	0.0
39	0x00000000	0.0
40	0x29a340b4	7.249878e-14
41	0x00000000	0.0
42	0x00000000	0.0
43	0x00000000	0.0
44	0x00000000	0.0
45	0x00000000	0.0
46	0x00000000	0.0
47	0x00000000	0.0
48	0x2c0a302d	1.9637722e-12

exp_avg f4 [7]
0	0x00000004	6e-45
1	0x00000000	0.0
2	0x00000004	6e-45
3	0x00000004	6e-45
4	0x30f2bdb2	1.7661732e-09
5	0x3173a416	3.5454426e-09
6	0x00000004	6e-45

exp_avg_sq f4 [7]
0	0x2485f680	5.809714e-17
1	0x00000000	0.0
2	0x24615569	4.8861443e-17
3	0x25331761	1.5533696e-16
4	0x277cd179	3.508558e-15
5	0x2a4c61e8	1.8152808e-13
6	0x2b7e41b9	9.0330136e-13
