weights_new/EncoderEpochnew1050_17_8.pt (torch_old, 237354 bytes, 27 tensors)

gamma_x_l.weight f4 [7, 7]
00000000: 8b6d 7d3f 7015 36be 1248 463e e6e8 2d3e
00000010: 2091 88bd 5cb0 c83d 7016 ab3c 4ca9 95bd
00000020: 8d71 81be ee95 8abe 647d fd3d ee8d 393e
00000030: 29f1 b33e 54a5 b7be 943b 87be 40c0 08bd
00000040: 3ab4 113e 40af cbbd f7e2 b3be 2ac4 583e
00000050: c4c3 8fbd a484 53be 364f 793e a5bd b23e
00000060: 9dd5 053f ad03 66be e0e8 3cbc 5121 c03e
00000070: e6ba 593e ca99 473e 00e4 b9bc 94a0 c6bd
00000080: 9365 a83d 8de5 98be 5664 723e b0de 70bd
00000090: 0ebe 763e 20c3 f83c 243e bebe c8c7 94be
000000a0: 47aa 9abe 2f5c a63e f8fc c63d 913c 07be
000000b0: 2b04 9dbe 000d 813c 684c 0cbd 06ce 533e
000000c0: 6bdb b03c
0.98995274 -0.17781615 0.1936343 0.16983375 -0.066683054 0.09799263 0.020884722 -0.073076814
-0.25281945 -0.27067512 0.12377432 0.18120548 0.35144928 -0.35868323 -0.26412642 -0.03338647
0.14228907 -0.09945536 -0.35134098 0.2116858 -0.07019761 -0.20656067 0.24346623 0.34910312
0.52279073 -0.2246234 -0.011530131 0.37525418 0.21262702 0.1949226 -0.022691727 -0.096985966
0.08222499 -0.29862633 0.23671088 -0.05880612 0.24095938 0.03036648 -0.37156785 -0.2905867
-0.30208036 0.32492206 0.09716219 -0.13206698 -0.30667242 0.01575327 -0.034252554 0.2068406
0.021589002

gamma_x_l.bias f4 [7]
00000000: afdf 1e3e 5656 92be cc37 4b3f c3c3 9f3e
00000010: ec82 7ebe ed56 0b3f eee0 cbbd
0.15515016 -0.28581494 0.79382014 0.31204042 -0.2485463 0.54429513 -0.09955011

gamma_h_l.weight f4 [64, 7]
00000000: ad80 9bbe f0a8 b63e 00a9 df3e 9507 2fbe
00000010: f786 83be 7b5c 093e 5926 a9be d022 41bd
00000020: 084e 2b3d 9057 e0bd cd30 813e ec07 963d
00000030: 00c4 993d 80fa a4be 7452 45be 644f 93be
00000040: dc6d a23e c04a 2bbe 9711 81be 5691 e03e
00000050: a471 cf3e a818 9d3e 29b6 f13a e27f b2be
00000060: 2e42 b8be 13d3 37be 1d79 efbe e9a3 97bc
00000070: 021d 443d 20e3 83bd b3ee 97bd e870 833e
00000080: 9a19 aebe ef2b a2be 1e11 b9bc 53e0 6e3e
00000090: f219 bebe a648 8bbe 212f b9be 0e89 7dbd
000000a0: 1e52 753e 3e9a dbbe 1b54 9dbe bc3d a53e
000000b0: cd32 aebe 869c a13e 0ddc 87be 2f8f c03e
000000c0: 8cb0 a9bd 54f7 d0be 5d72 a2bc 4355 06bd
000000d0: 2a7a 223e 69a6 643d 1814 d5be cb80 693e
000000e0: 0e9c 82be 3c00 a7be 7927 bd3b d9dc 06bc
000000f0: 190b 8ebd a475 773e 84d0 f83e 3612 d13e
00000100: 9c97 28be c904 0e3f 3eb2 473e 036e c23c
00000110: d824 5bbe 8cf8 833e 4256 58bd 3dd3 0abe
00000120: dc36 4fbe 4496 eb3c 5e3e 6f3e 1771 44be
00000130: 5f87 0cbe 57be c63e 0e7d 99bd c136 a7be
00000140: 2f5d 7f3e 49fd 663e 37e4 a03d 0706 2dbe
00000150: 7191 303e c5bb d9be a4e0 1bbe 9c4a 503d
00000160: 11e9 8e3e 835f 94bd 721c 9c3e 358e 8a3e
00000170: 8997 333e 6f2c 2f3e eced 263e 2633 53be
00000180: 054c ab3e 61ba d5be c0fe 7fbd 0463 953d
00000190: 8c85 c7bd 3950 31be 5424 0fbe 000a 6a3b
000001a0: 502d 78bd 53f9 823e 8a7e d23d 78b9 6bbe
000001b0: dd9e 55be 6c5a 11be 1009 783e d81f ac3e
000001c0: 1ef7 cfbd c569 0dbd f2dd 5fbe 705b 3ebe
000001d0: cb81 4dbe 474c 6c3e 05ed abbe 1b0b 97be
000001e0: dbfa 293e f9e7 a83e c80f 033e 0574 723e
000001f0: 6245 423d ad7d 0b3e 1e93 6a3e 1946 49be
00000200: f1dd 62bd 6b1f 6ebd 0a94 c0be fff2 84bd
00000210: 5293 b43e dddf 203e 0f4d 07bd 8bb2 e03e
00000220: 2945 223e 68d6 ebbe c308 a73d baba 283e
00000230: f4ef 8cbe 7f31 8b3e bd25 b53e e49b 9f3e
00000240: 2d12 9ebe bb42 28be ea3b c63e cdbe 893e
00000250: f184 ab3e b97c 5cbe 1410 aa3e 27f6 bbbe
00000260: 4879 573e 5172 adbe cd6d d43d ac4a 093f
00000270: 1bd2 95be a971 d13e 842c 813e 4815 58be
00000280: 9094 a5be 0616 003e 59dd 4fbe 5533 5f3e
00000290: 4b32 cebd 8a32 bf3d aa87 bfbe e7f6 25be
000002a0: 9c16 0c3f e0a5 873e 6fe1 fc3d 988a d0bd
000002b0: 9fad 713d e3c2 ca3e d554 d33e 09ae edbd
000002c0: 056b c0bd 8b0e 253e 07fc ecbd a180 6d3d
000002d0: a75c 123e 808a c93e 8e5f d33e 8d50 a13e
000002e0: d12e babe 21b8 69be 2995 dbbc 092d 713e
000002f0: 32fa 083e c5a3 3f3e 345b 7ebe 10d1 b23e
00000300: 7b67 8cbe c9a9 393e 0ffc 98bd 151b 893e
00000310: 4cd9 a1be c5df 6abe fc57 b4bd d06d 90bc
00000320: 0e08 4bbe 311d bbbe d893 c1bd c072 8abb
00000330: 7c3c cc3d 55a2 09be b565 a4be 08fa 44bd
00000340: 82e7 7cbe 50e6 573d 1d03 0e3d 54a9 d7be
00000350: dd6f b33e 3967 49be 1aa6 a4be c3e3 b63e
00000360: ac13 763e 9fd5 28be d468 ff3d 8dbe 86be
00000370: 7d96 153f 5fb3 633e daf1 a33e 9bf5 61be
00000380: 982d d53e 23c7 66be 27c3 f33d 1f06 ae3e
00000390: f3db 963d 694f be3e 0922 89be 1239 f33e
000003a0: 4c6a 40be 130a 7a3e 2e29 57be 1a2a 483e
000003b0: e103 f4bd 2f3f b6be 0fb5 3d3c 2d5c 803d
000003c0: db9f ce3e d8fb ecbd e396 553d 1baa 85be
000003d0: b3d1 24bd 301b 8c3d 1125 763e b24f e93e
000003e0: ab07 883e e4a7 6bbe 0d0c edbd e90c 2ebd
000003f0: cf7a da3d a8c7 b13e 4c61 293e 3d7f 993e
-0.3037161 0.35675764 0.43683624 -0.17092736 -0.25688908 0.13414185 -0.3303707 -0.04715234
0.041822463 -0.10954201 0.25232545 0.0732573 0.07508087 -0.32222366 -0.19269735 -0.28771508
0.3172444 -0.16727734 -0.25208732 0.43860883 0.40516388 0.30682874 0.0018441129 -0.34863192
-0.3598799 -0.17951612 -0.4677209 -0.018510776 0.047879227 -0.06439805 -0.07418575 0.25672078
-0.34003907 -0.31674144 -0.02259117 0.2332776 -0.3712917 -0.27203864 -0.3616877 -0.061898284
0.23957106 -0.42891115 -0.3072823 0.32273662 -0.34023133 0.3156473 -0.26535073 0.3760924
-0.08285627 -0.40813696 -0.019829923 -0.032796156 0.15866914 0.055822764 -0.41616893 0.22803037
-0.25509685 -0.32617366 0.005772528 -0.008231365 -0.069357105 0.2416597 0.48596585 0.40834206
-0.16464084 0.5547605 0.19501588 0.023734098 -0.21400774 0.25775564 -0.052816637 -0.13557144
-0.20235771 0.028758176 0.23363635 -0.19183765 -0.13723515 0.38817093 -0.074945554 -0.3265896
0.2493789 0.22557558 0.078560285 -0.1689683 0.17242981 -0.4252607 -0.15222412 0.050852403
0.2791219 -0.0724478 0.30490452 0.2706162 0.17538275 0.17106794 0.16301697 -0.2062498
0.33456436 -0.41743758 -0.062498808 0.07294276 -0.09742269 -0.17315759 -0.13978702 0.0035711527
-0.06059009 0.25580844 0.10278042 -0.2301997 -0.20861383 -0.1419465 0.24222207 0.33618045
-0.10154556 -0.034524698 -0.21862009 -0.18589568 -0.20069043 0.23075972 -0.3357927 -0.2950066
0.165996 0.3298948 0.12798989 0.2367707 0.04742945 0.1362216 0.22907683 -0.19655646
-0.05538744 -0.05813543 -0.37612945 -0.0649166 0.35268646 0.15710397 -0.033032473 0.43886217
0.15846695 -0.46062016 0.08155968 0.1647748 -0.2752682 0.271862 0.35380355 0.31173623
-0.30873242 -0.16431706 0.38717586 0.26903382 0.33499864 -0.21531953 0.33215392 -0.36711237
0.21042359 -0.3387628 0.10372505 0.53629565 -0.2926186 0.40907028 0.25229275 -0.21101868
-0.32339907 0.12508401 -0.20299281 0.21796925 -0.10068186 0.093358114 -0.3740819 -0.16207467
0.54722 0.2649374 0.123476855 -0.10182685 0.05900347 0.39601812 0.4127566 -0.1160546
-0.09395412 0.16118829 -0.11571508 0.057984 0.14293157 0.3936348 0.4128384 0.31506768
-0.36363843 -0.22824146 -0.026804524 0.23552336 0.13376692 0.18714817 -0.24839479 0.34925127
-0.274227 0.18131174 -0.07469951 0.26778474 -0.31611097 -0.22936924 -0.08805844 -0.017630488
-0.19827291 -0.3654571 -0.09452027 -0.004225105 0.09972474 -0.13440831 -0.32108846 -0.04809001
-0.24697688 0.052709877 0.034670938 -0.42121375 0.35046282 -0.19668283 -0.32157975 0.35720643
0.24030942 -0.1648774 0.12471166 -0.26317254 0.5843275 0.22236393 0.32020456 -0.22066347
0.41636348 -0.22536902 0.11902457 0.33989045 0.07366171 0.3716996 -0.2678378 0.4750448
-0.18790549 0.24417906 -0.21011803 0.1954731 -0.11914802 -0.3559508 0.011578812 0.06267581
0.40356335 -0.11571473 0.05214585 -0.26106343 -0.040239047 0.06841123 0.24037577 0.45568615
0.2656835 -0.23013264 -0.11574564 -0.04249278 0.10667955 0.34722638 0.16541022 0.29979888

gamma_h_l.bias f4 [64]
00000000: 6ab2 253d ca7a b8be 158e a23e 9f22 f9be
00000010: 9861 b8be b628 c0be 43e6 81bc 1aab d3bc
00000020: 49bf f2bd 832d 9bbe 6199 2b3e 7c9d 0d3e
00000030: a545 a8be a174 98bd e999 26be 2f2f 9d3e
00000040: d670 783e f032 d9be bcb0 bf3d a5a7 c3be
00000050: c86d d73e f790 793e 4ae1 56be b832 85be
00000060: 788d 93be d88b 83be 43d4 edbd 9f8e 0abe
00000070: 1d85 9b3e 2fb3 bf3e b9ff ae3d 2bad 3e3e
00000080: 1bda 51be e736 93be de65 64bd 1ba9 afbe
00000090: afbe 503e a596 343e 6876 cf3e 5a9c ccbd
000000a0: 9e0e 083e 0255 9839 545f 26be c4a5 a83d
000000b0: 8f7b a23e 8b4a 84be 637a a93e afc0 08bd
000000c0: 5569 4cbe 7509 2b3e 78c4 89be 1c2e 753c
000000d0: ef1e 1b3d 6645 b93e 4ffc ad3d 69b7 663e
000000e0: 4764 b9bd 558c 9bbe 88e5 18be b69e 9d3e
000000f0: 912c 82be f551 29be 394e a73e 24d1 133e
0.040453352 -0.3603118 0.31749025 -0.48659226 -0.36011958 -0.3753106 -0.015856868 -0.025838424
-0.11852891 -0.3030816 0.16757728 0.13829607 -0.32865635 -0.0744412 -0.1626965 0.3070006
0.24261793 -0.42421675 0.09359881 -0.3821384 0.42075944 0.24371706 -0.20984378 -0.26015258
-0.2881887 -0.2569263 -0.11612751 -0.13530968 0.30374995 0.37441394 0.08544869 0.18620746
-0.20493357 -0.28752825 -0.05576121 -0.34308705 0.2038524 0.17635591 0.40520024 -0.09990759
0.13286826 0.00029055035 -0.16247302 0.08234742 0.31734893 -0.25838122 0.33101186 -0.033386882
-0.19962056 0.16702826 -0.26907706 0.014964607 0.037871297 0.3618576 0.0849539 0.22530903
-0.090523295 -0.30380502 -0.14931309 0.3078515 -0.25424626 -0.1653517 0.32676867 0.1443525

encoder_lstm.weight_ih_l0 f4 [256, 7]
00000000: 574c b63e ea8b c83d 9e19 aabe d556 88bc
00000010: bc7f fa3d e38c c4bc 4593 573e c58f fe3e
00000020: e818 22be 4d1f db3c 223f 1ebd bba6 a83e
00000030: e634 ed3e 6645 0c3e 6647 3abe eff1 d4bc
00000040: 778b 5bbe d3e8 993e 7bc2 37bd 2428 bcbe
00000050: 5e26 603e 21d7 c83d 7c2c 5e3e f24f e3bd
00000060: 0163 c83e 73e1 14be f5e3 b6be 4523 393e
00000070: fb6d 48be ff14 86bd 50aa 0bbe ee9c 5abe
00000080: 49b8 d7be 0869 75be c349 20bd c639 323e
00000090: fabf fb3d 707f 9b3e 44f1 0b3f c3ab 993e
000000a0: 4f8f 99be fb31 cd3d 51ef 9b3e b1c5 803e
000000b0: a0f2 f43c 178a bb3e afb8 f73d 641e f2bd
000000c0: 83e2 e63e 40ec 4a3e a222 a53e 8354 a53e
000000d0: 6ecb 51bd bf46 253e 6797 1f3e 31ed 8bbe
000000e0: d096 053f bb64 1c3f 6ede 433f 69c3 843f
000000f0: e75e 533f 9666 cc3e 776f 073f 67ce a23e
00000100: ce3e 403b 10ce 74bd ebad ef3c 8066 8e3e
00000110: 4067 903e ed99 353d 70e6 20be cc51 293e
00000120: 0f79 b33e 205f d73e ddc3 eb3e bfe3 c6bc
00000130: a610 22bd a7d3 913e df0e 1f3e c21a c33c
00000140: 5e7b 1abf 905c 8c3e 130e 803d b43a 843e
00000150: 3ed1 f93e 1d76 f33e 0d4e 75bc 22ce 0e3f
00000160: 0d2e 9b3e d4cf bc3e 2dc2 8b3e c79b b13e
00000170: 6288 ee3d 4e5c cdbe dbcb 463f 0a62 633e
00000180: 53cc 963e 0c5b 833e cc05 973e b00d 953e
00000190: b7ae 7e3e 09d7 393f eb38 d03e f027 143e
000001a0: d873 8f3e 698a d93c 2707 293e e6b8 debc
000001b0: 14a4 12bd 2cf3 4abe d33e c93d c6bc 963e
000001c0: d794 e53e e8e6 003d 0270 723d a7ae 20be
000001d0: 02d8 8b3e c85d 8d3e 179b c93d df6f 1d3e
000001e0: 6e79 673e f76e 3ebe d82f 06bf 1c02 91bd
000001f0: d7bb e7be 2543 0c3f eba7 ef3e a495 d03e
00000200: 3724 ea3e f217 07bf 86f7 a33e ea80 9e3c
00000210: a462 973f 0137 5c3e d732 94bc e38b 4f3e
00000220: e556 81bd 49da 973e fa32 463d de40 153e
00000230: 58fb 85be 59a8 963b 2b5f 643e db97 d53e
00000240: c9c3 16be 4a6a 89be 4fcd 173e 609b ef3e
00000250: 623e aebd e115 b3bd 5f3f 8ebe a1ec 293e
00000260: 84e5 163d c572 b23e e732 3fbe 439c 9abd
00000270: 274a f3bd 1c09 903e de43 cabe e4f2 c4be
00000280: 18c2 ff3d d07f f33e 7732 793f 34fb 443f
00000290: 380f 823e 0245 423f f8ec 153f 9470 fb3e
000002a0: a51f 153f ae66 513d d74b f53d 7544 90ba
000002b0: 1f0b 873e 50d0 883e 72bf 19bd 9abd d93e
000002c0: 9403 b83d dd3e 2f3e 1ed2 563f 9be9 8f3e
000002d0: abec 853d 3432 303e 905f fbbe 1c03 013d
000002e0: d5f6 11be 795f d2bd 02bb 69be 0f40 99be
000002f0: 8a81 edbd a2f8 263e f8ce df3d 0651 df3e
00000300: c457 4dbf e894 9a3e e359 90bc 2b40 0a3e
00000310: 01dd c03d d40b cc3a f69f bc3c ab2c 003e
00000320: 5b3d b83e 35ca 3c3e a29c 813d cd8b 1d3d
00000330: e71b 243e f913 183e c526 a0be c885 7a3e
00000340: 4261 423b 1986 083e c82e ab3e 5b9f 933d
00000350: 580e 003e 16b6 3abc c964 d33e 341d 25bc
00000360: 91b2 153d b7ed c83e 25ef 37bd 3d43 92bd
00000370: 094b 4ebf a1dc de3d 6dc8 543e 0292 7c3d
00000380: 8e9e 833d 3630 8d3e bd60 893d 7cb8 81bd
00000390: cb80 acbc c72b 6ebe 817b 383f a61f db3e
000003a0: 07a4 4a3c c4c6 953f 5156 35bf 9f37 643f
000003b0: 833f 76bd fa3d 573f 7fa6 9d3e 8de4 35bd
000003c0: 8a3f 41be fe39 5ebd 9a94 5e3e 4461 b4be
000003d0: 2295 b03e dca4 453e b5cb f63d 17d0 083f
000003e0: 8d1d 83bf fa98 833e 942e 60bd c6ec 80be
000003f0: 3f3e d23e 7f07 75bd e086 f93c 7b89 08bf
0.35605118 0.097923115 -0.3322267 -0.016642967 0.12231395 -0.023992961 0.21052273 0.49719062
-0.15829813 0.026748324 -0.038634427 0.32939705 0.4632942 0.13698348 -0.18191299 -0.02599427
-0.2143992 0.30060443 -0.044863205 -0.36749375 0.21889636 0.098066576 0.21696657 -0.11099233
0.39138034 -0.14539127 -0.35720792 0.1807986 -0.19573204 -0.065469734 -0.13639188 -0.21348926
-0.42132786 -0.23965847 -0.039132845 0.17404851 0.12292476 0.30370665 0.5466502 0.30013856
-0.29992148 0.10019299 0.3045602 0.25150827 0.029900849 0.36628792 0.120957725 -0.11822203
0.4509469 0.19816685 0.32252985 0.3229104 -0.051219396 0.16140269 0.15585099 -0.273294
0.52183247 0.610912 0.76511276 1.0372134 0.82566684 0.39922017 0.52904457 0.31798097
0.002933431 -0.05976683 0.029257735 0.27812576 0.28203773 0.04433625 -0.15712905 0.1653511
0.35053298 0.42064762 0.4604787 -0.02427852 -0.03956666 0.2848179 0.15533017 0.02381647
-0.60344493 0.2741437 0.062526844 0.25826037 0.48792452 0.4755105 -0.014972222 0.55783284
0.3030857 0.3687731 0.27296582 0.3468916 0.11647107 -0.40109485 0.7765481 0.22205368
0.29452762 0.256554 0.2949661 0.29112005 0.24871336 0.7259374 0.40668425 0.1446836
0.2801807 0.026555257 0.16506635 -0.027187776 -0.03580101 -0.19819325 0.09826436 0.29440898
0.44840118 0.03147021 0.05918885 -0.15691625 0.27313238 0.27610612 0.09844034 0.15374707
0.22604915 -0.18597017 -0.52416754 -0.070804805 -0.45260498 0.54789954 0.468078 0.40739167
0.45730755 -0.5277091 0.32024783 0.01934858 1.1826978 0.21505357 -0.018090649 0.20268206
-0.06315402 0.29658726 0.04838846 0.14575526 -0.26168323 0.0045977053 0.22301929 0.4171742
-0.14723124 -0.26838905 0.14824413 0.4679823 -0.08507992 -0.087444074 -0.27782723 0.16594173
0.036839977 0.34853187 -0.18671761 -0.07549336 -0.11879378 0.2813195 -0.39504904 -0.3846656
0.12488192 0.4755845 0.9734263 0.76945806 0.25402236 0.7588655 0.5856471 0.49109328
0.5825141 0.051123314 0.11977356 -0.001100673 0.26375672 0.2672143 -0.037536092 0.42527467
0.089850575 0.17113824 0.83914363 0.28107914 0.065392815 0.17206651 -0.49096346 0.031497106
-0.14254315 -0.10272116 -0.22825244 -0.29931685 -0.11596973 0.16305783 0.10928148 0.43616503
-0.80212045 0.3019173 -0.017620986 0.1350104 0.09417153 0.001556749 0.023025494 0.1251704
0.3598431 0.18436511 0.063287035 0.038463403 0.16026269 0.14851369 -0.3127958 0.24465096
0.002966002 0.13332404 0.3343413 0.07208129 0.12505472 -0.011395952 0.4128783 -0.010077763
0.036547247 0.39243862 -0.0449058 -0.07141731 -0.80583245 0.108819254 0.20779581 0.06166268
0.06426726 0.27575845 0.067079045 -0.06334016 -0.021057507 -0.23258887 0.7206345 0.42797583
0.012368209 1.1701283 -0.70834833 0.8914737 -0.060119163 0.84078944 0.3079109 -0.044407416
-0.18871894 -0.054254524 0.21736374 -0.35230458 0.3448878 0.1930117 0.12050573 0.5344252
-1.0243393 0.2570265 -0.05473192 -0.25180644 0.41063115 -0.059821602 0.030459821 -0.5333478

encoder_lstm.weight_hh_l0 f4 [256, 64]
00000000: 400d d8bd 4b99 a3bd be74 99bc 5574 6c3d
00000010: f95d 223c bbbc 96bd 379f fbbd 5328 993d
00000020: c6e8 85bc 3952 c8bc 865d 8d3d 1639 453d
00000030: 2382 0cbe 0b27 3d3e d52f abbd 4b52 133d
00000040: 1096 2fbd ab56 db3c 3606 f73c bccd 0fbe
00000050: 6747 67bc 85fa 203e 8cec e73c a2a5 c2be
00000060: 659a 52bd 12f7 363d f5c6 dc3b 1b61 26be
00000070: 475b 603e 5a89 babd aa3f 853d 07a0 073e
00000080: 0628 493e a7e2 073e a6af 6dbd ef11 a73d
00000090: 2877 133e 830d e8bd 8da6 a2bc b1a3 c5bd
000000a0: 4d7d d13b f4b9 c4bc db3d bf3c b1d4 87be
000000b0: 0b0d db3e 3d99 b7bc e670 f7bd fb18 02bd
000000c0: 9f5b 43be d925 e7bc 3aee 893e 18f4 18bc
000000d0: 1741 33be becf cabd 6176 203d 37df 093e
000000e0: 7ded 5c3d 6d0e c33b 7fc8 963c b4bf f83d
000000f0: b3ca 413e 5678 133e 8f79 3fbe eb01 e2bc
00000100: 6821 393d 85f1 a9bb 8571 c3bd 63dc c93e
00000110: e782 d03d 5536 f23e 30f7 9a3e 756a 97be
00000120: 2efc 203e bfb0 52bd 491b 8d3c 23bb 19ba
00000130: 4b24 f6bd 8673 55be 4203 7ebe 987e 29bd
00000140: 1857 e83d 2fed 76be 1947 e53d cfc6 f8bc
00000150: 8424 44be 81ef e13d df99 60be c8fc efbe
00000160: 5c44 233e b004 9dbc 652c c03c 763a 383d
00000170: 973e 90be 314a 013e cb70 dcbb 08e6 193e
00000180: c1aa a63d e644 e23d ab7c c53d dacc 5a3c
00000190: 831b 84bd f7b2 143e 1036 0c39 0af1 d33d
000001a0: 850c 153d 2512 6b3e e324 52be 2c3c 563e
000001b0: 1fd0 9cbe 3de9 413e c0e0 9abd 7e97 a93d
000001c0: 2f94 433d ba1e 983d 9533 98bd 33d8 7b3b
000001d0: 8deb 08be 7429 59be e2b8 aebc bf3b 153e
000001e0: 36d0 ea3d 4716 c0be 887f 183e fd94 d7bd
000001f0: 27a1 c13d 12fa 88be 5ba2 57be ee12 0dbe
00000200: bb35 943d 0331 3e3c 25d6 f8bd f98b a0bc
00000210: 4b47 49bc adad 15bb 3f9a 21be d81f fd3d
00000220: d790 4e3e 1dc1 4e3d 2e9b e0bd e1a1 16bd
00000230: 8f6e 66be 4425 0c3e 7783 933d eaeb c7bd
00000240: 3cbb 17bd 8425 a7bd ca0f 483d 3a3f 333c
00000250: b3ac 423d 0bb3 f13c 809e 3c3e 3283 db3c
00000260: 44b8 76bd 448b 87bd 1842 10bd 9d24 763d
00000270: d428 613d 95d9 64bd 77b4 143d 9e95 5abd
00000280: 3459 afbd 1ca6 f03d 9b15 bdbd 8965 da3c
00000290: 0f0a cfbd 12cd 48be 74f6 c93d 0143 573e
000002a0: 9235 153e ba18 833c 38af 033e 08d9 17be
000002b0: e35b 38bd 5cc6 dd3d f6d3 af3d 2e8e 56bc
000002c0: de1a a53c 0683 09be 54b2 2ebe 4ca3 293d
000002d0: 687f 0a3c 0247 83ba 7ad1 e8bd e78b 03be
000002e0: 8fd8 b03d 43da 873e c066 87bd 4f31 46bd
000002f0: fc77 863d 071c 10bd 02cb a6bd 41fc 70bd
00000300: 46fe 583e fbf0 0abf e59f 3cbe a44c bc3e
00000310: 1bbe 9d3e f46d 703e e55d fd3e 30df dbbe
00000320: cbe4 87bd 0d57 76be b230 a53c 3e42 c5be
00000330: c9ad bb3d 5960 a23d 739b d6bc 6e47 c33e
00000340: 6b3d 203d 9ce9 d93d e945 88bd 1255 e6bd
00000350: f782 e93d 6da6 303e d24c 28bd 05ae 22bf
00000360: 7189 663e edc9 0d3e 1660 903e 4aff d0bd
00000370: a9fc 1439 535c 3abe 253c 21be 523c c03e
00000380: db10 1fbe dd01 9dbe 98c4 49bd 0ddf 0bbd
00000390: 0b84 40bd 8a7a 843e d5c4 7f3e c230 e13e
000003a0: d68a 00bf 5651 ed3c 6753 a7bd e2e8 c83e
000003b0: 20cd 09bf 7260 9c3e d338 61be 0fc2 283e
000003c0: 847a ca3c 360d 96bc c0be b63d 7dd8 27bd
000003d0: fce2 543e 876b 8fbd c8a3 71be 3d06 863e
000003e0: 9713 71bd 6c48 673d 7494 483e 678e d7bc
000003f0: 50ce d33d 57b2 fcbb a62f 7abe 6996 42be
-0.10549402 -0.07988223 -0.018732425 0.05772813 0.0099101 -0.07360216 -0.12286227 0.07478394
-0.016346347 -0.02445327 0.06902604 0.048150145 -0.13721518 0.18471925 -0.083587326 0.035967153
-0.04286772 0.026774725 0.030154329 -0.14043325 -0.014116145 0.15720566 0.028311037 -0.38016993
-0.051416773 0.04466922 0.0067375847 -0.1624798 0.2190982 -0.09108229 0.065062836 0.1324464
0.19644174 0.13270055 -0.05802884 0.081577174 0.14400923 -0.11330702 -0.019854808 -0.09650362
0.006393111 -0.02401445 0.023344925 -0.26529458 0.42783388 -0.022411937 -0.120820805 -0.031762104
-0.1907792 -0.02821629 0.26939565 -0.00933554 -0.17505299 -0.09902905 0.039175395 0.13464056
0.053937424 0.0059526474 0.01840615 0.121459395 0.1892498 0.14401373 -0.18698715 -0.027588805
0.045197874 -0.005186262 -0.095431365 0.39425954 0.10181218 0.47307077 0.30266714 -0.29573408
0.15721199 -0.05143809 0.017224925 -0.00058643724 -0.12018641 -0.2084485 -0.2480593 -0.041380495
0.11344737 -0.24113916 0.111952014 -0.030368237 -0.19154555 0.1103201 -0.21933697 -0.46872544
0.15944046 -0.019167274 0.023458669 0.044977628 -0.28172752 0.12625958 -0.006727313 0.15029156
0.081380375 0.110482976 0.09642919 0.0133545045 -0.0645056 0.14521395 0.0001337158 0.10348709
0.036388893 0.2295614 -0.20521884 0.20921391 -0.30627534 0.1893663 -0.07562399 0.08280848
0.04774874 0.074277356 -0.074317135 0.0038428425 -0.13371105 -0.2120722 -0.021328393 0.14573573
0.11465494 -0.37516996 0.148924 -0.10526464 0.094545655 -0.26753289 -0.21058027 -0.13776752
0.07236811 0.011608365 -0.1215022 -0.019597994 -0.012285064 -0.0022839115 -0.15781496 0.12359589
0.2017244 0.050477136 -0.10967098 -0.036775474 -0.22503112 0.1368609 0.07202809 -0.09761794
-0.037043795 -0.081614524 0.048843183 0.010940367 0.04752798 0.02950432 0.18419838 0.026795957
-0.060234323 -0.0661836 -0.035219282 0.06009351 0.054970577 -0.055871565 0.036304917 -0.053365342
-0.08561936 0.11750433 -0.092326365 0.026659744 -0.101093404 -0.19609478 0.0986146 0.21021654
0.14571217 0.016003001 0.1285981 -0.14828885 -0.045009505 0.1082885 0.0858535 -0.013095422
0.020154413 -0.13428888 -0.17060214 0.041415498 0.008453228 -0.0010015669 -0.113680795 -0.12846337
0.08635055 0.26533708 -0.06611395 -0.048386868 0.06565854 -0.03518298 -0.081441894 -0.058834318
0.21190748 -0.54273957 -0.1842037 0.36777222 0.308091 0.23479444 0.49485698 -0.42943716
-0.06635436 -0.24056645 0.020164821 -0.385271 0.09164006 0.07928533 -0.02619717 0.38140434
0.039121073 0.106402606 -0.06653959 -0.112466946 0.11401933 0.17250986 -0.041088887 -0.6354678
0.22513367 0.1384656 0.28198308 -0.102049425 0.00014208503 -0.18199281 -0.157456 0.3754602
-0.15533774 -0.30665484 -0.049259752 -0.034148265 -0.047000926 0.2587474 0.24977429 0.43982512
-0.50211847 0.028969448 -0.081702046 0.39240175 -0.5382862 0.30542332 -0.21994333 0.16480277
0.024716623 -0.018316846 0.089231014 -0.040977944 0.20789713 -0.07002931 -0.23597634 0.26176634
-0.058856573 0.05646555 0.1958788 -0.02631302 0.10342085 -0.0077116895 -0.24432239 -0.1900269

encoder_lstm.bias_ih_l0 f4 [256]
00000000: f0b5 193e 4821 f13c 191c e73b 8f31 493d
00000010: ecf8 42bd 296a 603e 1c9b 5b3e 8315 953e
00000020: a89e a63e 1c7a d5bc 2f20 203e 54ef af3b
00000030: 0039 e33e 0e6f 1f3e 3036 083e 0e6c c93c
00000040: a573 e6bc 74c3 6c3e 3d02 1e3f 7a20 13be
00000050: 4e99 d9bc 951c 273e 6c84 323e 2042 853f
00000060: 9774 c23d 767c 8ebc 4be2 eebc f6b3 533d
00000070: c820 1d3e 756c 93bc cee4 a23b b188 16bd
00000080: f5dd d83d 01fc 6d3e 93fa cdbd 4442 0abd
00000090: 7343 36bc 866a 4f3e 3b18 0e3e 95aa f03e
000000a0: 67f1 083e 332f 1c3d edad cd3d 16a9 833e
000000b0: 7de4 313e 5e2e 9d3e a13a 893d 7a03 77bc
000000c0: 8784 dabc ad41 94bd 8945 c83e ad7a 19be
000000d0: 2c25 933e 74d2 403d 34bb 5bbd b0b1 4d3b
000000e0: cdb1 29bd 4e4b 3b3e e258 c3bd bbbe 8c3c
000000f0: 55cf 663d d0fb d23e 3286 f63d 2675 b23e
00000100: b63d 26bd 4f58 183d 3b46 f4bd 516b 32bd
00000110: 5a39 65bc bb45 31bb cb78 64bd c07c 83bd
00000120: 5d18 4d3d eb10 733d 7d74 a3bd 45d0 3dbc
00000130: 9739 ecbd 3a6c 06be 44db 8cbe 9003 b4bd
00000140: 62b3 b8bd dc66 0e3d 6f34 b2bd b6e9 42bd
00000150: 7f1f c2bd 4e26 023c 1d40 31be ccd6 2ebe
00000160: ac4f bc3d f2b1 78bd 594d 0d3d 0c38 3fbd
00000170: 106e fd3d 2688 83bd 579e 7fbd c694 043c
00000180: 9424 f93b a017 fbbd 23e7 4e3d c88b e2bd
00000190: c27f e6bd 857a 6abd 0ef7 90bd aa6a 8c3c
000001a0: 9130 a4bd 65e4 d63d b6a3 de3b 2f2a 253e
000001b0: 2d6e fa3c c3c8 6b3d 1c77 b43d f03b 68bd
000001c0: b4a1 ea3d f8ec c0bd 6e51 0cbe c5bf 53bd
000001d0: 596f d8bc 2f68 123e ce89 243e 72dd 88bc
000001e0: e5d0 1dbd 028e d03d 7227 f13a 0fdb 9d3d
000001f0: 7917 f63d 491b 70be 383f 9539 aa83 ba3b
00000200: ca82 01be 2956 033d e343 fa3d 50cb e0bd
00000210: 44d6 893d 210a 4abc 92a5 7d3d 6426 33bd
00000220: 16ee e5bc 25f9 d8bc f8ed ba3b bbb0 12bc
00000230: 7a0f 05be 6d16 94bd bd8e 10bc 3bef 773c
00000240: 4a8d 3bbb af0c c3bd aec8 15be 9e10 40bd
00000250: 488d f3bb bab8 c93d 6dd1 4a3b d5ce 9cbd
00000260: e663 3b3d 3bb0 093d 0d4f a93d 9e99 55bd
00000270: 5e21 60bd e6fe 9e3d 03ad d23c 853a e03d
00000280: c289 953d 57c4 e7bc 0377 1a3d be77 d0bc
00000290: bc1b b73c 739b c9bd 9e67 1d3e 31f4 123d
000002a0: 87e8 5fbd 47ca 053e d72b f8bd bcb9 ae3d
000002b0: 0bdf b03d ddbc 0f3d 7d24 82bc 0f88 83bd
000002c0: 20b4 5dbd d2f0 1cbd 5480 c93d f46d ba3b
000002d0: cccf 9bbd ae2a 0ebe 957e 0fbe c7ce 483d
000002e0: 02b3 d7bb 98e0 70bd c200 91bd 59f2 89bd
000002f0: d48f 903d d5e8 bcbd 19c6 eabd 9006 91bd
00000300: a821 3a3c 80c7 b53d 28b7 fbbc 26bc 1d3e
00000310: 19d1 3bbd a929 5a3e 5886 9d3e 796b a83e
00000320: 0510 523e 5a38 0c3c c5f3 f53b 21d7 1d3b
00000330: d509 df3e e190 903d 3ac4 4b3e 8e6e 2a3e
00000340: b9fd 0c3c a81d 5b3e 2076 103f e463 ca3a
00000350: c0f1 fe3b 6cb0 d53c 93c8 113e 10c9 853f
00000360: 7df8 88bd 9a10 56bc f63f 383d c2c1 b13c
00000370: 241b e93d 28d8 163d a73e a4bd 5383 9e3d
00000380: 7dc4 f03d aa32 aa3e d45c 62bd 4448 033e
00000390: 7044 993d bd45 b83d bc35 bfbd 6aea e13e
000003a0: 3043 a93e 2fa0 303e 1d6b 12bc c233 7c3e
000003b0: a1be 3e3e 3f0b bc3e 2a60 6e3d ac95 a5bd
000003c0: 6593 ffbc 014a a7bd 5a4a 0d3f 66bb 803d
000003d0: 2101 a43e 18f9 e73d 0907 b93d 602b b43d
000003e0: 9e1b a1bc 2273 403e 599d 0cbd 6029 fa3d
000003f0: fbb3 253d 6f64 993e 3590 e63d fce4 cc3e
0.1501081 0.029434815 0.00705291 0.04911953 -0.04760067 0.21915497 0.21445888 0.29117975
0.3254292 -0.026059203 0.15637277 0.0053691063 0.44379425 0.15569708 0.13301921 0.024587657
-0.028131315 0.23121434 0.61722165 -0.14367858 -0.02656236 0.16319497 0.17433327 1.0410805
0.09494894 -0.017393332 -0.02916064 0.051685296 0.15344536 -0.017996052 0.0049711233 -0.036751453
0.1058921 0.23240663 -0.10057559 -0.033754602 -0.01112448 0.20255479 0.1387643 0.47005144
0.13373338 0.03813095 0.10042939 0.2571494 0.17372318 0.30699438 0.06700636 -0.0150765125
-0.026674522 -0.07239089 0.3911555 -0.14988203 0.28739297 0.047075704 -0.053645328 0.0031386428
-0.04142933 0.18290445 -0.095384374 0.017180791 0.05635007 0.41207743 0.120373145 0.34855002
-0.040586196 0.037193593 -0.11927458 -0.043559376 -0.013990724 -0.002704962 -0.05577926 -0.064202785
0.050072063 0.059342306 -0.07981203 -0.0115853 -0.11534422 -0.13127223 -0.27511036 -0.08789742
-0.090185896 0.034766063 -0.08701407 -0.047586165 -0.09478664 0.007943703 -0.17309614 -0.17074126
0.09194884 -0.060716577 0.034497593 -0.04668431 0.123745084 -0.06422453 -0.062406864 0.008092111
0.0076032374 -0.122603655 0.050513398 -0.110618174 -0.112548366 -0.05724575 -0.07078372 0.017140705
-0.08017076 0.104927815 0.006794418 0.16129373 0.030570114 0.05756451 0.08811781 -0.056697786
0.11456624 -0.09420198 -0.13702938 -0.051696558 -0.026420282 0.14297555 0.16068193 -0.016707156
-0.038529295 0.10183336 0.0018398596 0.07707798 0.12016196 -0.23447908 0.00028466596 0.005691965
-0.12647548 0.03206459 0.122199796 -0.10976279 0.06730321 -0.0123315165 0.06192548 -0.043737784
-0.02806763 -0.026485989 0.0057046376 -0.008953269 -0.12994185 -0.0723084 -0.008823094 0.015132721
-0.002861815 -0.095239036 -0.14627334 -0.046890847 -0.0074326135 0.09849687 0.0030947581 -0.076566376
0.045749567 0.033615332 0.08267031 -0.052148454 -0.05471932 0.07763462 0.025717264 0.10948662
0.07301666 -0.028291864 0.037711155 -0.025447723 0.022352092 -0.09844103 0.15371558 0.03587741
-0.054665115 0.13065444 -0.12117737 0.0853152 0.08636292 0.035092223 -0.01588654 -0.064224355
-0.05412686 -0.0383156 0.0983893 0.005689377 -0.076079935 -0.13883469 -0.14013131 0.049025323
-0.0065826187 -0.05880794 -0.07080223 -0.06735677 0.07058683 -0.09224097 -0.114635654 -0.0708133
0.011360563 0.08875942 -0.030726984 0.15403804 -0.045853708 0.21304955 0.3076656 0.32894495
0.20513923 0.008558357 0.0075058662 0.0024084526 0.4356219 0.070588835 0.19899073 0.16643736
0.008605414 0.21398032 0.56430244 0.0015441147 0.0077802837 0.026085101 0.14236669 1.0451984
-0.066880204 -0.013065482 0.044982873 0.021698836 0.1138213 0.036827236 -0.080197625 0.07739892
0.11756227 0.3324178 -0.05526431 0.12820536 0.074837565 0.089976765 -0.09336421 0.44124156
0.33059072 0.17248605 -0.008936671 0.24629119 0.18627407 0.3672733 0.058197178 -0.08085188
-0.031198213 -0.08168412 0.55191576 0.062857434 0.3203211 0.11326808 0.09034545 0.087973356
-0.01966649 0.1879392 -0.034329746 0.12214923 0.040454846 0.29959437 0.11257974 0.4001845

encoder_lstm.bias_hh_l0 f4 [256]
00000000: 66ba a9bd c1a9 28bd 4f24 a5bd 39df 923c
00000010: cea3 85bc 3799 ba3d 86d1 803e aa1c 2e3e
00000020: c1b3 b23e 2e92 aabc 7eb5 0e3d f271 bd3d
00000030: 7f39 d83e e2ee 563e 28cd 823e 09d3 503e
00000040: 8621 0abe d0f1 393e fe30 d23e 5288 54bd
00000050: 29d5 ba3c 3cf3 dd3d d367 303e 09a9 6a3f
00000060: 3e37 d9bc e5e1 fdbd 875b 05be 4576 e73c
00000070: c08e 133e e9d5 b83d b8d7 81ba 25df 153d
00000080: b504 1b3e 20ed bb3e 77a3 cbbd b215 cc3d
00000090: 2835 56bd 9ba0 3c3e 0b80 e73c db13 d33e
000000a0: 6633 9e3e 401d 263e 8c21 c03d 90a3 a23e
000000b0: e248 bd3e de84 893e c555 91bd ac61 e7bd
000000c0: dacb f93d 1294 9fbd 6bc7 043f 3f57 26be
000000d0: 3ffc f13e 76e1 2e3d cb03 b43d 3af7 90bd
000000e0: d9cd c43d dd0c 8c3d 11c2 853d d935 83bc
000000f0: 6272 6dbd 6d56 e63e 13c8 823d a920 df3e
00000100: 06dc 073e 8997 8c3d b399 cbbd de73 8f3d
00000110: 6ba5 e63c 6ad0 bc3c 4963 40bd 271d ff3c
00000120: 54eb 063e 42f0 f1bd 7919 0a3d ff0b 60bc
00000130: 7f56 d63c 5243 05be e32e 83be 269e 9939
00000140: 806e f6bc 082c b0bd 82af 9bbc b0fe 80bd
00000150: 6b38 b13d 6c16 b1bc 0fd0 e6bd 08e2 11be
00000160: e411 1c3d 0034 5c3d 9503 78bd 3494 f4bb
00000170: c546 443e ccd3 dabd 7d94 083d 8c57 483d
00000180: d1a0 8c3d 31da 89bc 50e4 363d 007c f43b
00000190: 3e76 da3c 6d5c 7cbc ba5d c63c 8335 a43d
000001a0: 443f cc3d ba8a 3f3a c0f8 a3bd 0de0 293e
000001b0: c51c b5bd dd3f 65b8 0d34 e03d 8b52 423d
000001c0: 32c7 b5bd 695b 1abe 5ecd f8bd bbb4 9dbd
000001d0: 4341 f8bd 2881 86bd 0344 563d 64b9 1a3d
000001e0: 4e26 a63d 775b 26bc 73f3 843d eb09 a4bd
000001f0: 51d2 a2bd 3330 04be 1b41 b5bd d5f2 abbd
00000200: 57a2 01b9 e3a1 9abd 58bc 953d 8a18 b13d
00000210: 74b5 983c bc7b 8dbc 61a6 1bbd 6636 07bd
00000220: 15a6 523d 30ad d43d 3ff4 693d b8b7 3bbd
00000230: 8a99 a63c eb9b dd3d 57e1 74bd f6d0 a33d
00000240: 75fb 6c3d 4673 4b3d be24 1e3d e00e e33b
00000250: bbfe b7bd 6d60 14bb 32a1 efbd 6564 4e3b
00000260: 8fab b0bd 1aa6 48bd 4854 6c3d 2e38 c33c
00000270: 4642 c03d 7a21 abbd 4c08 023e 04c3 043e
00000280: acb3 2a3d f0ed cbbd 5bb3 bc3d 0fe6 193d
00000290: 169f 9a3d b754 cb3d 20f6 62bd 72ba 8fbc
000002a0: ba28 ce3b 4846 603c 714c 803d f644 92bd
000002b0: 72f0 26bd f2b7 143e 2f22 19be 6a48 35bd
000002c0: 434a 1a3d a80d 9cbd 436e 15bd 0bd9 063d
000002d0: d22e 8c3d c4a3 f5bd 7c30 5f3d 24da c43d
000002e0: 8dcc 1ebd ca16 653d 41ac ad3c 53bc b73d
000002f0: 17f4 e63b a6da 233d 240f 1dbd fb65 303c
00000300: c039 9f3d b60b 1c3e bfd3 a5bb ef3f a93c
00000310: d377 023d 0873 8f3e e059 763e 6091 c73e
00000320: f4d7 a43e 81e2 05be 4354 dd3d 9f9d be3d
00000330: 4a01 df3e a227 883e 61a1 8f3e 28fe c43d
00000340: 2de5 11be f301 243e 92cb ef3e cd78 a83d
00000350: d11a 09bc f480 9c3d 53f1 d6bc 574e 823f
00000360: c9e5 dbbd 3460 3ebd c1bf 9ebd 8cf9 fd3d
00000370: 655b 213e 5c6d 6f3d e59c 143d b573 743c
00000380: 10ed 2b3e a992 de3e 6065 08be 0704 e83d
00000390: e6fc e0bd 8dad 993c 0e01 173d e624 bd3e
000003a0: 8603 673e 9b85 fe3c efaa 223d 52d0 873e
000003b0: 880d 7e3e 2090 923e a5d8 293c cf8c ae3c
000003c0: ee23 833c 852c 6dbd d74b 163f 8537 9fbd
000003d0: e989 cd3e 1a22 cebc c4e8 303e 0a70 1a3d
000003e0: dc53 06bd e221 853e 7fef 813d 0887 033e
000003f0: f15b 0e3c 6f82 753e 9f96 70bd a8d8 bc3e
-0.08287506 -0.041177515 -0.08063566 0.017928706 -0.01631346 0.09111255 0.25159854 0.17003122
0.34902766 -0.020821657 0.034841053 0.09250249 0.42231366 0.20989564 0.25547147 0.20393004
-0.1348935 0.1815865 0.41053003 -0.051887818 0.02280672 0.10837409 0.17227106 0.9166418
-0.0265156 -0.123966016 -0.13023196 0.028254637 0.14409924 0.09025175 -0.0009906208 0.03658976
0.15138514 0.3670435 -0.09943288 0.099650756 -0.052296788 0.18420641 0.028259298 0.41226086
0.3089859 0.16222095 0.093813986 0.31765413 0.36969668 0.26859182 -0.07096437 -0.11297926
0.12197085 -0.07791914 0.5186679 -0.16244219 0.4726276 0.042695485 0.08789786 -0.07078405
0.09609575 0.06838391 0.06531156 -0.016016888 -0.057970412 0.44987813 0.063858174 0.43579605
0.13267526 0.068648405 -0.09941425 0.07004522 0.02815505 0.023048598 -0.046969686 0.03114183
0.13175708 -0.11813404 0.0337157 -0.013674735 0.026164291 -0.13013962 -0.2562171 0.00029300264
-0.030081987 -0.08602148 -0.019004587 -0.06298578 0.08653339 -0.021617137 -0.11270153 -0.1424638
0.038103 0.05376053 -0.06055029 -0.0074639563 0.19167621 -0.10684928 0.033344734 0.048911616
0.06866611 -0.016827675 0.04465133 0.007461071 0.02666771 -0.015402895 0.024214614 0.08018019
0.099730045 0.00073067436 -0.0800643 0.16589375 -0.08843378 -5.4657332e-05 0.10947428 0.047442
-0.08875884 -0.15073933 -0.12148546 -0.07700487 -0.12121823 -0.06567603 0.052310955 0.03777446
0.08112775 -0.010153643 0.06491747 -0.08009704 -0.07950271 -0.12909012 -0.088503085 -0.08395926
-0.00012362875 -0.07550409 0.07311314 0.086472586 0.018641211 -0.017270915 -0.03800047 -0.033010863
0.05142792 0.103845954 0.057117697 -0.045829505 0.020336885 0.108207546 -0.059785213 0.079988405
0.057856996 0.04967048 0.03860926 0.0069292635 -0.08984133 -0.0022640482 -0.117006674 0.0031492945
-0.08626472 -0.04898653 0.057697564 0.0238305 0.09387641 -0.083559945 0.12698478 0.12965018
0.041675255 -0.09957492 0.09213897 0.037572917 0.075498745 0.099282674 -0.055410504 -0.017544959
0.006291476 0.013688631 0.0626458 -0.071420595 -0.04075665 0.14523295 -0.14954446 -0.044258513
0.037668478 -0.07619792 -0.036482107 0.032921832 0.06844868 -0.119941264 0.054489598 0.096119195
-0.038769294 0.055929936 0.021200301 0.08971467 0.0070481407 0.04000344 -0.038344517 0.010766502
0.07774687 0.15238842 -0.0050606425 0.020660369 0.031852555 0.2801745 0.24057722 0.389781
0.3219601 -0.13074686 0.10807087 0.093074076 0.4355567 0.26592737 0.2805281 0.09618789
-0.1424758 0.16016369 0.46835 0.08226166 -0.00836821 0.07641783 -0.02623812 1.0180157
-0.107371874 -0.046478465 -0.07751418 0.12401113 0.1575752 0.058453903 0.03628244 0.014920165
0.16789651 0.43471268 -0.13319921 0.11328893 -0.109857365 0.018759513 0.03686624 0.36942214
0.22559938 0.031069567 0.039713796 0.26526123 0.2480985 0.28625584 0.0103665935 0.021307377
0.016008344 -0.057903785 0.5870947 -0.077742614 0.4014428 -0.025162745 0.17276293 0.037704505
-0.03279482 0.26002413 0.063445084 0.12844479 0.008688913 0.23975538 -0.058737393 0.36884046

encoder_attn.weight f4 [1, 148]
00000000: d67f 1cbd e916 0d3d d9f6 bc3c d0af 24bb
00000010: 2033 84bd e97e 3a3d 7923 0d3c 2bdb 803d
00000020: 6e7f 7bbd d487 16bc f214 2c3d b7d5 98bb
00000030: e68e a53d 166d db3c 2c1b a63d 21a6 a63d
00000040: e346 76bd 898c 0b3d 0fa3 a7bd 2f87 8c3d
00000050: e6ec 98bd 25e2 29bc 6499 d4bc a0dc f1bc
00000060: 065e 0dbb fa6c 6abd c004 aabc 55c6 a13d
00000070: 7787 99bd f0d9 4fbd f08b 323d 22a0 80bd
00000080: c119 51bd 87fe 5a3d a892 a5bc c238 45bb
00000090: f93e 333b 223d 1cba 5ac1 8e3d 1d35 b3bc
000000a0: d954 a43b 70cd f8bb e3f9 bb3b 1052 28bd
000000b0: 9c9f 9ebd e4ef 93bd 8e3a 9c3d 2448 93bd
000000c0: 5caf 92bd 3185 313d 77b9 92bd 47bc 76bd
000000d0: 8d71 0cbd 0b28 4d3c 3a43 303d 3f3b e5bc
000000e0: dbcd cbbc 0914 6cbc ce33 6ebc 64f1 dabc
000000f0: 00de 203d 3c83 78bd c6ad a43d 36ac 99bd
00000100: baf3 ed3c a063 7f3d 56cd 9e3b 77ea 39bd
00000110: 22fa 5a3d 7d70 893d 70c6 673d 464d 1fbd
00000120: e58d 81bd 94e8 bc3c f372 153d cf56 51bb
00000130: 356a 26bd cd9e d9bb 6af5 08bc 35b6 e2b9
00000140: a98f 42bd b4b3 95bb c955 793d f42a c63c
00000150: d258 37bd e7b2 1cbc ff9a 5cbc cea9 afbc
00000160: 0911 3cbd f118 68bd deea a33c 9a01 87bd
00000170: 0af2 153d 36ba cd3c c3d6 8e3d 6ede 99bc
00000180: a94e 90bd 41ae 56bd 134c 8e3c 4d83 7abd
00000190: 405e f33c 84ff 98bd 2250 893d 33aa 963b
000001a0: af7c a23d 76b9 debc 473d 4b3c 78bd b7bc
000001b0: 3856 133c 644d 193d d138 a23d 17a0 423b
000001c0: da46 88bb 0b9c 203d 6815 a8bc 9fc4 a4bc
000001d0: 24b1 1dbd 77e9 84bd cbfa 05bd 6902 953d
000001e0: 1bb6 6b3d 2414 c73b d33f 9cbd cb01 60bd
000001f0: ed51 343d 7f00 9d3c 3543 9ebd ae89 a63d
00000200: 6698 06bf 3793 53be b948 aabd e870 8abe
00000210: 1af6 babd f935 cc3e 51fd 0dbe aac0 7abc
00000220: 2d75 ab3f 805d 363f 08f4 abbe c3b6 d63e
00000230: 6977 77bf 577d cbbe e7ac b83d 33d5 f9bd
00000240: 853e f2be d495 27bf cda7 9f3e 1f70 e1be
-0.03820785 0.034445677 0.023066925 -0.0025129206 -0.06455064 0.045531187 0.008614414 0.06291803
-0.061400823 -0.009187657 0.042012163 -0.0046641487 0.08083896 0.026785415 0.081106514 0.08137155
-0.060126197 0.03406957 -0.08185398 0.06861722 -0.0746706 -0.010368858 -0.025952049 -0.029524148
-0.0021570935 -0.057232834 -0.020754218 0.07899157 -0.07496541 -0.05074495 0.043590486 -0.06280543
-0.05104995 0.053465392 -0.020211533 -0.0030093645 0.0027350767 -0.0005960037 0.06970473 -0.021875912
0.0050149974 -0.0075928494 0.005736576 -0.041093886 -0.07745287 -0.0722349 0.07628356 -0.07191494
-0.071623534 0.04333991 -0.07164281 -0.06023815 -0.034287978 0.012521754 0.043032862 -0.027982352
-0.024878433 -0.014409074 -0.014538718 -0.026726432 0.039274216 -0.06067203 0.08040957 -0.0750355
0.029046882 0.06235087 0.0048462553 -0.04538962 0.0534612 0.067109086 0.05658573 -0.038892053
-0.06325892 0.02306012 0.036486577 -0.003194261 -0.04062863 -0.006641245 -0.0083592925 -0.00043241834
-0.047500286 -0.0045685414 0.060872827 0.024190404 -0.04476244 -0.009564138 -0.013464688 -0.021443274
-0.045914683 -0.05666441 0.020009454 -0.06592102 0.03660778 0.025113206 0.06974556 -0.01878282
-0.07046253 -0.052412275 0.01737026 -0.061160374 0.029708028 -0.07470611 0.06704737 0.004597926
0.07933938 -0.027188044 0.012404746 -0.022429213 0.008992724 0.03742732 0.07920993 0.0029697472
-0.004158837 0.039211314 -0.02051802 -0.020113287 -0.038499013 -0.064898424 -0.032709878 0.0727585
0.057546716 0.006075399 -0.07629361 -0.05468921 0.044023443 0.019165276 -0.077276625 0.08131729
-0.5257629 -0.20661627 -0.08314652 -0.27039266 -0.091289714 0.39884928 -0.13866164 -0.015304724
1.3395134 0.7123642 -0.3358462 0.4193631 -0.9666658 -0.39744064 0.090173535 -0.12198868
-0.47313324 -0.65462995 0.3118271 -0.44030854

exp_avg f4 [7, 7]
00000000: 9f71 1fb3 0000 0000 0000 0000 0000 0000
00000010: 0000 0000 0000 0000 0000 0000 0000 0000
00000020: 0000 0000 0000 0000 0000 0000 0000 0000
00000030: 0000 0000 0000 0000 0000 0000 0000 0000
00000040: 76b3 4db4 0000 0000 0000 0000 0000 0000
00000050: 0000 0000 0000 0000 0000 0000 0000 0000
00000060: eda5 7633 0000 0000 0000 0000 0000 0000
00000070: 0000 0000 0000 0000 0000 0000 0000 0000
00000080: 0400 0000 0000 0000 0000 0000 0000 0000
00000090: 0000 0000 0000 0000 0000 0000 0000 0000
000000a0: bb17 be35 0000 0000 0000 0000 0000 0000
000000b0: 0000 0000 0000 0000 0000 0000 0000 0000
000000c0: 0400 0000
-3.712341e-08 0.0 0.0 0.0 0.0 0.0 0.0 0.0
0.0 0.0 0.0 0.0 0.0 0.0 0.0 0.0
-1.91574e-07 0.0 0.0 0.0 0.0 0.0 0.0 0.0
5.7427247e-08 0.0 0.0 0.0 0.0 0.0 0.0 0.0
6e-45 0.0 0.0 0.0 0.0 0.0 0.0 0.0
1.416301e-06 0.0 0.0 0.0 0.0 0.0 0.0 0.0
6e-45

exp_avg_sq f4 [7, 7]
00000000: f1b7 fd29 0000 0000 0000 0000 0000 0000
00000010: 0000 0000 0000 0000 0000 0000 0000 0000
00000020: 0000 0000 0000 0000 0000 0000 0000 0000
00000030: 0000 0000 0000 0000 0000 0000 0000 0000
00000040: ac87 722d 0000 0000 0000 0000 0000 0000
00000050: 0000 0000 0000 0000 0000 0000 0000 0000
00000060: 4301 f828 0000 0000 0000 0000 0000 0000
00000070: 0000 0000 0000 0000 0000 0000 0000 0000
00000080: a13f db29 0000 0000 0000 0000 0000 0000
00000090: 0000 0000 0000 0000 0000 0000 0000 0000
000000a0: edd5 632f 0000 0000 0000 0000 0000 0000
000000b0: 0000 0000 0000 0000 0000 0000 0000 0000
000000c0: cdb9 3d20
1.1267366e-13 0.0 0.0 0.0 0.0 0.0 0.0 0.0
0.0 0.0 0.0 0.0 0.0 0.0 0.0 0.0
1.3786233e-11 0.0 0.0 0.0 0.0 0.0 0.0 0.0
2.7534078e-14 0.0 0.0 0.0 0.0 0.0 0.0 0.0
9.7365916e-14 0.0 0.0 0.0 0.0 0.0 0.0 0.0
2.0721531e-10 0.0 0.0 0.0 0.0 0.0 0.0 0.0
1.6070399e-19

exp_avg f4 [7]
00000000: 108c 8033 0000 0000 180e 97b4 96de 8f33
00000010: 0400 0000 af24 8c36 0400 0000
5.985942e-08 0.0 -2.8136196e-07 6.6994446e-08 6e-45 4.1765957e-06 6e-45

exp_avg_sq f4 [7]
00000000: 6d16 212a 0000 0000 7c10 982d f2b1 7e2a
00000010: 4480 8528 bba5 832f 81fc 581f
1.4307453e-13 0.0 1.728772e-11 2.2621469e-13 1.4821593e-14 2.394652e-10 4.5948645e-20

exp_avg f4 [64, 7]
00000000: e9ca a1b8 a4b1 b8b8 607f 0bb9 a966 a3b8
00000010: aa67 a4b8 df3d a2b8 8f17 b1b8 0000 0000
00000020: 0000 0000 0000 0000 0000 0000 0000 0000
00000030: 0000 0000 0000 0000 63ea acb7 11bf e637
00000040: 94de f3b6 16ab 34b7 4745 1237 66eb 9d37
00000050: 86a2 3737 ee8d e7b6 9f02 83b5 9f02 83b5
00000060: 9f02 83b5 9f02 83b5 9f02 83b5 9f02 83b5
00000070: 0400 0000 0400 0000 0400 0000 0400 0000
00000080: 0400 0000 0400 0000 0400 0000 7144 12b8
00000090: 9c19 a5b6 9c19 a5b6 9c19 a5b6 9c19 a5b6
000000a0: 9c19 a5b6 9c19 a5b6 6cdd 1fb8 a1bd 23b8
000000b0: 5846 03b8 f715 0bb8 fcd8 0cb8 5611 30b8
000000c0: baa6 0cb8 b788 0fb5 b788 0fb5 b788 0fb5
000000d0: b788 0fb5 b788 0fb5 b788 0fb5 b4c2 00b6
000000e0: 4e62 e3b8 5e6c 99b6 eafe 16b8 45f7 ccb8
000000f0: 88e2 bab8 3450 5bb7 2a8a ebb8 1e37 8336
00000100: 67be 3536 6141 62b6 c5ce 07b6 77cb b0b5
00000110: 238d 8536 95b5 8036 0400 0000 0400 0000
00000120: 0400 0000 0400 0000 0400 0000 0400 0000
00000130: 0400 0000 375d a137 1e27 b337 a7f2 3b38
00000140: aaa6 9e37 f424 9e37 d67e 8837 89c3 be37
00000150: 57c7 a0b8 6cd4 2db8 fc19 3cb8 da2b 0cb8
00000160: 5c12 29b8 c760 26b8 022b bfb8 b7d9 d636
00000170: 98b4 0db7 0dac f3b7 24bc cfb7 f89a 62b7
00000180: 2aeb 09b7 bb9e 2437 0000 0000 0000 0000
00000190: 0000 0000 0000 0000 0000 0000 0000 0000
000001a0: 0000 0000 7d88 6d37 3fd6 8c37 e0b2 c937
000001b0: 10d0 7837 1a6e 5b37 eda7 9f37 b672 5d37
000001c0: 0400 0000 0400 0000 0400 0000 0400 0000
000001d0: 0400 0000 0400 0000 0400 0000 0698 2339
000001e0: 34d3 c838 4ff1 aa38 2300 0539 d222 f038
000001f0: c891 bb38 3b71 0e39 bf22 99b7 ac07 9d37
00000200: c2ec f537 dbef b6b6 9eab 2037 c03d 9637
00000210: 6cf8 6637 6262 5735 bb94 bb37 3313 35b4
00000220: bda3 5bb6 b8d2 03b7 78e5 c737 8897 3d36
00000230: e673 1d37 9a0e 6bb4 8109 19b6 dad3 3634
00000240: f087 8e35 ad6d 0136 c598 f135 c753 1238
00000250: a51f 1238 518a 4d37 287b d537 bbcb c137
00000260: 2b24 0538 71ab 3a38 a40c 3e36 3baf 56b7
00000270: 8a8b aab6 afeb a4b6 84ae 8db6 b530 a136
00000280: 4371 16b7 2ad9 9ab7 b294 3d35 4644 8b37
00000290: b294 3d35 b294 3d35 b294 3d35 b294 3d35
000002a0: 88ec a935 6143 1635 1de9 54b6 ccef d735
000002b0: 0daf 8d35 1799 ed35 ae9d ea35 486d 1637
000002c0: 3269 8737 1b6c 0037 b1a2 1237 39c7 1e37
000002d0: b7cb 7437 dae8 2837 9ba2 0db6 934a 1137
000002e0: be23 6537 4e9c 8437 cbea 5b37 1492 0137
000002f0: 3c34 0eb6 eda6 1837 c52b 9637 481c 5c37
00000300: 5c43 8537 1493 8a37 b4db 8937 33cc 9437
00000310: 0000 0000 0000 0000 0000 0000 0000 0000
00000320: 0000 0000 0000 0000 0000 0000 0000 0000
00000330: 0000 0000 0000 0000 0000 0000 0000 0000
00000340: 0000 0000 0000 0000 7f8b 0f39 34c0 c038
00000350: 3e6e 0038 88fe 9238 adf5 8738 39fc b738
00000360: af81 d538 f1d3 6538 4c19 4438 7301 1339
00000370: e262 8338 d971 5138 e41d 5438 7609 8a38
00000380: 70ec 7a37 d3ed 1938 2f92 b038 f7b8 3738
00000390: 7923 2b38 1199 0538 223f 7737 36b6 09b7
000003a0: e209 a7b8 2ea1 94b9 5435 34b8 501a 29b8
000003b0: 6145 abb8 79af abb7 7cee 9c37 767a 1a38
000003c0: 7cdd 0237 c2e6 2538 ce35 2738 ef28 3138
000003d0: ca20 5638 d552 8237 a772 b937 a75b 9337
000003e0: 6a0c 8e37 2887 8a37 f893 b037 6c03 9437
000003f0: ddc4 ac35 c2f4 2836 a774 6736 4ce2 5536
-7.714873e-05 -8.806892e-05 -0.00013303524 -7.7915676e-05 -7.839438e-05 -7.736286e-05 -8.444406e-05 0.0
0.0 0.0 0.0 0.0 0.0 0.0 -2.0613143e-05 2.7507109e-05
-7.267876e-06 -1.076867e-05 8.718408e-06 1.8825474e-05 1.094549e-05 -6.9008593e-06 -9.761023e-07 -9.761023e-07
-9.761023e-07 -9.761023e-07 -9.761023e-07 -9.761023e-07 6e-45 6e-45 6e-45 6e-45
6e-45 6e-45 6e-45 -3.4872854e-05 -4.9203645e-06 -4.9203645e-06 -4.9203645e-06 -4.9203645e-06
-4.9203645e-06 -4.9203645e-06 -3.811477e-05 -3.9038834e-05 -3.1298347e-05 -3.316064e-05 -3.3580684e-05 -4.1977815e-05
-3.3533877e-05 -5.34706e-07 -5.34706e-07 -5.34706e-07 -5.34706e-07 -5.34706e-07 -5.34706e-07 -1.9186818e-06
-0.00010842514 -4.572371e-06 -3.6000194e-05 -9.7735356e-05 -8.911366e-05 -1.3072091e-05 -0.00011231408 3.9105207e-06
2.708193e-06 -3.371468e-06 -2.0236923e-06 -1.3172238e-06 3.9801394e-06 3.835836e-06 6e-45 6e-45
6e-45 6e-45 6e-45 6e-45 6e-45 1.9236102e-05 2.1356678e-05 4.4810262e-05
1.8912677e-05 1.8852275e-05 1.6271526e-05 2.2740818e-05 -7.6665245e-05 -4.1444247e-05 -4.4846893e-05 -3.341944e-05
-4.030984e-05 -3.9667615e-05 -9.1156006e-05 6.4030423e-06 -8.446303e-06 -2.9047975e-05 -2.4763933e-05 -1.3506731e-05
-8.22059e-06 9.812119e-06 0.0 0.0 0.0 0.0 0.0 0.0
0.0 1.41580795e-05 1.6789067e-05 2.4044362e-05 1.4830395e-05 1.3079052e-05 1.9032474e-05 1.3199335e-05
6e-45 6e-45 6e-45 6e-45 6e-45 6e-45 6e-45 0.00015601525
9.576083e-05 8.151179e-05 0.0001268392 0.000114505776 8.944009e-05 0.00013584357 -1.8255201e-05 1.8719431e-05
2.9316525e-05 -5.4519455e-06 9.576701e-06 1.7910148e-05 1.37669085e-05 8.023691e-07 2.2361395e-05 -1.6863923e-07
-3.2728851e-06 -7.85727e-06 2.3829503e-05 2.8251397e-06 9.384914e-06 -2.1891393e-07 -2.2804309e-06 1.7027142e-07
1.0619387e-06 1.9286338e-06 1.8000361e-06 3.4887136e-05 3.4838584e-05 1.22511565e-05 2.5448928e-05 2.3102262e-05
3.1743355e-05 4.4505523e-05 2.8319564e-06 -1.2796193e-05 -5.0826393e-06 -4.915018e-06 -4.2224437e-06 4.803844e-06
-8.9670675e-06 -1.8459355e-05 7.0624367e-07 1.6601884e-05 7.0624367e-07 7.0624367e-07 7.0624367e-07 7.0624367e-07
1.2660321e-06 5.5977404e-07 -3.1726152e-06 1.6088538e-06 1.0556265e-06 1.7702431e-06 1.7480249e-06 8.966141e-06
1.614224e-05 7.654565e-06 8.740158e-06 9.463919e-06 1.4590964e-05 1.0067795e-05 -2.1105286e-06 8.660037e-06
1.36577855e-05 1.5808411e-05 1.3108084e-05 7.723011e-06 -2.1190053e-06 9.098771e-06 1.7901775e-05 1.3119607e-05
1.5886202e-05 1.651937e-05 1.643398e-05 1.7738063e-05 0.0 0.0 0.0 0.0
0.0 0.0 0.0 0.0 0.0 0.0 0.0 0.0
0.0 0.0 0.00013689509 9.191074e-05 3.062025e-05 7.009233e-05 6.483062e-05 8.7731e-05
0.00010180787 5.479524e-05 4.67536e-05 0.00014019552 6.264985e-05 4.9935512e-05 5.0572577e-05 6.582115e-05
1.4956211e-05 3.6699534e-05 8.419563e-05 4.3802862e-05 4.0802614e-05 3.1852225e-05 1.47370465e-05 -8.208261e-06
-7.965021e-05 -0.00028348848 -4.296501e-05 -4.0317245e-05 -8.166838e-05 -2.04665e-05 1.8707702e-05 3.683051e-05
7.800172e-06 3.9553976e-05 3.9866012e-05 4.223821e-05 5.1052113e-05 1.553578e-05 2.2107108e-05 1.7566445e-05
1.69335e-05 1.6513819e-05 2.1049738e-05 1.7644568e-05 1.2872293e-06 2.5176419e-06 3.4489583e-06 3.1871195e-06
