weights_new/EncoderEpochnew325_20_8.pt (torch_old, 862771 bytes, 27 tensors)

gamma_x_l.weight f4 [7, 7]
-0.039892763 0.14432094 0.07977557 -0.25175205 -0.13336398 0.13961712 -0.22666718 -0.24948199
-0.28445518 0.36402407 0.088453144 0.046605438 0.022559136 0.20876214 -0.124607 -0.14942226
0.85110617 0.22080973 0.15617463 -0.35443836 -0.3667789 -0.11095989 0.053911358 -0.25310898
-0.3301061 -0.061774224 -0.23537783 -0.16485004 0.15559915 0.3551909 -0.22006892 -0.3320074
0.6100609 -0.30322516 -0.08737016 0.09958705 -0.3506619 -0.18608345 0.3296379 -0.0339849
1.3797853 -0.18828435 -0.14964867 0.034010768 0.35427395 0.31372026 0.3499038 -0.13423471
1.0059658
00000000: 9866 23bd dec8 133e 6061 a33d a5e5 80be
00000010: 9190 08be caf7 0e3e 711b 68be 3578 7fbe
00000020: 1ca4 91be 5d61 ba3e ec26 b53d 58e5 3e3d
00000030: f0cd b83c bec5 553e f431 ffbd 2602 19be
00000040: 18e2 593f f21b 623e 3eec 1f3e f278 b5be
00000050: 72ca bbbe f03e e3bd 28d2 5c3d 8097 81be
00000060: ab03 a9be f806 7dbd e306 71be 73ce 28be
00000070: 6255 1f3e 95db b53e bf59 61be e0fc a9be
00000080: f32c 1c3f 5440 9bbe 20ef b2bd 4cf4 cb3d
00000090: f589 b3be a98c 3ebe 4dc6 a83e c033 0bbd
000000a0: ce9c b03f 9dcd 40be 803d 19be e04e 0b3d
000000b0: 6563 b53e f19f a03e 9726 b33e d374 09be
000000c0: 7dc3 803f

gamma_x_l.bias f4 [7]
-0.13782641 0.7153879 1.0837476 0.41680938 0.53801715 1.0192306 1.2293344
00000000: 5e22 0dbe a923 373f 3eb8 8a3f 0a68 d53e
00000010: 7ebb 093f 2676 823f d45a 9d3f

gamma_h_l.weight f4 [128, 7]
0.26907846 0.18584327 -0.12547366 0.01835437 -0.2542219 0.081989884 0.33914083 -0.28499556
-0.34896648 -0.08390373 -0.2307424 -0.33120847 -0.2205525 -0.04412213 -0.24226417 -0.055131365
0.37959933 -0.095676854 -0.070880145 0.2519166 -0.27570236 -0.06710351 -0.23644643 -0.36478066
0.38044935 0.38918072 -0.0848756 0.023988584 0.19741789 0.30171514 0.340303 -0.17644349
-0.13286565 -0.41351262 0.14029035 -0.34977865 -0.27750733 0.17511405 -0.14897478 -0.20718575
-0.14075753 0.63892806 0.23321661 0.08719691 -0.1102241 -0.39943716 -0.3929892 0.5144877
0.40585053 -0.039429814 -0.28243366 -0.056892008 0.11116269 -0.14690916 0.017807782 -0.19919798
-0.05154318 -0.16229421 -0.30559286 0.060153127 0.05174651 0.31435636 0.28815252 -0.29197168
0.13516374 0.52163917 -0.0180514 -0.031507745 0.097163565 0.564249 -0.28242528 -0.18988931
0.14847516 0.4677199 -0.048835333 -0.12728055 0.32414213 -0.040173024 -0.24488501 -0.3448336
-0.24710673 -0.37002558 -0.15381967 0.2637619 -0.30595368 -0.07366192 -0.011398256 -0.109416395
0.0185996 -0.23352952 -0.29002222 -0.3081614 0.19552732 -0.14865993 -0.30671945 0.05052554
0.2711915 0.46337885 -0.36898288 0.23595098 -0.17119242 0.20599326 -0.15196824 -0.37484226
-0.05948499 0.257105 0.35571977 0.29339296 0.34268412 -0.12486364 0.011097511 -0.37898377
-0.29571673 0.10433868 0.41554224 0.30497307 0.26659495 0.24261712 0.007869525 0.16567294
0.2702279 -0.07295933 -0.06673397 -0.1082978 -0.2254346 0.27376515 0.49532926 0.049579594
-0.3722827 -0.1014296 -0.33448955 -0.3676779 0.059911996 0.43681663 0.34883413 -0.111993566
0.12397991 -0.2795332 -0.1560838 0.42626026 -0.18379444 -0.25515845 0.45626476 0.23855965
0.0879924 0.20468588 -0.27304745 0.26679078 0.2478604 -0.15407303 -0.051298294 0.22381037
-0.058047403 0.21710089 -0.32838157 -0.2148111 -0.24450839 0.2085502 0.44865894 -0.23851839
0.40753862 0.15664546 -0.31084633 0.25489503 0.34129977 0.018749084 0.022324014 -0.25544626
-0.3461468 0.03991592 -0.23268686 -0.0819208 0.21012416 -0.31670353 -0.30562067 -0.2260974
-0.13306814 0.45019934 -0.13812746 0.28447008 -0.39621064 0.31331795 -0.047162253 0.287274
0.24831063 0.44955432 0.05531322 -0.34958816 -0.08079598 0.22495797 -0.14743833 0.37621832
-0.13439208 -0.2527319 -0.18788767 0.3412336 -0.3496586 -0.31954193 -0.2501548 0.1474323
-0.05921933 -0.04471895 0.17369637 -0.22307208 -0.17562334 0.3162079 -0.15066496 -0.24036533
0.27534 -0.19964159 0.26853827 -0.21585162 0.31848404 -0.06819424 -0.3842751 -0.15825303
0.3512399 0.3465158 -0.15554813 0.3320121 -0.3101542 -0.058936696 -0.17348439 0.19773033
0.13916318 -0.3272191 0.09635988 0.37316427 0.03923569 -0.034819275 0.26938218 0.0863305
0.30874518 -0.19752419 -0.06044847 -0.27921486 0.2895007 0.16926089 -0.049493708 -0.3715272
-0.38181147 0.15957017 -0.24761344 -0.04692307 0.11328695 -0.236148 -0.14344072 -0.097854644
-0.14989567 -0.29084128 0.21537045 0.101091444 -0.043220542 0.113417625 0.46359774 0.44552454
00000000: a7c4 893e b34d 3e3e 2b7c 00be e75b 963c
00000010: 5f29 82be 50ea a73d dea3 ad3e f0ea 91be
00000020: bcab b2be b8d5 abbd bc47 6cbe 2894 a9be
00000030: 84d8 61be 68b9 34bd 1914 78be 6dd1 61bd
00000040: d85a c23e 3af2 c3bd 9c29 91bd 36fb 803e
00000050: dc28 8dbe 916d 89bd 031f 72be 88c4 babe
00000060: 42ca c23e b242 c73e 42d3 adbd b583 c43c
00000070: ea27 4a3e 687a 9a3e 323c ae3e 9aad 34be
00000080: ef0d 08be edb7 d3be 46a8 0f3e 3016 b3be
00000090: 7115 8ebe 1951 333e d88c 18be 8028 54be
000000a0: be22 10be ca90 233f 56d0 6e3e 4b94 b23d
000000b0: 2cbd e1bd 0783 ccbe e135 c9be 77b5 033f
000000c0: a4cb cf3e 2881 21bd 259b 90be 9807 69bd
000000d0: 44a9 e33d 5b6f 16be a0e1 913c 8efa 4bbe
000000e0: f11e 53bd 7430 26be ab76 9cbe 2063 763d
000000f0: 26f4 533d 51f3 a03e ba88 933e 507d 95be
00000100: 5d68 0a3e 258a 053f 88e0 93bc 440e 01bd
00000110: b1fd c63d 9f72 103f 0c9a 90be 5872 42be
00000120: df09 183e fc78 ef3e 8f07 48bd d555 02be
00000130: f5f5 a53e 788c 24bd 23c3 7abe 088e b0be
00000140: 8c09 7dbe fe73 bdbe e782 1dbe cd0b 873e
00000150: f6a5 9cbe 10dc 96bd c0bf 3abc b415 e0bd
00000160: 305e 983c 5d22 6fbe cb7d 94be 55c7 9dbe
00000170: 5038 483e 4f3a 18be 550a 9dbe def3 4e3d
00000180: 9dd9 8a3e fe3f ed3e 53eb bcbe 229d 713e
00000190: 114d 2fbe e6ef 523e 909d 1bbe 53eb bfbe
000001a0: 88a6 73bd 44a3 833e e720 b63e 9a37 963e
000001b0: 4b74 af3e 82b8 ffbd 56d2 353c 290a c2be
000001c0: 2f68 97be 85af d53d f4c1 d43e 6e25 9c3e
000001d0: 227f 883e 9f70 783e 2eef 003c 2ba6 293e
000001e0: 505b 8a3e b46b 95bd d2ab 88bd 3dcb ddbd
000001f0: 54d8 66be f22a 8c3e cc9b fd3e f913 4b3d
00000200: d79b bebe 52ba cfbd 3742 abbe 4740 bcbe
00000210: 4866 753d 6ea6 df3e 639a b23e e25c e5bd
00000220: 2ee9 fd3d fa1e 8fbe 6fd4 1fbe c93e da3e
00000230: 9c34 3cbe 21a4 82be 899b e93e fb48 743e
00000240: 5c35 b43d 2d99 513e e0cc 8bbe cd98 883e
00000250: 1ecf 7d3e 52c5 1dbe 291e 52bd 8c2e 653e
00000260: 1dc3 6dbd b24f 5e3e a121 a8be 71f7 5bbe
00000270: 6860 7abe 2f8e 553e a0b6 e53e 2a3e 74be
00000280: e7a8 d03e ab67 203e 4027 9fbe 9a81 823e
00000290: d8be ae3e ae97 993c dae0 b63c dac9 82be
000002a0: 273a b1be e07e 233d 7745 6ebe 18c6 a7bd
000002b0: ca2a 573e f726 a2be 507a 9cbe 1486 67be
000002c0: 0443 08be 8780 e63e 4971 0dbe 10a6 913e
000002d0: 1fdc cabe 366b a03e 352d 41bd 9415 933e
000002e0: 2445 7e3e fc2b e63e 1d90 623d 38fd b2be
000002f0: 5d78 a5bd 625b 663e 13fa 16be b09f c03e
00000300: 149e 09be 1366 81be a065 40be 2cb6 ae3e
00000310: 7406 b3be 009b a3be 4a14 80be 7ef8 163e
00000320: f88f 72bd 382b 37bd 76dd 313e 026d 64be
00000330: 9bd6 33be 00e6 a13e ea47 1abe 5422 76be
00000340: 5df9 8c3e d86e 4cbe d97d 893e 3508 5dbe
00000350: 5710 a33e 6ca9 8bbd b5bf c4be 150d 22be
00000360: b7d5 b33e 856a b13e 0248 1fbe 7dfd a93e
00000370: 88cc 9ebe 9b67 71bd e4a5 31be d279 4a3e
00000380: cb80 0e3e 4389 a7be 5458 c53d 630f bf3e
00000390: 9ab5 203d a89e 0ebd 76ec 893e 0cce b03d
000003a0: d913 9e3e c843 4abe d198 77bd 40f5 8ebe
000003b0: 7039 943e ba52 2d3e eab9 4abd d038 bebe
000003c0: cb7c c3be 5d66 233e 618e 7dbe 6832 40bd
000003d0: fd02 e83d c8d0 71be 20e2 12be 0468 c8bd
000003e0: 407e 19be 26e9 94be 128a 5c3e 0809 cf3d
000003f0: 0608 31bd 8047 e83d af5c ed3e cb1b e43e

gamma_h_l.bias f4 [128]
0.38128415 -0.14055073 0.08498793 0.17393148 -0.20684609 0.23341718 0.07257922 0.25129274
0.23732822 0.25865343 0.3006644 -0.05509433 0.116297394 0.22942606 0.12109622 -0.36165068
-0.3803017 0.19058202 0.35541674 0.15884161 -0.2789542 -0.24366783 0.40424648 0.06333214
0.29190347 -0.18081017 0.12064895 -0.09680645 -0.33568117 0.12700701 0.0012662557 -0.20517063
0.15932555 -0.31617808 0.118959755 -0.37217525 0.12599215 0.09053641 0.21081994 -0.0054478347
-0.31325036 -0.14420247 0.060191058 -0.027286237 0.2792637 -0.27778202 0.37617093 0.07013372
0.07421204 -0.12425231 0.017400902 0.15316322 0.0037738383 0.34816375 0.22327945 0.13327894
0.07416607 -0.029056877 0.417134 -0.1445354 0.057458013 0.39402708 0.09698066 0.18008898
0.22665714 -0.07351184 -0.007967866 0.26830342 -0.05462681 -0.21913375 -0.016555578 0.1860938
-0.37833712 -0.031738665 0.25061843 -0.16517906 0.018328462 -0.06838316 -0.2709172 -0.29734328
-0.17819661 0.20524988 0.009435673 -0.35545415 0.1307721 -0.06710208 -0.24411833 -0.36653864
-0.2634211 -0.06773983 0.3759933 -0.19226986 -0.022095304 -0.21572997 0.20018968 -0.06915546
-0.13622661 -0.09280135 0.3151764 0.085213125 0.29486805 0.18877086 -0.14406027 0.32584825
-0.23602137 0.2044346 0.15900242 -0.21036534 -0.3284703 0.1771265 0.021319507 0.28539294
0.19291544 -0.10230118 0.3573624 -0.26218835 0.14406402 -0.29242995 0.21447703 -0.21966851
0.069254816 -0.32860866 0.08220536 0.12402075 -0.028806062 -0.029940309 0.39289713 0.33804
00000000: ad37 c33e 88ec 0fbe 270e ae3d 181b 323e
00000010: 76cf 53be ea04 6f3e 6aa4 943d 71a9 803e
00000020: 2b06 733e 396e 843e aff0 993e 98aa 61bd
00000030: 542d ee3d aaee 6a3e 4c01 f83d 472a b9be
00000040: e8b6 c2be ef27 433e 2ff9 b53e 60a7 223e
00000050: 16d3 8ebe 0f84 79be 65f9 ce3e 48b4 813d
00000060: 5f74 953e 4d26 39be cc16 f73d 7642 c6bd
00000070: 67de abbe 200e 023e 7ef8 a53a 4018 52be
00000080: 3d26 233e 18e2 a1be 2ca1 f33d c18d bebe
00000090: 1604 013e 276b b93d 2fe1 573e c083 b2bb
000000a0: 5a62 a0be d0a9 13be e68a 763d 6387 dfbc
000000b0: a7fb 8e3e 7239 8ebe 7a99 c03e 45a2 8f3d
000000c0: 7bfc 973d ff77 febd 568c 8e3c d2d6 1c3e
000000d0: 8052 773b 8542 b23e 5ea3 643e 467a 083e
000000e0: 61e4 973d b008 eebc 9692 d53e 1701 14be
000000f0: 1859 6b3d ebbd c93e cc9d c63d 3f69 383e
00000100: cf18 683e 608d 96bd a78b 02bc 115f 893e
00000110: 5dc0 5fbd 9964 60be 909f 87bc 608f 3e3e
00000120: 67b5 c1be 6700 02bd 0f51 803e b324 29be
00000130: 9225 963c 780c 8cbd a9b5 8abe 613d 98be
00000140: 2c79 36be 062d 523e 1598 1a3c 16fe b5be
00000150: 1fe9 053e d16c 89bd 28fa 79be f4aa bbbe
00000160: 21df 86be 2ebb 8abd 3282 c03e 64e2 44be
00000170: 3601 b5bc 51e8 5cbe 86fe 4c3e 61a1 8dbd
00000180: fd7e 0bbe a20e bebd cd5e a13e 3884 ae3d
00000190: f2f8 963e 264d 413e 8984 13be 95d5 a63e
000001a0: 96af 71be 4e57 513e 88d1 223e 036a 57be
000001b0: 422d a8be a660 353e 3fa6 ae3c 061f 923e
000001c0: a08b 453e 4883 d1bd 34f8 b63e 8d3d 86be
000001d0: 8585 133e 61b9 95be de9f 5b3e c8f0 60be
000001e0: 78d5 8d3d 653f a8be 495b a83d 97fe fd3d
000001f0: b1fa ebbc 6145 f5bc d029 c93e 9413 ad3e

encoder_lstm.weight_ih_l0 f4 [512, 7]
-0.29922682 0.084932536 0.0012096692 -0.15132529 -0.08968305 0.1379196 -0.534588 -0.13349845
0.08040528 0.12350094 0.08999754 0.1647016 -0.03697514 0.14536735 -0.008259011 -0.106973715
0.015282599 0.19787095 -0.1466011 -0.14701447 0.31573346 0.5413944 0.005899834 0.15699473
0.036929723 0.022214076 0.029749108 0.26427478 -0.015049446 0.2159121 -0.27082294 0.4392152
0.022086523 0.2532324 0.12034959 -0.00015677257 0.032460436 0.05848556 -0.061506636 0.10453383
0.07261794 0.13684538 -0.617743 0.18989432 0.24014929 -0.5589348 0.22049354 0.07216196
0.036912687 -0.32119587 0.056452774 -0.22969663 0.115893126 -0.011675397 0.024084533 -0.18600376
-0.054208763 0.11014774 -0.08074482 0.27671885 -0.1704799 -0.14701037 -0.30014932 -0.12802097
-0.03829319 0.01047191 -0.23891395 0.021275636 0.053493362 0.028145589 0.50540054 -0.13517673
-0.090962626 0.13265714 0.047527734 -0.14884585 0.47218502 -0.0475316 -0.004726725 -0.31236807
-0.21380603 -0.060126342 0.20070764 -0.38457438 -0.06530714 0.014523726 -0.22263423 0.26270175
-0.1432075 0.010928445 -0.13276316 -0.8295619 0.062442135 0.43238056 -0.3471409 0.11689377
0.3387802 -0.05967421 0.094024636 0.02519036 0.12393375 0.45395318 -0.14922617 -0.23297717
-0.04097389 -0.5624974 0.06450255 -0.27751765 -0.30893198 -0.038123064 -0.041537426 -0.5991843
-0.27586275 0.12472798 -0.0014986993 0.028395435 0.039017715 0.04826687 0.06269414 -0.18390071
0.036090497 0.021707816 -0.07183229 0.16830069 0.06776758 0.11164503 -0.21279377 -0.099167734
-0.20854142 0.007929782 -0.20727785 -0.16457528 0.19542924 -0.0987387 -0.0070518847 0.05758499
-0.26864785 -0.008428096 0.0688188 -0.073767096 -0.014844307 0.2010006 0.3585094 0.42546925
0.18245964 0.040748283 0.10379413 -0.18365926 -0.064066425 -0.019798916 -0.25014666 -0.07735347
-0.007895518 0.06590129 0.070086494 0.121369995 0.0986749 0.02290173 0.16181152 -0.08083373
0.32288587 -0.23879024 0.047209185 0.10629008 -0.25959775 0.14502688 0.12166945 -0.34325415
-0.15118343 -0.0204945 -0.1296368 0.12890916 0.056739815 -0.028978603 -0.406886 0.10573912
-0.1777541 0.1994577 -0.6965914 -0.11148374 0.29763815 0.04323418 0.23757368 -0.14908506
-0.17279434 0.3364186 -0.13899499 -0.09986575 0.117916994 -0.07985677 0.068933986 0.04463021
-0.15668039 0.11452238 -0.10745682 0.065983765 -0.26530978 0.44695672 -0.23652971 -0.07220082
0.13838814 -0.082100265 -0.013466262 0.01357148 0.5711749 0.70283884 -0.08823525 0.37604645
0.021537531 1.0549563 -0.31784976 0.10282026 -0.073693976 -0.0696852 0.09036874 0.0034907
-0.10180975 0.2881112 -0.0073359897 -0.19615564 0.27462962 -0.21105431 -0.17518437 -0.018261947
0.5149644 -0.11507104 -0.32687452 0.3641818 -0.23246086 -0.057380646 0.13362774 -0.027719753
0.1541323 0.26356235 0.1888793 0.19196478 0.01345303 0.2739804 -0.31867373 0.080667555
-0.04378861 0.30131418 0.0746707 0.019921808 -0.14365128 0.1563566 0.4947801 -0.08096735
-0.42560968 0.4061462 0.25043753 0.3004768 -0.15783565 -0.051702876 -0.0457362 -0.17036532
00000000: 4234 99be 1cf1 ad3d c38d 9e3a 04f5 1abe
00000010: bfab b7bd cc3a 0d3e c2da 08bf d1b3 08be
00000020: 86ab a43d 10ee fc3d a150 b83d 89a7 283e
00000030: 3f73 17bd 2edb 143e ce50 07bc 0915 dbbd
00000040: de63 7a3c af9e 4a3e 991e 16be f68a 16be
00000050: d1a7 a13e d398 0a3f 6553 c13b 3ac3 203e
00000060: 9f43 173d 4bfa b53c 67b4 f33c 064f 873e
00000070: f491 76bc 1018 5d3e 4ea9 8abe d1e0 e03e
00000080: ccee b43c ada7 813e d979 f63d 5163 24b9
00000090: 3cf5 043d 8e8e 6f3d 62ee 7bbd d515 d63d
000000a0: b7b8 943d 3221 0c3e 6824 1ebf a873 423e
000000b0: b2e9 753e 5a16 0fbf 0fc9 613e a6c9 933d
000000c0: c231 173d c973 a4be 063b 673d 9835 6bbe
000000d0: 6059 ed3d 2a4a 3fbc ed4c c53c c577 3ebe
000000e0: 020a 5ebd 2395 e13d 8a5d a5bd 18ae 8d3e
000000f0: 4892 2ebe e389 16be 2cad 99be ee17 03be
00000100: 52d9 1cbd 6092 2b3c dca5 74be 3e4a ae3c
00000110: db1b 5b3d 9491 e63c ee61 013f c56b 0abe
00000120: 9d4a babd 46d7 073e 71ac 423d 0c6b 18be
00000130: 3cc2 f13e 7fb0 42bd a5e2 9abb b5ee 9fbe
00000140: f8ef 5abe 0a47 76bd 4e86 4d3e efe6 c4be
00000150: c0bf 85bd ecf4 6d3c 3afa 63be d880 863e
00000160: fda4 12be 380d 333c 11f3 07be 2b5e 54bf
00000170: 53c3 7f3d fc60 dd3e 74bc b1be 0066 ef3d
00000180: 9974 ad3e f26c 74bd fd8f c03d 045c ce3c
00000190: fad0 fd3d 8d6c e83e bfce 18be 9191 6ebe
000001a0: 3dd4 27bd d4ff 0fbf ea19 843d cb16 8ebe
000001b0: 552c 9ebe ee26 1cbd 2623 2abd 2464 19bf
000001c0: e23d 8dbe 6271 ff3d 0170 c4ba 8b9d e83c
000001d0: 0ad1 1f3d 7bb3 453d c965 803d 7850 3cbe
000001e0: a1d3 133d 97d4 b13c cf1c 93bd 0457 2c3e
000001f0: bbc9 8a3d 26a6 e43d 9ce6 59be 7418 cbbd
00000200: e28b 55be ebeb 013c a540 54be 6c86 28be
00000210: 9a1e 483e 8437 cabd 7f13 e7bb 3dde 6b3d
00000220: 368c 89be ff15 0abc dff0 8c3d 3413 97bd
00000230: 8935 73bc 1ad3 4d3e 8b8e b73e 1bd7 d93e
00000240: b3d6 3a3e ace7 263d 0492 d43d 2c11 3cbe
00000250: 4235 83bd 5631 a2bc 3913 80be 7f6b 9ebd
00000260: 345c 01bc 41f7 863d 8289 8f3d d590 f83d
00000270: 1116 ca3d 699c bb3c ebb1 253e 288c a5bd
00000280: 4c51 a53e 6e85 74be 6b5e 413d 9dae d93d
00000290: ffe9 84be ed81 143e d52d f93d 02bf afbe
000002a0: d4cf 1abe 15e4 a7bc 82bf 04be c300 043e
000002b0: 0268 683d 8964 edbc 5d53 d0be c08d d83d
000002c0: 2c05 36be a43e 4c3e d053 32bf 9651 e4bd
000002d0: 0764 983e 5316 313d 8446 733e c1a9 18be
000002e0: 00f1 30be 0f3f ac3e b454 0ebe 6a86 ccbd
000002f0: 777e f13d f28b a3bd 432d 8d3d 2bce 363d
00000300: d370 20be b68a ea3d 5212 dcbd 7f22 873d
00000310: afd6 87be 83d7 e43e d834 72be 06de 93bd
00000320: 9fb5 0d3e 2f24 a8bd 99a1 5cbc ea5a 5e3c
00000330: 8538 123f 3fed 333f afb4 b4bd 2989 c03e
00000340: 7a6f b03c cf08 873f 34bd a2be 6e93 d23d
00000350: deec 96bd 1db7 8ebd 3f13 b93d 3ac4 643b
00000360: a181 d0bd 5083 933e be62 f0bb 06dd 48be
00000370: 419c 8c3e 9f1e 58be 8863 33be 149a 95bc
00000380: b5d4 033f 5eaa ebbd 195c a7be 0976 ba3e
00000390: 380a 6ebe f807 6bbd b6d5 083e 8914 e3bc
000003a0: dcd4 1d3e a5f1 863e 9369 413e 6a92 443e
000003b0: 196a 5c3c 2947 8c3e 3429 a3be 0835 a53d
000003c0: af5b 33bd da45 9a3e f4ec 983d 0f33 a33c
000003d0: 5219 13be f21b 203e d153 fd3e 36d2 a5bd
000003e0: 83e9 d9be 65f2 cf3e 5939 803e 18d8 993e
000003f0: ab9f 21be 65c6 53bd e255 3bbd 3f74 2ebe

encoder_lstm.weight_hh_l0 f4 [512, 128]
0.009961156 -0.13011017 0.045247976 0.045023285 0.13864285 -0.024646517 0.04666357 -0.03795767
-0.071744524 -0.06660675 0.0548522 0.09700162 -0.07680547 -0.15991223 -0.035393458 -0.121636584
-0.035383962 -0.051455323 -0.034657657 -0.053809796 0.10804491 -0.06409762 0.042260807 -0.021488497
0.14455707 -0.19570673 0.057945937 0.05842654 -0.03359225 -0.1995992 0.1725462 0.10832664
-0.009023149 -0.11969876 0.11632909 0.13437279 -0.0949989 0.06655009 -0.016527992 0.014130668
0.04972186 -0.06144118 -0.0036775845 -0.04269254 -0.021190397 0.09209596 0.09253508 0.019198632
-0.11866889 0.07817723 0.037889585 -0.037218004 -0.0020442603 0.03972589 -0.0021188166 -0.02659776
-0.05072015 0.12208371 0.0556089 -0.03174523 -0.38469467 0.10949145 -0.14631945 -0.094401486
-0.16536623 -0.027934285 -0.05266365 -0.048853967 0.031936444 -0.06717045 -0.0055234274 -0.13939826
-0.029533492 -0.0041066487 0.08494333 0.08667134 -0.1443237 -0.010955576 0.073254935 -0.08478785
-0.087859765 -0.077842645 0.049045827 0.035461422 -0.04090779 0.010312004 0.0633167 -0.018423468
-0.053736825 0.048046023 0.050692946 -0.17908454 0.06832439 0.09993288 -0.081008695 -0.11033571
0.024205197 0.10451666 -0.124084696 0.025371093 0.049556453 -0.01550645 0.028712379 0.071112365
0.078945436 -0.05301957 0.13205679 -0.023162967 -0.1761156 0.00017044182 0.038312472 0.054129492
-0.043855723 -0.14539619 0.10319786 -0.0076391897 0.028479394 0.029265366 0.038922463 -0.017223047
0.0059789144 0.03375587 -0.12838404 -0.02657905 0.09191613 -0.008778857 0.1260523 -0.025733244
0.012781823 0.03051791 -0.06707006 0.04195157 0.13974376 -0.011523635 0.03421424 0.02246198
0.09331618 -0.018468522 0.12844834 0.022929544 -0.029163005 0.08723353 0.10796967 -0.027168872
-0.03220387 -0.009653099 0.04370555 -0.05372162 0.15683366 -0.06443538 -0.1814432 0.07534993
-0.07484214 -0.016152177 0.01849146 -0.024937995 -0.002244539 -0.0513294 -0.0054202043 -0.119511575
-0.05185765 0.075343214 -0.004907421 0.06920819 -0.08316003 0.07978487 0.23724356 0.0028667569
-0.050407168 -0.006254607 0.07825384 0.053163398 0.019980459 -0.11327816 -0.09518647 0.042178847
0.03692246 0.037096333 -0.078212865 0.087121285 0.16021195 -0.15062122 -0.058441617 0.25524622
-0.057585433 -0.16841598 0.011127572 0.08392974 -0.07880607 0.0050418163 0.041817516 0.029232055
-0.003793876 -0.010447885 0.033820182 0.06976095 0.03141343 0.09097214 0.17984577 -0.06779213
0.010614939 -0.1501121 -0.07278421 -0.050194632 -0.15507677 -0.048572775 0.0711071 0.0126603935
-0.03333611 -0.029428657 0.04151599 0.011546578 0.016693214 -0.09636227 0.0022375463 0.065091595
-0.0768207 -0.0877148 0.096746504 0.03265032 -0.06344392 0.07465866 0.08495091 0.08955957
0.029579451 0.092177466 0.031169076 0.02183579 -0.028645268 0.04245655 -0.091075666 -0.0945265
-0.03029084 -0.12865819 0.005529279 -0.032986704 0.057236843 0.03834987 -0.099461325 0.056106184
0.042001314 -0.05784538 0.015171694 -0.10796942 0.058250748 0.03133816 -0.056179617 -0.03143125
-0.031168466 -0.107228056 0.06360828 -0.030339796 0.18026337 0.039204977 0.04458859 -0.12335299
00000000: 1e34 233c 9a3b 05be f155 393d 566a 383d
00000010: 64f8 0d3e 7ee7 c9bc 4d22 3f3d 8079 1bbd
00000020: cbee 92bd 1f69 88bd b3ac 603d c9a8 c63d
00000030: 304c 9dbd 08c0 23be bbf8 10bd 9a1c f9bd
00000040: c6ee 10bd d1c2 52bd 30f5 0dbd a967 5cbd
00000050: a646 dd3d 9d45 83bd ab19 2d3d a508 b0bc
00000060: c506 143e 5867 48be b858 6d3d ab50 6f3d
00000070: 0798 09bd bc63 4cbe f3af 303e 5cda dd3d
00000080: d4d5 13bc a024 f5bd f23d ee3d 0599 093e
00000090: c98e c2bd 6a4b 883d b665 87bc 5184 673c
000000a0: 26a9 4b3d bfa9 7bbd a103 71bb 5fde 2ebd
000000b0: 7c97 adbc cf9c bc3d 0883 bd3d 7346 9d3c
000000c0: ad08 f3bd 621b a03d 1c32 1b3d e871 18bd
000000d0: fff8 05bb 9db7 223d d8db 0abb 8ce3 d9bc
000000e0: efbf 4fbd 0607 fa3d 28c6 633d 4907 02bd
000000f0: b3f6 c4be 0e3d e03d c4d4 15be 9155 c1bd
00000100: c455 29be 71d6 e4bc d7b5 57bd 191b 48bd
00000110: cacf 023d a990 89bd defd b4bb 6bbe 0ebe
00000120: 39f0 f1bc 1191 86bb c5f6 ad3d be80 b13d
00000130: 98c9 13be 047f 33bc af06 963d 41a5 adbd
00000140: d2ef b3bd f76b 9fbd 47e4 483d ff3f 113d
00000150: ed8e 27bd aef3 283c 30ac 813d d0ec 96bc
00000160: 251b 5cbd e8cb 443d 68a3 4f3d f061 37be
00000170: a8ed 8b3d 9ca9 cc3d e3e7 a5bd b0f7 e1bd
00000180: fa49 c63c d50c d63d 1e20 febd 0ad7 cf3c
00000190: b5fb 4a3d c40e 7ebc 3936 eb3c 5ca3 913d
000001a0: 25ae a13d 0c2b 59bd e539 073e 43c0 bdbc
000001b0: a657 34be a1b8 3239 8aed 1c3d e3b6 5d3d
000001c0: 0fa2 33bd bde2 14be 6659 d33d 2b52 fabb
000001d0: 9e4d e93c ecbd ef3c 296d 1f3d 5917 8dbc
000001e0: c5ea c33b 9843 0a3d 1b77 03be 4fbc d9bc
000001f0: 863e bc3d 32d5 0fbc db13 013e 86ce d2bc
00000200: da6a 513c b200 fa3c 075c 89bd 69d5 2b3d
00000210: fd18 0f3e a1cd 3cbc 3b24 0c3d 3002 b83c
00000220: 8e1c bf3d 4c4b 97bc f687 033e bdd6 bb3c
00000230: 41e7 eebc 7ea7 b23d 341f dd3d 4191 debc
00000240: 35e8 03bd 0828 1ebc 9704 333d 340b 5cbd
00000250: 0199 203e b2f6 83bd 3fcc 39be 1051 9a3d
00000260: d646 99bd 9251 84bc 677b 973c c44a ccbc
00000270: 1e19 13bb c73e 52bd f89b b1bb 7cc2 f4bd
00000280: b068 54bd 8b4d 9a3d 6ece a0bb 06bd 8d3d
00000290: ce4f aabd 4066 a33d faef 723e 33e0 3b3b
000002a0: bf77 4ebd 72f3 ccbb 8d43 a03d ddc1 593d
000002b0: 0fae a33c 61fe e7bd 20f1 c2bd bac3 2c3d
000002c0: 013c 173d 53f2 173d 112e a0bd a56c b23d
000002d0: 9a0e 243e 733c 1abe 7a60 6fbd a2af 823e
000002e0: b4de 6bbd 3d75 2cbe 6b50 363c 5be3 ab3d
000002f0: 1465 a1bd d235 a53b d848 2b3d 1078 ef3c
00000300: ada2 78bb 9b2d 2bbc 0887 0a3d d4de 8e3d
00000310: 5eab 003d 9a4f ba3d 7d29 383e 9ad6 8abd
00000320: 48ea 2d3c fdb6 19be e30f 95bd e398 4dbd
00000330: 72cc 1ebe 3ff4 46bd 99a0 913d 8a6d 4f3c
00000340: 728b 08bd 5e14 f1bc ac0c 2a3d dc2d 3d3c
00000350: 35c0 883c 9559 c5bd cca3 123b be4e 853d
00000360: 2c54 9dbd d1a3 b3bd 0823 c63d 58bc 053d
00000370: e3ee 81bd a4e6 983d befa ad3d 026b b73d
00000380: 9b50 f23c 8ac7 bc3d 4a56 ff3c f8e0 b23c
00000390: 7ba9 eabc ebe6 2d3d e185 babd 1c97 c1bd
000003a0: 7f24 f8bc f9be 03be f42e b53b 111d 07bd
000003b0: 2e71 6a3d c114 1d3d 61b2 cbbd 99cf 653d
000003c0: 9209 2c3d 47ef 6cbd b292 783c 121f ddbd
000003d0: 5698 6e3d 715c 003d 991c 66bd 0ebe 00bd
000003e0: 0355 ffbc 629a dbbd 0f45 823d 2a8b f8bc
000003f0: f696 383e 6695 203d 86a2 363d 7ea0 fcbd

encoder_lstm.bias_ih_l0 f4 [512]
0.0531773 -0.0336176 0.029941566 0.07798503 0.12209733 -0.05273493 0.056048356 -0.06761111
-0.040126506 -0.05236157 0.0496041 -0.0128121 0.029689927 0.07304372 0.09434664 0.14438586
0.03852108 0.016152143 0.017454578 -0.052364096 0.011808368 -0.079360895 0.02654379 0.18380648
-0.021368217 0.2049703 0.06554661 -0.06377249 0.21122947 0.33272383 0.08301651 0.054098777
-0.06402069 0.08360629 -0.045184907 0.23942195 0.037991952 0.019084768 0.1788371 -0.06790323
-0.0008220903 0.021994106 -0.026523296 0.081142604 0.028958073 0.19046274 0.11063756 0.23151506
0.06056897 -0.0545315 0.20330097 -0.0060507986 0.19152354 0.0643936 0.11365679 0.12079402
0.06828435 0.04893189 0.02325977 -0.07026454 0.32479426 -0.03761845 0.14208333 0.30896607
0.1327062 0.17227024 0.0050528864 0.026248004 0.15289164 0.40330267 0.15576583 0.18253297
0.100053005 0.050057877 0.18879479 -0.08656415 0.38984516 -0.013297368 0.056385458 0.03685745
0.007170166 0.028200274 0.033352938 -0.0070202895 -0.10194523 -0.118082605 -0.023027135 0.17350459
0.019479757 0.025687296 -0.027061826 0.24390881 0.07958341 0.12113526 0.071707584 0.2717004
0.5367816 0.11887195 0.062205866 0.10865825 -0.015482269 -0.0076469327 0.13095808 0.11674288
0.03983974 0.12109749 -0.009119127 0.169887 0.12716165 -0.076542504 0.10477725 -0.080848515
0.07284841 -0.020006455 0.12536496 -0.12127294 0.10741342 0.19096231 0.20599853 -0.09259816
-0.077349134 -0.07226953 0.14802259 0.08090596 0.17705798 -0.03440289 -0.058567453 0.2946111
-0.058656957 -0.0030847457 0.044978686 -0.08203045 0.13424881 0.02175096 -0.06072339 -0.085261256
0.06824768 0.023882229 -0.034413774 0.03768733 0.016498988 -0.05895544 0.067790926 0.028187262
-0.093214646 -7.915728e-05 -0.0923816 -0.0681054 -0.06514455 0.022707317 -0.004017848 0.042223845
-0.04620439 0.15465948 0.046259467 0.009546103 -0.01564392 -0.036747575 0.05144124 -0.032928508
-0.09587854 -0.021460319 -0.04184104 -0.03340343 -0.09188927 -0.001248252 -0.11076065 0.010262071
-0.102323845 0.06076894 -0.07746062 0.09262741 0.10277183 0.09101051 -0.015013195 -0.03720604
0.07268144 -0.032823756 -0.038997382 -0.06259511 0.09485922 -0.018437536 -0.08282608 0.17066014
0.060216423 -0.022168308 -0.024701972 -0.07028551 -0.14295532 0.03454037 0.1410188 0.17190826
-0.03413398 -0.101091824 0.025178334 -7.73658e-05 -0.10249026 -0.16919766 0.12996309 0.047668956
0.06384382 -0.0072564683 0.018492434 -0.084322095 -0.038760595 -0.06022322 0.12466499 -0.08352001
0.053706028 -0.05553299 -0.11851665 -0.02620778 -0.060652044 -0.051048692 0.033828907 -0.10363601
0.014508405 0.06672625 -0.034558844 0.010540979 -0.011035887 0.010850325 -0.13305703 0.023905002
-0.022664255 -0.04136097 0.08356433 -0.016679676 -0.051332697 -0.067019306 -0.054943588 0.0037800213
-0.059711453 0.030061476 0.016162736 0.18420313 0.030912431 -0.066337354 -0.01789504 -0.01451338
0.08682197 0.09356217 -0.008007755 0.030068347 0.0064280657 -0.05104424 0.18682796 0.017187074
-0.08741318 0.043283835 0.0401855 -0.049137086 0.010178246 -0.0776735 -0.1334959 -0.072540104
00000000: 71d0 593d 9cb2 09bd 0448 f53c 9eb6 9f3d
00000010: 2a0e fa3d 9500 58bd f692 653d b277 8abd
00000020: b15b 24bd 1679 56bd ab2d 4b3d d8e9 51bc
00000030: 4a38 f33c f297 953d d038 c13d e3d9 133e
00000040: 48c8 1d3d 8051 843c e7fc 8e3c bc7b 56bd
00000050: e377 413c f787 a2bd 5d72 d93c c437 3c3e
00000060: 660c afbc bce3 513e 4d3d 863d 279b 82bd
00000070: 8a4c 583e c75a aa3e 8f04 aa3d ae96 5d3d
00000080: 481d 83bd c639 ab3d cf13 39bd 072b 753e
00000090: 739d 1b3d a957 9c3c 1321 373e d910 8bbd
000000a0: 8c81 57ba fc2c b43c 6247 d9bc 182e a63d
000000b0: 7b39 ed3c aa08 433e f295 e23d 4912 6d3e
000000c0: 2b17 783d 6c5c 5fbd 212e 503e c745 c6bb
000000d0: bf1e 443e cbe0 833d e4c4 e83d db62 f73d
000000e0: aad8 8b3d ce6c 483d 468b be3c dbe6 8fbd
000000f0: 6f4b a63e ce15 1abd 4b7e 113e cd30 9e3e
00000100: 22e4 073e 9c67 303e af92 a53b 0e06 d73c
00000110: a08f 1c3e b07d ce3e 1481 1f3e ece9 3a3e
00000120: 97e8 cc3d 7d09 4d3d 6c53 413e 8c48 b1bd
00000130: c999 c73e 34dd 59bc 70f4 663d d6f7 163d
00000140: b6f3 ea3b 4304 e73c 179d 083d 750a e6bb
00000150: a9c8 d0bd 4bd5 f1bd 67a3 bcbc 30ab 313e
00000160: 0394 9f3c 2a6e d23c c3b0 ddbc 3bc3 793e
00000170: a0fc a23d c315 f83d 6ddb 923d 511c 8b3e
00000180: 856a 093f 2373 f33d 94cb 7e3d 3788 de3d
00000190: 58a9 7dbc 1f93 fabb e019 063e e416 ef3d
000001a0: ff2e 233d f601 f83d 6468 15bc dcf6 2d3e
000001b0: aa36 023e 51c2 9cbd 7495 d63d e893 a5bd
000001c0: 8c31 953d 94e4 a3bc ac5f 003e f25d f8bd
000001d0: 91fb db3d a08b 433e 47f1 523e 1ba4 bdbd
000001e0: 3969 9ebd 0c02 94bd 3c93 173e 06b2 a53d
000001f0: b04e 353e 0bea 0cbd 6de4 6fbd 44d7 963e
00000200: 4742 70bd 7229 4abb 923b 383d 95ff a7bd
00000210: 8578 093e 122f b23c 17b9 78bd 749d aebd
00000220: 71c5 8b3d aaa4 c33c 75f5 0cbd 085e 1a3d
00000230: e328 873c 427b 71bd f8d5 8a3d f9e8 e63c
00000240: 52e7 bebd 3e01 a6b8 9032 bdbd d87a 8bbd
00000250: 816a 85bd b204 ba3c 27a8 83bb e9f2 2c3d
00000260: d040 3dbd 0e5f 1e3e 917a 3d3d 4267 1c3c
00000270: ae27 80bc a084 16bd 0db4 523d 0be0 06bd
00000280: f85b c4bd 8dcd afbc 8361 2bbd 09d2 08bd
00000290: 7130 bcbd 639c a3ba 7bd6 e2bd 3f22 283c
000002a0: 2a8f d1bd dae8 783d aca3 9ebd 71b3 bd3d
000002b0: 0a7a d23d b863 ba3d e7f9 75bc 5c65 18bd
000002c0: 02da 943d 3472 06bd b8bb 1fbd dd31 80bd
000002d0: 8d45 c23d 510a 97bc b8a0 a9bd 88c1 2e3e
000002e0: 7fa5 763d 509a b5bc ca5b cabc d9f1 8fbd
000002f0: e162 12be 347a 0d3d 3b67 103e b808 303e
00000300: 12d0 0bbd 3b09 cfbd cb42 ce3c 733f a2b8
00000310: 6ae6 d1bd 2742 2dbe 0b15 053e 8640 433d
00000320: 8cc0 823d abc7 edbb 727d 973c 10b1 acbd
00000330: 6ec3 1ebd a0ac 76bd 5c50 ff3d 8a0c abbd
00000340: dafa 5b3d 8f76 63bd dbb8 f2bd b3b1 d6bc
00000350: 476e 78bd 6f18 51bd 2e90 0a3d 1e3f d4bd
00000360: a9b4 6d3c c6a7 883d 938d 0dbd 12b4 2c3c
00000370: ddcf 34bc 90c5 313c 1a40 08be 6cd4 c33c
00000380: 63aa b9bc 1f6a 29bd c723 ab3d d1a3 88bc
00000390: 3c42 52bd 6b41 89bd 870c 61bd 3cba 773b
000003a0: ff93 74bd 7c43 f63c b767 843c bf9f 3c3e
000003b0: 113c fd3c e1db 87bd 9e98 92bc 87c9 6dbc
000003c0: b8cf b13d 869d bf3d f532 03bc e551 f63c
000003d0: 86a2 d23b c413 51bd d44f 3f3e e8cb 8c3c
000003e0: ae05 b3bd 644a 313d 8d99 243d f843 49bd
000003f0: a8c2 263c 4913 9fbd 26b3 08be e88f 94bd

encoder_lstm.bias_hh_l0 f4 [512]
-0.030988188 -0.049730305 0.1546557 0.06948443 0.28088215 -0.05769317 -0.024161631 -0.1147985
0.01207874 0.02303671 -0.053314958 -0.06580565 -0.05996434 0.050433133 0.017550528 0.11227596
0.16033675 -0.05056562 -0.0024245696 -0.101285905 0.0039867563 -0.0053411163 0.08017051 0.16438998
-0.07037489 0.11949007 -0.033129416 -0.039343465 0.20833474 0.33664733 0.011230587 0.05331338
-0.027449483 0.02890005 -0.019787474 0.31826088 0.012471396 -0.054971777 0.101313345 -0.06665411
0.017122658 0.08825146 -0.09436224 0.14482756 0.049887955 0.2159107 0.04105555 0.12104587
0.071736336 -0.0060546794 0.2207644 0.056242384 0.10586247 0.014418327 0.03830939 0.20022623
0.07978598 -0.0027354015 0.062421627 0.09380689 0.38233018 0.064615026 0.17634328 0.30144042
0.059556894 0.03358642 -0.11167269 -0.018465541 0.07035626 0.5438885 0.17084517 0.28260124
0.029716158 0.056818757 0.040420838 -0.029239273 0.3438035 0.113231614 -0.0058369706 -0.07346941
-0.05337164 -0.035514016 -0.0074453717 0.012945198 0.013646592 -0.07196452 -0.032606505 0.19410403
0.047253244 0.05150292 -0.013289995 0.07763548 -0.027677042 0.045473717 0.07137548 0.2501914
0.5521123 0.19166861 0.013286012 0.20809475 0.07017725 -0.04800604 0.178381 0.024099825
0.027029874 0.23666841 0.0991571 0.24124515 0.05188416 -0.076271065 -0.010106513 0.022227975
0.0759356 0.04325055 0.07616964 -0.13803297 0.029191598 0.11798848 0.3205902 -0.03902744
0.042195432 0.009580545 0.04646484 -0.009790156 0.24866535 -0.036907263 0.037522748 0.20457374
-0.08720512 -0.06258653 -0.011736495 0.028191097 0.13536309 -0.106984675 0.022801694 0.010350499
0.009076162 0.06141902 0.08886595 -0.031531833 0.08097689 -0.0024445404 0.095649846 0.07571988
-0.0747851 -0.0075800647 -0.08483862 -0.07043655 0.04356426 -0.013527713 -0.022718556 0.1381441
-0.009218336 0.13041508 -0.090363696 -0.04725743 -0.12568678 -0.11363121 -0.06578293 -0.08874361
0.055764798 0.04620455 -0.060052376 -0.050096773 -0.052112106 -0.033570796 -0.12952754 0.00069308595
0.05394357 -0.041217294 0.055070147 0.042017814 0.11267792 0.022310425 -0.03124511 0.041016743
-0.074493445 0.011665109 -0.09630823 -0.032056533 -0.043873962 -0.06434262 -0.03933191 0.06474249
-0.014302728 -0.053599913 -0.015825126 0.025525305 -0.18487056 -0.07661397 0.056560203 0.20586492
-0.019759485 -0.007817927 -0.09335225 -0.007081305 -0.03297116 -0.13620989 0.06714783 -0.0727153
0.06926077 0.09949685 0.018561227 -0.10115455 -0.07744362 0.0755377 -0.006844374 0.0240855
0.051022097 0.060615096 -0.09408417 -0.005537203 0.0012899695 0.044721942 0.0094593 -0.21660602
0.06213335 -0.046505503 -0.04647578 -0.015316566 -0.02536998 -0.037713204 -0.071019664 0.0851027
-0.092218295 -0.068856515 -0.05947389 0.025965119 0.076719925 -0.02970231 0.01913438 -0.084846124
-0.07854063 0.080341116 -0.030397005 0.24019131 -0.017215742 -0.028604336 -0.058954284 0.004260867
0.08050649 -0.06445514 -0.025971334 -0.08722972 0.109620444 0.11247159 0.075976506 -0.0285358
0.024214186 -0.081593804 -0.002743406 -0.08760308 -0.028518658 -0.105211 -0.09615402 -0.17768951
00000000: f1da fdbc 01b2 4bbd 105e 1e3e da4d 8e3d
00000010: c9cf 8f3e ac4f 6cbd 9dee c5bc 7a1b ebbd
00000020: e8e5 453c 7cb7 bc3c c960 5abd 1dc5 86bd
00000030: 2b9d 75bd f992 4e3d 20c6 8f3c f0f0 e53d
00000040: 512f 243e e51d 4fbd 87e5 1ebb fc6e cfbd
00000050: 56a3 823b 8804 afbb 7030 a43d d955 283e
00000060: b620 90bd 36b7 f43d b6b2 07bd 9d26 21bd
00000070: b455 553e 0a5d ac3e 7f00 383c 215f 5a3d
00000080: bddd e0bc ccbf ec3c 5719 a2bc 17f3 a23e
00000090: d354 4c3c 162a 61bd 5f7d cf3d f381 88bd
000000a0: d144 8c3c 2ebd b43d fd40 c1bd ad4d 143e
000000b0: 5057 4c3d b217 5d3e dd29 283d e6e6 f73d
000000c0: 80ea 923d 5566 c6bb 1010 623e 6a5e 663d
000000d0: 6cce d83d d93a 6c3c 4fea 1c3d 1b08 4d3e
000000e0: d566 a33d 6c44 33bb d2ad 7f3d d41d c03d
000000f0: c8c0 c33e e254 843d 5593 343e 6656 9a3e
00000100: eef1 733d ea91 093d a7b4 e4bd 0c45 97bc
00000110: f116 903d 473c 0b3f 09f2 2e3e 1cb1 903e
00000120: 4d6f f33c c9ba 683d 5290 253d 3387 efbc
00000130: 0307 b03e fae5 e73d 0f44 bfbb 2177 96bd
00000140: 399c 5abd 2577 11bd 4ef8 f3bb 1918 543c
00000150: f595 5f3c 2262 93bd 668e 05bd 35c3 463e
00000160: 9e8c 413d baf4 523d 47be 59bc 5aff 9e3d
00000170: f7ba e2bc a642 3a3d 4f2d 923d 1619 803e
00000180: 3b57 0d3f c744 443e 93ad 593c ca16 553e
00000190: 17b9 8f3d fba1 44bd 82a9 363e ff6c c53c
000001a0: c16d dd3c 3459 723e e112 cb3d f808 773e
000001b0: 7c84 543d 0134 9cbd ca95 25bc 7117 b63c
000001c0: 2084 9b3d 7d27 313d d4fe 9b3d 8458 0dbe
000001d0: 3823 ef3c f2a3 f13d 6624 a43e 3ddb 1fbd
000001e0: 1ed5 2c3d b8f7 1c3c eb51 3e3d e466 20bc
000001f0: 21a2 7e3e 122c 17bd 74b1 193d c77b 513e
00000200: 9998 b2bd 5e2d 80bd 6e4a 40bc 04f1 e63c
00000210: 9f9c 0a3e c81a dbbd 9eca ba3c 2495 293c
00000220: 2fb4 143c 8392 7b3d 5aff b53d 8627 01bd
00000230: 36d7 a53d 9534 20bb 11e4 c33d 0613 9b3d
00000240: ee28 99bd 3162 f8bb dfbf adbd 0a41 90bd
00000250: 7070 323d 57a3 5dbc 441c babc a675 0d3e
00000260: 8108 17bc 888b 053e 9a10 b9bd 0291 41bd
00000270: 09b4 00be 7bb7 e8bd 33b9 86bd 36bf b5bd
00000280: a169 643d fb40 3d3d 7bf9 75bd 4632 4dbd
00000290: 8173 55bd 8881 09bd dea2 04be 36b0 353a
000002a0: eff3 5c3d 77d3 28bd 3c91 613d df1a 2c3d
000002b0: aec3 e63d 5ac4 b63c bff5 ffbc 2c01 283d
000002c0: 0590 98bd 031f 3f3c 403d c5bd b64d 03bd
000002d0: 2fb5 33bd 10c6 83bd 7f1a 21bd b697 843d
000002e0: fd55 6abc 958b 5bbd b2a3 81bc 721a d13c
000002f0: b54e 3dbe c9e7 9cbd acab 673d 41ce 523e
00000300: a5de a1bc c316 00bc 772f bfbd 4b0a e8bb
00000310: c40c 07bd 9b7a 0bbe cd84 893d c2eb 94bd
00000320: 97d8 8d3d 01c5 cb3d b70d 983c 1e2a cfbd
00000330: c39a 9ebd 82b3 9a3d c546 e0bb f44e c53c
00000340: 8cfc 503d 8947 783d 34af c0bd 6d71 b5bb
00000350: 3214 a93a 5b2e 373d 2efb 1a3c f8cd 5dbe
00000360: 8a7f 7e3d 8e7c 3ebd 635d 3ebd 56f2 7abc
00000370: b4d4 cfbc 2979 1abd c272 91bd 534a ae3d
00000380: f2dc bcbd a504 8dbd e59a 73bd cdb4 d43c
00000390: 561f 9d3d 4252 f3bc b4bf 9c3c cec3 adbd
000003a0: e9d9 a0bd e289 a43d 2403 f9bc b6f4 753e
000003b0: 0708 8dbc a453 eabc 0c7a 71bd be9e 8b3b
000003c0: 96e0 a43d 0e01 84bd d6c1 d4bc 7fa5 b2bd
000003d0: af80 e03d 8157 e63d 9299 9b3d e9c3 e9bc
000003e0: d45c c63c a71a a7bd b7ca 33bb 3e69 b3bd
000003f0: f69f e9bc dd78 d7bd 66ec c4bd 3df4 35be

encoder_attn.weight f4 [1, 296]
-0.029702043 0.047375597 -0.0387453 -0.028591994 0.0133346105 0.042626195 0.013466802 -0.0255557
0.041955963 0.037072204 -0.013130819 0.044217408 -0.026947264 0.051048044 0.02587828 0.025700763
0.024391972 -0.0087316865 -0.041603625 -0.016999379 -0.04785417 -0.050733965 -0.008851559 0.031514246
-0.0046107094 0.026176037 0.04653988 0.02173887 -0.03028876 0.057996005 0.034526587 -0.00091604015
0.03728075 0.038147226 -0.0028728563 -0.014388447 0.0076382924 -0.0577713 -0.052841514 0.010800524
-0.024133788 0.006912568 -0.04785117 0.024732213 0.042246755 -0.040783703 -0.0020114568 -0.029523341
0.001657439 0.029262234 0.05402089 -0.025991214 0.0033846756 -0.024405656 -0.028928166 0.035066873
-0.021305984 -0.057180267 -0.05787786 -0.03538017 0.052182008 0.034322 0.019756472 0.040297206
-0.030807626 0.036533117 0.032533955 -0.050398987 0.01752218 0.040914763 0.01632018 0.04788968
-0.027658913 -0.013902444 0.037868824 0.012171304 0.056177028 0.034588628 0.04752782 0.03318283
0.04545303 -0.000921721 -0.003809416 -0.029199323 0.01223442 0.051598173 -0.030412978 0.01439894
-0.017309854 0.005774629 0.017436514 -0.030058945 0.050466385 0.052706387 -0.0123165995 -0.034477677
-0.02796729 0.017475352 -0.037738904 0.057396334 -0.05774873 -0.015003534 0.021515379 -0.04035025
-0.054363128 0.032626376 0.0463082 -0.034351233 0.017292595 0.0011101367 -0.015551177 0.03957802
0.025067983 0.015632758 -0.031445134 0.05299309 -0.029183986 0.049879834 -0.0547275 -0.023559954
0.006115466 -0.04749625 -0.050573703 -0.05720742 0.026455082 0.045918293 -0.007519613 0.008672082
-0.03349535 -0.039460428 0.019792583 0.04217549 -0.047951207 -0.028755935 0.034045875 -0.025727486
-0.018417753 0.014550414 -0.056996565 0.0122109335 0.05535972 -0.049817774 -0.014357511 -0.023907123
-0.04835746 -0.0077524334 -0.01609147 0.05165097 0.039399922 0.044059575 0.0041609104 0.02643191
0.04517111 -0.04385842 -0.0016296362 -0.013679468 0.05537247 -0.020324212 -0.0051723975 -0.0316113
-0.016815359 -0.044147413 -0.03625676 -0.051543348 0.03955981 0.046581108 -0.036298733 -0.02080196
0.043020252 -0.02330609 -0.007964089 -0.019872032 0.025983661 0.052890856 -0.021855041 0.004269434
-0.0027097797 0.024443543 -0.049053248 -0.0031784165 -0.033554286 -0.031742897 0.006370601 0.041497707
0.026167711 -0.03378304 0.00041783828 0.053194255 -0.023728369 -0.037067868 0.05217805 0.007460299
0.013022784 -0.0054722275 -0.01344953 -0.041792378 0.012535596 -0.03959545 0.05650841 -0.0055591557
0.01212969 0.04189042 0.015564454 -0.04081627 0.018416198 0.005521491 -0.03649667 0.045341562
-0.020960666 -0.023822088 -0.048461 -0.027951231 -0.00929227 -0.030982686 0.018862013 0.0038102798
-7.2021605e-05 -0.021702489 -0.011455517 -0.025794387 -0.032810133 0.007724648 0.05661583 0.023546064
0.027458547 -0.0118062245 -0.037519023 0.04155108 0.03650469 0.042223975 0.037554298 -0.0071334024
-0.020110255 -0.012464121 0.014975036 0.016126862 0.013278398 -0.016674776 0.04618213 -0.029005626
-0.056070082 0.013563976 -0.044797108 -0.05747489 0.036518198 0.029850336 -0.021326035 -0.016232634
0.017360903 -0.02776469 -0.035967797 0.021450322 0.029327324 -0.03306074 0.023028042 0.034928665
00000000: b351 f3bc ea0c 423d 64b3 1ebd c239 eabc
00000010: 6979 5a3c ce98 2e3d dda3 5c3c 305a d1bc
00000020: 04da 2b3d 06d9 173d a622 57bc 501d 353d
00000030: 82c0 dcbc c117 513d b0fe d33c 688a d23c
00000040: acd1 c73c 590f 0fbc 9068 2abd 4842 8bbc
00000050: bc02 44bd 6bce 4fbd 2106 11bc 1515 013d
00000060: 6f15 97bb 216f d63c 9aa0 3e3d b715 b23c
00000070: 2220 f8bc 388d 6d3d c06b 0d3d 6a22 70ba
00000080: b3b3 183d 4440 1c3d 8846 3cbb 85bd 6bbc
00000090: a44a fa3b 99a1 6cbd 5870 58bd aef4 303c
000000a0: 39b4 c5bc d382 e23b 97ff 43bd 369b ca3c
000000b0: ef0a 2d3d d00c 27bd a5d2 03bb efda f1bc
000000c0: 6d3e d93a 5ab7 ef3c 0245 5d3d 87eb d4bc
000000d0: 6fd1 5d3b 5fee c7bc c3fa ecbc 48a2 0f3d
000000e0: e389 aebc db35 6abd 5611 6dbd ccea 10bd
000000f0: cdbc 553d 3a95 0c3d 53d8 a13c af0e 253d
00000100: 4660 fcbc c0a3 153d 5342 053d 2b6f 4ebd
00000110: ad8a 8f3c 3d96 273d e6b1 853c f827 443d
00000120: f294 e2bc 14c7 63bc 571c 1b3d 266a 473c
00000130: e219 663d ceac 0d3d 88ac 423d b8ea 073d
00000140: f52c 3a3d a69f 71ba 65a7 79bb 6b33 efbc
00000150: e072 483c 9b58 533d a324 f9bc 88e9 6b3c
00000160: 65cd 8dbc 1939 bd3b 05d7 8e3c 2d3e f6bc
00000170: d7b5 4e3d a7e2 573d 90cb 49bc 7738 0dbd
00000180: a81b e5bc 7828 8f3c 1c94 1abd 6b18 6b3d
00000190: ef89 6cbd 62d1 75bc 0541 b03c 4e46 25bd
000001a0: dfab 5ebd 3ca3 053d abad 3d3d e1b3 0cbd
000001b0: 33a9 8d3c 0282 913a 5dca 7ebc 901c 223d
000001c0: 5f5b cd3c 4510 803c 9dcc 00bd 480f 593d
000001d0: 4113 efbc cc4e 4c3d f129 60bd ce00 c1bc
000001e0: 3f64 c83b 6e8b 42bd 5f26 4fbd 5452 6abd
000001f0: 54b8 d83c d214 3c3d 1667 f6bb 5915 0e3c
00000200: 6c32 09bd 42a1 21bd 0e24 a23c 35c0 2c3d
00000210: 7c68 44bd 9191 ebbc b073 0b3d 73c2 d2bc
00000220: d4e0 96bc dc64 6e3c 3b75 69bd 5e10 483c
00000230: e0c0 623d b90d 4cbd c43b 6bbc dfd8 c3bc
00000240: 7912 46bd 2008 febb 42d2 83bc f88f 533d
00000250: d061 213d d077 343d 3f58 883b bc87 d83c
00000260: 5805 393d e3a4 33bd 8499 d5ba d91f 60bc
00000270: 3ece 623d f67e a6bc 377d a9bb da7a 01bd
00000280: 5dc0 89bc ebd3 34bd f881 14bd 1e1f 53bd
00000290: 7809 223d d5cb 3e3d fbad 14bd df68 aabc
000002a0: 0136 303d 6aec bebc cf7b 02bc acca a2bc
000002b0: b0db d43c 15a4 583d 5809 b3bc 9ce6 8b3b
000002c0: 8f96 31bb d33d c83c 0fec 48bd fb4c 50bb
000002d0: 3870 09bd d704 02bd 79c0 d03b 80f9 293d
000002e0: ab5d d63c 1660 0abd 4e11 db39 38e2 593d
000002f0: ff61 c2bc 7ad4 17bd a7b8 553d 8675 f43b
00000300: 845d 553c 5f50 b3bb 6b5b 5cbc 7c2e 2bbd
00000310: 1a62 4d3c d72e 22bd 5d75 673d 9429 b6bb
00000320: 9bbb 463c 4a95 2b3d 0d02 7f3c f62e 27bd
00000330: 91dd 963c a0ed b43b 887d 15bd 13b8 393d
00000340: b4b5 abbc 8a26 c3bc 0b7f 46bd fbf9 e4bc
00000350: 9b3e 18bc 67cf fdbc 8284 9a3c e3b5 793b
00000360: 4e0a 97b8 6bc9 b1bc ecaf 3bbc c04e d3bc
00000370: eb63 06bd 0b1f fd3b 00e6 673d ade3 c03c
00000380: bff0 e03c e56e 41bc 8cad 19bd 7731 2a3d
00000390: f185 153d 0cf3 2c3d 89d2 193d 51bf e9bb
000003a0: 43be a4bc 5036 4cbc da59 753c 7b1c 843c
000003b0: a38d 593c 8a99 88bc 7929 3d3d 359d edbc
000003c0: bea9 65bd 703b 5e3c 2c7d 37bd ca6a 6bbd
000003d0: 1b94 153d b188 f43c f0b3 aebc 4dfa 84bc
000003e0: 7438 8e3c c672 e3bc f852 13bd 96b8 af3c
000003f0: db3f f03c b36a 07bd 4ea5 bc3c 5c11 0f3d

exp_avg f4 [7, 7]
0.0 0.0 0.0 0.0 0.0 0.0 0.0 0.0
-6.09696e-07 0.0 0.0 0.0 0.0 0.0 0.0 0.0
-6.6592484e-08 0.0 0.0 0.0 0.0 0.0 0.0 0.0
-1.644437e-07 0.0 0.0 0.0 0.0 0.0 0.0 0.0
-9.991741e-08 0.0 0.0 0.0 0.0 0.0 0.0 0.0
-1.0934868e-07 0.0 0.0 0.0 0.0 0.0 0.0 0.0
-2.352955e-07
00000000: 0000 0000 0000 0000 0000 0000 0000 0000
00000010: 0000 0000 0000 0000 0000 0000 0000 0000
00000020: fda9 23b5 0000 0000 0000 0000 0000 0000
00000030: 0000 0000 0000 0000 0000 0000 0000 0000
00000040: 9b01 8fb3 0000 0000 0000 0000 0000 0000
00000050: 0000 0000 0000 0000 0000 0000 0000 0000
00000060: f191 30b4 0000 0000 0000 0000 0000 0000
00000070: 0000 0000 0000 0000 0000 0000 0000 0000
00000080: 2d92 d6b3 0000 0000 0000 0000 0000 0000
00000090: 0000 0000 0000 0000 0000 0000 0000 0000
000000a0: 13d3 eab3 0000 0000 0000 0000 0000 0000
000000b0: 0000 0000 0000 0000 0000 0000 0000 0000
000000c0: 89a5 7cb4

exp_avg_sq f4 [7, 7]
0.0 0.0 0.0 0.0 0.0 0.0 0.0 0.0
8.036314e-12 0.0 0.0 0.0 0.0 0.0 0.0 0.0
5.47348e-13 0.0 0.0 0.0 0.0 0.0 0.0 0.0
5.870752e-14 0.0 0.0 0.0 0.0 0.0 0.0 0.0
6.437261e-13 0.0 0.0 0.0 0.0 0.0 0.0 0.0
1.0997889e-12 0.0 0.0 0.0 0.0 0.0 0.0 0.0
7.303219e-13
00000000: 0000 0000 0000 0000 0000 0000 0000 0000
00000010: 0000 0000 0000 0000 0000 0000 0000 0000
00000020: 5760 0d2d 0000 0000 0000 0000 0000 0000
00000030: 0000 0000 0000 0000 0000 0000 0000 0000
00000040: 9410 1a2b 0000 0000 0000 0000 0000 0000
00000050: 0000 0000 0000 0000 0000 0000 0000 0000
00000060: 9532 8429 0000 0000 0000 0000 0000 0000
00000070: 0000 0000 0000 0000 0000 0000 0000 0000
00000080: 5b31 352b 0000 0000 0000 0000 0000 0000
00000090: 0000 0000 0000 0000 0000 0000 0000 0000
000000a0: 12c8 9a2b 0000 0000 0000 0000 0000 0000
000000b0: 0000 0000 0000 0000 0000 0000 0000 0000
000000c0: 3d91 4d2b

exp_avg f4 [7]
0.0 -3.9467517e-07 -5.7732287e-08 -1.6891347e-07 -8.816643e-08 -1.6626076e-07 -2.2985452e-07
00000000: 0000 0000 bee3 d3b4 52f5 77b3 955e 35b4
00000010: 0256 bdb3 6985 32b4 eecd 76b4

exp_avg_sq f4 [7]
0.0 7.238478e-12 4.455697e-13 5.745303e-14 2.5960047e-13 1.173943e-12 7.2825426e-13
00000000: 0000 0000 6aae fe2c 5cd5 fa2a 6b5f 8129
00000010: 5f24 922a c137 a52b 40fc 4c2b
