weights_new/EncoderEpochnew850_20_8.pt (torch_old, 862531 bytes, 27 tensors)

gamma_x_l.weight f4 [7, 7]
000000 87 e7 4e be 26 43 43 3e 90 95 ac 3c 48 6a 1f bd
       -0.20205508 0.19068584 0.02106741 -0.038919717
000010 42 47 64 be 00 7e af ba 0a 30 60 3e 80 2a 33 bb
       -0.22292808 -0.0013388991 0.21893325 -0.0027338564
000020 0a 6c 97 be ae 34 28 3e d8 30 ec 3d a3 03 25 be
       -0.29574615 0.16426346 0.11532754 -0.16114669
000030 72 58 0c 3e 40 48 6e bd fb 45 95 3e 9c c8 ab be
       0.13705614 -0.05817437 0.29154953 -0.3355149
000040 73 d4 8c be 2b e5 84 3e da af 9b be 3a 5c 49 3e
       -0.27505836 0.2595609 -0.30407602 0.19664088
000050 99 0f b3 3e d6 34 b9 be 88 70 fc bd 78 7a fa bd
       0.34972838 -0.36173123 -0.12326151 -0.1223039
000060 e5 f8 c4 3f 1a 7a a1 be 43 30 9f 3e 88 24 bf 3d
       1.5388457 -0.3153847 0.31091508 0.0933314
000070 35 2c a8 3e 53 e4 4b be e9 62 5c be f1 0c 91 be
       0.32846227 -0.19911318 -0.21522106 -0.28330186
000080 38 60 5c 3f f1 2c 38 be a2 11 78 3e fe 35 55 3e
       0.8608432 -0.17985894 0.24225476 0.20821378
000090 90 79 58 3d 30 f2 c1 bc 9e 69 8b be f2 70 a4 be
       0.052850306 -0.023675054 -0.27229017 -0.3211742
0000a0 a1 ea b9 3f 66 33 77 3e f4 13 ab be 20 b9 54 3c
       1.4524728 0.241407 -0.3341366 0.01298359
0000b0 9d 4a 87 be 90 9d 23 bd de f2 11 3e 20 26 93 be
       -0.26424113 -0.039945185 0.14252803 -0.28740025
0000c0 8d 03 85 be
       -0.25979272

gamma_x_l.bias f4 [7]
000000 c4 4a aa be de b8 85 3e 68 ab 79 bd 65 9a 46 3f
       -0.33260167 0.26117605 -0.06095448 0.7757934
000010 9f e7 55 3f d0 7e 82 3f a0 d7 2e bd
       0.8355655 1.019495 -0.042686105

gamma_h_l.weight f4 [128, 7]
000000 59 73 a6 3e 64 d9 76 3e 72 e4 fb 3d 0b ad bd 3d
       0.32509878 0.24106365 0.12299432 0.09261521
000010 93 4b a1 be 4c cd b5 3e 1d 09 ff 3d c9 b4 99 3e
       -0.3150297 0.35508192 0.1245291 0.3002074
000020 cc 53 97 3e cd fd 9a 3e f6 ad b1 3e 0e dc 50 be
       0.2955612 0.3027176 0.34703034 -0.20396444
000030 11 4d 8a 3e 6d fd d7 be 2d eb 57 be 28 cb ad be
       0.27011922 -0.42185536 -0.21085806 -0.33944058
000040 d8 50 02 be 2b 13 31 be 84 42 a8 bd a0 08 8b bc
       -0.12726152 -0.17292468 -0.08215812 -0.016971886
000050 5b d0 71 be 74 66 75 be a1 47 bd be 78 11 e4 bd
       -0.23614638 -0.23964864 -0.3696871 -0.111361444
000060 80 4c be be ab 61 a9 3e 17 69 b1 be 80 d3 73 bd
       -0.3716774 0.33082327 -0.3465049 -0.059527874
000070 1a da b3 3e 22 d5 dc be a5 42 81 3e fe 24 bc be
       0.35127336 -0.43131357 0.25246158 -0.36746973
000080 a0 73 03 3c 4e a3 9c 3e ec 97 85 3e ba cf a1 3d
       0.008023173 0.30593342 0.2609247 0.07900949
000090 d8 5a 0f 3d 2f 4b c2 3d 34 8e 9e bd 8c 2e 50 3e
       0.034998745 0.094869964 -0.07741967 0.20330256
0000a0 f0 cd 86 3e 2b 54 c4 be 41 8f fc be ab 1c b4 3b
       0.26328993 -0.38345465 -0.49328044 0.0054965816
0000b0 67 75 e2 bc 94 76 53 3e b4 8b 5a 3e 72 44 89 3e
       -0.027643872 0.20650703 0.21342355 0.26810032
0000c0 ac 96 e1 3d b8 ed a6 bb e1 89 4e 3e 68 d8 93 be
       0.110150665 -0.0050942563 0.20169784 -0.28876042
0000d0 bd a7 b7 be 8c ec a8 3e 04 32 9e be 76 04 9f be
       -0.35870162 0.3299297 -0.30897534 -0.3105809
0000e0 e3 19 8a be d1 4f 41 be d5 ed ca bd 2a 08 0c 3e
       -0.26972875 -0.18878104 -0.09908644 0.1367499
0000f0 33 85 ac be 30 e3 9e 3e a9 dc a1 be a6 43 15 3d
       -0.33695373 0.31032705 -0.31613663 0.036441468
000100 a1 43 07 3d 80 23 9e bc 82 d6 a7 be 11 26 45 3c
       0.03302348 -0.019304037 -0.32780844 0.0120330015
000110 41 9c 47 bd 42 f1 59 3e a4 b8 91 bd 4e bb a1 be
       -0.048733 0.21283439 -0.071152955 -0.31588215
000120 c4 c0 bd be 04 75 b5 be 68 94 ca bd 4a 21 01 3e
       -0.3706113 -0.35440838 -0.098915875 0.12610355
000130 07 ba 0e be b9 9f 01 3e c3 e3 f3 3d a4 e4 bf bc
       -0.13938151 0.12658586 0.119086765 -0.023424454
000140 d7 4e 84 be ae e4 dd be f2 ba ee 3e a0 bf 82 3d
       -0.258414 -0.4333853 0.46627003 0.06384206
000150 92 a9 aa be 80 c4 8c bd f4 86 fb bd 9a 3b 97 be
       -0.33332497 -0.06873417 -0.122816 -0.2953766
000160 6b d4 87 3e 78 07 82 be a6 cc 14 3e ca 8b 9b be
       0.2652925 -0.25396323 0.14531192 -0.30380088
000170 92 3a 10 be 31 6b 63 be e4 1d b2 bd 14 fb 79 be
       -0.14084843 -0.22208859 -0.086971074 -0.24412185
000180 7e 8a 5f 3e 48 54 e0 bd 52 1b 08 3f 5d 04 c3 3e
       0.21830174 -0.109535754 0.5316669 0.38089266
000190 90 f9 0d be 9d 6b da 3e d6 95 85 be 8b 18 7a be
       -0.13864732 0.42660227 -0.26090878 -0.24423425
0001a0 7f 0c 5e be a4 82 97 3e 8a cc 66 be 93 8e 89 3e
       -0.21684454 0.29591858 -0.22538963 0.26866588
0001b0 26 8a 48 be c7 5a 05 be 37 cf a3 be ae f5 5b be
       -0.1958395 -0.1302291 -0.3199403 -0.21480438
0001c0 89 e7 01 be be 49 23 be ed 4b 65 3e 3d 09 b5 be
       -0.1268598 -0.15946099 0.22392245 -0.3535861
0001d0 76 1c 63 3e a2 e1 6c 3d 60 4b 8f 3e 19 bb 05 3f
       0.22178826 0.057832368 0.27987194 0.52238613
0001e0 75 32 40 be 61 c2 b6 3e e8 56 3b be 72 36 f9 3d
       -0.18769248 0.35695174 -0.18294871 0.12168588
0001f0 f8 aa be bd 8f 69 86 be b6 9e 5d 3e 09 de 83 be
       -0.093099535 -0.2625241 0.21642575 -0.25755337
000200 fa 47 52 3d 89 20 c9 bd ff 37 c6 3d 4d 41 77 3e
       0.051338173 -0.09820659 0.09678649 0.24146004
000210 8e fb 9d 3e 42 f7 91 3e aa 0c 5d 3d df 08 b5 3c
       0.30855983 0.28508955 0.053967156 0.022098957
000220 a8 bc 8a be 41 4c 38 be 19 d3 23 3a 9b 73 34 be
       -0.27097058 -0.17997839 0.00062494125 -0.17622225
000230 ab 24 bd 3e eb fe 04 be 04 4a bb 3e 29 4e 0a bd
       0.36942038 -0.12987868 0.36579907 -0.033765946
000240 b7 0d af bd 1d eb 44 be f9 48 69 3e 77 00 5f 3e
       -0.08547538 -0.19230314 0.22781743 0.21777521
000250 32 96 d1 3d 4e 9c ba 3d b6 fb af be 2c 95 39 3d
       0.102337256 0.09111844 -0.34371728 0.045308277
000260 94 22 02 3f 9f 6e 97 be 40 d0 8b 3e 59 bf 83 3c
       0.5083401 -0.29576585 0.2730732 0.016082453
000270 11 ee ed 3c 9c 40 ae 3d b7 e5 00 3e 8b de 9a bc
       0.029044183 0.08508417 0.1258763 -0.018904945
000280 f9 0b 5e 3e b4 33 82 be 7e 7f c7 3e b9 93 21 bd
       0.21684255 -0.2543007 0.38964456 -0.03944752
000290 68 e6 cc 3e 80 de 2d be 27 14 b5 3e e6 44 9d 3e
       0.40019536 -0.16979408 0.35366938 0.30716628
0002a0 82 ad 63 3c 04 f9 df 3d 98 b2 7a be 46 6e 39 3e
       0.013896348 0.10936168 -0.2448219 0.18108472
0002b0 a2 77 37 be 32 23 c2 3e f5 8a a3 3e fc cb 21 bd
       -0.1791673 0.37917477 0.31941953 -0.039501175
0002c0 fe cb 7b be 89 77 31 be a5 b5 1e 3f 3e 4a c4 3e
       -0.24589536 -0.17330755 0.6199592 0.38337892
0002d0 3d 58 bb 3d d7 45 c1 3d 3e 80 27 be f0 2d 4e be
       0.091476895 0.09437149 -0.16357514 -0.20134711
0002e0 74 79 3a be 68 fd c7 bc 39 55 21 be 9c ea 04 3e
       -0.18210393 -0.024412826 -0.15755166 0.12980121
0002f0 fe 1a a6 bc d0 63 4f bd bd f0 b7 be e9 d7 11 be
       -0.020276543 -0.050632298 -0.35925856 -0.1424252
000300 81 65 ac 3e 57 64 b6 3e 1d d1 ba 3e ff a8 ef be
       0.3367119 0.35623428 0.36487666 -0.4680862
000310 e6 a3 a6 be 20 d6 40 3d f4 59 3d be 3c 0b 87 3d
       -0.3254692 0.047079206 -0.18491346 0.0659394
000320 00 e9 fc bb a6 53 c0 be 9e 58 1f be 8f 47 4c be
       -0.0077182055 -0.3756382 -0.15561149 -0.19949172
000330 9f f1 df 3e 1f 86 9c be ea 61 e8 3e d7 6c 61 3d
       0.4373903 -0.30571076 0.45387203 0.05503544
000340 85 12 d8 3e 25 1e b9 be 33 c2 0e 3e ce 99 ae be
       0.4220163 -0.3615581 0.13941269 -0.3410172
000350 76 0f c6 be 49 65 61 be 63 d7 c1 3d 26 20 22 3e
       -0.3868367 -0.22011293 0.0946491 0.15832576
000360 b8 27 2a 3c c0 41 ad be f0 70 da bd df d1 c0 bd
       0.010385446 -0.33839226 -0.10666072 -0.0941503
000370 2a ec 02 3e 84 74 88 be 20 76 0e 3e 11 08 d1 bc
       0.12785402 -0.26651394 0.13912249 -0.025516542
000380 1e 4a 00 bd 59 a4 bb 3e 10 6a a5 be a4 75 f7 bd
       -0.031320684 0.36648825 -0.32307482 -0.12082985
000390 a1 7b 30 3e 2b 12 80 3c 34 ed 8a be f4 59 ce be
       0.1723466 0.015633663 -0.27134097 -0.40303004
0003a0 d1 e5 1d 3c d4 f4 8a be 97 56 a3 3e 6d 72 a5 3e
       0.009637312 -0.27139914 0.31902 0.32313862
0003b0 6f 1a 49 be 00 3c b3 3e 5c 7a 0f 3f a9 73 62 be
       -0.1963899 0.35006714 0.5604608 -0.22114433
0003c0 23 00 22 3d ad 78 26 3e c1 c9 84 3d 66 40 dc be
       0.03955091 0.16256972 0.06483794 -0.43017882
0003d0 ab 1b 59 3e 80 5f 12 3e 65 de c6 3e 3c 0c 7a 3e
       0.2120196 0.14294243 0.3884155 0.2441873
0003e0 dc 5b 06 3c 41 bc c2 3e cf fa 71 3e d1 49 f2 be
       0.008200612 0.3803425 0.23630832 -0.47321942
0003f0 6c c0 42 3e 3e 5a c2 be 72 43 4a be 1a c5 c8 be
       0.19018716 -0.37959474 -0.19752291 -0.39212877

gamma_h_l.bias f4 [128]
000000 47 eb 53 be e2 7f 86 3e 87 d2 82 be 58 b7 15 bd
       -0.2069522 0.26269442 -0.25551245 -0.036551803
000010 17 cc 12 bd 75 b0 af 3c 7e 77 3f bd c0 d6 9c 3e
       -0.035839166 0.021446446 -0.046744816 0.3063259
000020 0f fd df 3d a6 28 93 3e fa 99 69 be fc 8c a7 be
       0.10936939 0.2874195 -0.22812644 -0.3272475
000030 8c b6 9f 3d 4b a9 89 3e e6 78 87 bd e9 20 c1 3d
       0.0779849 0.26886973 -0.066148564 0.09430105
000040 76 f4 54 3e 69 7c 3a be 60 2a c0 be b1 f3 c3 3e
       0.2079638 -0.18211521 -0.3753233 0.3827186
000050 3f b5 ee 3d fb f5 8c be 19 fe f0 3c b9 c7 54 be
       0.11655664 -0.27531418 0.029418038 -0.20779313
000060 19 50 ae bd 56 f6 62 be a7 81 ab 3e c3 b2 aa 3e
       -0.08511371 -0.22164282 0.33497354 0.3333951
000070 01 0e ae 3e 59 f9 26 3e ce 55 e7 be a0 a6 90 3e
       0.3399506 0.16306056 -0.4518265 0.28252125
000080 de c4 f6 3e da 70 4f 3e f3 0f 9f be 68 fa 0c be
       0.48197073 0.20257893 -0.31066856 -0.13767397
000090 73 3a 94 be c9 5d b7 3e f9 d5 53 3e 3e 80 d5 bd
       -0.28950843 0.3581374 0.20687093 -0.10424851
0000a0 89 08 b9 3d 7c 82 a4 bd 29 ef 8b be b8 89 57 bd
       0.09034831 -0.080327004 -0.27330902 -0.052621573
0000b0 8e 3d c2 bd 96 a2 8c 3a 06 d3 d5 bc 14 50 16 be
       -0.09484397 0.0010729607 -0.0261016 -0.14678985
0000c0 ae fa 9f 3d bd 98 83 3e 1c 9b 7d 3e d1 a2 b2 be
       0.07811485 0.25702468 0.24766201 -0.34889844
0000d0 f8 40 cb be 07 94 34 3e 03 7b 9c 3c 92 91 c5 bd
       -0.39698005 0.17634593 0.019101625 -0.09646906
0000e0 84 8f 5d bd 20 7c 58 3e fa ce 9b 3e 0a ac 6a 3e
       -0.054091945 0.211411 0.30431348 0.2291719
0000f0 d5 65 8b 3d 5f 4d 71 bd e6 93 d4 3e ec 6f 34 be
       0.06806532 -0.058911677 0.41519088 -0.1762082
000100 d1 87 8a be c6 1d df 3d dc ab 1c 3e c5 9d ac bd
       -0.27056745 0.10894351 0.15299934 -0.0842853
000110 bf be 70 3e 84 d3 84 be 30 2e d1 bd 33 62 55 be
       0.23510264 -0.25942624 -0.10213888 -0.20838241
000120 56 e0 8e be 5b 7a 2d be 30 1b 90 3e bd d9 63 3e
       -0.2790553 -0.16941206 0.28145742 0.2225103
000130 fc c2 92 3d f5 59 ba 39 c3 f4 61 be 03 83 df bc
       0.071660966 0.00035543708 -0.22066025 -0.027284151
000140 08 18 15 be 5b 87 a8 be d4 90 de 3d a3 5d c7 3e
       -0.14559948 -0.32915768 0.108674675 0.38938627
000150 07 86 4f be 19 c7 26 be 01 3d 03 bd e5 8b 7d 3d
       -0.20265971 -0.16286887 -0.0320406 0.061900992
000160 48 e5 89 be 27 e7 43 3d 5c ab c0 3e aa 32 67 be
       -0.2693274 0.047827866 0.37630737 -0.2257792
000170 50 3b e9 3d 85 76 3b be 0d 1d bc be 99 dc e2 3d
       0.11388266 -0.1830693 -0.36740914 0.11077232
000180 da b9 00 3e 36 f1 a9 be dc 44 6d 3e c8 78 0a bd
       0.12570897 -0.33191842 0.23170799 -0.033806592
000190 2e 14 38 3e 35 1f bd be 74 b6 72 bd 94 29 99 be
       0.17976448 -0.36937872 -0.059256032 -0.29914534
0001a0 f0 82 67 3e a0 04 2a be 88 bf 37 3d 05 a5 8a 3e
       0.22608542 -0.16603327 0.044860393 0.27079025
0001b0 64 fc a1 be 76 2e 5e be 12 bc 2d 3c f9 c8 c0 be
       -0.3163787 -0.21697411 0.0106039215 -0.3765333
0001c0 70 5b bb 3c d5 a0 99 3e 8c b2 cb bd c7 e9 02 3e
       0.02287075 0.30005518 -0.099461645 0.12784491
0001d0 48 39 32 3e 0a 18 28 3e 9b 77 7d bd 81 fe 83 bc
       0.17404664 0.1641542 -0.061881643 -0.016112568
0001e0 6e 2a 04 3e 79 0c bb be 71 e4 65 bd 50 5f 2d bd
       0.1290681 -0.36532953 -0.05612606 -0.042327225
0001f0 b6 80 ce be e8 50 e7 3e 82 50 96 3e 22 4b ba be
       -0.40332574 0.45178914 0.29358298 -0.36385447

encoder_lstm.weight_ih_l0 f4 [512, 7]
000000 36 df 1e be da 76 02 bc 88 f0 bd 3d c0 df 03 3f
       -0.15514836 -0.007962907 0.09274393 0.5151329
000010 b9 f0 02 3d 11 2b 40 bd fb c5 03 bf 78 0b 79 3e
       0.031967852 -0.04691607 -0.5147397 0.24320781
000020 be 0e ea bc cd 8a aa be 95 8b eb be dd 72 37 3e
       -0.028571483 -0.33309022 -0.4600493 0.1791491
000030 15 80 87 3d d9 61 15 3b 2f 32 7e bd ab 2f f3 bd
       0.066162266 0.0022793917 -0.062059578 -0.11874326
000040 ee 29 94 3d 7a 47 a2 3f 06 e7 01 bd f0 8f 43 be
       0.0723456 1.2678063 -0.03171446 -0.19097877
000050 bc 0f a2 3d 76 4b c3 be ed 5f ad 3e b3 20 81 bd
       0.07913157 -0.3814351 0.33862248 -0.06305065
000060 92 23 46 3f af 8e 39 3e 6a 3b fa be 6c cd 2f be
       0.77398026 0.18120836 -0.48873454 -0.17168206
000070 95 63 cd 3d d9 7f a9 3e 0e a9 e4 3e 38 fc 19 bd
       0.100287594 0.33105353 0.44660228 -0.03759405
000080 5c e6 db 3e 16 a9 04 be bc 02 fc 3e 57 66 06 3e
       0.42949188 -0.12955126 0.49220836 0.13124977
000090 86 8a 03 3e 60 f8 1e bd ce 5d 28 bf 52 e0 f7 3d
       0.12845811 -0.038811088 -0.65768135 0.121033326
0000a0 61 c5 51 3d d6 0e 02 3e 9f 75 42 3e c2 7b e0 3d
       0.051213626 0.12700972 0.18990181 0.10961105
0000b0 91 80 a7 3e 8e 08 f0 3e a9 cf d3 3d 50 46 0d 3d
       0.32715276 0.46881527 0.103423424 0.034490883
0000c0 70 f4 6c 3e 1c 4d 24 3e cc 34 f9 3b 78 71 4b 3e
       0.2314012 0.1604504 0.007605171 0.19867504
0000d0 71 ca 3d be e8 ef 20 3e e7 cd dd 3e 92 2a 77 3e
       -0.18534257 0.15716517 0.43321154 0.24137333
0000e0 96 4c 16 be 6b 42 66 3c 4b dd 86 3d eb f9 0c 3f
       -0.14677653 0.014053921 0.06585177 0.55068845
0000f0 07 38 80 3d 77 32 ae 3d 12 7f 2c 3e f7 2b f0 3c
       0.06260686 0.08505719 0.16845348 0.02931784
000100 d1 5d 2b bd 6c 95 8c 3e 38 93 29 bd b9 aa f3 3d
       -0.041837517 0.2745775 -0.041400164 0.11897797
000110 68 30 2b 3e 7a 2e 24 3e 54 6d a2 be 23 01 80 3d
       0.16717684 0.16033354 -0.31724036 0.06250217
000120 22 71 cd 3e ac fe 32 3e 8e e9 6f 3e e7 15 11 bf
       0.40125376 0.17479962 0.23428938 -0.56674045
000130 6b eb f7 3c c9 78 27 3e 83 3d 78 3d af 1f 16 3f
       0.030263623 0.1635467 0.060605537 0.58642095
000140 20 94 55 3f 89 3a 01 3f 62 2d b7 3d ff f1 50 3f
       0.83429146 0.5047994 0.08944203 0.81619257
000150 1d a4 ec 3e 1d 98 8f 3e 64 0e 24 3f 65 d9 83 3e
       0.46218958 0.2804574 0.6408446 0.25751796
000160 8d 4d 4f 3e ae ce 56 3e d5 a6 78 3e 7a d2 65 bc
       0.20244427 0.2097728 0.24282391 -0.014027232
000170 55 17 ad 3d 87 7c 1a 3e 4e 7d 1d be 59 8e 57 b7
       0.08451716 0.15086566 -0.15379831 -1.28481415e-05
000180 82 5a f1 3d 1a 10 20 3d b5 49 e9 bd 28 f8 5f bb
       0.11784841 0.039077856 -0.113910116 -0.0034175012
000190 c5 f7 b7 3e 07 5e 53 3f 03 0a 40 3e 6e 19 a0 be
       0.3593122 0.8256535 0.18753819 -0.312694
0001a0 2f f3 1c 3f 70 8e d1 be 38 b1 6f be 7f e1 ff bd
       0.6130857 -0.40928984 -0.23407447 -0.12494182
0001b0 4e 95 b7 bc df 8c b3 3d d8 5a dd be 18 3d 19 be
       -0.022410061 0.087671034 -0.4323337 -0.14964712
0001c0 bc ec ad be c8 e5 03 be 78 c1 ca 3b 81 63 12 bf
       -0.33969676 -0.12880623 0.006187614 -0.5718308
0001d0 56 5a 02 3e dd 84 b0 be 9e 11 84 3e 8a ec a8 3d
       0.12729773 -0.34476367 0.2579469 0.08248241
0001e0 22 62 02 3e 48 58 53 3e 7a ac 42 3e 57 56 94 3e
       0.12732747 0.20639145 0.19011107 0.28972122
0001f0 72 bc bb bd 88 3b 09 be 4b e2 9c 3e 19 53 31 3e
       -0.091668025 -0.13401616 0.30641398 0.17316855
000200 06 70 11 3e 3b 32 0b 3e 42 97 83 bc ce 41 90 3d
       0.1420289 0.1359338 -0.016063336 0.07043801
000210 54 c8 0e 3e 67 2f b0 3c 16 2b 4f bd 0b 3c f7 bd
       0.13943607 0.021506978 -0.0505782 -0.12071999
000220 2d 3a b4 3e 46 e8 39 3d 0b 29 03 be e2 64 79 3d
       0.35200635 0.04538753 -0.12808625 0.060887225
000230 93 c0 bd 3e 73 5b 67 3e f6 2f 7e 3d 1a 94 ab be
       0.37060985 0.22593479 0.062057458 -0.3351143
000240 bf 3c 72 3e 9d 74 65 3d af ea 8c 3e 65 16 d8 bc
       0.23655985 0.056019414 0.275228 -0.026377866
000250 41 fd a4 bd a5 f0 83 be 17 c9 06 3f 2f 17 5c bc
       -0.08056117 -0.25769535 0.5265059 -0.013433262
000260 3a d1 ea bd 0a 27 7b 3e e0 68 14 be 26 e3 aa bd
       -0.11465688 0.24526611 -0.14493132 -0.083441064
000270 26 bb dd bd 72 90 2a be b2 d4 ec bc 33 14 d8 be
       -0.10826711 -0.16656664 -0.028910015 -0.4220291
000280 26 e6 87 bd 60 ee a0 3e ea 98 af bc 5f b9 b3 bd
       -0.06635694 0.31431866 -0.02143522 -0.08775591
000290 34 5e fc 3d ec 87 27 3e b8 b2 23 be ec 0a 4f 3e
       0.12322655 0.16360444 -0.15986145 0.2021901
0002a0 08 a8 79 3e 1c 9b 37 3d b3 bb 4a be 55 47 9b be
       0.24380505 0.04482566 -0.19798164 -0.3032786
0002b0 ab bd 40 3e cb 72 20 bd d3 86 c5 bd f4 c8 99 be
       0.18822353 -0.039171975 -0.09644856 -0.30036128
0002c0 ce d6 b3 bd f2 eb 11 39 4f 7c ac 3e e0 6b 2a 3d
       -0.08781205 0.00013916174 0.3368859 0.041606784
0002d0 bf 20 f1 be ec f3 32 3d 5c f9 02 be 2f f6 7a 3e
       -0.47095296 0.043689653 -0.12790436 0.24507974
0002e0 bb ad c3 3e be 32 7c 3f 26 ae f5 3d fc c0 3e be
       0.38218483 0.98514926 0.11996107 -0.18628305
0002f0 2d 40 5a 3e 77 b3 c8 3d e6 20 42 3e 03 89 cc 3e
       0.21313544 0.09799855 0.18957862 0.39948282
000300 db 12 b3 bf 1c 30 6e 3e 52 f0 0f 3f 48 d1 12 bd
       -1.3990129 0.2326054 0.56226075 -0.035844117
000310 16 5e db 3e 3c d9 9a 3e 87 83 b2 3e 68 e3 1a 3f
       0.4284522 0.30243862 0.34865972 0.60503244
000320 9b 6c 8f 3e 95 8b ac 3e 8d e6 82 3e 79 e6 a1 ba
       0.28012547 0.33700243 0.2556652 -0.0012352011
000330 4d 92 c5 3d 08 7a ec bd 67 18 ef 3d d7 cd 71 3d
       0.09647045 -0.11546713 0.11674576 0.059034195
000340 86 40 91 3e ae a9 cd bc a9 55 0d be 0b fe 68 3d
       0.2836954 -0.025105324 -0.13802208 0.0568829
000350 38 49 c9 3e 4e 98 35 bf ca 64 d0 3e 25 43 ba bd
       0.39313674 -0.70935524 0.40701896 -0.09094838
000360 92 05 af 3e 8a 3f 45 3e 18 25 d7 bc 0f 3f 79 3e
       0.34183937 0.1926252 -0.026262805 0.24340461
000370 22 66 24 3c 57 f5 4b 3e 28 4b 75 bd 1e c3 be bd
       0.010034116 0.19917808 -0.059886128 -0.093145594
000380 89 f0 3b bf 4a 88 19 3d 50 76 83 be 05 fa 3f be
       -0.734139 0.03748349 -0.25676203 -0.18747719
000390 62 95 85 3d 0d bf c3 bd 43 3a 6b be 31 65 17 be
       0.06522633 -0.095579244 -0.22971444 -0.14784695
0003a0 ff cd d2 3c 17 12 bc bd 0c 61 19 3f df a6 ae 3e
       0.025732992 -0.09183138 0.59913707 0.34111688
0003b0 6c 01 df be 1d 08 80 3c b9 13 8c 3e bd f3 df 3e
       -0.43555772 0.015628869 0.27358797 0.43740645
0003c0 92 68 bf be 09 81 6f 3e 2d 2d e4 3d 7f 5e 08 3f
       -0.37384468 0.23389067 0.11141429 0.5326919
0003d0 35 cd 1b 3f f2 a9 b7 be 06 bb 0a 3e a5 f1 7b 3d
       0.60859996 -0.35871845 0.13547906 0.061509747
0003e0 a1 6b 76 3e 82 85 3d 3e 6f e9 70 be 60 63 26 be
       0.24064495 0.1850796 -0.23526548 -0.16248846
0003f0 39 ab d4 3d b8 99 86 3e ff 76 88 3e 94 a8 4d bf
       0.10384221 0.26289153 0.26653287 -0.80335355

encoder_lstm.weight_hh_l0 f4 [512, 128]
000000 5b 91 b3 bd c2 18 04 3e 09 14 d1 be b4 15 20 be
       -0.08767959 0.1290007 -0.40835598 -0.15633279
000010 2a f2 19 3d f8 29 8e be 64 67 9a 3c b2 77 e6 3e
       0.03758446 -0.27766395 0.018848129 0.45013195
000020 a3 3a 77 bc a0 a4 a0 3e d0 da 05 be c6 4c 44 3e
       -0.015089664 0.313756 -0.13071752 0.19169912
000030 ae 7e 59 bd d6 e8 5d be b5 a4 ff bc ed 87 d9 bd
       -0.053099327 -0.21670851 -0.031206468 -0.10621629
000040 6c 08 82 bd 1f de 19 3e 62 ac a3 bd 24 51 72 be
       -0.063492626 0.15026139 -0.07991864 -0.23663765
000050 8a 84 41 be fe 37 97 bd 0a 0f 4d bc f5 2e 5b 3d
       -0.18898216 -0.073837265 -0.012515793 0.05351158
000060 d8 e3 ad bd 63 5c dc bb f1 11 c3 bd e4 3b c6 3e
       -0.08490723 -0.0067248805 -0.095249064 0.38717568
000070 b0 97 d0 bc bb 58 d3 3d d3 c2 37 be b1 88 12 bd
       -0.025462955 0.10319658 -0.17945413 -0.03577489
000080 4b fa 41 3d d1 1a 02 3e 17 05 db bd c6 1d 3f be
       0.04735784 0.12705542 -0.1069433 -0.18663701
000090 b6 16 a0 3e 9f 5c f5 bd da 73 1f be 58 05 2f 3e
       0.31267327 -0.11980557 -0.15571538 0.17091882
0000a0 d8 76 86 3d c6 93 18 3e b9 62 6e bd d0 b8 78 3d
       0.065656364 0.14900121 -0.058199618 0.060723126
0000b0 f2 82 8e 3e 20 31 44 3e ad 9b af 3d 2e b2 73 bd
       0.27834278 0.19159365 0.08574615 -0.059496097
0000c0 c2 36 90 3d 74 6b df 3c 98 59 3e 3e 51 64 59 3d
       0.07041694 0.027272917 0.18588865 0.053074185
0000d0 8a 10 b7 3e 33 07 1f 3e c1 0e 2e 3e 4c a7 7f 3e
       0.35754806 0.1553009 0.16997816 0.24966162
0000e0 88 ed 28 3e 45 8e 5a bd 9f 8d c6 3d 39 dd ad bd
       0.16496861 -0.053358335 0.09694981 -0.084894605
0000f0 d2 13 e2 be e2 10 e0 bd 91 e3 bd 3d 25 a6 b6 bd
       -0.44155747 -0.1094072 0.092719205 -0.08918408
000100 26 e3 a5 3d fd 80 b0 3d d3 35 3b bd 75 22 00 be
       0.08099966 0.086183526 -0.045705628 -0.12513144
000110 e3 26 ae be 09 ab d0 3d e0 13 5e 3e 46 0d bf 3d
       -0.34014043 0.10188872 0.21687269 0.093287036
000120 fc 3c 4c 3d e6 6b 7f bd 9a 9e ea bd 38 4f b1 3a
       0.049862847 -0.06235876 -0.11456032 0.0013527637
000130 a1 9c 84 bd 8d e4 69 3c 07 60 f9 bd 34 98 d8 bc
       -0.06475187 0.014275682 -0.12176519 -0.026439764
000140 76 38 6c 3d 01 af 22 be eb 58 b2 3c 48 57 0c be
       0.057671033 -0.15887071 0.021770915 -0.1370517
000150 2e e5 9b 3d 5f 3e 16 3f 0d c3 9e 3e f1 7c 48 bd
       0.07612072 0.5868892 0.31008187 -0.04894728
000160 80 88 eb bd c1 66 dd bc 63 b9 4d bc 39 5a 31 be
       -0.11500645 -0.027026536 -0.012556407 -0.17319573
000170 8c 6c 90 b9 cb c7 17 be 2b f0 26 be 99 61 d9 3d
       -0.00027546694 -0.14822309 -0.16302554 0.106143184
000180 db 69 18 be 02 0b 32 3d 94 7d 89 be 5c 0a 50 3e
       -0.1488413 0.04346753 -0.2685362 0.20316452
000190 9b 42 1d 3e 69 cc d0 bc ee 88 d5 3d 70 d8 bd 3c
       0.15357439 -0.025488095 0.10426508 0.023174495
0001a0 f0 4e 87 bd 60 16 e2 3c 63 6e ae 3c 18 79 1f 3d
       -0.06606853 0.02759856 0.02129287 0.038933843
0001b0 fe 02 4d 3d f8 7c 79 be a0 10 e3 3d f6 39 bc be
       0.05005168 -0.24364078 0.11087155 -0.3676297
0001c0 1e ba 4d 3e da e0 41 be 6a bf aa 3d 7b d7 1a bb
       0.2009053 -0.1893343 0.083372906 -0.0023626972
0001d0 e6 4d 89 3e 34 ff 9b bd 94 e3 90 3d c0 d9 b2 be
       0.26817244 -0.076170355 0.07074657 -0.34931755
0001e0 a1 b1 b5 bd 83 3d 0a 3e eb 71 f8 bd 3c 6e 93 3e
       -0.08871771 0.13500027 -0.12131103 0.2879504
0001f0 6f 40 8e bd 59 a6 18 3e bd 35 8d bd c8 8f 51 be
       -0.069458835 0.14907207 -0.068950154 -0.20465004
000200 3d 27 79 3d 3f 05 73 3d d9 ff 90 3d db ff 66 3e
       0.060828436 0.059331175 0.07080049 0.22558539
000210 95 16 b8 bd 64 55 d3 3e 09 39 12 3e 24 6b 0d bf
       -0.08988682 0.41276085 0.1427957 -0.5524161
000220 de bb 56 3d 3a d4 c8 bd af 13 84 3e ce 3b 58 be
       0.052425258 -0.09806104 0.25796267 -0.21116564
000230 d7 4f a2 bd 98 cb 69 3e 1d ff 3d 3e 47 b5 35 bd
       -0.079253845 0.22831571 0.18554349 -0.044362333
000240 85 72 c4 bd c1 aa ac bd aa eb cb 3c 27 ac 7a 3e
       -0.09592155 -0.08431006 0.024892647 0.24479733
000250 71 86 ad 3d 35 fd 42 be 1c 78 0a 3e 6b 6e dd bd
       0.08472908 -0.19041903 0.1352238 -0.10812076
000260 4e 39 aa 3d cc 11 ba bc 4f 18 02 3f bb 61 a0 be
       0.08311711 -0.022713564 0.5081834 -0.31324562
000270 bb 88 8e 3e 63 95 df bd 8d 7f 0a 3c 77 65 3f 3e
       0.27838692 -0.10917165 0.008453262 0.1869105
000280 73 6e 5e bd c9 27 2b 3e 79 ef d8 bd 8c cb fe 3a
       -0.05430455 0.16714396 -0.10592551 0.0019439324
000290 96 76 dd bc 7c f9 54 3d 60 8c 8d be 91 b5 1e 3c
       -0.027034085 0.05199574 -0.2764616 0.0096868435
0002a0 1b 8d ab bd d0 64 51 be 06 bb 9a bc f1 ad e3 ba
       -0.08376523 -0.20448613 -0.018888008 -0.0017370564
0002b0 1e d3 47 be f5 15 83 bd 3d 6e 39 3d ce 3a a5 3b
       -0.19514129 -0.06400672 0.045271147 0.0050424105
0002c0 80 6f 4a be 9d f8 28 bd dd 77 01 be f4 2b f8 bc
       -0.19769096 -0.04125272 -0.1264338 -0.030294396
0002d0 30 7c c9 bc ca ba 71 be e0 8f a4 bd d9 2d 27 be
       -0.02459535 -0.2360641 -0.080352545 -0.16326083
0002e0 46 c5 a0 3d e1 65 43 3d 25 47 09 3e b0 b2 3f be
       0.07850127 0.04770458 0.13406046 -0.18720508
0002f0 ca ca a6 3e e9 98 11 bc f5 6a e1 3c f7 cf 62 bc
       0.3257659 -0.008886554 0.027516821 -0.013843528
000300 0d 35 95 be aa 8f 3a be 0c fe 06 be f3 ea 05 3b
       -0.29142037 -0.18218866 -0.13182849 0.002043423
000310 07 c7 4e 3e 91 3a 14 be 9f 5c 13 3c 9d 15 a6 3d
       0.2019311 -0.14475466 0.008994251 0.08109591
000320 3f ff c5 bc e9 31 a8 bc 3f 5a 04 3e ca 30 26 bd
       -0.024169562 -0.020531612 0.12925051 -0.040573873
000330 de c5 d4 3d 6f 34 9b bd 30 4e e7 3c fd 7d dc bc
       0.10389303 -0.0757836 0.028235525 -0.026915545
000340 7a 98 15 3e 82 f6 1c be 75 f1 15 bd 86 a6 43 3d
       0.14608946 -0.1532841 -0.036607224 0.04776623
000350 c9 98 23 3d a5 04 b5 be 06 77 54 be f0 c3 a2 3d
       0.03994063 -0.35355106 -0.20748529 0.07947528
000360 51 d0 d7 bc ae 11 41 be 76 d0 ed 3c 1d 3c 97 3e
       -0.02634445 -0.188544 0.029030066 0.2953805
000370 7d 07 4c be da a0 2f 3d 01 81 5e 3d f3 f0 11 be
       -0.19924732 0.04287801 0.054322246 -0.14252071
000380 d4 55 c9 3e 13 7e df bd af 93 64 3e 41 a6 bd bd
       0.39323294 -0.109127186 0.22321962 -0.09260226
000390 38 24 86 bc 40 29 1a be 66 75 aa bd 0e f5 01 be
       -0.016374692 -0.15054798 -0.08323173 -0.12691137
0003a0 f0 69 72 3e cb 1a b2 bc 67 f5 3d bd 08 32 9c 3c
       0.23673224 -0.021741292 -0.046376612 0.019066826
0003b0 ae b6 90 3e 44 72 c0 3c a4 5f 5c be 66 77 12 3e
       0.28264374 0.023491986 -0.21520859 0.1430336
0003c0 66 0d 61 be ca 7f 32 3e 1a c3 90 be ca 27 33 3e
       -0.21977767 0.1743156 -0.2827385 0.17495647
0003d0 85 79 6f be 6a e7 29 bd a3 88 85 3d 08 ba 40 3e
       -0.233862 -0.04148046 0.06520202 0.18820965
0003e0 f6 30 a0 3c 8d af 24 be 00 33 ba 3d 3f 20 52 be
       0.019554596 -0.16082592 0.09091759 -0.20520113
0003f0 e3 20 57 3d 08 2b 51 3c ef b9 47 be 19 45 6e 3d
       0.052521598 0.012766607 -0.19504522 0.058171365

encoder_lstm.bias_ih_l0 f4 [512]
000000 c5 27 77 3d 7f 5b 8d bd e1 24 b7 3d 33 c6 4f 3e
       0.06034066 -0.06902217 0.08942581 0.20290451
000010 dc 20 f6 3d d9 b3 19 3e 14 2c 42 3e 99 44 74 3e
       0.12017986 0.15010013 0.18962127 0.23854293
000020 b7 7a 5e 3e 1f 25 f4 3d 72 d8 1d 3e 73 fa 92 3e
       0.217265 0.11921143 0.15414599 0.28706703
000030 d3 77 15 3e 6e b5 39 3c d9 e8 ed 3d 19 2a e5 3d
       0.1459649 0.01133476 0.11616678 0.1118967
000040 6f 1b 3c 3d ee 3f 7f 3e 54 24 e1 bc c8 ac d9 3d
       0.0459246 0.24926731 -0.027483143 0.106286585
000050 bc e3 46 bd 14 7d 93 bc 18 d8 e9 3d 72 2b d9 3d
       -0.04855703 -0.018003978 0.1141817 0.1060399
000060 cf 3f 68 bd c4 ef 07 bc 14 14 20 3e a8 72 5e 3e
       -0.056701478 -0.008296911 0.15632659 0.21723425
000070 88 3b b0 3d e2 ab 93 3d 8b 28 ba 3d 34 f8 1e 3e
       0.08605105 0.072105184 0.09089764 0.1552437
000080 69 5d fc 3d e8 43 36 3d 0d 5b 03 3f 21 fb 2b 3e
       0.12322504 0.044498354 0.5131081 0.16795017
000090 5b 0c 8a 3e 82 9f b8 3e 0c c0 39 3e 58 5e e2 3d
       0.2696255 0.36059195 0.18139666 0.11053151
0000a0 57 c7 8a 3c 40 77 15 3e 51 e0 4d 3c 0c 88 82 3d
       0.016940756 0.14596272 0.012565688 0.06373605
0000b0 38 11 92 3d 2c e0 01 3e ec e8 1c 3f 19 c9 c3 3d
       0.071321905 0.12683171 0.6129291 0.09559841
0000c0 45 a5 be bd 8d c0 6f 3e 95 3b 2a 3d c0 2c 7a bb
       -0.093088664 0.23413296 0.041560728 -0.0038173646
0000d0 a2 98 19 3d f9 76 c6 3c 96 e5 87 3e f6 35 a1 3e
       0.037499078 0.024226652 0.26542348 0.3148648
0000e0 d0 8a 77 3e 51 93 33 ba 41 2c 48 bd 1b 93 1f 37
       0.24174047 -0.000685026 -0.04887033 9.511389e-06
0000f0 79 04 d2 3e 5b 76 88 3e d7 36 7e bd 9f eb 75 3d
       0.41019037 0.26652798 -0.062064018 0.06003916
000100 24 58 de 3d 75 ef 3a bd 06 90 8d 3e a0 76 e5 bc
       0.10856655 -0.04563852 0.27648944 -0.028010666
000110 63 87 aa 3c 8c 86 88 bc f3 41 1f 3d ed 31 86 bd
       0.02081651 -0.01666572 0.038881253 -0.06552491
000120 0e c7 1a 3d ab 74 19 3d 59 76 14 3e b3 02 17 3d
       0.03778749 0.03746478 0.14498271 0.03686781
000130 d6 03 d6 3e 29 58 8d 3d fe a4 63 3e 2c 6d 9a bd
       0.41799802 0.06901581 0.22230908 -0.07540354
000140 7e 96 a6 3d 24 bf 09 3e 88 05 c1 b9 a1 91 1f 3e
       0.08134173 0.1345182 -0.0003681595 0.15582897
000150 63 b5 82 3d ec c0 eb 3d 01 25 89 3e 7f f0 01 bd
       0.06382253 0.11511406 0.26786044 -0.031723496
000160 08 48 8e 3e 9c db 76 3d f6 ff 4f 3c ff 8f 06 3e
       0.2778933 0.06026803 0.012695303 0.13140868
000170 3d 45 b9 3d 5b b3 3e 3d 34 a4 c8 3d 71 5a a5 bc
       0.09046409 0.046557765 0.09796944 -0.020184727
000180 cc fc 94 3e 51 0e dd 3e 01 e3 33 3e 51 11 a1 3e
       0.2909912 0.43174985 0.17567064 0.31458524
000190 72 15 44 3e 91 45 fa bb 1a 89 a7 3c 7e 54 de 3e
       0.19148806 -0.0076376875 0.020451117 0.43423837
0001a0 05 fd 58 bd 40 96 86 3e ed bd 44 3e 54 70 31 bd
       -0.052975673 0.26286507 0.19213076 -0.043320015
0001b0 cb 3e d0 3e 81 30 ff 3c 81 68 b6 3e 07 e3 0f 3d
       0.40672907 0.031151058 0.35626605 0.03512862
0001c0 51 0e 79 3e 0b 93 b0 3c e0 98 7e 3e 79 d3 be 3d
       0.24321868 0.02155449 0.24863005 0.09317679
0001d0 34 ea 78 3e c9 c0 e5 3c 53 2c 80 3e bf 44 b6 3d
       0.24308091 0.028046029 0.25033817 0.08899831
0001e0 4b b4 74 bd 08 4d a6 3c 5e 10 db bb 55 ab 99 3b
       -0.059742253 0.020300403 -0.0066853007 0.004689614
0001f0 e2 fb 12 bd 6b a5 bc bc fc c5 05 bc 1e f5 81 3e
       -0.035884745 -0.023028096 -0.008164879 0.25382322
000200 7f 52 8f 3a df 51 86 3c 71 ce 9f bd de 70 25 bd
       0.001093462 0.016396461 -0.078030474 -0.04039084
000210 24 bd 4a bd 24 1b bc bd 42 83 fb bd 56 c3 00 3c
       -0.049496785 -0.09184864 -0.12280895 0.007859072
000220 03 c4 cd 3d 9d ad f3 bd bb 8b 2d bd 16 37 89 bc
       0.10047152 -0.118983485 -0.042369585 -0.0167499
000230 dc 20 cc 3c e8 69 06 be 03 ed 00 3e ef a6 04 3e
       0.024918012 -0.13126338 0.12590413 0.12954305
000240 46 fd 28 bb ff f7 d7 bc 91 3a 9c bd 65 2c a6 bc
       -0.0025785728 -0.026363371 -0.07628358 -0.02028484
000250 87 85 57 3c 6c e9 0d 3d 40 de ae bc b7 4d af 3d
       0.013154394 0.034646437 -0.021346211 0.08559745
000260 99 b3 89 bd 39 e7 73 bc a5 7a 5a bd 1a 16 2d 3c
       -0.06723709 -0.014886671 -0.05333962 0.010564351
000270 c8 9f 19 3d 36 6c 08 bd f4 39 cb bd 59 cc 8f 3e
       0.037505895 -0.033306323 -0.09923163 0.28085592
000280 8c 73 a8 bd 29 49 f7 bd 92 45 eb bd fa 57 01 3e
       -0.08225164 -0.12074501 -0.11487879 0.12631217
000290 8d 96 6c bd ca 60 28 3c 51 8e 1e bd 4d e8 d3 bd
       -0.057760764 0.010276983 -0.038709942 -0.10347042
0002a0 22 cb b0 3d 7d 06 4d be 66 fc 5e 3d 12 72 41 be
       0.086324945 -0.20022006 0.054439925 -0.1889117
0002b0 23 ea b6 bc 37 53 d6 bd e6 dd 23 be 80 5b 89 bd
       -0.022328442 -0.10465091 -0.16002616 -0.06706905
0002c0 c1 9d 9a bd a0 8a 8f bd 5a 06 d1 bc 51 48 49 3d
       -0.075496204 -0.070088625 -0.025515724 0.049141232
0002d0 e1 12 a1 bd 3e 79 f1 bd 1e 14 33 bd f3 eb 06 be
       -0.07864929 -0.11790703 -0.043720357 -0.13175945
0002e0 51 87 e8 bc 83 cb 77 3c db 67 a7 bd 64 54 a9 bd
       -0.028384836 0.015124205 -0.08174106 -0.08268049
0002f0 f1 6e 66 be f0 db 3f be cf 42 8c bd 53 54 8b bc
       -0.22503258 -0.18736243 -0.0684868 -0.017007982
000300 24 e5 0c 3e 25 ae 00 bc 24 0f 04 bd 62 1c 7b bd
       0.13759285 -0.007854019 -0.032241 -0.061306365
000310 aa 45 33 bd 26 86 c9 bd 6b 17 05 3d 77 2f 9c bd
       -0.04376761 -0.0984004 0.032493036 -0.07626241
000320 65 7b 7d 3d 6a d9 7a 3d e7 d2 b4 3c 02 82 04 be
       0.061885256 0.0612425 0.022073222 -0.12940219
000330 03 a6 38 bd d6 05 18 3c 50 ce 86 3d ab d7 17 bc
       -0.045080196 0.009278735 0.0658232 -0.009267728
000340 01 0e a5 3d 99 65 f1 bd a3 8b 30 3d fb 79 83 3b
       0.08059312 -0.11786956 0.043101918 0.004012344
000350 9a 11 3b bd d0 c4 20 3d 0e 25 09 be 34 fa f6 bd
       -0.045671083 0.039250195 -0.13393041 -0.12059441
000360 73 ff d8 bd 3d 68 55 3c a4 b2 8e bd 82 7f 9a 3b
       -0.10595598 0.013025341 -0.06967667 0.004714907
000370 1e 13 99 bc 7b ab c5 bc 53 ee 00 3e 48 8d 3a bc
       -0.018685874 -0.02412962 0.12590913 -0.011386223
000380 09 e2 1b bd 48 bb 76 3d ef 3d 86 3c 45 f0 5e bd
       -0.03805736 0.0602372 0.016386954 -0.054428358
000390 bb 27 b2 3c 8e 6c a8 3c 12 91 85 bc 5a 4a 0e bc
       0.02174746 0.020559575 -0.016304526 -0.008684719
0003a0 8c 74 b1 3c a3 79 7d be 9a 3b a7 bc 4b 26 66 bd
       0.02166202 -0.24753432 -0.020414162 -0.056188863
0003b0 74 02 61 bc a4 75 57 bd 42 e2 b3 3c d7 9c 83 bd
       -0.013733495 -0.052602425 0.021958474 -0.06426399
0003c0 7e 34 9f bd c2 1c 28 be 66 f7 36 bd 69 f1 a6 bd
       -0.07773684 -0.1641722 -0.04466953 -0.08151514
0003d0 88 47 f8 3b 09 dc 3c 3c 2a 7d 2c be 57 85 a9 3d
       0.0075768866 0.01152707 -0.16844621 0.08277386
0003e0 b2 8f 68 3d 09 36 96 bc 52 a0 8e bc a2 b6 bb bd
       0.056777664 -0.018336313 -0.017410431 -0.09165694
0003f0 ef e9 23 3d 77 a2 f5 bd 68 94 f0 3d b8 a7 df bc
       0.04001802 -0.11993878 0.11747056 -0.027301654

encoder_lstm.bias_hh_l0 f4 [512]
000000 24 c9 2b bc c9 50 aa ba ff bb 6d bc b0 82 2f 3e
       -0.010484967 -0.0012994047 -0.014510154 0.17139697
000010 28 23 63 3e dd 78 c6 3d 52 d0 82 3e 22 81 d5 3d
       0.2218138 0.096910216 0.2554956 0.10425021
000020 3e 57 6b 3e 51 68 06 bc 78 35 f5 3b ea 42 71 3e
       0.22982499 -0.008203582 0.0074831806 0.23560682
000030 2d c9 25 3d fd 07 7f 3c 53 13 22 3e 5b e9 f4 3c
       0.04047506 0.015565869 0.15827684 0.029896429
000040 07 99 b5 bd 27 70 85 3e 0f 3f 99 3d 61 91 1c bd
       -0.08867078 0.26062128 0.074827306 -0.03822458
000050 18 44 14 bd 0c 22 92 39 d4 e3 81 3d a0 67 02 bd
       -0.03619775 0.00027872657 0.06342283 -0.031837106
000060 d5 17 8c bd 35 9d d0 3b 70 40 71 3e 58 db 9f 3e
       -0.06840483 0.006366397 0.23559737 0.31222034
000070 16 d4 48 3e 97 fa 43 bc 17 10 07 3e 02 8a 32 3e
       0.19612154 -0.011961601 0.13189732 0.17435458
000080 1f 2a 0e 3e ec 3a f9 3d bf ef e1 3e da dd 34 3e
       0.13883255 0.121694416 0.44128224 0.17662755
000090 36 ba 61 3e 92 fb e0 3e e5 71 85 3e 0d 2d 03 3e
       0.2204369 0.43941933 0.26063457 0.12810154
0000a0 b0 14 d0 bc f7 a2 0d 3e 5b 93 65 bc 79 6d 0b 3e
       -0.02540049 0.13831697 -0.014012183 0.13615979
0000b0 27 1f 81 bc b6 79 fb 3c de fd f7 3e 07 c2 cc 3d
       -0.015761925 0.030697685 0.48435873 0.09997945
0000c0 d3 d1 e5 3c 89 01 95 3e b4 5f 0b 3e a6 ff ad bc
       0.028054154 0.29102734 0.13610727 -0.021240067
0000d0 10 e9 ac 3c f0 9a 45 3d 00 a6 95 3e 06 0a 93 3e
       0.021107227 0.048243463 0.2922821 0.28718585
0000e0 eb 5c 47 3e 1e 61 00 3d d9 0b 3b 3c c6 bb 93 bc
       0.19469039 0.03134262 0.011416399 -0.018033873
0000f0 1d b2 91 3e b8 37 64 3e c9 b8 a4 bb 00 a1 5f 3c
       0.28456202 0.2228688 -0.005026911 0.013649225
000100 63 e1 09 3e 9d f7 a1 3d ed 70 81 3e f2 89 92 bc
       0.13464884 0.079085566 0.25281468 -0.017888043
000110 5d c6 69 3d e8 01 cb 3d fc b3 0c 3e f7 81 8e bb
       0.05707394 0.09912473 0.13740534 -0.004348989
000120 28 5f 56 3e c2 ee 21 3d dc b5 bf 3d 72 f1 03 3e
       0.20934737 0.039534338 0.09360859 0.12885073
000130 5a 91 93 3e af 49 fc bb 35 bb 78 3e cf 5c b1 3d
       0.28821832 -0.0076992135 0.24290164 0.0866028
000140 76 de 60 3c 12 fd 0d 3e 98 b3 08 bd fb a9 db 3d
       0.013724914 0.1386607 -0.0333744 0.107257806
000150 0c 55 8d 3d d9 de 4e 3e e3 72 66 3e 65 50 e0 bd
       0.06900987 0.20202197 0.22504763 -0.10952834
000160 4b 06 32 3e 81 01 f1 3d 10 98 e5 3d c7 a8 8b 3d
       0.17385213 0.11767865 0.11210644 0.06819301
000170 dc 78 27 3e 58 a0 3b 3d 28 fb 83 bc 54 af ed 3c
       0.16354698 0.045807213 -0.016110972 0.029014267
000180 36 a0 6d 3e 42 95 b7 3e 78 60 34 3e 0d 8e 2f 3e
       0.23205647 0.35856062 0.17614925 0.17144032
000190 92 7e 63 3e 72 3c 60 3d 28 5a af 3d 9c bd a8 3e
       0.22216251 0.054745145 0.08562118 0.3295716
0001a0 5d 79 aa bb b0 20 86 3e b0 1b fe 3d 97 a1 13 3d
       -0.005202456 0.26196814 0.12407625 0.036042776
0001b0 f1 bb b0 3e 0a 8e b4 3d 2e 34 e0 3e a4 bb 78 3d
       0.34518388 0.08816154 0.4378981 0.060725823
0001c0 95 3f 9c 3e a5 6f 71 3d 46 8c c2 3e a0 83 23 3d
       0.3051726 0.058944363 0.37997645 0.03992045
0001d0 9d ce e1 3d 92 8e 32 bd 87 4f 43 3e c4 f2 60 3d
       0.110257365 -0.043592997 0.19073306 0.05491902
0001e0 7f 3a 8d bd c7 12 ef 3c aa db 35 3c 0b 4d 12 3e
       -0.06895923 0.029183758 0.011099735 0.14287202
0001f0 5d 54 1c 3c 4f 4c cc bc eb 66 05 3e 97 fc 92 3e
       0.009541598 -0.02493873 0.13027541 0.28708336
000200 12 c9 d3 bd a4 b6 cb bb 9f 6b 1a 3c e8 8b ac 3c
       -0.103410855 -0.006216841 0.009425073 0.021062806
000210 78 9d cf bd 94 7e dc bd 85 9d d8 bc 4c 87 8b bd
       -0.10137457 -0.1076633 -0.026442299 -0.06812915
000220 33 4f 91 3d db a6 b6 bd 00 bb dc bc df b6 8e bd
       0.07095184 -0.08918544 -0.026944637 -0.06968474
000230 bb 09 c2 bd 96 e4 ba bc 9a ed e2 3d 8d 3b b5 3d
       -0.09474512 -0.022814076 0.11080475 0.08849249
000240 ee cb 35 3c 58 3b 15 be 18 7b af bc 50 3e 1a 3d
       0.011095984 -0.14573419 -0.021421 0.037657082
000250 4f 5e 1e bd 61 1d 85 3c 49 dd 5c bd 33 84 66 3d
       -0.03866416 0.01624936 -0.05392197 0.05627842
000260 2d 15 93 bd 70 d1 e2 bc c5 b4 25 3c ad c5 d6 3b
       -0.07181773 -0.027687758 0.0101139 0.0065543265
000270 a5 d0 c2 bc 1a d4 d1 3d 9b df 31 3b 83 13 50 3e
       -0.02378113 0.10245533 0.0027141336 0.20319943
000280 76 9d 58 bc 3c 88 bb bd b8 fe 56 bd db 2a 1a 3e
       -0.013221135 -0.09156844 -0.052489012 0.1505541
000290 98 c8 e1 bd 6d 60 bb 3d 1e ce e4 bd 60 35 bd bc
       -0.11024588 0.09149251 -0.11172126 -0.02309674
0002a0 b7 2e 8f 3d 9e ac 43 be 93 6e 63 bd 78 9c e4 bd
       0.06991332 -0.19108817 -0.055525374 -0.111626565
0002b0 52 56 fd bd a9 45 20 be 4e cb 19 be 0b 57 16 bd
       -0.1236998 -0.15651573 -0.15018961 -0.036704104
0002c0 82 4d 05 be db 87 05 3d 7c 65 31 bd 31 82 8c bc
       -0.13017848 0.032600265 -0.043309674 -0.017151924
0002d0 66 5e a7 bd ff 27 0a bd 0c 11 70 bc d1 01 ac bd
       -0.08172302 -0.03372955 -0.014652502 -0.08398784
0002e0 69 17 2b be 63 a0 7b 3c f8 a8 9b bd 96 c9 ac 3c
       -0.16708149 0.015358063 -0.076005876 0.021092217
0002f0 5f c5 d6 bd 89 b1 03 be 88 ab f7 bc 11 04 c2 bd
       -0.10486864 -0.12860693 -0.03023316 -0.09473432
000300 3b 1d fd 3d 01 83 69 bb df b5 c0 bd 92 b1 a9 bd
       0.12359091 -0.0035631063 -0.09409689 -0.08285822
000310 14 76 38 bd 0c 34 96 3c 51 8a 8d bb c8 a0 a0 bc
       -0.045034483 0.018335365 -0.004319467 -0.019607916
000320 71 4b 40 3e aa 17 22 bd 2c 85 9a bd bd 25 62 bd
       0.18778779 -0.03957335 -0.07544932 -0.05521177
000330 ad 5d b0 3d c6 37 9f bd b9 c0 62 3d 6c 86 69 bd
       0.08611617 -0.0777431 0.055359576 -0.05701296
000340 29 18 95 3d 49 e6 e2 bd 47 ef fb bd c4 44 19 bd
       0.07279999 -0.1107908 -0.12301498 -0.037419096
000350 fc 0f f2 3b 63 24 53 3d 28 ce 8f bd 7f 62 1e 3d
       0.0073871594 0.051548373 -0.07021743 0.038668152
000360 41 8f 6f bd 58 f6 95 bb af ac c9 bd 7f f6 4a bd
       -0.058486227 -0.0045764856 -0.0984739 -0.049551483
000370 32 9c d5 3c 2b eb 28 3c 74 55 fe 3d b6 35 8d bd
       0.026075456 0.010309975 0.12418643 -0.0689501
000380 71 6d 31 bd 09 18 40 bd 1c 2c 17 bd 92 b7 42 3d
       -0.043317262 -0.04689792 -0.0369073 0.047538348
000390 8b cf c6 3d 0a 7a 23 bc b6 83 f0 3b 78 65 0b be
       0.097075544 -0.009977827 0.00733992 -0.13612926
0003a0 39 d5 9c bd 39 f9 4e be 0e 99 c3 3d d2 44 3c 3c
       -0.076578565 -0.20212258 0.09550677 0.011491017
0003b0 0d 3c cc bd 39 64 d2 bd ea 30 2b bd a1 d1 9b 3c
       -0.09972391 -0.10273022 -0.041794695 0.019020857
0003c0 28 60 94 bd 11 da a8 bd 8d 09 30 bd 18 98 5a bd
       -0.07244903 -0.08244718 -0.04297786 -0.053367704
0003d0 79 ec 85 3d ff 2b cc bd e7 42 b1 bd 25 a6 9f bd
       0.06539244 -0.09969329 -0.08655339 -0.077953614
0003e0 4a 83 1f bc d2 9f da 3d 8b 83 8a bd 7f 9c 27 bb
       -0.009735892 0.106750146 -0.06763371 -0.0025575457
0003f0 a1 39 9a bd f4 27 31 3d 06 5f cb 3d 75 53 b1 3b
       -0.07530523 0.043250993 0.09930234 0.00541156

encoder_attn.weight f4 [1, 276]
000000 f0 d2 8e bb c4 17 19 bd 4a ce 5f 3b e0 43 35 bc
       -0.004358642 -0.03737618 0.0034150057 -0.011063546
000010 9a 35 31 3d b9 09 4b 3b e9 0d f9 bc c2 48 5b bd
       0.04326401 0.0030981137 -0.03040214 -0.053536184
000020 f7 56 4a 3d e1 0d 11 bd 44 c7 08 bd fe 9f 1a 3c
       0.049399342 -0.035413627 -0.03339316 0.009437559
000030 4e cf f2 bc a3 fb a3 3c 31 e0 0e bb 49 df 6f bd
       -0.029639866 0.02001745 -0.002180111 -0.05856255
000040 d1 a2 4f 3d 82 18 47 bc 49 db 1b 3d bf a4 6a bd
       0.050692383 -0.012151839 0.038050923 -0.05728602
000050 3d 03 b3 bc ee d1 1f 3d 15 f3 37 3d 09 08 01 bd
       -0.02185213 0.039018564 0.044909555 -0.031501804
000060 30 93 32 bd aa a0 e1 3b 0d 51 72 3b d9 8a 03 bd
       -0.0435974 0.0068856077 0.003697458 -0.032114837
000070 e6 28 aa bb b7 69 51 3d c0 56 b2 ba 98 7d 18 3d
       -0.0051928638 0.05112621 -0.0013606176 0.03722915
000080 de 29 38 3d 66 eb cf 3c 3a e1 38 3d 29 a4 46 b9
       0.044961803 0.025380801 0.045136668 -0.00018943906
000090 7b b0 3b bd a1 14 3e 3d 10 91 9c 3c 7e 1a 45 3d
       -0.0458226 0.046406392 0.01911214 0.048120968
0000a0 87 0e 9e bc b6 eb 55 bd c0 3b a6 bc e8 84 e9 3c
       -0.019294037 -0.052226745 -0.020292163 0.028505757
0000b0 a7 01 73 3d 61 1b 00 bd 72 42 3b 3d 33 87 19 bd
       0.059327748 -0.03127611 0.045717664 -0.03748245
0000c0 31 60 42 3d 30 38 12 3d 33 96 7b bc 4d 5d d3 bb
       0.047455017 0.035698116 -0.0153556345 -0.0064503313
0000d0 3d f2 4e 3d fe a2 6c 3c 4d 8a dc bc 1d bf 2b bc
       0.050523985 0.014443157 -0.026921416 -0.010482577
0000e0 91 14 29 3c 9d 10 9c bc b1 db 2a 3d 91 7a 61 3d
       0.010319845 -0.01905089 0.04171342 0.05504853
0000f0 51 e3 b5 3c 31 d0 b7 bb 7c a3 28 bd d1 7a 5d 3b
       0.02220312 -0.005609535 -0.041171536 0.0033795128
000100 fa 7f 0b bc 60 44 ba 3c 31 06 ee bc d4 7b b4 3c
       -0.008514399 0.022737682 -0.029055687 0.022031702
000110 ac cc 18 3d 35 98 4d bd 43 4f 62 b8 ca fd 54 3a
       0.037304565 -0.050193984 -5.3956417e-05 0.0008124976
000120 fa 0e ad bc 9a b8 95 bc 6b 5c 73 3d 50 8b e2 3b
       -0.021125305 -0.018276501 0.05941431 0.00691358
000130 11 28 be bc fd 57 90 bc 18 c1 51 3d 62 38 25 39
       -0.023212465 -0.017620081 0.05120954 0.0001575663
000140 87 af 9e bc 8c 02 1f 3c aa 6c 2e bd 3a 5b 59 bd
       -0.019370807 0.009705197 -0.0425841 -0.053065516
000150 42 f6 9e bc 5e ac 4c 3d be b4 61 bd 99 7b ed 3b
       -0.019404534 0.04996907 -0.05510401 0.0072474
000160 3b f4 19 bd 84 81 34 bd 97 1f 13 3c 0d 61 27 bd
       -0.037586432 -0.04406883 0.0089797 -0.04086404
000170 99 0c c8 bc 1a 0e 3e 3d 46 48 d1 bb 45 81 41 bd
       -0.02442007 0.046400167 -0.0063867895 -0.04724242
000180 7a 6b a3 bb b2 d2 47 3d 43 9a f5 bc 43 73 9d bc
       -0.0049871774 0.04878492 -0.029980784 -0.01922
000190 1d b9 3d bd 8b 3a 4c bd 76 2d 37 bd 50 91 27 bd
       -0.046319116 -0.04986052 -0.04472109 -0.040910065
0001a0 8a 51 2b bd 79 e7 bf 3a d6 65 93 3c cf f2 09 3d
       -0.04182581 0.0014641128 0.017992895 0.033678826
0001b0 5c 9a 1e 3d ec 9a 37 3b d5 bc 52 3c 2d b1 39 bd
       0.038721427 0.0028015925 0.012862404 -0.045334984
0001c0 14 13 cf 3c d9 47 dc bc 40 b5 2b bd 07 91 17 3d
       0.025277652 -0.026889728 -0.0419209 0.037003543
0001d0 d4 52 5b bc 38 c6 58 3d 1f db e3 3b 47 6a 2c bd
       -0.013386447 0.05292341 0.0069536115 -0.04209354
0001e0 c9 f6 06 bd 39 57 9e bc 88 a8 e0 bc 02 b9 57 bd
       -0.032950196 -0.0193287 -0.027424112 -0.05266667
0001f0 ca cc fc 3c fa e0 8a bb f0 a3 6c 3c 01 20 d4 3a
       0.03085937 -0.004238245 0.014443383 0.0016183854
000200 3b 9c 0b bd ce f2 66 3c af 07 76 3d 9d 23 ce bb
       -0.03408454 0.014095975 0.06006592 -0.0062908665
000210 bb ec ea 3c 6f 41 56 bc a6 41 ae 3c c1 f7 65 bc
       0.028677335 -0.013077124 0.021271538 -0.01403612
000220 b9 db a3 bc 34 1c 76 bd ca 3a 5d bb d0 ab 4f 3d
       -0.020002233 -0.06008549 -0.0033756965 0.050700963
000230 60 99 00 bd 4e 6f ec bc fc 57 d7 bc f3 99 f2 3b
       -0.03139627 -0.028861668 -0.026287071 0.007403606
000240 41 bf 43 3c 37 c1 77 3c 8d 29 d3 bb 9a 55 3a 3d
       0.011947454 0.01512175 -0.006444162 0.045491792
000250 5c ae 7e 3c d3 f4 34 bc a2 5d 65 bc 24 89 90 3b
       0.0155445 -0.011044699 -0.013999375 0.0044108797
000260 00 17 38 bc 87 c9 44 bc 60 20 69 3d b0 c0 8b 3c
       -0.011235952 -0.0120109385 0.05691564 0.017059654
000270 50 4c 08 bb 6b a9 04 3d 32 10 38 3d dd 7b 2e bb
       -0.002079744 0.032388132 0.04493732 -0.0026624121
000280 ef f8 b1 bb 9a bf 08 bd 37 90 84 bc 66 ba 1a 3d
       -0.0054312865 -0.03338585 -0.016182048 0.03777542
000290 fe 1b 65 bd da 1a f2 3c 99 46 20 3d 7a 0e 66 bd
       -0.0559349 0.02955382 0.039129827 -0.05616615
0002a0 bc 17 14 3d 6d 1c 77 bc 5d 21 39 3d cf 2c 18 bd
       0.036155447 -0.015082461 0.045197833 -0.037152108
0002b0 49 82 8f bc 5f 3f 34 bc 24 54 43 bd 1f 3d 6b 3d
       -0.01751818 -0.011001437 -0.047687665 0.057431336
0002c0 28 6e 04 3c 0f 99 32 3d 41 fe 2f 3d 06 67 bf 3c
       0.008082904 0.043603 0.042967085 0.023364555
0002d0 8e af 41 3d 75 b7 41 bb 6f a0 72 bd cf ca 5a bc
       0.047286563 -0.0029558812 -0.059235033 -0.013354017
0002e0 47 53 3d bc 7f 94 95 3c 5e 53 fe 3b 23 15 29 3d
       -0.011555499 0.018259285 0.007761403 0.041279923
0002f0 c2 e1 38 bd 56 a2 70 bd 88 56 0a 3d 5e 86 3a bd
       -0.045137174 -0.058748566 0.03377393 -0.0455383
000300 ba 1c e6 3c 8a 7b 20 37 f9 0d b8 bc 62 88 fb 3c
       0.02808987 9.565507e-06 -0.0224676 0.03070468
000310 4c fa 33 3d a9 ba 4d bc cb cb 59 3d 16 8c 5b bc
       0.043939874 -0.01255671 0.053172868 -0.013400098
000320 b5 59 2e 3d c3 f9 4e bd 85 71 22 3d c8 09 57 3d
       0.04256602 -0.05053116 0.039659042 0.052499563
000330 a5 a6 4f 3c eb fc 14 bd 5a d6 70 bd bb e1 6a 3d
       0.0126740085 -0.036374014 -0.05879817 0.05734418
000340 70 d3 67 3d ef 02 b4 bc 6d 6a b3 3c ed 0c 2d bc
       0.056598127 -0.021974055 0.021901334 -0.010562164
000350 4e bc 26 3d ab 35 23 3d ce 4f 53 3d e4 6b 64 3d
       0.040706925 0.039846104 0.05158978 0.055766955
000360 ad a7 30 3d 68 85 d2 3b 8d 15 1a bc f0 97 6d bd
       0.043128658 0.0064245947 -0.009404552 -0.058006227
000370 f7 9e af bb 00 a3 20 3d a5 b1 29 bd 72 31 25 bc
       -0.0053595263 0.03921795 -0.04142918 -0.010082589
000380 1e 9e 14 bd dd f8 25 3d 18 73 81 bc ef bb 80 3c
       -0.036283605 0.040520538 -0.015801951 0.015714614
000390 4f 77 b7 bc 7e 6a c2 ba 95 51 34 bd 05 a9 07 bd
       -0.022395758 -0.0014832763 -0.044023115 -0.033120174
0003a0 ad 4d 5e bd 0d a6 44 3d d6 cb 45 3c 3c 95 4e bb
       -0.054273296 0.04800992 0.012072524 -0.0031522056
0003b0 fe 54 71 3c d0 37 0d bd bc 2a 2c 3c 8a 20 2c bd
       0.014729736 -0.034477055 0.010508236 -0.04202322
0003c0 10 2a 11 3c 65 18 85 3c a5 69 e6 3c 67 ee b6 bc
       0.008860126 0.016246984 0.028126547 -0.022330476
0003d0 b1 1b a6 3c 0e 57 e2 3c 7e e7 35 3d a2 89 6e bb
       0.020276876 0.027629402 0.04441022 -0.0036397954
0003e0 c1 3e 3f bd 56 9a 87 3c 15 0d df bc ba 00 aa bc
       -0.046690706 0.016553085 -0.027227918 -0.0207523
0003f0 ec cd 39 bc 45 e3 52 bc c8 48 1e 3d 47 e0 de bc
       -0.0113405995 -0.012871568 0.03864363 -0.027206553

exp_avg f4 [7, 7]
000000 00 00 00 00 00 00 00 00 00 00 00 00 00 00 00 00
       0.0 0.0 0.0 0.0
000010 00 00 00 00 00 00 00 00 00 00 00 00 00 00 00 00
       0.0 0.0 0.0 0.0
000020 04 00 00 00 00 00 00 00 00 00 00 00 00 00 00 00
       6e-45 0.0 0.0 0.0
000030 00 00 00 00 00 00 00 00 00 00 00 00 00 00 00 00
       0.0 0.0 0.0 0.0
000040 00 00 00 00 00 00 00 00 00 00 00 00 00 00 00 00
       0.0 0.0 0.0 0.0
000050 00 00 00 00 00 00 00 00 00 00 00 00 00 00 00 00
       0.0 0.0 0.0 0.0
000060 1b 20 7e 31 00 00 00 00 00 00 00 00 00 00 00 00
       3.6980115e-09 0.0 0.0 0.0
000070 00 00 00 00 00 00 00 00 00 00 00 00 00 00 00 00
       0.0 0.0 0.0 0.0
000080 f8 89 17 b4 00 00 00 00 00 00 00 00 00 00 00 00
       -1.4113164e-07 0.0 0.0 0.0
000090 00 00 00 00 00 00 00 00 00 00 00 00 00 00 00 00
       0.0 0.0 0.0 0.0
0000a0 7d 4e ed b3 00 00 00 00 00 00 00 00 00 00 00 00
       -1.10504494e-07 0.0 0.0 0.0
0000b0 00 00 00 00 00 00 00 00 00 00 00 00 00 00 00 00
       0.0 0.0 0.0 0.0
0000c0 00 00 00 00
       0.0

exp_avg_sq f4 [7, 7]
000000 00 00 00 00 00 00 00 00 00 00 00 00 00 00 00 00
       0.0 0.0 0.0 0.0
000010 00 00 00 00 00 00 00 00 00 00 00 00 00 00 00 00
       0.0 0.0 0.0 0.0
000020 80 97 09 20 00 00 00 00 00 00 00 00 00 00 00 00
       1.1654479e-19 0.0 0.0 0.0
000030 00 00 00 00 00 00 00 00 00 00 00 00 00 00 00 00
       0.0 0.0 0.0 0.0
000040 00 00 00 00 00 00 00 00 00 00 00 00 00 00 00 00
       0.0 0.0 0.0 0.0
000050 00 00 00 00 00 00 00 00 00 00 00 00 00 00 00 00
       0.0 0.0 0.0 0.0
000060 00 32 c9 26 00 00 00 00 00 00 00 00 00 00 00 00
       1.3960729e-15 0.0 0.0 0.0
000070 00 00 00 00 00 00 00 00 00 00 00 00 00 00 00 00
       0.0 0.0 0.0 0.0
000080 32 3d db 2a 00 00 00 00 00 00 00 00 00 00 00 00
       3.8944678e-13 0.0 0.0 0.0
000090 00 00 00 00 00 00 00 00 00 00 00 00 00 00 00 00
       0.0 0.0 0.0 0.0
0000a0 a9 6a 44 2c 00 00 00 00 00 00 00 00 00 00 00 00
       2.7912484e-12 0.0 0.0 0.0
0000b0 00 00 00 00 00 00 00 00 00 00 00 00 00 00 00 00
       0.0 0.0 0.0 0.0
0000c0 00 00 00 00
       0.0

exp_avg f4 [7]
000000 00 00 00 00 db 16 e1 b3 00 00 00 00 2d f9 94 31
       0.0 -1.0481536e-07 0.0 4.335695e-09
000010 5f 6c 11 b4 80 1f 2a b3 00 00 00 00
       -1.3543603e-07 -3.960986e-08 0.0

exp_avg_sq f4 [7]
000000 00 00 00 00 cb 77 c6 2b 00 00 00 00 47 da d8 26
       0.0 1.4101995e-12 0.0 1.5047175e-15
000010 7f 08 a4 2a 04 53 40 2c 00 00 00 00
       2.9138148e-13 2.7330924e-12 0.0
